model/ppo_model_10_50_40_RL.pth (torch, 270826 bytes, 18 tensors)

linear.1.weight f4 [64, 30]
00000000: 40ac ce3d 4f20 b73d 0931 3abe 1670 653d
00000010: 6c16 0d3d 2c78 cdbd 1aed 573c f38c 16bd
00000020: e949 0a3e 93d4 7e3d 3c04 293d d2a0 b43d
00000030: 6193 3f3d 6046 89bd e677 4abe 840d cdba
00000040: bf45 1cbd eba3 75bd cbfa bbbd 9f1c 693d
00000050: d06a 38be 8e49 103e 2c72 e3bd 807c d73d
00000060: b029 563d 6687 3a3e fb91 29bd eef3 db3d
00000070: 45dd 343d 5b07 26be 99d4 393e ba6e 26bd
00000080: 9a6e 533e 8a69 f9bd 04d4 833d 3bda 7f3d
00000090: a105 98bb cfb5 a6bd 131d 89bd 342b 4e3d
000000a0: 27ea d4bc 53cb 3c3d 0e23 32bc d88b 063e
000000b0: 2d5a b13c f05d 4abe 4ac8 14be c46c 673d
000000c0: f24e 223e a4c3 2dbd 0fac 67bd ba22 6c3d
000000d0: 5772 ed3c 73b3 18be 2989 a5bb 2d32 92bd
000000e0: fac7 4e3b c69f 5f3d a8c5 e8bd 49eb 153b
000000f0: b2f2 e53d be55 0d3e 2f7f 5bbd 046a 26be
00000100: e4a8 903d cd79 b6bd 1606 433d cf08 2dbe
00000110: 2945 443d def2 493d 9ccf b43d 380e 0e3e
00000120: 6fef 05bd 5506 ad3c f8bb 19be 7e42 14be
00000130: 982c ec3d 9ab8 fdbd 009d 16be 4e44 903d
00000140: e1c5 97bd 049b adbb 20f9 0fbe 8048 9d3c
00000150: 6402 09be b0cd 113d 0e30 b5bd adbc ba3b
00000160: 34a2 3abc 18f0 933c bd7a 593e f970 3c3e
00000170: abff 66bc 5ae9 1f3e d9d6 353c 6e46 88bd
00000180: 54b6 3cbe d594 8cbd 8193 323e f242 253d
00000190: 0d69 873d 2110 2cbe b61f f5bd 30c3 4a3e
000001a0: 743b 05be d080 bebd 9bc6 02bd 1044 9cbd
000001b0: 5e9b 1fbe 8c9d 163e a83a 8e3d 7414 3b3e
000001c0: 519e aa3a 9897 a7bd e9b8 303c 203f 38bc
000001d0: 7e3b fb3d a67d c13b 17f5 043e fb3a 223e
000001e0: 9372 96bd dc99 273e eaf4 cfbd d427 a43d
000001f0: cd68 e63d 3083 d73d e369 d03d 0cd0 7ebd
00000200: f08b 54bd c38a 2b3e 016d acbc 990c 153e
00000210: 8da1 dbbd 79da 8dbd ac2c 353c dd30 c43d
00000220: 06fb 1a3e 95dd 7e3c f50e b43d e07e e23c
00000230: 0add 9b3d c871 43bd 1734 22be 7687 77bd
00000240: 8d2f 8fbd c5fa a7bc 7ee4 0d3e 7499 9c3d
00000250: 514c 133e 352e 073c 2f2f cf3c d1aa aabd
00000260: 5ca7 e7bd 6500 053e ac38 02be ffc1 d8bd
00000270: 3c18 0ebe c6a1 083d a2fa 64bd 48ab af3d
00000280: 5de2 81bd df59 963d 289a 0c3d 4a9f 9fbd
00000290: af9d 51be 4b54 3f3e af4c b83d 5a79 10be
000002a0: 7f4a 393e 6013 a1bd 5aaa 323d 7aff 18bc
000002b0: b90a f9bd 9820 413e a2ba 04bd 9275 d23c
000002c0: 3505 5abd ebfb bf3c fb8f 1e3e d212 333e
000002d0: f25e d4bd 7e35 ecbd 68b8 d6bd b60c cf3d
000002e0: 1fbd 3ebd 78aa 0e3e 22ed 643d fc8a 103e
000002f0: 1868 103e 5789 16bd 78d3 e63d 9059 7abd
00000300: 68d5 383e dfef 10be 1121 0d3e 68fe 253d
00000310: 315c cdbc c812 a8bd 90f7 05be e50b 01be
00000320: fed3 053e 92d9 dfbd 8005 463d 86f1 573d
00000330: ac0e 50bd 3b74 fa3c 6171 273d a728 a83d
00000340: ca38 90bc b03f 8a3d 792a a83d 5d9e 3dbe
00000350: f0e0 cdbd 14c7 33be 43bd 05be ee88 b93d
00000360: d25d 64bd 1cf6 16be b22b 05bd 54c9 243e
00000370: ea8a 2ebe 06c6 bf3d ab0e 04bd 9c83 b63d
00000380: 8b05 e73d c2eb e13d 98d9 613a 01ed 4fbe
00000390: 3eca 11be 3a5f b33d 2eec 16be 78a1 e0bd
000003a0: 2b94 17be f9be 08be 0c39 0bbe bd63 0f3e
000003b0: d8e3 ffbd 4117 dbbd d741 fabd 54c8 b73d
000003c0: 31da 15be bdaf 44bd 1d61 b2bb 2545 533e
000003d0: a49f 0ebd 4364 3cbc 185a 023d ec67 503e
000003e0: 9846 a43d a1cd bc3d cbed 66bd 543c 66bd
000003f0: ca85 483c ad8c 8b3c 1b15 50bc 6a9d 5ebd
0.10091448 0.08941709 -0.18182768 0.056015097 0.03444521 -0.100326866 0.013179088 -0.036755513
0.13504757 0.062214445 0.041263804 0.088197365 0.04677141 -0.06702876 -0.197723 -0.0015644287
-0.038152453 -0.059970777 -0.09178694 0.05691206 -0.18009496 0.14090559 -0.11105761 0.10521793
0.05228585 0.18215713 -0.041398983 0.10739885 0.04415633 -0.16213743 0.18147506 -0.04063294
0.2064766 -0.12178333 0.06436923 0.06246398 -0.004639343 -0.08140146 -0.066949986 0.05033417
-0.025990559 0.046092343 -0.0108726155 0.13139284 0.021649444 -0.19762397 -0.14529529 0.05650021
0.15850428 -0.042422906 -0.056560572 0.057650305 0.028985186 -0.14912204 -0.005051751 -0.071384765
0.00315523 0.05459573 -0.11365825 0.0022875837 0.11227931 0.1380224 -0.05358809 -0.16251379
0.07063463 -0.089099504 0.047613226 -0.16897891 0.04791752 0.04930388 0.08828661 0.13872612
-0.032699045 0.021121183 -0.1501311 -0.1447849 0.11531943 -0.123887256 -0.14708328 0.07044278
-0.07410789 -0.0052980203 -0.14059877 0.01919961 -0.13379818 0.03559655 -0.08847056 0.0056987614
-0.011391211 0.018058822 0.21238227 0.1840247 -0.014099042 0.1561636 0.011098587 -0.066540584
-0.18428928 -0.06864325 0.17439081 0.040347047 0.06611834 -0.16803028 -0.11968939 0.1980102
-0.13010961 -0.09301913 -0.031927686 -0.076301694 -0.15586612 0.14708537 0.069447815 0.18269521
0.0013017153 -0.08183211 0.0107862735 -0.011245519 0.122672066 0.005904871 0.1298412 0.15842812
-0.07346072 0.16367286 -0.101541355 0.08015409 0.11250458 0.10523069 0.10176446 -0.062210128
-0.051891267 0.16752152 -0.02104807 0.14555587 -0.10724173 -0.06926436 0.011058014 0.095796324
0.1513482 0.015555759 0.08791915 0.02764839 0.07610519 -0.047715932 -0.15840183 -0.06043192
-0.069914915 -0.020505318 0.13856694 0.07646456 0.14384581 0.008250763 0.025291054 -0.08333362
-0.11311218 0.12988432 -0.12716931 -0.10583877 -0.13876432 0.033357404 -0.055903085 0.08577591
-0.063420035 0.0734136 0.034326702 -0.07794054 -0.20470308 0.18684499 0.08999001 -0.14108792
0.18094824 -0.078650236 0.04361949 -0.009338254 -0.12160248 0.1886009 -0.03240455 0.025690828
-0.053227622 0.023435554 0.15484612 0.17487648 -0.10369672 -0.1153364 -0.104843915 0.10109846
-0.04656708 0.13932216 0.05589021 0.14115518 0.14102209 -0.03675207 0.11270803 -0.06112057
0.18050158 -0.14154004 0.13782145 0.040525824 -0.025068374 -0.08206707 -0.13082719 -0.12602194
0.1306915 -0.1093017 0.04834509 0.05272057 -0.050795242 0.030573001 0.04087961 0.08210879
-0.017605204 0.06750429 0.08211226 -0.18517442 -0.10052669 -0.17556411 -0.13060479 0.090593204
-0.055753537 -0.14742321 -0.032512374 0.16092426 -0.17045179 0.09363942 -0.03224055 0.08911821
0.11280354 0.11031295 0.0008615493 -0.20305254 -0.14237306 0.087583974 -0.14738533 -0.10968298
-0.14802615 -0.133541 -0.1359598 0.14002891 -0.124946296 -0.10697795 -0.12219589 0.089737564
-0.14634015 -0.04801916 -0.0054437057 0.20631845 -0.034820214 -0.011498514 0.0318242 0.20352143
0.08021277 0.09218908 -0.05637912 -0.056209877 0.012238929 0.017034853 -0.012700344 -0.05434934

linear.1.bias f4 [64]
00000000: ac37 be3c 3b4d 563e a339 d0bd 43d4 083e
00000010: a71c a4bc d82f 98bd f2e9 c53d ee37 923c
00000020: 22d0 733d 6e7d 4ebc 2291 5ebd b14c a03d
00000030: 6100 473e 69d0 003e 2cf3 853c 06c5 c23d
00000040: 78fc 13be e5fb 553e 9340 313d 7691 2a3e
00000050: a64b 23be 0c03 0c3e a8b4 313d abff d3bd
00000060: 3f20 9c3d 62d5 3abd 08f2 313d 7ce2 ef3d
00000070: 9dfe 1f3e f41b 1d3d 353d 663d 2835 1ebc
00000080: 7b2c 22be 23a6 063e cb41 edbd 3c55 14be
00000090: b010 283d 6a08 823d 3189 dcbd 69b4 d63c
000000a0: af5b f9bc 3f1e 81bd 5053 093e 28c3 443e
000000b0: e0e3 20be 06b7 49be 571c 4e3d 1410 0a3e
000000c0: 0fc0 f9bc 94fc f83d 1671 183e f371 4abd
000000d0: 3a4b b9bd 5f59 2e3e 7b4d 473e 7c13 3e3d
000000e0: d3d4 483b 10d0 093c 419f b1bc c621 213b
000000f0: abf6 9e3c 8f94 cb3d b201 303e 9b35 fa3d
0.023219906 0.20927899 -0.10167243 0.13362221 -0.020033194 -0.074310005 0.09663762 0.017848935
0.059524663 -0.012603147 -0.05433763 0.07827128 0.19433738 0.12579502 0.016351305 0.095102355
-0.14451778 0.20896871 0.043274473 0.16657051 -0.15946826 0.13673037 0.043385178 -0.10351499
0.07623338 -0.045613654 0.04344371 0.1171312 0.15624471 0.038356736 0.056210715 -0.009656228
-0.1583728 0.13149314 -0.11584815 -0.1448564 0.04103154 0.06349261 -0.10768355 0.026209073
-0.030439226 -0.06304597 0.13410687 0.19215071 -0.15711927 -0.19698724 0.050319996 0.13482696
-0.030487088 0.121575505 0.14886889 -0.049425077 -0.090475515 0.1702628 0.1946315 0.0464053
0.0030644431 0.008411422 -0.021682383 0.002458678 0.01940473 0.09940445 0.17188147 0.12217256

linear.3.weight f4 [128, 64]
00000000: b1ff babd 1bfc a5bd 5f8e 96bd a258 5bbd
00000010: 236e 373d a0f6 823d 2490 dd39 fc53 983d
00000020: 24f2 6bbd 3ad4 43be 9064 923d 5b3a 6bbd
00000030: fe3f 00be 0e55 033e 579e 743c 39a0 1abc
00000040: f1ee 0e3d beb1 bbbd fd8c bcbd 896b 553c
00000050: 6e14 c33a 8d6e 0ebe e08f 16bd 3da0 2abb
00000060: 041e bbbd ac51 023c c514 c2bd 5f9b dfbc
00000070: 27db 7a3d 16d7 14bd f965 193e d9cd 54bd
00000080: 981f b1bd 4e38 7cbc 9d9c a73d 2d70 7b3d
00000090: 6f49 943d 03b2 bcbd 9414 eebd 76b5 23bd
000000a0: 1c29 b4bc 9241 7dbc 10ba c4bd 0581 dd3c
000000b0: 886c 003e f814 c33d 2d49 b63d 1634 f73d
000000c0: a413 403c 6bbb 503b 577d f3bc d161 c03c
000000d0: 8642 b3bd 96b6 b43d 6fc0 e1bc 6399 1f3e
000000e0: 0ecf 053d d132 fe3d ce07 df3d be57 213e
000000f0: 9790 57be f3cb 0fbc 3a84 9fbc 089a 453d
00000100: 3a6d 6c3d df27 b2bd f8f4 063e 355d 093e
00000110: 8d50 083e ce10 1cbd 0daa 1bbd c41d 44bd
00000120: 7aac 54bb 5187 f3bc 621c c93c 966d eb3d
00000130: aeca 8fbd 2dba 153c 1a66 0fbe a3a9 76bd
00000140: bb21 8dbd 2875 163e ed2d 0a3c 23fa 5c3d
00000150: c9af 9ebd 8bf6 d3bd feda 19bd dc55 d63c
00000160: afc7 183d de29 98bd cc5c 2f3e 8629 41bd
00000170: 7ccc 183d 4be8 2c3d 502a f13c 53c9 c03d
00000180: 5acb 94bd 01ce 97bd 4410 a03d 1f58 8fbd
00000190: 5668 09bd ac04 abbd 19c3 fe3d 5c5b f13d
000001a0: f2e6 543c 78e9 b2bd 835b cabd 1561 71bd
000001b0: 4cb1 a43d 8c4e 573d 27b8 a83d fe57 d53d
000001c0: 44dc 003d f35b f43d 4866 14bc 438e cebc
000001d0: cdf7 d33d 1a59 d03d 6893 83bd a3d9 c8bd
000001e0: 4ede 0d3d 627b f03d 00e0 06be 7df6 043c
000001f0: 9808 a8bd d8c1 913c 7283 44bd 7aec 863d
00000200: 1b33 01bd b416 82bd dbf3 1ebd b324 d13a
00000210: ff51 b03c e536 163e 9880 4b3d 0d37 e73d
00000220: e32f 6c3e 6c80 f73b 64c6 213c 7c83 9ebd
00000230: 9e28 303c a2b0 343c 5f2a 0dbe 1c76 9e3c
00000240: e5f5 933d 2774 86bd 3739 c4bd ed20 b03d
00000250: 530e ba3d c9b6 dabc ce91 143d 8574 fc3d
00000260: c3e4 eb3d f846 87bd 9199 0bbe 2b47 6ebe
00000270: 7f4e 163e 243d b5bd 06fb 013e 6f41 12bd
00000280: de7c 963d 6b00 483d 3933 403e 1d20 a63d
00000290: cb45 a13d 86b3 0bbe 7f5a c33c 319c 0a3e
000002a0: fb8e 44bd 1dc6 1a3e 179b 043e e1d9 01bd
000002b0: 97ba d7bd f13e a6bd 42f6 a1bc 6582 103e
000002c0: a4e1 aabd e277 7fbc 127e 1dbe 2720 60bb
000002d0: 71c7 1d3e 1671 5bbc f9b0 26bb c346 be3d
000002e0: 6c0d debd 9800 89bd 4195 cb3d 8792 ad3d
000002f0: 8972 b73b dec5 2c3e 4847 753d e621 0cbd
00000300: b62f aa3c 959e a2bc ca42 ecbc d6a0 49bd
00000310: 84fb 473b 8984 7cbc 5875 e5bc 638d c2bd
00000320: 33e0 99bd 21de 85bd 7199 ac3d aa40 1dbd
00000330: bf12 2cbd 0f5c 67bd 8b98 8c3d cb05 e0bd
00000340: 8496 213d 5502 913d 57e0 013e 0f12 693d
00000350: a87e 96bd 9846 91bd 886b a4bd c19d 033d
00000360: da92 54bd f873 053e 7591 97bd d40f 313e
00000370: c4f9 b53d 6e8b bcbd 8199 323c c9de a6bd
00000380: 3d12 e13d 1c82 c83c e6ac 12be bb68 b1bc
00000390: a98f 803c 8e0e fc3d 2b3b bfbd c369 c7bd
000003a0: f470 d1bc 6d8f a1bd 78dd e23c d4a1 a6bd
000003b0: e15c f8bd a2cb d03d 0d84 b63d 3a3e e03c
000003c0: 3e32 ef3d a7c2 c5bd c56b acbc 1e3a d5bd
000003d0: 87db 243d 229a 1ebe 83b4 c23d 7afc 0a3d
000003e0: 23a2 933d 7040 c2bd 68b9 093e 93c9 31bd
000003f0: 6de7 24bb 8e16 9a3d 2d5f 713d 7b82 e23d
-0.091308005 -0.08104726 -0.07351374 -0.053551324 0.04478277 0.06394696 0.00042259798 0.07437894
-0.05760397 -0.19123927 0.07148087 -0.0574287 -0.12524411 0.12825415 0.014930329 -0.009437614
0.03489584 -0.09164761 -0.09206579 0.013026127 0.0014883408 -0.1390936 -0.036758304 -0.002603545
-0.091365844 0.007954042 -0.09476618 -0.027295766 0.061244156 -0.036337934 0.14980306 -0.051954124
-0.08648604 -0.015394283 0.081841685 0.061386276 0.07240569 -0.092136405 -0.11625019 -0.039967977
-0.021992259 -0.015457528 -0.09605801 0.02703906 0.12541401 0.09525484 0.08900676 0.120704815
0.011723433 0.003184999 -0.029722853 0.023484142 -0.08752923 0.08823888 -0.02755758 0.15585856
0.032668166 0.12412036 0.108901605 0.15756127 -0.2105125 -0.008776653 -0.01947223 0.0482426
0.057721354 -0.08699011 0.13179386 0.13414462 0.13311978 -0.038101964 -0.03800397 -0.04787995
-0.0032451437 -0.02972761 0.024549667 0.11495511 -0.0702108 0.009138626 -0.14003792 -0.060220372
-0.06891199 0.14693129 0.008433801 0.053949486 -0.07748372 -0.10349759 -0.037562363 0.026163988
0.037299808 -0.074298605 0.17125243 -0.04715874 0.037304386 0.04221372 0.029439121 0.094133995
-0.07265349 -0.07412339 0.078156024 -0.0699923 -0.033546768 -0.083505005 0.12439556 0.117850035
0.012994515 -0.08735937 -0.09880736 -0.058930475 0.08041629 0.052565143 0.08238249 0.10417174
0.03146006 0.119316004 -0.009057589 -0.02521432 0.103499986 0.10173245 -0.064246 -0.09807136
0.034635834 0.117422834 -0.13171387 0.008115408 -0.08204764 0.017792627 -0.04797692 0.06588073
-0.03154288 -0.063519865 -0.038806777 0.0015956372 0.021523474 0.14669378 0.049683183 0.11289797
0.23065142 0.007553151 0.00987396 -0.077399224 0.010751871 0.011028441 -0.13785695 0.019343428
0.07224635 -0.06565123 -0.09581225 0.0860003 0.090847634 -0.026698487 0.036271863 0.12326912
0.11518242 -0.06605333 -0.136328 -0.23269336 0.14678381 -0.08849552 0.12693414 -0.035706934
0.07348035 0.048828524 0.1876954 0.08111594 0.0787464 -0.13642702 0.023846863 0.13536145
-0.04798792 0.15114637 0.12949787 -0.031701926 -0.10533636 -0.08117474 -0.019770745 0.14112242
-0.08343819 -0.015592547 -0.15380123 -0.0034198852 0.15408112 -0.013393661 -0.0025435074 0.092908405
-0.10842404 -0.066895664 0.09940577 0.084752135 0.0055983705 0.16872355 0.059882432 -0.034212016
0.020774703 -0.019851008 -0.028840441 -0.04922565 0.0030514905 -0.015412458 -0.028010055 -0.094996236
-0.07513466 -0.06536508 0.08427704 -0.038391747 -0.042010065 -0.05648428 0.06865033 -0.10938605
0.039450184 0.07080523 0.12683235 0.056901988 -0.073483765 -0.07093543 -0.080283225 0.032132868
-0.05189786 0.1303252 -0.074007906 0.17291194 0.0888553 -0.092062816 0.010900856 -0.08147962
0.10989807 0.024476103 -0.14323768 -0.021656385 0.015693503 0.123074636 -0.09337457 -0.09736969
-0.025566556 -0.078886844 0.027693495 -0.08136335 -0.1212709 0.1019509 0.089119054 0.027373422
0.11679505 -0.096562676 -0.021047482 -0.104114756 0.04024842 -0.15488485 0.09507086 0.033932187
0.072086595 -0.09484947 0.13449633 -0.043405127 -0.0025162355 0.07523833 0.058928657 0.110600434

linear.3.bias f4 [128]
00000000: 52a2 52bd 0f80 103e a29f a03d e452 dd3c
00000010: 8ddc 6b3d 8287 e83c 673e 09be 5218 843d
00000020: 6bf3 273e 9433 373d fd80 eeba 685a ec3d
00000030: 1055 e1bc 3ec0 11bd 6b31 9b3d c54e b23c
00000040: 74c8 b23d 2b23 c6bc 64de bb3d 6168 4a3d
00000050: e036 713d cce8 dfbd 648e 49bd 5c29 3a3d
00000060: 3192 033e 4483 ed3d 6019 043e 7af1 8dbd
00000070: a9b0 2f3d 65c1 8abd 1b04 8ebd 8e1f e03b
00000080: 5374 6c3d 0a07 1e3e 2a5a 34bc e8aa 6fbd
00000090: e604 e93d 9cf9 f03d 504c 27bc 62db 5ebd
000000a0: ecc9 a73d ae6e f03d 4a1c 93bd c918 a23c
000000b0: 6c4d 96bd 6079 973d 57ec c03d df5a c63d
000000c0: ef6a d33d f34b 0b3e 2580 95bd bf1a debd
000000d0: 2641 bd3d f758 f03c 16d9 c63c 1e66 303d
000000e0: 1b65 90bc 962e ae3d f3fc c0bc 08b3 a0bd
000000f0: 28ff 203c 4f8f d63d 5dbf 25bd e9c0 5a3d
00000100: 7c73 ce3d 6a7f 83bd 1de5 be3d 85d9 c53d
00000110: 29df f93d 3179 4d3d 2c88 f4bd 7440 f7bc
00000120: 6ed3 d2bd e7f9 14bd c733 bd3d 5e91 203d
00000130: b8ec f73a 7e56 853d 1276 19bd 64bf 113e
00000140: 7ab0 4e3d 11e6 adbd 88a4 d0bd cf2d 343e
00000150: 1c99 62bc 6806 073d 674d 553d 01c1 8a3d
00000160: 72c1 25bd 0901 c0bc dfbc 213d cd0c 7b3d
00000170: cde6 e4bd e9e0 cf3c 8a92 a9bd be33 ba39
00000180: f2c7 a03d 662a ff3d 1ec7 993d 8ccd b8bd
00000190: f78c 9dbd d839 093e 00d2 783d 08d4 4cba
000001a0: e4f3 cc3d 2b85 47bb d029 ddbd ef13 57bd
000001b0: 3170 16bd b88f a0bb 4a89 3ebd a080 84bd
000001c0: 7cbb 923d 33f3 1cbd bbc1 97bd d710 98bb
000001d0: b2c6 163e fa58 8f3c fc50 83bd b8fe 033c
000001e0: 723e 4a3d 4317 bbbb 73d7 9cbd d248 8dbd
000001f0: 6426 eebd 544e 8cbd 5e76 623c 5184 7b3d
-0.051424332 0.1411135 0.078429475 0.027017064 0.05758338 0.028384928 -0.13402711 0.06449951
0.1640145 0.044726923 -0.00181964 0.11540681 -0.027506381 -0.035583727 0.07577785 0.021766076
0.0872964 -0.024186691 0.09173277 0.04941595 0.058890224 -0.10933074 -0.04920806 0.0454496
0.12848736 0.115973026 0.12900305 -0.069308236 0.042893086 -0.06775168 -0.06934377 0.006839699
0.057728123 0.15432373 -0.011007825 -0.0585126 0.113778874 0.11766359 -0.010211065 -0.05440844
0.081928104 0.117398605 -0.0718313 0.01978721 -0.07338986 0.07396197 0.09420078 0.09685301
0.1032313 0.13603191 -0.07299832 -0.10844945 0.09240942 0.029339297 0.024273437 0.043066137
-0.017626336 0.08504979 -0.023558116 -0.078466475 0.009826459 0.10476553 -0.0404657 0.05340663
0.10080621 -0.06420787 0.09321044 0.09660629 0.122007675 0.050164405 -0.11940035 -0.0301821
-0.10294233 -0.036371138 0.09238391 0.039201133 0.0018915152 0.06510638 -0.037466116 0.14233166
0.05046127 -0.08491147 -0.10187632 0.175956 -0.013830449 0.032965094 0.05207577 0.06775094
-0.040467687 -0.023437994 0.039486762 0.061291505 -0.11176834 0.0253758 -0.08279903 0.00035515236
0.078506365 0.12459259 0.07508682 -0.0902358 -0.076929025 0.13400972 0.060747147 -0.00078135775
0.10007456 -0.0030444365 -0.10798991 -0.052509245 -0.036728088 -0.004899945 -0.046517648 -0.06469846
0.07164666 -0.03831787 -0.07409998 -0.0046406793 0.14724234 0.017498482 -0.06411931 0.008056335
0.04937596 -0.00570956 -0.07658281 -0.06898655 -0.11628416 -0.068508774 0.013822166 0.061405484

linear.5.weight f4 [64, 128]
00000000: 16aa 803d bcff c83c 72ff 303b 93e2 83bd
00000010: 5247 8f3d 55db 443d 072e 933c f33a a6bd
00000020: d7bf 19bd 78fa d3bc b002 75bc 6b18 00bc
00000030: b062 183d 4e03 a13d c6dc 823d 7a79 193d
00000040: e1f4 b03d 0670 3ebc cc55 fc3c 898e 00bd
00000050: e28d a1bd f605 8f3c 1105 82bd a5e8 be3d
00000060: 6a81 c7bd 44fd 3ebd 1887 563d 5d73 c6bd
00000070: 7645 00be 43cc a0bd 4e35 87bd 14a3 cfbd
00000080: f936 943d 40c7 0b3d 0214 77bd 89d9 2cbd
00000090: 0ab9 303c 6910 a23d a3c8 73bd 8086 753d
000000a0: b2d3 983c e69e a2bd 6054 82bd 1036 5b3d
000000b0: 1d28 853d 8191 753c 259c debd f01e cc3c
000000c0: 9a18 bcbd fee4 8b3d bf91 9c3d 67df cdbc
000000d0: 84b5 23bd db05 403c 9b0f 993d 200c e33b
000000e0: 6f35 ec3c 1630 643c 2fb3 073d aaa6 91bc
000000f0: 06a9 8bbd f624 03be 2793 1fbd 3a5b 443c
00000100: 089b 2fbc 7f62 c23d 7bce 343b 6dd4 b03d
00000110: 26dd 80bd 1de0 febb 0707 b63d 4d45 0e3d
00000120: be6b e23c c23a 443d c7e8 7f3c 8004 933d
00000130: fbc2 6dbd cf96 2fbd ed36 bf3d 5f82 023b
00000140: a15f 073c 75c6 a43d 662e 23bd b480 6ebb
00000150: 3acf e5bc 945a cebc a2d9 f3bb 9319 943d
00000160: 212c c2bd c2a7 16bd ae85 bc3a 32b2 fb3c
00000170: 06b1 f33c f39d 093d 51e9 de3c 2fd7 9ebb
00000180: f327 d1bd b90c 7cbc 3fa2 b9bd 127b cebc
00000190: 5ae6 af3d ff48 62bc 999c ae3d a687 a7bd
000001a0: c536 34bd 4f63 27bd cfa3 673d 4909 6ebd
000001b0: 3686 953d 0a3a b5bd 73d2 4e3b 84d6 e43c
000001c0: 9d80 873b 18ea 913d d825 bf3d 6a31 5a3c
000001d0: feed 923c 949c 843b 4054 12bd 621e 9bbd
000001e0: 4519 163d c2fc 623d e6e5 62bd 31bc c43b
000001f0: 84d1 a73d bee1 4e3d 8f53 24bd b78b e33c
00000200: c693 14bd c195 863c 0c23 5a3d 3350 69bd
00000210: 7ba5 ec3b 0a99 3c3d b1ca ff3c d9a7 d13c
00000220: 55f6 23bd f74d 673d 7b15 44bd 0b5c 9abd
00000230: 6ada 94bc e15e 57bd 5726 b5bd 75bb 0fbd
00000240: e8e8 973d 9bc3 253d a0d0 f73c d99c bdbd
00000250: 0b57 4ebc 4ecf 97bd 816b 6ebd 2ba6 24bc
00000260: 6771 1e3b 14de 5a3d 8b99 253d d965 6cbd
00000270: be78 87bd 25bf 4d3d b65b 863c 46a3 813c
00000280: 6bc8 543c f44d f63d 33d2 75bd 0849 383d
00000290: 767a a13d 6de9 acbd 1796 43bc 4d57 b43d
000002a0: b8b9 17bc 9f19 67bd aeb3 aa3c e2e3 203d
000002b0: c2da 26bc 0cc5 3e3d 69cd 5bbd 4d81 1f3d
000002c0: 67d7 06bd 0c62 bebd 7aae e03c 93c2 893b
000002d0: 1b3c 8f3c 3801 89bd 1a58 ebbc 4bfc 5dbc
000002e0: 7514 acbd 3e9a a4bd 16f1 743d e16e 663d
000002f0: 4ef5 8dbd 600d 30bc 56e4 72bc 8172 6b3c
00000300: ebe9 7e3d f166 973d b524 683c 792a b0bd
00000310: dc82 35bd 3485 bdbd 655f 65bd 94bc f53c
00000320: a27a 8ebd 951e 7b3d 4634 c13d 54fa 963d
00000330: 9fc3 7e3d 5dde 963b 2c68 febc 4aef 623d
00000340: 2885 46bc b6e9 893d b9ea 413d 7fd9 b83d
00000350: a721 d8bd b4ba 27bd 3449 0f3d 82ad 743c
00000360: 0938 853d ab3f 873d 67c3 9d3c 714e 823d
00000370: c480 a6bd 67e9 bdbc 53bc b13b 5a28 a7bd
00000380: e928 bcbd bb7d 333d a8a2 813d 4423 c2bc
00000390: 34c7 a13c c45f 4abd d2b4 80bb afd5 43bd
000003a0: 937b 123d df2d 983d 303e bcbd 5418 34bd
000003b0: 8e96 21bd fd00 313c 53de b93b a68b 993c
000003c0: d50a ad3c 237b 3dbd 692d 7cbd e81f 4a3d
000003d0: 8e8e 10bd 3ff8 90bd 0dc7 b1bc 335a 77bc
000003e0: 0909 49bc 78c5 033d f228 2fbd 5a55 3bbd
000003f0: d722 a5bd b8a0 6cbd 0e09 e1bb 64a2 28bc
0.06282441 0.024536006 0.0027007726 -0.064397 0.06996025 0.048060734 0.017966283 -0.081167124
-0.03753647 -0.025876269 -0.014954254 -0.007818322 0.03720349 0.078619584 0.063897654 0.037469365
0.08640457 -0.011623388 0.03080263 -0.031385932 -0.0788839 0.017458897 -0.063486226 0.09321717
-0.09741481 -0.04662825 0.05237493 -0.096899725 -0.12526497 -0.0785146 -0.06601964 -0.101385266
0.07237048 0.034125566 -0.060321815 -0.042199645 0.010786304 0.07913286 -0.059517514 0.059942722
0.018655632 -0.07940464 -0.063637495 0.053518355 0.065017916 0.014988304 -0.10869626 0.024917096
-0.0918438 0.06830786 0.07644986 -0.02513094 -0.03996803 0.011720146 0.0747368 0.0069289356
0.028834073 0.01392748 0.033129867 -0.017779667 -0.06819348 -0.12807068 -0.038958695 0.011984641
-0.010718115 0.09491443 0.0027588892 0.08634267 -0.06292181 -0.007778181 0.08888059 0.03473406
0.027639266 0.0479076 0.015619463 0.07178593 -0.058047276 -0.04286843 0.09336648 0.0019914133
0.008262546 0.08045665 -0.03983917 -0.003639263 -0.028052915 -0.025189675 -0.0074417153 0.072314404
-0.09481073 -0.03678108 0.0014383101 0.030724619 0.029747497 0.033597898 0.027210863 -0.004847429
-0.10212698 -0.015383893 -0.09064149 -0.025205169 0.08588858 -0.013811349 0.085259624 -0.0818017
-0.043997545 -0.040866192 0.056552704 -0.058114324 0.07300989 -0.08848961 0.0031558543 0.02793432
0.004135205 0.07124728 0.0933339 0.013317445 0.01793575 0.004046986 -0.03572488 -0.075741544
0.036645193 0.05541683 -0.05539503 0.0060038795 0.08194259 0.050508253 -0.04011875 0.027776582
-0.03627374 0.01642883 0.05325608 -0.05696125 0.0072218752 0.046044387 0.03122458 0.025592731
-0.040029842 0.056470837 -0.047872048 -0.07537087 -0.018170554 -0.052580718 -0.08845203 -0.035090882
0.0741747 0.040469747 0.030250847 -0.09258432 -0.012593995 -0.07412587 -0.058207992 -0.010049383
0.002417648 0.053434446 0.040429633 -0.057714317 -0.066148266 0.050231118 0.016401153 0.015824925
0.0129872365 0.12026587 -0.060014915 0.044991523 0.07884686 -0.0844296 -0.01193764 0.08805714
-0.009260587 -0.05642092 0.020837631 0.039279826 -0.010183992 0.046574637 -0.05366269 0.03894167
-0.032920267 -0.09296045 0.027426947 0.0042041033 0.017484715 -0.066896856 -0.028728534 -0.013548921
-0.08402339 -0.08037232 0.05980023 0.056258086 -0.06931554 -0.010745376 -0.014824947 0.014370562
0.0622348 0.073926814 0.014168908 -0.08601851 -0.04431425 -0.09253922 -0.05599918 0.029997148
-0.06956984 0.061308462 0.094337985 0.07371965 0.062198278 0.0046041445 -0.031055532 0.055403985
-0.012116708 0.0673403 0.04734299 0.09025859 -0.10553294 -0.04094954 0.03498192 0.014933946
0.065048285 0.066039406 0.019258214 0.06362618 -0.08130029 -0.023182584 0.0054240613 -0.08161993
-0.091874905 0.043821078 0.06329852 -0.023698457 0.019748308 -0.049407735 -0.0039278055 -0.047811206
0.03576238 0.07430624 -0.09191549 -0.043968514 -0.03945022 0.010803458 0.005672255 0.018743347
0.02112333 -0.04626001 -0.061566744 0.049346834 -0.0352922 -0.07078599 -0.02170136 -0.015097189
-0.012270221 0.032170743 -0.042763658 -0.045735694 -0.08063286 -0.05777046 -0.0068675345 -0.010292623

linear.5.bias f4 [64]
00000000: ed29 97bd f74c 38bc 0772 f33c b8e1 abbc
00000010: d7b9 123d be17 e83d 7c80 793d 4fe7 11bd
00000020: b7fc 443d dc5e 8c3d 016c d2bd 2420 e83c
00000030: a7a8 193a a700 403c c8c5 66bc 49a3 773c
00000040: 39fb 48bd 5cd9 b73d 1144 54bc 29b7 3a3c
00000050: e978 b9bd 65b2 a33d e702 743d d05f bcbc
00000060: 08f0 793d 4500 b73d e5d7 b4bc ea4f 813d
00000070: 4d84 8cbd dd8e cd3d fa2b 6abc e041 a4bd
00000080: 0938 f23b e3b9 e0bc 8879 3c3c 35f6 a73d
00000090: c88d 933c 1a47 e73d c4ee 7abc d13e 81bc
000000a0: f3f9 8fbc 4a92 e0bd c761 edbd 92e1 ea3d
000000b0: 5119 02bd 6b09 bebd 8522 863d 4d05 54bd
000000c0: a070 8d3d 5868 8a3d ac33 52bd b9a3 36bd
000000d0: f84b 0e3d d6b7 3f3d 231d 13bd d814 64bd
000000e0: ad50 e3bc 54c0 023e 37d3 b3bd 6d0e babb
000000f0: af38 003c 0dbf ddbd 693e d73c 68a7 af3c
-0.073810436 -0.011248819 0.029717458 -0.020981655 0.035821762 0.113326535 0.060913548 -0.035620984
0.04809257 0.068540305 -0.10274506 0.028335638 0.0005861618 0.0117189055 -0.014085241 0.015114614
-0.04906771 0.08977005 -0.012955681 0.011396208 -0.09056265 0.079930104 0.05957308 -0.022994906
0.061019927 0.08935598 -0.022075603 0.063140705 -0.06861172 0.10037015 -0.014292711 -0.08020377
0.007391934 -0.027432388 0.011503585 0.08201257 0.018011943 0.112928584 -0.015315715 -0.015777024
-0.01757524 -0.109654024 -0.11590915 0.114688054 -0.031762425 -0.0927914 0.06549553 -0.051762868
0.06906247 0.06758183 -0.05131881 -0.04458973 0.03474042 0.04680618 -0.03591646 -0.05568394
-0.02774843 0.1276868 -0.087805204 -0.005677989 0.007826014 -0.10827456 0.026274877 0.02144213

linear.7.weight f4 [32, 64]
00000000: a914 1dbe c805 8ebd 1f6e ee3d 8982 82bd
00000010: 0069 0b3e 3082 d43d 62dd 3c3c 33ef 7bbd
00000020: 5d26 babd 033a 203e adda 29be c898 29be
00000030: d51a 2fbe 9102 93bd 53fd 323d 8142 733d
00000040: b056 313e 9c5c b83d 7de7 6dbd 82c0 f83d
00000050: 209f 5ebd 2ccf f33d 65a6 0f3e ee3d 82bd
00000060: e926 e3bd 8b09 81bc 577c 3d3e dd4f b63c
00000070: e28b 4ebe ffbf 273e edfd ea3d 66b8 fb3a
00000080: a307 e83c 2bb9 07be 8c1a 18be fd25 9abd
00000090: f36d 3bbd 8895 573c 8198 92bd 95e5 89bd
000000a0: 3fe2 c8bd 2424 1bbe 3a70 c33d a25e d83d
000000b0: f426 15be 0cbe 9ebd 8358 95bd 31ae 0abd
000000c0: af70 6ebd fb72 5abc 70ae 71be cd90 a13d
000000d0: 3149 1ebe f358 07be 96d7 6f3d 7491 6d3d
000000e0: 9a81 08bd 417a 0bbd 2e47 bbbd 64cb eb3c
000000f0: 1c7d c4bd c8ff c1bd 4b2f 6e3d 905e 163e
00000100: 969a d5bd 59df 89bd ecf9 7a3d 8e5f bbbd
00000110: faae 353e 789c cd3d 88da da3d 2097 79bd
00000120: 6396 62be 413b 6cbb 9ec7 373d 994d 1dbd
00000130: 911f fabb e33e 003e 22f3 60bd 6ac8 dd3d
00000140: e7f3 123e 091a a23d 9391 313d 7805 ec3d
00000150: 0dce 5a3d d37f 38bd 6c10 193e 58f1 6c3d
00000160: 2e9a a6bd 692d d7bd 179d 173e 3fc1 713c
00000170: 900a 98bd ef11 b9bd 7d34 8f3c fa7a ca3d
00000180: 2f3f d0bd 02d4 fcbd 2c60 f63b a148 38bd
00000190: b254 97bd 8389 c23d b787 1cbd 439a 87bd
000001a0: 5d17 533d 4237 8bbd d3c2 66bd 8ea5 c03d
000001b0: ab6e 15be 4a6c 1a3c 9dde f2bc 12ce fd3d
000001c0: 9bed d83d b500 96bd c738 9dbd 5623 2abe
000001d0: 358a 16be 0dcb 8ebd cc8a 12be 97d0 223e
000001e0: ab95 763d 6f1a 3a3d 9249 aabd 4a3b 3cbe
000001f0: 4f55 d83c a166 89bc c171 6fbc ed77 0a3e
00000200: 7f9c 363c 9b3c 1dbd abd4 84bd 5f91 a1bc
00000210: 3c64 c6bd b18e 11bd 5345 773d bc53 873c
00000220: 605a b5bd 130f 86bd f886 1bbc 92a1 38bd
00000230: 0768 6b3d 9306 fc3c c1ac 6dbd 0e62 84bd
00000240: 522b 2fbd 18e8 683d 3915 15bc 08bb 3a3b
00000250: d251 7ebd 7cc9 a33c a148 51bd 9c19 82bd
00000260: 01be e83d faa2 99bd 57c2 84bd 40dd bbbc
00000270: a4e8 563c 19d6 cb3d 6d11 c43c 950f 733c
00000280: 1c13 9fbd 8180 b13d 2a54 323d ecb4 093e
00000290: 238a a0bd b67d e9bc a609 2b3d daa5 993d
000002a0: e326 1abd 5e94 43bc d1ce 063d 96fb 2ebd
000002b0: 739d 8f3d feba 143d 1738 1abc aa24 a93d
000002c0: 75e6 c53d 968f 74bd ead8 8dbc c2d9 41bd
000002d0: 94fa a83d c723 093e 7c80 80bd 8f83 37be
000002e0: 5e21 a2bd f0c2 9dbd 0988 4cba 183f 4e3d
000002f0: eaae 76bd d7da 2dbd 891b f8bc 4380 e6bd
00000300: 88e3 e5bc b27c 7dbd 6030 3f3e a11c 36bd
00000310: de78 1a3d d65d f83d c6fa 34bd a198 d0bd
00000320: 8997 56be 3282 043e 3025 d3bd 463b d3bd
00000330: 85da febc 3e1d 293e b297 023e 6915 3f3d
00000340: c9fb 403e c841 aabd 17be ebbd 4ab2 aebd
00000350: 460e 963c 4a9b 8e3d 45a5 063e a522 2b3d
00000360: 7880 053e 5a7b 703c 8246 143d 7e17 d1bc
00000370: 2c05 06be ca84 3dbc 4cc9 b7bd 251c 033d
00000380: 68d9 c1bc 996e 31be 5687 2fbe f39f 7ebc
00000390: 6734 3cbd a362 78bc a0db 87bd 4766 733d
000003a0: 1f60 9abd a50d 11be 0693 e4bd 8472 f93c
000003b0: 5d67 2bbd ff64 c7bc 69cf 15bd fabf 04bd
000003c0: d41c 6dbc c0d4 4bbd 1dc0 ddbd 8561 05bd
000003d0: a8b3 12be 30ee dabd 85b4 b33d 0540 863d
000003e0: a657 eb3c e1c4 cbbc 6480 d4bc 7fef debd
000003f0: 94db c8bd 48c6 80bd b130 bdbd 357a 9d3d
-0.15339912 -0.069346964 0.11642098 -0.06372554 0.13614273 0.10376394 0.011527391 -0.061507415
-0.090893485 0.1564713 -0.16587324 -0.16562188 -0.1710008 -0.07178224 0.04369862 0.059389595
0.17318225 0.09002039 -0.058082093 0.12146093 -0.054350972 0.11904749 0.14028318 -0.063594684
-0.11091406 -0.01575162 0.18504463 0.022254879 -0.20170549 0.16381834 0.11474214 0.0019204735
0.028323954 -0.1325423 -0.14853877 -0.07526777 -0.045759153 0.01315821 -0.07157994 -0.067332424
-0.09808778 -0.15150505 0.0954289 0.10564925 -0.1456564 -0.07751092 -0.07292273 -0.033857528
-0.058212932 -0.013333078 -0.23601699 0.07888947 -0.15457608 -0.13217525 0.05855521 0.058000043
-0.033326723 -0.034052137 -0.09144436 0.028783508 -0.09594175 -0.094726145 0.05815057 0.1468451
-0.104298756 -0.06732053 0.0612735 -0.09149085 0.1774253 0.1003961 0.10686213 -0.06093514
-0.2212768 -0.003604606 0.044868104 -0.03840408 -0.0076331575 0.1252399 -0.05491937 0.108292416
0.14350854 0.07915122 0.04335172 0.115244806 0.05341916 -0.045043778 0.1494767 0.05784735
-0.08134876 -0.10506708 0.14806019 0.014755546 -0.0742389 -0.09036624 0.017481083 0.09886737
-0.10168301 -0.12345125 0.007518789 -0.04499114 -0.07389201 0.094988845 -0.038215365 -0.0662122
0.051535953 -0.06797649 -0.056338143 0.09406577 -0.14592998 0.009425232 -0.029647166 0.123928204
0.10592195 -0.073243536 -0.07676845 -0.16615042 -0.1470116 -0.069723226 -0.1431076 0.15899883
0.06020133 0.045435365 -0.08314814 -0.18381992 0.026407866 -0.01677257 -0.014614523 0.1352231
0.01114571 -0.038387876 -0.06485876 -0.019722639 -0.09687087 -0.03553647 0.060368847 0.01651942
-0.08855128 -0.06545844 -0.009492628 -0.04507596 0.057472255 0.030764854 -0.05802608 -0.06464015
-0.042765923 0.056861967 -0.009099298 0.0028492827 -0.06208975 0.019993536 -0.051094655 -0.06352541
0.11364365 -0.075017884 -0.0648238 -0.022932649 0.013116989 0.09952945 0.02393409 0.014835258
-0.07767317 0.08667088 0.043537296 0.13447922 -0.078388475 -0.028502326 0.04175725 0.07502337
-0.03763474 -0.011937229 0.03291208 -0.0427204 0.07012453 0.036311142 -0.009412787 0.08258946
0.09663097 -0.059707247 -0.017315347 -0.04732681 0.08250919 0.13392554 -0.062745064 -0.1792128
-0.079165205 -0.07703197 -0.0007802253 0.05035314 -0.060225405 -0.04244503 -0.030286567 -0.11254933
-0.028062597 -0.061886497 0.18670797 -0.044460896 0.037712924 0.12127273 -0.04418447 -0.10185362
-0.20956244 0.1294029 -0.10309827 -0.1031404 -0.031110058 0.16515061 0.1275318 0.046651278
0.18846048 -0.08313328 -0.11510866 -0.085301 0.018317353 0.06963213 0.13148983 0.041781086
0.13037288 0.014677847 0.036200054 -0.025523897 -0.1308791 -0.011567304 -0.08973941 0.032009263
-0.023663238 -0.17327346 -0.1714147 -0.015541065 -0.045948412 -0.015160236 -0.06633687 0.05942371
-0.07537865 -0.14165361 -0.11160855 0.030450113 -0.04184662 -0.02434015 -0.036574755 -0.032409646
-0.014472205 -0.04976344 -0.10827658 -0.032563705 -0.14326346 -0.10689962 0.08774666 0.065551795
0.028728317 -0.024874153 -0.025940128 -0.10885524 -0.09807506 -0.06287819 -0.09237803 0.07689325

linear.7.bias f4 [32]
00000000: b31a cc3d c0b5 2f3d f87d cabd fa8f da3d
00000010: c4fb 15bc f9aa eebd 2b76 a0bc 4f59 013e
00000020: 5a45 f7bc 5244 97bd f5e6 a9bc e109 47bd
00000030: 0dce abbc ad9d d13d e3f3 323e a99e ebbd
00000040: 7748 4bbc 451a cb3d 2135 b4bc fee0 87bd
00000050: 9c57 e1bc f869 eabd 7ed6 ef3d 1a0e f43d
00000060: 4cce c33d 531a e2bd c1ad 243d cc6c c03c
00000070: 5952 6a3c c445 913d 162b 49bd 159f 2cbd
0.0996603 0.04289794 -0.09887308 0.106719926 -0.009154264 -0.11653704 -0.019587597 0.12631725
-0.030184437 -0.07386078 -0.020740012 -0.048593406 -0.020972276 0.102351524 0.17475848 -0.115048714
-0.012407414 0.0991712 -0.02199799 -0.06634711 -0.027507596 -0.11445993 0.11710833 0.11916752
0.095608324 -0.11040177 0.040204767 0.023489378 0.01430186 0.07093385 -0.049113356 -0.0421439

linear.9.weight f4 [4, 32]
00000000: 707c 1ebe 8698 9cbe a749 e13d f445 81be
00000010: 4ba5 4abe 169a 3fbc 7726 e13d ef5a 2fbe
00000020: 0293 e83c 5025 31be 9325 893c b4aa cdbd
00000030: 5f2d 40be da04 54bc 6db9 1b3e 3cd4 e9bd
00000040: b677 843e 8e5d 473e 90ec 45be f189 85be
00000050: cb14 913d 4a81 70bd a383 8b3c 7161 d13d
00000060: d194 30be 73f2 883e 2260 d6bb 33fe 543e
00000070: 404a df3d 0593 88be 68b3 b23d 50d8 0dbd
00000080: 2077 5c3d e2c8 823d 818a 7a3d 5c82 58bd
00000090: 1cac 0e3e 60c4 523d f84f 09be 2595 bf3d
000000a0: d8ef 3cbe 89b6 973d 1693 46be da78 403b
000000b0: 9cba d8bd ecba 9c3c 9ff1 abbd ff00 323e
000000c0: 0691 6cbd 151c 103e f0f2 abbd b594 02be
000000d0: 6867 f53d 095c b2bd 1eca c9bd ee8c 3e3c
000000e0: 5a05 ae3d 3ef5 f8bc 7140 66be b298 04be
000000f0: 6763 0abd 0eda c83d 2a02 5fbe 6a7e 88bd
00000100: 72e4 723e 6f59 113e 05e5 bebc fef0 8e3e
00000110: 785d 113e dd2e 663d 6223 3ebe ac01 5c3e
00000120: c7d8 4dbe efe2 51be b64d 5e3e 1df4 11be
00000130: 5534 893e 9890 c6be 6ca2 483e 7bc6 ad3c
00000140: 2bb3 9cbd f6ac 2bbe ab59 673d f22f 4d3e
00000150: 9efc 3e3e b66a 7f3d dfae 8cbe a440 923c
00000160: 313e 3e3e 67d8 70be ca4d 103e bdf8 8dbd
00000170: 61d8 553e c3c5 933d 6558 4dbd 8182 31be
00000180: c0d8 ac3c d45b 02be 7dd8 1a3e 663d 093c
00000190: 6aa7 293e 43c0 133e 0bcf fb3d 771b 313e
000001a0: a61a 59bd a11b 4bbd c25b 4f3d 792f 283b
000001b0: eb50 dfbd 5673 29bc 8ce7 c53d be95 5dbd
000001c0: 3ced 953a f5a7 593d f70b 81be fe1a 0abd
000001d0: a482 f1bd d0ee f23d 5f94 c9bd 25e8 49be
000001e0: 6c71 9abd 162d b03d 9c66 c4bd ab01 0fbf
000001f0: 9f4d 80be 5647 1abe f2b4 2e3e 6796 393e
-0.15477157 -0.30585116 0.11000376 -0.25248682 -0.19789617 -0.011694452 0.10993665 -0.17124532
0.028390411 -0.1729939 0.01674155 -0.10042325 -0.18767308 -0.01294061 0.15207453 -0.114174336
0.25872582 0.19469282 -0.19328523 -0.26081803 0.07084044 -0.05871705 0.017030543 0.102236636
-0.17244269 0.26747474 -0.0065422216 0.20800094 0.10902834 -0.26674667 0.08725625 -0.03463012
0.053824544 0.063859716 0.061167244 -0.052858695 0.13932842 0.05145681 -0.13409412 0.09354619
-0.18450868 0.07407863 -0.19392046 0.0029368908 -0.10582468 0.0191321 -0.08395695 0.17383192
-0.057755493 0.14073212 -0.08395946 -0.1275204 0.11982614 -0.087089606 -0.09853004 0.01163028
0.084971145 -0.030390378 -0.2248552 -0.12948874 -0.033786204 0.09807216 -0.2177817 -0.066647366
0.23719957 0.14194272 -0.023302564 0.27918237 0.14195812 0.056197036 -0.18568185 0.21485013
-0.20102225 -0.20496725 0.21709332 -0.14253278 0.2679774 -0.3878219 0.19593209 0.021212807
-0.07651361 -0.16765198 0.056482 0.20037821 0.18651053 0.062357627 -0.27477166 0.017853089
0.18578412 -0.23520051 0.14092174 -0.06932209 0.20883323 0.072154544 -0.050133128 -0.1733494
0.021099448 -0.12730342 0.15121646 0.008376455 0.1656777 0.14428811 0.1229535 0.17295633
-0.05300393 -0.049586896 0.050624616 0.0025663062 -0.10904106 -0.01034244 0.09663305 -0.054097883
0.0011438499 0.053138692 -0.2520444 -0.033717148 -0.11792496 0.11861956 -0.09842753 -0.19717462
-0.07541165 0.086023495 -0.09589884 -0.5586192 -0.2505922 -0.15066275 0.17061213 0.1812378

linear.9.bias f4 [4]
00000000: 9f6f 94bd 6dd3 2bbe 4888 6cbd 9c7e b83d
-0.072478525 -0.16779871 -0.057747155 0.09008524

shared_mlp.1.weight f4 [128, 270]
00000000: 86fa 313d d158 0d3d e861 913d 719e ff3d
00000010: 8f70 50bd c27a 9f3c 43be 953d 96fd 6e3d
00000020: 7d74 883d 5c0a 8c3d d2e6 793d 5ca0 643d
00000030: dcea 063e 4d98 b73d 3507 62bc dc23 bd3d
00000040: 6c00 0bbd 42fa ebbc c8be 033e bb9e 973d
00000050: 90e7 793c a779 d13d 9180 053d 0425 32bc
00000060: 54b3 883d b79f e03d c56d 103d fee1 e33d
00000070: b564 883c c4bc 11bc e751 363d 37bd 913b
00000080: 8b31 09bd 409e 2eb9 ce4e a83d 8e38 523d
00000090: 0aad 383d c3d0 a7bc 37e4 533c 26bb 91bc
000000a0: 7068 b73b 369a 353d bc51 e13b e83a 0f3d
000000b0: e7e7 2dbd 9b71 4a3d c1f0 313c f1ac 4f3d
000000c0: 8fd9 7dbb 161f b43c 8f0a d43c b72f 37bc
000000d0: 1adb 1abb fe6e 3a3d 2390 e73c 67ab 813d
000000e0: e8bf e7bc be8c 6abc 554e 483d 2de3 b7bc
000000f0: 5602 7b3c bb94 a5bc 0377 443a 9b6e 683d
00000100: f2f5 503d ffbc 19bd e69d d23c 506a 15ba
00000110: a681 b83b d459 a13d 3d42 3ebd bc05 933d
00000120: a22d 653d 068b 87bc 4d96 593b 19a9 933d
00000130: 4c85 6a3d 512d 61bc 9f86 033d ee67 803d
00000140: ecfe 06bc 2f77 ca3c 2a93 733d d728 863d
00000150: ac33 bcbc f4bc 16bd a9c7 673b cafe 1e3d
00000160: f1b5 e5bc 2d96 a43c ca29 5e3d b88e fa3c
00000170: ff4e 083d 11e6 953d ead2 0c3d 99df 39bb
00000180: f536 893d 6f11 d23c 0520 503d 3615 bfbc
00000190: 480e 323d 0aca a53c f910 403d b44d e93b
000001a0: 2970 cbbc 8bd5 243d c648 cc3c 3341 a0bc
000001b0: 43da 27bd 9bfc 013c 5b16 6dbd 3d28 553d
000001c0: 4245 2e3d 795e 3cbd 8b75 d83c 6dc0 7f3d
000001d0: 812e 5a3c cdda 2c3c 0814 f53c ac4f 803c
000001e0: 6c32 083d cc1b 0c3d a54e b9ba 1b2b d2bb
000001f0: 1d2e ebbc c298 db3c cd49 0cbd 2715 11bd
00000200: cf74 bf3c 61b8 173d 6b11 403d 60aa 833c
00000210: d7d6 16bd 9d24 0cbc be31 853b 3be3 e83c
00000220: 3dec 4a3d 5acc 863d 5cb7 433c 7e8f 2fbd
00000230: 1a39 b7bc f630 c43c 461a 9d3d ad74 693d
00000240: 57aa 5b3d 7af9 203d 6beb 38bc 2b6f dcbc
00000250: bbd6 8f3d 118f 1e3d dcf9 403d c138 d73b
00000260: 1299 dfbc c9e5 7f3c f53a 5bbd 374c 523d
00000270: b3f1 853d 0e52 743d 0f8e 3dbd 113f 153d
00000280: 9574 fabc ebaa 773c 9364 473c 6474 4abd
00000290: 574b 29bd 5c26 943d b8fa 503d aa90 09bd
000002a0: f1f2 28bd b37c b7bc 28a6 253c 8085 3dbd
000002b0: a9ea 9dbc 3349 983d 5562 5b3d d0d5 c0bc
000002c0: 9e21 57bc 4430 d53b 9609 9fbc 8f64 bf3c
000002d0: 09e3 61bd 7a78 af3c 93e5 853a f200 16bd
000002e0: 6197 4f3d 9ad5 afbc 4e21 58bd 01b9 b13c
000002f0: c318 153d 06cf edbc 69b2 413d 7370 35bd
00000300: 582d 42bd f53d 713d ad70 d03a 90f7 583d
00000310: f522 153d a692 39bd 33e4 683d 2372 1e3d
00000320: 5339 36bc f406 0fbd 07c8 6fbc 9bdb 053d
00000330: 75b8 61bd 3564 20bd d691 51bd fdc7 483b
00000340: 6c28 2abc 6e67 18bd 78ab 5bbd d9c5 593d
00000350: 1b72 3cbb 12a2 3abd 9820 6a3d 24fb d53c
00000360: 0e91 623c 189e 093d 6b47 b03c 35ad 42bc
00000370: d525 2cbd 497b 273d d0d6 28bd cea8 563d
00000380: def1 45bd 4688 8c3d 60f0 33bd 8c87 d23c
00000390: c381 17bd aab6 abbc 723c a33c 829f 8a3d
000003a0: a504 ae3b ba65 543d 31c2 5cbd e98c 24bd
000003b0: e6a9 39ba 9b40 173d 2335 81bc 7c52 c73c
000003c0: 548c 7ebd 9455 2c3d 3d1f 5cbd 86eb d33c
000003d0: 795e 3b3d 7487 0bbd c3e6 923b c32d 263c
000003e0: 829b 8f3a d521 a7ba f43b cfbc 874b 653d
000003f0: f921 823c 29f3 413c 8f31 933c cd71 013d
0.04345181 0.03450853 0.07098752 0.12481392 -0.050888594 0.019467715 0.0731168 0.058347307
0.066628434 0.068379134 0.061011143 0.055816993 0.13175529 0.08964596 -0.013795664 0.09235355
-0.03393595 -0.028805856 0.12865746 0.07403322 0.015252963 0.102282815 0.032593314 -0.010873083
0.06674829 0.10967963 0.035260934 0.11127089 0.016649583 -0.008895103 0.044511702 0.004447605
-0.033494513 -0.00016652886 0.08218156 0.051323466 0.045086898 -0.020485288 0.012932829 -0.017789435
0.0055971667 0.04433652 0.0068761986 0.034968287 -0.042457487 0.04942475 0.010860623 0.05070204
-0.0038734411 0.02198748 0.025883941 -0.01118081 -0.002362913 0.045516007 0.028266972 0.063315205
-0.02828975 -0.014315782 0.04890283 -0.022447193 0.015320381 -0.020212522 0.0007494541 0.056746107
0.0510158 -0.037533756 0.025710057 -0.0005699741 0.0056306897 0.078784615 -0.04644989 0.07178828
0.055951722 -0.016545784 0.0033201159 0.07209987 0.057256028 -0.013743714 0.032110807 0.06269823
-0.008239489 0.024715034 0.05946652 0.06550758 -0.022973858 -0.036801293 0.003536681 0.038817205
-0.028040858 0.02009114 0.054239072 0.030585632 0.03327846 0.07319272 0.03438083 -0.0028362034
0.06699935 0.025643079 0.050811786 -0.023325544 0.04347065 0.020237941 0.046891186 0.0071198586
-0.024833756 0.040242713 0.024937045 -0.01956234 -0.040979635 0.007933761 -0.057882648 0.052040327
0.04254652 -0.045988534 0.026423236 0.06243937 0.013316751 0.010550213 0.029916778 0.01566299
0.03325121 0.034206197 -0.0014137818 -0.00641383 -0.028708512 0.026806239 -0.03425007 -0.035420563
0.023371128 0.03704107 0.04689161 0.016072452 -0.03682598 -0.008553651 0.0040647676 0.028428664
0.0495417 0.06581946 0.011945572 -0.042861454 -0.022366095 0.023949128 0.07671027 0.056996036
0.053629246 0.03930042 -0.011286597 -0.026908478 0.070233785 0.038710658 0.047113284 0.006568045
-0.02729467 0.01561875 -0.053523023 0.051342215 0.06540241 0.059648566 -0.046278056 0.036437098
-0.030573169 0.015116434 0.012169975 -0.049427405 -0.041331615 0.07233879 0.051020354 -0.033585228
-0.041247312 -0.022398328 0.0101104155 -0.046269894 -0.019276934 0.07435837 0.053560574 -0.023539454
-0.013130574 0.006505998 -0.01941375 0.02336338 -0.05514816 0.021419752 0.0010215513 -0.036621995
0.050681476 -0.021464158 -0.052766137 0.021694662 0.036400568 -0.02902938 0.047289286 -0.044296693
-0.047406524 0.058896977 0.0015902721 0.05297047 0.03641029 -0.04530587 0.056858253 0.038683068
-0.011122066 -0.03491874 -0.014635093 0.032680135 -0.055107553 -0.039158065 -0.05116447 0.003063678
-0.010385614 -0.037208013 -0.053630322 0.053167198 -0.0028754536 -0.04556472 0.05715999 0.02612073
0.013828529 0.033598036 0.02151843 -0.011882116 -0.042028267 0.04088906 -0.041220486 0.05240708
-0.048326366 0.068619296 -0.04393041 0.0256994 -0.036988985 -0.020961124 0.019926284 0.06768705
0.0053106123 0.051854827 -0.053896133 -0.040173445 -0.0007082507 0.036926847 -0.015772408 0.024331324
-0.062145546 0.0420738 -0.05374073 0.025869142 0.045744393 -0.034064725 0.0044830753 0.010142746
0.0010956379 -0.0012751172 -0.025297143 0.05598023 0.01588534 0.011837759 0.017967967 0.03160267

shared_mlp.1.bias f4 [128]
00000000: 8620 aa3d 628b c93d cf8e b33c 9e8c 8d3d
00000010: f5b3 ee3d f234 783d dbeb e23d 9679 063d
00000020: b3db ed3c 9a67 f03d 6ef3 c83d 9085 d13d
00000030: dd37 213d ffff 12bd 11d9 033e af61 413d
00000040: f547 a23d 61b8 4f3d 409e c3bc 27d1 aa3d
00000050: ae01 af3c bd68 bb3c 2497 503c 5891 bf3d
00000060: 3957 563c 9d11 463d ab5f 813d bd21 d63c
00000070: 99df cb3d 5f46 a23d 85f4 533d 305b da3d
00000080: 67a2 b93d 1a38 e73c 21fd 863d 235c 713d
00000090: 6cfd 6b3d 2cd9 36bd 5423 eb3d be90 843d
000000a0: 666b 80bb bce4 bb3c 0be5 843d cb0f 303d
000000b0: 6a65 af3b c35d 203d e399 673c d276 b93d
000000c0: 863d db3d fdfe cd3d c4ff 9b3d 63bb d73d
000000d0: 0ec2 0d3e ba65 23bd b04f 9e3d a4a5 23bd
000000e0: b4ca fe3d 6dba 203e 5823 083e 5645 25bd
000000f0: 0f26 9d3d 7354 eb3d ee99 4fbd 83c2 a83d
00000100: 9861 543d ffe9 97bc 5968 f83d 214e 023c
00000110: b0b7 533c 9ca4 293d 7609 4fbc 03c9 6c3b
00000120: 390d fe3c 2354 d23d 1d0c 53bd 349f 173d
00000130: 9e4e 223d 2b8f a8bc f971 f63d 24b2 943d
00000140: 95c2 1ebc 21f6 a13c a956 a83b 4335 083e
00000150: 4328 043d f8db 9cbb 5ca3 123d db02 0a3e
00000160: 1cc4 b93c fc18 333d 5b5b 103d 9a2e e3bc
00000170: 919e 843b 4926 d63d e2ae 0b3d fd8a d6bc
00000180: c1b2 023e 1466 c5bc 5661 ccbc df6f 353d
00000190: 5ad9 703d d36c d33b f228 a3bc 6003 debc
000001a0: 7dab 953d 652c ce3d bc2d ec3d 0dbb 9d3c
000001b0: 5a43 153d 9888 823d d92c e93c 253b e1bc
000001c0: ea36 e0bb a338 5ebd 339c 4bbb 8071 9d3d
000001d0: ed76 6b3c 901f 513d 1399 5c3d 5191 813d
000001e0: f239 763d 1e99 b43c 6157 273d f62e ba3c
000001f0: 8bc3 483d 64b0 973c 4893 f4ba 17fb 8b3d
0.083069846 0.09841038 0.021918682 0.06911586 0.11655418 0.060597368 0.11080142 0.032830797
0.029035425 0.117385104 0.098120555 0.10230553 0.039359916 -0.03588867 0.12875773 0.0472123
0.07923881 0.050712947 -0.02387917 0.08340674 0.021363106 0.022877092 0.012731347 0.09353894
0.013082319 0.04835664 0.06317075 0.026139135 0.09954757 0.079235785 0.051746864 0.10661924
0.09064179 0.028224993 0.06591249 0.05892576 0.05761473 -0.044640705 0.11481348 0.0647292
-0.003919053 0.022936217 0.06488999 0.04298381 0.0053526657 0.03915192 0.014135811 0.09055866
0.10705094 0.10058401 0.07617143 0.10533788 0.13843557 -0.039891936 0.07730043 -0.03995289
0.12441006 0.15696116 0.13294733 -0.040349327 0.07673275 0.11490717 -0.05068391 0.08240225
0.051850885 -0.018544195 0.12129278 0.007953198 0.0129222125 0.04141675 -0.012636533 0.0036130555
0.031012164 0.10269954 -0.051525224 0.037017062 0.039625756 -0.02057608 0.12033457 0.0726054
-0.009689947 0.019770684 0.005137284 0.13301568 0.03226496 -0.0047869645 0.035800323 0.13477652
0.02267652 0.043725 0.035243373 -0.027732182 0.004047223 0.10456521 0.034102328 -0.026189322
0.12763502 -0.024096526 -0.024948757 0.04429614 0.058801033 0.006452182 -0.019916985 -0.027101219
0.073080994 0.10067061 0.11532161 0.019254232 0.036441185 0.063737094 0.028463768 -0.027494023
-0.0068424838 -0.05425323 -0.0031068444 0.07687664 0.014371616 0.05105549 0.05385692 0.06326545
0.060113855 0.022045668 0.040854815 0.02272747 0.04901461 0.018516727 -0.0018659616 0.06835001
