model/ppo_model_20_50_40_RL.pth (torch, 270826 bytes, 18 tensors)

linear.1.weight f4 [64, 30]
0	0xbd880849	-0.06642205
1	0xbd6b2746	-0.0574105
2	0xbe6820b1	-0.22668721
3	0xbe54961c	-0.20760387
4	0x3e10251d	0.14076658
5	0xbe5b0116	-0.21387133
6	0xbda3b9a5	-0.07994393
7	0x3de8d3bf	0.11368512
8	0x3d2f6830	0.04282397
9	0xbd769d22	-0.060208447
10	0x3e20c679	0.15700711
11	0xbdd6b527	-0.10483771
12	0x3e69dbae	0.22837707
13	0xbe24164b	-0.16024129
14	0x3d02dd72	0.031949468
15	0xbd1df3e3	-0.038562667
16	0x3d2469b2	0.04013986
17	0x3d1918a2	0.037377007
18	0x3db39cdb	0.08770152
19	0xbdddb7d1	-0.10826076
20	0xbde40a92	-0.111348286
21	0xbad4a97b	-0.0016224826
22	0xbe007529	-0.12544693
23	0xbc885165	-0.016640374
24	0x3e032c04	0.1280976
25	0x3d4b2337	0.04959413
26	0x3c2525c9	0.010079809
27	0xbd2f6bfd	-0.042827595
28	0x3cacd6a0	0.021098435
29	0xbdfd1f23	-0.123594545
30	0xbe69e2c0	-0.22840405
31	0xbde8a948	-0.11360413
32	0x3e1c4fea	0.1526486
33	0x3dbd28d1	0.09236301
34	0x3d086adc	0.033305034
35	0xbe3e45a6	-0.18581256
36	0x3bba2d4c	0.0056816693
37	0x3d194aba	0.03742478
38	0xbe22cbf9	-0.15898122
39	0x3d8d53e1	0.06900764
40	0xbdea78f0	-0.11448848
41	0x3e50c8f0	0.20389152
42	0xbdf4df88	-0.11956698
43	0xbe44ab34	-0.19205934
44	0xbd892f73	-0.06698503
45	0x3d93fd61	0.072260626
46	0xbdd91749	-0.106001444
47	0x3d76e136	0.06027337
48	0xbb84169d	-0.004031016
49	0xbe4721d0	-0.19446492
50	0xbe1fac9d	-0.1559319
51	0x3e3fb4ff	0.18721388
52	0x3e13633a	0.1439332
53	0xbd8cf1e6	-0.06882076
54	0x3d4025b5	0.04691096
55	0xbda55505	-0.08072857
56	0xbe5c4b0f	-0.21513008
57	0x3d80cb01	0.0628872
58	0x3e0af4a7	0.1356989
59	0x3d34dada	0.044154026
60	0xbe1b91ac	-0.15192288
61	0x3dbd9835	0.09257547
62	0xbe258f62	-0.16167977
63	0x3da5692b	0.080767
64	0x3cfa0ab1	0.030522676
65	0x3b988737	0.0046547907
66	0x3e774ed5	0.24151166
67	0x3d810ec8	0.063016474
68	0xbd8b783e	-0.06810044
69	0xbe17e915	-0.14835007
70	0x3d05e356	0.032687508
71	0x3dec45f2	0.115367785
72	0x3d01ea57	0.031717625
73	0x3d56f67d	0.052481163
74	0x3e14de5e	0.14537951
75	0xbdb85254	-0.09000078
76	0xbe26ac71	-0.16276719
77	0xbadbdf2b	-0.0016774883
78	0xbdc17b26	-0.09447317
79	0x3ddc289c	0.10749933
80	0x3e093f0d	0.13402958
81	0x3ddd06ec	0.10792336
82	0x3e08eaee	0.13370869
83	0x3dd0d5fa	0.10197063
84	0xbd90c751	-0.070692666
85	0xbe3880e4	-0.18017918
86	0x3e1f7153	0.15570574
87	0x3e1b1126	0.1514326
88	0xbda3a72f	-0.07990872
89	0xbe1587fa	-0.14602652
90	0xbccb57b4	-0.024822094
91	0xbd0a2e65	-0.03373565
92	0xba3fb0f8	-0.0007312442
93	0xbb10a367	-0.0022070052
94	0xbe07fbf2	-0.13279703
95	0x3d3d1c23	0.04616941
96	0xbcec2fcc	-0.028831385
97	0xbdf1e65c	-0.11811516
98	0x3e8684c6	0.26273173
99	0xbd3f1cff	-0.046658512
100	0x3e2c22f3	0.16810207
101	0xbc3d9921	-0.011572153
102	0x3e66274a	0.22475925
103	0x3e54b713	0.20772962
104	0x3e767cb6	0.24071011
105	0xbd3fd5a7	-0.046834614
106	0xbe28fdc8	-0.1650306
107	0x3e375cd3	0.17906503
108	0x3dd2a599	0.102854915
109	0x3b2011b3	0.0024424612
110	0xbd6dc97a	-0.05805347
111	0x3bae3530	0.005316399
112	0xbb43071a	-0.0029758872
113	0xbd987127	-0.07443457
114	0x3ce03402	0.02736855
115	0x3db585a8	0.088633835
116	0xbd86ee2f	-0.06588399
117	0x3d92d4c0	0.07169485
118	0x3da0744b	0.07834681
119	0x3e13022a	0.14356294
120	0x3cf2a5d0	0.029620081
121	0xbe49f69a	-0.19722977
122	0x3db8f125	0.0903037
123	0x3d804be9	0.06264479
124	0xbdf64c3f	-0.120262615
125	0xbd2f4039	-0.042785857
126	0x3e17d955	0.14829
127	0xbd949497	-0.07254904
128	0x3db12e22	0.08651377
129	0x3d8486ab	0.064709984
130	0x3e304b3a	0.17216197
131	0x3e2b94b3	0.16755943
132	0x3e1d31f2	0.15351084
133	0xbe27664c	-0.16347617
134	0xbe307414	-0.1723178
135	0xbe7e896a	-0.24857107
136	0x3c3e9de1	0.011634321
137	0x3dae5904	0.08513072
138	0x3ddec1b7	0.10876792
139	0xbc87c58e	-0.016573694
140	0x3deed99c	0.116625994
141	0xbdbcca87	-0.092183165
142	0xbdee8684	-0.116467506
143	0xbe4d0b56	-0.20023856
144	0x3d943365	0.07236365
145	0x3e281dcc	0.16417617
146	0xbdde6d10	-0.10860646
147	0x3de90e18	0.11379641
148	0x3e18085e	0.14846942
149	0x3cb02718	0.021503016
150	0x3e4c9584	0.1997891
151	0x3d4cbf59	0.04998717
152	0x3e31e5be	0.17372796
153	0xbddeeb1d	-0.10884688
154	0xbde7236a	-0.112860516
155	0x3e13636d	0.14393397
156	0x3ea667a8	0.32500958
157	0x3dca484a	0.09877069
158	0x3e3cc63e	0.18434998
159	0xbe34e959	-0.1766714
160	0x3d30281f	0.043007012
161	0x3e1647c1	0.1467581
162	0x3e343f64	0.17602307
163	0xbd0e0d10	-0.034680426
164	0xbc82220a	-0.015885372
165	0x3ce8d410	0.028421432
166	0xbdadb8e4	-0.08482531
167	0xbd113cc0	-0.035458326
168	0x3dedd94e	0.11613713
169	0x3daf7af8	0.08568376
170	0xbdf558a2	-0.11979796
171	0xbdaa40dc	-0.08313152
172	0x3e14f281	0.14545633
173	0xbe0d5bb1	-0.13804509
174	0xbdd07823	-0.10179164
175	0x3e871e93	0.26390514
176	0x3e51eb9c	0.20500034
177	0x3c51826f	0.012787445
178	0x3debb7e8	0.11509687
179	0x3e363da8	0.17796957
180	0x3e68295d	0.22672029
181	0x3e4c7161	0.19965126
182	0x3e2d75a3	0.16939406
183	0x3db5a14a	0.08868654
184	0xbb8b644e	-0.0042539006
185	0xbdaca1d0	-0.08429301
186	0x3c56862b	0.013093512
187	0x3e3572c1	0.17719556
188	0xbe275019	-0.16339149
189	0x3e444f8d	0.19170971
190	0xbe1a5f56	-0.1507543
191	0xbe068611	-0.1313708
192	0x3d945642	0.07243015
193	0x3dcd1669	0.1001404
194	0xbc53ade9	-0.012919881
195	0xbe29f07d	-0.16595645
196	0x3daa1883	0.083054565
197	0x3df9aafa	0.12190814
198	0x3d1f683f	0.038917776
199	0x3d5c32ff	0.05375957
200	0xbe215520	-0.15755129
201	0x3e4e6605	0.20156105
202	0xbc93b7e8	-0.01803203
203	0x3de11a8a	0.1099139
204	0xbe2cc48d	-0.16871853
205	0xbb8509d0	-0.0040600076
206	0x3dea278d	0.11433325
207	0xbdf418af	-0.119187705
208	0xbdaaab13	-0.08333411
209	0x3c32f3ca	0.010922382
210	0x3e6b4eb3	0.2297924
211	0x3e68de9b	0.22741167
212	0x3d110a38	0.035410136
213	0xbcf6f451	-0.030145796
214	0xbe1c7bf0	-0.15281653
215	0xbd1e89b0	-0.038705528
216	0x3d2a119b	0.041520696
217	0x3d7753ab	0.060382526
218	0x3e160354	0.14649707
219	0x3d01004f	0.031494435
220	0xbdc67c24	-0.09691647
221	0xbe545cb8	-0.20738494
222	0x3e637e43	0.22216134
223	0x3e3cfbdc	0.18455452
224	0xbb09d92e	-0.002103399
225	0xbd5dfc54	-0.054195717
226	0xbdb48461	-0.08814312
227	0x3af260be	0.0018491966
228	0xbd206133	-0.039155196
229	0x3d84d2fa	0.06485553
230	0xbe381609	-0.17977156
231	0xbe39dd1e	-0.18150756
232	0xbe24dc6e	-0.16099712
233	0xbe11c9a1	-0.14237072
234	0x3e3b6ac3	0.18302445
235	0x3e71525f	0.23566578
236	0x3d87ac41	0.06624652
237	0x3e055e65	0.1302429
238	0xbd856599	-0.06513519
239	0x3e096bbd	0.13420005
240	0x3e1b712b	0.15179889
241	0x3d102084	0.03518726
242	0x3e21abce	0.15788195
243	0xbe18c8e5	-0.14920385
244	0xbdbcca92	-0.09218325
245	0xbd8ef885	-0.06980995
246	0xbd8b3e21	-0.067989595
247	0x3e3f8790	0.18704057
248	0xbd3fa661	-0.04678953
249	0xbd97aefa	-0.07406421
250	0xbdf62226	-0.12018232
251	0xbe242b14	-0.16032058
252	0xbe3ea484	-0.18617445
253	0x3e41d28a	0.1892797
254	0xbe3111dc	-0.17291969
255	0x3b4db497	0.0031388158

linear.1.bias f4 [64]
0	0x3db7d2ed	0.08975778
1	0x3b9892cd	0.004656172
2	0xbdb06b1a	-0.08614178
3	0xbdbcc40b	-0.0921708
4	0x3d3911a0	0.045182824
5	0x3de3bccc	0.111199945
6	0x3d3e8bcd	0.046520043
7	0x3e8081fa	0.25099164
8	0x3dc4cd56	0.09609477
9	0xbd96a9bf	-0.07356595
10	0x3b74e66b	0.0037368785
11	0xbd01de74	-0.03170629
12	0x3cc78822	0.024356905
13	0x3e01514e	0.12628672
14	0x3e3adfe3	0.18249469
15	0x3e341c0c	0.17588824
16	0x3d8300f2	0.06396665
17	0xbdcaab9b	-0.098960124
18	0x3d973a2e	0.07384144
19	0x3e0268a0	0.12735224
20	0x3d0833ba	0.033252455
21	0x3e3793c7	0.17927466
22	0xbc6a2419	-0.014290833
23	0x3da3b51b	0.079935275
24	0xbe3ff661	-0.1874633
25	0xbda02746	-0.07819991
26	0x3e42d922	0.19028142
27	0xbde145d1	-0.109996445
28	0x3c1a86b2	0.009431528
29	0x3bc297d8	0.0059385113
30	0x3e001022	0.12506154
31	0xbcf3cb97	-0.029760165
32	0xbdf984b5	-0.12183515
33	0x3e4c3de1	0.1994548
34	0x3e1eceaa	0.15508524
35	0x3d558b95	0.05213507
36	0x3e4924b3	0.19642906
37	0x3d70dc25	0.058803696
38	0xbddeba31	-0.10875357
39	0xbe3b969c	-0.18319172
40	0x3c3a2cbe	0.011363206
41	0x3d3b7377	0.045764413
42	0xbd830fd0	-0.063995
43	0x3e18a74d	0.1490757
44	0x3daac224	0.08337811
45	0x3e001b03	0.12510304
46	0x3d57b105	0.052659053
47	0xbdc07ecb	-0.09399184
48	0x3e030f62	0.12798837
49	0xbcaff605	-0.021479616
50	0xbd02dcb6	-0.031948768
51	0x3def7201	0.116916664
52	0xbd0f3f2b	-0.03497235
53	0xbd9a1238	-0.07523006
54	0xbdb6018f	-0.08887016
55	0xbd517870	-0.05114025
56	0x3c2299f6	0.009924402
57	0x3dbbaaca	0.09163435
58	0x3d0b57d6	0.034019314
59	0x3d84316c	0.06454739
60	0xbe4b0fea	-0.1983029
61	0x3d0b243f	0.033970114
62	0x3db90755	0.090346016
63	0xbe225591	-0.15852953

linear.3.weight f4 [128, 64]
0	0x3d813891	0.06309617
1	0x3e2eeddf	0.17082928
2	0xbd81fdbc	-0.06347224
3	0x3aad6ed3	0.0013231881
4	0x3d096c2e	0.033550434
5	0xbd8eb633	-0.069683455
6	0x3de0e287	0.10980707
7	0xbd620908	-0.055184394
8	0xbd1b7f28	-0.037963063
9	0xbbfaf096	-0.0076580746
10	0x3e737659	0.23775615
11	0xbd7fb725	-0.06243052
12	0x3d00c5a5	0.03143849
13	0x3e2f7bba	0.17137042
14	0xbdb37fcb	-0.08764609
15	0xbe067364	-0.13129956
16	0xbda31d2a	-0.07964547
17	0x3e1985d0	0.14992452
18	0xbe307451	-0.17231871
19	0x3d6c1396	0.057635866
20	0xbe1c9ce7	-0.15294228
21	0x3e0e151c	0.1387524
22	0x3d288d57	0.041150417
23	0x3e5e70ca	0.21722713
24	0xbdd73b16	-0.105093166
25	0x3ccfd556	0.025370281
26	0xbd537f4a	-0.051635064
27	0xbdd5d857	-0.10441654
28	0xbdad5aa5	-0.08464555
29	0xbdd8741d	-0.10569022
30	0xbd1ff68f	-0.039053496
31	0xbdaaac92	-0.083336964
32	0xbcc4007a	-0.023926008
33	0xbe011dde	-0.1260905
34	0xbdac1290	-0.08401978
35	0x3e3828be	0.17984292
36	0xbe354384	-0.17701536
37	0xbd271820	-0.04079449
38	0xbd9c7955	-0.0764033
39	0xbdbbda64	-0.09172514
40	0xbdfb09bd	-0.12257717
41	0x3d979791	0.07401956
42	0xbdfbcd6b	-0.1229504
43	0x3d3990f2	0.045304246
44	0xbd4b658e	-0.049657397
45	0x3db05332	0.08609618
46	0xbe8788a5	-0.2647144
47	0xbde39b5d	-0.111136176
48	0x3e707bde	0.23484752
49	0x3e118ed6	0.14214644
50	0x3bdab1d8	0.0066740327
51	0x3d1c6197	0.038179006
52	0x3e85afd4	0.2611071
53	0xbcb75cbf	-0.022383092
54	0x3dc4bbc1	0.09606124
55	0x3de0ff28	0.10986167
56	0x3e195a42	0.14975837
57	0x3dd9938c	0.106238455
58	0x3d982645	0.07429174
59	0x3d96fc22	0.07372309
60	0x3e3c7ca0	0.18406916
61	0x3d865b02	0.06560327
62	0x3deedeef	0.11663615
63	0xbd241b5d	-0.04006516
64	0x3e082030	0.13293529
65	0xbd5fe116	-0.054658018
66	0x3b51a4ff	0.0031989214
67	0xbe618a99	-0.22025527
68	0x3cb2691b	0.021778634
69	0x3dc4dbd5	0.09612242
70	0xbce866b5	-0.028369287
71	0xbdc04bf1	-0.09389485
72	0x3c00ba94	0.007856984
73	0x3d8de666	0.06928711
74	0xbe1d0aac	-0.15336102
75	0xbe15cfa0	-0.14629984
76	0xbd450e23	-0.048109185
77	0x3e02a94f	0.12759899
78	0xbd585488	-0.05281499
79	0xbd453911	-0.048150126
80	0xbd54cda5	-0.05195393
81	0xbd8fe7a7	-0.07026606
82	0xbe16401a	-0.1467289
83	0x3cfab8e0	0.030605733
84	0xbd1167cc	-0.03549938
85	0xbdc80b67	-0.097678
86	0xbe0dacf9	-0.13835515
87	0x3cf84936	0.030308347
88	0xbe09a5a7	-0.13442098
89	0x3de77322	0.11301257
90	0x3de49619	0.11161441
91	0xbd0b073f	-0.033942457
92	0x3d0c47d3	0.034248184
93	0x3d3d4d0d	0.04621606
94	0x3d830cce	0.06398927
95	0x3e152af8	0.14567173
96	0x3c9493af	0.018136827
97	0x3d5ae0a6	0.053436898
98	0xbd91cf1c	-0.07119581
99	0x3d44b573	0.048024606
100	0xbdaca4eb	-0.08429893
101	0xbe15e2d5	-0.14637311
102	0x3df15bb5	0.1178507
103	0x3d0c99d8	0.034326404
104	0xbd895e20	-0.06707406
105	0xbd199524	-0.037495747
106	0xbd775018	-0.060379118
107	0x3cc7892d	0.024357403
108	0x3d803f97	0.06262129
109	0xbb874757	-0.0041283774
110	0xbd077b06	-0.03307631
111	0x3c902bb5	0.017598966
112	0x3e81d043	0.25354204
113	0xbdc18b83	-0.09450438
114	0x3dc430cc	0.0957962
115	0xbe498eba	-0.19683352
116	0x3e375474	0.1790331
117	0x3d8d6118	0.06903285
118	0x3ca7a8e9	0.020466285
119	0x3e4fbc4e	0.20286676
120	0x3d965142	0.073397174
121	0xbab512dc	-0.0013814825
122	0xbc81be9f	-0.015837966
123	0x3e147caf	0.14500688
124	0x3dadee5f	0.08492731
125	0xbe3309d1	-0.17484213
126	0x3ca884e3	0.020571178
127	0xbd306659	-0.043066356
128	0x3d145369	0.03621236
129	0xbcd3f797	-0.025874896
130	0xbde5773b	-0.11204382
131	0xbcffa931	-0.031208606
132	0x3d84b915	0.06480614
133	0xbe2a3553	-0.16621904
134	0xbe2115e5	-0.15731008
135	0x3ccad23b	0.024758449
136	0x3de0c487	0.109749846
137	0x3beff95e	0.007323428
138	0xbcf4cf61	-0.029884042
139	0xbd029a00	-0.031885147
140	0x3d6344b5	0.055485446
141	0x3d649ce3	0.05581368
142	0x3e239b7a	0.15977278
143	0x3d5cb1dc	0.053880557
144	0xbddcd480	-0.10782719
145	0xba3d7d4e	-0.00072284497
146	0x3dbd870a	0.09254272
147	0xbc90b407	-0.017663969
148	0xbd8fdc5f	-0.07024454
149	0xbd1f32cc	-0.038866803
150	0x3c9dc5d7	0.019259376
151	0xbe2d6ca4	-0.16935974
152	0xbc8d600b	-0.01725771
153	0x3e0d638e	0.13807508
154	0x3e13eb98	0.1444534
155	0xbc377ed7	-0.011199675
156	0x3d1ba101	0.037995342
157	0x3d2b6f01	0.04185391
158	0xbe15a80d	-0.14614888
159	0xbabf2944	-0.0014584442
160	0xbda63181	-0.08114911
161	0xbb2253e8	-0.002476925
162	0xbca23fe4	-0.019805856
163	0xbe03dda6	-0.12877521
164	0x3c0a6197	0.008446119
165	0x3cd7b6fd	0.026332373
166	0x3d33a611	0.043859545
167	0x3d9d71a5	0.076876916
168	0x3d841721	0.06449724
169	0xbdea845f	-0.11451029
170	0xbc21879f	-0.009858995
171	0x3e1b7192	0.15180042
172	0x3c3cd5ce	0.011525584
173	0x3da14d9b	0.0787613
174	0x3cb0e04e	0.021591332
175	0xbd47a6cc	-0.048743054
176	0xbdeb8545	-0.115000285
177	0x3d59a513	0.053135943
178	0xbd85f327	-0.06540518
179	0x3df991a3	0.12185981
180	0xbdad4333	-0.08460083
181	0xbd946a03	-0.07246783
182	0x3e1cc3f8	0.15309131
183	0xbcefb8b2	-0.029262874
184	0xbe49b83e	-0.19699189
185	0xbe08f6c2	-0.1337538
186	0xbe1f3425	-0.15547235
187	0xbe2fcca5	-0.1716791
188	0x3e01f35f	0.12690495
189	0xbdc523f0	-0.09625995
190	0x3da8a156	0.082338974
191	0xbe0381c0	-0.12842464
192	0xbd6bb5d9	-0.05754647
193	0xbdb77cb1	-0.0895933
194	0xbe2b2ad9	-0.16715564
195	0xbd423a61	-0.047418956
196	0x3d134cce	0.03596192
197	0xbb700806	-0.0036625876
198	0xbda2da2f	-0.079517715
199	0xbd07f4e9	-0.03319255
200	0xbe120f81	-0.14263727
201	0x3d94ae91	0.072598584
202	0xbdd31e50	-0.10308516
203	0xbda5aedb	-0.08089992
204	0x3d8635b9	0.065532155
205	0xbcaa70e8	-0.020805791
206	0xbdfb80f3	-0.122804545
207	0xbe1aace5	-0.15105017
208	0xbdd6a8a8	-0.104813874
209	0xbdc66740	-0.09687662
210	0xbd966600	-0.07343674
211	0xbda1f9ae	-0.07908951
212	0xbd8b5331	-0.06802977
213	0x3dac80f7	0.084230356
214	0xbd168746	-0.0367501
215	0xbcc235bb	-0.023707261
216	0x3d4c5c33	0.049892616
217	0xbd8be19c	-0.06830141
218	0xbd941e9b	-0.072324
219	0x3ce56351	0.02800146
220	0xbd88a981	-0.06672955
221	0x3e0735ba	0.13204089
222	0xbbb2cfda	-0.0054569067
223	0x3dbac879	0.091202684
224	0x3d1ae3db	0.037814956
225	0xbdb63ac5	-0.08897928
226	0x3d4741fa	0.048646905
227	0xbe013956	-0.12619528
228	0x3d007365	0.03136005
229	0xbd63b1ae	-0.05558937
230	0xbba22803	-0.0049486174
231	0x3e305b9a	0.17222443
232	0xbd5820fa	-0.052765824
233	0xbd01e875	-0.03171583
234	0xbd456db9	-0.048200343
235	0x3cbe1d4a	0.023207325
236	0xbbb7c980	-0.0056087375
237	0x3d7b8d7f	0.061414238
238	0xbe054b7a	-0.13017073
239	0xbd82b58c	-0.063822836
240	0x3e21d1ce	0.1580269
241	0xbe24dcd7	-0.16099869
242	0xbda7cb01	-0.08193017
243	0xbddadc6f	-0.106865756
244	0x3d5b4558	0.05353293
245	0x3c95f2cc	0.018304251
246	0x3d27a862	0.040932067
247	0xbdc84bf8	-0.09780115
248	0x3dbcb619	0.0921442
249	0xbd0dd3ea	-0.034625925
250	0x3d0fb8a6	0.035088204
251	0x3cecbb9a	0.02889805
252	0x3ce2f755	0.027705828
253	0x3bf180bb	0.007370082
254	0x3d8ba9e8	0.068195164
255	0xbe264eba	-0.1624097

linear.3.bias f4 [128]
0	0x3bec76dc	0.0072163176
1	0x3d4ba9b6	0.049722396
2	0xbde87486	-0.1135035
3	0xbd400cc3	-0.04688717
4	0xbc3d0de8	-0.01153896
5	0xbd6e229e	-0.058138482
6	0xbc90786f	-0.017635552
7	0xbdc9c31b	-0.098516665
8	0xbb96088f	-0.004578657
9	0x3dc15ce8	0.094415486
10	0x3a841fb3	0.0010080248
11	0xbd26cf78	-0.0407252
12	0x3e2c45f7	0.16823564
13	0x3d927426	0.0715106
14	0x3d27830b	0.040896457
15	0x3c8361db	0.016037872
16	0x3dcf0e8c	0.101101965
17	0x3d7c42e8	0.061587244
18	0x3dc76efb	0.09737965
19	0xbdcc42b5	-0.09973661
20	0xbd137690	-0.036001742
21	0x3e17bbac	0.14817685
22	0xbda012e9	-0.07816107
23	0xbd1df1aa	-0.038560547
24	0x3cab497f	0.02090907
25	0x3c1b883e	0.009492932
26	0x3d641c57	0.05569109
27	0x3c5019dd	0.012701479
28	0xbd3c7a06	-0.046014808
29	0x3d598d0e	0.053113036
30	0x3cd49a90	0.025952607
31	0x3dfd84f4	0.123788744
32	0xbd2f49cd	-0.04279499
33	0x3cbac162	0.02279729
34	0x3dcdbe4a	0.100460604
35	0xbdf1f07a	-0.118134454
36	0x3d9cb7c9	0.07652242
37	0xbcf903eb	-0.030397376
38	0x3ccc5cd9	0.024946617
39	0x3d3340dc	0.043763027
40	0x3d5dd580	0.054158688
41	0xbde785e4	-0.113048345
42	0x3dbe8ac7	0.093038134
43	0x3d82d9c9	0.063891955
44	0x3b7dc7dd	0.0038723864
45	0xbe437a66	-0.1908966
46	0x3d12018b	0.035646003
47	0xbd032a50	-0.032022774
48	0xbe15ba24	-0.14621788
49	0xbc5312cd	-0.0128829
50	0xbd8ca738	-0.06867832
51	0x3ceda920	0.02901131
52	0xbdec5e9e	-0.11541484
53	0xbc90bf1f	-0.017669259
54	0xbddd4f14	-0.108060986
55	0xbb521cfc	-0.0032060733
56	0x3d5a516e	0.053300314
57	0xbe0b6657	-0.13613258
58	0xbce1260b	-0.02748396
59	0xbd1d0de1	-0.038343314
60	0x3de1852a	0.11011727
61	0xbc85ab82	-0.016317133
62	0x3e0d8e3b	0.13823788
63	0xbdcaad65	-0.09896354
64	0x3b03a098	0.0020084735
65	0xbe015474	-0.12629873
66	0x3cb1bb3f	0.021695731
67	0x3da251b9	0.079257436
68	0xbd7250ba	-0.059159018
69	0xbccf268e	-0.025286939
70	0x3ddc812d	0.10766826
71	0xbdc37900	-0.09544563
72	0x3e0906bd	0.13381477
73	0x3d3227d2	0.043495007
74	0x3d9fcf0f	0.07803165
75	0xbced3e15	-0.028960267
76	0x3d96e999	0.07368774
77	0x3d20f820	0.03929913
78	0x3dbab9d2	0.09117474
79	0xbd602284	-0.054720417
80	0x3cedac38	0.029012784
81	0x3c786a08	0.015161999
82	0xbd3d9c8f	-0.046291884
83	0x3b12ed0a	0.0022419118
84	0x3d2dc749	0.04242638
85	0xbcf523cb	-0.029924294
86	0x3de01880	0.10942173
87	0x3d702fa7	0.058639195
88	0x3d85bc5a	0.06530066
89	0xbdb6c9e6	-0.08925228
90	0xbcda9d5f	-0.026686369
91	0x3d01e649	0.031713758
92	0x3d21e827	0.03952804
93	0xbd10e582	-0.035375126
94	0x3e4b50c1	0.19855024
95	0xbb87c81c	-0.004143728
96	0x3dcf674f	0.101271264
97	0xbb4755a8	-0.0030416045
98	0x3c8d845a	0.017275024
99	0x3d89cc9d	0.0672848
100	0xbd43087e	-0.04761552
101	0xbe0213ed	-0.12702914
102	0xbc9f9630	-0.019480795
103	0x3dec5229	0.11539108
104	0xbd807de5	-0.062740125
105	0xbdf7a3a8	-0.12091762
106	0x3d77a256	0.06045755
107	0xbd97ebd7	-0.0741803
108	0xbd443ed7	-0.04791149
109	0x3cf32e0c	0.029685043
110	0xbcf117a7	-0.029430224
111	0x3ddbbf19	0.10729808
112	0x3c9a1cd9	0.018812584
113	0x3db72f79	0.089446016
114	0xbd2fb0a7	-0.04289308
115	0x3d1c6a96	0.038187586
116	0xbd730640	-0.059332132
117	0xbd8ec988	-0.06972033
118	0xbd98c2e3	-0.07459047
119	0xbd932d82	-0.07186414
120	0xbd5820f8	-0.052765816
121	0xbc760c9c	-0.015017655
122	0xbd777997	-0.06041869
123	0xbd4009cc	-0.046884343
124	0xb9f5281c	-0.00046759925
125	0xbd8555e1	-0.06510521
126	0x3e0bb7a9	0.1364428
127	0x3dd5e39c	0.10443804

linear.5.weight f4 [64, 128]
0	0x3dfd0aab	0.123555504
1	0xbd510770	-0.051032484
2	0xbddf42af	-0.10901391
3	0x3c6b6e29	0.014369526
4	0xbc8a625b	-0.016892603
5	0xbc0bcdfb	-0.008532996
6	0xbd40a637	-0.047033515
7	0x3d24037e	0.040042393
8	0xbd998ed9	-0.07497949
9	0x3ded99ef	0.11601626
10	0xbd841b31	-0.06450499
11	0x3ced8466	0.028993797
12	0xbdc0fa63	-0.094227575
13	0x3d356595	0.04428633
14	0xbc2951a7	-0.010334409
15	0xbde5ffb4	-0.11230412
16	0xbb45458b	-0.0030101265
17	0x3e1a22d6	0.15052351
18	0xbd1b01a4	-0.03784336
19	0x3e41e237	0.1893395
20	0x3d89c736	0.067274496
21	0x3e01b040	0.1266489
22	0xbce536b1	-0.02798018
23	0xbda8b539	-0.082376905
24	0xbd89cb87	-0.06728273
25	0x3d8cb38c	0.06870183
26	0xbde5c261	-0.112187155
27	0xbd5c6a17	-0.053812113
28	0xbc439eb4	-0.011939693
29	0xbe295784	-0.16537291
30	0x3da6a513	0.08136954
31	0xbcd17f40	-0.025573373
32	0x3cba90b6	0.022774082
33	0x3d923a38	0.071400106
34	0x3e1b8a80	0.15189552
35	0xbc4d20ab	-0.012519996
36	0xbce6b7f4	-0.028163888
37	0xbc7972c9	-0.015225121
38	0xbd657926	-0.05602374
39	0xbcfb0f37	-0.030646903
40	0x3d1be2b7	0.03805801
41	0xbd2c2019	-0.0420228
42	0x3d876a0e	0.06612025
43	0x3de4a2c5	0.11163858
44	0x3e219497	0.15779339
45	0xbd63c370	-0.055606306
46	0xbb8b07a7	-0.0042428556
47	0xbd4c8cef	-0.049939092
48	0x3d1ee902	0.038796432
49	0xbdf0b442	-0.117531314
50	0xbc654a04	-0.0139946975
51	0xbd33c147	-0.043885496
52	0xbd94ff26	-0.07275228
53	0xbd713d9f	-0.058896657
54	0xbd85f4c8	-0.06540829
55	0x3d60b99c	0.05486451
56	0x3dc1cea9	0.094632454
57	0x3d1badad	0.038007427
58	0xba31627b	-0.0006766689
59	0x3d89a110	0.06720173
60	0xbe3bf607	-0.1835557
61	0x3dc67b7a	0.0969152
62	0xbd529551	-0.05141193
63	0xbd3beb67	-0.045878794
64	0xbdabb4a6	-0.08384065
65	0xbd5eb44f	-0.054371174
66	0xbe4b4f6a	-0.19854513
67	0xbe238417	-0.15968357
68	0xbd54376b	-0.051810663
69	0xbe2dee6f	-0.16985486
70	0xbc78b3b5	-0.015179564
71	0x3dc48680	0.09595966
72	0xbe0597d2	-0.13046196
73	0x3c8d2693	0.017230308
74	0xbe515999	-0.20444335
75	0x3d3fb17d	0.046800125
76	0xbd99cae1	-0.07509399
77	0xbce29de1	-0.027663173
78	0x3cbd458e	0.023104455
79	0x3df8a93c	0.12141654
80	0x3da95b76	0.08269398
81	0xbc426e2a	-0.0118670855
82	0xbd4d6aa7	-0.05015054
83	0xbe1faaac	-0.1559245
84	0x3d2d05e1	0.042241935
85	0xbe3ed086	-0.18634233
86	0xbbcab1d3	-0.006185749
87	0xbd46e634	-0.048559383
88	0x3da454f8	0.08024019
89	0xbdcfc6a9	-0.10145313
90	0x3d28a7a8	0.041175514
91	0x3c913aad	0.017728174
92	0xbe07ff0f	-0.13280891
93	0xbca6eae6	-0.02037568
94	0x3d036306	0.032076858
95	0x3d5954ab	0.05305926
96	0xbdd5ab6a	-0.10433085
97	0xbdb670c5	-0.08908228
98	0xbbe31c80	-0.0069308877
99	0xbe12f44e	-0.14351007
100	0xbd759b6f	-0.059962686
101	0x3d25b54d	0.040456105
102	0xbd63e6e4	-0.055640116
103	0x3df15464	0.11783674
104	0x3d20f8a0	0.039299607
105	0x3d04957e	0.03236913
106	0xbcbe5bbf	-0.023237107
107	0x3daf5dc9	0.0856281
108	0xbcf65a11	-0.030072244
109	0xbc238fc2	-0.009983005
110	0x3ddbb0e7	0.10727101
111	0xbdb8a215	-0.0901529
112	0xbd57f714	-0.052725866
113	0x3d9e823a	0.077396825
114	0xbc86cdf6	-0.016455632
115	0x3e02e217	0.12781559
116	0x3d62e1fb	0.055391293
117	0xbd2848e2	-0.04108513
118	0xbd8120a6	-0.06305055
119	0x3ccf072e	0.025271978
120	0xbd01a568	-0.031651884
121	0xbd7c34c3	-0.061573755
122	0xbdb812af	-0.089879386
123	0xbb3f4db4	-0.0029190602
124	0xbe0035d7	-0.12520538
125	0xbcee8ffe	-0.029121395
126	0x3d13413f	0.035950895
127	0x3d093c62	0.03350485
128	0x3d40feb8	0.04711792
129	0xbd8feb0d	-0.07027254
130	0x3e056590	0.13027024
131	0xbca8b69d	-0.02059489
132	0xbbdd9385	-0.0067619705
133	0x3d29d2c7	0.04146078
134	0xbdada0c4	-0.08477929
135	0xbdb8b6ad	-0.09019218
136	0xbd96002e	-0.07324253
137	0x3d86cf6a	0.0658253
138	0xbd87063c	-0.06592986
139	0x3cab6f96	0.020927232
140	0x3d91b91a	0.071153834
141	0xbd820f4a	-0.063505724
142	0x3acd822c	0.0015679053
143	0x3d7123f7	0.05887219
144	0xbcfbfe52	-0.030760918
145	0x3dc09cb0	0.09404886
146	0xbd9fff1b	-0.078123294
147	0xbe39739d	-0.18110509
148	0xbcb33d97	-0.021879954
149	0xbd4fef8f	-0.05076557
150	0xbd26b82d	-0.040702987
151	0x3e87a381	0.2649193
152	0xbab49787	-0.0013778069
153	0xbd6b52f0	-0.057452142
154	0x3d5a527a	0.053301312
155	0xbc464947	-0.012102432
156	0xbcc050f4	-0.023476101
157	0x3dd7458a	0.105113104
158	0xbdef0964	-0.11671713
159	0x3dac2083	0.084046386
160	0xbdc9d8e6	-0.09855823
161	0x3d53baf9	0.051691983
162	0x39b630c8	0.0003475009
163	0x3d4c749f	0.049915906
164	0xbd8d889a	-0.0691082
165	0xbb470041	-0.0030365142
166	0xbd61cefd	-0.05512904
167	0xbe0a4bb0	-0.13505435
168	0xbdf9d413	-0.12198653
169	0x3da06cad	0.07833228
170	0x3d94f915	0.07274071
171	0xbddee026	-0.10882597
172	0x3c59aaf6	0.013285389
173	0xbcfd4cee	-0.030920472
174	0x3dc6a74a	0.096998766
175	0xbd7d1856	-0.061790787
176	0xbdf1c574	-0.11805239
177	0x3e7cbcbf	0.24681376
178	0x3e8b1a1b	0.27168354
179	0xbe834fb9	-0.2564676
180	0xbd5859e5	-0.052820105
181	0xbd33ecfc	-0.043927178
182	0x3c3c16c0	0.011480033
183	0xbd52c846	-0.051460527
184	0x3cf55323	0.02994687
185	0xbd8aa131	-0.06769026
186	0xbd57087b	-0.052498322
187	0x3dc1f729	0.0947097
188	0xbd89fc68	-0.06737596
189	0xbdb678a6	-0.089097306
190	0xbd97e1f3	-0.07416143
191	0x3d6447d5	0.055732567
192	0x3d855bb3	0.06511631
193	0xbd443b9b	-0.047908407
194	0x3d9945c4	0.0748401
195	0xbdfbecca	-0.12301023
196	0xbdf96365	-0.12177161
197	0x3e174712	0.14773205
198	0xbcaeac82	-0.021322493
199	0xbe144fe9	-0.14483608
200	0xbd80ee2b	-0.06295427
201	0xbd9a7b7b	-0.07543083
202	0x3c9bd8a1	0.019024195
203	0xbe82102d	-0.25402966
204	0xbd8463bc	-0.06464335
205	0xbdde55cd	-0.10856209
206	0xbda3f0f4	-0.080049425
207	0x3e0f2445	0.1397868
208	0xbdd9b583	-0.10630324
209	0xbe2259af	-0.15854524
210	0x3de7bbb9	0.11315102
211	0xba8a0a29	-0.0010531592
212	0xbdc0e7b8	-0.09419197
213	0x3e1c8aa3	0.1528726
214	0x3d4b5139	0.049638007
215	0xbe6052b0	-0.21906543
216	0xbc40a64c	-0.011758398
217	0x3da46f41	0.080290325
218	0x3cc60670	0.024172992
219	0xbe1955fd	-0.14974208
220	0xbd03c5b7	-0.032170977
221	0xbd673dc6	-0.056455396
222	0x3dd6cac9	0.10487897
223	0xbe3195fa	-0.17342368
224	0xbe92d4eb	-0.2867807
225	0x3dc45679	0.09586806
226	0x3dbd0057	0.092285804
227	0x3d50e021	0.050994996
228	0xbdc31010	-0.09524548
229	0xbd343206	-0.04399302
230	0xbd6ef628	-0.05834022
231	0xbd52dc68	-0.051479727
232	0x3c820333	0.015870666
233	0xbe193f02	-0.14965442
234	0x3d0c0afb	0.03419016
235	0x3cff226a	0.03114434
236	0xb957344c	-0.0002052348
237	0xbd43580c	-0.04769139
238	0x3df00610	0.11719906
239	0x3dfcdf46	0.123472735
240	0xbe316ef4	-0.17327482
241	0x3d7d4d8a	0.061841525
242	0x3cb178a1	0.021663966
243	0xbdc0836a	-0.09400065
244	0x3cb8125e	0.022469696
245	0xbdb7441d	-0.089485385
246	0xbe434b57	-0.19071709
247	0x3de447a7	0.11146479
248	0x3cf49b53	0.02985922
249	0xbc7dedb0	-0.015498564
250	0xbc125654	-0.008931715
251	0xbd5eb254	-0.054369286
252	0x3cfce721	0.03087193
253	0x3d7a8a64	0.061167136
254	0xbdfc8c66	-0.123314664
255	0xbcbff003	-0.023429876

linear.5.bias f4 [64]
0	0x3d93cc2d	0.07216678
1	0x3cb5eb72	0.022206996
2	0x3d8a6f49	0.06759507
3	0xbbad418a	-0.005287354
4	0x3d0dcd16	0.034619413
5	0x3cc976fe	0.024592873
6	0xbd51b423	-0.051197182
7	0xbbbf3322	-0.005834953
8	0x3df1a490	0.11798966
9	0x3d28c79a	0.04120598
10	0x3c55544c	0.013020586
11	0x3d9372ac	0.07199606
12	0xbdedb5e1	-0.11606956
13	0x3e03e436	0.12880024
14	0xbbc95d98	-0.0061451904
15	0xbddd26e1	-0.10798431
16	0xbde5e7dd	-0.11225865
17	0xbcd48cd6	-0.025946062
18	0xbdb36264	-0.08759001
19	0x3d37494b	0.044747632
20	0x3cc3c615	0.023898164
21	0xbc90e8cb	-0.01768913
22	0x3dd3d5aa	0.103434876
23	0x3dc63c0b	0.09679421
24	0x3dc760c3	0.09735253
25	0x3deff957	0.1171748
26	0x3d4aa75a	0.049476005
27	0x3d794fb7	0.060867038
28	0xbd32b015	-0.043624956
29	0xbd712efc	-0.0588827
30	0x3d43ab25	0.047770638
31	0x3d766a75	0.06016012
32	0x3d88d11b	0.06680509
33	0x3df81e16	0.121151134
34	0x3c988eec	0.018622838
35	0xbd82b06b	-0.06381305
36	0xbbe296b5	-0.0069149383
37	0xbdcf68f0	-0.10127437
38	0xbd43de87	-0.04781964
39	0x3e11fb5d	0.14256044
40	0xbd8f04e7	-0.06983357
41	0x3e096b5d	0.13419862
42	0xbb55bfce	-0.0032615545
43	0x3e071abd	0.13193794
44	0xbd40f66d	-0.04711001
45	0xbcf47c9d	-0.029844576
46	0x3cf146cc	0.029452704
47	0x3d0bb1e6	0.034105204
48	0xbd01b91f	-0.031670686
49	0x3c9cecfc	0.019155972
50	0x3cec93a9	0.028879004
51	0x3e30c48d	0.17262478
52	0xbc657219	-0.014004254
53	0x3dabd958	0.083910644
54	0xbc218308	-0.0098579
55	0x3d8700de	0.06591962
56	0x3c48d9ae	0.01225893
57	0x3cde7da5	0.027159521
58	0xbc2ebf07	-0.010665662
59	0xbcc233f2	-0.02370641
60	0x3da6e054	0.08148256
61	0x3c322ce1	0.010874958
62	0xbd82fc69	-0.063958
63	0x3c67c9dc	0.014147248

linear.7.weight f4 [32, 64]
0	0x3c064ded	0.00819729
1	0xbd77a113	-0.060456347
2	0x3e7fcd64	0.24980694
3	0x3ddfa4bb	0.10920092
4	0xbd12ff52	-0.035888024
5	0xbcd016b8	-0.025401458
6	0xbd801533	-0.062540434
7	0xbe577472	-0.21040514
8	0xbe4c19e1	-0.19931747
9	0x3e031c55	0.12803777
10	0xbdb28117	-0.08716028
11	0x3d9e2cb1	0.07723368
12	0x3d4b59bb	0.04964612
13	0x3dca351c	0.09873411
14	0xbd20957b	-0.039205056
15	0xbdc90821	-0.098160036
16	0xbe0f7373	-0.14008884
17	0x3d2a7781	0.041617874
18	0x3dc1290f	0.094316594
19	0xbb89ca1f	-0.004205003
20	0x3d8d9866	0.06913833
21	0xbe0fd3aa	-0.14045587
22	0xbd869595	-0.06571499
23	0x3e1a5546	0.15071592
24	0xbde86de6	-0.113490865
25	0x3b9e08c0	0.0048228204
26	0x3d2b0cde	0.041760318
27	0x3c985049	0.01859297
28	0xbe0eed47	-0.13957702
29	0x3e4a9232	0.19782332
30	0x3d977255	0.07394854
31	0x3df8fcfc	0.12157628
32	0x3d213f78	0.03936717
33	0x3d1cffda	0.038329937
34	0xbe4cc553	-0.19997148
35	0xbd994863	-0.0748451
36	0x3be9eb51	0.0071386476
37	0xbe1c5d99	-0.1527008
38	0xbdc2160c	-0.09476861
39	0xbe27a8b7	-0.16372953
40	0x3de298d8	0.11064309
41	0xbcad8e7b	-0.021186104
42	0x3ddade88	0.10686976
43	0xbd113093	-0.035446715
44	0x3ba4e372	0.0050319964
45	0x3e0e7803	0.13912968
46	0x3d8c77b3	0.06858768
47	0x3de20bed	0.11037431
48	0x3952eb46	0.00020114807
49	0xbd2860c2	-0.0411079
50	0x3db871dd	0.09006093
51	0x3dabad6b	0.08382686
52	0x3d447016	0.047958456
53	0x3db1f012	0.08688368
54	0x3e246bdf	0.16056775
55	0x3bfc5162	0.0077001313
56	0xbe0dc5e6	-0.13845024
57	0x3df11d95	0.117732204
58	0x3cde9f9c	0.027175717
59	0xbdef7262	-0.11691739
60	0xbb8a3ffa	-0.0042190524
61	0xbc937ce8	-0.018003896
62	0x3d8d1a74	0.06889811
63	0x3d4582fa	0.048220612
64	0x3e2d641c	0.1693272
65	0xbe875f1c	-0.2643975
66	0x3da1b2cb	0.0789543
67	0x3e34772c	0.17623585
68	0x3dd8bb2a	0.10582574
69	0x3d86b24d	0.06576977
70	0xbd0652c1	-0.032793764
71	0x3d91aea5	0.07113389
72	0xbe11989b	-0.1421837
73	0x3d841868	0.064499676
74	0xbd3c9870	-0.046043813
75	0xbcd80589	-0.026369827
76	0x3d363ef4	0.04449363
77	0x3e4cece0	0.20012236
78	0xbdd0608d	-0.101746656
79	0x3dd371b6	0.10324423
80	0xbe103223	-0.14081626
81	0xbd272840	-0.04080987
82	0xbd9fa131	-0.07794417
83	0x3c2410e2	0.010013791
84	0x3d48766a	0.048941053
85	0x3e12769d	0.1430306
86	0xbe11c9d9	-0.14237155
87	0x3d44c27c	0.048037037
88	0x3dc08265	0.09399871
89	0x3e5e68c9	0.2171966
90	0xbe0f6371	-0.14002778
91	0xbd85a558	-0.065256774
92	0xbe4edad6	-0.20200667
93	0xbe136521	-0.14394046
94	0x3d8aa4ea	0.06769736
95	0xbe1d405a	-0.1535658
96	0x3cf44f39	0.029822933
97	0x3e319ae6	0.17344245
98	0x3c20b548	0.009808846
99	0xbe021cd1	-0.12706305
100	0xbd580cae	-0.052746467
101	0xbd4edab6	-0.050501548
102	0x3bab248a	0.0052228617
103	0x3e3ac9ca	0.18241039
104	0xba8272fa	-0.0009952479
105	0x3c868879	0.016422497
106	0xbdfc32bf	-0.123143665
107	0x3e0da55f	0.13832615
108	0x3e10d21f	0.14142655
109	0xbe0b204a	-0.13586536
110	0x3c97d578	0.018534407
111	0xbd2234f7	-0.039601292
112	0x3e554dca	0.20830455
113	0x3d25a550	0.040440857
114	0x3d0fb081	0.035080437
115	0xbcca0209	-0.024659174
116	0xbd984057	-0.07434147
117	0x3dda36e4	0.10655001
118	0x3df6dadd	0.120534636
119	0xbc908025	-0.01763923
120	0x3e4e4cfb	0.20146553
121	0xbdd693c9	-0.104774065
122	0xbd6b87c4	-0.057502523
123	0x3db78fb8	0.08962959
124	0xbda1fde1	-0.07909752
125	0xbdcd6a24	-0.1003001
126	0xbce1db6b	-0.027570447
127	0xbd2957f8	-0.04134366
128	0x3d2e196a	0.042504705
129	0x3e2157bc	0.15756124
130	0x3da08bcd	0.07839165
131	0xbd208eeb	-0.039198797
132	0xbe5847d1	-0.21121146
133	0xbad81d9c	-0.0016488316
134	0x3df47363	0.11936071
135	0x3dc60b45	0.09670118
136	0xbcd68bbc	-0.026189677
137	0x3e2dae3d	0.16960998
138	0x3dcdabda	0.10042544
139	0xbd1e6ab1	-0.038675968
140	0x3e300c3a	0.17192164
141	0x3e0aca59	0.13553752
142	0x3da8c061	0.08239818
143	0xbddb7f2c	-0.107176155
144	0xbc47dfbf	-0.012199341
145	0xbe51a431	-0.2047279
146	0x3dbd25b4	0.09235707
147	0xbe447950	-0.19186902
148	0xbd51ce24	-0.05122198
149	0xbe48fb4b	-0.1962711
150	0xbcb81024	-0.022468634
151	0xbe1f4abf	-0.15555857
152	0x3ce2bbb9	0.027677404
153	0x3bdff8e2	0.006835089
154	0xbdeca207	-0.11554342
155	0x3e24929a	0.16071549
156	0x3dc9306b	0.09823688
157	0xbe03918b	-0.12848489
158	0xbd872bfd	-0.06600187
159	0x3e4ccef5	0.20000823
160	0xbe1f28a7	-0.15542851
161	0x3d45af89	0.048263106
162	0xbd9171d5	-0.0710179
163	0x3dd538a0	0.10411191
164	0x3d3112e9	0.043230925
165	0x3e84379a	0.2582367
166	0x3c9c0c25	0.01904876
167	0xbc132cdb	-0.008982862
168	0x3dd0dffd	0.101989724
169	0xbdf01c3a	-0.11724134
170	0xbd31b1da	-0.043382503
171	0xbddd8214	-0.10815826
172	0xbd35f09f	-0.044418927
173	0x3d8c8c40	0.06862688
174	0xbe48f6f9	-0.19625463
175	0xbb1d4c91	-0.0024001936
176	0x3dcabdf6	0.098995134
177	0x3d3eeb97	0.046611395
178	0xbc89ab89	-0.016805427
179	0xbded3091	-0.11581529
180	0xbda17243	-0.07883122
181	0x3d07dc96	0.03316935
182	0xbd6de71c	-0.05808173
183	0xbc2721aa	-0.010200897
184	0xbd77efda	-0.060531475
185	0xbdbf17ab	-0.09330686
186	0xbe1dcd04	-0.15410239
187	0xbdae7e25	-0.08520154
188	0xbd79cec5	-0.060988206
189	0xbde0ee99	-0.10983009
190	0x3dc6e06c	0.09710774
191	0xbc4d680b	-0.012537013
192	0x3e479504	0.19490439
193	0xbdea62f1	-0.11444653
194	0xbdbafb66	-0.09129982
195	0xbe857567	-0.26066133
196	0xbe1b2454	-0.15150577
197	0x3c0629a8	0.008188643
198	0x3d382c96	0.044964395
199	0xbda9ecc5	-0.08297113
200	0x3e038b9a	0.12846223
201	0xbe2493ee	-0.16072056
202	0x3c6449e6	0.013933634
203	0xbd121be8	-0.035671145
204	0x3d3dbb50	0.046321213
205	0xbc4d9152	-0.012546854
206	0xbd1aa99f	-0.03775942
207	0x3d0ba75f	0.034095164
208	0x3d1f1ee6	0.038847826
209	0xbd1912ef	-0.037371572
210	0x3ca4a450	0.020097882
211	0xbda9f833	-0.08299293
212	0x3d7caef1	0.061690275
213	0xbbdf1019	-0.006807339
214	0x3d936f03	0.07198908
215	0xbde6b07b	-0.1126413
216	0x3ce6b3a6	0.028161835
217	0x3e241ff1	0.1602781
218	0xbe890772	-0.26763493
219	0xbe50cb07	-0.20389949
220	0xbcefbf51	-0.029266031
221	0x3d10db0e	0.035365157
222	0x3e33ec2c	0.17570561
223	0xbe158c54	-0.14604312
224	0xbe509e48	-0.2037288
225	0x3d3c4747	0.045966413
226	0x3d26d177	0.040727105
227	0xbd69c230	-0.057069957
228	0x3d47da12	0.048791952
229	0x3e229f5b	0.15881102
230	0xbd3129a2	-0.043252595
231	0xbd7b3662	-0.06133116
232	0xbceb94d9	-0.0287575
233	0xbd8d1aa5	-0.06889848
234	0xbc88989a	-0.016674329
235	0x3dc3b879	0.0955667
236	0xbd340b88	-0.04395631
237	0xbd8d0228	-0.06885177
238	0x3dbeb95a	0.09312697
239	0xbda49bf9	-0.08037562
240	0xbdd42b99	-0.10359878
241	0x3db2077f	0.08692836
242	0xbd48f56b	-0.049062174
243	0xbdf87dee	-0.12133394
244	0xbe0fb715	-0.14034684
245	0xbe562eb7	-0.20916258
246	0x3c507b34	0.012724686
247	0xbc7f23e4	-0.015572522
248	0xbc370e21	-0.011172802
249	0xbddad6b3	-0.10685482
250	0x3dc18bd0	0.09450495
251	0xbe0d4a73	-0.13797931
252	0xbdb1b42d	-0.08676944
253	0xbd630421	-0.05542386
254	0x3e05997a	0.13046828
255	0x3dfd445d	0.12366555

linear.7.bias f4 [32]
0	0x3dae2d4c	0.085047334
1	0x3d5ade25	0.05343451
2	0xbe1dd274	-0.15412313
3	0x3e00d24c	0.12580222
4	0x3c2c876b	0.010530333
5	0xbde56572	-0.1120099
6	0x3c90739c	0.017633252
7	0x3e0f2d3a	0.13982096
8	0x3dd2454c	0.102671236
9	0xbd421136	-0.047379695
10	0x3cfbf8c4	0.03075827
11	0xbd9ed341	-0.07755137
12	0xbddfc02c	-0.10925326
13	0xbc9d511f	-0.01920372
14	0x3e0974bc	0.13423437
15	0x3d698f45	0.057021398
16	0xbc6f96c8	-0.014623351
17	0x3e153be1	0.14573623
18	0x3e0288ec	0.12747544
19	0x3df6db58	0.12053555
20	0xbc1fc912	-0.009752529
21	0xbd18b813	-0.03728492
22	0xbe0428be	-0.12906167
23	0x3d0fe4ca	0.0351303
24	0x3d032f71	0.032027666
25	0xbbc9bf7a	-0.006156859
26	0xbda19e5b	-0.07891532
27	0xbe385287	-0.18000232
28	0x3db668fd	0.08906744
29	0x3dc07509	0.09397323
30	0x3a43108d	0.0007441126
31	0x3e29ff82	0.16601375

linear.9.weight f4 [4, 32]
0	0x3e4da272	0.20081499
1	0xbe62c5e6	-0.22145805
2	0xbd829086	-0.06375222
3	0x3e0e810a	0.13916412
4	0xbd633d27	-0.05547824
5	0x3e17e4b9	0.14833345
6	0x3dc63a79	0.096791215
7	0x3d3624a9	0.044468556
8	0x3e3b718a	0.1830503
9	0xbd9b999b	-0.07597657
10	0xbe06a157	-0.13147484
11	0x3e43f3f7	0.19136034
12	0xbd63af42	-0.05558706
13	0xbe35d254	-0.17756015
14	0x3dd74120	0.105104685
15	0xbe202753	-0.15640001
16	0xbe27b4c7	-0.16377555
17	0x3dd83fa9	0.10559017
18	0xbd6450a2	-0.05574096
19	0x3bbe7cc7	0.0058132145
20	0xbe49d4ee	-0.19710132
21	0x3c9d706d	0.019218648
22	0x3e82d125	0.2555019
23	0xbe0c8235	-0.13721545
24	0x3e3544d0	0.17702031
25	0xbd80111f	-0.062532656
26	0xbdaddfd2	-0.08489956
27	0x3e0f9882	0.14023021
28	0xbdb22d3a	-0.087000325
29	0x3b9b657e	0.0047423234
30	0xbde38411	-0.11109174
31	0xbda0f716	-0.07859628
32	0x3e2f9014	0.17144805
33	0x3cc884bd	0.024477357
34	0x3e2f1427	0.17097531
35	0x3cd9991c	0.026562266
36	0x3d860683	0.06544211
37	0x3dc5a11d	0.096498705
38	0x3dd1e350	0.102484345
39	0xbd0e99f4	-0.03481479
40	0xbe298c8d	-0.16557522
41	0x3d8e3fb6	0.06945746
42	0x3dabec7c	0.08394715
43	0xbe1a320a	-0.15058151
44	0xbde39294	-0.11111942
45	0x3e38388f	0.17990325
46	0x3e175476	0.14778313
47	0xbe21e287	-0.1580907
48	0x3db4eb78	0.088339746
49	0xbe0f9686	-0.14022264
50	0x3e144fb9	0.14483537
51	0x3e35702a	0.17718568
52	0xbdc2d04d	-0.095123865
53	0x3cc3e199	0.023911284
54	0xbd1426c9	-0.0361698
55	0xbdaffb34	-0.08592835
56	0xbc53e3ed	-0.01293276
57	0x3e15f131	0.14642788
58	0x3e21b3af	0.157912
59	0x3de0c788	0.109755576
60	0x3dbf6dd1	0.09347118
61	0x3e357c2b	0.17723148
62	0xbe170a12	-0.14749935
63	0xbe632155	-0.22180684
64	0xbe4b5d1a	-0.19859734
65	0xbe481d02	-0.19542316
66	0xbe503d30	-0.20335841
67	0xbe5a3ed7	-0.21313034
68	0x3e001b02	0.12510303
69	0xbe4faae2	-0.2028003
70	0xbe7c0c75	-0.24614127
71	0x3e55d0b5	0.20880397
72	0xbdb980d6	-0.09057777
73	0xbd858bd5	-0.065208115
74	0x3dfe34c3	0.12412407
75	0xbd3e11e0	-0.046403766
76	0xbbbbd9cf	-0.005732752
77	0xbe5d0e3a	-0.21587458
78	0xbdda2edc	-0.10653469
79	0xbd901451	-0.07035125
80	0xbd8b2195	-0.06793515
81	0x3b9b4fb8	0.004739728
82	0x3c6b80fd	0.014374015
83	0x3e4e8198	0.20166624
84	0x3d0d394e	0.034478478
85	0xbd9ea946	-0.0774713
86	0x3acbcbc2	0.0015548395
87	0x3e1ffbaf	0.15623353
88	0xbe3f26cc	-0.18667144
89	0x3d907ac8	0.07054669
90	0xbd330f10	-0.043715537
91	0xbe22a939	-0.15884866
92	0x3e80281b	0.25030598
93	0xbd14543e	-0.036213152
94	0x3de54590	0.111949086
95	0x3da9f433	0.082985304
96	0x3e1b7ef2	0.15185145
97	0x3ddb7493	0.10715594
98	0x3ccca97e	0.024983164
99	0xbe3a3447	-0.18184005
100	0xbcf63d1f	-0.030058442
101	0x3e1efc11	0.15525843
102	0x3cd9d35d	0.026590044
103	0x3d2c8f33	0.042128753
104	0xbd23392f	-0.039849456
105	0x3e486b4f	0.19572185
106	0x3cc52eba	0.024070133
107	0xbe0bea46	-0.13663587
108	0xbdeb0922	-0.11476351
109	0xbd865e05	-0.065609016
110	0x3b911fee	0.004428855
111	0x3bf8655d	0.007580443
112	0x3df5f274	0.12009135
113	0xbd63f210	-0.05565077
114	0xbe694f16	-0.22784075
115	0xbe4750b3	-0.19464378
116	0x3e1ede87	0.15514575
117	0x3b26cf91	0.002545331
118	0xbe86492d	-0.26227704
119	0x3cb8224c	0.022477292
120	0xbdf85e34	-0.12127343
121	0x3d5d1c9d	0.053982366
122	0xbe41f42d	-0.18940802
123	0xbd977263	-0.073948644
124	0xbdd850d0	-0.10562289
125	0x3d9e9034	0.07742348
126	0x3d802694	0.06257358
127	0x3da0b4d8	0.07846993

linear.9.bias f4 [4]
0	0x3dadd71a	0.08488293
1	0xbc6c0da7	-0.014407552
2	0xbc54d584	-0.012990359
3	0x3e571461	0.21003868

shared_mlp.1.weight f4 [128, 270]
0	0x3d2bfd40	0.041989565
1	0xbce903f9	-0.028444277
2	0x3cdc9929	0.026928501
3	0xbda04579	-0.07825751
4	0xbc9edae0	-0.019391477
5	0xbcb0f379	-0.021600472
6	0x3c89cb56	0.016820591
7	0x3ce4f919	0.02795081
8	0xbd3017c4	-0.042991415
9	0xbcfd77a4	-0.030940838
10	0x3ccd81a8	0.025086239
11	0x3cb972e3	0.02263779
12	0xbbbcec1e	-0.005765452
13	0xbd03376d	-0.03203528
14	0x3cf3aa1d	0.029744202
15	0xbd90baf1	-0.07066906
16	0x3da873fe	0.08225249
17	0x3cc99f85	0.024612198
18	0xbd101fcc	-0.035186574
19	0x3d7363d3	0.05942137
20	0x3d90851a	0.07056637
21	0x3cacd01c	0.021095328
22	0x3d53546a	0.051594175
23	0x3dbbc599	0.09168548
24	0x3d29a3c1	0.041415934
25	0xbacd176f	-0.0015647243
26	0x3d5e67ae	0.054298095
27	0xbca4f109	-0.020134466
28	0x3d9f9ccf	0.07793581
29	0x3d887c3a	0.06664319
30	0xbd0cd6f4	-0.034384683
31	0xbc959165	-0.018257806
32	0x3d8475c2	0.06467773
33	0x3d1f73bd	0.038928736
34	0x3d4b4d8d	0.049634505
35	0x3bc15e87	0.005901161
36	0x3d8f4e9b	0.06997415
37	0x3babd20a	0.0052435445
38	0xb9fdb978	-0.00048394105
39	0x3d294919	0.041329477
40	0x3c8c54c1	0.017130258
41	0x3d836888	0.06416422
42	0x3a87ad13	0.0010351263
43	0xbd04e57d	-0.03244542
44	0xbd0e1f75	-0.03469797
45	0x3cbcfd02	0.023069862
46	0x3cd92132	0.026505087
47	0x3d25bbdb	0.040462356
48	0xbce40193	-0.027832782
49	0x3d582c40	0.052776575
50	0x3d0bcda0	0.034131646
51	0xbd5bc993	-0.053659033
52	0xbcd7671a	-0.02629428
53	0x3d925df9	0.0714683
54	0x3d72a515	0.059239466
55	0xbc2aa655	-0.010415633
56	0x3d92b720	0.071638346
57	0x3b7d28f0	0.0038629137
58	0xbc16220a	-0.009163389
59	0xbbe7be06	-0.007072213
60	0xbd05847d	-0.032597054
61	0x3d9d6dac	0.07686934
62	0xbcaa8b14	-0.02081827
63	0xbcd363c7	-0.025804413
64	0x3c7f8499	0.015595579
65	0xbb8346b3	-0.0040062307
66	0xbcf23919	-0.029568242
67	0x3d66df70	0.05636543
68	0x3cbf9ea6	0.02339108
69	0xbd481bc4	-0.048854604
70	0x3d7067a8	0.058692604
71	0x3c5ada73	0.013357746
72	0xbd15fdb7	-0.036618914
73	0xbd0e3df9	-0.03472707
74	0xbc8bf369	-0.01708384
75	0x3d0180c6	0.03161695
76	0xbcf9ca7c	-0.03049206
77	0xbd05d56b	-0.032674234
78	0xbce1f356	-0.027581852
79	0xbc626e5f	-0.01382026
80	0x3d0affd9	0.0339354
81	0x3c5c43f6	0.0134439375
82	0x3d20ad48	0.039227754
83	0x3bf8bea5	0.007591086
84	0x3d40a092	0.04702813
85	0xbcc380b2	-0.023865078
86	0x3d1a462d	0.03766458
87	0xbd134d37	-0.03596231
88	0xbcec51d5	-0.028847614
89	0x3d29c014	0.041442946
90	0x3d9af4b6	0.07566206
91	0x3d93a721	0.07209612
92	0xbc4d2fe7	-0.012523628
93	0x3c3fbc1e	0.0117025655
94	0x3d7382a3	0.059450757
95	0xbd1161a5	-0.03549351
96	0x3d8ff287	0.0702868
97	0xbd084576	-0.033269368
98	0x3a851e73	0.0010156169
99	0x3c8824d7	0.01661913
100	0x3d5bc525	0.05365481
101	0xbb90157e	-0.0043970933
102	0x3d7359c6	0.059411786
103	0x3d506df9	0.050886128
104	0x3c9037e0	0.017604768
105	0xbc3f993f	-0.011694252
106	0xbb876c59	-0.004132789
107	0xbca75b06	-0.020429146
108	0xbb6e8a6f	-0.003639843
109	0xbb49f06e	-0.0030813473
110	0xbd001430	-0.031269252
111	0xbc6ab224	-0.014324699
112	0x3d3602fa	0.044436432
113	0x3be99ad2	0.0071290517
114	0xbd2ff580	-0.042958736
115	0x3d194092	0.037415095
116	0x3c751103	0.014957669
117	0x3c1aedf2	0.009456145
118	0x3d40de84	0.047087207
119	0xbc2b8262	-0.010468097
120	0x3cd3a48c	0.025835298
121	0xbd0d5370	-0.0345034
122	0xbc78ee4f	-0.015193536
123	0x3c794c8d	0.015216005
124	0x3d53d2d1	0.051714722
125	0x3cd613e0	0.026132524
126	0xbc9c0437	-0.019044979
127	0x3c6bbc08	0.014388092
128	0x3cf899a0	0.030346692
129	0xbd48782e	-0.048942737
130	0x3c93c76b	0.018039426
131	0x3d557a2e	0.052118473
132	0x3d88eda3	0.066859506
133	0xbcdb91ac	-0.02680286
134	0xbccf3e3b	-0.025298228
135	0x3cfa6114	0.030563869
136	0xbcfc578d	-0.030803466
137	0x3d56e440	0.05246377
138	0xbc71bdfe	-0.01475477
139	0x3d8777f3	0.066146754
140	0x3cdb4689	0.026767032
141	0xbc8eb2c3	-0.017419225
142	0x3d8718a7	0.06596499
143	0x3d749147	0.05970886
144	0xbae88120	-0.0017738678
145	0xbc817c1c	-0.01580625
146	0x3ce23c0e	0.027616527
147	0xbcab790d	-0.020931745
148	0xbc945506	-0.018106949
149	0xbc9dbf83	-0.019256359
150	0x3cd96ec8	0.026542082
151	0x3d3df6ad	0.046377826
152	0xbc7d4471	-0.015458212
153	0xbc0886e4	-0.008332942
154	0xbc27666b	-0.010217289
155	0xbcd4c897	-0.025974555
156	0x3d9533c6	0.072852656
157	0x3daf38ba	0.085557416
158	0x3d9240bd	0.07141254
159	0x3ce34b56	0.027745884
160	0x3d3c3b69	0.045955095
161	0xbcb06d25	-0.02153642
162	0xbd149664	-0.036276236
163	0x3d81a119	0.06329555
164	0x3d71d339	0.05903933
165	0xbce135c4	-0.027491458
166	0x3d072662	0.03299559
167	0x3c87318f	0.016503124
168	0xbc741767	-0.014898158
169	0x3d5e368e	0.054251246
170	0x3d73a343	0.05948187
171	0x3ce00c78	0.027349696
172	0xbd515e17	-0.05111512
173	0x3bf34907	0.007424477
174	0x3d3bfc9b	0.0458952
175	0x3d998de7	0.07497769
176	0xbc3364e4	-0.010949347
177	0x3d2cf99e	0.04223024
178	0xba4fb2d5	-0.00079230714
179	0xbb927b3c	-0.004470257
180	0x3d3e6fd4	0.046493366
181	0x3d80ced1	0.06289447
182	0xbcabaeb9	-0.020957338
183	0x3d0587a4	0.03260006
184	0x3d73073e	0.05933308
185	0x3b915904	0.0044356603
186	0xbce24bb5	-0.02762399
187	0xbd183690	-0.03716141
188	0x3d6a8ac1	0.057261232
189	0xbcb2c859	-0.021824049
190	0x3d2a190a	0.041527785
191	0x3c81c4a4	0.015840836
192	0x3d5d00cf	0.05395585
193	0x3d717718	0.058951467
194	0x3caa97b2	0.020824287
195	0x3c686524	0.01418427
196	0x3d810f5e	0.06301759
197	0x3cc95fca	0.024581809
198	0xbd1aa14b	-0.037751477
199	0x3d3a9b10	0.045558035
200	0xbcd8ab41	-0.026448848
201	0xbc4b3d3d	-0.012404737
202	0xbb63a8d8	-0.003473809
203	0xbd2b62ba	-0.0418422
204	0xb4acc2b2	-3.2179156e-07
205	0x3d8b97ea	0.06816085
206	0xbd1eafe7	-0.038741972
207	0x3d70d86c	0.058800146
208	0x3d3c49a7	0.045968678
209	0x3d19cb6d	0.037547518
210	0xbd0e88d4	-0.03479846
211	0x3d476b21	0.04868615
212	0xbd218db1	-0.039441768
213	0xbd47f94c	-0.048821732
214	0xbbf0416b	-0.007332017
215	0xbcbd31e5	-0.02309508
216	0x3d6ecbca	0.058299817
217	0x3d3bb544	0.045827165
218	0x3d683e75	0.05670019
219	0xbcdd4d1f	-0.027014313
220	0xbc334518	-0.010941766
221	0xbd4b98a6	-0.049706124
222	0x3c66cca8	0.01408688
223	0x3d86b17c	0.06576821
224	0x3d09a5f1	0.03360552
225	0xbd1de60f	-0.03854948
226	0x3d898a7c	0.06715867
227	0x3d3d9b20	0.046290517
228	0xbc1442b4	-0.009049106
229	0xbbee36b4	-0.0072697047
230	0xbcc16284	-0.023606546
231	0xbca69d13	-0.02033857
232	0xbd40d06e	-0.047073774
233	0x3d6ded2e	0.05808752
234	0xbbfdd8e1	-0.0077468012
235	0x3d3cd409	0.04610065
236	0x3ce9ba48	0.028531209
237	0x3d008836	0.0313799
238	0x3b95629c	0.0045588743
239	0xbd245011	-0.04011542
240	0x3b43af32	0.0029859063
241	0x3d97c5d1	0.07410777
242	0x3d184633	0.037176322
243	0xbd4b051b	-0.049565416
244	0x3ca6324e	0.020287659
245	0x3d9560ba	0.0729384
246	0xbd1a327b	-0.0376458
247	0x3d6a6be1	0.057231788
248	0x3d277ac0	0.040888548
249	0xbba9d841	-0.00518325
250	0x399d0b92	0.00029953994
251	0xbc9af893	-0.018917358
252	0x3d2e2ff4	0.0425262
253	0x3d555d7c	0.052091107
254	0x3ccc31b7	0.02492605
255	0xbd51509b	-0.051102262

shared_mlp.1.bias f4 [128]
0	0xbc9ddf4c	-0.019271515
1	0x3d72ba6c	0.059259817
2	0x3caa81bd	0.020813817
3	0x3ccf0d89	0.025275009
4	0x3c486ed0	0.012233451
5	0x3dc269fc	0.09492871
6	0x3c33b49c	0.010968354
7	0xbd35cd0c	-0.044385
8	0x3d5197a8	0.05117002
9	0x3c70789d	0.014677194
10	0xbc0b9e6b	-0.0085216565
11	0x3d842290	0.06451905
12	0x3c171f62	0.009223791
13	0x3da6e271	0.08148659
14	0x3dc693b3	0.0969614
15	0x3d69d9af	0.057092365
16	0x3de8b0ce	0.11361848
17	0x3d903986	0.07042222
18	0x3ca4f505	0.020136366
19	0x3d8f79f2	0.07005681
20	0x3d4bf0a3	0.049790036
21	0x3d36b94e	0.044610314
22	0x3db80a64	0.08986357
23	0x3de1527a	0.11002059
24	0x3c005c32	0.007834481
25	0xbd1e3298	-0.03862247
26	0xbc906994	-0.017628469
27	0x3dff0d4d	0.12453709
28	0x3cf68075	0.03009055
29	0x3be4bbb3	0.0069803833
30	0x3c7a3966	0.015272474
31	0xba5c4bb4	-0.00084036146
32	0x3d6a033c	0.05713199
33	0x3c638b08	0.013888128
34	0x3e013708	0.12618649
35	0x3da3c060	0.07995677
36	0x3d91b0f9	0.07113833
37	0xbd794aa7	-0.06086221
38	0xbd6323a7	-0.055453923
39	0xbd37c244	-0.044863
40	0x3d4bd5c5	0.049764413
41	0x3d4bffbb	0.04980443
42	0x3cafcfcf	0.021461396
43	0x3de738ff	0.11290168
44	0xbd18b980	-0.03728628
45	0x3daa1794	0.083052784
46	0xbd5adb0c	-0.053431556
47	0x3dd0b7cc	0.101913065
48	0x3d84233e	0.064520344
49	0x3e00a868	0.12564242
50	0x3d5726cd	0.052527238
51	0x3d3e38e0	0.04644096
52	0x3d290d2e	0.041272335
53	0x3de5e475	0.11225215
54	0x3dc7fc40	0.0976491
55	0x3d7cc190	0.061708033
56	0x3d8b7ade	0.068105444
57	0x3d2509aa	0.04029242
58	0x3c879798	0.016551778
59	0x3d7f7a40	0.062372446
60	0x3e03ffd4	0.1289056
61	0x3d8c2e24	0.06844738
62	0x3d9236f3	0.07139387
63	0x3dbe2231	0.09283865
64	0x3ca6438d	0.020295883
65	0xbce05dcb	-0.027388474
66	0x3ceae115	0.02867178
67	0x3d231bc9	0.03982142
68	0x3d8687e7	0.0656889
69	0x3daf21e9	0.0855139
70	0x3c2cb6d4	0.0105416365
71	0x3d89a351	0.06720603
72	0xbd5b73a1	-0.05357707
73	0xbd7ea6c7	-0.06217077
74	0x3da1e79c	0.07905504
75	0x3d8a25c7	0.06745487
76	0x3c18efb5	0.009334494
77	0x3d2d5e39	0.042326186
78	0x3d7c8ae7	0.061655905
79	0x3cadbba3	0.021207636
80	0x3d91c35d	0.07117341
81	0xbb89ce53	-0.004205504
82	0x3d4d2ac3	0.05008961
83	0x3ce7ecec	0.028311215
84	0x3d3fa05d	0.046783794
85	0xbc673d43	-0.014113727
86	0x3bd1a3bf	0.006397694
87	0x3d9b4738	0.07581943
88	0x3de5f7b3	0.112288855
89	0x3d871227	0.06595259
90	0x3dd31a5b	0.10307761
91	0x3d8c8641	0.068615444
92	0x3df1ff62	0.118162885
93	0x3cba37ef	0.02273175
94	0x3ddf1468	0.10892564
95	0x3d36a131	0.044587318
96	0x3d298106	0.041382812
97	0xbd6506be	-0.055914633
98	0xbd793954	-0.060845688
99	0x3d913d9a	0.07091828
100	0xbd3656bb	-0.044516306
101	0x3d8de8c0	0.06929159
102	0x3dce44f5	0.10071746
103	0x3d86f9d1	0.065906174
104	0x3d8197af	0.063277595
105	0x3dd5771b	0.10423108
106	0x3db2cf9b	0.08731004
107	0x3c036303	0.008019212
108	0xbbd57242	-0.0065138647
109	0x3d9ad4b1	0.07560099
110	0x3dfc2b30	0.12312925
111	0xbcb292f6	-0.021798592
112	0xbcb6453d	-0.022249812
113	0x3d967238	0.07346004
114	0x3c0a7ad7	0.008452139
115	0x3d93f89a	0.07225151
116	0x3c3d89e1	0.011568517
117	0x3d9980f6	0.074953005
118	0xbd7f2f61	-0.062301043
119	0x3da1b164	0.07895163
120	0x3a2c2cfc	0.00065679825
121	0x3c6e8e39	0.014560276
122	0x3d90418d	0.07043753
123	0x3a901722	0.0010993222
124	0x3d60ca88	0.05488065
125	0xbc719f59	-0.014747464
126	0x3c71a524	0.014748845
127	0x3d54f19d	0.051988233
