model/ppo_model_30_50_40_RL.pth (torch, 270826 bytes, 18 tensors)

linear.1.weight f4 [64, 30]
00000000: bffb 7c3c 9929 073e df74 a93d 32a5 b6bd
00000010: 8991 113e 13f0 2fbd f8f0 1fbd 037c 443e
00000020: b26b f2bd b7c8 983e d9fd c6bc ea47 efbc
00000030: 59d2 97bc f0fc 79bd d43f 653e cc2b 1c3e
00000040: 4121 1ebe 465e 203d 10d3 013e 6408 70bc
00000050: 6fc0 ccbd 9936 333e 9a3c 823d 5199 c8bd
00000060: ea30 0c3c a30a 493e b071 3a3e 4364 603c
00000070: 8b1b 12be 777c c43c a6cf 1fbe a7d8 fa3d
00000080: 54e9 afbd 2ca7 ab3a ae64 e93b fd3b 863c
00000090: a657 043d 1a99 66bd 89f0 a03c c783 16be
000000a0: 3044 c43c c364 93be b749 843d 44e8 3a3e
000000b0: 5984 143e 05d6 a5bd 1a45 2ebe 2b3b d5bd
000000c0: b1c3 8dbd 4327 65bc 6240 b9bc 87de 123c
000000d0: efa6 dc3d d67c 86be b9d9 463e 3623 4a3c
000000e0: e066 db3b 3f71 4d3e 323d c83d 5750 9a3d
000000f0: 05e1 35be c0b4 5c3c 6269 c23d dc70 123d
00000100: 233b 99bd 3f86 82bb 2cd1 cb3d 9a75 58bd
00000110: 2689 43be abac 143d 6026 18bb e713 a03c
00000120: caf4 37be fd3e 263e 3f94 35be 2b5f 583e
00000130: 0bc9 a83d 256c 8c3c dc8e 2bbe 608d 5ebb
00000140: 1b14 0d3d bb5b 623d 4aa4 f23d be66 fb3c
00000150: f3c8 25bd ea49 043e 4276 a13d 41af 2fbe
00000160: ede9 0a3e 3e39 013e c50e 17be 1562 263d
00000170: 3032 ec3c 6fb7 0cbe b504 883d f414 c9bd
00000180: e22a 51bd 24c9 3a3e c968 a7bd 167d e3ba
00000190: 5d8a af3d ddac 7dbe 68c3 1fbe 5634 01bd
000001a0: 2133 133e 1a0e 1ebe a52b fabc 2121 49be
000001b0: 7845 063e f827 393e 7c50 0d3d 884e 01be
000001c0: a228 fdbc 567f aaba 1041 7f3e 63a2 d03d
000001d0: 9add 4c3e 38a7 78bd 62dc 193e 1e8c 373e
000001e0: 4aed 443e bacc 2abe 9df3 00be 3c16 7abc
000001f0: 5bdf bbbd f38c 15bd 09c3 f43d dc07 3cbd
00000200: 928f 0a3e 0584 b4bd 2caa 0e3e e747 4abe
00000210: 3bb9 a0bd ba4c 21be b664 a4bb 19d3 6abc
00000220: 1ab1 19bc ffaf b63d d5eb 9a3e 3169 293c
00000230: 6529 cfbc 4225 073d 7e20 923d 38e9 4fbe
00000240: feda 43bd 6004 003e ad98 ed3c ed56 073d
00000250: df57 cfbd 70eb cf3d 5078 863d b175 a73c
00000260: 1e28 2c3e 5913 da3d 9faf 363e 10a2 a4bd
00000270: f0c0 a93d 757f 543e 9a8f 2abc 96b6 9e3d
00000280: 4aaf 443d 9bb4 d0bd 7543 58bd b026 373e
00000290: 20bc 613e 093a 1aba dd5f ad3d 7703 24be
000002a0: 8cec 22be 6e31 4cbd b68d 643d 11a8 643d
000002b0: 218c d43d ea3b 373e 740b b63c a6f3 493e
000002c0: 2fda 913d e01d 653d e537 843d 2679 34be
000002d0: ad8f 79bd b862 89bd de18 cb3c c996 173e
000002e0: 6e10 073e b4c4 f6bd 0bc3 233e 3e2e d23c
000002f0: 00ec c0bc 6c25 37be 1792 2d3e 2fdd 213e
00000300: 262a c1bd c8ca b33c 314a e7bd 16c8 dc3c
00000310: cf68 263e 811e 88be 5b9d 67bd a4e7 1dbe
00000320: 77ae 08bd 64eb b43c a6c7 023e a606 b6bd
00000330: c919 a23d e7d5 a9bc ee0d f33d 13da f6bd
00000340: efd2 023e 548a ee3d 191e 2c3e 5fad af3c
00000350: e663 1fbe 8ce2 9ebd 3a56 03be a751 f0bb
00000360: 20bb 2c3e beca de3c 4333 b23d 0aea 6fbd
00000370: 235d fb3d 2554 b03d dc1d 393e 657a 943d
00000380: 03db 32be fc34 1abd e1aa b03d b1f7 0fbe
00000390: a2c2 833c 3f8c 033d ce72 5abe 00e4 313e
000003a0: 1e3b 2cbd d4ad 5a3d 33d6 093e 73cd d63d
000003b0: 73f4 113e e13d 133e 927a b6bc 695a b13d
000003c0: df4f 3fbe 1630 763c 7b97 4cbe deb2 bb3d
000003d0: fb0d 353e 81d9 89bd 1ff0 9d3c e13c e13d
000003e0: e6f8 7bbe 9678 d13d bf1c 1c3e 25ba 1f3e
000003f0: 1027 3ebe 2c10 33be 71c3 98be 5d40 9bbd
0.01544088 0.13199462 0.082742445 -0.08918227 0.14215674 -0.042953562 -0.039048165 0.19187932
-0.118369475 0.29840633 -0.024290966 -0.029209096 -0.018532919 -0.061032236 0.2238763 0.15251082
-0.15442373 0.039152406 0.1267817 -0.014650438 -0.09997641 0.17501296 0.06359215 -0.09794868
0.008556584 0.19632964 0.18207431 0.013695779 -0.1426832 0.02398513 -0.15606555 0.122483544
-0.08589426 0.0013096086 0.0071225977 0.016386027 0.03231015 -0.056298353 0.019645946 -0.14698707
0.023958296 -0.28787813 0.064593725 0.18252665 0.14503612 -0.080974616 -0.17018548 -0.10411676
-0.06922091 -0.0139864115 -0.022613708 0.008964187 0.107740276 -0.26267117 0.19418992 0.0123374965
0.0066956133 0.20062731 0.09777297 0.07534855 -0.1776162 0.0134708285 0.094927564 0.035752162
-0.074819826 -0.0039832885 0.09952006 -0.05284653 -0.19095287 0.03629748 -0.0023216233 0.01954074
-0.17964473 0.16234966 -0.17732333 0.21130054 0.08241471 0.017141411 -0.16753715 -0.0033958778
0.034443002 0.055263262 0.11847742 0.03068864 -0.040474843 0.12918821 0.07883884 -0.17156698
0.13565798 0.12619492 -0.14751728 0.040620882 0.028832525 -0.1374185 0.06641523 -0.098184496
-0.051066287 0.18240792 -0.08174283 -0.0017356004 0.085713126 -0.24772973 -0.15601885 -0.031544052
0.14374973 -0.15435067 -0.03053839 -0.19641544 0.13112438 0.18081653 0.034500584 -0.12627614
-0.030903164 -0.001300792 0.24927163 0.10187223 0.2000641 -0.060706347 0.15025476 0.17924544
0.19231144 -0.1667966 -0.12592931 -0.01526409 -0.09173461 -0.036511373 0.119512625 -0.045905933
0.1353133 -0.08814243 0.13932103 -0.19753991 -0.0784783 -0.15751925 -0.0050168885 -0.014332556
-0.009380603 0.08920287 0.3025805 0.010340021 -0.025288293 0.032994516 0.07135104 -0.2030381
-0.04781627 0.12501669 0.029003466 0.033041883 -0.10124182 0.10152328 0.065659165 0.020441862
0.16812178 0.106482215 0.17840432 -0.080387235 0.08288753 0.20751746 -0.010410214 0.07749669
0.04801873 -0.10190698 -0.052798707 0.17885852 0.2204442 -0.00058832817 0.0846555 -0.16016947
-0.15910548 -0.049851827 0.05579921 0.055824343 0.1037829 0.17893949 0.022222258 0.19721851
0.07121693 0.055936694 0.064559735 -0.1762434 -0.060928036 -0.06708282 0.024792131 0.14803614
0.13189861 -0.12049237 0.15992372 0.025656816 -0.023550034 -0.17885369 0.1695026 0.15807031
-0.09431867 0.02194728 -0.11293448 0.026950877 0.16250919 -0.26585773 -0.05654655 -0.15420395
-0.033369508 0.0220849 0.12771472 -0.08887987 0.079150744 -0.02073188 0.11867891 -0.12053313
0.12775777 0.11647478 0.16808356 0.021444974 -0.15565452 -0.07758054 -0.12825862 -0.0073339525
0.16868258 0.027196284 0.08701184 -0.058572806 0.12273624 0.08609799 0.18077797 0.072499074
-0.17466359 -0.037648186 0.086263426 -0.1405933 0.01608402 0.03211617 -0.21332857 0.17372131
-0.042048566 0.05338843 0.13460617 0.10488405 0.14253406 0.14379074 -0.022275243 0.086598225
-0.18682812 0.015026113 -0.1997966 0.091649756 0.17681114 -0.06730939 0.019279538 0.1099794
-0.24606666 0.10228078 0.15245341 0.15598352 -0.18569589 -0.17486638 -0.2983661 -0.07580636

linear.1.bias f4 [64]
00000000: eabc a13c b7e4 013e 3cab 0b3e adff e8b9
00000010: f2fb 1e3b 3b66 ddbc 67d4 e7bc 21ab 163d
00000020: c158 14be 6118 57bd 45fa 96bd f10d 01bd
00000030: e14e c4bd cd65 77bd 3f1b 7d3d 7faf e33c
00000040: ca27 e8bd fbc7 1b3a 663d e6bc 41d8 62bd
00000050: 9a25 283e 4aae af3c cc6a ed3d 32b7 263c
00000060: f17b a4bd ec3d e83d f461 7c3e 448f 7ebd
00000070: 3845 e53d 5f0b cebd 4e67 18bd 21a2 eb3d
00000080: 56c1 2dbe 51cb 70bd 14b8 32be e636 00bc
00000090: dc27 223e 05b4 e13d 300e 2fbe 702c 573e
000000a0: 49c2 253e 02ed 4f3e 94ec 97bd 63a9 2abe
000000b0: 7340 bfbc fc21 05be cc4c ecbc b3d3 763d
000000c0: db33 3d3e 5c69 123e e1b4 3fbe f9e1 53bd
000000d0: f94a 2ebe eb71 c63b 7358 8b3b 3818 34bd
000000e0: 56e8 5a3e a76b 8e3c 7c98 d5bc 1873 0b3e
000000f0: 9447 9bbd ee4b 47be 0650 b83c c956 6f3d
0.019743402 0.12684904 0.1363954 -0.00044440982 0.0024259058 -0.027026286 -0.028299524 0.036784295
-0.14486982 -0.052513484 -0.07371954 -0.031507436 -0.095853575 -0.06039982 0.061793562 0.027793644
-0.11335714 0.000594258 -0.028105449 -0.055382017 0.16420594 0.021445412 0.115926355 0.010175513
-0.080314524 0.11339936 0.24646741 -0.062148347 0.11194843 -0.100607626 -0.037207894 0.11505533
-0.16968283 -0.058787648 -0.17453033 -0.007825589 0.15835518 0.11020664 -0.17095256 0.21013045
0.16187395 0.20305255 -0.074181706 -0.16666178 -0.023346161 -0.13001245 -0.028845213 0.060260486
0.18476813 0.14298004 -0.18721344 -0.051729176 -0.17020787 0.0060560605 0.0042524873 -0.04396841
0.21377692 0.017385317 -0.026073687 0.13618124 -0.07582012 -0.19462559 0.022499096 0.058432374

linear.3.weight f4 [128, 64]
00000000: 64c1 e33d 814d 73bd 16dc 4a3e 433c d4bc
00000010: 0a49 2abe 2ba5 a23c f680 f63d c84a 983d
00000020: ddfd 05be b659 bc3d 90f4 2b3d c6a2 49be
00000030: 08a7 17be 3eb2 cb3d 987f 3fbd 4779 283e
00000040: faea 233c 42f3 9bbd 5af8 03be fa88 e53c
00000050: 7239 99bd 8069 aa3d bea8 923d c888 10bd
00000060: c53d a13c 64a4 ef3d c066 fe3d 902e 493e
00000070: 9a1b 47bd f81c 4d3c 4ccc 01be 5915 713d
00000080: 8033 afbe e79b c2bd 1dab 9fbc d523 34be
00000090: 0162 1bbd a140 76be c93c 21be e39c 54be
000000a0: 7df0 c4bd 9702 79be 197b 873c 083d d5bc
000000b0: 6d3e c0bc 2a88 eabd f911 96be 58f1 94bd
000000c0: d022 05be 55c1 7fbe e536 63bd 859d d5bc
000000d0: d1ca 81bc 9560 c83d 71e2 c0bd 27a7 a9bd
000000e0: e843 06be f6ce 1a3e e8bc 0c3d 5d0b 8fbd
000000f0: 33ec 0bbe b805 d8bd dd13 243d 9f64 22be
00000100: ad3c a2bd 9856 243d b6ad 6fbc 8997 323d
00000110: 37e2 46be f4be 883d 6be5 b23c 17af a93d
00000120: 574f bd3d 00fa 08be 6df5 0bbe a7b7 b53d
00000130: 494e 8c3d a620 06be 5956 aebd e405 cdbc
00000140: 9d30 0ebe 09a1 2dbd 4212 173c a1ab 74bd
00000150: 2784 05be e1e6 9fbd 0108 86bc a216 0c3d
00000160: ef5b 053d ef73 1abe 58a2 44be a8c0 9dbd
00000170: fd32 87be 62cd c63a ad09 1c3e 3284 2fbd
00000180: ab5f 8bbc e5d7 df3c 1c91 2f3d 664a fb3d
00000190: 44a6 cfbd 1b1a 80bd 2277 b6bd 1241 f83d
000001a0: 0bb4 3d3c ff62 52bc a7b2 a53d ec03 e4bd
000001b0: e732 d3bd 6530 6f3e 755c c43d ed3c f4bd
000001c0: e8b3 09be e364 903e 5565 213e 9334 823e
000001d0: 23a6 0ebe be13 c3bd 4ac1 d4bd f645 2d3e
000001e0: 50d2 d4bd 7878 553d c85b 163e 8c00 a1bd
000001f0: 13ce b6bd 32f3 02be e364 8f3d 85ef 813d
00000200: 4bf9 353d 1d4e 18bd 8ddf 813d c36e 343d
00000210: 5b8d 523d cfc6 a93d 2467 0bbe f869 77be
00000220: 5cb1 023e 016f a33d 832d e03d 53eb f53c
00000230: fe5a bb3e 2463 09bd 98dd ecbd 579c e0bd
00000240: b525 2cbe 3664 123d 9ff0 8bbd ea34 55be
00000250: 6623 963d 49d1 25be 41fb 693c 4062 c8bc
00000260: a90d 8d3d a697 473e 9bf3 913d 81c9 f83d
00000270: 38a0 3a3e ef23 453d b66d d2bc 261e 6d3b
00000280: 26a2 a33e 37a6 12be 7593 50bc af43 5a3d
00000290: 5875 583d 5774 eebd d95f 0abd 7bbf f53c
000002a0: 52dc 193c 3200 b9bd e789 abb6 f8ef 8d3d
000002b0: f4a4 b13d ac12 2cbe 97e3 3d3c 37fa 06be
000002c0: 6239 663d 9f20 c13c 7de8 a73c fd21 a43c
000002d0: ea98 d5bb edfd 313d b3a2 dc3d 5602 1fbe
000002e0: a945 243e 56d3 cb3d d40f f7bd d700 89bd
000002f0: b256 f2ba 13fd 5b3d 25e3 71bb b6d3 323e
00000300: f407 34bc f78d 5c3d ec6c 30be cbce 7c3d
00000310: 94f3 ad3c 026a e43d c4d1 4ebe d73f 0f3d
00000320: 2548 fcbc 985d dbbc 9df9 02be 439f aabd
00000330: 480a 1ebd c791 c8bd fa04 113c e0c2 c43d
00000340: 0cd4 923b e29e 513d 2f14 9bbd 03c5 ab3d
00000350: b204 b5bd 65bc 0a3e 22e6 df3d f17b 91bd
00000360: 58d1 4b3d 2511 55bc f57c d73c 14cd 19be
00000370: 6cea 833d 7eb2 92bd 0808 a3bd 1b94 18ba
00000380: 79aa e63d ac1e ed3d 672e dc3d cd97 89bd
00000390: 6edb 153e 67d3 4c3d d857 8a3c b45f 98bd
000003a0: c4d7 11be 0ade 02be 5267 d6bd 7f5b e7bd
000003b0: da94 993d a50f 48bd 3925 573d a0e6 bbbd
000003c0: ad91 25be f3f8 4a3e 4885 013e ba81 dfbd
000003d0: 4da9 ab3d d283 063d e08c ae3c ac04 3dbd
000003e0: 36b2 843d 04f8 203e 8131 e0bd bfe8 d8bd
000003f0: 9103 87bd a9ba e6bc 00a8 f13d 1846 9d3d
0.11120871 -0.059400085 0.19810519 -0.025907641 -0.16629425 0.019854149 0.12036316 0.074361384
-0.13085122 0.091967985 0.04198128 -0.19691 -0.14809811 0.099461064 -0.046752542 0.16452514
0.010004753 -0.07614757 -0.12887707 0.028019417 -0.0748166 0.08320904 0.07161091 -0.035286695
0.019682774 0.11701277 0.12421942 0.19646668 -0.048610307 0.012519114 -0.1267559 0.05885825
-0.3421898 -0.09502392 -0.019490773 -0.17591794 -0.03793526 -0.24048091 -0.15745844 -0.20762973
-0.09616182 -0.24317394 0.01653819 -0.026030079 -0.023467267 -0.114517525 -0.29310587 -0.07272595
-0.13001561 -0.24976094 -0.055472273 -0.026076088 -0.01584378 0.097840466 -0.0941819 -0.08283835
-0.13111842 0.15118012 0.034359843 -0.06984589 -0.13664322 -0.10547966 0.040058006 -0.15858696
-0.07921729 0.040121645 -0.014628818 0.043601546 -0.19422232 0.066770464 0.02183791 0.08285349
0.092436485 -0.13376617 -0.13667841 0.088729195 0.06850869 -0.13098392 -0.08512563 -0.025027223
-0.13885732 -0.042389903 0.009220662 -0.05973399 -0.13038693 -0.078077085 -0.016361238 0.03420127
0.032558378 -0.15083288 -0.19202554 -0.07702762 -0.26406088 0.001516741 0.15238066 -0.04285068
-0.017013391 0.027324626 0.042862996 0.1227005 -0.101391345 -0.06254979 -0.089094415 0.12121786
0.01157857 -0.012840985 0.08090716 -0.111335605 -0.10312443 0.23358305 0.09587947 -0.11925683
-0.13447535 0.2820197 0.15761311 0.25430736 -0.13930564 -0.0952525 -0.103884295 0.16921219
-0.103916764 0.05211684 0.1468345 -0.078614324 -0.08926024 -0.12788084 0.070016645 0.06344513
0.044427197 -0.03718387 0.06341467 0.044050943 0.05140434 0.08289873 -0.13613564 -0.24161518
0.1276297 0.07980157 0.10946181 0.030019438 0.3659286 -0.033541813 -0.11565703 -0.109673195
-0.16811259 0.0357401 -0.06833004 -0.20820966 0.073309705 -0.16193117 0.014281095 -0.024460912
0.06887371 0.19491443 0.07126542 0.12147809 0.18225181 0.048129972 -0.02568708 0.00361813
0.31959647 -0.14321218 -0.012730469 0.053287204 0.052846283 -0.11643284 -0.033782814 0.029998532
0.009390907 -0.090332404 -5.112251e-06 0.06930536 0.086740404 -0.16803998 0.011589906 -0.13181387
0.05620707 0.023575125 0.020496601 0.020035738 -0.006518473 0.043455053 0.1077322 -0.15528235
0.16042198 0.099524185 -0.12063566 -0.06689613 -0.0018488972 0.053708147 -0.003690907 0.17463574
-0.010988224 0.053846326 -0.1722905 0.06172065 0.021234311 0.11153032 -0.20197207 0.03497299
-0.03079612 -0.026778027 -0.12790532 -0.08331158 -0.038584024 -0.0979343 0.008851284 0.09607482
0.0044808444 0.051176913 -0.07572209 0.083871864 -0.08838786 0.1354843 0.10932566 -0.07103718
0.049760193 -0.013004576 0.026304701 -0.15019637 0.06441197 -0.07162951 -0.07960516 -0.0005820409
0.11262984 0.11578116 0.10751038 -0.06718407 0.14634487 0.050006296 0.01688759 -0.07440129
-0.14242464 -0.12780014 -0.104689255 -0.11296748 0.07499094 -0.048843045 0.052525733 -0.091748476
-0.16168852 0.19821529 0.12648499 -0.10913415 0.08381901 0.032840557 0.021307409 -0.046147034
0.064793035 0.1571961 -0.10946942 -0.10591268 -0.06592477 -0.028165178 0.117996216 0.07679385

linear.3.bias f4 [128]
00000000: aba8 2f3e 1ffb 0dbe 95e3 0d3e 2dfc e63c
00000010: f8ec 03bc 44bf 9dbd b372 91bd a23c fc3d
00000020: 7d0b 14be ebd3 c4bd 8ad4 e5bd d1ac a43d
00000030: c6d5 043b 502c 123e 0494 fbbb bc0a 38bd
00000040: 3d34 6fbd fd66 a7bd 8c76 e6bd 0edd 063d
00000050: 1ab0 303d dc73 53bd 6160 c6bb f67f 16bd
00000060: ce24 15be 80f9 fcbd 492d f43d 3475 b5bd
00000070: 5752 3b3d 5c0d f83d 8624 213e 890c 05be
00000080: f5e2 863c 3955 0ebd de08 9d3d e34a 453e
00000090: 2456 c53d d4c1 82bc 70f7 9f3d f557 abbc
000000a0: 54e0 dabc 8d0c b23c 9901 a2bd 52ad a0bd
000000b0: 4655 0abe 4d66 61bd f831 ef3d e71c bf3c
000000c0: d6ac 41bd 4708 6e3d b515 013e 7718 cdbc
000000d0: 33a3 d83c c6f9 6e3d 0538 a93d 06f7 30bc
000000e0: de5f eabd 9c24 053d 61ea e2bc 8532 1ebd
000000f0: 366b 6f3d 5050 10be e8a2 0dbd c338 97bd
00000100: 5237 343e 8336 3ebd fb14 9cbd b679 00be
00000110: 3358 3d3d ad2e d53c a7cb 58bd 4a9c b9bd
00000120: abe6 423c 6e3c c53a e581 dfba 4002 ab3d
00000130: 5609 283e 94bf 903c d10f 83bd 88ec 943d
00000140: 3ea8 58bd 27dd c03d ce3b 763b e629 383e
00000150: 62e7 083e 8895 b73c e74f 9d3d fea7 b0bc
00000160: 5893 12be 6d92 b03d 49b9 943d b14f 9cbc
00000170: effe 353e 18df 0b3e d7cd 48bd 7534 bb3c
00000180: 1018 1ebd a05e 1bbd 2159 333e 123d 163c
00000190: 3185 d7bb d81c 05be c881 963d 37b5 083c
000001a0: e227 8cbd 5b8c 403c 0b82 21be 7aee a73d
000001b0: ab05 cdbd 5370 96bd 88c5 f5bc 540b 1ebe
000001c0: 7751 cdba 922e b43d 85ee 14be be19 303d
000001d0: 1a63 223e 6eaa 043e c28e 65bc 2870 393e
000001e0: a077 ef3d 0172 e9bc 2d5b 393d 0447 9f38
000001f0: 02b4 a63d 20b7 3b3d 3620 bcbd a7d2 3b3c
0.17154185 -0.13865326 0.13856347 0.028196419 -0.008052103 -0.07702497 -0.07101955 0.12316252
-0.14457507 -0.09610733 -0.11222179 0.080407746 0.002026902 0.14274716 -0.007677557 -0.044932112
-0.058399428 -0.0817394 -0.1125308 0.032925658 0.043136694 -0.051624164 -0.0060539697 -0.036743127
-0.14564821 -0.12352276 0.119227 -0.08860245 0.045732822 0.12111923 0.15736589 -0.12993063
0.016465643 -0.034749243 0.07667707 0.19266848 0.09635571 -0.015961565 0.07810867 -0.020915965
-0.026718296 0.0217345 -0.07910461 -0.07845558 -0.13509092 -0.055029202 0.11679453 0.023329211
-0.04728397 0.058113363 0.12605937 -0.02503608 0.026445007 0.05834367 0.08262638 -0.0108010825
-0.114440665 0.032505617 -0.027699651 -0.038622398 0.058451854 -0.14093137 -0.034579188 -0.07383873
0.17599228 -0.046438705 -0.07621189 -0.12546429 0.04622669 0.026023233 -0.052928593 -0.09063013
0.011895816 0.0015047917 -0.0017052261 0.083500385 0.16409811 0.017669477 -0.06399501 0.07271677
-0.052894823 0.094171815 0.0037572267 0.17984733 0.13369516 0.02241017 0.07681256 -0.02156448
-0.1431402 0.086216785 0.07261903 -0.019080969 0.1777303 0.13659322 -0.04902443 0.022852162
-0.038597167 -0.03793204 0.17514469 0.009169834 -0.006577157 -0.12999284 0.073489726 0.008343986
-0.068435445 0.011752213 -0.15772264 0.08199783 -0.10010847 -0.07345643 -0.030001417 -0.15434009
-0.0015664537 0.08797945 -0.14544113 0.0429933 0.15858117 0.12955639 -0.014011087 0.1810919
0.116927385 -0.028496744 0.045252968 7.5949385e-05 0.081398025 0.04582894 -0.09185831 0.011463798

linear.5.weight f4 [64, 128]
00000000: d240 693e 19c9 33be 532c 183d 722f 61bd
00000010: 9ea7 b03c c732 f9bd 5a53 b9bd 1baf 57bd
00000020: 523a 773c 3667 433d a8a6 a53d 16e2 f83d
00000030: 1d74 0c3e a5bc 05be 7128 893d 7bb2 79be
00000040: 2bf5 5bbd 237d ee3c a8ac 023c 7d38 d0bb
00000050: 2290 c4be 2a96 c63d a066 25ba 4f3b 343d
00000060: 73b6 4d3d e4b8 bc3d 8c4d 65bc 0f03 c53d
00000070: 1133 7b3d a8c1 dc3d 44c2 f13d 9355 35be
00000080: 35bf aa3c 1e5e 2bbe 8637 8cbd 3680 0cbe
00000090: e76c 303d ac1b 143b a3c8 173d 92ab 523d
000000a0: 3354 003d d023 37be 7071 a2bd 9d03 b4bc
000000b0: 2c67 92bd c918 e4bd 7236 e5bd 87a9 d33d
000000c0: f9cb 3f3d 2c89 e33d 0bee e63d 419a 6dbd
000000d0: 29bd e83d c949 4f3d 2dfc 85bd 177a 083d
000000e0: cc6d d93d 3883 283e 30b6 d4bc b4aa 683d
000000f0: 4f0b 20bd dd3d 823d 1d59 ba3d c0a9 43bb
00000100: afc6 e83d 1b63 613d 9164 f13d 1f7f 72bc
00000110: 416c 68bc a155 043d c96e 66bd 3232 833d
00000120: 00c6 023d 4b8c 2cbb a203 063d 7731 153e
00000130: f5a4 ccbd 8da8 62bb 594e f03d f7bd 5bbd
00000140: 91af 6e3c c930 523d 759b e53a ab76 023e
00000150: 4621 ffbd 59cf 4c3e d755 403c b3f0 69bd
00000160: af30 0cbe 682f 6a3d 9c65 893c eff7 23bd
00000170: c908 1e3e 590a 9a3c 33b9 f6bd 7933 883d
00000180: 4014 973d 6cf9 473c ac14 083d aa0e 673d
00000190: ef25 a73d a2f1 bfbd 4a4f a5bd 2d05 0dbe
000001a0: 690a 703e 5b83 0bbe a0e2 4a3d e7c9 c03c
000001b0: 1eda b5bd 2dbc f43b d453 3cbc e520 093e
000001c0: fa12 05bc 6ecd 9fbd 27ee 72bb 545a 1f3d
000001d0: 904a 303d bca6 0e3c 0457 fbbb 80c7 cabd
000001e0: c073 9d3d 1fd0 983c 28a1 34be 4ac8 0f3e
000001f0: dd71 9ebd 2b57 28bc e5e2 c83c a928 4a3e
00000200: 5f7a 613e 88c8 0ebd 44ad 04bd 6e5a c63d
00000210: 004d 233d c8fc 353d dcad 023e 8f6e a43d
00000220: 8099 82bb 3455 2abc f67d 053d 87bc af3c
00000230: d5c3 5bbc fbf9 533d 1f9c 193c 7af1 493d
00000240: 6ceb 673e 3e53 8c3b 28bc 0a3c afda 573d
00000250: fba9 7dbe 11ff 94bd 4210 41bd c109 21bd
00000260: 35e2 90bd 3c0e 28bd 3131 983d 4c6c f63b
00000270: e93d debd 3f32 0abe c7c4 f93d 1fdc d1bd
00000280: e6a5 93bd 4091 93bd 5b36 303d 797d b8be
00000290: 040e c8bd 8f1d 0e3e 4b21 acbe dafa b93d
000002a0: 0d7d 0bbd 0c4a 0ebe 49b5 c63d 7701 a1bc
000002b0: 0587 4d3c 45a2 a0bd 3fbc cebd 7e76 d53c
000002c0: fae5 57bd 4746 18be ffa2 803d 6ab0 b73d
000002d0: 2669 e03c 225e 1a3e 6d20 00be ee8d 4cbd
000002e0: f374 9d3d a1d6 2bbd c7a9 603d 9173 d83d
000002f0: 9f25 a8bb 27fb 363c 3b52 15bd baef f43c
00000300: e060 733d 0f3a 1b3c e1fa 84bd eede 0ebc
00000310: 3e2d 023c a143 ad3d b116 06bd 3a26 0b3e
00000320: 37bb 5cbd 0233 c0bd f30d ddbd 4fea dabd
00000330: aa2c 36bd 0e43 91bd f2f1 09be ede3 72bc
00000340: c057 ee3c 6e45 30be 049d 32bd 06f0 63bc
00000350: abe9 85bc 11dc 3dbd 5728 27bd 11ed cb3c
00000360: 3381 1b3d ed6f b83c 562a 41be 6a63 063d
00000370: 55e5 2f3d a669 5fbb afb7 003e c798 3f3d
00000380: 1094 30b9 601a ccbd e8a8 17be 7c00 543d
00000390: ae2f 02bd f2a7 e3bd 506e 8fbc 0635 c7bc
000003a0: 124a c83d 0ce1 9bbd 70a4 dc3d b268 82bd
000003b0: 38f2 3fb9 71c1 3abe 197d a0bd f3a6 abbd
000003c0: 5a12 18be c863 443d 5baf 26bc bbec bb3d
000003d0: fc60 213e ff2d fd3d 822c a43d a693 24be
000003e0: cb87 a5bd 573d 76be 7591 78bd 9834 373e
000003f0: 2e70 8cbd 25e6 113d a895 8b3d 3916 083d
0.22778633 -0.17557181 0.037151646 -0.054976888 0.021564301 -0.12167888 -0.09049101 -0.052657228
0.015089588 0.04770585 0.08088428 0.121524975 0.13716169 -0.13060243 0.06697167 -0.24384491
-0.053700607 0.029112404 0.007975735 -0.00635439 -0.38391215 0.0969661 -0.0006309543 0.044001874
0.050222825 0.092149526 -0.013995539 0.09619724 0.061327998 0.107791245 0.11804631 -0.17708425
0.020843128 -0.16735122 -0.06846528 -0.13720784 0.043072607 0.0022599502 0.037056576 0.051433153
0.0313303 -0.17884755 -0.07931793 -0.02197438 -0.07148585 -0.1113754 -0.11192025 0.10335069
0.046825383 0.11110148 0.11275872 -0.058008436 0.113642044 0.050607476 -0.06542239 0.03331956
0.10616645 0.16456306 -0.02596578 0.05680342 -0.039073285 0.06359456 0.09099028 -0.0029855818
0.11366021 0.055026155 0.1178676 -0.014800816 -0.014185966 0.032308225 -0.056257997 0.06406058
0.03192711 -0.0026328738 0.03271831 0.1456965 -0.099924006 -0.0034585327 0.11733694 -0.05364796
0.0145682255 0.051316056 0.0017517643 0.1274058 -0.12457518 0.20000972 0.011739216 -0.057114314
-0.13690446 0.057174116 0.016772084 -0.04003137 0.15433039 0.018803762 -0.12047043 0.06650443
0.07376909 0.012205463 0.03322284 0.05641047 0.08161532 -0.0937226 -0.08071764 -0.13771506
0.23441471 -0.13624327 0.049532533 0.023533775 -0.08879493 0.0074687214 -0.011494596 0.13391455
-0.0081222 -0.078028545 -0.003706822 0.038904503 0.04303986 0.008706745 -0.007670285 -0.09901333
0.07688093 0.018653927 -0.17639601 0.14041248 -0.077365614 -0.010274689 0.024522254 0.19742073
0.22019337 -0.03485921 -0.0323918 0.09685217 0.039868355 0.044430524 0.12761635 0.080289
-0.003985584 -0.010396291 0.03259083 0.021452202 -0.013413389 0.05175207 0.009375601 0.049302556
0.226484 0.004282384 0.0084677115 0.052698787 -0.24771874 -0.072752126 -0.047134645 -0.039315943
-0.070743956 -0.0410292 0.074312575 0.007520234 -0.10851652 -0.1349573 0.121957354 -0.10247063
-0.07209377 -0.072054386 0.043020587 -0.36033228 -0.09768298 0.13878463 -0.3361915 0.09081049
-0.034054805 -0.13895434 0.09702546 -0.019654019 0.012544398 -0.078434505 -0.10094499 0.026057478
-0.052709557 -0.14870559 0.06281089 0.08969195 0.027393889 0.15074971 -0.1251237 -0.049940042
0.07688322 -0.041952733 0.054849412 0.105689175 -0.005131438 0.011168278 -0.036455374 0.029899467
0.05941856 0.0094742915 -0.06493164 -0.008720143 0.007945357 0.08460165 -0.032736484 0.13588801
-0.05388948 -0.09384729 -0.10793676 -0.10689222 -0.04447619 -0.07092868 -0.13471201 -0.01482485
0.029094577 -0.17213985 -0.043606773 -0.0139122065 -0.016346773 -0.04635245 -0.040809955 0.024893316
0.03796501 0.022514308 -0.18863806 0.032809652 0.042943317 -0.003409007 0.1257007 0.04677656
-0.00016839826 -0.09965968 -0.14810526 0.051758274 -0.031783752 -0.111160174 -0.017508656 -0.024317276
0.09779753 -0.07611284 0.107735515 -0.06367625 -0.00018305413 -0.18237855 -0.078363605 -0.083814524
-0.1485075 0.04794672 -0.010173644 0.09176012 0.15759653 0.12362289 0.08016302 -0.16071948
-0.08082541 -0.24046837 -0.060685594 0.17891157 -0.06857334 0.035619874 0.06815654 0.03322432

linear.5.bias f4 [64]
00000000: d238 0e3e 44b2 113e 91eb c63b c3b0 c1bc
00000010: 2681 f33d 52ab 173d 5226 42bd e93e 783b
00000020: 4263 50bd 0dd6 aa3d dfd1 1c3c f250 a63d
00000030: bf4a c73d 3c04 aebd 61f0 c7bd c7c1 1e3d
00000040: 2268 873d 062b 063e 777c 9e3d 4bd1 243e
00000050: 0af8 073c cdf5 a13d ea24 d1bd 44c3 913c
00000060: 92a7 8bbd 7373 0ebb 49e0 b8bd 85ab a3bb
00000070: da1e 053e 5a81 8abc 00ae 1fbd b17e 71bb
00000080: 0889 fb3d 687a 253e d185 f5bc 63ad d2b8
00000090: f0e5 0cbe 7341 d43d ad07 863c 8545 03be
000000a0: ad65 a4bb 682a 4d3d 7788 f53d e14c 90bd
000000b0: 67c1 4e3d 3bb1 e2bd c96f 1f3c 8ddc 90bd
000000c0: d17d 933c 9ac8 c5bc bca0 22bc 0bfc 0c3e
000000d0: 4909 97bd f843 18be 27e7 1dbc 97da 3ebc
000000e0: e289 973d 7fd9 89bd 0187 26bd 15c1 28bd
000000f0: 2273 78bc 496a d8bd fcdb 38bd 15a4 213e
0.13888863 0.14228159 0.006070562 -0.023643857 0.118898675 0.03702862 -0.047399826 0.0037879294
-0.05087591 0.08341608 0.009571522 0.08120908 0.097310536 -0.084969014 -0.097626455 0.03875902
0.06611659 0.1310235 0.077385835 0.16095464 0.008298883 0.07908211 -0.10212119 0.017793305
-0.06819071 -0.0021736294 -0.09027154 -0.004994812 0.1300005 -0.016907383 -0.0389843 -0.0036849196
0.12281996 0.16159976 -0.029971035 -0.00010045876 -0.13759589 0.10364046 0.016361082 -0.12819488
-0.0050170035 0.05008927 0.11988919 -0.070459135 0.05047741 -0.1106896 0.0097312415 -0.07073317
0.01800433 -0.024143506 -0.009926017 0.13768022 -0.07374818 -0.14869678 -0.009637631 -0.011648796
0.07399346 -0.06730937 -0.040656094 -0.041199762 -0.015164169 -0.10567147 -0.04513167 0.15785249

linear.7.weight f4 [32, 64]
00000000: 00bc 54ba d3be 04be a337 c5bc b2a3 1cbc
00000010: 2de5 ccbe 55eb 09bc 64cb 103e 1d2f 043e
00000020: 874a 8abd 1715 25be df63 fc3d e234 edbc
00000030: 3590 9ebe 147f eabc 3c0c 963c 1df0 93bd
00000040: 43cb 343d ac10 3c3e bf51 3ebe 3ccf 343c
00000050: e3f9 123e a0e2 1dbe d2af 6fbb 0bea 413e
00000060: ec4b 08bc cee2 0f3e 1033 c33c 60ab a43d
00000070: f836 2e3d c402 04bb 3e22 2b3d 5ff1 d03a
00000080: fc93 3fbd f3f9 603e 89cd 513d 94f6 3c3c
00000090: d0de f1bc 3600 33bb b3cf fabc fde1 0abe
000000a0: ff85 8a3d 7f5d 15bd dd15 713e 8db8 9cbd
000000b0: ea6a 103e 6d37 a0bd 7351 7cbc 0160 d5bc
000000c0: 43dc 2e3d 2891 c6bd 8288 883d 11e1 153e
000000d0: 8554 c43d 8dfd 94be a060 4e3e a61e 273d
000000e0: e1d2 23be 9e04 04bc 6b15 b8bc cb42 20be
000000f0: f219 f7bc 33ce 903c cbf6 d9bd 5177 c6bc
00000100: f72d 1e3e 0604 c73d 0c55 893c 200e 2fbd
00000110: 3a0b e13d c2bb 2cbd 25e9 c23d 472e d9bc
00000120: e559 99bd a656 a83d 3405 06be 72f9 1f3e
00000130: fab1 b43d 3e72 823c 742d 853a 8881 07bd
00000140: 216b 39be 7832 d13c 5c5a 363b ef8d d23d
00000150: cba9 b93d cc63 43bd 4bf8 b53d a2aa 873c
00000160: 39d3 80bc 4740 103d 7bcc 143e 7a08 07be
00000170: 44be 98bd a12f 5b3e ecda ac3d 7d93 b63c
00000180: dc15 70b9 4a02 113d 18ae 1dbd 7576 cc3d
00000190: cfde 123e 461a 703e e795 d13d dd9f 8f3c
000001a0: 42aa eb3c 30cc 7c3d a9b9 fa3d 4e5b b93d
000001b0: b8bd a33d 7b34 ce3d c211 803c 14e4 ee3d
000001c0: 8a28 1fbd e38b e8bd d993 a2bd 612f ee3d
000001d0: f301 063e 1bf8 6dbc 9a60 123e fdea 88bd
000001e0: bec8 44bc dc02 b43d 6b97 18be 821b a33d
000001f0: 0957 6ebd 0102 4c3d f79b 123e b5ae 0f3e
00000200: 4cd4 993c 12b0 14be 85aa 0abd b627 ce3d
00000210: 9561 f13d f8bd 723e 6b95 833d 65b2 01be
00000220: a612 793c 680c 0b3c 0659 2b3e b60c d4bd
00000230: 871d 06be 7da6 13be eaaf 38be 8462 123e
00000240: fe48 52bd a980 34be 4817 55bd 819e af3d
00000250: 4e3a b33d cc20 3dbc 1719 163e e1cf 4abc
00000260: 59f1 00be 4a90 18be 0764 943d 20d3 a13b
00000270: ef2c 61bd 1727 a13d fae7 b5bd e224 0fbc
00000280: 9e9a 47be 058c ddbd c756 573c 3d65 aa3b
00000290: 48d5 25bd d6d9 383e 7734 c8bd 976e 3fbe
000002a0: bc76 a9bd 3927 6abc c18c 353d 106f 0d3e
000002b0: ac10 b83d 98d5 823c 162c 39bb 49e3 cdbd
000002c0: f56f 153d f8e3 463e ff64 dfbd b53e 41be
000002d0: 6eaf fe3d 242d 3abe 5309 213c d4d6 5e3c
000002e0: 09f2 18be e5b4 c03c 7bd6 f7bc a1b7 c0bd
000002f0: c28a f3bd 5cd1 393e d98a 68bd 2e32 833d
00000300: cbf6 cc3d d701 613e ee2c 61be 2e43 7c3d
00000310: 3a44 2fbe 822a a0bd 9304 88bc 0622 04be
00000320: f9e6 74bd 23f2 31bd 414f 9bbd a8f2 ee3d
00000330: 4a4f 77bd a58f 4d3d a8be cf3d 70e9 58bd
00000340: 37f6 f73d 17d2 0dbd 5c5c 633d 23d3 f0bd
00000350: 4828 8a3d aae5 8abd 6797 fcbd d2c3 1bbe
00000360: fef1 eb3d 56b2 493c e403 91bc 27d8 303e
00000370: 8b30 37be 34b0 efbd 9854 8abd 9719 d8bd
00000380: 961a 0d3e 0e8b 27bd dc55 763d 37ef f73d
00000390: d37a f2bc c7c4 183e 1e44 d63d feef 31be
000003a0: 3d12 133e 466d 813e 9ac2 07be fa3f 21be
000003b0: 308a adbd 3ca6 783c a173 e23d 1f5d cfbd
000003c0: c8c1 b33d 5f7d f4bd 4aa9 eebd 3f4a 9e3d
000003d0: f83d 86bd 855d 5a3d 2eff 833c 1858 4bba
000003e0: d237 e33c 4cbe 80ba 4c2c 0eba 6c9e 083e
000003f0: 5204 ec3d ef42 803d c9e9 e13d 63b6 ff3b
-0.00081151724 -0.12963419 -0.024074381 -0.009560512 -0.40018597 -0.008417924 0.14140087 0.12908597
-0.06752496 -0.16121326 0.123237364 -0.02895588 -0.30969396 -0.028625049 0.01831638 -0.07223532
0.044139158 0.18365735 -0.18585871 0.011035737 0.14353137 -0.15418482 -0.0036573303 0.18936937
-0.008318882 0.14051363 0.02382806 0.080405 0.04253289 -0.002014325 0.041780703 0.0015941075
-0.04677199 0.21970348 0.051221404 0.011533398 -0.02952519 -0.0027313358 -0.030616617 -0.1356277
0.06763839 -0.036466118 0.23543496 -0.07652388 0.14103284 -0.07823072 -0.015400278 -0.026046755
0.042690527 -0.09695655 0.06666662 0.14636637 0.09586433 -0.29099694 0.20154047 0.040800713
-0.15998413 -0.008057741 -0.02247115 -0.1565048 -0.030163739 0.017676448 -0.10642775 -0.024226816
0.15447222 0.09717564 0.016764186 -0.04273808 0.109884694 -0.042171247 0.09517125 -0.026511325
-0.07487849 0.08219652 -0.13087922 0.156225 0.08823009 0.015923616 0.0010160641 -0.033082515
-0.18107273 0.02553676 0.0027824854 0.10280978 0.090655886 -0.047702596 0.08885249 0.016560856
-0.015725719 0.03521755 0.14531128 -0.13186827 -0.07458165 0.21404888 0.084401935 0.022287125
-0.00022896327 0.035402574 -0.038496107 0.099835314 0.14342807 0.23447523 0.1023367 0.017532283
0.028767709 0.061718166 0.12242443 0.09050618 0.0799517 0.100686036 0.015633468 0.11664596
-0.03885702 -0.11354806 -0.07938356 0.116301306 0.13086681 -0.014524485 0.14294663 -0.066854455
-0.012010751 0.08789608 -0.14901511 0.07964231 -0.058188472 0.0498066 0.14317308 0.14031489
0.018777989 -0.1452029 -0.033854026 0.10066168 0.117861904 0.2370528 0.064249836 -0.12665708
0.0152022 0.008486845 0.16733178 -0.10353987 -0.13097201 -0.14418979 -0.18035856 0.14295393
-0.051339142 -0.17627205 -0.052024156 0.08575154 0.08751355 -0.011543464 0.14658009 -0.012378664
-0.12592067 -0.14898792 0.07245641 0.004938498 -0.054974493 0.07868784 -0.08882137 -0.008736821
-0.19492576 -0.10817722 0.013143248 0.005200057 -0.040486604 0.18051848 -0.09775632 -0.1869453
-0.082746 -0.014291578 0.044323687 0.13811898 0.08987555 0.01597099 -0.0028255037 -0.10053117
0.036483724 0.194229 -0.10907935 -0.18871577 0.12435804 -0.18181282 0.009828883 0.013601024
-0.14936079 0.023523757 -0.03025364 -0.094100244 -0.118917 0.1814627 -0.05677304 0.064060554
0.100080095 0.21973358 -0.21989796 0.061587505 -0.1711587 -0.07820608 -0.016603744 -0.12903604
-0.059790585 -0.04344381 -0.07583476 0.11667377 -0.06037835 0.05018582 0.10143787 -0.052957
0.12107509 -0.034624185 0.055508003 -0.11759021 0.06745964 -0.06782086 -0.12333565 -0.15211418
0.11520766 0.012310585 -0.01770205 0.17269956 -0.17889611 -0.1170353 -0.06754416 -0.10551756
0.13779673 -0.040904097 0.060140476 0.121061735 -0.029599583 0.14918815 0.10462211 -0.17376706
0.14362426 0.25278682 -0.13257828 -0.15747061 -0.08473623 0.015176352 0.11057211 -0.10125183
0.08777195 -0.11937975 -0.11653383 0.07729005 -0.06554788 0.053311843 0.01611289 -0.00077569624
0.027736578 -0.0009822338 -0.0005423471 0.13341683 0.115242615 0.062627666 0.11030919 0.0078037246

linear.7.bias f4 [32]
00000000: 841b 77bc 868b b63d 13f4 e4bd c56c 6fbc
00000010: 4990 dc3c 7cae ac3d 0a67 183d 684c 50be
00000020: 9382 313d 22ee 403d c330 e83d 8eac c4bc
00000030: 938d 09be cf47 563c 65a3 0a3e 73f3 183e
00000040: be88 26bb 9ba4 3ebd a36e 843d 0ccb 023d
00000050: 9b6d 73ba 77e2 213e 246e 53be 3ea6 3abd
00000060: 16c3 3f3d 2a72 ea3d 61a5 b13d f953 383d
00000070: dbb5 a13d 4623 9fbd 1206 cf3d 4477 043d
-0.015082244 0.08913331 -0.11179366 -0.014613335 0.02692427 0.08431718 0.03720764 -0.20341647
0.043337416 0.0471021 0.113374256 -0.024008062 -0.13432913 0.013078644 0.13538893 0.14936619
-0.0025411095 -0.0465437 0.06466415 0.03193192 -0.0009286047 0.15809046 -0.20647484 -0.045568697
0.046816908 0.11447556 0.08674122 0.045001958 0.07896014 -0.077704 0.1010858 0.032340303

linear.9.weight f4 [4, 32]
00000000: cb5f c33d 14c0 69bd c737 043d a1de 023e
00000010: d423 93bc 5c5c eebb f43f 50be b198 cb3d
00000020: 2ba0 00be e9df 3b3d 5532 10be 7d73 6e3d
00000030: b819 733e a1bf c63d 4ea0 c63d eee4 89bd
00000040: 26a2 e33d da69 283e 018e 3fbe 2529 fabd
00000050: 1b2e 3c3d 9dce 38bb 6f6a 563d aea1 4f3e
00000060: dc1b 223e 704a 793d 7b29 3f3e 1aff 893c
00000070: 9c6b b43d 0ea7 633d b6eb f2bd cd1f f9bd
00000080: c7d8 82be 2d3a 39bc 819a 80bd d612 8ebc
00000090: 983f a63d d77b 93be 6e73 343e 81cc c7bd
000000a0: 2bc5 2a3e c04d 253e 30f4 d8bb db69 27bd
000000b0: 13e8 56be b5ab acbd d6d8 b9ba e6ea 043e
000000c0: ea5a 4b3d 8258 003e addf 073e 68cd 4d3e
000000d0: 1508 353d 62a9 b6bc 27e1 c4bd ca2f 853d
000000e0: 6266 44be 5e58 353e 8d32 a2bd 9bdc 12bd
000000f0: be13 3fbe 136c d73d 293c e5bd 6c54 fabc
00000100: d4db 4fbe be8c d43d 12cf 81bd 9e33 41be
00000110: f64f a3bc d4be 57bc 65fd 1fbe 6b04 6b3d
00000120: 0727 db3d 4b00 be3d 2227 093e ddb5 06be
00000130: 0e86 a33d 56c4 5cbd 02c5 eebd 6332 283e
00000140: f6b2 15be 832c da3d 0527 95bd 23d7 843d
00000150: 5639 e2bd ab53 1abe 20ff ca3d abe2 023e
00000160: 14d6 c8bd 7afb 473d c2e3 1ebe 88dd 96bd
00000170: 00a0 0ebe 48ee 47bd 4d8b 573e 17e7 633c
00000180: 7abd 603c 0abd 9ebd f903 39be 5fe2 a7bd
00000190: fbef cebd 7359 d9bc d579 4a3e 91f7 963e
000001a0: 3314 673d f890 6c3c 8902 033e 2ab0 5c3e
000001b0: 537c 143d a876 abbd f49a 9bbd d824 e9bd
000001c0: 0a8a 073d 8fe6 17be 00d1 47bd d6b9 06bb
000001d0: 3ccc d73e a59e 4cbe a9a4 993e eae6 e6bd
000001e0: 7d3a 0d3d 1997 ebbc a29d e03a b73a 1cbe
000001f0: 2b26 e1bd 4797 d4bd 178b 86bd f610 3b3e
0.095397554 -0.057067946 0.032279756 0.12780239 -0.01796142 -0.0072741937 -0.20336896 0.09941233
-0.12561099 0.045867834 -0.140817 0.058215607 0.2374028 0.09704519 0.096985444 -0.06733118
0.11114912 0.16446629 -0.18706514 -0.12214879 0.045942407 -0.0028199323 0.052347597 0.2027652
0.1583094 0.060862005 0.18668167 0.016845275 0.08809587 0.055579238 -0.118613645 -0.12164269
-0.25556013 -0.011305374 -0.06279469 -0.017342966 0.08117598 -0.2880542 0.17622158 -0.09755803
0.16676776 0.1614294 -0.0066209063 -0.040872436 -0.20986967 -0.08431188 -0.0014179002 0.12980232
0.04964725 0.12533763 0.1326892 0.20097888 0.04419716 -0.022297565 -0.09613257 0.06503256
-0.19179681 0.1770949 -0.07919798 -0.035854917 -0.18659875 0.105186604 -0.11193115 -0.030557834
-0.20298702 0.10378407 -0.06338324 -0.18867347 -0.01993559 -0.013168056 -0.15624006 0.05737726
0.10700803 0.092774 0.13393834 -0.13155313 0.07984553 -0.053898178 -0.1165867 0.16425471
-0.1461905 0.10653021 -0.07282833 0.064863466 -0.11046092 -0.1507098 0.099119425 0.1278178
-0.09806457 0.04882381 -0.1551657 -0.073664725 -0.13928223 -0.048811227 0.21049233 0.013910077
0.01371705 -0.077509 -0.18067922 -0.08197474 -0.101043664 -0.02653191 0.19773038 0.29485753
0.056415748 0.01443886 0.12793936 0.21551576 0.036251377 -0.08372241 -0.07597914 -0.113839805
0.03309063 -0.14834045 -0.048783302 -0.0020557544 0.42148006 -0.19982393 0.30008438 -0.11274512
0.034479607 -0.028758572 0.0017136822 -0.15256773 -0.10993608 -0.10380416 -0.06569498 0.18268189

linear.9.bias f4 [4]
00000000: 66cc 24bd 4520 153e 5353 113e 653c cf3d
-0.040233992 0.14563091 0.14191942 0.10118941

shared_mlp.1.weight f4 [128, 270]
00000000: a374 2fbd 2e98 583d c1a4 2a3d 034c 6f3d
00000010: 7842 8b3c 31dc 36bc 2344 913d 5c8d 17bc
00000020: 2dd2 ad3c 1972 da3d 56b3 413c 1390 5c3d
00000030: 93d3 b43c 4761 e93c 6b16 fe3c e67c 9b3c
00000040: 2f1b 173d c82f 6f3d 82e0 ea3d eedb bb3d
00000050: cb5e 603c eb01 523d 0c7a 8e3c 2115 8bbc
00000060: 9785 fa3d 3746 1c3d 1085 fbbc d817 c53d
00000070: e3b1 083d ee97 853d 9b6f 653d 04bd 6c3d
00000080: 613e 97bc 8f11 273d 32c8 7d3d 953a 9b3d
00000090: 7c03 8b3d 65f5 013d 4555 c23c a547 a33d
000000a0: e1ff afbb f123 7e3d 7ef7 aa3d 6fc2 963d
000000b0: 1f16 b23c d32d 85bc 2403 483d a758 a53d
000000c0: 64aa a33d 09c9 bfbc e7d1 9cbc 2e5a ccba
000000d0: 229f 51bd 6d70 283d 9141 743d 6f08 1c39
000000e0: 6813 3e3d 3974 143b 961d 163c 97d8 58bd
000000f0: 3972 20bc 3617 01bd c37f eebc 5a36 05bd
00000100: b722 0abd 5395 843d 431b fa3c 350f 32bd
00000110: fb32 5f3d 9f5a 803d 64ed 1cbc e5f0 17bd
00000120: 1d07 253d b705 433d d5d9 8b3b e81a 5c3d
00000130: 8afc 31bd b557 193d 9f26 9e3c ef62 01bd
00000140: 4de8 ffbc 1445 01b8 dcd9 d0bb 2374 123d
00000150: b3cf 643d 544a dd3c 6652 02bc 5d52 15bd
00000160: b2cc 43bd 5b4e 613d 7c29 cb3c a9fa 7b3d
00000170: 4b38 aabc dbea 863d bedc ad3c 4d82 c63a
00000180: 650f 513d 401a 30bc 46e2 69bd 7420 103c
00000190: bf35 453c fc47 35b6 6230 143c b5c0 963b
000001a0: c05e 6bbd 88fb 953d 587e 3b3d 0162 14bd
000001b0: 1f1d ad3c aa59 803d 776b 02bd 324f 2f3d
000001c0: ab93 673d 5023 7b3d 0b56 1bbd 9b1f 3bbd
000001d0: 7975 06bb a5fa 813b 185e 873d e21e 223c
000001e0: d30e ad3b ea90 0dbd 9adb 84bd 1bf5 5d3d
000001f0: 1f15 163b a4d2 793d a8ef 64bd c715 fe39
00000200: 01c8 d53c e3b7 d7bc c96c 5dbd d849 b2bc
00000210: 15b7 bebc 2b18 50bd 247f 31bc a6b6 8f3b
00000220: f0a6 aabc 084b 5d3d 81ac 5e3d 7277 0abd
00000230: e564 7cbd 7ec5 5c3d 9610 a03c 8e30 9fbc
00000240: 15d6 083c 56b7 f53c ada8 d53b 88fe 903a
00000250: fc9e 05bc a12e 59bd a38d d23c ddeb bc39
00000260: 8db2 c9bc b02b d5ba 3ea9 633d 5fdb e2bc
00000270: 04cf 4bbd 2194 753d 9b8a 38bd 86b3 593b
00000280: 6bc5 903c 36de 47bd 83a9 193d cd1c b93c
00000290: b18b 8c3b a4c2 7abc 7df3 a73b 7db1 723d
000002a0: 908a 433d d651 80bd d710 793c 551a 1ebd
000002b0: 9878 543d 5232 60bd 5b23 58bc 0d4c 0fbd
000002c0: 01c0 463c 103a b33c 277d 2c3d 3ed2 1ebd
000002d0: c965 61bd f1c5 5bbd 13cc b13c 9fe6 4ebb
000002e0: d745 30bc aae8 103d 5b56 2b3c 167d f73c
000002f0: 56c0 a9bc 44cf a4bc 7a30 18bd 5272 8bbc
00000300: ee77 bd3c c764 84bb c246 2ebd 32b1 8dbb
00000310: ff14 653d e7bb 223d cd83 38bd 3e24 333d
00000320: ebee 1ebd 34c6 7d3c ea13 3abd 8502 8cbc
00000330: 7217 45bc aa0b 7abd 0b80 c73c 3d29 c3bb
00000340: babf 59bd 1f32 49bd 85b4 f43c 4051 74bd
00000350: 4c9b fe3c e2c1 2e3c ebbe 56bd 784e ea3c
00000360: 969b 023d 4f9b 4cbd c7e7 5ebd 62b4 763a
00000370: 860d d13c 41e3 1abd 43f1 493d e134 3dbd
00000380: 2d19 033d c4d4 853d e986 c7bc 5687 b43c
00000390: f8a1 e13c 2bb9 343d 0605 2ebb f1f0 983d
000003a0: 5053 643d a722 54bd aec4 97bc 8e83 7d3c
000003b0: d04d 37bd ac8e 01bd 3edd 2fbd 9189 b3bb
000003c0: cf05 3b3d 800f 243d 8ac0 b2bb c36c 5cbc
000003d0: e900 73bd 76af 2c3d a3b8 8abc 73bb 7c3c
000003e0: 8b37 8bbd 5e37 03bd f1f8 debb bebc e93c
000003f0: 588e 0d3c 9211 803d fdfa 04bc 257b f73c
-0.042835843 0.052879505 0.041661028 0.0584221 0.016999468 -0.011160896 0.07093074 -0.009250011
0.021218384 0.10666294 0.011822542 0.053848337 0.022073543 0.028488768 0.03101655 0.018980455
0.03689116 0.058395177 0.11468603 0.09172808 0.013694475 0.05127136 0.01739218 -0.016977848
0.122325115 0.0381529 -0.030703098 0.096236885 0.03337277 0.06523119 0.05601464 0.057797447
-0.018462362 0.04078823 0.0619585 0.07579533 0.06787774 0.031728167 0.0237223 0.079726495
-0.0053710793 0.062045995 0.08347987 0.07361304 0.021739064 -0.016257202 0.04883112 0.0807355
0.07991484 -0.02341129 -0.019143058 -0.001559084 -0.05117715 0.041122843 0.05963284 0.00014880461
0.046405226 0.0022652282 0.009162327 -0.05294093 -0.009792858 -0.031516276 -0.029113656 -0.032522537
-0.033724513 0.06473794 0.030530578 -0.043471534 0.05449198 0.062672846 -0.009578083 -0.03709497
0.040289987 0.047612872 0.004267911 0.053736597 -0.04345373 0.03743716 0.019305525 -0.03158849
-0.0312387 -3.082033e-05 -0.006373627 0.035755288 0.05586214 0.027012981 -0.007954216 -0.0364555
-0.047802635 0.055006366 0.024800055 0.061518345 -0.020778796 0.06587764 0.021223422 0.0015145034
0.051040072 -0.010748446 -0.057100557 0.0087968 0.01203674 -2.7013002e-06 0.0090447385 0.004600609
-0.057463408 0.073233664 0.045774788 -0.036226276 0.02113205 0.06267102 -0.031840768 0.042800136
0.05653731 0.061312973 -0.037923854 -0.04568444 -0.0020516797 0.0039666467 0.06609744 0.009895058
0.005281308 -0.03456203 -0.06487198 0.05418883 0.0022900773 0.0609919 -0.055892617 0.0004846288
0.026096346 -0.026332801 -0.054058824 -0.021763727 -0.02328066 -0.0508043 -0.010833535 0.004385787
-0.020831555 0.054026634 0.05436373 -0.03380532 -0.061619658 0.05389928 0.019539159 -0.019432332
0.008351822 0.029994648 0.006520352 0.0011062184 -0.008155581 -0.053022984 0.025702303 0.00036033886
-0.024621272 -0.001626363 0.055581324 -0.027692495 -0.049757972 0.05995572 -0.04505406 0.0033218577
0.017672261 -0.0487959 0.037515175 0.022596741 0.0042891135 -0.015305195 0.0051254616 0.059251297
0.047739565 -0.06265609 0.015201769 -0.03859933 0.05187282 -0.05473549 -0.013192023 -0.034984637
0.012130738 0.021878272 0.042111542 -0.03877472 -0.05502871 -0.05365557 0.021703755 -0.0031570566
-0.010758839 0.035378136 0.0104576005 0.030211013 -0.020721596 -0.020118363 -0.037155606 -0.017022286
0.023128476 -0.004040334 -0.04254795 -0.004324102 0.055928227 0.03972998 -0.04504757 0.043735735
-0.03880207 0.01548915 -0.045429148 -0.017091045 -0.012029516 -0.06104628 0.024353048 -0.0059558437
-0.05316136 -0.049120065 0.029871235 -0.0596478 0.03107991 0.010666342 -0.052428167 0.02860187
0.03188666 -0.0499528 -0.05442026 0.00094110344 0.025519144 -0.037814382 0.04930235 -0.046193007
0.03200643 0.065347224 -0.024356322 0.02203719 0.027543053 0.044121902 -0.0026553287 0.07467831
0.055743515 -0.05179086 -0.018526401 0.01547326 -0.044751942 -0.031630203 -0.042935602 -0.0054790457
0.045659836 0.040053844 -0.0054550814 -0.013453665 -0.05932704 0.04215952 -0.016933745 0.015425551
-0.06797703 -0.032035224 -0.0068045785 0.028532382 0.008639894 0.06253351 -0.008116481 0.030210087

shared_mlp.1.bias f4 [128]
00000000: 6f21 253d d3ad 003e dd00 a03d b826 b83c
00000010: 3f1e b23d 0a53 a03d 7953 8a3d 6445 8c3d
00000020: 6cd2 d03d 52c7 843d 5e06 773d a35a 75bc
00000030: 4a30 ea3d 34c9 513d 4ff9 083e 0157 11bc
00000040: 63cc 53bc c519 07bd e8b9 f0bc 5730 513c
00000050: 3c69 8e3d 3ebe ad3d 2e2e 6e3d 6ccc 3a3d
00000060: a9f6 673c 4b12 13bd 3c57 0e3d 6bea cdbc
00000070: 7568 c3bc 49a1 cebc 36f4 b23d 470d d93b
00000080: 27e8 db3b fed9 2d3d ae34 0e3d f247 103c
00000090: 72b2 d43d c65c af3d 75ce b5bc 95f2 aa3d
000000a0: 1270 d23d 4ef9 983d 65a7 bb3c 0678 11bd
000000b0: da69 263d fb60 5c3c 286d 993d a877 9e3c
000000c0: 942c a63d 4098 e43a f758 b6bb 7976 f039
000000d0: ea75 873d 74c8 953d 4a51 7e3d f1a2 ad3d
000000e0: 936b 973d 23ad 773d 21a0 f33d 1992 8abd
000000f0: 46bd 193d 87d9 23bc 1b5d 2e3d 1c98 1cbd
00000100: 91e9 c33d b82d 633d 4da4 223d 47d3 da3c
00000110: 00c5 b53c 820d 2dbc 4acf 933d a556 ef3d
00000120: 9afb 4dbd 04b0 943d 0b5d 063e 0c89 973d
00000130: 80d0 3f3d 8a03 9e3d 2f7f 803c e80c b03d
00000140: c6b4 813d d320 823d 8194 70bb cfd5 e83d
00000150: 2886 993c c08f 983c 799a 9e3d 37da 35bd
00000160: 1c07 15bd a49e 063d de3a 4a3d 2444 bd3d
00000170: 8384 a8bc 0e46 03bc 9e24 54bc bb09 3a3d
00000180: 6800 f63d 2278 26bd bfe1 253d b8d5 483d
00000190: 7fcd 893d b439 07bd 3550 a83d 0a6a de3d
000001a0: c88f 033e 68e2 803d 8c3e a93c 0ec1 8c3d
000001b0: c6fb b93d 91f3 5d3d b94c c63d 45f9 8b3d
000001c0: 6ac2 c0bc 36ea cd3d 3e6b 603c 76cc d33c
000001d0: 2f5e 7abd 8abb eabb 0756 4f3d a17e 2e3d
000001e0: b2ca 9c3a 170d b1bc c5a5 4c3a 7875 f93d
000001f0: e7d1 713d 6bd3 9d3d 278f 37bc ff4e 233d
0.040315088 0.12566309 0.07812665 0.0224794 0.08697175 0.078283384 0.067542024 0.06849173
0.10196385 0.0648333 0.060308807 -0.014975223 0.11434992 0.051217273 0.13376354 -0.008870841
-0.012927148 -0.03298356 -0.029385522 0.012767873 0.069536656 0.084835514 0.05814951 0.04560511
0.014157929 -0.035906117 0.034751162 -0.025136193 -0.02385352 -0.025223391 0.08737986 0.0066238972
0.0067110243 0.04244422 0.034718208 0.008806216 0.10385598 0.08562617 -0.022193173 0.0834705
0.10275282 0.07469426 0.022906968 -0.035514854 0.04062829 0.013450856 0.07491523 0.019344166
0.08113971 0.0017440394 -0.0055648047 0.00045864636 0.06614287 0.07313624 0.062089242 0.08478344
0.07393565 0.06046785 0.118957765 -0.06766147 0.03753402 -0.010000593 0.04256926 -0.038231
0.09566034 0.055463523 0.03970747 0.026712073 0.022188663 -0.010562303 0.072172716 0.11686448
-0.050288774 0.07260135 0.1312143 0.073991865 0.0468297 0.07715519 0.015685646 0.08596212
0.06333308 0.06353917 -0.003670961 0.11368906 0.018740728 0.018623233 0.07744307 -0.04439756
-0.036383733 0.032866135 0.049372546 0.092415124 -0.020570999 -0.008012308 -0.012948183 0.045419436
0.12011796 -0.04064191 0.04049849 0.049031943 0.067286484 -0.033014014 0.08218423 0.10860069
0.12847817 0.062931836 0.020659707 0.0687276 0.09081225 0.05418736 0.096826024 0.06834654
-0.023530204 0.10054438 0.0136974435 0.02585433 -0.061124977 -0.0071634697 0.05061915 0.04260123
0.0011962263 -0.021612687 0.0007806684 0.121806085 0.05903807 0.077063404 -0.011203564 0.03987026
