model/ppo_model_10_50_30_RL.pth (torch, 240106 bytes, 18 tensors)

linear.1.weight f4 [64, 30]
000000 18 b0 05 be 56 71 70 3b b5 66 09 bd ee b9 09 3d
       -0.13055456 0.0036688647 -0.033545215 0.033624582
000010 2d 89 fc bd 29 d5 1d 3e de e2 d7 3d 1b cd 41 be
       -0.12330852 0.15413345 0.10541318 -0.18925898
000020 f4 79 68 be ed 0f 4a be d6 67 41 3d 9e 77 fc 3c
       -0.22702771 -0.19732638 0.047218166 0.030818757
000030 a9 5e a6 be 5d b8 b5 3d fb 95 be bc ca 47 71 3d
       -0.32494095 0.08873055 -0.023264876 0.058906354
000040 9b 65 a7 bd 76 12 69 bc cd 06 18 be 3b 9e 69 be
       -0.081736766 -0.014225593 -0.14846344 -0.22814266
000050 bc 19 ed 3c 21 f2 a0 3c eb cc 7b bc af da 18 3e
       0.028942935 0.019646706 -0.0153686805 0.14927171
000060 2e 80 12 be e0 07 a0 bd 08 b4 f7 bb da f9 6a bd
       -0.14306709 -0.07814002 -0.007559303 -0.057367183
000070 d7 cf 17 3e c4 f6 2c be 8d a9 8d be 44 34 d8 3a
       0.14825378 -0.16891009 -0.2766842 0.0016495069
000080 5b d9 41 3e ec c5 5f be bd 74 08 3c ca b7 07 be
       0.18930571 -0.21852845 0.008328614 -0.13253704
000090 35 4f a8 be 64 88 3f be 50 bd e5 3d 67 c4 a6 bc
       -0.3287293 -0.18704373 0.11217749 -0.020357324
0000a0 9a 45 8c 3d 42 0b ad 3d 77 44 9a bd d6 ee e9 3d
       0.06849213 0.08449413 -0.0753259 0.114225075
0000b0 af 1a f2 bd 35 73 fc 3d c8 c9 5b 3d df 3b 24 3e
       -0.11821496 0.123266615 0.05365923 0.16038464
0000c0 de bb 40 be f3 79 4a 3d a4 7c c2 3c e8 06 81 be
       -0.18821666 0.049432706 0.023741074 -0.25200582
0000d0 da 69 00 3e 24 0b 42 3d a4 28 52 bd 0d ea b2 bd
       0.12540379 0.047373906 -0.05130829 -0.08736048
0000e0 1f 7c 28 3d 8b 76 38 3d 03 52 8a 3d 63 9f 17 be
       0.041133996 0.045034926 0.06753924 -0.14806895
0000f0 02 c1 23 3e be 4f 95 3c 4d 3f 05 3d 9a de 28 3e
       0.15991595 0.0182265 0.03253107 0.16491166
000100 a4 23 e0 3d 07 41 ee bd 2a 82 59 3b a4 b1 f7 bd
       0.10944298 -0.11633497 0.0033189156 -0.12094429
000110 f7 da ea bd 3b 9b 34 3e 5b 9b 24 be 7c c0 f5 bd
       -0.114675455 0.1763734 -0.16074888 -0.11999604
000120 aa 21 f8 bc 05 a2 12 bd b3 05 55 be 4a 57 c6 3d
       -0.03028949 -0.035799045 -0.20802955 0.09684618
000130 8b f5 78 3c 65 21 14 3e df 90 2b 3e b9 94 80 bd
       0.015195261 0.14465864 0.16754483 -0.062783666
000140 93 a8 90 3d 35 99 2e 3e 97 7f 07 bd d9 a7 41 3b
       0.07063403 0.17050631 -0.033080664 0.0029549508
000150 09 ad c4 bd b4 ac 7a bc 73 26 2a be 2c 51 55 be
       -0.09603316 -0.015299965 -0.1661623 -0.20831746
000160 dc 08 e3 bd 59 65 05 3e 9c 8b 17 bd 40 3e 01 be
       -0.11085674 0.13026942 -0.036998376 -0.12621403
000170 b7 19 f3 3d 26 8e 90 bd d5 9d 2d be 4b 5b c1 3d
       0.11870139 -0.07058363 -0.1695474 0.09441241
000180 09 05 8c bb d3 33 02 be 39 a6 ad bd d8 24 ce 3d
       -0.004273061 -0.12715082 -0.0847897 0.10065621
000190 e4 1c 1a 3d c8 44 3b be d2 27 61 be 0f 11 05 3e
       0.03762521 -0.18287957 -0.21987846 0.12994789
0001a0 cd c5 10 be f6 a3 49 3e 37 5b 9a bd da b9 81 3c
       -0.14137955 0.19691452 -0.07536929 0.015835691
0001b0 08 bc 99 3d e4 03 97 3d 9c 23 9a 3d c8 4e ed 3b
       0.07506567 0.07373789 0.07526323 0.0072420575
0001c0 5a 0f 2b be 1d a7 6e be 45 fb 43 be 91 c3 b0 3d
       -0.16705075 -0.23305936 -0.1913882 0.08631051
0001d0 2a a4 56 3c c6 5d a4 3c e2 47 18 be d3 30 21 3e
       0.013100663 0.020064246 -0.14871171 0.15741281
0001e0 7d b6 25 bd 9c ee 17 3e ea b6 dd 3c 2b 38 99 3d
       -0.040457238 0.14837116 0.02706476 0.07481416
0001f0 a8 e6 2e 3e a2 96 9c 3e 38 8d d2 bd 9b 12 cf bd
       0.17080176 0.30583674 -0.102808416 -0.101109706
000200 32 61 60 3e 29 35 5c be f8 5b 25 be 95 ef f1 bc
       0.21912077 -0.21504654 -0.16148365 -0.029533187
000210 f9 b6 93 3c 22 0e e2 3d bc 6c 20 bc 94 be 95 bc
       0.018031584 0.11037852 -0.009791549 -0.018279351
000220 3e d8 2f 3e 4b 25 e2 bd 86 b2 9d bd 76 9d 01 bc
       0.17172334 -0.11042269 -0.07700066 -0.007911077
000230 ec f2 d7 3d 10 88 43 3e 06 a7 b4 3d c2 4d de 3d
       0.105443805 0.19094872 0.0882092 0.10854675
000240 4e 74 5d 3d 60 24 13 3e 70 2a db bc c1 8f 4e 3e
       0.054065995 0.14369345 -0.026753634 0.20172025
000250 c4 db 28 3e ba ca 8a bd 79 f7 f2 3d d7 a9 3b 3e
       0.16490084 -0.06776948 0.11863608 0.18326508
000260 c0 e3 04 3e e4 a4 1a 3e 60 e3 91 3d 9b 42 b8 3d
       0.12977505 0.15101963 0.071234465 0.08997079
000270 0b 28 a0 bd 3c 99 9b 3c 2c 11 1b be 7d ff 5e 3d
       -0.078201376 0.018993966 -0.1514327 0.05444287
000280 e7 12 99 bd b9 84 05 be 7b 7d a8 3e 41 f1 88 3d
       -0.074743085 -0.13038911 0.32908234 0.066866405
000290 a7 16 57 bd 72 63 a3 bd 96 6d 11 be d4 a0 90 3d
       -0.052511837 -0.07977952 -0.1420196 0.070619255
0002a0 31 8a 91 3e 68 58 63 bd 6d a0 41 be 1d a0 1e 3c
       0.28425744 -0.055504233 -0.18908854 0.009681729
0002b0 ee c2 1c be 9b 22 21 bd 47 40 d5 3d 8d 61 72 3d
       -0.15308735 -0.039339643 0.104126506 0.059175063
0002c0 53 5e cb bc 1c c5 cf 3d 00 4f c3 bd 7f 6d a5 bc
       -0.02482525 0.101450175 -0.095365524 -0.020193813
0002d0 bc 72 29 3d 94 0a 26 bd 1e ad af 3d 68 27 1a be
       0.041369185 -0.04053743 0.08577941 -0.15054095
0002e0 62 c7 38 3e 29 2e 0b be a5 18 48 3d f2 76 69 bd
       0.18044809 -0.13591827 0.048851628 -0.0569982
0002f0 0f e2 df bd 7b e2 05 3d 0c c0 c9 bd 5f 59 e6 3d
       -0.10931789 0.03268669 -0.09851083 0.11247515
000300 75 28 4a bd 4f e4 11 be 8d 66 da bc 1f f9 42 3e
       -0.04935499 -0.14247249 -0.026660228 0.19040345
000310 9a 4e 2e be d2 56 28 3e 18 0e 4c 3d b0 ec ca 3d
       -0.17022172 0.1643937 0.04981813 0.09908426
000320 7b b8 46 3e 44 d3 ae 3d c0 d9 88 3c d8 5c 0b 3e
       0.19406311 0.085363895 0.016705394 0.13609636
000330 e7 d8 fc 3c a1 06 9e bc 2d 93 2b bd e2 30 c5 3d
       0.030865146 -0.01929027 -0.041888405 0.09628464
000340 9b 46 08 be db 82 1a be b5 e0 81 3e 25 78 cd 3d
       -0.13308184 -0.1508898 0.2536675 0.100326814
000350 9a 3f f2 bd 04 d3 cc 3d 3b 46 a1 bc b2 7e f7 bc
       -0.11828537 0.100011855 -0.019686809 -0.03021178
000360 02 49 0c be ea a9 9b 3c 94 19 84 3e 02 2e 7c be
       -0.13699725 0.01900192 0.25800765 -0.24626926
000370 4d 1e 80 3d d9 fd cf 3c 92 30 4a 3e 50 29 31 3e
       0.062557794 0.025389599 0.1974509 0.17300916
000380 bb 24 02 3e 61 6d 82 bd da c9 d8 3c a9 72 da bb
       0.12709324 -0.063685186 0.026463438 -0.0066665006
000390 6d d3 c4 3d 71 7e 85 3e e2 bf 25 3e 0a 79 50 3c
       0.09610639 0.2607303 0.16186479 0.01272417
0003a0 52 27 13 3e 04 3d 07 bd 69 1c d3 3d 22 85 83 3e
       0.14370468 -0.033017173 0.10308153 0.2568751
0003b0 d2 c8 8b 3e 32 cd 5f 3e fe d6 db 3c 8f 0a bf 3d
       0.2730165 0.2185562 0.026835915 0.09328186
0003c0 94 31 fb 3d a3 91 d3 bd 9e 1a b0 3d da db c6 bc
       0.12265316 -0.103305124 0.08598827 -0.024274755
0003d0 5f 7f ca 3d 3c 93 1c 3e e9 64 11 3e 60 85 cd 3d
       0.09887575 0.1529054 0.1419865 0.10035205
0003e0 d1 d0 b4 3d 20 12 94 bd 8b 94 05 3e 2b b0 e4 3d
       0.08828891 -0.072300196 0.13044946 0.11166414
0003f0 7e 05 25 be e0 b1 4f 3e b3 e4 87 3d 0d 2f 00 3e
       -0.16115376 0.20282698 0.06635418 0.12517948

linear.1.bias f4 [64]
000000 f7 45 22 3d 92 c3 d4 3d 75 8e ef 3d 10 32 23 be
       0.039617505 0.103888646 0.116970934 -0.15937066
000010 b5 12 42 3e 26 c8 56 bd 5e 3b 1e 3e 92 de 1f 3e
       0.18952449 -0.05243697 0.15452334 0.15612248
000020 3b c8 f2 38 ab be 8e 3d af a6 c9 3d 0b 2c 48 bd
       0.00011576755 0.06969961 0.098462455 -0.048870128
000030 8f b9 6c bd c4 d7 c4 bc c5 49 b6 3b a8 6f 37 be
       -0.05779415 -0.024028666 0.005562993 -0.17913687
000040 91 0c ac 3d ab 20 2c 3e 4b 27 42 bd f6 a2 7e bc
       0.08400834 0.16809337 -0.047400754 -0.015541783
000050 43 22 2d 3e f2 c7 3e 3c 80 b7 c7 3d 90 24 e5 bd
       0.16907601 0.01164435 0.09751797 -0.11188614
000060 b1 68 e6 bd df d1 d6 bd 77 87 ae bd b0 ab 49 be
       -0.11250437 -0.104892485 -0.085219316 -0.196944
000070 88 ae 87 3d 26 31 b0 bd 00 4f 0b be a6 99 16 be
       0.06625086 -0.08603124 -0.13604355 -0.1470705
000080 4d 49 2d 3d dd 34 f6 3b 47 32 7b 3e bc d3 ea bb
       0.042306233 0.007513626 0.24530898 -0.007166354
000090 69 3c d2 3c cc e7 19 be 8f 58 fc bd ed bb 03 3e
       0.025663571 -0.1502983 -0.12321579 0.12864657
0000a0 68 f6 63 3d 0c 9c 0d 3d 0e ff 5e be 8f e7 dd 3d
       0.055654913 0.034572646 -0.21776983 0.10835182
0000b0 48 eb a3 3d 9a 1b 37 3d 61 24 04 be 27 b4 d0 bd
       0.08003861 0.044704057 -0.12904502 -0.10190611
0000c0 20 20 ef 3d dc 96 4d be 1b cf 2c 3e cb dd ee bc
       0.11676049 -0.2007708 0.1687588 -0.029158494
0000d0 f4 04 a2 bd 81 5e f2 3d 32 58 6b 3e 16 67 18 3e
       -0.07911101 0.118344314 0.22982863 0.14883074
0000e0 92 93 22 be 39 f0 46 be 8b a2 84 3c c5 07 d2 3c
       -0.15876606 -0.19427575 0.016190788 0.02563847
0000f0 86 c1 39 3e 95 ec 83 bd a7 d6 e3 3d a2 d4 e6 bd
       0.1814023 -0.06441609 0.11124926 -0.11271025

linear.3.weight f4 [128, 64]
000000 67 c6 96 bd 2a c1 1e be c7 24 3d 3c 2d 66 0e 3e
       -0.07362061 -0.15503374 0.011544413 0.13906164
000010 31 99 a4 bd 62 ba 01 bb 6c 05 67 bd db 1d 4e bd
       -0.080370314 -0.001979493 -0.056401655 -0.05032144
000020 37 4e 14 bd 61 ef 98 be 83 08 25 be bd ee 22 be
       -0.036207404 -0.29870132 -0.16116528 -0.15911384
000030 26 55 f1 3c e1 c9 18 3c 40 2b 57 be c4 71 3f be
       0.029459547 0.009325475 -0.21012592 -0.18695742
000040 30 86 92 be ca f8 ce bb 05 0c a3 bc 51 32 de bb
       -0.28618002 -0.006316279 -0.019903192 -0.0067809005
000050 7c 9d a7 bc 6f fb ad bc 89 e0 b5 bd 41 cc 94 3d
       -0.020460837 -0.021238057 -0.08880717 0.07265521
000060 41 1e 6d 3e 8a 4c 19 3e c3 3e 32 3e 63 a2 4d bd
       0.23156072 0.14970604 0.17406754 -0.050203692
000070 7a 58 82 3d 27 b4 5d bd 20 16 8b 3c 15 2f 8a 3d
       0.06364532 -0.054126885 0.016978323 0.067472614
000080 08 17 b3 bd 4e 1e 2d bd 27 75 f8 bd c3 d8 67 3e
       -0.08744627 -0.04226523 -0.1213172 0.22641282
000090 c8 75 05 3e 06 fc 1a 3e 02 05 1e bd 37 d9 15 3e
       0.13033211 0.15135202 -0.038578995 0.14633642
0000a0 f3 1e 04 be 59 94 55 bd 26 23 7e 3b 44 2a e4 3d
       -0.12902431 -0.05214343 0.0038778274 0.11140874
0000b0 a6 25 3a 3e 01 ef bd 3d 84 2d ad bc 5b 0e 5e 3c
       0.18178424 0.09274102 -0.021139868 0.013553227
0000c0 66 a6 3e be 24 cd c3 3d 14 c5 0b 3e d6 4c ee 3c
       -0.18618163 0.09560612 0.13649398 0.029089373
0000d0 91 ba 52 bd 82 35 0a bc 2c 35 94 bd 0f 3a ef bd
       -0.051447455 -0.008435609 -0.07236704 -0.11680996
0000e0 80 a0 d0 bb 7c 0d 9b 3d c8 16 39 3d 3c d9 68 be
       -0.0063667893 0.07570931 0.04518774 -0.22739118
0000f0 24 ae 26 be ab 21 1a bd 36 d6 70 be 82 d6 12 3c
       -0.16277367 -0.037629765 -0.23519215 0.008962275
000100 27 78 bf 3c 7d 30 da 3d 77 c7 c8 bd c3 65 1c 3e
       0.023372723 0.1065378 -0.0980367 0.15273194
000110 97 0d 2a be d8 9b 68 3e e7 2d 10 3d a4 0f fb 3d
       -0.16606747 0.227157 0.035200026 0.122588426
000120 d4 31 b0 bd fe 55 03 3e bc e0 f8 3b c8 16 cb 3d
       -0.08603254 0.12825772 0.00759515 0.099164546
000130 c3 59 79 be 83 77 0a be de bb 2b 3d ae 6e 1a 3d
       -0.24350648 -0.13522153 0.04192721 0.03770321
000140 89 99 f6 3c df ff 02 be 87 a4 88 bc 9d 36 5e be
       0.030102508 -0.1279292 -0.016680015 -0.21700521
000150 ad af be bd 26 b3 d4 bd 36 15 54 bd 20 7f 87 bc
       -0.09310851 -0.10385732 -0.05177804 -0.01654011
000160 25 e7 6c 3d 54 6c 87 3e d8 2d 7e 3d 54 3e ec 3c
       0.057837624 0.26449835 0.06205544 0.028838314
000170 24 b7 1c be e8 3f 35 3c 53 19 ff 3d d9 10 ad 3d
       -0.15304238 0.0110626 0.12456002 0.08450479
000180 72 de ab 3d 83 16 70 3b df ae 7f 3d 2c 45 bd 3d
       0.083920375 0.0036634512 0.06242263 0.09241709
000190 29 32 4f 3d 27 cb 06 be 89 dc 2b bc 92 5c ed bd
       0.050584946 -0.13163434 -0.010489591 -0.11589922
0001a0 1a f9 0f 3e c1 20 2f 3d 52 17 7b 3e 63 ea e2 3d
       0.14059868 0.042755846 0.24520615 0.11079862
0001b0 ef d1 6f bd 03 51 b3 3d 0a 76 0f bd 5b 9b 35 3e
       -0.058549818 0.08755686 -0.03502468 0.17735045
0001c0 55 a9 38 3d 40 0c ae bd 22 3f 14 3d 07 8a 41 3d
       0.045083363 -0.0849843 0.03619302 0.047250774
0001d0 b6 5d c4 bb 50 3a 3f be 37 76 08 3e 18 7a 08 be
       -0.0059926165 -0.18674588 0.13326345 -0.13327825
0001e0 a9 f4 27 3c af 51 90 bd d1 60 6e bc 79 57 ba bd
       0.010251203 -0.0704683 -0.01454945 -0.09098715
0001f0 f7 81 f7 bc 84 fc 06 3d 50 60 6f bd 0f bb 72 bd
       -0.03021334 0.03295566 -0.05844146 -0.059260424
000200 98 ea 26 bd 69 c1 93 bd 8d 0d 5c 3e 82 25 af 3d
       -0.04075107 -0.072146244 0.21489544 0.08552076
000210 89 6b 9f be 04 1a 51 bd 6b 9a 69 bd d7 f3 03 be
       -0.3113673 -0.0510502 -0.05703203 -0.12885986
000220 0f 71 af bd e0 4e f7 3c 46 c1 16 be b5 11 dc bc
       -0.08566486 0.030188978 -0.14722165 -0.026863912
000230 60 45 6e 3d 0e 80 59 3b ad 06 35 be 4b 57 6f bc
       0.05817163 0.0033187899 -0.17678328 -0.014608215
000240 e2 ae e0 3c 1d 5e 31 3d 8b 9e e5 b9 41 91 21 3e
       0.02742714 0.043302644 -0.00043796407 0.15778066
000250 82 bb 0f be f8 f1 bb 3d 6e 63 f7 3d 9d 72 b8 bb
       -0.14036372 0.09177011 0.120795116 -0.0056288973
000260 bc 5a 81 bc 37 9d 3b 3e a7 97 b0 bd 6c 85 ad bd
       -0.015790336 0.18321691 -0.086226754 -0.08472714
000270 ff 83 03 3d 21 60 6c bd b4 05 0a 3e 31 a0 96 3d
       0.032108303 -0.057708863 0.13478738 0.07354773
000280 9b df 93 3b b4 54 18 bc 0c b4 ab 3d 75 14 d0 bd
       0.00451274 -0.009297539 0.083839506 -0.10160152
000290 e8 83 84 bc 17 fe 02 be 05 f1 65 3d d6 d2 fb 3d
       -0.016176179 -0.1279224 0.056138057 0.12296073
0002a0 4d d7 09 bd e9 6d 85 3c b9 f5 03 bd 9b c7 1a 3d
       -0.033652592 0.01628776 -0.03221676 0.037788015
0002b0 8b 19 8d 3d a8 25 5a bd 59 cd be 3d da 01 81 bd
       0.068896376 -0.053258568 0.09316511 -0.06299181
0002c0 fb 9e 1a be b7 c3 8a bd f8 c8 04 bd 79 e9 a0 bd
       -0.15099709 -0.06775611 -0.03241822 -0.078570314
0002d0 d2 48 94 bd 8c 26 dd bd 9b 4d d3 3c d8 f2 e6 bd
       -0.07240452 -0.10798368 0.025793841 -0.112767875
0002e0 c7 18 4f bd 91 d6 30 3e 58 7f df bd 05 4a 1b 3d
       -0.05056074 0.1726935 -0.10912961 0.037912387
0002f0 16 2f 37 bc 59 fb 09 be 6a f6 9e bc 71 2e 98 3d
       -0.01118066 -0.13474788 -0.019404609 0.07430733
000300 41 5d 49 bc d4 9e af 3d 64 ce 80 bd f4 18 b8 bd
       -0.0122903 0.08575216 -0.06289366 -0.089891344
000310 91 8d f1 bd bc c3 ea 3d 0e 3f 67 bd 6c 6e 7d be
       -0.1179458 0.114631146 -0.056456618 -0.24749154
000320 21 c6 f6 bd 6c bb 9b bc d6 52 1c 3e f1 ed 8b bd
       -0.12049509 -0.019010268 0.15265974 -0.06832493
000330 a2 e8 97 be 78 0e 11 bd 9c 25 06 bd 7c 82 c7 bd
       -0.29669672 -0.03541419 -0.03275071 -0.09741685
000340 2c 2c 7f bd a9 70 2b 3d aa 81 4d 3e e4 6d 27 3c
       -0.062297985 0.041855488 0.20068994 0.010219071
000350 f8 0f 0f 3e b0 16 05 bc 1e 1d a0 bd 74 45 85 3d
       0.13970935 -0.008123085 -0.07818054 0.06507388
000360 05 b3 90 3c b6 7f c7 3b ff fa 80 be 4f 8d dd 3d
       0.017663488 0.0060882224 -0.25191495 0.10817968
000370 2e 7f 0e 3e 71 9f ba 3c 94 af e1 3d 3d f1 04 3d
       0.13915703 0.022781106 0.11019817 0.032456625
000380 a1 35 8a bc 83 c5 0a 3e 62 5f 05 3e ae 89 af bd
       -0.016871275 0.13551907 0.13024667 -0.08571182
000390 4d 8e 0d be 8e ee 0d 3d 3f fc dd 3d 26 55 e2 bd
       -0.13823815 0.03465133 0.10839128 -0.11051397
0003a0 6d a1 5a be fa 83 8e 3e 8c c7 eb 3d 4a 62 74 3d
       -0.21350642 0.27835065 0.1151267 0.05966405
0003b0 e7 ef 7d 3d 67 95 b5 bc be 58 33 3c 52 12 54 be
       0.061996367 -0.022165967 0.010946451 -0.20710114
0003c0 17 5d 84 be 88 08 13 bd 5d 10 36 bc 22 1d 0b 3e
       -0.25852272 -0.035896808 -0.0111123 0.13585332
0003d0 d8 3d 62 3e 85 5f 1b 3d 29 e7 d9 bc 92 a0 95 3d
       0.22093904 0.03793289 -0.026599484 0.07306017
0003e0 0a 3b 08 3e 4c 87 93 3d 8d 94 25 be e2 36 7c bd
       0.13303772 0.0720354 -0.16169949 -0.061575778
0003f0 6f 03 8b 3d 0e 0f 3b 3e 4a 8c 58 be 35 97 c4 3d
       0.06787764 0.18267462 -0.21147266 0.09599153

linear.3.bias f4 [128]
000000 38 bf ef 3d e9 3e df bd 8f 2b aa bd 47 bb 6e 3d
       0.11706394 -0.10900671 -0.083090894 0.05828407
000010 f1 49 d6 3c 7d 9c 60 bc 1c bd 7f 3d 6e 27 95 bd
       0.026158305 -0.013709185 0.062436208 -0.07282911
000020 a2 b6 7e bd 5f 78 6b 3d b1 0a a8 3c 0e 0d c7 bd
       -0.06218589 0.05748784 0.02051291 -0.09719287
000030 00 87 a4 bc 92 69 67 be 53 00 0a 3d 98 af f6 bc
       -0.020083904 -0.22598866 0.033691715 -0.030113026
000040 29 10 d0 bd 77 d8 e2 bd 71 17 03 be d1 f8 bc 3d
       -0.10159332 -0.11076444 -0.12801911 0.092271455
000050 5a cd 8a 3b 4c ff 61 3d e1 5d f6 3c f8 4e 5a 3d
       0.0042359056 0.05517511 0.030074062 0.053297967
000060 c0 be 89 bd 1f a7 0e bb 84 3f fd bd d6 2f ad 3c
       -0.06725836 -0.0021767092 -0.1236563 0.021140974
000070 cc 74 d7 bd 59 28 93 3d 13 82 19 bd 46 de 5b bd
       -0.10520324 0.0718543 -0.037477564 -0.053678773
000080 74 ca a4 bd 7d 0e 16 3e c2 ed dd 3b 89 8d ee 3d
       -0.08046427 0.14653964 0.0067727277 0.116480894
000090 b1 5f 1a bd 5d b4 83 3d e7 78 e7 3a bb 9b 21 3e
       -0.037688915 0.06430886 0.0017659933 0.15782063
0000a0 43 ed f0 3c 2f 2a bc bd 9a 79 00 be 68 f3 14 be
       0.02941001 -0.091877334 -0.12546387 -0.14545977
0000b0 e3 a8 54 bd 58 ff 80 bd 0e 75 4a 3d df 59 3a 3d
       -0.051918875 -0.06298703 0.04942804 0.045495864
0000c0 8b 18 c7 bd cb fb 2e 3d 7f 3d 79 bc a3 9c 00 3d
       -0.09721478 0.042720597 -0.015212416 0.03139938
0000d0 41 a6 bf bb f9 92 64 bd 5f 5b 25 3e 14 0a db 3c
       -0.0058486764 -0.055804227 0.16148137 0.026738204
0000e0 43 7f dc 3d d7 56 8e 3c 2c 6c fa bc f9 0a e6 bd
       0.10766461 0.017375393 -0.030569158 -0.112325616
0000f0 02 57 7a bd b4 a3 e6 bd 21 b4 14 3e 3d 46 be 3d
       -0.061118133 -0.11261693 0.14521839 0.09290741
000100 e3 5c 35 3d 3c 4a ea 3c 94 e7 59 3c 5b 4d d6 bd
       0.044278037 0.02859985 0.013299841 -0.10463973
000110 6e 83 71 bc 7a d8 15 3d ec 59 fc 3d 03 1b 92 bc
       -0.014740808 0.0365834 0.12321839 -0.017835146
000120 b0 ac c9 3d 52 7c 7a bd a9 58 f8 3d e1 cd 86 3d
       0.09847391 -0.061153717 0.121262856 0.06582237
000130 fd 47 be bb ea d5 3d bd 23 ea 4a 3d d1 05 38 be
       -0.0058069215 -0.046346582 0.049539696 -0.17970969
000140 b1 f1 1c be b6 db bd 3a b8 62 92 3d 40 c1 8e bb
       -0.15326573 0.0014485035 0.07147735 -0.0043565333
000150 0e 2d b8 bc b5 32 c0 3d 81 25 75 bd 6a 8c 13 3d
       -0.022482421 0.093846716 -0.05985022 0.03602258
000160 2a 1d f7 3d 2d 35 c4 3d 12 15 ec 3d 10 cc 90 3d
       0.120661095 0.09580455 0.11527456 0.07070172
000170 f3 2d 24 3e 89 5f 3b 3e 7c 4a 33 bd 88 e0 a9 3d
       0.16033153 0.18298163 -0.043772206 0.08294779
000180 2e d8 39 bc 0b 98 30 3e 5e 84 43 bd ab 49 00 3e
       -0.011343045 0.172455 -0.047733657 0.12528102
000190 88 3b 1a bd 9c 83 9c bb fe f7 42 3d 81 23 83 3d
       -0.03765443 -0.0047764312 0.047599785 0.06403256
0001a0 8d 93 78 bd ca a1 22 be d6 02 bf bd 33 25 20 be
       -0.06068759 -0.1588203 -0.09326713 -0.1563919
0001b0 d4 09 08 bd 0e 45 83 3c eb 94 86 3d e4 95 fc 3d
       -0.033212498 0.016024139 0.065713726 0.12333277
0001c0 8c 9c a5 bd 4f 05 9c 3a 92 36 a3 3d c5 dc e5 3d
       -0.080864996 0.0011903438 0.07969393 0.11223749
0001d0 44 13 1a bd 9b 64 3c 3d cb 00 a3 3d 21 da 6f 3d
       -0.03761603 0.045994382 0.079591356 0.058557633
0001e0 b6 77 61 3d f0 ff f5 bb 41 51 b5 3c 3f b6 b9 3c
       0.055045806 -0.007507317 0.022133471 0.02266991
0001f0 e6 f6 02 be e0 b5 06 be 92 47 dc 3d 64 c4 f6 bd
       -0.12789497 -0.13155317 0.107558385 -0.12049177

linear.5.weight f4 [64, 128]
000000 be ea 2a bd 7a b0 0c bb 2d ec 2a be 66 5e 0e be
       -0.041727774 -0.0021467493 -0.16691656 -0.13903198
000010 78 03 ad 3d 6e 9f 57 3e 4f 4f c6 3d c8 40 fe 3d
       0.08447927 0.21056911 0.09683096 0.124147
000020 a6 18 6a be 4c 31 2f bd 7f 65 05 3e 7a a4 e1 3d
       -0.22860965 -0.042771623 0.13026999 0.110176995
000030 c1 47 0a 3e f5 bd 29 be ba bd 0d be 46 85 1c 3d
       0.13503934 -0.16576369 -0.13841906 0.038213037
000040 b8 fb 14 3d 84 99 3a 3d 84 b0 d3 3d 6e 0f 68 be
       0.03637287 0.04555656 0.10336402 -0.22662136
000050 48 af b1 3d ff 8a ca bc c6 b9 e3 bc f9 3a c4 3d
       0.0867601 -0.024724482 -0.027798545 0.09581561
000060 04 37 cb 3d db 03 14 3d 5a cf cb bd b7 c8 45 bd
       0.09922603 0.03613649 -0.099516585 -0.04828712
000070 65 4c 9c 3c f9 84 cf bd fb b3 75 3d 1d 57 1a 3d
       0.019079397 -0.101327844 0.059986096 0.037680734
000080 63 5f fd bd d7 7b db 3d cb 55 83 bc b2 cd 98 bd
       -0.12371709 0.1071698 -0.01603212 -0.07461108
000090 46 22 a2 3c 19 32 1a bd 0d 58 62 be b1 32 2b bd
       0.019791733 -0.037645433 -0.22103901 -0.04179639
0000a0 20 fd 64 be 5b 0a 2f 3e b0 eb 0f be 0b 0c 5b bd
       -0.22362185 0.17093794 -0.14054751 -0.053478282
0000b0 da 15 d8 3d b2 11 69 bd 7c 7a 3a 3c 72 90 09 3d
       0.10551043 -0.05690164 0.011381742 0.03358502
0000c0 0f 18 9f 3c 68 11 92 3d eb 91 bf 3d fd 35 c8 3d
       0.019420652 0.07132226 0.093540035 0.097759224
0000d0 57 61 65 be a0 10 b9 3d f3 d5 07 bd 6b 43 19 3e
       -0.22400413 0.09036374 -0.033163022 0.14967124
0000e0 f4 ac f3 3d 9e 10 80 3d e1 7b 9d 3d d3 af e4 3d
       0.118982226 0.062531695 0.07689644 0.11166348
0000f0 74 ce ae 3d 91 2b 0b be 79 e2 aa 3d 55 59 1e 3e
       0.085354716 -0.13590838 0.083439775 0.15463765
000100 21 68 8a 3c 2b 49 8e 3d 4d 3b 99 bc 74 82 da bd
       0.016895356 0.069475494 -0.018705035 -0.10669413
000110 29 54 d5 bd 60 08 e9 bd 59 b7 12 3e a5 f8 d3 bc
       -0.10416443 -0.113785505 0.14327754 -0.025875399
000120 07 34 4a be d6 d0 b0 bc b2 4d 2e be 57 c4 7a be
       -0.1974641 -0.021583956 -0.17021826 -0.2448896
000130 bc cc 9e 3d 11 5e 5a bb 77 95 b1 3c 32 ff 27 3e
       0.07753894 -0.0033320228 0.021677716 0.16405943
000140 a5 11 bb bd e0 cb 26 3d 88 c2 b6 3d 7b 9e 17 3d
       -0.09134225 0.040721774 0.08923823 0.037016373
000150 ff de d6 bd 48 4e 98 bd 47 37 60 bc f1 f8 4b bd
       -0.10491752 -0.07436806 -0.013685054 -0.049797956
000160 cb 23 19 be d1 38 ce bd 49 b9 09 3e 18 1a 9e bc
       -0.1495506 -0.100694306 0.13449587 -0.019299552
000170 f7 3c 3b be b6 77 bb bd 7d 2e 32 bd 3d e8 c9 3d
       -0.18284975 -0.091536924 -0.043501366 0.09858749
000180 91 ca 11 3e ed f8 a3 bc 3b 79 e3 3d 62 7a 95 bd
       0.14237429 -0.020016158 0.11107107 -0.07298733
000190 92 ef 10 3e d2 a2 b7 bd 8c f5 3a 3b 4f a5 30 be
       0.14153889 -0.089666024 0.0028527705 -0.1725056
0001a0 70 0b b2 3d d6 2a 00 3e 75 6a 36 bd 40 98 c1 bc
       0.08693588 0.1251634 -0.04453512 -0.023632169
0001b0 f8 89 a6 3d fc 7b 55 3d 29 71 ce bd 87 29 ad bd
       0.08131784 0.052120194 -0.10080177 -0.08455186
0001c0 6f d1 89 3d 50 5a 9c 3d 31 01 54 3d 1d 17 1e 3c
       0.067293994 0.07634413 0.05175895 0.009649065
0001d0 9d f5 3d bd 00 26 99 3d dd c0 83 bd b3 0d 69 bd
       -0.046376813 0.07477951 -0.0643327 -0.05689783
0001e0 44 f4 20 bc 25 97 91 be 66 cc 20 be 53 3a 3b bd
       -0.009823862 -0.28435627 -0.15702972 -0.04570992
0001f0 0c e7 24 3d b7 56 7d 3c 4a 7b e0 bd a3 1c 42 be
       0.040259406 0.015462569 -0.109610155 -0.18956237
000200 e0 91 45 bd ac b9 0d 3e 44 98 93 3d 7f 41 9b 3e
       -0.04823482 0.1384036 0.07206777 0.30323407
000210 b3 e5 8f be 44 c3 25 3d 9d c8 00 bd 60 83 4a bd
       -0.28104934 0.040469423 -0.03144132 -0.049441695
000220 e6 1e 56 3e 24 82 dc 3d 60 f6 ab 3d 2b a5 d5 bd
       0.20910224 0.1076701 0.08396602 -0.10431894
000230 44 71 2b 3d 57 67 67 bd 08 d1 8d bd 4a 47 a1 3d
       0.041856065 -0.056495037 -0.06924635 0.078749254
000240 c4 e5 3d 3d 03 64 8f 3d 56 f7 f9 bd 7d 03 1d 3d
       0.0463617 0.070014976 -0.12205379 0.038333405
000250 a8 b3 12 be b7 5b 11 3e fe f3 80 bd 36 d2 cb bb
       -0.14326346 0.14195143 -0.06296538 -0.0062201275
000260 93 14 52 bb 05 84 bc 3d aa 03 3b bd 6e 82 22 3e
       -0.003205572 0.09204868 -0.04565779 0.15870067
000270 23 08 af bd 23 73 55 bd 58 75 32 be fc 25 c3 3d
       -0.08546474 -0.052111756 -0.17427576 0.09528729
000280 84 50 21 3e a6 f8 47 3c e7 79 13 bb 8f 73 18 be
       0.1575337 0.0122052785 -0.002250308 -0.14887832
000290 b9 f7 11 bd be c9 ce 3d 66 83 15 3a 58 b7 d2 bd
       -0.035636637 0.10097073 0.0005703479 -0.10288876
0002a0 00 26 1b be 14 12 f4 bc 49 90 af 3d d1 80 9b 3b
       -0.15151215 -0.029793777 0.08572442 0.0047455807
0002b0 fb e2 82 3d 45 c0 76 bc 7c ac 90 3b 79 fe dd 3d
       0.06390949 -0.015060489 0.004415093 0.108395524
0002c0 93 a9 cf 3d 45 34 92 3d 4d ce 92 bd 6e b5 c6 bd
       0.101397656 0.07138876 -0.07168255 -0.09702574
0002d0 5c 51 7b 3b d3 66 5e 3c f1 da b3 bc 33 cf c3 bc
       0.0038348055 0.01357432 -0.021954985 -0.023902511
0002e0 b6 d9 b9 bd 1f b5 9e be aa da 08 bd 9d b4 1c bd
       -0.09074728 -0.3099756 -0.03341166 -0.038258184
0002f0 f5 52 6f bd ae 9a fc 3c 16 85 31 3d 16 ab 8e be
       -0.058428723 0.030835476 0.04333981 -0.27864903
000300 ea 7a a7 3c fa 4e 54 3d 23 0e 89 bd cd 81 eb bd
       0.020444352 0.05183313 -0.066921495 -0.11499367
000310 5f ce 30 3c 89 89 1e 3c 53 97 79 bd 20 7b 52 bd
       0.01079139 0.009676346 -0.06093533 -0.051386952
000320 dd 28 e9 3d 80 1b a1 3d 74 6a f5 3d 13 6e 79 3e
       0.11384747 0.07866573 0.11983195 0.24358396
000330 40 e3 96 bc 8e af 12 bd 99 97 e4 bd 2c 81 ec bd
       -0.018418908 -0.035811953 -0.111617275 -0.11548075
000340 b5 a1 cb 3d a8 e8 5c bd 4e cb 2a be 89 24 ac 3d
       0.099429525 -0.053932816 -0.16679117 0.08405406
000350 16 4b 60 bd 64 26 00 3e 43 2c d4 3d bb fa ed 3c
       -0.054759108 0.12514645 0.10360005 0.029050222
000360 8e b5 67 bd ed 95 80 3d 64 00 7c be 3c 1c f4 3d
       -0.05656963 0.06278596 -0.24609524 0.11919448
000370 34 26 1c 3e 0f d0 d9 3d 2d b6 d3 bc e5 ef fa 3d
       0.15248948 0.10635387 -0.025843704 0.122527875
000380 17 0c 4f 3e 34 52 53 bd 60 bf 9e 3d f3 84 c6 3d
       0.20219456 -0.051592067 0.07751346 0.09693327
000390 05 e7 f4 3c 79 1d ad 3d 2f 3e bf 3c dc f4 eb 3d
       0.029895315 0.08452887 0.023345081 0.115213126
0003a0 ea bd ec 3c 41 72 01 bd 93 6e ec bc 26 05 c6 bd
       0.028899152 -0.0316031 -0.02886132 -0.09668951
0003b0 22 b3 a1 3d 16 ea cd bd d8 78 58 be b8 b1 25 bb
       0.07895495 -0.10054414 -0.21139848 -0.002528293
0003c0 4f fe b8 bd ad 7b 0a 3e 72 3a 9e 3d 37 53 bd 3d
       -0.090328805 0.13523741 0.07725991 0.092443876
0003d0 e5 9b e2 3d 4f c9 a8 bd 5b 3e d2 3d 91 a5 92 3d
       0.11064891 -0.082415216 0.102657996 0.071604855
0003e0 ef 98 47 3e 8b 33 0d 3e 8a 70 8e 3d 7a 92 05 3e
       0.19491933 0.13789193 0.06955059 0.13044158
0003f0 d0 27 09 3c a5 90 2d 3d 99 f0 36 be 9f 13 cf 3c
       0.008371308 0.042374272 -0.17865218 0.02527791

linear.5.bias f4 [64]
000000 33 a7 99 3d 45 da 2c 3d 84 f7 93 3d 4e c4 6d bd
       0.07502594 0.042200346 0.07224944 -0.05804854
000010 96 96 cb 3c b0 d0 be 3d fb 37 32 3d 0f b2 fb bb
       0.024852078 0.09317148 0.04351042 -0.0076811383
000020 72 ee c5 3d 00 34 ba 3c c9 6b 16 bd 1e 3d da 3c
       0.096646205 0.022729874 -0.036723886 0.026640471
000030 94 6c e8 3c 73 95 f2 bc f2 aa 99 3c 7e a4 d8 3d
       0.028372087 -0.029612279 0.01875827 0.105782494
000040 fe fe 84 3d ae 6d 7c bd 93 b4 ec bd 6a b6 85 bc
       0.064939484 -0.061628036 -0.11557879 -0.016322333
000050 f0 d5 25 3d 42 55 0d be 25 e9 b2 3d 69 2f 01 be
       0.04048723 -0.13802055 0.08735875 -0.12615742
000060 bd a4 2c 39 fb 59 b7 bd e7 27 ce bc da a8 e3 bd
       0.00016464568 -0.08952709 -0.025165511 -0.1111619
000070 45 0f 9d 3d 7d 3b b4 3d 9e 67 0f be aa d6 05 be
       0.07668928 0.08800409 -0.1400437 -0.13070169
000080 5b 88 9e bd 7c 27 b1 3c a5 ec 3e bc 98 7f 9d bd
       -0.077408515 0.021625273 -0.0116531 -0.07690352
000090 d0 5b 25 3d cf 5a 94 3d 92 51 04 3d e2 b5 b3 bb
       0.040370762 0.07243883 0.032304354 -0.0054843286
0000a0 47 d6 bf 3d de 1d 12 bc 0e 20 bc 3d f3 02 45 bd
       0.09367042 -0.008918254 0.091858014 -0.048098516
0000b0 3c a3 c2 3d 34 c8 3c 3c e0 d6 08 3d ef 55 33 3d
       0.09503791 0.0115223415 0.033408046 0.043783125
0000c0 b8 9b 16 3d ea 43 48 bd 8a 4c 3c bd 51 c9 aa 3d
       0.0367696 -0.048892893 -0.04597143 0.08339179
0000d0 52 44 b8 bd 59 56 90 3d 0f 06 85 3c f1 b3 61 bc
       -0.08997406 0.070477195 0.01623824 -0.0137758115
0000e0 8f 63 0c bd ee 5a 1c bc fd 4c 7a 3c 50 9c c5 3d
       -0.034274634 -0.009543164 0.0152771445 0.09648955
0000f0 77 7e a6 3d bb 75 c3 3d f0 99 18 3c 33 6e a1 3d
       0.0812959 0.0954394 0.009314045 0.07882347

linear.7.weight f4 [32, 64]
000000 c4 7a a9 bd c9 a6 90 bc af a1 0c be 57 ec 64 3d
       -0.08275369 -0.017657654 -0.13733552 0.055889454
000010 a4 43 6f bd 5d bb 89 bd 38 0d cb bd 89 f4 db bc
       -0.058414117 -0.0672519 -0.09914631 -0.026850002
000020 b3 2d 97 bd ef c4 71 bd 5d 4d b6 3d f0 16 ab bd
       -0.07381763 -0.0590257 0.089014746 -0.08353984
000030 b7 de a9 bd 04 d1 0e be e3 f7 0e bb a9 cf 54 be
       -0.082944326 -0.1394692 -0.0021815232 -0.20782341
000040 7e f5 2c 3e bc 91 8c be ed 92 0b 3e 04 da 00 3e
       0.16890523 -0.27454937 0.13630266 0.12583166
000050 3d 49 fd 3b 69 0d ab 3d 0c 6d dd 3d 74 44 31 be
       0.007729678 0.08352167 0.10811815 -0.17311269
000060 57 23 7c 3d 51 dc 6e bd ef e3 99 be c1 a2 ad 3d
       0.06155714 -0.05831558 -0.30056712 0.084783085
000070 1d 51 63 be 6d dd 30 3e 01 17 c0 3c 01 ef 45 3e
       -0.22198911 0.17271967 0.02344847 0.19329454
000080 c5 fa e8 3d f5 07 93 3d 37 75 38 3e 1d a4 05 3e
       0.113759555 0.07179252 0.18013464 0.13050885
000090 b3 74 03 be d8 df 54 3d 81 f6 fe bd 2b 66 fd 3d
       -0.12837486 0.051971287 -0.12449361 0.123730026
0000a0 02 56 33 3d 6f 1c e6 39 62 aa 13 3d 7c db e8 bd
       0.043783195 0.00043890203 0.03605116 -0.11369988
0000b0 89 cc 94 3d 6c df 73 3e 0d 57 8b 3d 4d ed 6e bd
       0.072655745 0.23815697 0.06803713 -0.058331776
0000c0 4c cb c5 bc d9 91 47 be 67 08 71 be 99 e1 09 3d
       -0.024144791 -0.1948923 -0.23538361 0.033662412
0000d0 1d b8 90 bd af 9a 4c bd 27 8c b7 3d 86 1b c0 3d
       -0.07066367 -0.049952205 0.08962279 0.0938025
0000e0 68 66 23 bd 3a 52 4f be 25 71 24 bc e7 ca de 3d
       -0.039892584 -0.2024621 -0.010036741 0.10878544
0000f0 b5 a8 eb 3d 6c 99 39 bd 9c e0 25 be b7 04 b7 bd
       0.11506788 -0.04531233 -0.16198963 -0.08936446
000100 07 21 42 3e 2f 67 29 be 18 d2 48 3d 6d 99 0d be
       0.18957911 -0.16543268 0.049028486 -0.13828059
000110 13 3d 1d 3e 56 50 f3 bd be 7e 0b 3d 59 4d b0 3c
       0.15355329 -0.11880557 0.034056418 0.021521257
000120 84 17 f4 3d 48 49 6c 3d 3c 90 d2 3d 2b 0d ea bd
       0.11918548 0.057687074 0.10281417 -0.11428293
000130 31 91 a0 be 49 36 c7 bd c0 5d 06 3e 90 b8 ed bd
       -0.31360772 -0.09727151 0.131217 -0.11607468
000140 cd fb 2a 3d ed e5 6c 3d c3 74 84 3e 92 67 0c 3e
       0.041744042 0.05783646 0.25870332 0.13711384
000150 ed 05 ef bc d2 91 e1 bb 88 50 a6 bc 7f 6e e6 bd
       -0.02917763 -0.006883838 -0.020302072 -0.11251544
000160 fb b1 8b bc be 09 b7 3d 01 83 4d be 14 0f 25 3e
       -0.017052641 0.08937405 -0.20069505 0.16119033
000170 d4 d0 99 bd fa 6c 36 bd c9 8d e6 3c 57 73 01 3d
       -0.07510534 -0.044537522 0.02814378 0.031604137
000180 1e a6 1c be 57 e2 83 bd 73 e9 1a be a1 93 d8 3d
       -0.15297744 -0.06439655 -0.15128116 0.10575033
000190 88 8e ac 3c 5c 03 80 bd a7 37 3f 3d be 7d 1e be
       0.021064058 -0.06250641 0.046683934 -0.15477654
0001a0 37 ff 82 3d 8d 38 c6 bd 5e 00 3c 3d f7 02 c4 3d
       0.063963346 -0.09678755 0.045898788 0.09570878
0001b0 46 ad 63 3d 0f f1 f0 bc 2a 5a d5 3d 0d 56 e2 bd
       0.05558517 -0.02941182 0.10417588 -0.11051569
0001c0 00 c3 25 3d b7 5f 30 3d fc d6 9e 3d 10 19 c6 bd
       0.04046917 0.04306003 0.07755849 -0.09672749
0001d0 ce b7 87 3d e1 52 8f bd 8e e6 80 bd 5d ab 36 bd
       0.06626855 -0.0699823 -0.06293975 -0.04459702
0001e0 1e 2c 75 3d b1 b0 01 bd 19 95 1b 3e 70 52 82 3d
       0.059856527 -0.031662647 0.15193595 0.0636338
0001f0 d6 60 a6 bc 21 01 a5 3d f3 8d 03 be e6 28 bd 3c
       -0.020309847 0.08056856 -0.12847118 0.023090791
000200 20 4b 6b be d4 3f 71 3d 9c 8e 02 3e 80 21 b1 3d
       -0.22977877 0.058898762 0.12749714 0.08648968
000210 d0 d0 76 be ea c9 0a 3d d4 0b 88 3c a7 93 96 3d
       -0.24103093 0.033883967 0.016607203 0.07352381
000220 bb 78 ec 3c 67 88 82 3d ba 17 cf bc 8a 70 86 3c
       0.028866163 0.06373673 -0.025279868 0.016411085
000230 a9 cc ac 3d b2 cb 84 bd 5a 40 a4 3d 8b 4d e5 bd
       0.08437473 -0.06484164 0.080200866 -0.11196431
000240 ec 16 1e 3c d2 d8 3b 3e fa 0b cf bb f7 de 85 bd
       0.00964902 0.18344429 -0.0063185664 -0.06536668
000250 75 d1 66 bc dd ba be bc f0 72 ad bd 7d 8f 9e bd
       -0.014088024 -0.023282463 -0.08469188 -0.07742212
000260 c5 4f 08 be 42 ff 1c bd a4 7b d6 bd 54 40 62 be
       -0.1331168 -0.03832937 -0.10472801 -0.22094852
000270 e2 eb ab bc 16 c5 8e bd 59 4f dd bc 3e 9a 98 bd
       -0.020986501 -0.06971185 -0.027015375 -0.07451294
000280 94 dc 23 3d 1a 3c 84 bd 99 88 21 bd e6 6e 12 bd
       0.04000528 -0.06456776 -0.03943691 -0.035750292
000290 46 86 46 3d 32 59 2a be f8 ab 67 bb 42 42 c8 3d
       0.048467897 -0.16635588 -0.0035350304 0.09778263
0002a0 1e d8 3a be a6 d4 b2 bb d9 ac 64 3d c3 3e 7d bc
       -0.18246505 -0.0054574786 0.055828903 -0.015456858
0002b0 ec 8b 03 bd 4a ec 8d 3d 7d ed 07 3e ae 11 26 be
       -0.03211586 0.06929834 0.13274188 -0.16217682
0002c0 50 ab 27 bd d0 ef 96 bd c7 90 d7 3d 0a 0b 2f be
       -0.04093486 -0.07369959 0.10525661 -0.17094055
0002d0 3d a5 94 bc d1 ea 4a 3d ec 8c 60 be 9d b6 14 3e
       -0.018145198 0.049540345 -0.21928757 0.14522786
0002e0 ba 41 f5 bd 5b e8 50 bd ce ec 6c bd 72 25 89 bd
       -0.11975427 -0.05100284 -0.057843022 -0.06696595
0002f0 d6 e1 b2 bb a5 14 b7 bd 35 db 08 3c e2 5f 85 3d
       -0.0054590506 -0.089394845 0.008353044 0.06512429
000300 b0 4a 8e bd 62 b2 7d 3d 25 85 51 bd 9d 89 98 3d
       -0.06947839 0.061937697 -0.051152367 0.07448123
000310 14 e5 bd 3d 3e a6 b5 3d 15 a9 09 3e f9 d5 ce bd
       0.09272209 0.08869599 0.13443406 -0.10099406
000320 2a a9 ea bd 2a 76 0c bd 8e d5 15 3d 4b 2c 96 3c
       -0.11458047 -0.034292378 0.036580615 0.018331667
000330 07 f3 0b be cf af eb 3d 44 bd 2b be b4 8d 89 3d
       -0.13666926 0.11508142 -0.16771418 0.06716481
000340 f0 3b 7c 3d d6 bb 64 3d 41 59 f4 bd 03 c9 2f 3a
       0.0615806 0.055843197 -0.11931086 0.00067056733
000350 03 fc e1 bc b8 65 38 3d 1c 65 a4 3d b0 a9 40 3d
       -0.027585989 0.04501888 0.080270976 0.047036827
000360 e9 03 10 be 7e 44 ac bd 29 76 1f be 51 69 aa bd
       -0.14063992 -0.08411501 -0.15572418 -0.08320869
000370 3f e8 91 bd 8a 1e 31 3d 6c 6a 01 3c da ad d5 3c
       -0.071243756 0.043242015 0.007898908 0.026083875
000380 d7 91 ac bd a2 28 91 3d f8 37 68 bc d5 97 5a 3d
       -0.08426254 0.07087828 -0.0141735 0.053367455
000390 2c aa e7 3c d2 af 4f bd 70 8a 9a bd c2 de e7 3d
       0.028279386 -0.050704785 -0.07545936 0.113217846
0003a0 76 15 f9 3b ba de af 3c 5c 22 c2 3c 10 a6 be bd
       0.0076014353 0.021468509 0.023698024 -0.09309018
0003b0 54 40 0c 3d 4a e1 8e 3d 0a a6 f6 bc ac 24 84 3c
       0.034241036 0.06976564 -0.03010847 0.016130768
0003c0 1b 18 27 3e 3e d4 19 be f1 44 c4 3b ec d2 41 bd
       0.1631779 -0.1502237 0.005989664 -0.04732029
0003d0 c5 c1 82 3d 3e 40 6b 3e 86 14 ee bb 11 6f c5 3c
       0.06384615 0.22973725 -0.00726563 0.024100812
0003e0 ca 48 aa 3c 63 3f 1a be d3 3d 66 be fd db 6e 3d
       0.020786662 -0.15063243 -0.22484522 0.058315266
0003f0 be 07 e8 bd 40 fb a6 be 58 1e 8e 3d 51 5f 01 be
       -0.11329602 -0.32613564 0.06939381 -0.12634017

linear.7.bias f4 [32]
000000 ef ba 60 bd 70 cd 8c bd e7 c1 f7 3d e4 72 45 bd
       -0.054865774 -0.068751216 0.12097531 -0.04820527
000010 b4 e2 23 be 1e 07 98 3d 19 d7 51 bd 0a c1 ab bc
       -0.16004449 0.074232325 -0.051230524 -0.020966072
000020 29 20 c8 bd 5c a4 22 bd 1e 32 dd bd 73 13 98 bb
       -0.09771759 -0.039707527 -0.10800575 -0.0046409904
000030 ce c1 00 bd bf 91 df 3d 20 a9 a3 3d bb ae 70 3d
       -0.031434827 0.10916471 0.079912424 0.058760386
000040 10 ce 67 3d ea b8 2c 3e 96 0f 2e 3e 06 cc 00 bc
       0.056593 0.16867414 0.16998133 -0.007861143
000050 02 76 af 3d d8 47 5b 3d 92 e9 f7 3d f8 1a 38 3e
       0.0856743 0.053535312 0.12105097 0.17979038
000060 9c e1 a8 3d ad 10 44 3d 63 d0 d9 3d f5 ac ec 3d
       0.082461566 0.047867466 0.1063545 0.115564264
000070 ad 2e 45 bd 59 e8 b9 bd 0f a1 c6 bd 95 ec a2 bd
       -0.048140217 -0.0907752 -0.09698688 -0.07955281

linear.9.weight f4 [4, 32]
000000 4f c0 11 be 04 e2 9a bd ac 07 3c 3e 3d 29 24 be
       -0.14233516 -0.0756264 0.18362302 -0.16031356
000010 fb 48 2e 3d 41 eb 43 3e 05 71 1b be c9 be 56 3d
       0.04255007 0.19132711 -0.15179832 0.05242804
000020 74 38 b8 3d a5 2d 30 3d ea a9 50 be ee f6 52 3e
       0.089951426 0.04301228 -0.20377317 0.20602009
000030 aa 31 8a 37 7a 6e 5f 3e d3 7f 38 3e b1 dc 71 bd
       1.6474009e-05 0.21819487 0.18017511 -0.05904836
000040 b4 6f 98 bc c5 d5 a0 bd 1b 98 e5 3d 89 a4 f6 bd
       -0.018607952 -0.07853273 0.112106524 -0.12043101
000050 46 8a 3f 3e 5b 12 bb 3d 0c 4a ee bd 70 22 f4 bd
       0.18705091 0.091343604 -0.11635217 -0.11920631
000060 35 4b 53 3e e4 13 cb bd d0 72 40 3e 0c 32 bb bd
       0.20634158 -0.09915903 0.18793797 -0.09140405
000070 46 a7 17 be 2d 82 10 3e 27 7b 2c 3e 06 a8 88 3d
       -0.14809904 0.14112158 0.16843854 0.06672673
000080 58 bc 81 3e d3 6f 04 3d f2 5e c0 bd 3d 2c 3c 3d
       0.25339007 0.032333206 -0.093931094 0.045940626
000090 a6 05 d3 3d 17 7c 23 bd 99 e1 57 3d 37 78 8a bd
       0.10303812 -0.039913263 0.05270538 -0.067612104
0000a0 5f f5 65 3d 0e 8e 8b 3e c9 81 33 3e 56 63 e2 3b
       0.056142207 0.27256817 0.17529978 0.0069088144
0000b0 86 8d ad 3b 5f cf 17 be 95 6f 42 be 09 a0 b1 bd
       0.005296412 -0.148252 -0.18987878 -0.086731024
0000c0 1e 29 f9 3d 4a 4c 67 bd 9a 0f 0d 3d c0 03 86 ba
       0.121660456 -0.05646924 0.034438707 -0.0010224506
0000d0 e5 f8 a0 bd d9 f8 e1 3d 83 ed 27 3e 29 99 c6 bd
       -0.07859973 0.11033792 0.16399197 -0.09697182
0000e0 9f 68 be 3d 5f 9a 4f be 58 05 1e be c0 ed b0 3c
       0.09297299 -0.20273732 -0.15431726 0.021597743
0000f0 96 1e a8 3d f8 fe d5 bd 6f f8 42 bd c2 76 e8 bd
       0.08208959 -0.10449022 -0.047600206 -0.11350776
000100 d8 61 34 3d f2 a7 6d 3a f7 58 80 3d c2 1c cd 3c
       0.044038624 0.00090658583 0.06266969 0.025038127
000110 02 0e 68 be 12 87 b3 3d e2 cb c8 bd de 6e 8c 3e
       -0.22661594 0.08765997 -0.098045126 0.27428335
000120 93 4f 69 be 20 6a 09 be 87 28 0a bc d7 0e 1f 3e
       -0.22784261 -0.1341939 -0.008432514 0.15533005
000130 3f f5 90 3e 78 91 5b bc 57 2c 61 3b 37 07 17 3d
       0.28312108 -0.013401382 0.0034358704 0.036872115
000140 a7 01 fb 3d 89 39 2a be 26 1a ea bc f5 d0 03 3e
       0.122561745 -0.1662351 -0.028576922 0.1287268
000150 d7 0b 1e be fa d3 66 3e 33 5d fa bd 5d 60 0a be
       -0.15434204 0.225418 -0.122248076 -0.13513322
000160 48 74 bf bc 1a c7 2c 3e 1c 25 ec bd dc d8 9f 3e
       -0.023370877 0.16872826 -0.115305156 0.31220138
000170 50 30 23 be 59 aa 04 be f9 ce 9e bd 07 a0 95 bc
       -0.15936399 -0.12955607 -0.07754321 -0.018264784
000180 70 9d e4 bd 21 e4 1f 3e 68 22 4e 3d e1 96 5d bd
       -0.11162841 0.15614368 0.05032578 -0.054098967
000190 ea cf 13 3e a8 17 b9 bd c3 a4 1f 3d 83 b6 20 3e
       0.14434782 -0.09037715 0.03897549 0.15694623
0001a0 5c f8 0c be d4 35 e6 bd 8d 49 15 3e 1e 0f 4c be
       -0.13766617 -0.11240736 0.14578839 -0.19927642
0001b0 a0 65 03 bd ac 0c 92 bc 0e 36 89 bd 7a 11 8e bd
       -0.03207934 -0.017828308 -0.06699763 -0.06936927
0001c0 b6 2a 54 3e 41 32 8c 3e a2 0e ad bd e4 52 24 bd
       0.20719418 0.2738209 -0.084500566 -0.040118113
0001d0 35 a5 61 3c 7f 56 5e be e8 2e 28 be 2e 5f 06 3e
       0.013772299 -0.21712683 -0.16424143 0.13122246
0001e0 e4 f9 67 bc 29 b9 c2 3d 67 de b6 3c 41 68 5d be
       -0.0141587 0.09507973 0.022322847 -0.21621801
0001f0 29 a1 4a bd 51 6c e4 3c b5 59 26 3e c2 fb 41 be
       -0.0494701 0.02788368 0.16245158 -0.18943694

linear.9.bias f4 [4]
000000 71 c0 f0 3d 11 5e ab bd 94 7b 49 bc 38 f1 ac bd
       0.11755455 -0.08367551 -0.01229753 -0.08444446

shared_mlp.1.weight f4 [128, 210]
000000 0f cc 3a bc 83 0c b3 3d 2f 1a 58 bd 03 79 93 3d
       -0.01140119 0.08742621 -0.052759346 0.072008155
000010 80 7e 86 bd 4e 39 c7 3c 8f d0 3e 3c e8 31 8c 3b
       -0.06567097 0.024319317 0.011646404 0.00427841
000020 44 b1 8e 3d 37 75 67 3d 95 d1 21 bc 98 d7 0b 3d
       0.069674045 0.05650827 -0.009876628 0.034141153
000030 2a d6 fd 3d d2 f3 2f bc 3d 16 4f bd e8 dd 3e 3d
       0.12394364 -0.010739284 -0.050558317 0.046598345
000040 f1 c9 29 3d e9 b5 84 3d c1 37 54 3d c0 31 14 bd
       0.041452352 0.06480009 0.051810984 -0.036180258
000050 d1 a6 43 bd dd 15 0e 3e ba 27 6b bb 2e 40 cd 3c
       -0.04776651 0.13875528 -0.0035881833 0.025055017
000060 1f f3 a0 3c 5c 57 ca 3c 5e e0 a4 bb ba 83 e9 3d
       0.01964718 0.02469986 -0.0050316295 0.11402078
000070 de 03 52 bc 0e ee 8e 3d 78 20 83 3d 77 f1 2d bd
       -0.012818305 0.06978999 0.06402677 -0.042466607
000080 93 5f 68 bc 1c cd 5e bc d1 b3 3b bd cf a4 31 3d
       -0.014182943 -0.013598707 -0.045825783 0.043370064
000090 22 8f 76 3c 92 6d 80 bd 9a 89 db bc 10 75 c9 3c
       0.015048774 -0.06270899 -0.026799012 0.024591953
0000a0 5a 7d c2 3c af 61 4f 3d e5 f2 0e bc a2 d5 8c bd
       0.023741413 0.050630268 -0.008724903 -0.06876685
0000b0 38 a4 57 bd 9d 90 fd bc d2 92 2a bc 5a 49 3b bc
       -0.052646846 -0.030952746 -0.010410981 -0.011431063
0000c0 57 11 85 3c 74 01 cb 3c 78 51 02 ba 13 7b d5 3c
       0.01624362 0.024780966 -0.0004971246 0.026059663
0000d0 26 63 ac b9 d5 5e 9b ba 63 ef 13 3d 5e ee a8 3b
       -0.00032880268 -0.0011853824 0.03611697 0.0051553687
0000e0 c4 c4 06 bb f5 c8 30 bc 55 be 13 3c d0 10 14 3c
       -0.0020564059 -0.010790099 0.009017547 0.009037212
0000f0 79 f1 3e bd 2c c9 9c bc 23 01 b6 3c 2e fa 93 bc
       -0.046617005 -0.019138895 0.022217339 -0.01806363
000100 a3 c0 15 bd a0 07 85 bc 8b dc b0 3c 77 22 4e bd
       -0.036560666 -0.016238987 0.021589538 -0.050325837
000110 15 7e 0c bd 2a 53 9c bb 01 a8 54 bd c3 8b e6 3c
       -0.03429993 -0.004770656 -0.051918034 0.028142815
000120 67 22 34 bd e1 54 8a bc a5 a3 8a bc 29 f2 56 3b
       -0.04397812 -0.016886177 -0.016923735 0.0032798147
000130 9a f6 7b bd fe c7 46 3d 63 d7 21 3d 69 59 e0 bc
       -0.061514474 0.04853057 0.03951205 -0.027386384
000140 97 c2 79 bd 2f 00 9d bd a6 33 47 3d d4 af ba bc
       -0.06097659 -0.07666051 0.04863324 -0.02278892
000150 dc 6d 04 3d 48 d1 52 3d 93 f5 f6 bc ac 59 46 3d
       0.032331333 0.051469117 -0.030146396 0.04842536
000160 1a 09 65 3d d0 57 64 bd 61 b7 44 3d 1f 5a 75 3d
       0.055916883 -0.055747807 0.048026446 0.0599004
000170 c3 35 aa bc 47 99 8b bd 19 94 44 bc f4 b2 3c 3d
       -0.020777589 -0.06816345 -0.0119982 0.0460691
000180 91 05 06 3c 66 34 53 bd 1b 00 d6 bc 3a 33 03 bc
       0.008180038 -0.051563643 -0.026123097 -0.008007819
000190 a6 47 94 3b ff 99 fe 3c 66 62 2b bd 5d 22 84 bd
       0.0045251427 0.03107929 -0.041841887 -0.06451867
0001a0 49 47 9e bd 58 89 a2 bd 5a 35 83 3d c6 85 07 3d
       -0.0772844 -0.079363525 0.064066604 0.03308656
0001b0 cd c3 2e 3d db 71 d7 bc 3e b7 2c 3d 3c 85 98 3b
       0.0426672 -0.026299408 0.04216694 0.0046545547
0001c0 da 01 69 3b 32 9f 44 bb 2a f2 19 bd df ae 23 3d
       0.0035554082 -0.0030002114 -0.03758446 0.039961692
0001d0 72 e3 9c bd ec 80 be bc cb 7f f6 bc 0a 94 4b 3d
       -0.07660569 -0.023254834 -0.030090233 0.049701728
0001e0 9a f0 7d bd 3d 4c 8a 3c c3 93 a1 bc 81 af e8 bc
       -0.061997034 0.016882056 -0.019723779 -0.028404
0001f0 f9 5d 46 bd 4e c5 ac 3c 96 45 bc bc 00 b8 0e 3d
       -0.048429463 0.021090176 -0.0229824 0.034843445
000200 c2 b8 17 bd 1b 26 89 bd 28 f5 1b 3d 01 28 4f 3d
       -0.037041433 -0.06696721 0.038075596 0.05057526
000210 a3 fd a4 bd 74 0e c6 3c 47 f3 0a 3d a6 6e 40 3c
       -0.0805619 0.024176814 0.033923414 0.011745131
000220 ea b7 94 bc f2 d3 80 bd 6e 4d c0 3c 89 3e c5 bc
       -0.018154103 -0.06290425 0.023474421 -0.02407767
000230 35 79 84 bd c6 e6 48 3d f7 7f d7 bc 4d ee 98 bd
       -0.06468431 0.049048208 -0.026306136 -0.07467327
000240 ee af 58 bd 7e 52 49 3d 19 18 8c 3c f0 12 92 bc
       -0.052902155 0.049150936 0.017101334 -0.017831296
000250 f2 75 3e bc 96 b6 3f bc 80 cc b1 3c ab 9a 0e bd
       -0.0116248 -0.011701247 0.021703959 -0.03481547
000260 55 58 30 3d f0 12 9b bd 94 1b 3b 3d 00 c0 8a b9
       0.04305299 -0.075719714 0.045680597 -0.00026464462
000270 2b cb 55 bc c9 f0 45 3c 16 02 26 bd cc fc 4e bd
       -0.013048927 0.012081333 -0.040529333 -0.050534055
000280 64 05 00 3d 31 b0 a4 bc 2f 74 e5 bc 1d 98 43 bd
       0.03125514 -0.020103546 -0.028009502 -0.04775249
000290 13 df 35 3d 64 1b 3f bd 50 3b 28 3c 60 8a 45 bd
       0.044402193 -0.04665698 0.010268047 -0.048227668
0002a0 79 e8 84 bc bf 95 4f 3b 2d a3 94 3c 4d d9 c7 3c
       -0.016224133 0.003167495 0.018144215 0.02439561
0002b0 92 2e 3f 3d a8 ac 3f ba 69 e2 5f bc 1f 60 74 3d
       0.046675272 -0.00073117996 -0.01366482 0.05966198
0002c0 6d 99 3f 3d 21 33 cc 3b df 89 3a 3c ac 69 a5 bc
       0.046777178 0.006231681 0.01138541 -0.02019199
0002d0 84 9d cb 3c 82 0c 3d bd 9d a5 05 3d 65 01 27 3d
       0.024855383 -0.046154507 0.032628644 0.040772814
0002e0 6b a8 9b 3c 36 0e 65 3d 97 0e 4b bc 4b 15 92 3d
       0.019001206 0.055921756 -0.012393615 0.071329676
0002f0 cd d5 36 3d 9b d9 10 3d a5 07 af 3b d2 20 e6 bb
       0.04463749 0.035363775 0.0053414875 -0.0070229555
000300 3a af 3b bd 8c 49 87 bd a5 47 44 bd ba 39 6c 3b
       -0.045821406 -0.06605825 -0.047919888 0.003604515
000310 6c f2 5b 3d 9d a1 36 3d 36 c0 6a bd fa 51 31 3d
       0.05369799 0.04458772 -0.057312213 0.04329107
000320 ed 8a 31 bc 69 2d 45 3c 37 6a 19 bd ad f8 0b 3d
       -0.010836345 0.012034752 -0.03745481 0.034172703
000330 bf 66 84 bd 57 a0 30 bd 69 bd 8a bd 1f 47 2c 3d
       -0.0646491 -0.043121662 -0.06774408 0.042060014
000340 6b 5d 34 bd 17 82 35 3d fb 63 ee bc 4e f1 f7 3c
       -0.044034403 0.044313516 -0.029100409 0.03026643
000350 af 14 b6 3d 37 7f 57 3d 5e ec e5 bc 26 1f dd 3b
       0.08890664 0.052611556 -0.02806681 0.006748098
000360 61 eb 0b 3d 79 d3 cb 3d ad 8a a6 3d 3f 83 e8 3d
       0.03416002 0.099524446 0.08131919 0.11353158
000370 54 5f 6a 3d f6 bd 02 3d 70 c2 ab 3d 1f 16 b6 bb
       0.05721982 0.031919442 0.083866954 -0.0055568363
000380 63 a4 8c 3d 42 48 47 3d 7e 33 7f 3d a1 4f 83 3d
       0.06867292 0.048652895 0.062304966 0.064116724
000390 33 5f 69 3d b1 39 c6 3d 77 3e 70 bc 3a 1c 99 3d
       0.056975555 0.096789725 -0.01466333 0.07476087
0003a0 97 8c 40 3d 42 1f bd 3d d3 50 86 3d 4d 44 0b 3d
       0.047009077 0.092344776 0.06558385 0.034000684
0003b0 4a c4 36 bc ff 61 1b 3e f7 40 3c bd 73 10 8e 3b
       -0.011155197 0.15174101 -0.045960393 0.004335457
0003c0 da 33 8f 3d c4 9f dd 3c cf 89 0b bc e3 ce ef 3b
       0.06992312 0.027053721 -0.008516743 0.007318364
0003d0 ca 74 09 bb 9e e7 56 bb ba e3 6c 3d 40 45 d6 3c
       -0.0020974153 -0.0032791863 0.057834364 0.026156068
0003e0 ef d9 66 3d 92 5b 85 3d 80 34 86 3c f7 f8 2d 3d
       0.05636018 0.06511606 0.016382456 0.04247376
0003f0 5d 4c 28 3c f8 c7 9c 3d 42 43 23 bd 5e 72 95 3d
       0.010272113 0.076553285 -0.039859064 0.072972044
