model2.pth (torch, 33906 bytes, 24 tensors)

job_fc1.weight f4 [32, 42]
0.07644663 0.011973964 -0.70924646 -0.075171836 0.047360886 -0.063245386 0.1254955 0.085558206
0.09491052 0.10314215 -0.110303134 0.050273675 -0.10286519 -0.01207147 -0.041936323 0.12561329
0.110170715 -0.016312605 0.10582602 -0.021244803 -0.06271443 0.07462109 0.06579696 -0.090326674
0.022051957 0.13432232 -0.05269825 -0.013571675 -0.052541252 -0.057391025 -0.06492638 -0.1495839
0.04643479 0.053771026 0.122641176 0.024274383 0.12076937 -0.1311404 -0.11878145 0.06852412
-0.0465859 -0.011420675 0.039834894 -0.20194381 0.37715003 -0.0686072 0.09970159 -0.09721642
-0.08506561 -0.0060879095 0.094216794 -0.08592677 -0.04712813 -0.055626947 -0.12291137 -0.043963626
-0.13955991 -0.11859549 0.16565137 0.0754492 -0.015212666 0.027436761 0.0013994902 0.102211446
0.003137905 0.027092692 -0.11239609 0.171458 -0.08920458 -0.12405363 0.029390581 -0.0955056
-0.024064373 -0.11046236 0.12165088 -0.012066023 0.06240219 0.0743217 0.02266949 -0.13170923
0.116785675 0.12544851 -0.025900887 -0.11802439 -0.024666827 0.010841912 0.07064928 0.0006075484
0.12704132 -0.02610709 -0.052267827 0.009227612 0.03959887 0.09892203 0.10460552 0.090016805
0.0415078 0.033107035 0.12022703 0.21672772 0.17939241 0.09017529 -0.055428512 0.18849419
0.034665186 -0.08686366 -0.029125081 -0.0026639435 0.10984746 -0.056432128 -0.10988479 0.04022727
0.12521535 0.20761158 0.038026895 0.0783468 0.013238445 0.083060235 0.031095667 -0.11513106
0.13918976 -0.033099223 -0.0033213284 0.040574446 0.005708332 -0.035535634 0.18410644 0.29619086
-0.61707854 0.15358542 0.07135046 -0.003183039 -0.014199213 0.21905448 0.12479316 0.040046178
0.18095063 0.014332954 0.17305611 -0.03714824 0.19042768 -0.007036285 0.056577902 0.13872637
0.050394412 0.15767412 -0.030316755 0.0071139177 0.017785938 0.12918979 0.20149687 -0.044564005
0.1723091 -0.026195334 -0.14189267 0.017034134 -0.11417518 0.10771417 -0.018361522 0.14670989
-0.061856907 0.030575713 -0.14151274 0.12212122 0.11007694 -0.14425467 0.029805833 -0.11941094
0.21095349 0.15856649 0.054939535 -0.119079344 0.13623081 0.05778663 0.120958276 0.09602815
0.028350635 -0.032946166 0.12745744 0.13638335 -0.028866537 0.12136605 0.1882378 -0.0060384534
0.046243835 0.10985003 0.079789326 0.11195864 0.12021225 0.005869134 -0.057095088 0.16854003
-0.12177854 -0.04497581 -0.035316195 0.12322571 -0.040977772 -0.036295928 -0.03682659 -0.038468067
-0.13477495 0.05834214 -0.11987361 0.011172553 0.098021775 -0.07944101 -0.13307807 0.020044371
0.046792153 -0.13983203 0.075931706 0.028558975 0.20550923 -0.08608136 -0.04343988 -0.09705442
0.091815844 0.0071970904 0.084937505 0.114127174 -0.10885306 0.12230547 0.090263724 0.0108116
-0.057728063 -0.04579948 0.07954629 -0.049598023 -0.038882036 0.09467101 -0.012818497 0.11909622
-0.074489705 0.05926567 -0.08679674 -0.06418318 0.025923805 0.03493326 0.06188008 -0.014301781
-0.05420046 -0.11937844 0.14547893 -0.05641036 -0.08489461 0.11740088 0.06650212 -0.012177273
-0.0143303 0.1373517 0.040455855 0.15181914 0.01870413 0.08593881 0.38173395 0.10345257
00000000: 0d90 9c3d 722e 443c 2d91 35bf b1f3 99bd
00000010: 7dfd 413d cc86 81bd e481 003e 2439 af3d
00000020: 7260 c23d 313c d33d 9ce6 e1bd c5eb 4d3d
00000030: fcaa d2bd 6ac7 45bc 6cc5 2bbd c5a0 003e
00000040: 2fa1 e13d 03a2 85bc 50bb d83d 9509 aebc
00000050: 6c70 80bd f1d2 983d 8ec0 863d 31fd b8bd
00000060: 4ea6 b43c ca8b 093e 1fda 57bd bb5b 5ebc
00000070: 7f35 57bd da12 6bbd 1ff8 84bd 862c 19be
00000080: 6832 3e3d 023f 5c3d 4c2b fb3d 12db c63c
00000090: ee55 f73d ab49 06be b043 f3bd 6056 8c3d
000000a0: dbd0 3ebd c81d 3bbc ea29 233d 5cca 4ebe
000000b0: cf19 c13e ef81 8cbd 5930 cc3d 6719 c7bd
000000c0: e136 aebd 167d c7bb bcf4 c03d 60fa afbd
000000d0: 6d09 41bd 15d9 63bd f5b8 fbbd 3413 34bd
000000e0: cbe8 0ebe 31e2 f2bd 83a0 293e 1c85 9a3d
000000f0: 8c3e 79bc 0fc3 e03c 196f b73a 3c54 d13d
00000100: 4fa5 4d3b 7ef1 dd3c ec2f e6bd b092 2f3e
00000110: e4b0 b6bd d40f febd 84c4 f03c 7198 c3bd
00000120: a622 c5bc 173a e2bd 1924 f93d 92b0 45bc
00000130: 7099 7f3d fa35 983d 5eb5 b93c c9de 06be
00000140: 542d ef3d 9375 003e 192e d4bc c5b6 f1bd
00000150: 1612 cabc 46a2 313c 92b0 903d e243 1f3a
00000160: 1f17 023e 89de d5bc ca16 56bd 692f 173c
00000170: 6d32 223d a297 ca3d 6b3b d63d bb5a b83d
00000180: 1504 2a3d 3e9b 073d 9739 f63d dfed 5d3e
00000190: a5b2 373e d3ad b83d 0209 63bd 9f04 413e
000001a0: 15fd 0d3d 93e5 b1bd b997 eebc 8e95 2ebb
000001b0: b5f7 e03d 6025 67bd 470b e1bd 5ac5 243d
000001c0: 7438 003e 2198 543e 17c2 1b3d 4974 a03d
000001d0: 10e6 583c 7c1b aa3d 57bc fe3c d5c9 ebbd
000001e0: c387 0e3e 0d93 07bd a5aa 59bb 6431 263d
000001f0: f60c bb3b d08d 11bd 6686 3c3e 54a6 973e
00000200: dcf8 1dbf 7f45 1d3e 3120 923d 889a 50bb
00000210: d1a3 68bc d14f 603e 8e93 ff3d 7607 243d
00000220: 1f4b 393e c4d4 6a3c 9f35 313e c128 18bd
00000230: 79ff 423e a390 e6bb 3bbe 673d 490e 0e3e
00000240: 5f6a 4e3d 5375 213e d85a f8bc de1b e93b
00000250: d1b3 913c 544a 043e 3255 4e3e bf88 36bd
00000260: cc71 303e 9997 d6bc 504c 11be 2b8b 8b3c
00000270: add4 e9bd 3f99 dc3d e76a 96bc 1e3b 163e
00000280: ab5d 7dbd eb79 fa3c b7e8 10be b11a fa3d
00000290: 0570 e13d 7fb7 13be 5d2b f43c b98d f4bd
000002a0: 3104 583e 415f 223e 4708 613d dfdf f3bd
000002b0: 1780 0b3e acb1 6c3d f9b8 f73d 68aa c43d
000002c0: 973f e83c 8ff2 06bd 3484 023e 14a8 0b3e
000002d0: 8479 ecbc c38e f83d 69c1 403e 38de c5bb
000002e0: 2d6a 3d3d 0df9 e03d 9668 a33d 924a e53d
000002f0: d731 f63d dd51 c03b 8adc 69bd c295 2c3e
00000300: 0767 f9bd 8e38 38bd b7a7 10bd c35d fc3d
00000310: 4fd8 27bd 0aab 14bd 7ad7 16bd b190 1dbd
00000320: 7202 0abe 2bf8 6e3d 4c80 f5bd 150d 373c
00000330: a4bf c83d f8b1 a2bd 9e45 08be 1834 a43c
00000340: 21a9 3f3d 2130 0fbe 1582 9b3d 83f4 e93c
00000350: 0371 523e 6d4b b0bd 04ee 31bd 78c4 c6bd
00000360: f209 bc3d 92d5 eb3b b7f3 ad3d 82bb e93d
00000370: 5aee debd 4a7b fa3d 30dc b83d 2323 313c
00000380: 4374 6cbd 3c98 3bbd 2ae9 a23d 4c27 4bbd
00000390: c542 1fbd e0e2 c13d ac04 52bc b8e8 f33d
000003a0: 0f8e 98bd 8fc0 723d 7dc2 b1bd 7972 83bd
000003b0: 295e d43c 2e16 0f3d f775 7d3d 0452 6abc
000003c0: 4d01 5ebd af7c f4bd 6ef8 143e 8d0e 67bd
000003d0: 3add adbd df6f f03d 4332 883d 2f83 47bc
000003e0: a2c9 6abc eda5 0c3e 0ab5 253d 7a76 1b3e
000003f0: 6739 993c b000 b03d a272 c33e f1de d33d

job_fc1.bias f4 [32]
0.12960279 0.07166602 0.21873719 0.11899805 0.23919874 0.20902199 -0.051087562 0.042992335
-0.09705709 0.1374938 -0.03159667 0.019899718 -0.022686949 -0.19374175 -0.059955105 -0.04986245
0.34439376 -0.029377567 0.00032570056 -0.013146264 0.29337698 0.33749187 0.16290687 0.28790143
-0.04470431 0.00018342008 0.000654821 0.19420758 0.09659506 -0.08189362 -0.09127167 -0.20539826
00000000: 98b6 043e a2c5 923d a4fc 5f3e 40b5 f33d
00000010: 84f0 743e dc09 563e 3141 51bd bb18 303d
00000020: dec5 c6bd 2dcb 0c3e 836b 01bd bc04 a33c
00000030: fbd9 b9bc 3d64 46be 7c93 75bd 923c 4cbd
00000040: 6154 b03e 39a9 f0bc cac2 aa39 6d63 57bc
00000050: 8235 963e bccb ac3e 0fd1 263e d167 933e
00000060: de1b 37bd 7454 4039 4ba8 2b3a 5ade 463e
00000070: a1d3 c53d d8b7 a7bd a4ec babd ec53 52be

job_fc2.weight f4 [16, 32]
0.20575272 -0.11497873 0.08315251 0.18067968 0.06763248 -0.10533244 -0.10599468 -0.3103761
0.0313483 0.14646384 -0.09309073 -0.11994304 -0.013572225 0.14134693 0.14820023 -0.06821535
0.20466065 -0.10929114 0.123364665 -0.028919436 -0.15802306 0.07861586 -0.042583447 -0.043229166
0.020376204 0.14668083 0.1199962 0.08840758 0.11464183 -0.14364299 -0.07710019 -0.0051483433
0.10023629 0.13548191 0.007956083 -0.11250042 0.08554489 0.16567738 -0.1169166 -0.01775607
-0.15875062 0.14918762 -0.11896225 0.18604992 0.114766814 0.08281173 -0.1957225 -0.0015623033
0.020150948 0.08095777 -0.080052 -0.16361947 0.06508662 0.035467416 0.09630989 0.06804592
-0.025654405 -0.058955636 -0.0024224971 0.0531452 -0.030476233 -0.115379 0.101807706 -0.032862283
0.08897413 0.053333737 0.20054594 0.19967319 -0.015596878 0.08840344 0.022688622 -0.08777435
-0.1459702 0.23591457 0.15439752 -0.05081445 0.017854149 -0.07951214 0.105395645 0.1923555
0.23108095 0.09839592 -0.03545705 -0.0145146875 0.09309831 0.17693996 0.18286651 0.14154981
0.11286562 0.0116639165 -0.09567171 0.12312809 0.064622305 0.14287487 -0.011974333 -0.05689325
0.00048722577 0.050315812 -0.029413367 0.014137569 0.1563741 0.1400121 0.10139492 0.15811713
-0.07162939 0.13023818 -0.11397238 0.053060964 -0.0044652466 0.030371923 -0.052028004 0.063830085
-0.015701564 -0.11322547 -0.0917961 -0.14772843 0.04660981 0.17577922 -0.011412961 0.14205143
-0.04027216 -0.14199135 0.010870885 0.0019085151 0.08491377 -0.009984439 -0.01363744 -0.04395753
0.14917703 0.055397283 -0.14122793 -0.04984099 0.11878635 0.14979804 -0.14798644 0.12904625
-0.1048196 0.045590367 0.10794458 -0.19421156 -0.1389687 0.052462883 0.07273364 0.15428433
0.025941392 -0.17557418 -0.08505784 -0.00842599 -0.032962903 0.07875972 0.054810945 0.01476293
-0.13352345 0.04095832 -0.17336161 0.10227717 -0.098436974 0.0016185273 -0.07632518 -0.08492211
-0.1241831 0.16210659 -0.14852881 -0.05631262 -0.14362796 0.10217311 0.14761595 -0.032029826
0.04035978 0.22968413 0.019978106 -0.18388613 -0.040047836 -0.007863023 0.16440389 0.1278513
0.16814382 -0.05987409 -0.010202945 -0.18599196 -0.012339491 0.2541848 0.203093 0.100013584
0.09677707 0.115993395 -0.032290656 -0.18000835 -0.03178772 0.023351911 0.035203304 0.1654849
-0.16349398 -0.05848234 -0.06859869 0.1382265 0.0380644 -0.16664009 0.00013669505 0.078295715
0.06342354 -0.01641656 0.010119463 -0.0081706485 -0.045444414 0.104381844 -0.15380473 -0.17352268
-0.020958299 -0.119520575 0.032498546 -0.15861763 0.028624509 0.1133453 0.02930592 -0.103454016
-0.11527182 -0.14782308 -0.15293711 0.17299713 0.18209675 0.14690517 -0.14123723 -0.06216799
-0.11213272 0.0104515245 0.13868754 -0.067208625 -0.15372388 0.021087972 -0.043156873 -0.0033982908
0.11257774 -0.06835579 0.15957955 0.017822582 -0.06044464 0.057804227 -0.27462703 -0.12921442
-0.10695873 0.16241801 0.033113122 -0.040684283 0.13185488 -0.009856979 -0.12071886 0.1497769
0.14602709 -0.22032186 0.14373855 0.16586801 -0.0004222673 0.034337092 -0.113295004 0.024740102
00000000: d7b0 523e f879 ebbd dd4b aa3d 1804 393e
00000010: e682 8a3d 89b8 d7bd bd13 d9bd 9ee9 9ebe
00000020: 1367 003d 9efa 153e 5aa6 bebd b2a4 f5bd
00000030: 0a5e 5ebc 40bd 103e cdc1 173e 7db4 8bbd
00000040: 9092 513e 09d4 dfbd 9da6 fc3d 74e8 ecbc
00000050: ccd0 21be 5a01 a13d fb6b 2ebd 1111 31bd
00000060: ffeb a63c 8033 163e 91c0 f53d 090f b53d
00000070: 56c9 ea3d 2617 13be b4e6 9dbd 6fb3 a8bb
00000080: af48 cd3d c5bb 0a3e 3b5a 023c 9f66 e6bd
00000090: 2932 af3d 55a7 293e f871 efbd 2d75 91bc
000000a0: 868f 22be a4c4 183e 7ba2 f3bd df83 3e3e
000000b0: dd0a eb3d 3299 a93d 7b6b 48be 33c6 ccba
000000c0: 9a13 a53c 30cd a53d 4ef2 a3bd dd8b 27be
000000d0: 224c 853d 4846 113d 1f3e c53d a95b 8b3d
000000e0: 3029 d2bc 777b 71bd c2c2 1ebb c8ae 593d
000000f0: 4ba9 f9bc d34b ecbd 8f80 d03d 9a9a 06bd
00000100: 1238 b63d 7a74 5a3d ea5b 4d3e 2177 4c3e
00000110: 0c8a 7fbc dd0c b53d 7ddd b93c 0ac3 b3bd
00000120: 3679 15be 9793 713e 621a 1e3e d022 50bd
00000130: dd42 923c 43d7 a2bd acd9 d73d d7f8 443e
00000140: 7ca0 6c3e cd83 c93d 693b 11bd 03cf 6dbc
00000150: 54aa be3d c02f 353e 5c41 3b3e 6ff2 103e
00000160: 1726 e73d 031a 3f3c 88ef c3bd 942a fc3d
00000170: b358 843d ca4d 123e fe2f 44bc e608 69bd
00000180: 5672 ff39 f417 4e3d 4df4 f0bc 43a1 673c
00000190: 8820 203e 555f 0f3e 24a8 cf3d 75e9 213e
000001a0: 6eb2 92bd 285d 053e 5a6a e9bd 7456 593d
000001b0: 3451 92bb 8ace f83c 511b 55bd 59b9 823d
000001c0: 91a0 80bc c1e2 e7bd 98ff bbbd 1f46 17be
000001d0: eee9 3e3d 78ff 333e 6efd 3abc ee75 113e
000001e0: 6cf4 24bd 2e66 11be cc1b 323c 2427 fa3a
000001f0: 45e7 ad3d c695 23bc 926f 5fbc d00c 34bd
00000200: ddc1 183e 43e8 623d 0e9e 10be 1126 4cbd
00000210: 4246 f33d a864 193e c289 17be b324 043e
00000220: a9ab d6bd f7bc 3a3d 0c12 dd3d 65df 46be
00000230: d04d 0ebe 52e3 563d 60f5 943d b6fc 1d3e
00000240: 0b83 d43c b8c9 33be ce32 aebd 2a0d 0abc
00000250: 1c04 07bd c74c a13d 7181 603d 37e0 713c
00000260: 5fba 08be e9c3 273d b585 31be b176 d13d
00000270: 5399 c9bd c424 d43a 6050 9cbd a5eb adbd
00000280: b653 febd 45ff 253e f017 18be 10a8 66bd
00000290: 3513 13be 2340 d13d a328 173e b531 03bd
000002a0: 4c50 253d 5132 6b3e 20a9 a33c a54c 3cbe
000002b0: 3309 24bd e9d3 00bc 7e59 283e 74eb 023e
000002c0: e52d 2c3e 893e 75bd 412a 27bc ad74 3ebe
000002d0: 942b 4abc 8324 823e 9df7 4f3e ecd3 cc3d
000002e0: 0e33 c63d f28d ed3d 3543 04bd 1c54 38be
000002f0: d733 02bd 824c bf3c 5731 103d e074 293e
00000300: f76a 27be 2e8b 6fbd 787d 8cbd 3f8b 0d3e
00000310: 6be9 1b3d b3a3 2abe cc55 0f39 8159 a03d
00000320: 33e4 813d 067c 86bc 1bcc 253c 2fde 05bc
00000330: ec23 3abd 26c6 d53d fd7e 1dbe eeaf 31be
00000340: bdb0 abbc 34c7 f4bd 321d 053d a96c 22be
00000350: f27d ea3c 9521 e83d f812 f03c b3df d3bd
00000360: a213 ecbd ef5e 17be 8c9b 1cbe 2926 313e
00000370: 9277 3a3e 4f6e 163e 7ea0 10be dda3 7ebd
00000380: d7a5 e5bd df3c 2b3c 1b04 0e3e ada4 89bd
00000390: cb69 1dbe afc0 ac3c 43c5 30bd dcb5 5ebb
000003a0: 288f e63d 1ffe 8bbd d268 233e aa00 923c
000003b0: cd94 77bd 20c4 6c3d ea9b 8cbe c950 04be
000003c0: 2e0d dbbd e850 263e a0a1 073d 90a4 26bd
000003d0: f704 073e 2b7f 21bc 733b f7bd 1e5f 193e
000003e0: 2088 153e 0e9c 61be 3330 133e 4ed9 293e
000003f0: c263 ddb9 0da5 0c3d 3607 e8bd c1ab ca3c

job_fc2.bias f4 [16]
0.003745071 -0.05248424 0.25476563 0.08223648 -0.12538546 -0.18507884 0.0225053 -0.05779298
-0.063437 -0.011507057 -0.12604907 -0.040568847 -0.07175901 0.01381941 -0.0093147475 -0.043571383
00000000: dd6f 753b b7f9 56bd a470 823e 9a6b a83d
00000010: 0c65 00be 4f85 3dbe 095d b83c 55b8 6cbd
00000020: 42eb 81bd 1888 3cbc 0213 01be 852b 26bd
00000030: 63f6 92bd cf6a 623c e29c 18bc e877 32bd

machine_fc.weight f4 [16, 5]
0.3107266 0.36706746 -0.17756926 -0.19646382 0.4550747 0.42820066 -0.31505036 -0.59192175
-0.42990842 0.31513637 0.19445771 -0.10673984 -0.07105044 0.51920694 -0.39511183 -0.3067834
-0.41569588 0.14793359 -0.01975797 0.36224255 -0.010872719 -0.4598917 -0.2970325 -0.4705948
0.11538938 0.14025761 -0.10817614 -0.3389061 0.15687214 -0.18327671 0.30635658 -0.08432593
-0.38844213 0.4311762 -0.15417928 -0.04808557 0.3998295 -0.27035972 0.099812984 -0.011207189
-0.35624772 -0.090612076 0.25558597 0.41546738 0.17329216 0.38463354 0.18342525 0.28378958
0.50781393 -0.2789218 0.06409831 -0.2591316 0.16420907 0.21436654 -0.27628928 0.25192955
0.07482662 0.054035652 -0.29113796 0.20594542 -0.4035048 0.45490676 0.14125678 -0.1555144
-0.392407 -0.3821977 0.3478895 -0.16739877 -0.0968598 0.12659779 0.11623368 0.5683017
0.11559382 0.4448765 0.34661764 -0.26037747 0.47481617 0.42644167 -0.066537246 -0.17071442
00000000: 8f17 9f3e 44f0 bb3e b7d4 35be d02d 49be
00000010: 8dff e83e 1e3d db3e 484e a1be 2f88 17bf
00000020: f51c dcbe 8e59 a13e ec1f 473e 6b9a dabd
00000030: e582 91bd bfea 043f 194c cabe b712 9dbe
00000040: 17d6 d4be e77b 173e 77db a1bc db77 b93e
00000050: 7d23 32bc ed76 ebbe a514 98be cdf1 f0be
00000060: 4451 ec3d b19f 0f3e 748b ddbd 1a85 adbe
00000070: 17a3 203e e4ac 3bbe c5da 9c3e 13b3 acbd
00000080: e3e1 c6be 20c3 dc3e 2ce1 1dbe 60f5 44bd
00000090: 74b6 cc3e 976c 8abe c06a cc3d 5c9e 37bc
000000a0: 1a66 b6be d392 b9bd 2adc 823e 24b8 d43e
000000b0: 8073 313e b0ee c43e d4d3 3b3e de4c 913e
000000c0: 1800 023f d7ce 8ebe fa45 833d e6ac 84be
000000d0: 6c26 283e e782 5b3e ca75 8dbe e9fc 803e
000000e0: b33e 993d 7d54 5d3d 0910 95be 5be3 523e
000000f0: 2e98 cebe 8ae9 e83e 9ea5 103e 2b3f 1fbe
00000100: 92e9 c8be 6baf c3be 931e b23e 956a 2bbe
00000110: 6e5e c6bd daa2 013e ec0b ee3d 387c 113f
00000120: 74bc ec3d dac6 e33e de77 b13e 3250 85be
00000130: 1b1b f33e 9056 da3e ae44 88bd c3cf 2ebe

machine_fc.bias f4 [16]
-0.23248975 -0.54871184 0.18825857 -0.13655104 -0.57916045 0.15466154 -0.27340457 0.28021795
0.50101584 0.3922894 -0.21343423 0.4382619 -0.44966123 0.18579865 -0.07628686 0.06653385
00000000: cb11 6ebe 6178 0cbf dbc6 403e 09d4 0bbe
00000010: dc43 14bf 985f 1e3e affb 8bbe ba78 8f3e
00000020: 9342 003f 28da c83e 818e 5abe dd63 e03e
00000030: ff39 e6be 0042 3e3e 493c 9cbd e642 883d

on_job_attn.in_proj_weight f4 [48, 16]
-0.17483069 0.10404907 0.14276715 0.14358935 0.17649628 -0.15181544 0.17759481 -0.06852286
0.2873268 0.18470573 -0.19387253 0.11136967 0.026299605 0.16191478 -0.18714222 0.26462758
0.03235575 -0.10943609 -0.12265855 0.06363529 -0.072451 -0.22797082 0.018909818 0.056840554
0.30586112 0.16476905 -0.09889935 -0.2756391 0.097785175 0.10356114 -0.0045288918 -0.110227525
-0.05547251 0.21957868 0.23591602 0.15321952 0.06831627 -0.16190992 -0.035736095 0.18596831
-0.103297524 0.124638125 0.2657036 -0.06366543 0.22541577 -0.15661152 0.13406228 0.06079996
0.14177962 -0.15268645 0.19271539 0.09371345 -0.09750513 -0.34652257 -0.04113909 -0.05973895
0.10564125 -0.043184686 -0.26535913 0.075316936 0.11786753 -0.06843427 0.22679153 -0.29593644
0.17129685 -0.09229173 -0.21871649 0.042242367 0.29285538 0.16796564 -0.01565035 -0.041206345
-0.28856722 0.16212375 0.11545521 -0.16670102 -0.13953985 0.14157611 0.21481201 0.2382751
0.037290893 0.3398606 -0.13393992 -0.28573906 -0.31122 -0.2742004 0.19925287 -0.007954513
0.1699172 0.33078447 -0.04357752 -0.042380076 -0.15226372 0.2580562 0.10485368 0.29064554
0.1048843 -0.27389598 0.12331474 0.18726851 0.24006632 0.19550703 -0.15667595 0.06819986
0.0945279 -0.102054246 0.1116296 -0.03267163 -0.18407182 -0.30672228 -0.3178764 -0.15428807
0.2971989 0.31529462 0.1370669 0.034962025 -0.1984269 -0.010328883 -0.10431899 0.17456158
0.2762316 0.04011896 0.32271475 -0.17743759 -0.2515698 0.20423207 0.08411781 0.0040786597
0.069520146 0.103822276 0.053463817 0.37042958 0.13211764 0.07722571 0.43196025 -0.08329645
0.009694974 0.33924308 0.20633286 0.15608901 0.12758875 -0.2161381 -0.034308758 -0.22461715
0.031711 -0.20302059 -0.29468635 0.070307985 0.09350877 0.04104438 -0.14759389 0.15224527
-0.1791879 -0.16125244 0.19884518 -0.028909702 0.2200005 0.30040213 0.19149803 0.28949356
0.0912349 -0.08048944 -0.31244215 -0.36227858 0.07892748 0.39712873 -0.38321814 0.40124324
0.0516635 -0.33485413 0.29280856 -0.06732695 -0.18566498 -0.032472525 0.028340029 0.14941508
0.3611 0.23845424 0.16628246 0.45224524 -0.2774565 0.08774634 0.30408585 -0.2045226
-0.18232352 0.24174863 0.053872123 -0.037814822 -0.0052384934 0.05247856 0.15835749 -0.22271605
0.22139905 -0.10451351 0.41534904 0.042175137 -0.393154 -0.10024916 0.41636425 -0.4150322
-0.011151634 0.12463037 -0.023237986 -0.09390325 -0.10362133 -0.44097853 0.07211162 -0.14881572
0.41424316 -0.25271565 0.3950929 0.031011533 -0.28028372 -0.23906168 0.45352802 -0.5611985
0.20569636 0.3951848 -0.0073276926 -0.036314588 -0.026981758 -0.40130076 -0.13182373 -0.48369968
0.06955878 -0.20139833 0.08023516 0.4268927 -0.38328958 -0.47484386 0.11892082 -0.48643917
0.027072582 0.36748895 0.19471796 -0.44320726 -0.41964984 -0.13895884 0.07504269 -0.4353227
-0.06658132 -0.20728719 -0.30642352 0.114654526 -0.14162268 0.22634155 0.21681981 0.17663555
0.023927525 0.21067928 -0.08600316 0.17540291 0.28033778 0.26892027 0.17226012 -0.21707648
00000000: d106 33be ae17 d53d 8d31 123e 1609 133e
00000010: 71bb 343e 8275 1bbe 6adb 353e b755 8cbd
00000020: 801c 933e 8023 3d3e 8586 46be c815 e43d
00000030: 4572 d73c fdcc 253e 36a2 3fbe 447d 873e
00000040: 7787 043d 0720 e0bd 6834 fbbd 3853 823d
00000050: 3161 94bd 2f71 69be c3e8 9a3c a4d1 683d
00000060: d499 9c3e 38b9 283e be8b cabd 9120 8dbe
00000070: 9843 c83d dd17 d43d 1967 94bb f8be e1bd
00000080: 2537 63bd 3cd9 603e f893 713e 94e5 1c3e
00000090: 67e9 8b3d b7cb 25be 0360 12bd 7a6e 3e3e
000000a0: a78d d3bd 4642 ff3d 4d0a 883e 0563 82bd
000000b0: 64d3 663e c55e 20be 9f47 093e 6109 793d
000000c0: ad2e 113e d659 1cbe 2f57 453e d6ec bf3d
000000d0: c5b0 c7bd 686b b1be 7681 28bd d4b0 74bd
000000e0: 715a d83d 6de2 30bd 27dd 87be c43f 9a3d
000000f0: 8864 f13d 4427 8cbd 0a3c 683e fb84 97be
00000100: 7168 2f3e 7203 bdbd 37f7 5fbe 5506 2d3d
00000110: 24f1 953e 2fff 2b3e 2a35 80bc fcc7 28bd
00000120: 15bf 93be c503 263e c873 ec3d acb3 2abe
00000130: 89e3 0ebe 54f9 103e aef7 5b3e 63fe 733e
00000140: 56be 183d 3502 ae3e 8c27 09be 644c 92be
00000150: 3a58 9fbe ff63 8cbe f208 4c3e a553 02bc
00000160: c6fe 2d3e 955c a93e 577e 32bd bb96 2dbd
00000170: 05eb 1bbe f11f 843e 87bd d63d 7ecf 943e
00000180: 94cd d63d 183c 8cbe 708c fc3d 51c3 3f3e
00000190: f2d3 753e ff32 483e a96f 20be 5eac 8b3d
000001a0: d897 c13d d101 d1bd 0f9e e43d b0d2 05bd
000001b0: 537d 3cbe b40a 9dbe b2c0 a2be b1fd 1dbe
000001c0: 742a 983e 4c6e a13e 445b 0c3e 5734 0f3d
000001d0: 6c30 4bbe 7a3a 29bc 32a5 d5bd 45c0 323e
000001e0: 3a6e 8d3e c753 243d de3a a53e 33b2 35be
000001f0: c2cd 80be 3622 513e f545 ac3d 47a6 853b
00000200: 9460 8e3d c6a0 d43d e0fc 5a3d f2a8 bd3e
00000210: d949 073e 8328 9e3d e529 dd3e 5497 aabd
00000220: abd7 1e3c 45b1 ad3e ec48 533e ccd5 1f3e
00000230: a0a6 023e 4e53 5dbe 5787 0cbd 0a02 66be
00000240: 65e3 013d a1e4 4fbe 21e1 96be a2fd 8f3d
00000250: 8781 bf3d 271e 283d da22 17be 2fe6 1b3e
00000260: 087d 37be 5c1f 25be 129e 4b3e 0ad4 ecbc
00000270: d047 613e 4fce 993e 0f18 443e 8038 943e
00000280: 5dd9 ba3d a6d7 a4bd 6bf8 9fbe 947c b9be
00000290: bba4 a13d 7554 cb3e 2b35 c4be c16f cd3e
000002a0: 1b9d 533d 0072 abbe 01eb 953e b6e2 89bd
000002b0: f61e 3ebe e901 05bd 5929 e83c 4400 193e
000002c0: 19e2 b83e 592d 743e f345 2a3e b08c e73e
000002d0: c70e 8ebe 5ab4 b33d 24b1 9b3e 5f6e 51be
000002e0: 04b3 3abe f48c 773e 04a9 5c3d b7e3 1abd
000002f0: aba7 abbb c2f3 563d 7728 223e ad0f 64be
00000300: 6fb6 623e 2e0b d6bd a1a8 d43e d6bf 2c3d
00000310: 7b4b c9be 6e4f cdbd b22d d53e 1a7f d4be
00000320: 58b5 36bc 353e ff3d 975d bebc 5950 c0bd
00000330: 6b37 d4bd f0c7 e1be 42af 933d 2663 18be
00000340: ae17 d43e f263 81be 9e49 ca3e e60b fe3c
00000350: 5981 8fbe 96cc 74be d334 e83e b4aa 0fbf
00000360: 11a2 523e a955 ca3e 241d f0bb 9bbe 14bd
00000370: d908 ddbc 4b77 cdbe cdfc 06be 7ca7 f7be
00000380: d574 8e3d 5d3b 4ebe 5552 a43d ae91 da3e
00000390: 883e c4be bc1e f3be c28c f33d 8e0e f9be
000003a0: 52c7 dd3c 8327 bc3e 2564 473e 10ec e2be
000003b0: 58dc d6be 3a4b 0ebe fbaf 993d 9ee2 debe
000003c0: c95b 88bd 1843 54be 8be3 9cbe fecf ea3d
000003d0: 8905 11be 14c6 673e 0306 5e3e f3df 343e
000003e0: a803 c43c 4fbc 573e 6d22 b0bd d29c 333e
000003f0: 6f88 8f3e ebaf 893e f564 303e 4c49 5ebe

on_job_attn.in_proj_bias f4 [48]
0.03267508 0.07759938 -0.032094877 0.10543319 -0.096407704 0.011632656 0.06233891 0.04853543
0.13800181 -0.08939146 -0.10846913 0.15632258 0.22059573 0.28649336 0.23120081 -0.07296365
0.00014970459 6.487739e-05 0.00015823168 0.0002469764 -0.0002388529 -7.930362e-05 0.00022734879 0.00037021498
-0.00051504927 0.0002511322 0.00030435083 -0.00028688507 -0.0005029966 -0.00043855028 -0.00030673758 0.00018945297
0.005706264 0.007414711 -0.11119006 0.049546417 -0.057948012 -0.05010418 -0.1142972 0.005446045
-0.004878591 -0.15672678 -0.032440946 -0.05813837 -0.03788576 -0.042102944 -0.051157665 -0.13885227
00000000: 4ed6 053d 6cec 9e3d eb75 03bd 5bed d73d
00000010: 6771 c5bd e596 3e3c 1657 7f3d 16cd 463d
00000020: 5950 0d3e df12 b7bd 1025 debd 0713 203e
00000030: d9e3 613e 42af 923e e8bf 6c3e f76d 95bd
00000040: 05fa 1c39 c90e 8838 feea 2539 9c7c 8139
00000050: 9674 7ab9 cf4f a6b8 7a64 6e39 6a19 c239
00000060: 5f04 07ba 65aa 8339 4791 9f39 1069 96b9
00000070: 88db 03ba 39ed e5b9 9fd1 a0b9 e5a7 4639
00000080: 9dfb ba3b 1bf7 f23b 9db7 e3bd 2ff1 4a3d
00000090: e55a 6dbd 0a3a 4dbd a714 eabd bd74 b23b
000000a0: 96dc 9fbb fc7c 20be cce0 04bd 8022 6ebd
000000b0: 192e 1bbd 2374 2cbd b38a 51bd 4a2f 0ebe

on_job_attn.out_proj.weight f4 [16, 16]
-0.13954894 -0.13126211 -0.13709302 -0.1328531 0.16382065 0.19806813 0.252629 0.15153317
0.14458098 -0.062318172 0.45681283 -0.13276462 0.22432958 -0.29636478 0.2625508 -0.12480682
0.28678456 0.107557066 0.22434951 0.13221292 -0.15682589 -0.34505257 -0.18800685 0.03536872
-0.19989668 -0.17786925 -0.54289097 -0.21831016 0.109392256 0.036720365 0.13315527 -0.04124879
-0.2875608 0.19618906 -0.20130879 -0.13879512 -0.011004505 -0.19014569 -0.13012373 0.13227141
-0.0466379 0.09070721 0.10372893 -0.056348596 0.2845942 -0.2345802 -0.09678259 0.08667259
0.08091643 -0.20032068 -0.08418578 -0.14928584 -0.0324211 -0.15826808 -0.14450938 -0.16673082
-0.20243163 0.13208772 0.1717574 0.05913478 0.08195152 0.048804894 -0.07859716 -0.05442658
-0.28669438 0.083973885 0.059181098 -0.17626068 -0.056095112 0.07234552 -0.26709607 -0.2651107
0.029578391 -0.039037652 0.17732762 -0.10103406 0.10102793 0.23169614 -0.123590514 -0.068952866
0.021335425 -0.0926601 -0.20688917 0.09405131 -0.052887708 0.011464657 0.25583032 -0.1997499
0.038948536 0.045708235 -0.10767784 0.1875639 0.17639643 -0.21350375 0.010595248 0.18751654
-0.030580577 0.04205944 0.19596761 -0.046541892 0.20883016 -0.060880274 0.055940628 0.07005835
-0.29063606 0.24586433 0.40904 0.21778877 -0.077711895 0.14588656 0.09634006 -0.03187984
-0.20089586 -0.13785285 -0.0032574683 -0.123993024 0.08914032 -0.17366025 0.18931988 -0.11734135
-0.19165102 -0.09901754 0.1493738 0.058721043 0.28697672 -0.05266903 0.060299944 0.20894293
0.012299454 0.022716178 0.22575451 -0.1711786 0.10002549 -0.2309523 -0.07326227 -0.11070468
-0.090699434 0.15345578 -0.025111746 -0.15385331 0.16239113 -0.25419515 0.18389966 0.16603209
0.14172977 0.25743213 -0.16616064 -0.2065005 0.098344885 -0.016137255 -0.06617557 -0.04766914
0.16988736 -0.24293204 0.069309406 -0.12950206 -0.20739098 -0.1409847 -0.20602524 -0.0700727
0.13319324 -0.18340497 0.27670354 0.06792872 0.035027556 0.20931368 0.16222058 0.05193875
-0.059972413 0.046151463 -0.0062215272 -0.2017165 0.0701014 0.07542531 0.12727763 0.26409107
0.21158613 0.14502323 0.16868235 -0.23262638 0.04284766 0.20188564 -0.23436643 0.099899806
-0.09940121 0.24871278 -0.016302377 0.04986695 -0.19862111 -0.1550786 -0.13869938 0.049085673
-0.13338248 -0.06293542 -0.16760139 0.11398503 0.054106083 0.11657659 -0.040706325 -0.027233306
-0.16668764 -0.22668561 0.3801568 -0.23448539 0.020892616 -0.15712243 -0.17592543 -0.25427976
-0.1603577 -0.085971564 0.015760293 0.0579267 0.15246496 0.34636086 -0.1113201 0.08561647
-0.08596094 -0.063167326 0.52160376 0.25548774 -0.20799278 0.06776359 -0.12721506 0.11859668
0.21177077 -0.23235004 -0.08195935 -0.104689375 0.010291583 -0.122159466 0.14431754 0.07533234
0.13135439 -0.10104971 -0.3118955 0.15646783 -0.033399668 0.05383372 0.039758753 0.22755463
0.06388422 -0.00582441 0.07510278 0.11256379 0.21403973 0.029765865 0.020892994 -0.19569366
-0.097247444 -0.22659682 0.2606372 0.045631774 -0.023717629 0.09340906 0.12156539 -0.16751853
00000000: ebe5 0ebe 9369 06be 1d62 0cbe a50a 08be
00000010: 9ac0 273e 5fd2 4a3e 9758 813e 832b 1b3e
00000020: 090d 143e 5741 7fbd 5fe3 e93e 73f3 07be
00000030: a7b6 653e 20bd 97be 0f6d 863e b89a ffbd
00000040: 6dd5 923e e146 dc3d e1bb 653e d362 073e
00000050: f796 20be bbaa b0be de84 40be cade 103d
00000060: b7b1 4cbe 5b23 36be e7fa 0abf b38c 5fbe
00000070: 0c09 e03d 1868 163d db59 083e 7ef4 28bd
00000080: 2b3b 93be c9e5 483e e423 4ebe 4f20 0ebe
00000090: 3d4c 34bc 8db5 42be 283f 05be 2872 073e
000000a0: 6207 3fbd b4c4 b93d d56f d43d c9cd 66bd
000000b0: 55b6 913e cb35 70be f335 c6bd 6681 b13d
000000c0: 83b7 a53d dd20 4dbe 9869 acbd 63de 18be
000000d0: fdcb 04bd 0711 22be 44fa 13be 7cbb 2abe
000000e0: 3d4a 4fbe 0142 073e 2ce1 2f3e 5037 723d
000000f0: 33d6 a73d a4e7 473d 8cf7 a0bd 68ee 5ebd
00000100: 9bc9 92be 80fa ab3d e167 723d ae7d 34be
00000110: fdc3 65bd e329 943d d1c0 88be 97bc 87be
00000120: 624e f23c f2e5 1fbd 5f95 353e f2ea cebd
00000130: bbe7 ce3d c141 6d3e 061d fdbd 2937 8dbd
00000140: a1c7 ae3c 94c4 bdbd c1da 53be f99d c03d
00000150: c8a0 58bd 42d6 3b3c 31fc 823e 3d8b 4cbe
00000160: 8088 1f3d 8f38 3b3d 3386 dcbd c010 403e
00000170: 44a1 343e baa0 5abe b197 2d3c 5604 403e
00000180: 1e84 fabc 8546 2c3d bcab 483e b6a2 3ebd
00000190: 93d7 553e 985d 79bd 0022 653d c17a 8f3d
000001a0: 40ce 94be dcc3 7b3e b16d d13e 0504 5f3e
000001b0: 6a27 9fbd 4963 153e f04d c53d 6f94 02bd
000001c0: a5b7 4dbe 4c29 0dbe 407b 55bb 0ef0 fdbd
000001d0: 338f b63d fed3 31be 12dd 413e a950 f0bd
000001e0: 2a40 44be b5c9 cabd 72f5 183e 7a85 703d
000001f0: 9dee 923e 7bbb 57bd 13fd 763d 23f5 553e
00000200: a683 493c 4717 ba3c 312c 673e 7149 2fbe
00000210: 2ada cc3d c27e 6cbe 870a 96bd 23b9 e2bd
00000220: a0c0 b9bd 8323 1d3e 26b7 cdbc b98b 1dbe
00000230: dc49 263e de25 82be 3150 3c3e 5104 2a3e
00000240: 9c21 113e 25ce 833e 0426 2abe de74 53be
00000250: 0b69 c93d 4732 84bc 0f87 87bd b740 43bd
00000260: f4f6 2d3e 2dc3 78be 17f2 8d3d 309c 04be
00000270: 4d5e 54be 4b5e 10be 48f8 52be 4782 8fbd
00000280: cf63 083e 83ce 3bbe 16ac 8d3e 361e 8b3d
00000290: 0e79 0f3d 5356 563e 271d 263e babd 543d
000002a0: a2a5 75bd 5109 3d3d f4dd cbbb c58e 4ebe
000002b0: 5391 8f3d 9678 9a3d 1155 023e f236 873e
000002c0: 09aa 583e f880 143e 11bb 2c3e 9c35 6ebe
000002d0: 0781 2f3d 1cbb 4e3e c1fd 6fbe 4598 cc3d
000002e0: dd92 cbbd 90ae 7e3e 908c 85bc 4941 4c3d
000002f0: 5563 4bbe edcc 1ebe 3607 0ebe 0f0e 493d
00000300: 6b95 08be 49e4 80bd b39f 2bbe fc70 e93d
00000310: 579e 5d3d b5bf ee3d adbb 26bd 6218 dfbc
00000320: 2ab0 2abe 4620 68be e9a3 c23e f01c 70be
00000330: fe26 ab3c b4e4 20be cc25 34be f530 82be
00000340: cf34 24be dc11 b0bd bb1b 813c 8c44 6d3d
00000350: c61f 1c3e 3656 b13e cbfb e3bd b057 af3d
00000360: 4a0c b0bd df5d 81bd d387 053f 4acf 823e
00000370: 0ffc 54be a3c7 8a3d aa44 02be d1e2 f23d
00000380: 70da 583e 2bed 6dbe 4eda a7bd 6267 d6bd
00000390: 079e 283c be2e fabd fac7 133e d847 9a3d
000003a0: c481 063e 26f3 cebd c4b0 9fbe 1a39 203e
000003b0: 17ce 08bd bf80 5c3d 13da 223d 1504 693e
000003c0: bbd5 823d b1da bebb 7ccf 993d d887 e63d
000003d0: 3b2d 5b3e 8bd7 f33c c927 ab3c eb63 48be
000003e0: ab29 c7bd ff08 68be 3d72 853e 62e8 3a3d
000003f0: 794b c2bc 404d bf3d 46f7 f83d fa89 2bbe

on_job_attn.out_proj.bias f4 [16]
0.036711074 0.027790587 -0.03753525 0.02520329 -0.015638275 -0.07679028 0.013343355 -0.05168832
-0.08424284 0.060018852 -0.11947434 -0.10380264 0.112806536 0.04634216 0.016586816 -0.049385086
00000000: 5a5e 163d 16a9 e33c 90be 19bd 2177 ce3c
00000010: d71b 80bc 3944 9dbd 169e 5a3c 22b7 53bd
00000020: 8387 acbd 54d6 753d f6ae f4bd 7b96 d4bd
00000030: 1d07 e73d 47d1 3d3d 13e1 873c 0448 4abd

job_attn.in_proj_weight f4 [48, 16]
0.0803448 -0.13888726 -0.31996414 0.097490475 0.021692585 0.27414432 -0.27752605 -0.19596395
0.22638908 0.09196147 0.20880026 0.041525513 -0.29002026 0.036918867 -0.19152771 -0.3935543
0.14181261 -0.04653778 0.17032473 0.120415464 -0.08365602 -0.10743843 0.116170906 -0.28085023
-0.1875265 0.07309578 -0.18667376 -0.16935119 0.23659874 0.07942748 0.06277223 -0.07267102
-0.24399951 -0.026306078 0.18917146 -0.11092988 -0.079269595 -0.19863398 -0.2637949 0.20357236
-0.18642062 -0.10946903 -0.21091343 -0.16568772 -0.09647555 -0.21727349 0.25141752 -0.16515122
0.3330072 -0.3350866 -0.19004557 -0.30166355 8.8294386e-05 0.21156628 0.051875595 0.011386463
-0.1899843 -0.055027634 -0.11862395 -0.19367343 -0.1608364 -0.20844603 -0.17556128 0.17387761
-0.02434535 0.08518964 0.26234055 0.3160559 0.03005361 -0.17922477 -0.19484387 -0.20587827
-0.20270357 0.12936474 0.20897894 0.15010358 -0.15369095 0.082806654 0.16458708 -0.03364971
-0.06483948 -0.21762949 0.27385068 -0.0737624 0.006705691 0.15672801 0.042903565 0.12905969
0.05587403 -0.12928347 -0.16617821 0.26483026 -0.15722711 0.205299 -0.23887761 -0.1612209
-0.012405023 -0.07626007 0.2497654 -0.115209416 -0.34307897 0.07144838 0.20332994 -0.20635907
0.10786675 0.16036113 -0.14073287 0.10732562 0.311411 0.29317608 -0.20382257 -0.081640355
-0.022638207 0.104234435 -0.10019969 0.28928143 -0.07499375 0.21576653 -0.12004671 -0.15374966
0.040249072 -0.18555593 0.022315124 -0.059772894 0.08394622 -0.23168917 -0.299095 -0.102987334
-0.06126671 -0.22329435 0.12034136 0.14464568 0.30102816 0.19333275 0.054512035 0.18487298
0.15680484 0.13472734 -0.20514709 -0.1522074 0.06363122 0.1780406 0.059504054 -0.049307294
-0.05085562 -0.18655616 -0.31144804 0.15479633 0.13601989 -0.10942486 -0.0630671 0.2901662
0.026794309 -0.26412475 -0.2285268 0.03805263 0.08710415 -0.043282546 -0.17381647 0.040305316
-0.06409943 0.12733448 0.3079256 0.3102858 0.2909274 -0.2754701 -0.08087405 0.26599762
-0.048680604 0.09892182 0.24641344 0.05475626 0.17588392 -0.19051565 0.17443983 0.21401817
-0.27776533 0.24526875 -0.31020552 -0.21011385 -0.24518095 0.18451041 0.2740983 -0.28384456
0.17091489 0.13149884 0.012890894 0.19326115 -0.008615316 -0.26334465 -0.04517913 0.1644295
-0.15806904 -0.077176586 -0.050431147 0.15060785 0.26686868 0.17371064 0.1338895 0.23754647
0.24277776 -0.20235221 -0.28033218 -0.0049352557 -0.009361241 0.20848943 -0.034544364 -0.17551604
-0.22817098 0.22108343 -0.18285024 0.15334374 -0.23368777 0.25210145 -0.2604673 0.25862664
0.23616129 0.06476196 0.24601297 0.17955698 0.049606297 -0.19671412 0.28854716 -0.14446782
0.04270446 0.20261005 -0.30171782 0.10935508 0.286628 -0.08965778 0.23940484 -0.16108142
0.14416641 0.2983293 -0.10494679 0.30329916 0.07968924 0.026207453 0.3165347 0.02970896
-0.0581689 -0.040799767 -0.12385754 -0.037076745 0.27855855 -0.22418706 0.1340019 0.28559667
-0.034225814 -0.06696788 -0.31431168 -0.23369145 0.32810143 0.09904564 0.054329313 -0.03956739
00000000: d18b a43d 7638 0ebe 57d2 a3be 16a9 c73d
00000010: a6b4 b13c a55c 8c3e e517 8ebe c6aa 48be
00000020: 8ad2 673e 4c56 bc3d bccf 553e a816 2a3d
00000030: 897d 94be 3d38 173d d71f 44be f37f c9be
00000040: 5337 113e 669e 3ebd 9b69 2e3e 629c f63d
00000050: d953 abbd ae08 dcbd 03eb ed3d 9acb 8fbe
00000060: f206 40be 3eb3 953d 6827 3fbe 666a 2dbe
00000070: f146 723e e0aa a23d ba8e 803d 8bd4 94bd
00000080: 02db 79be d87f d7bc 2ab6 413e 342f e3bd
00000090: 1958 a2bd b566 4bbe 2010 87be 4675 503e
000000a0: 0ce5 3ebe 4c31 e0bd b1f9 57be 0baa 29be
000000b0: f994 c5bd f17c 5ebe ccb9 803e 671d 29be
000000c0: eb7f aa3e 7990 abbe 4e9b 42be a573 9abe
000000d0: b02a b938 d5a4 583e 817b 543d 4a8e 3a3c
000000e0: 3f8b 42be a864 61bd 1df1 f2bd 5452 46be
000000f0: 4cb2 24be e072 55be 56c6 33be f90c 323e
00000100: e66f c7bc e877 ae3d 8051 863e 14d2 a13e
00000110: fd32 f63c b386 37be 2785 47be c1d1 52be
00000120: 8691 4fbe 3178 043e 93fe 553e c1b4 193e
00000130: 2961 1dbe 8996 a93d 8489 283e 47d4 09bd
00000140: 90ca 84bd 44da 5ebe 2836 8c3e be10 97bd
00000150: 6abb db3b 4f7d 203e a6bb 2f3d 3928 043e
00000160: 2bdc 643d e362 04be 9f2a 2abe d597 873e
00000170: 2500 21be e739 523e 559c 74be 1717 25be
00000180: 703e 4bbc 3d2e 9cbd 80c2 7f3e eaf2 ebbd
00000190: 0ca8 afbe 8753 923d b935 503e cb4f 53be
000001a0: 3ee9 dc3d b535 243e 471c 10be 89cd db3d
000001b0: 4371 9f3e 2d1b 963e ddb6 50be 0f33 a7bd
000001c0: c373 b9bc dd78 d53d 7f35 cdbd b21c 943e
000001d0: 5396 99bd e7f1 5c3e 0ddb f5bd 8d70 1dbe
000001e0: 36dc 243d 6002 3ebe 35ce b63c 6cd4 74bd
000001f0: ffeb ab3d ed3f 6dbe fb22 99be 06eb d2bd
00000200: cdf2 7abd 46a7 64be 8875 f63d ff1d 143e
00000210: 5d20 9a3e 05f9 453e 0348 5f3d 584f 3d3e
00000220: 7391 203e f7f5 093e 1412 52be 42dc 1bbe
00000230: 1651 823d 4650 363e 86ba 733d 72f6 49bd
00000240: fc4d 50bd 9408 3fbe 1e76 9fbe ee82 1e3e
00000250: cc48 0b3e 241a e0bd 5329 81bd aa90 943e
00000260: bd7f db3c 5c3b 87be ee02 6abe 13dd 1b3d
00000270: a963 b23d 0a49 31bd f2fc 31be 3017 253d
00000280: 9046 83bd f863 023e 6da8 9d3e c8dd 9e3e
00000290: 70f4 943e 6b0a 8dbe 4ba1 a5bd d730 883e
000002a0: 5065 47bd 8697 ca3d ce53 7c3e 1a48 603d
000002b0: ea1a 343e 8916 43be 5ba0 323e 9427 5b3e
000002c0: 4237 8ebe bb27 7b3e 42d3 9ebe 1628 57be
000002d0: b710 7bbe 4cf0 3c3e 9d56 8c3e 1354 91be
000002e0: 5004 2f3e a2a7 063e 5434 533c 40e6 453e
000002f0: 4127 0dbc 1cd5 86be c00d 39bd 3560 283e
00000300: dadc 21be c20e 9ebd e490 4ebd f238 1a3e
00000310: 03a3 883e 34e1 313e 541a 093e 623f 733e
00000320: bc9a 783e 6b35 4fbe b387 8fbe edb7 a1bb
00000330: e45f 19bc 417e 553e 647e 0dbd 7aba 33be
00000340: a7a5 69be b263 623e 183d 3bbe 2406 1d3e
00000350: d94b 6fbe 7113 813e f85b 85be b66a 843e
00000360: 44d4 713e eba1 843d d3ea 7b3e c9dd 373e
00000370: f92f 4b3d 6d6f 49be 74bc 933e 5fef 13be
00000380: dfea 2e3d 0279 4f3e c27a 9abe 8ef5 df3d
00000390: e8c0 923e 809e b7bd 8b26 753e 87f2 24be
000003a0: 5ca0 133e 9ebe 983e 58ee d6bd 074a 9b3e
000003b0: 1d34 a33d 03b1 d63c d610 a23e 3460 f33c
000003c0: 8342 6ebd a81d 27bd 06a9 fdbd c9dd 17bd
000003d0: 3a9f 8e3e 4b91 65be cb37 093e ba39 923e
000003e0: 5e30 0cbd 7526 89bd 76ed a0be d04c 6fbe
000003f0: e9fc a73e 71d8 ca3d 6a88 5e3d 6a11 22bd

job_attn.in_proj_bias f4 [48]
-0.10948395 0.027964257 -0.091874786 -0.070189856 0.096443236 0.011734033 -0.0374426 0.034842696
0.015366052 -0.10613402 0.017142063 -0.05832671 0.035703663 -0.03714798 -0.112276636 0.049975947
0.011949101 0.0010846244 0.01338798 0.024847226 -0.022192352 0.010206109 -0.009586365 0.02396396
0.020374753 -0.020383794 0.024053458 -0.03113681 0.02574907 0.033670753 0.005969819 -0.04239865
0.037185036 0.030663013 -0.00018009581 -0.0608364 -0.034036625 -0.031346302 0.022641174 0.010597046
0.042454828 0.010961513 0.0388153 0.023632256 0.026583558 0.002365865 -0.033798948 0.030471403
00000000: 1f39 e0bd 4c15 e53c d928 bcbd b3bf 8fbd
00000010: 0884 c53d 1a40 403c 695d 19bd 37b7 0e3d
00000020: e5c1 7b3c cb5c d9bd 836d 8c3c fde7 6ebd
00000030: 013e 123d 7b28 18bd 4bf1 e5bd 94b3 4c3d
00000040: 2ac6 433c f529 8e3a 4259 5b3c 698c cb3c
00000050: bccc b5bc 8637 273c 2110 1dbc 1150 c43c
00000060: f4e8 a63c eafb a6bc c20b c53c a012 ffbc
00000070: b7ef d23c 58ea 093d 799e c33b 35aa 2dbd
00000080: 564f 183d 0031 fb3c 1ad8 3cb9 972f 79bd
00000090: fd69 0bbd fb64 00bd fc79 b93c 3c9f 2d3c
000000a0: 1de5 2d3d eb97 333c cbfc 1e3d 6f98 c13c
000000b0: c3c5 d93c a10c 1b3b c470 0abd 2a9f f93c

job_attn.out_proj.weight f4 [16, 16]
-0.10519733 0.15648556 0.021863803 -0.046042982 0.08422533 -0.1365217 -0.047957014 -0.15170003
0.17113554 0.08309579 0.035348248 0.16353293 -0.24972245 0.2128457 -0.14967823 -0.1283486
0.026349904 -0.18825845 -0.14230497 0.1674626 -0.061598405 -0.2049241 -0.0065587517 0.065341525
-0.14818197 -0.21059458 0.1472917 0.20382729 -0.21212496 0.04103928 0.105350405 -0.24776831
-0.3034976 0.052477036 0.15216504 0.01041783 0.23950833 0.27731064 0.23797463 0.033909023
-0.0652299 0.2463477 -0.123503566 0.19569184 0.14531228 -0.30512714 -0.009187164 0.1219972
0.028494451 -0.25203463 0.12314806 -0.23866867 -0.13986383 -0.29219982 -0.2776496 -0.10169631
0.17590348 -0.1283586 -0.2357606 -0.013443941 0.22496445 0.18279278 0.023835368 -0.1940707
-0.040939778 -0.15536869 -0.06689008 -0.06100734 -0.1853427 0.14546384 -0.17634554 -0.18860906
-0.17775661 -0.038780086 -0.08693763 0.02930815 -0.253537 -0.12926735 -0.27605143 -0.18857293
0.17565915 -0.26802438 -0.25173083 -0.25310948 -0.087098956 -0.06594048 0.0070408154 -0.19850771
-0.23994567 0.19840524 0.14840446 0.25531727 -0.13888022 0.2077317 -0.053581983 0.18442658
0.20441636 0.06810616 0.23669592 0.2853807 -0.2524124 0.19443591 0.024363691 0.0071778186
0.046022896 -0.05284618 -0.09015861 -0.014192246 0.16766505 0.08246144 -0.020136602 -0.2405343
0.03378987 0.00079544046 -0.0151312165 0.19906941 0.20302561 -0.2083625 0.107115455 0.10693937
0.203877 0.0068499343 0.20621654 -0.25028476 0.16030097 -0.3062588 -0.011577081 -0.045598425
0.012228889 0.10119579 -0.08312748 0.25278276 -0.19724596 -0.21675274 0.18789871 -0.12479854
-0.07335486 0.08669946 -0.2374685 0.2592385 -0.11638451 -0.027825834 -0.17604733 -0.24807362
-0.16075039 0.22093266 0.3165071 0.28262076 0.0698048 0.25784612 0.20642513 0.2744759
0.18258071 0.09181691 0.02529702 0.124994926 0.23784587 0.021958321 0.23056939 0.1796658
-0.15023209 -0.023294738 -0.054656647 -0.08949392 0.09771861 0.05199587 -0.26091313 0.14142579
0.0047660233 -0.17500642 0.12217427 0.2879519 -0.21056601 0.29548347 0.09394106 -0.25709602
0.14846985 0.06344966 -0.1891218 0.09465002 0.051859967 0.1798441 -0.10749549 0.24798924
-0.24289873 -0.17124125 0.23892148 0.13231896 -0.2015081 0.27823102 -0.07990196 -0.0054008365
0.12434026 0.15324475 0.095872045 -0.012831605 -0.21482794 -0.012828893 0.13573378 0.15395106
-0.061826088 0.037518937 0.16639695 -0.09598284 0.13366829 0.07934224 -0.050145272 -0.20610048
0.06376056 -0.21040574 0.15302101 0.049974162 0.06243414 -0.16008873 0.1731553 -0.17017165
0.07187933 0.03971117 0.024399625 0.08223426 -0.044612236 -0.12396968 0.16518216 0.003749633
-0.27619612 -0.16096582 -0.09817687 0.04670847 0.2376696 0.22913682 0.06672379 0.1969063
0.095304504 -0.24934845 0.1506574 -0.30002856 0.20747995 -0.065798864 0.120294504 0.18684663
0.0076052123 -0.14670299 -0.06459073 -0.17004535 -0.09688851 -0.12762251 0.1490144 0.2415158
0.26088184 -0.22153823 -0.14090595 -0.08592461 0.06267454 -0.13068287 -0.043432396 0.2637618
00000000: b371 d7bd c03d 203e b81b b33c 9197 3cbd
00000010: 547e ac3d 58cc 0bbe 936e 44bd 4157 1bbe
00000020: 283e 2f3e 202e aa3d 53c9 103d 2d75 273e
00000030: 3eb7 7fbe 39f4 593e 4045 19be d16d 03be
00000040: c1db d73c d3c6 40be 65b8 11be 517b 2b3e
00000050: 9c4e 7cbd a0d7 51be ccea d6bb c7d1 853d
00000060: 04bd 17be 1ba6 57be a3d3 163e 1ab8 503e
00000070: 4937 59be ce18 283d f4c1 d73d fab6 7dbe
00000080: 0a64 9bbe 29f2 563d 27d1 1b3e 8caf 2a3c
00000090: ac41 753e a9fb 8d3e 9faf 733e 30e4 0a3d
000000a0: 4197 85bd 9242 7c3e 70ef fcbd 7163 483e
000000b0: becc 143e a039 9cbe c285 16bc abd9 f93d
000000c0: 326d e93c af0a 81be 0d35 fc3d 8f65 74be
000000d0: 7738 0fbe 379b 95be 1728 8ebe 2846 d0bd
000000e0: 0b20 343e 7070 03be 3a6b 71be fa43 5cbc
000000f0: 155d 663e 082e 3b3e 6442 c33c 78ba 46be
00000100: 78b0 27bd f818 1fbe abfd 88bd d5e2 79bd
00000110: 7aca 3dbe 79f4 143e ed93 34be bc22 41be
00000120: d405 36be ded7 1ebd 5b0c b2bd a517 f03c
00000130: 9acf 81be a95e 04be 9d56 8dbe 4319 41be
00000140: fedf 333e 7e3a 89be dde2 80be 9197 81be
00000150: f060 b2bd cd0b 87bd a4b6 e63b 9b45 4bbe
00000160: 51b4 75be be2a 4b3e 57f7 173e f2b8 823e
00000170: 9e36 0ebe 9eb7 543e c878 5bbd 52da 3c3e
00000180: 8652 513e 3e7b 8b3d 6a60 723e 6b1d 923e
00000190: 333c 81be 351a 473e 5d96 c73c e833 eb3b
000001a0: 8182 3c3d 3c75 58bd 14a5 b8bd 9886 68bc
000001b0: 63b0 2b3e 8be1 a83d 84f5 a4bc a04e 76be
000001c0: 3f67 0a3d 1b85 503a ece8 77bc dad8 4b3e
000001d0: f2e5 4f3e fb5c 55be 595f db3d 0703 db3d
000001e0: 22c5 503e 6a75 e03b 6e2a 533e 5325 80be
000001f0: f025 243e f4cd 9cbe ccad 3dbc 6ac5 3abd
00000200: ae5b 483c bd3f cf3d bd3e aabd be6c 813e
00000210: d8fa 49be 6ef4 5dbe 8568 403e 6096 ffbd
00000220: 133b 96bd 7d8f b13d f12a 73be e9ba 843e
00000230: 015b eebd 01f3 e3bc c045 34be 0307 7ebe
00000240: c09b 24be 2c3c 623e 380d a23e abb3 903e
00000250: d2f5 8e3d 6804 843e 1c61 533e 1b88 8c3e
00000260: 70f6 3a3e 810a bc3d b23b cf3c 57fd ff3d
00000270: de8d 733e f0e1 b33c 621a 6c3e 50fa 373e
00000280: 71d6 19be 9bd4 bebc a6df 5fbd 9748 b7bd
00000290: b220 c83d 9ff9 543d 6896 85be ecd1 103e
000002a0: 4d2c 9c3b e234 33be 8136 fa3d 6e6e 933e
000002b0: 9e9e 57be 9c49 973e 2c64 c03d 17a2 83be
000002c0: 7b08 183e e5f1 813d 25a9 41be dfd7 c13d
000002d0: 1e6b 543d 0d29 383e 9826 dcbd e4f0 7d3e
000002e0: 72ba 78be de59 2fbe d5a7 743e 9f7e 073e
000002f0: 2458 4ebe 4c74 8e3e a4a3 a3bd 80f9 b0bb
00000300: 1ba6 fe3d 31ec 1c3e 9058 c43d a73b 52bc
00000310: dbfb 5bbe 4730 52bc ccfd 0a3e 59a5 1d3e
00000320: 5a3d 7dbd 75ad 193d f663 2a3e a792 c4bd
00000330: 57e0 083e 2f7e a23d 2165 4dbd 010c 53be
00000340: e594 823d 9a74 57be 8ab1 1c3e b5b1 4c3d
00000350: f1ba 7f3d 4dee 23be 9f4f 313e 7a41 2ebe
00000360: 7835 933d 2ea8 223d b9e1 c73c 706a a83d
00000370: 52bb 36bd d1e3 fdbd 8325 293e 67bc 753b
00000380: 9469 8dbe 39d4 24be f410 c9bd 6151 3f3d
00000390: a95f 733e d8a2 6a3e 7ba6 883d cea1 493e
000003a0: 022f c33d 3355 7fbe ef45 1a3e 589d 99be
000003b0: a075 543e 8ec1 86bd f75c f63d b954 3f3e
000003c0: 2535 f93b 4f39 16be 2548 84bd 5e20 2ebe
000003d0: 7c6d c6bd 7aaf 02be 3b97 183e eb4f 773e
000003e0: 4e92 853e ebda 62be a649 10be 3ef9 afbd
000003f0: 825b 803d bbd1 05be 2be6 31bd c90b 873e

job_attn.out_proj.bias f4 [16]
0.013783977 -0.03314094 -0.060121156 0.033108667 -0.018910024 0.015541058 -0.030408887 0.024805311
0.028971588 0.024556708 -0.00027800642 0.0047908314 0.030137084 -0.0009094605 -0.03143307 0.028164288
00000000: 31d6 613c cbbe 07bd 9a41 76bd f49c 073d
00000010: 32e9 9abc ec9f 7e3c 0f1c f9bc 8234 cb3c
00000020: d355 ed3c 262b c93c 64c1 91b9 68fc 9c3b
00000030: 0ce2 f63c dc68 6eba f6bf 00bd cbb8 e63c

machine_attn.in_proj_weight f4 [48, 16]
-0.18820712 0.29085785 0.19734448 -0.18044461 -0.2704841 0.2976732 -0.2495265 -0.09758223
-0.07931302 -0.030022508 0.11396719 0.102969445 0.24196953 0.2334942 0.29953808 -0.06458415
-0.17280044 0.19560218 0.1882454 -0.0586145 0.225422 0.19905564 0.23752248 0.11929261
0.103546806 0.08856514 0.23401093 -0.21370079 0.02223467 0.13067952 0.20483509 0.23508927
0.20302986 0.11724013 -0.22403087 -0.275235 -0.039707445 0.09304408 -0.13161856 -0.1900971
-0.19130416 -0.12682396 -0.21530625 -0.25155056 -0.2428241 -0.13237967 -0.2120113 0.18468809
-0.0060373954 0.17031258 -0.0926701 -0.1806642 0.18869779 -0.1282835 -0.0335565 0.19408976
0.08435126 -0.17542633 0.2363245 -0.13691902 0.10126646 -0.06370767 -0.124145865 0.071259096
-0.29985613 0.1612127 -0.15150973 -0.106949545 -0.11660065 -0.09507773 -0.003076642 0.115171224
0.12006777 0.08790865 0.28798503 -0.20852625 0.14159857 -0.07107827 -0.19400635 -0.26765746
0.009005778 -0.17115629 0.28290778 0.3025512 -0.27651078 -0.048649456 0.0068302173 -0.13594373
0.114707306 -0.21842618 0.26580814 0.19713803 0.12918757 0.25143826 0.17824507 0.12565887
0.11112579 0.038721062 -0.21530668 0.028019156 -0.15284412 -0.15722501 -0.1797795 -0.25050163
-0.2470484 0.21815541 0.08183055 0.121735685 -0.06591261 -0.017302647 0.16767284 0.07023373
-0.100425236 0.17046818 0.2889574 0.06603245 -0.12412816 0.25756696 0.02914716 -0.14621326
0.10865542 -0.09080987 0.17727508 -0.18344 0.16414326 -0.121919975 0.23648675 -0.08530859
-0.11304746 -0.2652726 -0.27832747 -0.2603912 -0.11875774 0.14214845 -0.25463817 -0.04494118
0.18846357 0.2162286 -0.034918323 -0.116664484 0.029895961 -0.26894948 0.035254892 0.05785416
-0.020254094 -0.02644877 0.09024072 -0.0035540287 -0.21464764 -0.21255529 0.00633469 -0.10053791
-0.09379719 -0.027812455 -0.08203145 -0.07538388 -0.15991661 -0.30239466 0.03391971 0.20150645
0.10466087 -0.23377113 -0.013839687 -0.021805646 0.045616508 -0.11811106 -0.22845286 0.12207353
0.29357004 -0.24700345 0.2783099 -0.21691865 0.2322819 -0.23728107 -0.27662617 0.012486331
-0.10273862 -0.22804494 -0.24471176 0.29783267 0.2536575 -0.07632876 -0.2185379 0.29137093
0.037880354 0.00019075027 -0.26945582 0.14130251 0.05715219 0.06661656 -0.28992394 0.044125654
-0.0340736 -0.2471871 0.2530233 -0.064241484 -0.21825969 -0.2294786 0.21858908 -0.24045922
-0.30286103 -0.13837217 -0.060194228 0.15479878 -0.08617434 0.046739254 -0.30403098 -0.29055762
0.113702305 0.09607974 -0.13712375 -0.2727987 0.15147959 -0.059474334 0.002311159 -0.083150476
0.07425153 0.1485899 -0.08283687 0.1391202 0.15210567 -0.21008076 0.10631338 0.15443836
-0.05351461 -0.28655413 -0.14220871 0.27935818 0.112855464 -0.17486459 -0.22262327 -0.1066951
0.012409462 0.14635393 -0.27840632 -0.15352254 -0.28827074 -0.09865074 0.22868763 0.21856204
-0.14130065 0.3019039 0.24817748 -0.0066040982 -0.23692968 0.29019248 -0.12278879 -0.033883102
0.046702024 -0.020545037 -0.24969466 -0.064301565 -0.29348284 -0.077896886 0.23519278 0.18930994
00000000: 5eb9 40be 52eb 943e ac14 4a3e 79c6 38be
00000010: e47c 8abe 9f68 983e e083 7fbe 31d9 c7bd
00000020: dd6e a2bd c3f1 f5bc a167 e93d a5e1 d23d
00000030: dcc6 773e 1b19 6f3e 0e5d 993e b244 84bd
00000040: 99f2 30be f04b 483e 67c3 403e c215 70bd
00000050: 06d5 663e 3ed5 4b3e 1839 733e af4f f43d
00000060: 5910 d43d a461 b53d 90a0 6f3e 61d4 5abe
00000070: 7c25 b63c dad0 053e 4ac0 513e 3ebb 703e
00000080: 0fe7 4f3e 981b f03d 5968 65be 9aeb 8cbe
00000090: 46a4 22bd e58d be3d 04c7 06be d0a8 42be
000000a0: 3de5 43be 24de 01be 3e79 5cbe 3ccb 80be
000000b0: e2a6 78be 898e 07be 7d19 59be e01e 3d3e
000000c0: 58d5 c5bb 6c66 2e3e d2c9 bdbd 0900 39be
000000d0: fe39 413e c05c 03be 8a72 09bd 77bf 463e
000000e0: 5ac0 ac3d f6a2 33be 0dff 713e 8034 0cbe
000000f0: ca64 cf3d 2b79 82bd 3040 febd 4af0 913d
00000100: be86 99be f114 253e 5e25 1bbe 5d08 dbbd
00000110: 52cc eebd 1db8 c2bd 7da1 49bb e4de eb3d
00000120: 17e6 f53d 7309 b43d c672 933e e887 55be
00000130: 37ff 103e 7c91 91bd 9aa9 46be 660a 89be
00000140: f88c 133c 9843 2fbe 4ad9 903e fee7 9a3e
00000150: d292 8dbe a744 47bd 04d0 df3b d534 0bbe
00000160: aaeb ea3d 1dab 5fbe 0118 883e 8dde 493e
00000170: bf49 043e 84bc 803e e085 363e b8ac 003e
00000180: eb95 e33d fa99 1e3d 5b79 5cbe 6e88 e53c
00000190: 2b83 1cbe 98ff 20be 1e18 38be c041 80be
000001a0: 41fa 7cbe 2264 5f3e c796 a73d 8f50 f93d
000001b0: 31fd 86bd 48be 8dbc 6eb2 2b3e b4d6 8f3d
000001c0: bfab cdbd 368f 2e3e 39f2 933e 053c 873d
000001d0: e836 febd d1df 833e 06c6 ee3c eeb8 15be
000001e0: bc86 de3d 86fa b9bd 9987 353e b2d7 3bbe
000001f0: 2c15 283e 2eb1 f9bd 9529 723e 45b6 aebd
00000200: 6d85 e7bd cfd1 87be f080 8ebe ff51 85be
00000210: 4237 f3bd 5d8f 113e ef5f 82be 3e14 38bd
00000220: 98fc 403e 086b 5d3e 8406 0fbd caed eebd
00000230: 60e8 f43c bfb3 89be 6f67 103d 7cf8 6c3d
00000240: eaeb a5bc 17ab d8bc 20d0 b83d b5ea 68bb
00000250: 97cc 5bbe 18a8 59be 3b93 cf3b d2e6 cdbd
00000260: be18 c0bd f2d6 e3bc 1b00 a8bd dd62 9abd
00000270: 2ec1 23be 79d3 9abe 65ef 0a3d b557 4e3e
00000280: 7058 d63d b361 6fbe dbbf 62bc c1a1 b2bc
00000290: 60d8 3a3d 36e4 f1bd 8cef 69be b001 fa3d
000002a0: d04e 963e 79ee 7cbe a37e 8e3e ec1f 5ebe
000002b0: 4edb 6d3e cff9 72be f2a1 8dbe 7893 4c3c
000002c0: a068 d2bd 9d84 69be b895 7abe 867d 983e
000002d0: 65df 813e 4152 9cbd 66c8 5fbe 922e 953e
000002e0: 6e28 1b3d 2304 4839 1df6 89be 9bb1 103e
000002f0: 6a18 6a3d 436e 883d e970 94be 1abd 343d
00000300: c290 0bbd 9d1e 7dbe 458c 813e 0a91 83bd
00000310: 787f 5fbe 70fc 6abe d1d5 5f3e f13a 76be
00000320: 9a10 9bbe 6fb1 0dbe 398e 76bd 9283 1e3e
00000330: 2c7c b0bd a971 3f3d f3a9 9bbe f8c3 94be
00000340: c1dc e83d 74c5 c43d 2b6a 0cbe 45ac 8bbe
00000350: 771d 1b3e 5c9b 73bd d076 173b cc4a aabd
00000360: 3011 983d f327 183e 60a6 a9bd 8775 0e3e
00000370: 97c1 1b3e 691f 57be d4ba d93d 1725 1e3e
00000380: 2332 5bbd 39b7 92be 299f 11be 0908 8f3e
00000390: c420 e73d b40f 33be 5bf7 63be f682 dabd
000003a0: 0e51 4b3c cedd 153e 468b 8ebe 0335 1dbe
000003b0: 3998 93be 6609 cabd 172d 6a3e bace 5f3e
000003c0: 1eb1 10be 2693 9a3e 3d22 7e3e 3167 d8bb
000003d0: b29d 72be 1c94 943e b078 fbbd 02c9 0abd
000003e0: 9f4a 3f3d 114e a8bc f5af 7fbe 8ab0 83bd
000003f0: 6243 96be 6788 9fbd 60d6 703e 77da 413e
