model1.pth (torch, 105778 bytes, 24 tensors)

job_fc1.weight f4 [64, 72]
00000000: 1370 193d 48b4 73bd 1262 803c e322 963d
00000010: 6df5 733d 44f1 93bc a34c b9bd c2a5 ab3d
00000020: 76df c9bd 82f4 06be 9613 c83c 7b0e c9bd
00000030: 734d 123e a3b3 4e3d 2a1b e53d cc88 453d
00000040: c0b7 74bd 201d 963d 9fe9 62bd 0342 bd3d
00000050: bfd7 fbbd 81f7 323e 7274 0f3d 4462 543e
00000060: 62b1 343d d76f 273d 9a1c 1c3d 4294 1a3d
00000070: 1c0d 0bbc bf84 f0bd 0bf8 56bd 2f95 a0bb
00000080: 541a e03d e062 ba3d 4556 af3d 5ae5 83bd
00000090: 344e c63d 23f1 913d dbfc 223d 59c8 e53d
000000a0: 5b94 b73d 0992 22bd 2f83 663c 6e58 413d
000000b0: 67a6 48bd 8196 1cbd 0e63 6dbc 56ec 93bd
000000c0: fd66 12bd 7d88 e6bd 3ab8 24bd c16c 98bd
000000d0: c965 da3c b494 a93c 82d0 6cbb 0b9d e8bd
000000e0: 0762 e1bd e4c7 13bd 1162 a7bd a885 5ebd
000000f0: 73ff 24bd 9c29 c63b 045e 18bc 81d9 bcbd
00000100: 2d96 8d3c 110b 85bc 5805 eebd 19ed b9bc
00000110: bc5a c83d f4ac 373c 55b9 09bd 93eb 76bb
00000120: 0b53 c83c 6c37 eebd 1838 243d d7a8 f1bd
00000130: 29a8 8cbd 8fe2 fdbd f7b1 07be 1020 d2bd
00000140: d397 7b3d 9a38 bcbd ddea 873d 7f6d adbc
00000150: c68b 1e3d 6d10 babd da3a 98bd 9b8d 20bc
00000160: a896 743d 6a16 9b3c 7fd0 52bd 17ef a43d
00000170: 3d33 e73d a017 cc3b 7568 f9bd 4624 373c
00000180: 004c 6a3c 447b 243d d8a7 e6bd 1996 ae3b
00000190: d694 7c3d 4148 25bd 440a cd3d fb00 c3bd
000001a0: 03a9 b73d 3a59 50bd 6571 b23d d371 823c
000001b0: 1c58 dcbd 9666 033d 866c 723d df30 e23d
000001c0: 00a2 bcbd cd33 c53d 1eaf e43d fef3 e43d
000001d0: b982 c8bd 62d8 f13b 629e e23d ace2 493d
000001e0: d0ee 52bd 252d cebd 3ab0 563d 92f5 c1bd
000001f0: a0ef e03c d04e 8b3c bd7a ebba b1f4 89bd
00000200: c351 dd3d 3882 b23c 80ed bc3d 2119 e8bd
00000210: cb53 ed3c 00a2 9cbd b847 3f3d c2bc 873c
00000220: 2ab7 cebb e970 b53d e78d f13c 8a11 963d
00000230: d1d9 d0bd 53ef 653d bba0 f23c 7537 8ebd
00000240: 06cc 0f3e 8539 b93d 1139 50bd 80b3 06bd
00000250: 1ec4 f23c e0e0 8a3d 6a4c 143e ae1f 0bbd
00000260: 1957 933d 01c4 fc3d f6c9 bf3d 6716 773d
00000270: 772c 0a3e 33f1 043d 40e9 74bd de05 963d
00000280: 04d9 ed3b 924f 97bd 1532 95bb b967 3ebd
00000290: bddf 57bc 551b 4d3d 0fc5 343d 9d31 5f3d
000002a0: fc61 c03d d814 643d ec9b 143d 44b8 1bbc
000002b0: 73db b23d 0159 cfbd 27aa acbd 65c6 a33c
000002c0: 2b3b 953d d0c1 013c 8af9 e33d 3ec0 95bd
000002d0: a1f5 83bd fa39 01bd 920a 4dbd 3a4f 433c
000002e0: d955 08ba 9b72 16bd 4947 26bd aa18 6f3d
000002f0: dbb8 143d 0374 d93d b4b2 103d 88cb ed3d
00000300: aa1f 373d ad24 acbd 6b8b 8ebd 549d 34bd
00000310: 984a c0bc c3d8 603d 2df6 583d f565 443d
00000320: 7585 ccbc 903e c9bd 8d69 2e3d 7364 abbc
00000330: 8143 e43d 020a 76bc a21c 163d 3176 3c3d
00000340: db55 4bbd c162 7ebd 2de7 3a3d 111b e83c
00000350: 14d5 e0ba 8801 d03d f41c 073d cf19 bfbd
00000360: 53be d83d 9322 c83d 8340 d8bc 11c7 263e
00000370: 366f 0cbd daf4 913c 829d 223e bb47 b73d
00000380: 0dc3 9e3d 4ba3 0a3e 4139 febb acbb 87bd
00000390: 53b4 763d 98ad eb3d 1622 e93c 333b cc3c
000003a0: 3c82 a53c ecdb 2cbd de7b bb3d 96d0 c73d
000003b0: 2afa 29bd 5109 c73d 6af0 a2bd fc0a 7abd
000003c0: ee43 dc3d 6f2b e2bc 7b9c 823d 9350 23bc
000003d0: 0bb5 703d 25d6 b93c 65d0 3d3d 102a b63d
000003e0: 5a53 f03d 3101 5739 adf8 8fbc bcc2 5fbd
000003f0: 857a e13d ff02 a6bd 87ea 443c 42ba 47bd
0.037460398 -0.0594981 0.015671764 0.07330873 0.05956023 -0.01805938 -0.090478204 0.08381225
-0.09857075 -0.1317921 0.024423402 -0.09817215 0.14287357 0.050464284 0.11186822 0.048226163
-0.05974555 0.07329774 -0.05539858 0.09241106 -0.1229701 0.17477228 0.03502316 0.2074061
0.044114478 0.040878143 0.038113214 0.037739046 -0.008487012 -0.11744069 -0.052482646 -0.0049005966
0.10942522 0.0910089 0.085613765 -0.0644023 0.09682885 0.07126071 0.039791923 0.11219854
0.089638434 -0.03969005 0.014069363 0.047203474 -0.04898682 -0.03822947 -0.0144889485 -0.07222812
-0.03574275 -0.11256502 -0.040214755 -0.07442618 0.026659863 0.02070079 -0.0036135023 -0.113580786
-0.11005025 -0.036079302 -0.081730016 -0.054326683 -0.040282678 0.0060474407 -0.009299759 -0.09221173
0.017283523 -0.016240628 -0.11622113 -0.022696065 0.09782931 0.011210669 -0.033624012 -0.0037677034
0.02445366 -0.11631665 0.040092558 -0.11799782 -0.068680115 -0.12396728 -0.13251482 -0.10260022
0.061424088 -0.091904834 0.066365935 -0.021170376 0.038707517 -0.09085164 -0.074331 -0.009799386
0.05971399 0.018931586 -0.05146837 0.08053415 0.1128907 0.0062284023 -0.12178127 0.011178082
0.014300346 0.040156618 -0.112624824 0.0053279516 0.06166538 -0.04035211 0.10011724 -0.095216714
0.08967783 -0.050866343 0.087130345 0.015923416 -0.10758993 0.032080255 0.059185527 0.11044478
-0.092105865 0.09629021 0.111662135 0.1117935 -0.09790558 0.007380531 0.110653654 0.049288437
-0.05149728 -0.100672044 0.052414156 -0.09470667 0.027458012 0.017005354 -0.0017965656 -0.06736124
0.108066104 0.021790609 0.09224987 -0.11332918 0.02897062 -0.076480865 0.046699256 0.016569499
-0.006308456 0.088594265 0.02948661 0.07327564 -0.10197795 0.05613644 0.029617658 -0.06944171
0.14042673 0.09044174 -0.050835673 -0.03288603 0.029634532 0.06781173 0.14482275 -0.03396576
0.07194347 0.12342072 0.09364693 0.0603241 0.13493524 0.032456588 -0.059792757 0.07325338
0.0072585363 -0.07388224 -0.0045530894 -0.046485636 -0.013175902 0.050074894 0.044133242 0.054490674
0.09393689 0.05568394 0.03628151 -0.009504382 0.08733263 -0.10124398 -0.084308915 0.019992063
0.07286676 0.007919744 0.1113158 -0.07312058 -0.06443334 -0.03154943 -0.05005891 0.011920745
-0.00052007806 -0.03673039 -0.040595327 0.05837313 0.036309104 0.106178306 0.035326675 0.11611086
0.04470793 -0.08405433 -0.069601856 -0.044095352 -0.02347307 0.05489422 0.052969147 0.047948796
-0.024965981 -0.09826386 0.04258113 -0.020921921 0.11145688 -0.0150170345 0.0366484 0.046011154
-0.049642425 -0.062105898 0.045630623 0.028333219 -0.0017153346 0.10156542 0.032986596 -0.093310945
0.105831765 0.097722195 -0.02639795 0.16286875 -0.034285747 0.01781695 0.15880397 0.089492284
0.07752047 0.13538854 -0.00775829 -0.066275924 0.060230564 0.1150772 0.028458636 0.024930572
0.020203702 -0.04220192 0.09154485 0.097565815 -0.04149834 0.09718574 -0.079560116 -0.06104563
0.10755144 -0.027608601 0.063775025 -0.009967941 0.058766406 0.02268512 0.04634132 0.088947415
0.11734648 0.00020504442 -0.017574633 -0.054629073 0.11009697 -0.0810604 0.012018806 -0.048761614

job_fc1.bias f4 [64]
00000000: 1662 bc3c 64ec a33d f33b db3d 6566 e13d
00000010: 2ba7 a13d baad 02bd 978e a6bc 3ca1 5b3d
00000020: 2174 dfba 98ce 74bd 6250 b73d bb50 6abd
00000030: 942b ad3d dd85 bcbd b83a 15bd b0bd 98bd
00000040: 1a51 173d fe8e a23b 2ab0 033d 9f62 8bbd
00000050: 246b 873d d94e d03d 94a4 d0b7 0ae6 513d
00000060: 987b 23be 722a debd c13a a83d 3ef4 e93d
00000070: 3c13 37bd b6bc f3bc 6df8 eebc 0462 d43d
00000080: 5d84 543d 0eb9 a9bd 7894 903d 3af7 1d3e
00000090: d3d6 3d3d 640c c03d c75b 1d3d 92c7 0fbc
000000a0: 6f09 a93d 1360 01bc dd0e 1fbd 21db e6bc
000000b0: babc cbbc 6e4c 7dbc 6566 033e 8cb3 893d
000000c0: 34ac a03d a349 973c f82f 7e3d 369c c9bb
000000d0: 8f77 453d 1a48 913d f91c ad3d 2cc1 903d
000000e0: bc9c a3bb ce73 6b3b 4a34 78bb 5736 3cbc
000000f0: 5b1f 8f3d 2b2a bebd 00ec 383d 498b a43d
0.02299599 0.08004072 0.10704794 0.11005858 0.07893213 -0.03190396 -0.020331664 0.053620562
-0.0017048159 -0.059767336 0.08950879 -0.057205897 0.084555775 -0.0920522 -0.03643295 -0.07458055
0.03694258 0.0049608937 0.032150425 -0.0680592 0.06612232 0.10171289 -2.487217e-05 0.051244773
-0.15965116 -0.108479396 0.082143314 0.114235386 -0.044696078 -0.02975307 -0.029171193 0.103702575
0.051884044 -0.082872495 0.07059568 0.1542634 0.04634745 0.09377363 0.038417604 -0.008775609
0.082537524 -0.007896441 -0.038832534 -0.02818066 -0.024870265 -0.015460117 0.12832029 0.06723699
0.07845345 0.01846773 0.062057465 -0.006152655 0.048209723 0.070938304 0.08452792 0.070680946
-0.0049930494 0.003592718 -0.0037872964 -0.011487565 0.069884025 -0.09285387 0.045146942 0.08034379

job_fc2.weight f4 [32, 64]
00000000: a341 bfbd e9ff 45bd 9d08 943d 107d 2e3d
00000010: 09f2 5dbd 323a abbc a7c4 ba3d 8d80 39bd
00000020: 2812 cb3d 229a 893d 0cab df3d 39f2 983d
00000030: bfea 973d 0fc8 c23d 2ebc fb3c f71f 7abd
00000040: 9b65 5fbd f688 193d f437 04bd 5e5b eabc
00000050: c3e9 f63c 8d5e b0bc a6f3 adbd 196b 043c
00000060: a40e 023e bc24 00be ef01 d4bd ca2e ab3d
00000070: ebfb f43b 00b3 dabd 3948 9fbd cfbe 813c
00000080: 92fe 13bd a6fc 343e 1306 ddbc 2901 12bd
00000090: ef3f d93c b709 003d a739 e8bd f83d 0a3c
000000a0: fa34 a63d 9f43 99bd 1c53 8abd e7d1 053e
000000b0: 411f 613d 92c6 c93d bb4a efbc 203c f3bd
000000c0: c5c8 c5bb f8a6 f1bd 22ce 9e3d f22c 153d
000000d0: 2dd2 74bd bfce 29bd 1e96 a5bd bec0 1bbd
000000e0: 2e8d 19be 4dce 8abd 002c d3bd 5b97 dd3c
000000f0: 8068 9dbd c01e 873d 32b2 88bb 8921 a93d
00000100: 64fe bcbd 86c9 2abc 4104 f23d 414e 1b3e
00000110: 59f3 bf3c db43 b5ba 6f3d 3fbc 3395 a8bd
00000120: 85a3 0dbe 1009 163e 2b6f 213e 10a4 98bd
00000130: 20ca 5a3d af0d 693d 7123 003d 2491 aabd
00000140: 3f54 1539 f50a 9b3c dee1 d5bc d562 a938
00000150: 1376 2d3e eecd 213d c317 1c3e 22b1 e9bd
00000160: 9a2e 303e ff3c f2bd 0cde b9bc ec34 b4bd
00000170: 29e1 2b3e 01ea 0dbc 15c8 dabc af78 273e
00000180: 8535 64bc 77ad 82be a696 e7bc 83ec c9bb
00000190: 7fde 213e ce30 c93d 3f74 ad3c 230e 8dbd
000001a0: 5a5b c73d ea0a 94bd c552 023e e4cb f63d
000001b0: 9bf0 bd3d 6132 933c bf56 ed3d 4124 963d
000001c0: c3c0 053e 5aa2 c53c 72b2 32bc 8d3d 2b3e
000001d0: cfca cf3d 92c4 c03d 97ca 123e 74db 233e
000001e0: 80bd b6bd 6f98 f53d a999 003e 32ab 4b3d
000001f0: 0fcb 2abc 61dd 853d 6157 133e 5c07 1abd
00000200: 420a 7c3c 2f5e 00be b8d3 803d 5029 9abd
00000210: 486b 503d 8cd3 443c 0cc1 153d 0c81 873b
00000220: 4643 dabd 767e d83d 5259 873c bb14 b0bd
00000230: 779b 993c 84f1 e83d 163b e4bb be85 7fbd
00000240: 62f4 42bb 7b5f 8f3c d27b 8bbd bee3 2dbb
00000250: 1dc8 50bb 3175 c1bd a9f0 eebd 46e4 be3d
00000260: a4dd efbd f686 b23d 699f e93d 4b22 813d
00000270: 042e 20ba 3423 5a3d 8521 003e 5048 cabd
00000280: d333 7e3c a05c ad3d d9d6 d43d bef1 a93b
00000290: 4c1e 843d 4a3f 95bd 0d89 cabd 8c03 5dbc
000002a0: 426f de3c fd1e 043d 3f70 bcbd 9d3b 633d
000002b0: 44a2 c63d 1763 febd ad3f 103e 16d3 10bd
000002c0: f527 e43d 85d1 c1bd 0d03 903d 479e a13b
000002d0: ddf3 893d c1cd 09bd 1ad4 dc3d 9ead 613d
000002e0: 8df2 c53d 9938 8a3d 4946 983b cc44 67bc
000002f0: 97f7 61bd 7efb b3bc 3db8 473d 75a0 f8bd
00000300: 8ef0 4b3d 9453 ab3d a71f 373d 825a d9bd
00000310: 1fc1 693c d28f 00be b616 c9bd 3897 debd
00000320: 05e8 023c 0cc9 633d b05d d5bc c9e2 18be
00000330: 0026 b63c 9305 e03c 680d 95bd 64bf ba3b
00000340: c7de 75bd 401f c3bd 297c d4bd 71ad 0ebd
00000350: e4ad 96bd 6077 9abd 8dab 133d 0e9d 5b3c
00000360: 332c 45bd b017 c5bd 308f c23d 0999 523c
00000370: d54d 6abd bf42 883c 7645 1abe 5b73 e0bc
00000380: 4b88 b8bd d976 05be 40c9 7abd bee6 1ebe
00000390: 0a5e c2bc a2e6 c0bd 2db2 483d 6367 3fbd
000003a0: f5e3 a6bd b058 fabc e69e eebd d230 d5bd
000003b0: 738e 9bbd abd3 bebd f05c 2d3d 4808 febd
000003c0: 7c45 913d 9e23 09be b835 a33d b51e 87bd
000003d0: a4b4 48bd 3e74 f2bd 640c 60bd 78ea 043d
000003e0: 5ca5 c93d 77c2 9c3d ea9e cabb c4a1 9abd
000003f0: f6f5 053e c9a5 4ebc 983d 933c 8dbc a6bb
-0.09338691 -0.048339758 0.07228205 0.042599738 -0.0541859 -0.020901773 0.0911954 -0.04528861
0.099155724 0.067188516 0.109212965 0.07468075 0.07417821 0.095108144 0.03072938 -0.06106564
-0.054540258 0.03748413 -0.032279924 -0.02860802 0.030140763 -0.02152946 -0.08493738 0.008082175
0.12700897 -0.12514013 -0.10351931 0.08358534 0.00747632 -0.10678673 -0.07777447 0.015838055
-0.03613145 0.17674503 -0.026980435 -0.035645638 0.026519744 0.031259265 -0.11339121 0.008437626
0.08115573 -0.07483601 -0.06754133 0.13068353 0.054961447 0.098523274 -0.029210439 -0.11876702
-0.0060358965 -0.11799425 0.077541605 0.036419816 -0.05977075 -0.041456934 -0.08085273 -0.03802561
-0.14995262 -0.0677763 -0.10311127 0.027049711 -0.076859474 0.06597662 -0.004171633 0.082583494
-0.09228209 -0.0104240235 0.118172176 0.1516657 0.023431467 -0.0013829427 -0.011672362 -0.082315825
-0.13831909 0.14651895 0.15765063 -0.074531674 0.053415418 0.056897815 0.0312838 -0.083284646
0.00014241131 0.018926123 -0.026108678 8.076957e-05 0.16939573 0.03950303 0.1524344 -0.114107385
0.17205277 -0.1182804 -0.022688888 -0.087991565 0.1678511 -0.008661748 -0.026706735 0.16354631
-0.013928776 -0.25522968 -0.028270077 -0.0061622276 0.15807532 0.09823762 0.021173595 -0.06887462
0.09734221 -0.07228644 0.12726887 0.12050608 0.092744075 0.017968358 0.11588811 0.07331134
0.13061814 0.024125267 -0.0109068025 0.16722699 0.101461045 0.09412493 0.14335094 0.16001683
-0.08922863 0.11991965 0.12558617 0.04972381 -0.0104243895 0.06536365 0.14388801 -0.037604675
0.015383305 -0.12535928 0.06290382 -0.07527411 0.05088356 0.012013327 0.036561057 0.0041352566
-0.10657363 0.105709955 0.016522083 -0.08597704 0.01875089 0.113741904 -0.0069650514 -0.062383406
-0.0029747714 0.017501583 -0.06810726 -0.002653345 -0.0031857558 -0.094461806 -0.11666996 0.093208835
-0.117121965 0.08717148 0.11407358 0.06305369 -0.00061103725 0.05325623 0.12512787 -0.09877074
0.015515286 0.084649324 0.103925414 0.0051862886 0.06451091 -0.07287462 -0.098894216 -0.013489615
0.027152661 0.032256115 -0.09201097 0.055476774 0.096989185 -0.12421244 0.1408679 -0.035357557
0.11140434 -0.09463791 0.07031832 0.004932198 0.06735966 -0.033643488 0.10782643 0.055097215
0.096654035 0.067490764 0.0046470505 -0.014115524 -0.05516776 -0.021970507 0.048759688 -0.1213998
0.049789958 0.08365551 0.04470792 -0.10612966 0.014267235 -0.12554863 -0.09818785 -0.108686864
0.007989888 0.055611655 -0.02604565 -0.14930262 0.022234917 0.027346408 -0.07277948 0.005699085
-0.06002691 -0.09527445 -0.10375244 -0.034833375 -0.07357386 -0.075423 0.036052275 0.013404144
-0.048137855 -0.09623659 0.09499967 0.012853869 -0.057203133 0.01663339 -0.1506556 -0.027398756
-0.09010371 -0.13033618 -0.061227083 -0.15517709 -0.023726482 -0.0941899 0.048998047 -0.046729457
-0.08148948 -0.030559868 -0.11651401 -0.10409702 -0.075955294 -0.09317716 0.04232496 -0.12403923
0.07093331 -0.13392493 0.079692304 -0.06597654 -0.049000397 -0.11838578 -0.054699317 0.03245017
0.09845993 0.07654279 -0.006183495 -0.075503856 0.13082108 -0.012612768 0.017973706 -0.005088395

job_fc2.bias f4 [32]
00000000: 24ff 1e3d 6748 b43d 51c0 603c b7fa 35bd
00000010: 084a abbd 76cb b53d 08a5 eb3d 8854 443d
00000020: c5f0 f0bb 9995 34bd aad1 c4bc 14e4 95bd
00000030: cfe9 a63d cc36 ad3d 8059 193e 389d cabd
00000040: 97d0 033e 71c0 d1bc b4b0 fa3d 2eed cb3d
00000050: 5926 c6bd 165a dc3d e8ff 203e 3dc1 e9bd
00000060: d0e7 c03d b726 a83d d858 123e be26 a43d
00000070: aac5 ddbc 84a9 63bd f0e3 9b3d 52c5 abbc
0.03881754 0.08802872 0.013717727 -0.044428553 -0.0836373 0.08876698 0.115060866 0.047932178
-0.0073529207 -0.04408798 -0.024025757 -0.07318893 0.08150064 0.08457717 0.14975548 -0.09893268
0.1287254 -0.025604459 0.12240735 0.09957348 -0.09675283 0.1075937 0.1572262 -0.114138104
0.09419215 0.08210509 0.14291704 0.08015202 -0.027071793 -0.055581585 0.07611835 -0.020968113

machine_fc.weight f4 [32, 5]
00000000: b8f0 debd 91dc ba3d 4228 da3d d629 0e3e
00000010: 9315 dcbe 7f06 e9be 82a0 c5bc d998 9cbe
00000020: 2c8f bb3e d8b7 7bbe 7708 47be 8481 133e
00000030: 4f8d 7d3d b2b1 65be da05 6abd 219b 693e
00000040: eb79 bb3e 42b0 99bd ce7d 27be a469 033c
00000050: 7c5a e63d 5836 983e 7242 cabe 4728 18be
00000060: eebf bd3e 4499 2c3d d688 53be 6aaa cebe
00000070: 3303 103e be45 be3e fc8d 663e 7c5a bdbe
00000080: 6ef6 9abe a5e2 13bd 4379 d83e 2884 a3be
00000090: 4c3d 52bd 3a8b cdbe b9e3 623e f953 bbbd
000000a0: 5e51 693e a849 4c3e 322c 943e a105 273e
000000b0: 4a5f b9bd 5308 c63e 0e5a c83e 5c1a 0bbe
000000c0: 3588 40be 0f7c d5be 505d ae3e c680 50be
000000d0: e5ee d53d bc84 88bc fdc7 ac3e 14cd 0c3d
000000e0: f614 9f3e 840b 94be 40bd b53d 8b0c a53e
000000f0: 5bf6 d8bd d1b0 eb3e 28fa 883e 1197 d13d
00000100: 180c 85bd 2d37 6e3e 2bff c33d 42bb db3e
00000110: ba2f bfbe 29da 2a3d 1ddc 633d 6603 98be
00000120: 1c88 c0be 61c9 863d 6a28 443e 67e2 75bd
00000130: e8b3 8bbe e947 2b3e 7305 c7be 57bb 913d
00000140: 9a68 743e 13e2 71be 8604 87bd af81 883e
00000150: 1a84 51be a0ef c5be b94a 983e 882d 27be
00000160: 895b 2ebe 7b03 5e3b 3ecc c5be 495c b5be
00000170: 3546 d23c c66f 17be aece e43e 46a6 d03e
00000180: 9c56 043e e88f 4fbc 7173 ab3d b8ca d83e
00000190: 1776 39be c8fe db3d 30a3 a6be 4909 91be
000001a0: 5ef4 dabe af6e d4be 1697 703e e509 9dbe
000001b0: 49f9 233e 955b 913d 382d 573e 1250 e8ba
000001c0: b3f3 53be a27e 93bd 3395 ccbe 4a50 8bbe
000001d0: f244 2d3e e32c 633e 9afa 1dbe f1d9 a63e
000001e0: d5b2 bbbe 513d bebe 00bc d83c 930d 233c
000001f0: 4c24 9a3e c01c d43e 981d 3ebd a7e2 863e
00000200: ee15 b93e 8a53 4a3e f1ec 7b3e 8479 18be
00000210: fff5 dbbe f509 78be d9e0 07be b082 9ebe
00000220: 5d38 0fbe a7a4 443d a4d9 573e df1b ddbe
00000230: ad62 2e3e 3292 b33e 9549 b93e 8461 a9be
00000240: f3c9 483e 1579 22be dac8 3b3d 119b 99be
00000250: 6a0a 473e 1caa 8e3e d8c1 27bd 9720 3bbd
00000260: 45e1 b33e 3ae0 2b3d a94b f3bc 4bd7 27be
00000270: fa27 0fbe 97fa b23e 5d3b d73e d755 763e
-0.10885757 0.09124101 0.1065221 0.13883147 -0.4298521 -0.4551277 -0.024124388 -0.30585364
0.3663267 -0.2458185 -0.19436823 0.14404875 0.06190234 -0.22431067 -0.057134487 0.22813083
0.36616454 -0.07504322 -0.16356584 0.008020792 0.11247727 0.2972896 -0.3950382 -0.14859115
0.37060493 0.042138353 -0.20657668 -0.4036439 0.1406372 0.37162584 0.225151 -0.36983097
-0.30266136 -0.036104817 0.42280015 -0.31936765 -0.05132799 -0.40145284 0.22157182 -0.09146876
0.22784945 0.19949973 0.28939968 0.16310741 -0.09051378 0.38678226 0.39131206 -0.13584274
-0.18801959 -0.41696212 0.34055567 -0.20361623 0.10445956 -0.016664855 0.3374633 0.034375265
0.3107068 -0.28915036 0.08873987 0.32236132 -0.105938636 0.46033338 0.26753354 0.10233892
-0.06496447 0.23263235 0.09570154 0.42916304 -0.373411 0.04171196 0.05562984 -0.29690093
-0.37603843 0.06581379 0.19156042 -0.060030367 -0.27285695 0.1672665 -0.38871345 0.0711581
0.23868027 -0.23621397 -0.0659266 0.2666144 -0.20460549 -0.38659382 0.2974451 -0.16325963
-0.17027105 0.0033876586 -0.38632387 -0.3542197 0.025668243 -0.14788732 0.44688934 0.40751857
0.12923664 -0.012668587 0.08371628 0.42342162 -0.18111454 0.10741955 -0.32546377 -0.28327397
-0.42764562 -0.41490695 0.23495135 -0.3067161 0.16013063 0.07097546 0.21013343 -0.0017724058
-0.20698433 -0.07201888 -0.3995758 -0.27209693 0.16920832 0.22185092 -0.15427628 0.3258815
-0.36659876 -0.37156156 0.026456833 0.009951967 0.30105817 0.41428185 -0.04641494 0.26344797
0.36149544 0.1975843 0.24602105 -0.14890105 -0.42961118 -0.24222548 -0.13269366 -0.30959082
-0.13986345 0.048008587 0.21079117 -0.43185326 0.1702983 0.35072476 0.3618895 -0.3308221
0.19608288 -0.15866502 0.045845844 -0.3000112 0.19437566 0.27864158 -0.04095635 -0.045685377
0.35132805 0.041961886 -0.029699164 -0.16390721 -0.13980094 0.3495681 0.42037478 0.24056183

machine_fc.bias f4 [32]
00000000: d4f9 ce3e 5f5f afbe d76d 10bd 36b0 15be
00000010: 9f20 e93e 0b28 a43d e163 c43b 4f76 95be
00000020: ae63 a53e 83ff 63bd dbb0 6f3e 5b5e 663e
00000030: 11ad 74be 7a75 7bbe de9d 8f3e 539c 20be
00000040: f1ac 73be d039 f33e 8d3b b7be cb49 e7be
00000050: 04c7 ea3e 512a bbbe 13d2 0fbe deb1 c13e
00000060: 3668 843d 824d 3ebe 0900 643d b9b7 79be
00000070: 5ae7 023e 500a 413c 295c be3e 7590 213e
0.4042498 -0.3425245 -0.035261 -0.14618 0.455327 0.0801545 0.005993352 -0.29191825
0.32302612 -0.055663597 0.23407309 0.22496931 -0.23894145 -0.24556533 0.2805013 -0.15684633
-0.2379644 0.47505045 -0.3578762 -0.45173487 0.45854962 -0.36555722 -0.1404498 0.37831014
0.06465189 -0.18584254 0.055664096 -0.24386491 0.12783566 0.011782244 0.37179688 0.15777762

on_job_attn.in_proj_weight f4 [96, 32]
00000000: e06e 3bbe 6c5b f53c eb04 143e fc7a 233e
00000010: 78a7 47bd c3ea 3f3e ee9b 1f3d bd4e d83d
00000020: cc77 30be 1294 44be 8159 713d 832e 203e
00000030: e2c6 363e d6aa 8fbd 66fd 5ebe e68e fe3d
00000040: a670 033e cc4f 193e ac08 413e a5c5 363e
00000050: e285 2e3e c102 5dbd 4d9e a8bd 755c b83d
00000060: 1b6f 803d b22d 243e 16f3 94bb 9711 f2bd
00000070: 702f 2c3e 3573 aabb 4808 1a3e af10 923d
00000080: 375c 0abd bb5c cdbd 3fb0 eabb 23a9 2d3d
00000090: e420 23be c65b 523d 0a50 efbc 8fcd 48be
000000a0: f89b 93bc abe2 5d3e d8ae 90bd 6adf 04be
000000b0: 894d 08bd f223 f3bd e601 22be 3ed0 c5bd
000000c0: a0b7 0abe 8d64 e63c b667 963d eef3 df3d
000000d0: c1e2 f23d 1c21 84bc 6673 d13d 157b fa3d
000000e0: ba7d 3bbe 67bc 4abe f3e3 293e 1040 52be
000000f0: 3061 323e 03ec 493e dd2c 193e 5e87 37be
00000100: d870 933d cc9a 363e 6788 e3bd 929a 583d
00000110: f307 7cbd cc58 9abb 7889 54be 4f53 fb3d
00000120: 930b 323e a4ca a93d c1b0 463c 208c d73d
00000130: 8d79 bcbc d43e 7f3d 3dde 21be 995d 0f3e
00000140: ba53 0fbe 809a 54be 0c9d 443e 9b7f 9d3d
00000150: 7c24 8fbc 0599 35be f479 013e ffdd 1cbe
00000160: 4039 da3c 8b7a 483c 326b 5cbe 028b 54be
00000170: 1aac eb3b 818e 1c3d 0255 4d3e 61fa 333e
00000180: 8262 773c 5521 0b3e 038a d53d 4beb 43bd
00000190: 6f83 1fbe b754 31be a2c7 d4bc 4f71 e2bc
000001a0: 4b05 263e 2454 febd 4ea1 d438 b7b5 c13d
000001b0: 7b17 41be a4f4 433e 8a34 843c 57b3 bebd
000001c0: ad5b 243e 16d4 393d 227b 623e c109 3dbe
000001d0: 4f56 3e3e cf0e 3ebe 254e 16be 0d0c dbbc
000001e0: feb1 d1bd 8b95 b33d 8c1d 49be 60af c53a
000001f0: a24a 47bd 2a93 8abd 8ee6 11be 1d6b b4bd
00000200: 6d1e 193c 208a c53c 13c6 14be 0504 ddbd
00000210: a8b9 50be f87a 01bd e4c3 ad3c 0ef8 2cbd
00000220: 3414 7e3c f33a 53be 1e8a 5d3c a9d0 103e
00000230: 2b61 5b3d a742 033e 85a7 bebd e51f e83c
00000240: 9555 c4bd 7434 f6bd 9651 d83d 1641 55be
00000250: 99d9 513e 9c1e bbbd 7034 7ebd 676d ad3c
00000260: 2a83 1abe 199a a0bd 8fcc f73d 3ec0 34bd
00000270: febd 83bb b0bb 27be ef84 a03d 2bac e83d
00000280: 9368 d83d 1d5e 283d 3e19 febd b7a0 9f3d
00000290: 18b4 1b3e 17ea 563d 1e79 6abd 696d fe3c
000002a0: 9777 233e 4897 26be 22f6 5d3e cdfc 0ebd
000002b0: f956 153e 7df5 393d 8810 f7bd d55c 2dbe
000002c0: 9fe1 abbb 73a9 54be c246 4f3e 5dd6 7c3d
000002d0: 917d 5f3b 1eb7 cf3c 34ab 03be d90a ecbd
000002e0: ab9d afbd ebe1 fbbd f6a9 6dbc b545 49be
000002f0: 2df4 1d3d f495 f7bd 165a c4bd a1ae 33be
00000300: 4bd5 e23b c209 12bb 573e 03bd 4568 54bc
00000310: fe89 9e3c 8010 e1bd 4368 3a3e b6fe 5f3e
00000320: 0ba2 3ebe 0d54 db3c 340d 28be c69b 09be
00000330: 4a11 423d 3833 02bd ed0d 193e 6ecc c33d
00000340: 9f08 273e 4fe7 1ebd 8ae1 98bb 5628 b3bc
00000350: e6c8 463e 9955 893c a382 3dbd e591 083d
00000360: e8e8 81bb 34ca 08be 8fd4 693e f59e e23c
00000370: 873e e03d fbad 5dbe a8fa 68bd 41b2 09bd
00000380: a9c4 97bc e230 b0bd db18 f8bd e428 5cbd
00000390: 0b0a 33bd 9d52 503d d48a 153e ea52 5bbe
000003a0: 75e8 483d 679e f33d 6e43 50be ea09 f0bb
000003b0: 7d7c 4dbe 4943 9b3d 67f8 063e c15d 903d
000003c0: 372a 52bd 360d 65bd e7b6 143e 1ed1 9b3d
000003d0: 9260 e0bd 655e 533e 5f1a cc3d b466 fd3d
000003e0: 676a ad3d 4f17 643d 2e25 cf3d 2f28 20be
000003f0: 7756 f33d 88a2 c3bd 2175 45be 9780 ad3d
-0.18304014 0.02995082 0.14455001 0.15964884 -0.048743695 0.18741898 0.038967066 0.10561893
-0.17233199 -0.1919711 0.05892325 0.15642743 0.17849305 -0.07015006 -0.21776351 0.124295995
0.1283594 0.14971846 0.18850964 0.17848833 0.1704326 -0.053957704 -0.082333185 0.0900201
0.06271192 0.16033056 -0.0045455797 -0.11819761 0.16814971 -0.005201722 0.15042222 0.071320884
-0.03377935 -0.100274526 -0.0071621235 0.04239763 -0.15930516 0.051357053 -0.02921297 -0.19609664
-0.018018708 0.21668498 -0.07064599 -0.1297585 -0.03327707 -0.118720904 -0.15821037 -0.0965886
-0.1354661 0.028124118 0.07344 0.10935198 0.11859656 -0.016129069 0.10227089 0.12230507
-0.1830968 -0.19798432 0.16590862 -0.2053225 0.17419887 0.19718938 0.1495852 -0.17922732
0.071992576 0.17832488 -0.11110001 0.052881785 -0.06153102 -0.0047102924 -0.20755565 0.12271749
0.17387228 0.08290604 0.012127102 0.105247736 -0.023007179 0.062315777 -0.15807433 0.14000548
-0.13996783 -0.20762062 0.19200534 0.076903544 -0.017473452 -0.17734154 0.12644178 -0.1531906
0.026638627 0.012236248 -0.21525267 -0.20756152 0.007192147 0.03822184 0.20051959 0.1757598
0.01509917 0.13586934 0.10426714 -0.047831815 -0.15577482 -0.17317472 -0.025974099 -0.02764192
0.16212957 -0.12418392 0.00010138993 0.094584875 -0.18856613 0.19136292 0.016138334 -0.0931155
0.16050597 0.045368277 0.22117284 -0.18460752 0.18587612 -0.18560337 -0.14678247 -0.026739145
-0.102390274 0.087687574 -0.19640177 0.0015082173 -0.04865516 -0.067663506 -0.14248106 -0.08809493
0.009345633 0.024113715 -0.14528684 -0.10791782 -0.20383322 -0.031611413 0.021211572 -0.04222875
0.0155077465 -0.20627956 0.013521699 0.14142098 0.053559463 0.12818395 -0.093092956 0.028335521
-0.09586636 -0.120217234 0.10562436 -0.2082561 0.20493163 -0.09136698 -0.062061727 0.021170331
-0.15089098 -0.07841892 0.12099563 -0.04412865 -0.0040204516 -0.16380191 0.07837855 0.113609634
0.10566821 0.04110538 -0.12407158 0.07794326 0.15205419 0.05246934 -0.057244413 0.03105803
0.15963589 -0.16268647 0.21675923 -0.03490906 0.14583959 0.04540013 -0.120637 -0.16929944
-0.005245402 -0.20767765 0.20241836 0.06172787 0.0034101943 0.025355872 -0.12858278 -0.115255065
-0.08574995 -0.1229895 -0.014505854 -0.19655497 0.038562942 -0.12089148 -0.09587495 -0.17547084
0.006922399 -0.0022283648 -0.032041874 -0.012964313 0.01935291 -0.10989475 0.18203835 0.21874508
-0.18616502 0.026773477 -0.16411287 -0.13438329 0.04737977 -0.031787127 0.14946719 0.09560476
0.16311882 -0.03879481 -0.004665558 -0.02186982 0.19412574 0.016764449 -0.046267163 0.03334226
-0.003964532 -0.13358384 0.22834991 0.027663687 0.10949426 -0.216484 -0.05687967 -0.03361726
-0.018526392 -0.08603074 -0.12114116 -0.053749934 -0.04371075 0.050860036 0.1460374 -0.21418348
0.049049813 0.11895447 -0.20338222 -0.0073254006 -0.2006702 0.07581193 0.13180695 0.07049132
-0.05130979 -0.055920802 0.14522897 0.07608245 -0.10955919 0.20641477 0.099659674 0.12373105
0.0846756 0.05568629 0.10114513 -0.15640329 0.11881726 -0.09552485 -0.19282962 0.08471792

on_job_attn.in_proj_bias f4 [96]
00000000: 63ad 22bc b2d1 eaba 82bc 10bc e636 c83b
00000010: 810d b6bb 5691 1c3c 4778 553c fe0e 0cbc
00000020: 6126 ffbb 1968 333c ac1f ec3b c11b a4bb
00000030: c6ab 0ebc 7995 133c eda4 ccbb 4aeb 65bc
00000040: 5d4d 303d 0c83 413d c2c7 363d 266a 473d
00000050: 8d72 79bc 7984 803d 7e2d 5cbd 6697 30bd
00000060: 9b9b 09bd 35d5 1c3d 963b 433d 3626 90bc
00000070: 72d5 24bd 4615 58bd ac9c b8bc c448 603d
00000080: ed82 723a 7955 3739 9d85 94ba 628b 04bb
00000090: 5a4b 13ba 817b 3cb9 5111 9aba eb41 daba
000000a0: 2a4e c23b 95b6 0fbb 1975 cf3a 9b62 c83a
000000b0: 81c3 5a3b 62f6 b3b9 cbe3 b23a f1e0 4eba
000000c0: 76d9 31bd 3bd2 30bd b04b 24bd 7f6e 33bd
000000d0: cbc0 243d 2a53 2dbd ad74 2d3d 9bb9 2d3d
000000e0: 9ac8 303d a9af 28bd c9ba 2cbd 4ad4 0bbd
000000f0: c02d 2a3d f37f 303d f1e1 07bd 802f 30bd
00000100: 01d8 f1bb 6edd c43b 3d97 d7bc 2ea3 223a
00000110: 2c41 753c d879 cfbc e501 a83c f2a4 b03b
00000120: 5de6 383d b438 ae3b 5781 ad3c afbe 3d3c
00000130: df8e c7bc 335e 343c ab11 85bc a894 c43b
00000140: dc16 19bb faaa 1c3c 059e 873c 8181 b3ba
00000150: b260 213d d7b9 993b a676 833c 2b7c ad3c
00000160: 7507 2abd e0bf a63c c3dd 283b d4f8 2cbd
00000170: 4bf8 40bd a7fc 2e3c 0988 d13b 8f32 c4bc
-0.009929034 -0.0017915277 -0.008834006 0.00611006 -0.005555809 0.009556135 0.013029165 -0.008548496
-0.0077865575 0.010950112 0.007205924 -0.0050081913 -0.008707946 0.009007805 -0.0062452466 -0.014033148
0.04304253 0.047244117 0.044624098 0.048685215 -0.015225065 0.06275267 -0.053754322 -0.043113135
-0.033595663 0.038289268 0.047664247 -0.017596345 -0.04024262 -0.052754663 -0.022535644 0.054756895
0.0009251077 0.00017484081 -0.0011331324 -0.002022468 -0.0005618833 -0.00017975086 -0.0011754428 -0.0016651725
0.005929728 -0.0021928896 0.0015827745 0.0015288176 0.003338069 -0.0003432511 0.001364821 -0.0007891795
-0.043420278 -0.04316924 -0.040111244 -0.04380655 0.040222924 -0.04231564 0.0423476 0.042413335
0.04316006 -0.041183148 -0.04217032 -0.034138 0.041547537 0.043090772 -0.03317446 -0.04301405
-0.007380486 0.006007842 -0.026317233 0.0006204125 0.0149691515 -0.025326654 0.020508716 0.0053907568
0.045141567 0.005316818 0.021179838 0.011581107 -0.024360118 0.011008787 -0.016243776 0.0059991665
-0.0023359573 0.009562248 0.016554842 -0.0013695211 0.039398856 0.0046913433 0.016047787 0.021177372
-0.041511018 0.020355165 0.0025766946 -0.04222949 -0.04711179 0.010680354 0.0063943905 -0.02394989

on_job_attn.out_proj.weight f4 [32, 32]
00000000: deaf 503d 26a1 aebd 56d7 3bbe 0cf7 173d
00000010: 902f 0d3e c058 693c 7de6 bebd b51f cf3c
00000020: c94e 8cbd a180 14be 64c2 d9bd b2b8 613d
00000030: 0a49 ec3c c66a ef3d e833 31be e13f 8e3a
00000040: d89e 17be 84ae 17be cee3 31bd 2ad2 9b3d
00000050: 432d 233e 88f9 b3bb 04b5 b93d 4e6a 0bbd
00000060: 74f4 0cbe bcc5 833c bb3d f63c 7689 57bd
00000070: 08fa 1d3e c6fb 14bd ea6c ed3d 3c9e 17be
00000080: c3a5 593e 8d89 4dbd 0a00 47be f209 f93d
00000090: 2464 413e 9490 c73c cb10 133e 23ce 173e
000000a0: 465f e1bd d8ad 243e 7d35 e23d 8946 0ebd
000000b0: 074a ea3d 944b 40be 37c8 da3d 4955 09be
000000c0: 1058 143e 3ab9 573d 97c3 0bbe 0e89 0abd
000000d0: aeaf 75bd f0eb e4bb a694 843d 0038 2a3d
000000e0: 9fbb 8d3c 54a1 efbd 3531 a3bd 1e54 4cbd
000000f0: 4f33 c9bd 12ca b0bd 956a 013d 4f0b 1a3e
00000100: 14e2 14bc 2a21 7cbc 0fda 2fbe 1686 b5bd
00000110: 7d0d f6bc 83af 243e a364 7dbd d4b3 043e
00000120: 5851 8cbd b8e8 d1bd 802a a43c 4120 a9bd
00000130: 80ed a7bd b3a7 c4bd 8717 18be f42d 01be
00000140: 0903 e6bc 303c f9bd 44f7 7a3d e39c 253d
00000150: 5006 26be 77c9 b2bd a725 63bd 5d77 a83d
00000160: 137c 163e f5a4 2ebe 23f2 083e d562 2b3e
00000170: bb89 e8bd a3db e73c 560d 1c3e 3ce6 203d
00000180: 6a9f d93d be35 2ebe bf4f 58bb 4212 22be
00000190: 779a ce3d 2dfd 063e 9659 eebd 152f a0bd
000001a0: a502 103d 90d2 c9bd 1346 1bbe cc03 883d
000001b0: a1fb c63c 86c7 953c 5756 d33d e134 233d
000001c0: 7d04 503d dcba 32bd 3133 353d ad04 fd3d
000001d0: f3cd 78bd c109 08bd 5166 0b3e 6efb 2bbe
000001e0: 97a5 103e c088 40bd 4794 dc3d 5478 2abc
000001f0: 3126 a03d 5400 49bc c4a7 6c3d 37c6 143d
00000200: 48f3 133d 724b 1b3d ff2e 073d 11d1 1fbe
00000210: f003 9cbd 7737 233e 3423 033d 9791 c63d
00000220: c717 0cbe 57d3 e2bd 8655 613d e512 b9bd
00000230: de01 c5bd d859 5c3d f099 0fbe 9eab 503d
00000240: c848 3d3d 493b 1e3e 320e 17bd c3aa 9e3d
00000250: 864d 06be 32b4 dabd d47a 25be d552 933d
00000260: 7399 08bc ba62 a83d ca65 66bc 4792 253e
00000270: 5164 62bb 16f0 3abe cac4 0ebd d4a7 803c
00000280: 82e0 09bd 0834 7b3d f86a e33d c830 06bd
00000290: aa00 12bd 7803 68bd b4f1 fa3d d41d 22bd
000002a0: bf2b 1e3e 6aab e73b f300 0b3e cc49 0ebe
000002b0: 439f 153c 3f1b c73c e903 3ebe e781 bd3d
000002c0: bbad 3fbe aec8 1f3e daba 283e f8a6 04be
000002d0: 4b09 a33d 55df 9ebd ca3c e1bc 1d30 b1bd
000002e0: 2f46 bd3d 255a 303e fb36 0d3e ab83 513a
000002f0: 7033 22be c049 0bbd 61c5 a13d 1371 45be
00000300: a610 0ebe 548e 08be 62da 31be da24 0d3d
00000310: 3746 9c3a 17aa 8fbd eabb 153e 80e1 f2bd
00000320: 1d2d 333e 5d3b 113e 1517 a43c 19a6 c43d
00000330: f57c 16bd 0b26 26be b504 d3bd d24e 003d
00000340: defd 8ebd 2a99 d4bd 795f c33d 7f06 10be
00000350: 22ff 11be 2009 113e 6de6 dc3b 823c afbc
00000360: 8a1f 32bd 3f36 ee3d 4cb5 953d 39a6 a63d
00000370: 1790 9dbd f1ad 2f3e 5b47 fa3c 1d47 a53d
00000380: 70f9 cb3c aaf1 a13c 4d15 a7bd 7bca 54bd
00000390: ee49 5fbd e63f 103c d9ce 02be 3254 a3bd
000003a0: bd51 0f3e 74c7 a43d c14f 053e 7ab6 f53d
000003b0: 1bab 19be ce93 2e3d f8be 46bd 2187 b6bd
000003c0: b9f6 99bd 2751 6a3b b2a0 913d c0cd 6f3d
000003d0: b440 ae3d 20f2 3c3e ee46 8abd ea47 253e
000003e0: 1599 febd 7497 883d 65c6 403e 01f1 e33d
000003f0: bb27 2ebe a654 ea3d 685f 44be 379c 82bd
0.05094897 -0.085268304 -0.18343863 0.037100837 0.13787675 0.014242351 -0.09321306 0.025283674
-0.068509646 -0.14502193 -0.1063278 0.05510778 0.028843421 0.11690287 -0.17304957 0.0010852778
-0.14806688 -0.14812666 -0.043430142 0.07608445 0.15935235 -0.005492393 0.09067729 -0.034036927
-0.13765126 0.016085498 0.030058732 -0.052621327 0.1542741 -0.036372922 0.11593039 -0.14806455
0.2125464 -0.050180007 -0.19433609 0.121601 0.18885857 0.024360932 0.14361875 0.14824729
-0.110045 0.16081941 0.11045358 -0.034735236 0.11439901 -0.18778831 0.10682719 -0.1341144
0.14486718 0.05266688 -0.1364883 -0.03382211 -0.059981994 -0.0069861338 0.06473665 0.041557312
0.017301379 -0.11700693 -0.0796837 -0.049884908 -0.098242395 -0.08632292 0.031595785 0.15043376
-0.009087104 -0.015388766 -0.17173027 -0.088634655 -0.030035729 0.16082577 -0.061863553 0.12959224
-0.068514526 -0.10249466 0.020039797 -0.08258105 -0.081995964 -0.096022986 -0.14852725 -0.12615186
-0.02807762 -0.12169683 0.061270967 0.040432822 -0.16213346 -0.087298326 -0.05545583 0.08225892
0.14695768 -0.17055114 0.13373618 0.1673692 -0.11354395 0.028302973 0.15239462 0.03928207
0.10626109 -0.17012689 -0.0033006517 -0.15827277 0.100880556 0.13182516 -0.11638181 -0.0782148
0.035158772 -0.09854615 -0.1516345 0.06641349 0.024289908 0.018283617 0.103192024 0.03984535
0.05078553 -0.043635234 0.044238273 0.123544075 -0.060743283 -0.033212427 0.1361325 -0.16795132
0.14125668 -0.047005415 0.10770469 -0.010404665 0.078197844 -0.012268145 0.05777718 0.036321845
0.036120683 0.037913747 0.033003803 -0.15607096 -0.076179385 0.15939127 0.032015994 0.09695738
-0.13680945 -0.11075466 0.055013202 -0.09036807 -0.09619497 0.05379662 -0.14023566 0.050944917
0.046211988 0.15452303 -0.036878772 0.07747414 -0.1311551 -0.10678901 -0.16160136 0.07193533
-0.008337366 0.082219556 -0.014062354 0.16169082 -0.0034544657 -0.18255648 -0.03485564 0.015705027
-0.033661373 0.061328918 0.11104387 -0.032761365 -0.035645165 -0.056643933 0.122531325 -0.039579228
0.15446375 0.0070699947 0.13574581 -0.13895339 0.009132209 0.024304984 -0.18556179 0.092532925
-0.18718617 0.15603897 0.16477528 -0.12954319 0.07960757 -0.07757441 -0.027494807 -0.08651755
0.09241902 0.17221887 0.13790505 0.00079923373 -0.15839934 -0.03400588 0.07898975 -0.19281416
-0.13873538 -0.13335544 -0.17368463 0.034458973 0.0011922781 -0.07014864 0.14622465 -0.11859417
0.17497678 0.14182802 0.020030538 0.09601993 -0.036740262 -0.1622545 -0.10303632 0.03132517
-0.06982015 -0.10380776 0.09539694 -0.14064978 -0.14257482 0.14163637 0.006741336 -0.021391157
-0.04348711 0.1163144 0.0730997 0.08137173 -0.076934986 0.17156197 0.030551603 0.080702044
0.024899215 0.019768555 -0.0815836 -0.051950913 -0.054513864 0.008804297 -0.12774219 -0.07975043
0.13996024 0.08045855 0.13018705 0.11997695 -0.15006678 0.042621426 -0.048521966 -0.089124925
-0.07517762 0.0035753937 0.07110728 0.058545828 0.08508435 0.18451738 -0.0675181 0.16140714
-0.12431542 0.066695124 0.18825682 0.11129952 -0.17007343 0.11441927 -0.1917702 -0.06377452

on_job_attn.out_proj.bias f4 [32]
00000000: 8218 543c 572d d63c 3ec3 583a d089 84bc
00000010: d811 8abc ae0a 413d f763 703c 3f92 9c3c
00000020: 3284 693c 0ddb 2e3b cb23 a83c 5465 b2bc
00000030: 513a 69ba da86 e13c 0526 283c 50e8 a1b9
00000040: d4fe cb3c df21 b2bc 1139 ba3c 5c0d 003d
00000050: 86ca cbbc 32a2 9c3c caf2 813c 2122 983b
00000060: ce60 e9bb b1ad 363d 028d 8f3c fc2b ed3b
00000070: e8a2 0ebc 3c06 0b3d 2e9e 843b 28e4 193c
0.012945296 0.026144667 0.00082688394 -0.016178995 -0.016854212 0.047129326 0.014672271 0.019112704
0.014252709 0.0026680857 0.02052488 -0.021776833 -0.00088969345 0.027530123 0.010262971 -0.000308814
0.024901785 -0.021744667 0.02273229 0.03126274 -0.024876844 0.01912031 0.015862841 0.0046427404
-0.0071221357 0.04459924 0.017523292 0.0072379094 -0.008705832 0.033941492 0.004047177 0.009392776

job_attn.in_proj_weight f4 [96, 32]
00000000: 8209 c3bd 8311 83bd 4a1b 4bbe ead8 10be
00000010: 135a 9e3b 2905 36be 31ce 323e e950 63ba
00000020: 57f9 b5bd 1b4e 3e3e b1b5 843c 47c9 bc3d
00000030: 66c8 ce3d ec95 6bbe 9ffa 9cbd e364 9f3d
00000040: ae57 29be fbbc 233d 8a31 263d 2b78 2dbd
00000050: 6eba 09be 098d a43d 56d8 33bc 4bb7 8dbc
00000060: a417 653d 051c 503d a74c 8cbd 0e7d 1a3e
00000070: 2987 97bc 7825 3ebd 47c5 5bbd 173b 1e3e
00000080: 168a 733d 0e90 f5bc 1fd0 09be d2ea 553e
00000090: f8ea a63d 8998 bf3c 815a 5ebe bbbe aa3c
000000a0: c10e 053a 814a 3d3e 98c9 8e3c 664c c43d
000000b0: 2f63 ef3d 38f8 20be bd9f 60be f7ba 003e
000000c0: 57d9 213e bb5e 4abe 723d cd3b 4de4 62bd
000000d0: 464e fc3d e959 95bd 6ea8 fbbd fb23 b3bd
000000e0: c51b 2fbe 0a34 eebd b7c0 403e 3ffe 383e
000000f0: af63 6ebc 3626 6e3d f661 50be 67d2 95bb
00000100: 6fc3 2a3e 8ae3 19be 570b 4fbe 355c 093e
00000110: 28c4 f63d 615c 73bd f9cc 2bbe 06ae b1bd
00000120: 60d9 633d d50d 0f3e 4a37 1a3d bc12 3d3d
00000130: cacd b2bd 600f 1e3e 0d5f 3e3e bfcc abbd
00000140: 0ccc 1f3e f322 333e de72 9dbd 10a9 10be
00000150: 5b28 80bd 2b1b 443e 48b5 d23d 860a 31bd
00000160: e7d6 ac3d e4bf fc3c 10d0 433e 9f6c 5dbe
00000170: 7cdd 4fbe a815 8d3d 9e1c 17be df7d 823d
00000180: b01b 373e b261 b1bd 67a3 ac3c f2f6 52be
00000190: e9b1 55bd 2ab4 acbd ed1a 303e 470a fb3d
000001a0: 6887 133e 4d38 423e 7704 973d 10a1 c9bd
000001b0: ccb0 1a3e 3893 2d3e 8010 5dbe 63a4 353e
000001c0: bbe6 8b3b 7148 373e e972 f93d c87b 453e
000001d0: c293 003e 6e4a f7bd 33e2 5bbe 99a3 633e
000001e0: 435f c53d 4948 d43d 72de 51be c3bc 26be
000001f0: 6ff0 3b3e dda5 553e 1610 45be 95fa 473d
00000200: 5382 1ebe 7526 9ebd 0947 0fbe 54b3 27be
00000210: dede a53d 2808 153e e5f4 27be 57ea b33d
00000220: 36f7 403d e0d6 31bd 24e2 ec3d df83 3c3d
00000230: e2a3 1c3e dea8 b73d 40e3 a7bd 88a3 ddbd
00000240: adc9 47be 2b68 f639 5cd4 eebd ab29 043e
00000250: 1d17 bcbc ee70 3bbe b905 5cbe c98f a2bc
00000260: ba52 4f3e cac0 1e3e e1a8 00be c78a ec3c
00000270: b64e a9bd b87f 5abe 902e 5fbe 41ba 18be
00000280: 5c6d a2bd b79b 1bbe 4542 86bd cc5b 043e
00000290: 2ff9 433e cbd6 ecbb 12b2 f0bc 3361 c53c
000002a0: 9ecf 283e d2cb efbd c0f2 05be 8629 3dbd
000002b0: ee5f b23d 1b01 4abd ca1d cebd c740 383d
000002c0: 47f8 48be 7d26 01be e6f7 0b3d 0b04 473d
000002d0: 4013 3dbe 48fa 0bbe 81b6 6abe 37c3 bc3b
000002e0: 408e d73d e2ba 343e cf97 25bb b5ff 2b3e
000002f0: 304e 183e 4cd4 1abe 04b0 2bbe ffdc 96ba
00000300: c3c0 813d 818c 913d e6ca a43d 6561 1ebd
00000310: 84da b03c f08f 8b3d 4999 eabd 6aa5 ae3d
00000320: 42f4 463c 79e7 3cbe 5fb0 2d3e 04f2 85bd
00000330: 6e4a 343e 20c8 373e 9214 8f3d 5682 d03d
00000340: 198b 9f3d b72b 50be d509 b1bd d51e b2bd
00000350: 0507 4d3e 6c1c 223e 9ebb 513e 0ae5 c7bd
00000360: a0cf e7bc 9706 4fbd d92c 1cbe ca5f d5bd
00000370: 681f 893d 10b5 8a3c 70e2 2e3e 2bbb 49be
00000380: be74 9e3d fc2b 2a3d 9f4c 153d 95b5 b43d
00000390: 7170 48bd 68d7 38bc d746 b7bc 5fdc 47be
000003a0: 7e7e a9bd 6971 61be 3001 093e 4702 053d
000003b0: 818b 1cbe 14a6 c13b e6a8 40be 9799 b43d
000003c0: ff28 d93c e055 48be 0015 71be ce62 1c3e
000003d0: 776a b4bd a772 1f3e 27b7 b73d a30b 5b3e
000003e0: fe56 fabd 0f3a 27be fa9f b83d 6584 5d3a
000003f0: 5b2e 313e 82d1 1ebe 8c53 d6bd e04e 3bbe
-0.09523298 -0.063998245 -0.19834629 -0.14145246 0.004832515 -0.17775406 0.17461468 -0.00086714193
-0.088854484 0.18584482 0.016199918 0.09218078 0.10096817 -0.2300641 -0.0766499 0.077829145
-0.16537353 0.039975148 0.040574588 -0.04235093 -0.13450024 0.08034713 -0.0109768715 -0.017299315
0.05593075 0.05080797 -0.06850558 0.15086767 -0.018497067 -0.04642245 -0.053654935 0.15452228
0.05945786 -0.029975917 -0.13458298 0.20890358 0.081502855 0.023388164 -0.21714212 0.0208429
0.0005075746 0.18485452 0.017430112 0.09584884 0.1168884 -0.15719688 -0.21935935 0.12571321
0.15805565 -0.197627 0.0062634284 -0.055393506 0.12319617 -0.072925396 -0.12287985 -0.08747097
-0.17100437 -0.116310194 0.18823515 0.18065737 -0.014550134 0.05814191 -0.20349869 -0.004572201
0.16676114 -0.15028206 -0.2021917 0.1341408 0.120491326 -0.05941427 -0.1677741 -0.086757705
0.055627227 0.1397012 0.037650384 0.046160445 -0.087306574 0.15435553 0.18590946 -0.083886616
0.15605181 0.17493801 -0.07687925 -0.14126992 -0.06257697 0.19150989 0.10288483 -0.043222927
0.08439427 0.03085322 0.19122338 -0.21623467 -0.20299333 0.06888896 -0.1475701 0.06371664
0.17881656 -0.08661212 0.02107401 -0.20602015 -0.05217162 -0.08432801 0.17197771 0.122578196
0.14407122 0.1896679 0.073738985 -0.09845173 0.15106505 0.16950691 -0.21588326 0.1773849
0.0042694486 0.17898728 0.121801205 0.192855 0.12556365 -0.12074743 -0.21473007 0.22230376
0.0963731 0.1036535 -0.20495012 -0.16282944 0.18353437 0.20864053 -0.19244418 0.048822958
-0.15479402 -0.07722179 -0.13991942 -0.16377002 0.08099149 0.14553893 -0.16402014 0.08784931
0.04711076 -0.04341781 0.115665704 0.0460242 0.15296891 0.08967756 -0.081976414 -0.10822207
-0.19510527 0.00046998388 -0.11661598 0.1290652 -0.02296024 -0.18304798 -0.21486558 -0.019843953
0.20246401 0.1550323 -0.12564422 0.028874768 -0.08266966 -0.21337783 -0.21795106 -0.149148
-0.07931015 -0.15196119 -0.06555609 0.12925643 0.19138025 -0.0072277538 -0.029381786 0.0240942
0.1648545 -0.117087975 -0.13080883 -0.046182178 0.087097034 -0.04931746 -0.100642756 0.04498365
-0.1962596 -0.12612338 0.03417196 0.04858784 -0.18464375 -0.13669693 -0.22921182 0.005760576
0.10525179 0.17649415 -0.0025267487 0.16796763 0.14873576 -0.15120047 -0.16766363 -0.0011509954
0.063355945 0.07106877 0.08046512 -0.0386671 0.021588571 0.06814563 -0.11455018 0.08527644
0.012143197 -0.18447675 0.16961811 -0.065403014 0.17606518 0.17947435 0.06986345 0.101811096
0.07790203 -0.20329176 -0.086444534 -0.08697287 0.20022209 0.15831155 0.20481727 -0.097604826
-0.028297246 -0.050543394 -0.15251483 -0.10418661 0.066954434 0.01693204 0.17078567 -0.19700305
0.077371106 0.041545853 0.036450025 0.088236965 -0.048935357 -0.011281826 -0.022372646 -0.19517659
-0.082760796 -0.22015919 0.13379359 0.032472875 -0.15287592 0.0059096906 -0.1881443 0.088183574
0.026508806 -0.19564009 -0.23543167 0.15272066 -0.08809369 0.1557108 0.089704804 0.21391158
-0.12223624 -0.16330741 0.09014888 0.0008450209 0.1730284 -0.15509608 -0.10465154 -0.18291807

job_attn.in_proj_bias f4 [96]
00000000: 7971 353c cf10 08bc 2744 163d 7439 11bd
00000010: 53da 4a3d e54c 213d f822 893d 6fc7 003d
00000020: 32ca 093d 918c bc3c ec6e e73a 83c4 333d
00000030: 2b1a 643d a91d 0e3d 70c9 e13c bf85 f2bc
00000040: 0146 ce3c 2932 223b a5e4 58bc d84c ab3c
00000050: 6287 af3c 9cb3 a6bc 5e1f bbbb f456 0cbc
00000060: d4fc 4a3c 8d1c ca3b 27f5 b33c 448e 773d
00000070: 009d 5c3c d9c6 093c ad98 17bc 31af 2d3c
00000080: 8f6a e83b e8dd 2fbc 9479 3cbc 5adb 5bbc
00000090: 264e 203a 9bc1 55bb ac88 bdbb 62c8 813c
000000a0: bf41 3dbc ca44 d4ba 1d75 14bc 401a 073c
000000b0: 63f6 d9bb a7a7 c3bc 7800 9bbc a2f3 9f3b
000000c0: 2754 bf3d 9281 a83d 0011 b33b e0de b0bd
000000d0: f327 b63c 4939 b3bc 81d4 5b3c a2ad 76bd
000000e0: 131d b33d d30d 223b f201 b93d c718 a03d
000000f0: acf1 9abc 13b1 b43d a312 62bc 273c d13a
00000100: 8aad 123e a18c 0ebe 993c 08be 7ad8 13be
00000110: 9e8f 10be 0931 1abe fd2c 14be e3ff 16be
00000120: d894 0c3e 9932 033e 6571 0e3e 14c2 12be
00000130: 71b0 1ebe cc2b 0e3e af96 1dbe f348 f63d
00000140: 27e7 18be dbed 173e 28f4 1a3e dc93 fbbd
00000150: dfd9 133e 3329 15be e53a 16be d6cf 1cbe
00000160: 3ef9 20be 8a1f 15be b2b2 c4bd f886 1c3e
00000170: 36d8 053e 68c3 1a3e 0642 173e 9fd4 1cbe
0.011074417 -0.008304789 0.03668609 -0.035455182 0.049524616 0.039379973 0.06696123 0.031440195
0.033640094 0.023016246 0.0017656959 0.04388858 0.05568902 0.034696255 0.027561873 -0.02960479
0.025179865 0.0024749136 -0.013238107 0.020910665 0.02142686 -0.020349316 -0.0057105264 -0.008565653
0.0123893805 0.0061679543 0.021967484 0.06043841 0.013465166 0.008409225 -0.009252709 0.010600851
0.007092781 -0.010734059 -0.011503596 -0.013418997 0.00061151606 -0.0032616619 -0.005784115 0.01584262
-0.01155132 -0.0016194817 -0.009061125 0.008246005 -0.006651686 -0.023883654 -0.018921122 0.004881338
0.09342223 0.082278386 0.005464673 -0.0863626 0.022235846 -0.021877902 0.013417364 -0.060224183
0.0874578 0.0024727478 0.09033574 0.07817226 -0.018914066 0.08822837 -0.013798389 0.0015963361
0.14324012 -0.13920833 -0.13304366 -0.14438048 -0.14117286 -0.15057768 -0.14470287 -0.1474605
0.13728654 0.1281227 0.13910444 -0.14331847 -0.15496995 0.13883895 -0.15389512 0.12025633
-0.14931928 0.14836828 0.151322 -0.12284061 0.1443858 -0.14566498 -0.14670904 -0.15313658
-0.15720078 -0.14562812 -0.09604396 0.15285861 0.13070759 0.15113604 0.1477128 -0.15315484

job_attn.out_proj.weight f4 [32, 32]
00000000: c554 a13e 0f3f 283d 101f 5fbe e77d d3bd
00000010: ebda 92bd 9ef1 b2bd 6110 f9bd afdd 25be
00000020: b48a 253e 7176 8d3e 157e ae3d 0bc6 62be
00000030: ab1b 0dbd acb2 a93d 2707 45be 81c6 7f3e
00000040: 1a20 77be 5a83 823e 8be8 893e be55 91be
00000050: e879 5d3e 06c4 943c 0e55 6ebe 24a9 5abd
00000060: 68ac 56be 7263 90be d871 debc 6402 1c3e
00000070: cf16 793c eda4 8dbd f072 673c 6b76 8dbe
00000080: e1c9 a0bc f87c 42be 0f6b 14be fa04 993c
00000090: fd3c 7ebe dd8a 063e 6c25 4dbe 34e4 d5bb
000000a0: 9ca5 2bbd affc 3a3e ab87 9f3e df6f dbbc
000000b0: 7eb0 6e3c 93a8 66bd a5ce f1bc 4bc2 723e
000000c0: 84f0 48be 9d43 d53d 5af8 343d b69d 68be
000000d0: d9c3 7bbc e501 7abe c7e8 4abe c2f6 36be
000000e0: 8466 bfbd 6f76 953d fc7e 783d f99d 803e
000000f0: 703e e13d 2f0d 8f3d f406 3b3e ce2e ef3c
00000100: ac4a b3bd a8df 723e 1339 103e 1c16 103e
00000110: 1f0e fc3d b2d1 65bd b86e f03d 6c8a 9c3d
00000120: 5583 1dbe ad25 31ba 1175 80be 65ae 633e
00000130: bcd1 b3bd f773 55bd 6dae f53c 014e 26be
00000140: 813b 443e ad06 12be e557 81ba 495b d7bc
00000150: 2c38 6abe 089d 643e e10a 103d 0844 603d
00000160: 5bec f53d d8a3 f43d 427c 013e d8e7 8cbe
00000170: d2e8 ae3d 4507 853d aeb8 96bd 6d1d 54bd
00000180: 824b 81be 193c febd 9ed9 8e3d e8c3 3f3d
00000190: dae9 6e3d 9631 fe3c 0361 233e ffda 1f3d
000001a0: 2f90 24be da9b 19be 9495 79bd 0e81 123e
000001b0: 6d73 983d a8a1 1ebe 74a4 80bd bbc5 c3bc
000001c0: 7f02 163e fd5e d4ba 0334 fcbd 39ce 48bd
000001d0: 4f8d a73d c1a2 a3bc 07bb 5a3e a20e fabb
000001e0: 6fb9 c33d 9b09 3f3e 7992 253e 06af 183d
000001f0: 2a07 103c 653d 4bbd 02ec 1dbe 045a 293d
00000200: 4658 a1be 7682 6b3e cfa4 873e 6a45 3d3e
00000210: e4d4 1e3e 8d28 1a3e 27ff 5a3e 671f 8c3e
00000220: 2797 6fbe ca73 ddbd a879 d5bd 20a9 bebb
00000230: 6f30 85bd cf1a 50bc 1389 f5bd c9ee dbbd
00000240: 7c9b 1a3e 2322 d7bb 007c 60be e7ed 75bd
00000250: 49ff 83be c6df 1e3e 7baf a23c 5eba 7f3e
00000260: f895 f83d e843 8e3b e35b 4a3d 29f1 5dbe
00000270: 6dc6 2abe 4a47 13bd 377c 9a3d 5278 003e
00000280: 5ac6 85be 9e9c 7a3d d34e 9e3e 2d15 b7bd
00000290: 4505 783e c76d 163e 56ad 473d f973 1cbc
000002a0: f6cd 20be 00d6 65bc 1c63 25be de4a 623e
000002b0: ba86 653d ecb4 e1bd 7171 c3bc 70b3 21be
000002c0: 0029 9f3d 30f0 9bbe add6 fabd 18ed 0f3d
000002d0: 2128 85be 7fa1 83bc 3fa9 f73d c059 d7bb
000002e0: 4346 7a3d 8bd6 1abd 3877 143e cbb4 8abe
000002f0: d0a2 6cbe 97c7 50be 1b71 78be 1a4a e23d
00000300: 7d58 fdbd d165 773e c6cf c73d 1e23 a2bd
00000310: 38fd 1c3e 3246 633e 3579 353a 1310 9a3d
00000320: 1138 26be c509 6bbe e1cf 47be c748 3d3e
00000330: 7da1 8cbd d5dd de3d 5835 d53c f670 a5bd
00000340: 632b 213e 2d7c 84be 209f 6bbe 086e 9d3e
00000350: 6436 81bb c7f4 b83d b581 193e dc30 243e
00000360: 1686 523e 837c 063e 4f19 213e fa63 4dbd
00000370: 5374 e5bd 57fe 7a3c 67bb 8fbd ab71 0e3c
00000380: 74ae e43d 5e19 febd 7b7c c9bd fb7a 28be
00000390: a104 dc3c 3b15 85be c608 b0be aa7f 4abe
000003a0: e086 e0bc 44f9 9a3e bf1a 523e d2a3 c6bd
000003b0: 4d60 23be 3d3b 483e cbeb acbc ae2a 73bc
000003c0: 469c 22be 59fc 073d 6ac0 e03d 7891 c0bd
000003d0: 018c 1f3d c685 82be 1a91 7cbe 8cf9 18ba
000003e0: 613a 10be 0677 80be 6a04 54be 2e4c 9c3d
000003f0: 9e03 743e 60fc 46bc 403a 2b3d c2e7 c0bc
0.31509987 0.041075762 -0.21789193 -0.10326748 -0.071706615 -0.08737491 -0.12161327 -0.16197847
0.16166192 0.27629426 0.08520142 -0.2214586 -0.034450214 0.08286032 -0.1924101 0.24978067
-0.2413334 0.25490838 0.2693523 -0.2838573 0.21628535 0.018159878 -0.23274633 -0.05338396
-0.20964205 -0.2820087 -0.027153894 0.15235287 0.015203192 -0.06916223 0.014126524 -0.27629408
-0.019627513 -0.18992984 -0.14493965 0.01867913 -0.24827953 0.1313891 -0.20033807 -0.006527448
-0.041905984 0.18260454 0.31158194 -0.026786743 0.014568446 -0.05631311 -0.029517481 0.2370693
-0.19623 0.10413287 0.04418216 -0.22716412 -0.015366518 -0.24414785 -0.1981536 -0.17867568
-0.09345725 0.0729798 0.060667977 0.25120524 0.10998237 0.069849364 0.18264371 0.029197123
-0.08754477 0.2371813 0.14084272 0.14070934 0.12307381 -0.056108184 0.11739868 0.076435894
-0.1538213 -0.0006757628 -0.25089315 0.22234495 -0.08780238 -0.052112546 0.0299904 -0.16240694
0.19163324 -0.14260359 -0.0009868114 -0.026288645 -0.2287299 0.22325528 0.035166625 0.05475238
0.12007972 0.11945313 0.12645057 -0.27520633 0.08540501 0.06495527 -0.073594436 -0.051785875
-0.2525292 -0.124138065 0.06975101 0.04681769 0.058328487 0.031029504 0.15954976 0.03902721
-0.16070627 -0.15000859 -0.060933664 0.14307043 0.07443891 -0.15491354 -0.06281367 -0.023897996
0.1464939 -0.0016202625 -0.12314608 -0.049024794 0.08181249 -0.019975068 0.21360408 -0.007631139
0.09556853 0.18656008 0.16169156 0.03727629 0.008790771 -0.049619097 -0.15422061 0.04134561
-0.3151266 0.22998986 0.26492926 0.1848351 0.15510899 0.15054531 0.21386395 0.27367708
-0.23397504 -0.10813101 -0.10423595 -0.005818501 -0.065033786 -0.012701704 -0.119890355 -0.10738904
0.15098375 -0.0065653487 -0.21922302 -0.060041334 -0.25780705 0.1551505 0.019859066 0.24973437
0.12137979 0.004341591 0.049404036 -0.21674027 -0.16677256 -0.03595666 0.07543223 0.12545899
-0.26127893 0.061184518 0.30919513 -0.08939586 0.2422076 0.14690314 0.04874929 -0.009549134
-0.15703568 -0.014028072 -0.16151088 0.22098872 0.05603669 -0.11020836 -0.023857804 -0.15791106
0.07771492 -0.30456686 -0.122479774 0.03513822 -0.26007178 -0.016068218 0.12092828 -0.0065719783
0.061102163 -0.03780226 0.14498603 -0.2709106 -0.23108983 -0.20388637 -0.24261896 0.1104929
-0.123703934 0.24159934 0.097564265 -0.07916854 0.1533097 0.22194746 0.00069226633 0.07522597
-0.16232325 -0.22952946 -0.19512893 0.18484794 -0.06866739 0.10882155 0.026026413 -0.08078186
0.15739207 -0.2587599 -0.2300992 0.3074801 -0.0039432514 0.090310626 0.14990886 0.16034263
0.20558962 0.13133435 0.1573231 -0.050144173 -0.11203828 0.015319428 -0.07018166 0.008694093
0.11166087 -0.12407182 -0.09838196 -0.16453163 0.026857676 -0.2599276 -0.34381694 -0.19775262
-0.027408063 0.302683 0.20518015 -0.09699215 -0.15954705 0.19553848 -0.021108529 -0.014841719
-0.15879926 0.03319964 0.109742 -0.09402746 0.038951878 -0.25492686 -0.24664727 -0.0005835525
-0.1408477 -0.25090808 -0.20704809 0.076317176 0.23829505 -0.012145132 0.0418036 -0.02354801
