RL/DMDDQN.pth (torch, 86270 bytes, 6 tensors)

fc1.weight f4 [128, 30]
0	0xbda889f8	-0.082294405
1	0x3e79d145	0.24396236
2	0x3dd7febc	0.105466336
3	0x389ce05c	7.48045e-05
4	0xbde0f569	-0.10984308
5	0xbc5cf89c	-0.0134870075
6	0x3a9a7b31	0.0011785981
7	0x3e833dc8	0.25633073
8	0xbe14d715	-0.14535172
9	0x3e19bce7	0.15013467
10	0xbd208ff4	-0.039199784
11	0x3cec07c7	0.028812302
12	0xbde39b7e	-0.11113642
13	0x3d944372	0.07239427
14	0x3e05e1fe	0.1307449
15	0xbc99ac40	-0.018758893
16	0xbdd128b8	-0.102128446
17	0xbe0850c4	-0.1331206
18	0x3c50e8c8	0.012750812
19	0x3e5a7202	0.21332553
20	0x3de08673	0.10963144
21	0xbcb07e50	-0.021544605
22	0x3ce97557	0.028498335
23	0x3dc7b449	0.097511835
24	0x3db9ef9a	0.090789035
25	0xbdc2d223	-0.09512737
26	0x3d1590de	0.03651511
27	0xc05df786	-3.4682326
28	0x3cbe990b	0.023266336
29	0x3c554025	0.0130157815
30	0xbe2b29b1	-0.16715123
31	0x3e8321b4	0.2561165
32	0x3b858618	0.004074823
33	0x3ca3f104	0.020012386
34	0x3d67aeb5	0.056563098
35	0xbdf3d128	-0.11905128
36	0xbcc128da	-0.02357905
37	0x3e3fea38	0.18741691
38	0xbced3d7d	-0.028959984
39	0x3c0c9f9e	0.008582978
40	0xbdce296d	-0.10066495
41	0xbce079d2	-0.027401838
42	0xbd4797b8	-0.048728675
43	0xb79a173f	-1.8369055e-05
44	0x3db1c879	0.08680815
45	0x3d33e91f	0.043923493
46	0xbca447d3	-0.02005378
47	0x3dc7a76f	0.09748732
48	0x3d2d13bd	0.042255152
49	0x3e44183b	0.19149868
50	0xbda76f91	-0.081755765
51	0x3cbc8114	0.023010768
52	0xbd5e294c	-0.054238603
53	0x3e0d6179	0.13806714
54	0x3d3d64c4	0.046238676
55	0x3d0ebee0	0.03485
56	0xbe796211	-0.24353816
57	0xc05bbfb1	-3.433575
58	0xbce0f8ef	-0.02746245
59	0x3a34ccbf	0.00068969646
60	0x3d9fa15c	0.07794449
61	0x3e8f5d8a	0.28001052
62	0x3d962041	0.07330371
63	0x3e0da809	0.13833632
64	0x3e03f8c8	0.12887871
65	0x3df48f97	0.1194145
66	0x3e007cf1	0.12547661
67	0x3e0ec2b2	0.13941458
68	0x3d4264c4	0.04745938
69	0x3d3642ba	0.04449723
70	0x3e37fa8f	0.17966674
71	0xbd8a1fb5	-0.06744329
72	0x3e3d3c7d	0.18480106
73	0xbc78f22e	-0.015194459
74	0x3e20adc4	0.15691286
75	0xbd13397a	-0.035943486
76	0x3e3366b9	0.17519654
77	0xbddb9137	-0.10721057
78	0x3e661576	0.22469124
79	0x3dbbc048	0.09167534
80	0xbc968c62	-0.018377487
81	0x3e08ce91	0.13360049
82	0xbd378062	-0.04480017
83	0xbd7a8986	-0.06116631
84	0x3e379db1	0.17931248
85	0x3ebe9ec0	0.37230492
86	0x3e426295	0.18982919
87	0xc0419bc2	-3.0251317
88	0xbdd425e0	-0.103587866
89	0x3d241114	0.04005535
90	0x3e5d49be	0.21610162
91	0x3e78d2a4	0.24299103
92	0xba9dd74b	-0.0012042312
93	0xbd16fac9	-0.03686026
94	0xbdf700d8	-0.12060708
95	0x3dde4b08	0.10854155
96	0x3e5f9459	0.21833934
97	0x3e1381a8	0.14404929
98	0x3d1598d0	0.036522686
99	0xbd8663f4	-0.06562033
100	0x3d1729b7	0.036905017
101	0x3da81fd1	0.082091935
102	0x3dbb4ca0	0.091454744
103	0x3ea8e0d7	0.3298404
104	0x3c5419f2	0.012945639
105	0x3d11074f	0.03540736
106	0xbc5abc82	-0.013350608
107	0xbdb1a14e	-0.086733446
108	0x3d8b4756	0.068007156
109	0x3e748e2b	0.23882358
110	0x3dd60637	0.10450404
111	0x3e0b711b	0.13617365
112	0xbd88d0cb	-0.06680449
113	0xbd1657bf	-0.036704775
114	0xbe05dff9	-0.1307372
115	0x3dda1bd3	0.10649838
116	0x3e6f29bf	0.23355769
117	0xc05669de	-3.3502116
118	0x3e30ded6	0.17272505
119	0x3deb022a	0.11475022
120	0xbcbf538c	-0.023355268
121	0x3d454e45	0.048170347
122	0xbee0afa4	-0.43884003
123	0xbc4bd513	-0.012440938
124	0x3e168887	0.14700519
125	0x3c914826	0.017734598
126	0xbe9bd22b	-0.30433783
127	0x3e2bab48	0.16764557
128	0xbeacb334	-0.3373047
129	0xbd064cac	-0.032787964
130	0xbd5b1f19	-0.053496454
131	0xbdc15b98	-0.09441298
132	0xbe77a295	-0.24183114
133	0x3d01f9ba	0.0317323
134	0xbe15f8f4	-0.1464575
135	0x3db5d0bf	0.08877706
136	0xbe07b955	-0.13254292
137	0x3d540e7c	0.051771626
138	0xbe8c3f3e	-0.27392
139	0x3e337d9d	0.17528386
140	0xbebdb8a0	-0.3705492
141	0x3cf7e2fc	0.030259602
142	0x3e2a99c7	0.16660224
143	0xbdfffa96	-0.12498967
144	0x3e0e33b8	0.13886917
145	0xbf7c58f8	-0.98573256
146	0xbda91149	-0.0825525
147	0xc073bd65	-3.8084347
148	0x3dc269b0	0.094928145
149	0x3b25ce4e	0.002529997
150	0x3ee0f8c1	0.43939784
151	0x3e79eab4	0.24405938
152	0xba600bdd	-0.00085466896
153	0x3ca8c4fd	0.020601744
154	0xbe3588be	-0.17727944
155	0x3d05d29e	0.032671563
156	0x3e36f7bd	0.17867942
157	0x3e761f3e	0.24035355
158	0xbd5a2f99	-0.05326805
159	0x3db08287	0.08618646
160	0x3e1821ff	0.14856718
161	0xbd4edf68	-0.050506026
162	0x3e8299dd	0.25508013
163	0x3d9128c8	0.070878565
164	0x3c5924f6	0.013253441
165	0xbd1bd768	-0.038047224
166	0x3e0a26a9	0.1349131
167	0x3cc19d8c	0.023634695
168	0x3e9c8c98	0.30576015
169	0x3dd912d8	0.10599297
170	0x3d723398	0.059131235
171	0x3ba9c395	0.005180786
172	0xbd0f6d44	-0.035016313
173	0x3d8d27e4	0.06892374
174	0x3d7ac3df	0.061221953
175	0xbe55e9f3	-0.20890026
176	0xbea33a8d	-0.31880608
177	0xc056dd44	-3.357255
178	0xbcf84ab3	-0.030309057
179	0x3e30b471	0.17256333
180	0xbdc37ed5	-0.09545676
181	0xbc4d5873	-0.012533295
182	0xbe32a3ee	-0.17445347
183	0x3e0baf7c	0.1364116
184	0x3e09538e	0.1341078
185	0x3e38f770	0.1806314
186	0x3e1a2b28	0.15055525
187	0x3dfcaabd	0.12337253
188	0x3e08327e	0.13300511
189	0x3ccc39fc	0.024929993
190	0xbe10c0b7	-0.14136015
191	0x3e00d455	0.12580998
192	0xbb42b752	-0.0029711318
193	0x3e0e7f6c	0.13915795
194	0xbd7a7fb0	-0.06115693
195	0x3e03fa9f	0.12888573
196	0x3dd006f6	0.10157578
197	0xbcfb8c97	-0.030706687
198	0xbdfe65a6	-0.12421732
199	0x3dc485f6	0.095958635
200	0xbd9fb53e	-0.07798241
201	0xbbe86a20	-0.007092729
202	0x3de52371	0.111884005
203	0x3e26c432	0.1628578
204	0x3df2034d	0.11817036
205	0x3e97ea33	0.29670867
206	0x3dec3be0	0.11534858
207	0x4061615f	3.521568
208	0xbc4e1647	-0.0125785535
209	0xbd1962bb	-0.037447672
210	0x3e868ad7	0.262778
211	0xbde074bd	-0.10959766
212	0x3d2f8b6d	0.042857576
213	0x3cf933b6	0.030420166
214	0x3de0fd71	0.1098584
215	0x3e03a9da	0.12857762
216	0x3e871f2f	0.2639098
217	0x3b976bfb	0.0046210266
218	0x3de2c9d1	0.1107365
219	0xbd40b53c	-0.04704784
220	0xbcbb9efa	-0.022902954
221	0x3e4ad6de	0.19808528
222	0x3c227613	0.009915846
223	0x3e07c643	0.13259225
224	0x3dbc8752	0.09205498
225	0x3e143b60	0.14475775
226	0xbdebe13c	-0.115175694
227	0xbd497a14	-0.04918869
228	0x3d0a951b	0.033833604
229	0xbe20de3f	-0.1570978
230	0x3e3d4c49	0.18486132
231	0x3e410884	0.18850905
232	0x3e14fdf7	0.14550005
233	0x3d04677a	0.032325245
234	0x3dea90f9	0.114534326
235	0x3d76ef89	0.060287032
236	0x3e260d77	0.16216074
237	0x40573cd6	3.3630881
238	0x3d80c6c2	0.0628791
239	0x3e37ec70	0.17961287
240	0xbdfd7552	-0.12375893
241	0x3ebf9bad	0.3742346
242	0x3cbd38a4	0.023098297
243	0xbd70f10e	-0.058823638
244	0xbdedc87e	-0.116105065
245	0x3d0cb947	0.03435638
246	0xbe1bb953	-0.15207414
247	0x3eb7837e	0.35842508
248	0x3c8f3d58	0.017485306
249	0xbccd6d1d	-0.025076443
250	0x3dbafe59	0.09130544
251	0x3a07eef8	0.00051854504
252	0xbdaa04c3	-0.083016895
253	0x3e129396	0.14314112
254	0x3df28598	0.11841887
255	0x3e1235a6	0.14278278

fc1.bias f4 [128]
0	0xbc4aa7f4	-0.012369145
1	0x3da615ce	0.08109628
2	0x3db48ada	0.08815546
3	0x3ec0c0b7	0.3764703
4	0x3e12f9a8	0.14353049
5	0x3e217c2e	0.15770027
6	0x3da66ee1	0.08126617
7	0xbe30932d	-0.17243643
8	0x3e8e3e64	0.27781975
9	0x3eac4771	0.33648255
10	0x3e32c819	0.17459144
11	0x3e08bb06	0.13352594
12	0x3eb32153	0.34986362
13	0x3eaf765a	0.34269983
14	0x3e0d3d50	0.1379292
15	0x3c4b6b1b	0.012415673
16	0x3e4458d8	0.19174516
17	0x3eda62c8	0.4265349
18	0x3e692c3b	0.22770779
19	0x3d543e83	0.05181743
20	0xbda6e71a	-0.08149548
21	0x3e4bf541	0.19917776
22	0x3e85f2f7	0.2616193
23	0x3e613c18	0.2199558
24	0x3e497c2e	0.19676277
25	0x3e7f2032	0.24914625
26	0x3d83f0f7	0.06442445
27	0x3d7fc8e9	0.062447462
28	0x3e2e8db4	0.17046243
29	0x3e1eeb56	0.15519461
30	0xbdbebab7	-0.09312957
31	0x3e92db65	0.2868301
32	0x3ed143e6	0.40872115
33	0x3da485ee	0.080333576
34	0x3e08cadb	0.13358633
35	0xba0fbc2d	-0.00054830575
36	0x3e92232a	0.28542453
37	0xbc61b858	-0.013776861
38	0x3e5778ef	0.21042226
39	0x3e18a5bd	0.14906974
40	0x3e029551	0.12752272
41	0x3db07b94	0.08617321
42	0x3d41c0cf	0.047303017
43	0xbe17c87c	-0.14822572
44	0x3cab2624	0.02089221
45	0x3ea145ad	0.3149847
46	0xbe07b27d	-0.13251682
47	0x3db766f6	0.08955185
48	0x3e6086eb	0.21926467
49	0xbe44e634	-0.1922844
50	0x3ea566a7	0.3230488
51	0x3e58e588	0.21181309
52	0x3ecc6c15	0.3992621
53	0xbd97fc92	-0.07421221
54	0x3e888f5e	0.2667188
55	0x3e3032dd	0.17206903
56	0x3e1d68a6	0.15371951
57	0x3e32c2e9	0.17457165
58	0x3d5f29ab	0.054483097
59	0x3de88d19	0.11355037
60	0xbd42ccae	-0.04755848
61	0x3e7c4277	0.2463473
62	0x3e55d735	0.20882876
63	0xbcb55e6c	-0.02213975
64	0x3eb43667	0.35197756
65	0x3ee5765c	0.44816864
66	0x3c8811ea	0.016610105
67	0xbc87e569	-0.016588883
68	0x3ea6ce46	0.3257925
69	0xbd2f26bd	-0.042761553
70	0xbd107bc2	-0.035274275
71	0x3dbc524e	0.09195386
72	0xbd87de7e	-0.06634234
73	0x3d1a86c6	0.037726186
74	0x3e9aa43e	0.30203432
75	0x3ed5fdfc	0.41795337
76	0x3e3f2209	0.18665327
77	0x3e52edfa	0.20598593
78	0xbb6b8dad	-0.00359426
79	0x3d8c9094	0.068635136
80	0x3e0c57cb	0.13705365
81	0x3e1e15b7	0.15437971
82	0x3d4d43ef	0.050113615
83	0x3e5cbed0	0.21557164
84	0xbc74865b	-0.014924611
85	0x3dc52344	0.09625867
86	0x3e691e8a	0.22765556
87	0xbc9768a3	-0.018482512
88	0x3e3829f3	0.17984752
89	0x3d453064	0.048141852
90	0x3e19a268	0.1500336
91	0x3eaaf92b	0.33393225
92	0xbaba7e5e	-0.0014228334
93	0x3e967008	0.29382348
94	0xbe0c39f1	-0.13693978
95	0x3e9303f3	0.2871395
96	0x3e951b5d	0.2912244
97	0x3ee7bcd3	0.4526125
98	0x3db51e58	0.08843678
99	0x3e63f1d1	0.22260214
100	0x3ec3995c	0.3820294
101	0xbc246153	-0.0100329695
102	0xbd13d5b6	-0.036092483
103	0x3e7c88ba	0.24661532
104	0x3da0bc74	0.078484446
105	0x3c55cce7	0.013049341
106	0x3cbb446b	0.022859773
107	0x3e666279	0.22498502
108	0x3e7eb03d	0.24871917
109	0x3e1fe581	0.15614893
110	0x3d9da7a8	0.076979935
111	0x3c3c776d	0.011503083
112	0x3d61f01c	0.055160627
113	0x3e3578b8	0.17721832
114	0x3e29135b	0.1651129
115	0x3e82dab2	0.25557476
116	0x3da651f4	0.081211
117	0x3e9a9a35	0.30195776
118	0x3bfbb356	0.0076812906
119	0x3e75d952	0.24008682
120	0x3c8f410a	0.017487068
121	0x3e8216ad	0.25407925
122	0x3b2bff1c	0.0026244586
123	0xbd01b735	-0.03166886
124	0x3ebdedcd	0.3709549
125	0x3dca78b1	0.09886301
126	0xbd188707	-0.037238147
127	0x3d89f384	0.067359

fc2.weight f4 [128, 128]
0	0xbd58b200	-0.05290413
1	0xbda2afa8	-0.0794366
2	0xbb53af07	-0.003230037
3	0x3d166403	0.036716472
4	0xbd319922	-0.04335893
5	0xbd89877d	-0.067152955
6	0xbd3ee3d1	-0.04660398
7	0x3d3500f4	0.044190362
8	0xbc72615e	-0.014793722
9	0xbd1e830b	-0.03869919
10	0x3d082cbc	0.033245787
11	0x3cfdd2ca	0.030984301
12	0xbb72baa5	-0.0037037518
13	0x3c6b91c5	0.014378016
14	0xbd7f72d8	-0.062365383
15	0x3a2c3059	0.00065684837
16	0xbd667f53	-0.05627377
17	0xbd0aaf4d	-0.033858586
18	0x3d8be993	0.0683166
19	0x3d16e68d	0.036840964
20	0x3d5c6f26	0.053816937
21	0x3d003c18	0.03130731
22	0x3b4133b1	0.0029480273
23	0x3d872340	0.0659852
24	0xbd9a7f7a	-0.075438455
25	0xbd9d0fa9	-0.076690026
26	0x3d9f649b	0.07782861
27	0x3c4ca6ba	0.012490923
28	0x3d38d225	0.045122284
29	0xbaebc06a	-0.0017986421
30	0x3da2ee46	0.07955603
31	0xbcd58341	-0.026063563
32	0xbb6119e4	-0.0034347707
33	0xbd92bc3e	-0.071648106
34	0x3cd404e4	0.025881238
35	0x3d16ac74	0.036785558
36	0xbd94f5b2	-0.07273425
37	0xbd8477a6	-0.06468134
38	0x3bacbfa0	0.005271867
39	0x3d8926cf	0.06696855
40	0xbd9f6e6d	-0.07784734
41	0xbb5bbe75	-0.003353027
42	0xbda02d84	-0.078211814
43	0xbd6403fc	-0.055667862
44	0xbda84f53	-0.08218255
45	0xbdc29141	-0.09500361
46	0xbc8455a0	-0.01615411
47	0xbd7c9bd3	-0.061672043
48	0x3d9f5175	0.077792086
49	0xbc207b70	-0.009795055
50	0xbd3fb003	-0.046798717
51	0xbd334cad	-0.043774296
52	0xbceb4d56	-0.0287234
53	0x3d768331	0.060183708
54	0x3d43508b	0.047684234
55	0x3d77c6c8	0.060492307
56	0x3da1d9c3	0.07902863
57	0x3c069cf5	0.008216132
58	0x3cf73e8f	0.030181197
59	0xbdb47d98	-0.088130176
60	0x3da00520	0.078134775
61	0xbcd6fa8f	-0.026242523
62	0x3c16f4ea	0.0092136655
63	0xbc0de57e	-0.008660672
64	0xbd88f1cb	-0.06686743
65	0xbd71bbed	-0.05901711
66	0xbd89b990	-0.06724846
67	0xbc93094d	-0.01794877
68	0xbdabf54f	-0.08396398
69	0x3d63604e	0.055511765
70	0x3d1668d8	0.03672108
71	0x3c75e703	0.015008691
72	0x3d806989	0.06270129
73	0xbd10ed76	-0.03538271
74	0xbc8a0ad6	-0.01685087
75	0xbd80f1ae	-0.06296097
76	0x3cf97890	0.030452996
77	0xbc5fd804	-0.013662342
78	0xbc9244ad	-0.017855013
79	0xbcc901a2	-0.024536911
80	0xbd287a9b	-0.04113255
81	0xbd0842bf	-0.03326678
82	0x3d281b65	0.04104175
83	0x3cc6b1a5	0.02425463
84	0xbd4ed462	-0.050495513
85	0xbd0d2aae	-0.03446453
86	0x3d89008e	0.06689559
87	0x3d7b03a0	0.061282754
88	0xbd847146	-0.06466918
89	0x3c8b8cc1	0.01703489
90	0x3c1d112f	0.009586616
91	0xbce4034c	-0.027833603
92	0x3bfba4cd	0.007679558
93	0xbbfeb171	-0.0077726175
94	0x3d38c334	0.045108035
95	0xbdd0b168	-0.101900876
96	0xbdbdc443	-0.092659496
97	0xbd85cd12	-0.06533255
98	0xbc69653f	-0.01424533
99	0xbd9bee85	-0.07613853
100	0x3d940b81	0.07228757
101	0x3d39874b	0.04529504
102	0xbd82639e	-0.06366657
103	0x3d4e103e	0.05030846
104	0x3cabe15d	0.020981485
105	0x3bf68d5b	0.007524175
106	0xbdb71373	-0.089392565
107	0x3d1fbcc5	0.038998384
108	0xbd80c544	-0.062876254
109	0x3dae7970	0.08519256
110	0xbd0d19f1	-0.034448568
111	0x3d49ca16	0.04926499
112	0x3d884210	0.066532254
113	0x3a11ebbe	0.00055664394
114	0xbd5334b8	-0.05156395
115	0x3ce91d7a	0.028456438
116	0x3d7f9a06	0.062402748
117	0x3d72f335	0.05931397
118	0xbd65e0bd	-0.05612253
119	0x3da8ec74	0.08248225
120	0xbdac9d0d	-0.084283926
121	0xbc7476c0	-0.01492089
122	0xbc99308c	-0.018699907
123	0xbd92e12e	-0.07171856
124	0x3c49757c	0.012296077
125	0xbd7dd034	-0.061966136
126	0x3b6f94f8	0.0036557298
127	0xbc9ae5c1	-0.018908383
128	0x3eb91b09	0.3615344
129	0x3e64ad9c	0.22331852
130	0x3d01d971	0.03170151
131	0x3ea7e534	0.32792056
132	0x3e14abe8	0.14518702
133	0x3e8c6e17	0.27427742
134	0xbe33a699	-0.1754402
135	0xbe575f1f	-0.2103238
136	0x3e214f07	0.15752803
137	0x3e640c9a	0.22270432
138	0x3d461b23	0.048365723
139	0x3e637f57	0.22216545
140	0x3f0442dc	0.5166452
141	0x3eb63775	0.35589185
142	0xbe21bb36	-0.15794072
143	0xba6249ba	-0.0008632202
144	0x3ea8329a	0.32851106
145	0xbe249a09	-0.16074385
146	0x3e6a3d0e	0.22874853
147	0xbe93c813	-0.28863582
148	0x3cf810d6	0.030281466
149	0xbe257463	-0.1615768
150	0x3e8af112	0.27137047
151	0x3e8b4916	0.27204198
152	0xbe96ba9a	-0.2943924
153	0x3e8a1d37	0.26975414
154	0x3d99c5b0	0.07508409
155	0xbeb9d0de	-0.36292166
156	0x3eb1cd6b	0.34727034
157	0x3eae310b	0.34021792
158	0x3da345e9	0.07972319
159	0x3e62353e	0.22090623
160	0x3e9be733	0.30449829
161	0xbecc5577	-0.39908955
162	0x3ec57b97	0.38570854
163	0x3e077fce	0.13232347
164	0x3eae4c9e	0.3404283
165	0xbe8877d2	-0.26653916
166	0xbe323c6f	-0.17405866
167	0x3e2e2fa3	0.1701036
168	0x3e982c1c	0.29721153
169	0x3e212047	0.15734969
170	0xbe981729	-0.2970517
171	0xbeb35e0a	-0.35032684
172	0x3d5cf167	0.053941157
173	0x3e5b993d	0.21445175
174	0x3de08039	0.109619565
175	0xbeacd7ee	-0.3375849
176	0x3eb9f22b	0.36317572
177	0x3e08024e	0.13282129
178	0x3e9ea729	0.30986908
179	0x3ea51aae	0.32246917
180	0xbd576a86	-0.052591823
181	0x3e8373ab	0.25674185
182	0xbdff7a56	-0.124745056
183	0x3dd7aecb	0.10531386
184	0xbd3b6321	-0.045748834
185	0x3ea7d678	0.32780814
186	0xbe83008f	-0.25586364
187	0x3ed8ef09	0.4236987
188	0x3e917b45	0.2841436
189	0x3d707263	0.058702838
190	0xbe3e9f60	-0.18615484
191	0x3e098097	0.1342796
192	0xbe277761	-0.16354133
193	0x3ec1f761	0.37884048
194	0x3dbd2ad8	0.092366874
195	0xbedb96cf	-0.42888495
196	0x3ec5223c	0.3850268
197	0x3e1301d5	0.14356168
198	0x3da00d7d	0.07815073
199	0x3e8bd14a	0.27308112
200	0x3e62a090	0.22131562
201	0x3e1d291d	0.15347715
202	0x3e4731fd	0.19452663
203	0xbd56839b	-0.052371603
204	0x3d16348b	0.036671203
205	0x3ea107fe	0.3145141
206	0x3d450c80	0.048107624
207	0x3e07cfb3	0.13262825
208	0x3e9cfc8b	0.30661425
209	0x3e018895	0.12649758
210	0x3e340bcf	0.1758263
211	0x3e420ed2	0.18950966
212	0xbe2ebdf0	-0.17064643
213	0x3e8ef015	0.27917543
214	0x3cf9ef28	0.030509546
215	0xbe5d4f09	-0.21612181
216	0xbdafc4c0	-0.08582449
217	0x3e0aca21	0.13553669
218	0xbe943486	-0.28946322
219	0x3da438b8	0.08018631
220	0xbdfb8c7f	-0.12282657
221	0x3ea23b8c	0.31686056
222	0xbd920926	-0.07130651
223	0x3ee25709	0.44207028
224	0x3eaf1c46	0.34201258
225	0x3bf00674	0.007324988
226	0x3e4afe6a	0.19823614
227	0x3e944928	0.28962064
228	0x3e56acf7	0.20964418
229	0xbc5f06d0	-0.013612464
230	0xbc8d048b	-0.01721408
231	0x3e9a0683	0.30083093
232	0xbda94eae	-0.0826696
233	0x3da70d85	0.081568755
234	0x3de2352d	0.11045299
235	0x3e97d6b2	0.29655987
236	0x3f0d94b2	0.55305016
237	0x3e6689b2	0.22513464
238	0x3f08d8e6	0.5345596
239	0x3e834706	0.25640124
240	0x3e56ca0e	0.20975515
241	0x3d43193c	0.047631487
242	0xbe0d97c8	-0.13827431
243	0x3e7a05de	0.244163
244	0x3d5f6c59	0.054546688
245	0x3ea7da2c	0.3278364
246	0xbe8aab60	-0.27083874
247	0x3e98558a	0.2975276
248	0x3e66c150	0.2253468
249	0x3e94b480	0.2904396
250	0xbdde08f1	-0.10841549
251	0x3da1ef66	0.0790699
252	0x3eedf83e	0.46478456
253	0x3dd817b3	0.10551395
254	0x3e9a7728	0.30169034
255	0xbe859eb9	-0.26097658

fc2.bias f4 [128]
0	0x3ce248bf	0.027622579
1	0x3e6ef993	0.23337393
2	0xbe5c6ec3	-0.21526627
3	0xbea532c9	-0.32265308
4	0xbe1f25bc	-0.15541738
5	0xbda53a9e	-0.08067821
6	0xbe3d2946	-0.18472776
7	0x3c708652	0.014680462
8	0xbe1dfbb1	-0.15428044
9	0xbdf6d7e8	-0.120528996
10	0xbd9e9d9a	-0.07744904
11	0xbd66f200	-0.056383133
12	0xbd91aa1f	-0.07112526
13	0xbdfc096c	-0.123064846
14	0x3ceb850f	0.02874997
15	0xbe61bdf6	-0.2204512
16	0xbcd8c92b	-0.026463112
17	0x3d1fc1ae	0.039003067
18	0xbd9d37e1	-0.07676674
19	0x3dcd31dc	0.100192755
20	0xbe22e1c7	-0.1590644
21	0x3d0c738f	0.034289893
22	0x3ec53ceb	0.3852304
23	0xbd651f06	-0.05593779
24	0xbdb919a6	-0.09038095
25	0xbe150993	-0.14554434
26	0xbda7b719	-0.0818922
27	0x3dd9681b	0.1061556
28	0xbe7f9676	-0.2495974
29	0x3e8ce87e	0.27521127
30	0x3d1c9122	0.038224347
31	0xbe0db206	-0.13837442
32	0x3cc3518f	0.023842601
33	0xbce6c539	-0.028170215
34	0x3e442a0e	0.19156668
35	0xbce4ea89	-0.027943866
36	0x3efd83a5	0.495145
37	0xbd9d5ca8	-0.076836884
38	0xbd96bf80	-0.073607445
39	0xbded2119	-0.115785785
40	0xbe116465	-0.14198454
41	0x3d91422d	0.070927
42	0x3eba73c9	0.36416462
43	0xbdf1d04a	-0.11807306
44	0x3ef6d449	0.48208836
45	0xbe98c12a	-0.29834872
46	0x3d01f8a0	0.031731248
47	0xbc48fd75	-0.01226746
48	0xbdcd0f08	-0.100126326
49	0xbb59328b	-0.0033141698
50	0xbc83eef3	-0.01610515
51	0x3e22e1ae	0.15906402
52	0xbd14a5a4	-0.03629078
53	0x3d3d7961	0.046258334
54	0x3dcc3148	0.09970337
55	0xbe11e2e1	-0.14246704
56	0xbdf8350c	-0.12119493
57	0x3e0aa9a0	0.1354127
58	0xbd20d749	-0.039267812
59	0x3d81dadb	0.063405715
60	0xbc95f228	-0.018303946
61	0xbe198103	-0.1499062
62	0x3dbb14dd	0.09134839
63	0xbd71fce4	-0.059079066
64	0xbbe3f1ef	-0.006956331
65	0x3c7b632f	0.015343471
66	0xbe357f4c	-0.17724341
67	0xbdf23e0a	-0.11828239
68	0x3e20fdd0	0.15721822
69	0xbda149af	-0.07875382
70	0xbe047e52	-0.12938812
71	0x3d6f4ee7	0.058424857
72	0xbea5fe34	-0.32420504
73	0xbe50793e	-0.2035875
74	0xbe7ccdb5	-0.24687846
75	0x3db87e8f	0.09008514
76	0x3ce24572	0.027621005
77	0x3ea9a92d	0.33136883
78	0xbda1d021	-0.079010256
79	0xbbebcac6	-0.0071958033
80	0xbdf0e93e	-0.117632374
81	0x3c465eb0	0.012107536
82	0x3e419e30	0.18908
83	0xbcb64a05	-0.022252092
84	0xbd75fbee	-0.060054712
85	0xbe2e1d14	-0.1700328
86	0xbbe7aade	-0.0070699295
87	0x3ca999c5	0.020703206
88	0x3d31736b	0.04332296
89	0xbe1518b0	-0.14560199
90	0xbe2c6ea7	-0.16839086
91	0x3e0d589e	0.13803336
92	0x3e97922a	0.29603702
93	0x3ef14a34	0.47126925
94	0x3b8a6185	0.004223051
95	0x3e2fb896	0.17160258
96	0xbdb640c2	-0.0889907
97	0xbc0d3139	-0.008617693
98	0x3d949bfe	0.07256316
99	0xbe443e2b	-0.1916434
100	0xbdb41abb	-0.08794161
101	0x3c2e7b7d	0.010649559
102	0xbe52780f	-0.20553611
103	0x3d41bde5	0.04730024
104	0x3e46c252	0.19410065
105	0x3db3045c	0.08741066
106	0x3d38f164	0.045152083
107	0xbdbdecc4	-0.09273675
108	0x3e0bdc58	0.13658273
109	0xbb2236da	-0.0024751932
110	0x3ee3ad49	0.44468144
111	0xbc487620	-0.012235194
112	0xbe2e4fbd	-0.17022605
113	0xbd31e1a7	-0.04342809
114	0x3cfa2524	0.030535288
115	0x3e260155	0.16211446
116	0xbe273265	-0.16327818
117	0xb8fe0597	-0.00012112705
118	0x3eab24fb	0.3342665
119	0x3dc6bade	0.09703611
120	0x3eb0c82a	0.34527713
121	0x3ce45792	0.027873788
122	0xbd1b216b	-0.037873667
123	0x3e350f75	0.17681678
124	0xbd96bfb0	-0.0736078
125	0x3c831d0c	0.016005062
126	0x3eb6b9ff	0.3568878
127	0x3e38850a	0.180195

out.weight f4 [4, 128]
0	0x3a66eebd	0.00088093785
1	0x3e99ff5e	0.30077642
2	0x3f6685b3	0.9004776
3	0x3f411dd6	0.7543615
4	0x3f21eb3b	0.6324956
5	0xbe27b76c	-0.16378564
6	0xbef98b82	-0.4873925
7	0x3f232057	0.6372122
8	0x3f1ea7c7	0.6197476
9	0xbeb943ce	-0.36184543
10	0x3d231f49	0.039824758
11	0x3c76fc65	0.015074824
12	0x3f23b2af	0.63944525
13	0x3f7e2fa0	0.9929142
14	0x3f836a50	1.0266819
15	0x3f4cbe1f	0.799776
16	0xbeccfff0	-0.40039015
17	0x3d4f5273	0.05061574
18	0x3f00e3e4	0.50347733
19	0x3edb4e9c	0.42833412
20	0x3f00e1c4	0.5034449
21	0x3d7e6a74	0.06211324
22	0xbe877432	-0.26455837
23	0x3f6fe9ae	0.9371594
24	0xbd286599	-0.041112516
25	0x3ee7bba3	0.45260343
26	0x3df0af28	0.117521584
27	0x3e7e001a	0.24804726
28	0x3f47c09e	0.78028286
29	0xbde4c01e	-0.11169456
30	0xbd9bb4f4	-0.076028734
31	0xbea352cf	-0.31899115
32	0x3e43deff	0.19128035
33	0x3d529a31	0.05141658
34	0xbe9cd62e	-0.30632156
35	0x3d84b04b	0.06478938
36	0x3ef746ca	0.48296195
37	0x3c6fcb2a	0.01463584
38	0x3c88853a	0.01666509
39	0x3f64f204	0.89431787
40	0xbe9b5afa	-0.30342847
41	0xbd99a8a7	-0.07502871
42	0x3ebd60f5	0.36988035
43	0x3f36bff0	0.71386623
44	0x3f17105e	0.5900935
45	0x3f04eac9	0.51920754
46	0xbbd50cef	-0.006501786
47	0x3d3c66ea	0.045996584
48	0x3dd6c935	0.10487596
49	0xbd3c04d6	-0.04590305
50	0xbd96be26	-0.07360487
51	0xbf44869b	-0.7676789
52	0x3f2ff311	0.68730265
53	0x3c83b4ad	0.016077364
54	0x3f19c2bf	0.60062784
55	0x3d020751	0.03174526
56	0x3f4e3f83	0.8056566
57	0x3f684b7e	0.9074019
58	0xbcff0944	-0.031132348
59	0x3f939f6d	1.1533028
60	0x3deacdaf	0.11465012
61	0x3d6be688	0.0575929
62	0x3dd208be	0.10255574
63	0xbcd1048f	-0.025514869
64	0x3db9c616	0.09070985
65	0xbe9a2fdd	-0.30114642
66	0x3f504ffc	0.81372046
67	0x3fa066a9	1.2531329
68	0xbda7c99a	-0.08192749
69	0x3f33e43f	0.7027015
70	0x3f21bc62	0.63178074
71	0xbc00858a	-0.007844338
72	0x3f310ac4	0.6915705
73	0x3f445c93	0.7670376
74	0x3f7fc81c	0.9991472
75	0x3beb17a3	0.0071744486
76	0x3e2c8d92	0.1685088
77	0xbec6e32f	-0.38845202
78	0x3f6180fb	0.88087434
79	0x3f95e583	1.1710666
80	0x3f649375	0.892875
81	0x3a8c2839	0.001069314
82	0xbed0c9da	-0.40779
83	0x3f86cd02	1.0531313
84	0x3f408a4c	0.75211024
85	0x3f5bd220	0.858675
86	0x3e2cb68b	0.1686651
87	0x3f833aba	1.0252297
88	0xbd0961e6	-0.03354063
89	0x3f833a6b	1.0252203
90	0x3f6a6173	0.91554946
91	0x3f62ea75	0.88639003
92	0x3e7c9513	0.24666242
93	0x3cfafc69	0.030637937
94	0xbdab0a77	-0.083516054
95	0x3e54df07	0.20788203
96	0x3d899942	0.06718685
97	0xbeeb2c11	-0.45932057
98	0xbc8b76c9	-0.017024415
99	0x3eb0261c	0.34404075
100	0xbb3480e6	-0.002754265
101	0x3e1a84ea	0.15089765
102	0xbde21369	-0.110388584
103	0xbc560a31	-0.013063953
104	0x3e4e3aba	0.2013959
105	0x3f120c95	0.5705045
106	0xbe6f2b23	-0.23356299
107	0xbd8c90a8	-0.068635285
108	0x3f44c082	0.76856244
109	0x3e42a1bf	0.19007014
110	0x3f0c811d	0.5488451
111	0xbe707d4f	-0.23485301
112	0x3f437e82	0.7636491
113	0x3f57e44c	0.8433273
114	0x3e2c43c2	0.16822723
115	0x3e106ff2	0.14105204
116	0x3e27819a	0.16358033
117	0xbc9fd0a8	-0.019508675
118	0x3f3f9cc9	0.7484861
119	0xbe91379b	-0.28362736
120	0xbef77a7b	-0.48335633
121	0xbf161df3	-0.5863945
122	0xbc828f28	-0.015937403
123	0x3e634761	0.22195198
124	0x3c58155c	0.013188686
125	0x3f449752	0.76793396
126	0x3e383ed9	0.17992724
127	0xbdfd1fa1	-0.12359548
128	0x3d324418	0.04352197
129	0x3fd3451c	1.6505466
130	0x3f2bd8e2	0.6712781
131	0x3f5ed78c	0.8704765
132	0x3ddabba8	0.10680324
133	0xbe6dc4a8	-0.2321955
134	0xbebe420d	-0.37159768
135	0x3f90e3c2	1.1319506
136	0x3f6324f0	0.8872824
137	0xbe764081	-0.24048044
138	0x3d7211c1	0.059098963
139	0xbccf7929	-0.025326328
140	0x3f3363cd	0.7007416
141	0x3fbfa55f	1.4972342
142	0x3f6c3e7c	0.92282844
143	0x3fa222fc	1.2666926
144	0xbf947c47	-1.1600426
145	0x3d94d519	0.07267208
146	0x3d6efaa0	0.058344483
147	0x3fb77382	1.4332125
148	0x3eb328f7	0.3499219
149	0xbc61f96c	-0.013792377
150	0xbf19dac2	-0.6009942
151	0x3f78a6b8	0.9712939
152	0x3d9de8a8	0.07710391
153	0x3f82959b	1.0201906
154	0xbe4bec12	-0.19914272
155	0x3ea31aa3	0.3185626
156	0x3f84bde8	1.0370455
157	0xbdf9af11	-0.121915944
158	0xbd0b6b07	-0.034037616
159	0xbe81adad	-0.25327817
160	0xbdef1e4c	-0.116757005
161	0x3d81305e	0.063080534
162	0xbca5d82d	-0.020244682
163	0xbd9a3c2c	-0.07531008
164	0x3f9c8286	1.2227333
165	0x3d2a023c	0.041506037
166	0xbee36f21	-0.44420722
167	0x3f68eb4d	0.9098404
168	0xbe6b7edc	-0.22997612
169	0xbb960a14	-0.004578838
170	0x3f01b4f7	0.50666755
171	0x3f5eeab2	0.87076867
172	0x3f940254	1.156321
173	0x3f257b63	0.646414
174	0xbd749a48	-0.059717447
175	0xbdacfd47	-0.08446746
176	0xbef1af15	-0.4720389
177	0x3da19cbf	0.07891225
178	0xbc16c890	-0.009203091
179	0x3f65eae6	0.8981155
180	0x3f7969db	0.9742715
181	0xbd1a21cd	-0.03762989
182	0x3f879601	1.0592653
183	0xbe5e3d90	-0.21703172
184	0x3f66b861	0.9012509
185	0x3f1a2aaa	0.6022135
186	0xbc4cfc29	-0.012511292
187	0x3f442563	0.7661955
188	0xbe07b6ad	-0.13253279
189	0xbf304526	-0.6885551
190	0xbe39898e	-0.18118879
191	0xbd3ab19c	-0.045579538
192	0x3cab0e0c	0.020880722
193	0xbeb139d2	-0.34614426
194	0x3f865235	1.0493838
195	0x3f8d8ce7	1.1058625
196	0x3ef519e5	0.47871318
197	0x3f823a7b	1.0174097
198	0x3e6c5a1e	0.23081252
199	0x3cded76a	0.027202327
200	0x3f7dfae1	0.99210936
201	0x3f8b80b7	1.0898656
202	0x3f203caf	0.62592596
203	0xbbe423e7	-0.0069622877
204	0xbe479113	-0.19488935
205	0xbfbf805e	-1.496105
206	0x3f7eb995	0.99501926
207	0x3f851075	1.0395647
208	0x3f574792	0.8409358
209	0x3da787ad	0.08180175
210	0x3f009f5e	0.50243175
211	0x3fa38987	1.2776345
212	0x3f570abb	0.8400075
213	0x3f1c2e47	0.61008114
214	0xbe1ca1b7	-0.15296064
215	0x3fad1f2e	1.352514
216	0xbd6a3949	-0.057183538
217	0x3f4c5747	0.79820675
218	0x3ee71f45	0.45141044
219	0x3fc35509	1.5260326
220	0x3ee69620	0.4503641
221	0x3f0042c6	0.5010189
222	0x3d503e94	0.05084093
223	0x3f7f68ce	0.99769294
224	0xbf168710	-0.5879984
225	0xbe0301c1	-0.12793638
226	0x3d16ef60	0.03684938
227	0xbee25bdd	-0.4421071
228	0xbd4b4895	-0.049629766
229	0xbe399b61	-0.18125679
230	0xbe8c4efd	-0.27404013
231	0xbc861d6a	-0.016371448
232	0xbde65919	-0.11247463
233	0x3f9305e7	1.1486176
234	0xbe175361	-0.147779
235	0xbcf231f9	-0.029564844
236	0x3f8ec457	1.1153668
237	0xbe6bcc53	-0.23027162
238	0x3fbc50f4	1.4712205
239	0xbe0b1231	-0.13581158
240	0x3f8a46b5	1.0802828
241	0x3f192865	0.5982726
242	0xbd877fe0	-0.06616187
243	0xbe268acd	-0.16263886
244	0xbf398776	-0.7247232
245	0xbc847366	-0.016168308
246	0x3fdfb202	1.7476199
247	0x3e286e43	0.16448312
248	0xbf2a7b88	-0.66594744
249	0x3f40143c	0.75030875
250	0xbda3582d	-0.079758026
251	0xbe06b4eb	-0.13154952
252	0xbc434e26	-0.0119204875
253	0x3eef912a	0.4679044
254	0x3fd0f88a	1.6325848
255	0x3e30ba81	0.17258646

out.bias f4 [4]
0	0x3ed1b7fe	0.40960687
1	0x3f80e352	1.0069373
2	0xbd487069	-0.048935328
3	0x3dd5a51a	0.10431881
