RL/SHDQN.pth (torch, 45684 bytes, 6 tensors)

net.1.weight f4 [64, 30]
000000 e1 ad 1f bd 8a 13 97 3e 06 f9 75 bd d1 46 34 3d
       -0.038984183 0.29507095 -0.06005194 0.04401285
000010 44 dd fd 3d 74 9f d9 bd e6 3d 5d 3c 69 18 e3 3d
       0.12395719 -0.106261164 0.013503527 0.1108864
000020 da 5d 6a 3d 7a 1d c9 3d 1b c5 09 3e fc 00 27 3e
       0.05721841 0.09820075 0.13454096 0.1630897
000030 6a 74 3c 3e 6a 72 0b 3e 1c d7 cf 3c 44 68 15 bd
       0.18403783 0.13617864 0.025371127 -0.03647639
000040 b6 e3 39 3d 0f 3a 90 3c c6 a4 43 3d 1f 55 20 3e
       0.045383178 0.01760581 0.047764562 0.15657471
000050 5c 19 a8 bc 6f f1 14 bd f7 c3 20 bd 05 56 8e bd
       -0.020519905 -0.03636306 -0.039249387 -0.06950001
000060 08 33 23 bd 63 2f 25 3c 24 bf f5 3d 63 f7 c2 c0
       -0.03984359 0.010082099 0.11999348 -6.0926986
000070 0d e4 55 3d a5 31 6f 3d 0a 47 e5 3e 35 8b 12 be
       0.05221944 0.058396954 0.4478076 -0.14310916
000080 8f d1 b7 3d 72 b8 24 3e f2 f2 e4 bd 07 17 17 3b
       0.08975517 0.16085985 -0.11179151 0.0023054497
000090 9d a8 dd 3e c4 19 44 be 62 16 3a bd 27 97 7b 3e
       0.43292704 -0.19150454 -0.045431502 0.24569379
0000a0 61 90 1e 3e af 70 2d 3e 8b 0a e6 3e 56 fe 40 be
       0.15484764 0.16937517 0.4492992 -0.18847021
0000b0 85 59 cf bc f2 d6 06 3e db a4 2e be 90 17 e5 bb
       -0.02531124 0.13167933 -0.17055075 -0.0069913343
0000c0 d8 b3 c0 3d be d4 2d be 63 a8 0a 3e e9 60 f6 3d
       0.094093025 -0.16975686 0.13540797 0.12030203
0000d0 a7 50 b4 3d df 6a a0 bd af 8f e4 3e aa 39 7e be
       0.08804446 -0.07832884 0.44640872 -0.24826685
0000e0 09 16 97 bf b0 d9 13 41 08 ee 4c 3d 74 08 1a be
       -1.18036 9.240646 0.05003169 -0.15042287
0000f0 fe 51 27 3d 37 d6 09 3e bc 71 9b 3d 12 6d 09 3e
       0.04084968 0.13460623 0.075900525 0.13420513
000100 0f a3 0e 3e 09 0d aa 3d c0 38 af bd fe 09 b3 3d
       0.1392939 0.083032675 -0.08555746 0.0874214
000110 1b 74 b8 3d 63 2b 1a 3e a7 c9 b4 3d b3 bc 7d bd
       0.0900652 0.15055613 0.08827525 -0.061947536
000120 bb 45 19 be 5c c6 bb 3e b0 7f aa bd 9d 9f 55 bd
       -0.14968006 0.36674774 -0.08325136 -0.052154172
000130 9b c5 f1 3d 09 48 b9 3c 95 8b c7 3c 44 1f 43 3e
       0.118052684 0.022617357 0.02435855 0.19054896
000140 f3 e1 67 bd 7e d0 db 3d 84 48 2e be 02 b8 b6 3c
       -0.056611966 0.10733126 -0.1701985 0.022304539
000150 2a 38 1d 3e fa 2a 35 3e 6f ee 84 be 57 75 c8 c0
       0.15353456 0.17692176 -0.2596316 -6.2643237
000160 68 c9 15 be a7 e8 64 3d 3c bb 11 3e ef 40 9e 3e
       -0.14627612 0.055885937 0.1423158 0.30908915
000170 68 c2 da 3d fc 03 13 3e 8a ac eb 3d cc f2 9a 3d
       0.10681611 0.14356989 0.115075186 0.07565841
000180 04 4a fa 3d b5 9f 91 3e f4 e1 dd 3d e5 ff ed bd
       0.122211486 0.2844216 0.10834113 -0.11621074
000190 81 25 35 3e c1 05 dc 3d 89 62 95 bd c8 25 e3 3d
       0.17690088 0.10743285 -0.07294185 0.110911906
0001a0 34 e1 a9 bd 51 22 03 3d 1b 6d c4 3d 17 97 19 3c
       -0.08294907 0.03201515 0.09591123 0.0093744015
0001b0 fa 58 c4 3d 1c d9 2e 3d 98 c5 0e bd ce 4d 09 3e
       0.095872834 0.04268752 -0.03485641 0.13408586
0001c0 24 d6 bc bd a1 83 17 be 31 68 20 bd 55 1a ea bd
       -0.092205316 -0.14796306 -0.039161865 -0.11430804
0001d0 1c 30 84 3c 80 e5 ca c0 de e0 c0 3d b4 c3 37 be
       0.016136222 -6.340515 0.0941789 -0.17945749
0001e0 24 73 0d 3d 1a 8b b2 3e 8e 8c c1 bd 03 fe 2a bd
       0.034533635 0.3487175 -0.09450637 -0.04174615
0001f0 3e c9 2e 3e 9c b7 9c 3d 0c 73 d1 bd 02 16 e2 3d
       0.17068955 0.07652208 -0.102270216 0.11039354
000200 3a f6 8f 3c 86 16 d1 3d 1e d0 f8 bb 10 6c c9 3c
       0.017573465 0.10209374 -0.007593169 0.024587661
000210 2b 4f 45 3e a9 99 04 3e ae 91 12 3e 34 dd 42 bd
       0.19268481 0.12949242 0.14313385 -0.047574237
000220 45 80 00 be 83 23 ae bc 1e 8a 0f 3e 72 73 01 3d
       -0.12548931 -0.021257168 0.14017531 0.031604238
000230 f6 0a c5 3c 40 44 c3 3c b9 f9 18 be fa c7 7a 3d
       0.024053078 0.023836255 -0.14939012 0.06122587
000240 2e f4 8f 3d 6c a9 ba bd e9 72 92 be 3c 26 cd c0
       0.070289955 -0.09114346 -0.28603294 -6.4109173
000250 ea 11 2c be 2e 25 a7 bb 32 65 30 3e fd 99 b1 3e
       -0.16803709 -0.0051008677 0.17226103 0.34687796
000260 81 1d e9 3c ae 46 35 bd de 08 9b bd 61 ad 57 3d
       0.028456451 -0.04425686 -0.07570051 0.05265558
000270 80 aa 97 3d 7a 8d 85 3e ed 39 a8 bd 91 04 35 3c
       0.07405567 0.260845 -0.082141735 0.011048452
000280 e0 45 f9 bd 33 7e 12 3d ce b0 00 3e 52 77 9b 3e
       -0.12171531 0.035764884 0.12567446 0.30364472
000290 b8 5d ba bd c2 ba 34 bd 43 02 f7 bd cc 82 14 bd
       -0.09099907 -0.04412342 -0.12060978 -0.03625755
0002a0 b7 15 0d 3e 3b f7 76 3e dd 23 1d 3e 00 4f 74 3c
       0.13777815 0.24117748 0.15345712 0.014911413
0002b0 94 92 80 3d f0 f8 6c bd 4b c4 6a 3d b1 69 a2 3e
       0.062779576 -0.057854593 0.057316106 0.3172126
0002c0 4e 65 83 3e 2d 94 c6 c0 ab 6c 58 3d 34 84 d9 bd
       0.25663227 -6.205588 0.05283801 -0.10620919
0002d0 39 0d 7c bd 83 ed 99 3d 16 2d ce 3c 73 68 2d bb
       -0.061536048 0.07516005 0.025167983 -0.0026459962
0002e0 69 3f 01 3e ed d7 03 be c7 1d 58 3d b1 a4 24 3e
       0.12621845 -0.12875338 0.052762773 0.1607845
0002f0 9d 76 2c bc a1 98 be bd 22 19 39 3e af f8 2e bd
       -0.0105263265 -0.093064554 0.18075994 -0.042717632
000300 07 c3 42 bd 36 74 b2 3e eb 0a 3f 3d 62 d3 ce 3d
       -0.047549274 0.34854287 0.04664127 0.10098912
000310 32 a6 2f 3b f2 3a da 3d ef 55 86 bd 11 82 82 3e
       0.002680194 0.10655774 -0.06559359 0.25489858
000320 ba 6f 67 bd 37 e3 38 3d 8d 1f 02 be c3 23 86 3d
       -0.056503035 0.045138564 -0.12707348 0.0654979
000330 e0 fc 70 bc aa 3b 26 3e 9c 64 71 3e a0 ca d8 c0
       -0.014708728 0.16233698 0.23573536 -6.7747345
000340 e8 79 a0 bd 49 90 d2 3d eb 59 85 3d ce 80 e8 3e
       -0.07835752 0.102814265 0.06511291 0.4541077
000350 69 2c 3c bd b1 68 f5 3c 48 7b 41 bd fa 8a 84 bc
       -0.04594079 0.029957147 -0.04723671 -0.01617955
000360 8d c3 1e bd c8 e2 53 3e a1 61 13 3c 90 08 f5 3c
       -0.03876071 0.20691979 0.0089954445 0.02991131
000370 db 56 6b 3d 02 9c 74 3d fa 85 aa bd 0f 1b 25 3e
       0.05745588 0.059719093 -0.08326335 0.16123603
000380 49 2d 52 3c cc 9c cb 3c 08 5f d1 bd cb d9 69 bd
       0.01282818 0.02485504 -0.10223204 -0.05709247
000390 fd 7f bd 3c f3 1b 05 3e f8 95 d8 3b f6 ce a2 bd
       0.023132319 0.12998943 0.0066096745 -0.07949631
0003a0 50 c8 35 be 0f de 9c 3c 5f e2 85 3b d7 bc 7b 3d
       -0.17752194 0.019148855 0.0040858234 0.06145939
0003b0 27 44 59 bd ad 04 d4 c0 ec 30 d4 bd 97 b0 b6 bd
       -0.05304351 -6.625571 -0.103608936 -0.089204006
0003c0 7a 47 c0 3e c3 7a c9 bf c4 86 a5 3d e0 cb 8e 3d
       0.37554532 -1.5740589 0.08082345 0.0697248
0003d0 0a 34 9d 3d ac 19 5a 3c 44 62 91 3e 58 1e c0 bf
       0.07675941 0.013311785 0.28395283 -1.500926
0003e0 45 4f aa 3e 66 bb 7c 3e 3d 94 0b 3e 2f fa e1 bd
       0.33263603 0.24680862 0.13630767 -0.11034047
0003f0 85 9d d7 3e 04 d4 a6 bf f6 2f ef 3d 85 e6 1c 3e
       0.42112365 -1.3033452 0.1167907 0.15322311

net.1.bias f4 [64]
000000 28 3c 8f 3e cd 03 4d be 38 f7 d0 3e 14 21 26 3c
       0.27975583 -0.20020981 0.40813613 0.010139722
000010 90 29 c0 3d d5 87 53 3e a6 46 11 3e fc ef b8 3e
       0.093829274 0.20657285 0.14187106 0.36120594
000020 02 43 c5 bf 3e 24 80 3e 07 ae 76 bd 61 16 da 3d
       -1.5411074 0.2502765 -0.06022456 0.106488
000030 4f f9 bc 3d 70 1e 10 3e b3 1e 93 3e 58 4a 5d 3e
       0.09227239 0.14074111 0.2873436 0.21610391
000040 99 e6 29 3f 6a fa f3 3e a9 cb bf 3e fc 2b 4d 3d
       0.6636749 0.47651988 0.37460068 0.050090775
000050 8a a9 d2 3e 69 ab 06 3e 96 44 2a be 0a 18 a7 3e
       0.41144973 0.13151325 -0.16627726 0.32635528
000060 dd d0 af 3d 25 87 6c 3e 87 7e dd 3d 07 0b a9 3e
       0.085847594 0.23098429 0.10815149 0.33016226
000070 ac 26 b8 bb d4 55 e5 3e c0 fd 63 3e 11 64 e4 3e
       -0.0056198444 0.44792044 0.22264767 0.44607595
000080 23 14 b2 bd fb 86 f3 3e 5b 01 2e 3d 5c 87 df 3e
       -0.08695247 0.4756392 0.04248176 0.43657959
000090 d5 4f 9c 3e 30 9a 0a 3e 26 53 f1 be 67 f9 40 3e
       0.30529657 0.1353538 -0.4713375 0.1884514
0000a0 70 f9 03 3e 1d c3 41 3d a8 d5 61 bf c2 ef 85 3e
       0.12888122 0.047305215 -0.8821664 0.26159483
0000b0 2a a9 81 3e 52 16 b9 3e 92 ea ae 3e a7 9f cd 3e
       0.25324374 0.36149842 0.34163338 0.40160868
0000c0 f2 15 d1 be 15 b1 58 3e 1c 45 d4 3e 19 f7 e5 3e
       -0.40837055 0.21161301 0.41458976 0.44915083
0000d0 fa b6 f8 3e 1a e5 be 3e ed 06 b8 3e 70 3f c5 3e
       0.485771 0.37284166 0.35942784 0.3852496
0000e0 59 92 00 3f bc bf 7f 3e f9 5d 02 3e 70 c9 e0 3d
       0.5022331 0.24975485 0.1273116 0.10975921
0000f0 94 25 dd 3e 58 54 25 3f 86 a5 05 3e 20 4e 02 3f
       0.43192732 0.64581823 0.13051423 0.5090046

net.3.weight f4 [128, 64]
000000 b0 23 d0 3e ba 08 40 bc f5 6b e8 3e a5 63 8e 3e
       0.40652227 -0.011720831 0.45394865 0.27810398
000010 c7 76 59 3e 0c 9d 9d 3e b1 d5 9d 3e 32 16 3f 3f
       0.21236716 0.3078388 0.30827096 0.7464324
000020 6d 6a 9c 3e 7c f7 de 3e 35 95 e7 be 3f 97 14 3f
       0.30549946 0.4354819 -0.45231023 0.58043283
000030 c9 e2 cb 3e 04 8b d2 3e ea dc cf 3e 6d d0 01 3e
       0.3982146 0.41121686 0.40598232 0.12677164
000040 fe cb c0 bf cf 1b 3f 3e 32 7f 04 3f 48 35 05 3f
       -1.5062253 0.18662952 0.51756585 0.52034426
000050 fd 09 01 3e 52 a4 e7 3e d2 e5 d0 3e ef 22 d8 3e
       0.12601466 0.45242554 0.4080034 0.42214152
000060 bb c3 9d 3e 31 63 95 3e 57 ee 85 3e cf 1d 20 3e
       0.30813393 0.2917724 0.261584 0.15636371
000070 df 16 dd 3e 12 dd e5 3e 9b f5 aa 3e e7 f9 b9 3e
       0.43181512 0.44895226 0.33390507 0.36323473
000080 ec 73 08 3f 2d 6f f5 3e 8e 75 b5 3e 21 0a 27 3f
       0.5330188 0.47936383 0.3544125 0.6524983
000090 bd fd 8a 3d 1b aa f0 3e 46 f5 19 bd b4 78 6c 3d
       0.06786678 0.4700478 -0.037587427 0.0577323
0000a0 78 23 9b be 37 81 00 3f bd 3f a9 be 27 5a df 3e
       -0.30300498 0.50197166 -0.3305644 0.43623468
0000b0 64 ec a3 3e 20 5e 0b bd 9d 6a 7a bb a3 13 b0 3e
       0.3201629 -0.03402531 -0.003821052 0.34389982
0000c0 17 ce df bd 41 c4 9b 3e 29 3c d0 3e fa 76 e8 3e
       -0.109279804 0.30423167 0.406709 0.45403272
0000d0 8c 52 54 3e ad 31 2a 3f db cc 01 3f 44 1a 1c 3f
       0.20734614 0.6648205 0.5070321 0.6097758
0000e0 80 07 c4 3e 09 48 4c 3e 86 5b da 3e 0d e4 db 3e
       0.38286972 0.19949354 0.42647952 0.42947426
0000f0 88 23 e9 3e a5 df c8 bd a9 a9 96 3e 76 e5 66 3d
       0.4553492 -0.09808282 0.29426315 0.056371175
000100 91 36 aa 3e da 1d 02 bd c2 12 75 3e 34 4c 4f 3e
       0.33244756 -0.03176675 0.23932937 0.20243913
000110 ea 9e 2e 3e 9f 2f 43 3e d1 0f 08 3f f6 de 4d 3f
       0.17052808 0.19061135 0.53149134 0.80418336
000120 85 24 27 3f 9f d7 35 3e 19 41 d8 be 04 4b db 3e
       0.652901 0.17758034 -0.42237166 0.4283067
000130 33 8e 3c 3e 6f a2 17 3f 71 25 19 3f 1c 95 ac 3d
       0.1841362 0.5923223 0.59822756 0.08426878
000140 83 82 7f bf 03 b9 f4 3d a2 03 19 3d 46 1c 94 3e
       -0.9980852 0.11949351 0.03735698 0.2892782
000150 ff 54 9a 3e 96 d7 9f 3e 25 ba 93 3e 8e c2 a3 3e
       0.30142972 0.31219167 0.28852955 0.3198437
000160 97 f5 c4 3e 40 b0 6d 3e 44 fb ac 3e 83 e2 8c 3d
       0.3846862 0.23211765 0.3378545 0.06879141
000170 73 d3 78 3e 83 3e 8a 3e 5a ad b3 3e b4 82 56 3e
       0.24299411 0.27000818 0.35093194 0.20948297
000180 e1 df 6e 3e 7b 17 31 3e c8 05 8b 3e c6 bb 7f 3d
       0.2332759 0.17294113 0.27152848 0.062434934
000190 00 11 35 3f 2b 1c 97 3e fa 2a 14 3c d8 ad ed 3e
       0.70729065 0.29513678 0.00904345 0.46421695
0001a0 40 e4 0d bf 4c ee 76 3e 6e 3b 08 bf 74 da 28 3e
       -0.55426407 0.2411434 -0.5321568 0.16489583
0001b0 7c bf 90 3e 24 55 91 3e 3d 49 ea 3d d6 d9 8e 3e
       0.2827109 0.2838527 0.1143975 0.2790057
0001c0 b1 c9 4b 3d 64 a9 82 3e 5f 94 d3 3e 22 9c 8b 3e
       0.049752895 0.2551986 0.41324136 0.27267557
0001d0 96 4d 07 3e 5b d0 01 3f 4c 2b 53 3e 17 48 42 3e
       0.1321319 0.5070855 0.20621985 0.18972813
0001e0 5a ad 06 3f 1d 60 2b 3e fc 6e 81 3e 68 4e 3b 3f
       0.52608263 0.16735883 0.25279987 0.73166513
0001f0 56 58 3e 3e 92 03 39 3c e0 8f 4a 3e 1c 95 bc 3c
       0.18588385 0.011292355 0.19781446 0.02302032
000200 24 3e e5 3e a5 68 10 bf 14 20 46 3d 86 40 6c 3e
       0.44773972 -0.56409675 0.048370436 0.23071489
000210 c2 4f 7e 3e dc 6a 3f 3e ce c0 1e 3f 91 29 34 3f
       0.24835113 0.18693107 0.62012947 0.70375925
000220 ff 39 19 be 39 e1 4b 3e 17 35 a1 be 0c 9a d5 3e
       -0.1496353 0.19910134 -0.31485817 0.4171909
000230 c4 81 1c 3e 24 09 30 3f c4 1f 16 3f 2e 97 c6 3e
       0.15283877 0.6876395 0.5864222 0.38787216
000240 c8 df 49 bf c0 e0 80 3e 9e 92 19 3e 81 36 44 3e
       -0.7885709 0.2517147 0.14997336 0.19161417
000250 eb be 09 3f 8a 42 f2 3e 4f 57 4e 3e c8 69 8b 3e
       0.5380694 0.4731639 0.20150493 0.27229142
000260 70 d5 bb 3e 6a 56 9d 3e c7 6f eb 3e f4 8b 76 3e
       0.36686277 0.3072999 0.45983717 0.24076825
000270 64 ad a3 3e 7a 58 c6 3e 80 4a f4 3e 1b 3c 33 3e
       0.31968224 0.38739377 0.4771309 0.17503397
000280 64 ba 82 3e b5 d0 21 3e cf 06 9e 3e c8 df 5d 3e
       0.2553283 0.15802272 0.3086457 0.21667397
000290 78 e9 29 3f 22 f9 b4 3e a3 c7 83 3d 02 44 90 3e
       0.6637187 0.35346323 0.06434562 0.28176886
0002a0 63 49 2f bf 40 cc 2e 3e 3b e3 93 bd c6 ef 13 3e
       -0.68471354 0.17070103 -0.07221075 0.14446935
0002b0 00 bf 33 3e 0e 58 a3 3e 07 6b 81 3e 4c f7 aa 3e
       0.1755333 0.31903118 0.25276968 0.33391798
0002c0 bb 09 88 3e af a3 d8 3e 69 ac 11 3f da 10 00 3f
       0.26569924 0.4231238 0.569037 0.50025713
0002d0 fa 72 5e 3e 96 c0 e3 3e f9 4f 8c 3e bb 4f 8d 3e
       0.21723548 0.4448287 0.27404764 0.27599892
0002e0 d4 95 2e 3f de 0e a7 3e 3a d4 66 3e e7 3d 36 3f
       0.6819737 0.3262853 0.22541896 0.71188205
0002f0 78 f6 17 3e 60 f2 d3 3d 67 b5 6b 3e bf 65 64 3e
       0.14840114 0.10348964 0.23018418 0.22304438
000300 81 51 01 3f 02 06 1d 3d f1 dc 86 3e bc 31 f9 3d
       0.5051499 0.038335808 0.2634044 0.12167689
000310 7b 34 2d 3e 83 40 83 3e 10 8b 08 3f be f0 12 3f
       0.16914551 0.25635156 0.5333719 0.57398593
000320 3c 78 f8 3e 8f 8f ac 3e b0 77 fc be 91 95 ea 3e
       0.48529232 0.33703277 -0.49310064 0.45817235
000330 57 4d dd 3e f7 f9 0c 3f 21 08 1d 3f 92 ff b7 3e
       0.43223068 0.55068916 0.6134053 0.35937172
000340 63 03 93 bf 8f f9 5c 3e 0a 7c 8a 3d ee e9 73 3e
       -1.1485409 0.21579574 0.0676194 0.23819706
000350 b0 35 dc 3e b1 e2 c9 3e eb fe 83 3e b8 16 bc 3e
       0.4300971 0.39430764 0.25780424 0.36736083
000360 bb ac 02 3f e2 1e 8e 3e 3d 3e 4c 3e e2 86 2e 3e
       0.51044816 0.27757937 0.19945617 0.17043641
000370 e4 22 ca 3e 1b 9f eb 3e 58 c2 cb 3e ec 53 52 3e
       0.39479744 0.46019825 0.3979671 0.20539826
000380 8a 0a 00 3e 67 5d 4d 3e 04 9f 74 3e ff 37 0a 3e
       0.1250402 0.20055161 0.23888785 0.13497923
000390 d8 af 2d 3f f5 e2 9d 3e 93 1a ed bd 9b 6b 9a 3e
       0.6784644 0.30837217 -0.11577334 0.3016022
0003a0 9a e4 16 bf 3c 49 e5 3e c1 23 1d bf d7 fd 65 3e
       -0.5894257 0.44782436 -0.6138268 0.22460113
0003b0 05 00 dd 3e a8 06 b6 3e ac 91 49 3e 93 1d b5 3e
       0.43164077 0.35551953 0.19684476 0.35374126
0003c0 82 90 4f be 1c d1 d2 3e f7 17 ea 3e 2d 4d 4d 3e
       -0.20269969 0.41175163 0.4572141 0.20048971
0003d0 f1 ae 36 3e aa 70 b8 3e 81 de d3 3d 71 ca 8f 3e
       0.17840172 0.36023456 0.103451736 0.28084138
0003e0 0e e0 1e 3f 91 4f 76 3e e6 2e b5 3e 2b 59 56 3f
       0.6206063 0.2405379 0.35387343 0.8372981
0003f0 76 6b 35 3e 6a 41 e3 bc 5d 6f d6 3d a3 fe e0 3d
       0.17716774 -0.027741153 0.104704596 0.10986068

net.3.bias f4 [128]
000000 68 66 20 be 2c 02 80 be 04 75 60 3d 24 42 82 be
       -0.15664065 -0.25001657 0.054799095 -0.25441086
000010 f0 06 25 bf f0 90 48 bf 07 e9 3f bf 4c 2f 1a be
       -0.6446371 -0.7834616 -0.74964947 -0.15057105
000020 aa 76 14 be 8f 7e 0f be 0a d9 32 bf b0 e8 57 bf
       -0.14498392 -0.14013122 -0.69862425 -0.8433943
000030 71 81 71 3f c0 47 51 bd d3 e9 91 3e 9c 69 e9 3e
       0.94338137 -0.051093817 0.28498706 0.45588386
000040 f9 2a d8 3e de 8e d1 be b7 10 81 bc 93 9f 34 bf
       0.42220286 -0.40929312 -0.01575504 -0.7055599
000050 1e bf 19 bf 16 75 4b 3e a3 49 0f bf 59 92 47 bf
       -0.60057247 0.19868883 -0.55971736 -0.77957684
000060 6e d4 75 3d 24 e8 8c 3d 8f e9 97 bd 32 b0 42 bf
       0.06001704 0.06880215 -0.07417595 -0.760501
000070 4e 78 0b be 01 97 2b bf d6 78 db 3e 44 fa be 3e
       -0.13620111 -0.6702729 0.42865628 0.37300313
000080 f9 41 b8 3d 27 b3 16 3f b7 1b ab be 0b 39 e3 be
       0.08996958 0.58867115 -0.33419582 -0.44379458
000090 58 31 44 bf 52 9b 0c 3f fc ff 9d be fe 04 2d bf
       -0.7663779 0.549245 -0.30859363 -0.6758574
0000a0 05 67 43 bf 1d 88 32 3f 1d 57 3a 3e 9e 0b 32 be
       -0.7632907 0.6973894 0.18197294 -0.17387244
0000b0 7d ed 32 3d bf e0 19 bf c2 cf 5a 3e 9e d0 08 3d
       0.043683518 -0.6010856 0.21368316 0.033402078
0000c0 07 68 3e be 49 30 90 be 5a 4b 85 be 14 d9 02 bf
       -0.18594371 -0.2816184 -0.2603405 -0.51112485
0000d0 27 77 3f bd 45 71 45 bf ec ea eb be 3d 02 d9 3d
       -0.046744492 -0.7712596 -0.4607767 0.1059613
0000e0 b3 91 be bd 39 ec 0e 3e ad 3e a4 3e 58 b6 d9 3e
       -0.09305134 0.139573 0.32079068 0.4252193
0000f0 1b ea 32 3e 89 d9 57 bf f6 29 31 be 47 6c 5b 3e
       0.17472117 -0.8431631 -0.17301163 0.21428023
000100 5c 72 4c 3f 3b 24 7e be 3c 89 94 bd 8a f0 f9 3a
       0.79862 -0.24818508 -0.07252738 0.0019068879
000110 f9 8f 12 be 6e 4d 58 bf 87 f0 90 be c0 76 07 3f
       -0.14312734 -0.8449315 -0.28308508 0.52915573
000120 f9 a4 19 be 94 e6 e8 3e 58 a0 8e be ec 36 c2 3f
       -0.15004338 0.45488417 -0.27856708 1.5173011
000130 f0 1d 81 3d f4 c3 86 3e 18 a1 ea 3d 76 57 8b 3d
       0.06304538 0.26321375 0.114565074 0.06803791
000140 46 81 5c 3e b9 c8 f7 3c 43 e6 14 be 0d 03 3e bf
       0.21533689 0.03024708 -0.14540963 -0.74223405
000150 85 3a 34 3f f1 17 16 bf 7c b4 f2 bc a0 82 63 bd
       0.70401794 -0.5863028 -0.029627077 -0.055544496
000160 65 cb 59 bd dd 5d 87 be ab 8b 33 bf 3f ff 87 3e
       -0.053172488 -0.264388 -0.7013499 0.26561925
000170 99 a8 41 bf 37 96 60 bd f0 f5 03 3f 27 3b 23 bf
       -0.75647885 -0.054830756 0.51547146 -0.63762134
000180 b0 ce b2 3e 23 dc 45 be 15 f2 00 3e d5 ab 1a 3f
       0.34923315 -0.19322257 0.12592347 0.60418445
000190 2c 7e 89 be e3 11 40 3f 17 57 a5 3e 16 7c 58 bf
       -0.26854074 0.7502729 0.32293007 -0.8456434
0001a0 63 a6 2c 3f b8 a6 5c bf 90 70 0c bd ec 71 20 3f
       0.67441386 -0.8619189 -0.034287035 0.6267383
0001b0 1a 9c 8b be fc 5e 32 bf a9 47 aa 3e 30 0f 31 bf
       -0.27267534 -0.69676185 0.33257797 -0.691638
0001c0 8a 1c 55 3e fb 7d 3f be 58 32 28 bf 7a 91 b4 3e
       0.20811668 -0.18700401 -0.6570182 0.3526724
0001d0 eb e9 b9 be b4 96 ee 3e c9 d8 28 bf 8d 59 41 3e
       -0.36311278 0.46599352 -0.6595579 0.18881817
0001e0 3e 07 2f 3f 6b 3e 42 bf 98 2c 2b be e3 04 49 bf
       0.68370426 -0.7587649 -0.1671623 -0.7852308
0001f0 c2 74 e6 bd 13 5c 38 bf b1 5e 43 bd a0 14 0a be
       -0.112527385 -0.72015494 -0.047697727 -0.1348443

net.5.weight f4 [4, 128]
000000 17 e7 78 3f 4f c5 cd 3e 70 9c ec 3e 6f dd f4 3e
       0.97227615 0.40189597 0.46213102 0.4782519
000010 f1 53 b8 be 69 aa e2 be f6 2b d2 be 36 3e 17 3f
       -0.36001542 -0.44270638 -0.41049165 0.590793
000020 7e ac 18 3f 02 7c 10 3f 65 03 c6 be c6 2d c8 be
       0.596382 0.5643922 -0.38674465 -0.39097422
000030 98 7b 33 3f 2a e8 0a 3f 49 44 ee 3e 18 c5 15 3f
       0.70110464 0.54260504 0.46536472 0.58503866
000040 da 59 c9 bd 94 81 34 3f 88 32 0c 3f c7 b5 e8 be
       -0.09831591 0.7051022 0.54764605 -0.45451185
000050 45 af aa be 54 c3 16 3f e9 2a d9 be d7 9c c6 be
       -0.33336845 0.588918 -0.4241555 -0.38791534
000060 13 b0 a7 be 38 7d ff 3e a3 6d 12 3f 77 8f cc be
       -0.3275152 0.49900222 0.5719854 -0.39953205
000070 95 54 20 3f 3a 86 ba be 9c a9 c4 3e cc 31 97 be
       0.6262906 -0.36430532 0.38410652 -0.2953018
000080 00 1b e9 3e 26 62 c6 3e bd 93 1f 3f 06 fa d3 be
       0.45528412 0.38746756 0.62334806 -0.4140169
000090 8c 65 bc be ad 6d f6 3e 7e de a6 3e 45 46 54 bf
       -0.36796224 0.4813055 0.32591623 -0.8291972
0000a0 5f 6c cc be 26 bf 8e 3e 02 ce 3c bf 50 86 23 3f
       -0.3992643 0.2788021 -0.7375184 0.6387682
0000b0 1a b1 04 3f f3 9a d8 be bf 4e b8 be 9d c6 98 be
       0.51832736 -0.42305717 -0.35997579 -0.2983903
0000c0 bb 8c 0b 3f b1 4a 50 3f d7 5f 15 3f 72 c0 01 bf
       0.5451161 0.8136397 0.58349365 -0.50684273
0000d0 5c 86 0b 3f 0a 2f be be 4b 40 af be af 25 86 be
       0.5450189 -0.37145263 -0.3422874 -0.26200625
0000e0 80 4d ec bf 36 16 87 be 35 57 d0 3e 2c 09 b7 3e
       -1.8461151 -0.26384133 0.40691534 0.35749185
0000f0 bb 7e 08 3f dc 3a b4 be f6 a7 09 3f b3 ea db 3e
       0.53318375 -0.35201156 0.53771913 0.429525
000100 94 3f 32 3f eb 39 26 3f 62 5b d7 3e b8 2c 04 3f
       0.6962826 0.64932126 0.42061907 0.51630735
000110 db 14 f7 3e b9 a8 b9 be 9b ca 34 3f e3 df c1 3e
       0.482581 -0.36261538 0.7062165 0.37866125
000120 18 97 81 3e 85 d2 d4 3e b0 62 09 3f 26 51 f1 3f
       0.25310588 0.41566864 0.5366621 1.885289
000130 bb f6 00 3f 0f 28 bd 3e 7f 5e e7 3e d0 88 00 3f
       0.5037648 0.36944625 0.45189282 0.5020876
000140 5e e8 f1 3e 57 2f ed 3e ee 52 ff 3e 87 46 a7 be
       0.47247595 0.4632518 0.49867958 -0.32670996
000150 28 75 1a 3f a7 14 f3 be e7 7d 12 3f f8 cb 06 3f
       0.60335016 -0.47476694 0.5722336 0.5265498
000160 0a 0e 0c 3f b2 e2 04 3f e5 92 c6 be f9 7b 88 bf
       0.5470892 0.5190841 -0.38783947 -1.0662833
000170 e0 32 db be 9d 43 fc 3e 63 c0 ac 3e 08 75 ba be
       -0.42812252 0.49270335 0.3374053 -0.36417413
000180 67 de 0a 3f a2 8d 06 3f 63 95 04 3f b7 50 e1 3e
       0.5424561 0.52559865 0.51790446 0.44006893
000190 e3 66 e7 3e 2c 16 a7 bf 9d 8b f9 3e 3e fd 8a be
       0.45195684 -1.3053641 0.4873933 -0.27146333
0001a0 bf ea d3 3e d9 66 cf be 27 95 05 3f f1 6a ae 3e
       0.41390035 -0.40508154 0.52180713 0.34065965
0001b0 ba 29 0f 3f 08 d1 cc be 3b 9c f9 3e 84 cd 29 bf
       0.55923045 -0.40003228 0.48752007 -0.66329217
0001c0 00 b1 bf be 3a f5 0c 3f 64 02 e8 be d1 11 b4 be
       -0.37439728 0.55061686 -0.45314324 -0.35169843
0001d0 c2 19 25 3f dd 66 e1 3e 2d c5 b0 be be 5b 10 3f
       0.6449243 0.4402379 -0.34525433 0.5638999
0001e0 5b 5f d8 3e 8f d3 bc be d5 2f c8 3e 17 d7 a9 be
       0.4226025 -0.36880156 0.39098993 -0.33171913
0001f0 9f ab 18 3f 10 f1 e5 be f5 de f8 3e b5 02 29 3f
       0.59636873 -0.4491048 0.48607603 0.66019756
000200 ce c6 7b 3f ca 67 d0 3e 11 0b 02 3f 01 47 f0 3e
       0.98350227 0.40704185 0.50798136 0.46929172
000210 78 f1 b0 be f3 c9 cc be f9 25 ae be d8 f3 05 3f
       -0.34559226 -0.39997825 -0.34013346 0.523252
000220 e8 53 0b 3f 70 64 12 3f 32 47 b9 be 9f e4 86 be
       0.54424906 0.57184505 -0.3618713 -0.263463
000230 57 41 67 3f cf 03 0a 3f b6 2a ef 3e 98 dc e7 3e
       0.90334076 0.5391206 0.46712273 0.45285487
000240 51 04 36 be d9 03 a3 3f 8d 06 20 3f 83 c5 af be
       -0.17775084 1.2735549 0.62509996 -0.34330377
000250 fc 4d a5 be b1 16 09 3f 72 36 b3 be 95 c4 c2 be
       -0.3228606 0.5355025 -0.35002476 -0.38040605
000260 1b 7e 9c be 06 a9 06 3f 12 86 00 3f 9e ce a4 be
       -0.3056496 0.5260166 0.50204575 -0.32188886
000270 00 f1 0d 3f dd d2 aa be e3 83 04 3f 66 b5 de 3e
       0.5544586 -0.33364 0.51763743 0.4349777
000280 a5 2c e7 3e 69 b8 ef 3e e5 fc 74 3f 6c 8a b8 be
       0.4515125 0.4682038 0.95698386 -0.36043108
000290 a3 d6 b3 be 68 16 c4 3e 40 d8 ca 3e a6 13 87 be
       -0.35124692 0.38298345 0.3961811 -0.26382178
0002a0 94 6b 7f be 0e 1d cb 3e 76 fb 0c bf cb 27 05 3f
       -0.24943382 0.39670604 -0.550712 0.52013844
0002b0 b2 46 0f 3f ad e1 ad be 3e 38 8b be 1d a1 62 be
       0.5596725 -0.3396124 -0.27191347 -0.22131772
0002c0 15 4a 08 3f 4e 0a 98 3f fd 54 1b 3f be c2 e7 be
       0.5323804 1.1878145 0.60676557 -0.45265764
0002d0 e5 ce 1d 3f a5 cb b8 be 43 2a ab be 52 41 20 be
       0.6164382 -0.36092868 -0.3343068 -0.15649918
0002e0 7f e9 c4 bf d9 33 64 be 3e 05 d1 3e be 61 b7 3e
       -1.5383757 -0.22285403 0.40824312 0.3581676
0002f0 e0 9e e2 3e 4b b6 bc be 59 b9 0b 3f f0 3c 0d 3f
       0.44261837 -0.36857828 0.54579693 0.5517111
000300 7d 9d 3a 3f 12 1f 19 3f b0 48 b9 3e aa 2b 0f 3f
       0.7289656 0.59813035 0.3618827 0.55926
000310 97 c4 fe 3e 93 a0 98 be 8e 46 12 3f 2a a5 ba 3e
       0.4975936 -0.29810008 0.5713891 0.36454135
000320 b0 13 d9 3e f3 25 a7 3e 59 5d 09 3f 24 4c e0 3f
       0.42397833 0.3264614 0.5365806 1.7523236
000330 f0 9f 01 3f 92 56 c7 3e 16 22 06 3f c5 7e fe 3e
       0.5063467 0.38933235 0.5239576 0.49706092
000340 0e 86 16 3f 2c a3 01 3f 60 87 d1 3e 01 62 a6 be
       0.587983 0.50639606 0.40923595 -0.32496646
000350 aa 58 19 3f f9 fe cc be 1b cf de 3e 3f 05 e7 3e
       0.59900916 -0.4003828 0.43517384 0.4512119
000360 c0 f8 ed 3e 71 fc ff 3e 9a 56 b6 be 90 74 90 bf
       0.46478844 0.49997285 -0.35612947 -1.1285572
000370 0a 85 91 be da a2 05 3f 7d 80 aa 3e 40 40 a1 be
       -0.28421813 0.52201617 0.33301154 -0.3149433
000380 44 c3 1b 3f 27 3a 07 3f c9 e1 02 3f e0 e7 c4 3e
       0.60844827 0.5282311 0.5112577 0.38458157
000390 c7 a8 eb 3e 1a 8c c5 bf 9c 63 f2 3e 87 6b b4 be
       0.46027204 -1.5433381 0.4734162 -0.35238287
0003a0 3f 78 ad 3e e0 fa 1d bf 39 d9 26 3f 56 e8 da 3e
       0.33880803 -0.6171093 0.65175205 0.42755383
0003b0 be 9d 11 3f 7e 05 97 be 4b 63 05 3f 6b 78 b9 be
       0.5688132 -0.29496378 0.52104634 -0.36224684
0003c0 40 3a e6 be 97 eb 2a 3f 1b e2 a4 be d9 b0 b1 be
       -0.44966316 0.6676573 -0.32203755 -0.34705237
0003d0 41 ec 0c 3f 27 38 c9 3e 2a 49 9b be 3e 61 0c 3f
       0.55047995 0.39300653 -0.30329257 0.5483588
0003e0 a7 14 e5 3e 01 74 c4 be da be f7 3e d1 ea ca be
       0.4474232 -0.38369754 0.48387796 -0.39632276
0003f0 c4 06 2c 3f ef 8f 8c be 4d 1c ef 3e 69 9a 23 3f
       0.67197824 -0.27453563 0.4670128 0.63907486

net.5.bias f4 [4]
000000 f7 aa 43 3e 5f d2 d6 3e 17 22 71 3f b6 eb 4a 3f
       0.19108187 0.41957375 0.9419264 0.79265916
