models/fjsp_same_random.pth (torch, 290136 bytes, 8 tensors)

mlp.1.weight f4 [128, 40]
0	0x3e877877	0.26459095
1	0x3e7f7b27	0.24949323
2	0x3d282a75	0.041056115
3	0x3d8a1e88	0.067441046
4	0x3d12d86b	0.035850924
5	0x3d02afc5	0.03190591
6	0xbd9da6ed	-0.07697854
7	0x3dbe2c18	0.09285754
8	0x3defd8c4	0.11711267
9	0xbdd52ee1	-0.10409332
10	0x3e7a8b3c	0.24467176
11	0x3dc7384c	0.09727535
12	0x3def3d32	0.11681594
13	0x3dbc42ab	0.091924034
14	0x3d9c240d	0.07624064
15	0xbcb6e15d	-0.022324258
16	0x3db60e10	0.08889401
17	0xbca4ed65	-0.02013273
18	0x3d46a2e4	0.04849519
19	0x3db8f2db	0.09030696
20	0xbd9531c8	-0.07284886
21	0xbc97e65f	-0.018542467
22	0x3bcd41e0	0.0062639564
23	0x3dd6cf9a	0.104888156
24	0xbe2191d6	-0.15778288
25	0xbdee554e	-0.11637364
26	0x3d9f14df	0.07767653
27	0xbd38a31a	-0.04507742
28	0x3c7480c8	0.014923282
29	0xbe1fe9ec	-0.15616578
30	0x3e12389d	0.14279409
31	0xbd82aa89	-0.06380183
32	0x3e8915a3	0.2677432
33	0x3d94034b	0.072271906
34	0xbc327c5c	-0.010893907
35	0x3e0d80d5	0.13818677
36	0x3b579756	0.00328966
37	0x3e11b28f	0.14228271
38	0x3cfdb771	0.03097126
39	0xbd142c9d	-0.03617536
40	0xbd29d4d2	-0.041462727
41	0xbd64a5b6	-0.055822097
42	0x3d453683	0.04814769
43	0x3e08d6c6	0.1336318
44	0x3d36c702	0.044623382
45	0xbd8d9062	-0.069123045
46	0x3dbaeda1	0.09127355
47	0x3ce7c1f1	0.02829072
48	0x3d9a8827	0.075455
49	0xbdbbf1e7	-0.091769986
50	0xbe55a925	-0.20865305
51	0xbde42a9d	-0.1114094
52	0xbdf8600e	-0.12127696
53	0x3da9e8ff	0.082963936
54	0x3d3a89fd	0.045541752
55	0x3d862126	0.06549291
56	0x397df9a5	0.0002422096
57	0xbc43925a	-0.011936748
58	0x3dbda2f1	0.09259594
59	0xbe18b6c0	-0.14913464
60	0x3c231c23	0.009955439
61	0xbddd04ad	-0.107919075
62	0x3b01c85b	0.001980326
63	0xbd5f08a9	-0.05445162
64	0xbaac5014	-0.0013146424
65	0xbd2c8e4d	-0.042127896
66	0x3dccc94e	0.09999333
67	0xbe05a353	-0.13050584
68	0xbdc11fbb	-0.0942988
69	0xbdc122b7	-0.094304495
70	0x3e11a0a6	0.14221439
71	0x3bc1e1b9	0.005916801
72	0x3dbf8172	0.093508616
73	0xbe482884	-0.19546705
74	0xbe72c22d	-0.23706885
75	0xbe50d623	-0.20394187
76	0xbe32f580	-0.17476463
77	0xbd0c5007	-0.034256008
78	0xbd4e3aba	-0.050348975
79	0x3cc80106	0.02441455
80	0x3d80ec46	0.062950656
81	0xbb56c044	-0.0032768408
82	0x3e15033c	0.14552015
83	0xbdde4df5	-0.10854713
84	0x3e386cad	0.18010207
85	0xbd19af1f	-0.037520524
86	0x3db93d03	0.0904484
87	0xbdfb987b	-0.12284943
88	0xbd84ed83	-0.06490614
89	0x3e107a8d	0.1410925
90	0x3e15c7ae	0.14626953
91	0x3c13f75e	0.009031145
92	0x3dc1047f	0.09424686
93	0x3e4439c0	0.19162655
94	0xbdead2d9	-0.11465997
95	0xbdace02f	-0.08441197
96	0x3e927222	0.286027
97	0x3d657967	0.05602398
98	0x3bf870a5	0.0075817876
99	0xbe3dfcfd	-0.18553539
100	0xbdb970c4	-0.090547115
101	0x3d21c80e	0.039497428
102	0x3d817f10	0.063230634
103	0xbdeb0dec	-0.11477265
104	0x3e1469b9	0.14493455
105	0x3ab21934	0.0013587833
106	0xbd905833	-0.07048073
107	0xbdf4ff48	-0.119627535
108	0xbe0db452	-0.13838318
109	0xbdce2fcf	-0.100677125
110	0x3e21d865	0.15805204
111	0x3de96cb4	0.113976866
112	0x3e1a0140	0.1503954
113	0xbddc22c5	-0.10748819
114	0xbd71a3e2	-0.05899418
115	0xbbff3684	-0.007788481
116	0x3c0cffcb	0.008605908
117	0xbe7489f5	-0.23880751
118	0xbdbbda1b	-0.0917246
119	0xbdf22fdd	-0.118255354
120	0x3c890f63	0.01673097
121	0xbdc707ac	-0.0971826
122	0xbe093f73	-0.1340311
123	0xbe4e1953	-0.20126848
124	0xbe496468	-0.19667208
125	0xbdbcea62	-0.092243925
126	0xbd5daf01	-0.054121975
127	0xbdff952f	-0.124796264
128	0x3e3c4fda	0.18389836
129	0x3c4656ac	0.012105625
130	0x3c35a0b8	0.011085682
131	0xbd2a8b68	-0.041636854
132	0xbe091a8e	-0.13389036
133	0x3cae5254	0.021279491
134	0xbd32317a	-0.043504216
135	0xbd784152	-0.06060917
136	0xbe08235a	-0.13294736
137	0xbe29a29f	-0.16565941
138	0xbd955b9c	-0.07292864
139	0xbde0ce96	-0.10976903
140	0x3d7c239a	0.06155739
141	0xbe04df5b	-0.12975828
142	0x3cef98c2	0.029247645
143	0xbdedb302	-0.11606409
144	0xbced932b	-0.02900084
145	0x3cc932b3	0.024560308
146	0xbd15aa8d	-0.036539603
147	0x3d56b391	0.05241734
148	0x3e137dfe	0.14403531
149	0xbe006184	-0.125372
150	0x3d22fd07	0.039792087
151	0xbe1fe6ad	-0.1561534
152	0xbe4cba15	-0.1999286
153	0xbe39646b	-0.18104713
154	0x3de1a3f8	0.11017603
155	0xbe197c5d	-0.14988847
156	0x3dbd003b	0.092285596
157	0x3d3d21e5	0.046174902
158	0x3d2a9804	0.04164888
159	0xbdc2ff2c	-0.095213264
160	0x3e4cc302	0.19996265
161	0x3cc111df	0.023568092
162	0xbdd98725	-0.1062148
163	0xbe88a7bd	-0.26690474
164	0xbb89d114	-0.0042058323
165	0xbcc25128	-0.023720339
166	0xbd94593a	-0.07243581
167	0x3e0b1223	0.13581137
168	0x3d369c8b	0.044582885
169	0xbdee32e1	-0.11630798
170	0xbe30314c	-0.17206305
171	0xbdc586bf	-0.096448414
172	0x3db4ce98	0.08828467
173	0xbde34c11	-0.11098493
174	0xbdb8c311	-0.09021581
175	0xbd5dc71e	-0.05414497
176	0xbda0fea3	-0.07861068
177	0x3d1917b1	0.03737611
178	0xbb98d891	-0.0046644886
179	0xbe8d64c6	-0.27615947
180	0x3d1669de	0.036722057
181	0x3da74805	0.081680335
182	0xbd2bab3a	-0.04191134
183	0xbd66a37b	-0.05630825
184	0x3df9ef97	0.12203901
185	0x3d833bf3	0.06407919
186	0xbd8b1e4d	-0.06792889
187	0xbe1ed187	-0.15509616
188	0xbd2b7e93	-0.041868757
189	0x3c8a91ae	0.016915169
190	0xbce4d087	-0.027931465
191	0xbdf10c7e	-0.11769961
192	0x3dcff8cd	0.10154877
193	0x3d780eaa	0.06056086
194	0xbd9c3728	-0.07627708
195	0xbdc4a93c	-0.096025914
196	0x3dbb757b	0.09153267
197	0x3d231ffc	0.039825425
198	0x3de1d745	0.110273875
199	0x3deebc44	0.116570026
200	0xbdec6753	-0.11543145
201	0xbd1876be	-0.037222616
202	0x3db987cb	0.090591036
203	0xbc9816e4	-0.018565603
204	0xbd41b2c6	-0.047289632
205	0xbdc33b35	-0.09532777
206	0xbdc61cef	-0.096734874
207	0xbe110849	-0.14163317
208	0xbdbd0520	-0.09229493
209	0x3c8881da	0.01666348
210	0x3d80786a	0.06272967
211	0x3cffee60	0.031241596
212	0xbe0f1e3f	-0.13976382
213	0xbe09c1de	-0.1345286
214	0xbccc6a3d	-0.024953002
215	0x3e1c9f4a	0.15295139
216	0xbbdfefe9	-0.0068340194
217	0xbd595f23	-0.053069245
218	0x3d093d8e	0.03350597
219	0xbdd39b8b	-0.10332402
220	0xbdd197b0	-0.1023401
221	0x3dec599e	0.115405306
222	0xbde3feda	-0.111325935
223	0xbd01d445	-0.031696577
224	0xbe3f80e1	-0.18701507
225	0x3dbfe275	0.09369365
226	0x3db3f8d2	0.08787693
227	0x3c6e147e	0.014531253
228	0xbde1ca16	-0.11024873
229	0xbe1fcb48	-0.1560489
230	0xbe037fb0	-0.12841678
231	0x3da0b707	0.0784741
232	0x3de2af04	0.11068538
233	0x3e0eccfd	0.13945384
234	0x3e14c5e0	0.14528608
235	0x3dd1e49f	0.10248684
236	0xbdae0cd6	-0.08498542
237	0xbe2ee782	-0.170805
238	0xbe4d4e98	-0.20049512
239	0xbe5a077b	-0.21291916
240	0x3c23cec6	0.009998029
241	0xbe044626	-0.12917385
242	0xbe09bd59	-0.13451137
243	0xbe57b6b9	-0.21065797
244	0xbe0cc439	-0.13746728
245	0xbde3e9f3	-0.11128607
246	0xbdd39656	-0.10331409
247	0x3d56d3ce	0.052448086
248	0xbe130ff4	-0.14361554
249	0x3d174405	0.036930103
250	0xbe1622d6	-0.14661726
251	0xbe7b5311	-0.24543406
252	0xbce4892e	-0.027897444
253	0xbe3dbfb6	-0.18530163
254	0xbd462368	-0.04837361
255	0xbe1a22e4	-0.15052372

mlp.1.bias f4 [128]
0	0x3d1a0323	0.037600648
1	0xbe4e2d12	-0.2013438
2	0xbd8e65b2	-0.069529906
3	0xbddeeb73	-0.10884752
4	0x3d2e6ba5	0.042583127
5	0xbe1326de	-0.14370295
6	0xbd6a177e	-0.05715131
7	0x3d3a17fb	0.045433026
8	0xbe142b6f	-0.14469694
9	0x3dfb3577	0.12266057
10	0xbd063c54	-0.032772377
11	0xbe481332	-0.19538572
12	0xbdb63ddb	-0.08898517
13	0xbe5bdcdc	-0.2147097
14	0x3db09325	0.086218156
15	0xbda7a668	-0.08186036
16	0xbccb59c7	-0.024823083
17	0xbb63db81	-0.0034768286
18	0xbb5b7355	-0.0033485491
19	0x3d939d8d	0.07207785
20	0xba106242	-0.00055078056
21	0xbe401064	-0.18756253
22	0x3d1c8ede	0.038222186
23	0x3c307f26	0.010772502
24	0xbe14b65b	-0.14522688
25	0xbd7db2ba	-0.061938025
26	0x3dd04d3d	0.10170982
27	0x3e02ec9c	0.12785572
28	0x3d21f24e	0.03953772
29	0x3d06df15	0.03292759
30	0x3d3ea506	0.046544097
31	0xbd598ce4	-0.05311288
32	0xbbadc31b	-0.0053027994
33	0x3defa02b	0.117004715
34	0xbd6bd8cf	-0.05757981
35	0x3dae9c89	0.085259505
36	0x3bdd7bc2	0.006759138
37	0xbd7f1d33	-0.062283706
38	0x3e29f98e	0.16599104
39	0xbd7f863c	-0.062383875
40	0xbcfa64bf	-0.030565618
41	0xbe445ab5	-0.19175227
42	0x3d240ef0	0.040053308
43	0xbde1e822	-0.11030604
44	0x3dd271ba	0.10275598
45	0x3cdc579c	0.026897244
46	0xbe5b466a	-0.2141358
47	0xbe09a50b	-0.13441865
48	0x3dfb00f6	0.12256043
49	0xbda98d8d	-0.08278952
50	0x3dc313eb	0.095252834
51	0x3cf9eb25	0.030507633
52	0xbd9302c4	-0.07178262
53	0xbd83473d	-0.06410072
54	0x3cf9f4cd	0.030512238
55	0x3cfdcf04	0.030982502
56	0x3d2b57cf	0.041831788
57	0x3d58da9c	0.052942857
58	0x3d4b6985	0.04966118
59	0xbe29d73b	-0.1658601
60	0xbd174411	-0.036930148
61	0xbb713266	-0.0036803721
62	0x3c92d1e5	0.017922351
63	0xbdf58361	-0.11987949
64	0xbd68b1bc	-0.056810126
65	0xbe1b60c1	-0.15173627
66	0xbe02c41d	-0.12770124
67	0x3b725af0	0.0036980473
68	0xbd9c040a	-0.07617958
69	0x3b972b63	0.0046133264
70	0x3db15f11	0.086607106
71	0xbdc2dd83	-0.09514906
72	0xbd801e7b	-0.06255814
73	0x3d2aaa07	0.041666057
74	0xbe0e18df	-0.13876675
75	0xbd39f53e	-0.045399897
76	0x3d935d59	0.07195539
77	0x3da22da9	0.07918865
78	0x3c2703c0	0.010193765
79	0x3db03ed8	0.086057365
80	0xbe1668ee	-0.14688465
81	0xba9e0036	-0.0012054506
82	0x3d4280c2	0.047486074
83	0xbd253cf6	-0.04034134
84	0x3cbb99a1	0.022900404
85	0xbe0869f6	-0.13321671
86	0xb9057c4b	-0.00012730171
87	0xbd49311e	-0.049119107
88	0xbe7ee6a1	-0.24892665
89	0xbd8b787d	-0.06810091
90	0x3da9a680	0.082837105
91	0x3d41d348	0.047320634
92	0x3de21047	0.11038261
93	0xbe4122dd	-0.18860956
94	0x3c5f2e44	0.01362187
95	0x3dabdd83	0.083918594
96	0x3dcb9c17	0.09941881
97	0xbe460aba	-0.1934003
98	0xbe800c29	-0.25009277
99	0xbdd21255	-0.10257403
100	0x3d268303	0.040652286
101	0xbdbb8094	-0.09155384
102	0x3e7c98f7	0.24667726
103	0xbdec2b02	-0.115316406
104	0xbe073b0f	-0.13206123
105	0x3d2e812a	0.04260365
106	0x3c48a1e5	0.01224563
107	0xbe79b754	-0.2438634
108	0x3e07dace	0.13267061
109	0xbe06e8f4	-0.13174802
110	0xbe5d80b1	-0.21631123
111	0x3cea84ae	0.02862772
112	0xbd861aaa	-0.065480545
113	0xbe029f0e	-0.12755987
114	0xbe127df1	-0.14305855
115	0x3d6aaab0	0.057291687
116	0xbc2ceb4b	-0.010554145
117	0x3dab9076	0.08377163
118	0xbe09a853	-0.13443117
119	0x3d1830f3	0.037156057
120	0x3d94f336	0.07272951
121	0xbdece684	-0.11567405
122	0x3caf9b7b	0.021436444
123	0xbdcaddff	-0.09905624
124	0xbe449730	-0.19198298
125	0xbe3a5d15	-0.1819957
126	0x3d9e9fee	0.07745348
127	0xbd2356e4	-0.039877787

mlp.4.weight f4 [256, 128]
0	0xbd6aa3ef	-0.057285246
1	0xbb0f1a5c	-0.002183578
2	0xbd4893a8	-0.04896894
3	0x3d3f0bc4	0.04664208
4	0x3db7a543	0.08967068
5	0x3d470553	0.048589062
6	0x3e352493	0.17689733
7	0x3e28f87d	0.16501041
8	0x3da3e966	0.080035016
9	0xbe43d7c4	-0.19125277
10	0x3ddc7b5c	0.107657164
11	0xbd89dede	-0.06731962
12	0x3e267861	0.16256858
13	0xbd32dcd2	-0.043667622
14	0x3a883f97	0.0010394928
15	0x3cc6c774	0.024265029
16	0x3c5e95e3	0.0135855405
17	0x3d1c7a75	0.03820272
18	0x3e1440ea	0.14477888
19	0xbdc2383d	-0.09483383
20	0x3e1fcacd	0.15604706
21	0xbdcfb5a2	-0.101420656
22	0x3d391136	0.04518243
23	0x3b6b37d6	0.0035891435
24	0x3d3c1945	0.045922536
25	0x3e2733d6	0.16328368
26	0x3dc68dc0	0.096950054
27	0xbe481021	-0.19537403
28	0xbb73bc9a	-0.0037191273
29	0xbe199766	-0.1499916
30	0x3d202897	0.03910121
31	0x3d988ade	0.07448362
32	0xbde89e9e	-0.11358379
33	0x3d5c185f	0.05373418
34	0x3e474e68	0.19463503
35	0x3d423cd9	0.04742131
36	0x3c080b7c	0.008303519
37	0x3d9fae6a	0.07796939
38	0xbe24ab11	-0.16080882
39	0x3df06eec	0.11739907
40	0x3cf6432c	0.030061327
41	0x3e373710	0.17892098
42	0xbe264175	-0.16235907
43	0x3de0ffc9	0.10986287
44	0x3e216e42	0.15764716
45	0xbc55e881	-0.0130559215
46	0xbda08ca0	-0.07839322
47	0xbb0cd2ca	-0.0021487945
48	0x3d401e16	0.046903692
49	0x3e2409ea	0.16019407
50	0x3db4842e	0.08814274
51	0x3e2e05e0	0.16994429
52	0x3da5a590	0.08088219
53	0xbd50282d	-0.050819565
54	0x3d88e633	0.06684532
55	0x3c646afd	0.013941524
56	0x3e31994e	0.17343637
57	0x3e0346be	0.12819955
58	0xbe4c073c	-0.19924635
59	0x3e5439f6	0.20725235
60	0x3d532e6a	0.051557936
61	0x3caf15b4	0.021372654
62	0x3e1c372c	0.15255421
63	0xbd817fce	-0.06323205
64	0xbd1d681a	-0.038429357
65	0x3ddd0d48	0.10793549
66	0xbd607e60	-0.05480802
67	0x3d3acece	0.04560738
68	0xbdccf16b	-0.10006984
69	0x3cb03bb5	0.021512846
70	0xbd58f4de	-0.0529679
71	0xbd4edb28	-0.050501972
72	0x3e600eb7	0.21880613
73	0xbe56990c	-0.2095682
74	0x3d69d3e3	0.057086837
75	0x3ce5d023	0.028053349
76	0x3ccda95a	0.025105167
77	0xbd94d9a8	-0.07268077
78	0xbd06a2ff	-0.03287029
79	0xbd6361b3	-0.055513095
80	0x3dc2541e	0.094887
81	0xbc927a41	-0.01788056
82	0x3ddfae5b	0.109219275
83	0x3da9a54a	0.082834795
84	0x3de3b22a	0.111179665
85	0x3d954317	0.07288187
86	0xbcac9d69	-0.021071153
87	0x3b9a107b	0.0047016717
88	0x3d7d3d2d	0.06182592
89	0x3e182635	0.14858325
90	0x3e2e7f84	0.17040831
91	0x3cd54dd8	0.026038095
92	0x3d46bf07	0.04852202
93	0x3d05d035	0.032669265
94	0xbd23017f	-0.03979635
95	0x3d9edc76	0.07756893
96	0xbdcda677	-0.10041516
97	0x3e313390	0.17304826
98	0x3c06bf45	0.008224313
99	0xbcd90390	-0.026490957
100	0x3e1bcfda	0.15216008
101	0x3e1bb065	0.15204008
102	0xbe037fe3	-0.12841754
103	0xbdba1387	-0.09085756
104	0xbe03d9b0	-0.1287601
105	0xbd545437	-0.051838126
106	0x3df24a84	0.11830619
107	0x3e416abb	0.1888837
108	0xbcde3af0	-0.027127713
109	0x3c02c2ee	0.007981045
110	0x3cae809b	0.021301558
111	0xbda2bbec	-0.079459995
112	0xbcb0a15e	-0.02156132
113	0x3d849b4b	0.06474932
114	0x3e512819	0.20425452
115	0xbd2bce67	-0.041944887
116	0x3de98e2c	0.1140407
117	0x3d6ee5eb	0.058324736
118	0x3c96f41d	0.01842695
119	0xbdaf7ef9	-0.0856914
120	0xbd34e774	-0.044166043
121	0x3d3406d7	0.043951835
122	0xbd4dbd3b	-0.050229292
123	0x3dfea9f1	0.124347575
124	0x3cc11968	0.023571685
125	0x3d8d6d1f	0.06905579
126	0x3d17ff74	0.037108853
127	0xbbc3077a	-0.005951819
128	0xbcdaf218	-0.026726767
129	0xbdc2b3bf	-0.0950694
130	0x3d417283	0.047228348
131	0xbd659ac2	-0.05605579
132	0x3cc0d2c8	0.023538008
133	0x3db5498c	0.088519186
134	0xbd921d8d	-0.071345426
135	0xbd9dc1de	-0.07702993
136	0xbdb16787	-0.086623244
137	0xbc7d5493	-0.015462059
138	0x3c839c4b	0.016065737
139	0x3d60cae4	0.05488099
140	0x3db248d7	0.08705299
141	0x3db51c4c	0.08843288
142	0x3d9e165f	0.07719111
143	0x3e168774	0.14700109
144	0x3d388ec4	0.045058027
145	0xbd3e7ee6	-0.04650774
146	0x3d9d62d2	0.07684864
147	0x3d3f1f6b	0.046660822
148	0xbbf4aa7c	-0.0074666124
149	0x3cf43285	0.029809246
150	0x3dd93b68	0.10607034
151	0x3e3832bf	0.17988108
152	0x3d80d227	0.062900834
153	0x3d71a88c	0.05899863
154	0x3e18231c	0.14857143
155	0xbd91d08d	-0.07119856
156	0xbd05d366	-0.03267231
157	0xbddc0df6	-0.1074485
158	0xbd7c09bb	-0.061532717
159	0x3c82a513	0.015947854
160	0x3d3b72ae	0.045763664
161	0x3e48bbae	0.19602844
162	0x3dcf6905	0.10127453
163	0xbd584bfb	-0.052806836
164	0x3ddebb9f	0.1087563
165	0xbd31eca4	-0.04343857
166	0x3e27c1bb	0.16382496
167	0x3e1aa8db	0.15103476
168	0x3e290997	0.16507564
169	0xbca18e1f	-0.019721089
170	0xbd8e1ed0	-0.06939471
171	0xbe1a4b3c	-0.15067762
172	0x3de063ec	0.109565586
173	0xbe620649	-0.2207271
174	0x3db28143	0.08716061
175	0x3d7dde49	0.061979566
176	0xbe1efbc4	-0.15525728
177	0xbc2410f2	-0.010013806
178	0x3ba70e69	0.0050981534
179	0xbde2bf16	-0.11071603
180	0xbd126d9e	-0.03574907
181	0xbe1c6f79	-0.15276898
182	0x3d521704	0.05129148
183	0x3db9faf0	0.09081066
184	0xbc3d0567	-0.011536933
185	0xbd6cf18c	-0.057847545
186	0x3daf8948	0.08571106
187	0xbe31f924	-0.17380196
188	0xbd8127b8	-0.06306404
189	0x3db35abd	0.08757541
190	0xbde6adb1	-0.11263598
191	0xbd1d775d	-0.03844391
192	0xbddb137f	-0.10697078
193	0x3dcacf9d	0.0990288
194	0x3e8a097d	0.26960364
195	0xbdf12cbc	-0.117761105
196	0x3d870cbc	0.06594226
197	0xbd16152b	-0.03664128
198	0xbc61be3f	-0.013778268
199	0xbc68bc7a	-0.014205093
200	0x3dd43254	0.10361162
201	0xbcd062ad	-0.025437677
202	0x3da00e5a	0.07815237
203	0xbe536b2f	-0.20646356
204	0x3e267176	0.1625422
205	0xbd8fa029	-0.0701297
206	0xbc99c2dd	-0.018769676
207	0x3dea434c	0.11438617
208	0x3c23f4c8	0.010007091
209	0xbe0286d5	-0.12746747
210	0x3e1d75c2	0.15376952
211	0xbdf452ed	-0.11929879
212	0xbdf9d347	-0.12198501
213	0x3c1c01f4	0.00952195
214	0xbe87b8f6	-0.26508301
215	0x3d2502dc	0.04028593
216	0x3d8f3a11	0.06993497
217	0xbd10127d	-0.03517388
218	0xbd72f483	-0.059315216
219	0x3e047394	0.12934715
220	0x3ddf5b1e	0.10906051
221	0x3d069b1e	0.032862775
222	0xbd0e8812	-0.034797736
223	0x3d1bee04	0.038068786
224	0xbc3fb288	-0.01170028
225	0x3d94011d	0.07226775
226	0x3e0839bc	0.13303274
227	0xbdead43f	-0.11466264
228	0x3d621524	0.055195943
229	0x3b9695f6	0.0045955135
230	0xbdd7d79d	-0.10539172
231	0x3cea910f	0.028633622
232	0xbc1046eb	-0.008805971
233	0xbd806ada	-0.0627038
234	0x3d1f8af7	0.038950887
235	0x3db1c2d4	0.08679739
236	0xbe22dd02	-0.1590462
237	0x3cc0e3bd	0.023546094
238	0xbd129aae	-0.035792045
239	0x3d19ae55	0.03751977
240	0x3d435277	0.047686066
241	0x3e02c971	0.12772156
242	0xbdcd0995	-0.10011593
243	0x3da63a43	0.08116581
244	0xbe2d0381	-0.16895868
245	0x3d33aded	0.04386704
246	0x3de9ac4f	0.114098184
247	0x3bd9d273	0.006647402
248	0xbe61cc05	-0.22050484
249	0x3d9c6530	0.076364875
250	0x3d697a44	0.057001367
251	0xbd1caa77	-0.038248505
252	0x3d1650b8	0.036698073
253	0x3bd25f76	0.0064200712
254	0x3d3a4ea0	0.04548514
255	0xbcacb60e	-0.021082904

mlp.4.bias f4 [256]
0	0xbddd823e	-0.10815857
1	0x3a80754b	0.0009800581
2	0xbe32164f	-0.17391323
3	0xbc9b87e0	-0.018985689
4	0xbe09836d	-0.13429041
5	0xbe1a251a	-0.15053216
6	0xbe187483	-0.14888196
7	0xbe0ec65d	-0.13942857
8	0xbe0c07cc	-0.1367485
9	0xbddc28fe	-0.10750006
10	0xbd820716	-0.06349008
11	0xbd835e38	-0.06414455
12	0xbe19950d	-0.14998265
13	0xbdc5574f	-0.096357934
14	0x3d61d27d	0.055132378
15	0xbcb90376	-0.022584658
16	0x3b903ee3	0.004402028
17	0xbe0dfc0c	-0.1386568
18	0xbd843063	-0.064545415
19	0xbd8cc5dc	-0.06873676
20	0xbe1e457b	-0.15456192
21	0xbd7c8ba8	-0.061656624
22	0xbe251fe6	-0.1612545
23	0xbdbd3c88	-0.09240061
24	0xbdf92429	-0.121651
25	0xbdaba443	-0.0838094
26	0xbe2ea60e	-0.17055532
27	0xbe3aabec	-0.18229645
28	0xbd0f5cda	-0.03500066
29	0x3cc59e7f	0.024123428
30	0xbe15d912	-0.14633587
31	0xbd9ed699	-0.07755775
32	0xbde31761	-0.110884435
33	0xbdb68b9b	-0.089133464
34	0xbdf6dbcb	-0.12053641
35	0xbcc2ef62	-0.023795787
36	0xbe1e3c12	-0.15452603
37	0xbe43df0f	-0.19128059
38	0xbda4a246	-0.08038764
39	0xbe40e58e	-0.18837568
40	0xbda82357	-0.082098655
41	0xbd909a4e	-0.07060681
42	0xbdd376f1	-0.10325421
43	0xbdd49228	-0.103794396
44	0xbe45d434	-0.1931923
45	0xbdad093d	-0.08449028
46	0xbe4794c0	-0.19490337
47	0xbdb3e702	-0.087842956
48	0xbe12af50	-0.14324689
49	0x3c90fbd5	0.017698208
50	0xbe288545	-0.16457088
51	0xbe079598	-0.13240659
52	0xbd9866b2	-0.074414626
53	0xbd937f33	-0.07201996
54	0xbe267509	-0.16255583
55	0x3b9022a9	0.004398663
56	0xbd985d6e	-0.07439695
57	0xbcfb7b55	-0.030698458
58	0xbd77675d	-0.06040131
59	0xbd15808a	-0.036499538
60	0xbde900ca	-0.113771036
61	0xbdf3d620	-0.119060755
62	0xbe216c12	-0.15763882
63	0xbd19a50e	-0.037510924
64	0xbe170f34	-0.14751893
65	0xbe52d97b	-0.20590775
66	0x3c19f9ac	0.009397905
67	0xbdf29bf2	-0.118461505
68	0xbe0c39bc	-0.13693899
69	0xbdb9966d	-0.090618946
70	0xbd51b0d4	-0.051194027
71	0xbcaa903b	-0.020820728
72	0xbd90064c	-0.07032451
73	0xbdce1b88	-0.10063845
74	0xbe14fb4d	-0.14548989
75	0xbe1f712c	-0.15570515
76	0xbdbf3dde	-0.09337972
77	0xbdca4498	-0.098763645
78	0xbe1e97f5	-0.15487655
79	0xbdd835a1	-0.10557104
80	0xbe12cdb0	-0.14336276
81	0xbe0fe5a9	-0.14052452
82	0xbe11c547	-0.14235412
83	0xbcad25eb	-0.021136245
84	0x3d231ba5	0.039821286
85	0xbdb819a2	-0.08989264
86	0xbdff6b68	-0.12471658
87	0xbdee0c64	-0.11623457
88	0xbd9894e4	-0.07450274
89	0xbd65d06c	-0.05610697
90	0xbe3780ca	-0.17920223
91	0xbdb9752a	-0.090555504
92	0xbdcf1c20	-0.10112786
93	0xbe2bbd3d	-0.16771407
94	0xbe2cab7c	-0.16862291
95	0xbe0e2d8d	-0.13884564
96	0xbdc79137	-0.097444944
97	0xbda0e183	-0.07855513
98	0xbda07a09	-0.07835776
99	0xbdc61b66	-0.096731946
100	0xbe1ce5f2	-0.15322092
101	0xbdea11eb	-0.11429199
102	0xbd5a43f3	-0.053287458
103	0xbdcf16b4	-0.10111752
104	0xbdba4972	-0.0909604
105	0xbe551116	-0.20807299
106	0xbc824339	-0.015901195
107	0xbdf67f23	-0.12035968
108	0xbdb54ac9	-0.08852155
109	0xbde5d866	-0.11222915
110	0x3a9bb835	0.001188046
111	0xbdd71139	-0.10501332
112	0xbc18f557	-0.009335837
113	0xbe3365e9	-0.17519344
114	0xbdf57544	-0.11985257
115	0xbd1bec3f	-0.0380671
116	0x3d1959fa	0.037439324
117	0xbd83fae8	-0.06444341
118	0xbda7f5e8	-0.082012
119	0xbd843a72	-0.0645646
120	0xbdfd5d27	-0.12371283
121	0xbd88628d	-0.06659422
122	0xbc24fcaf	-0.01007001
123	0xbe0a23d3	-0.13490228
124	0xbdbfe7fb	-0.09370419
125	0xbdc7ea60	-0.097615
126	0xbe339257	-0.17536293
127	0xbde66219	-0.112491794
128	0xbe072508	-0.1319772
129	0xbe2b5648	-0.16732132
130	0xbe27c59f	-0.1638398
131	0xbccea436	-0.025224786
132	0x3c876721	0.016528668
133	0xbdd84358	-0.1055972
134	0xbe0aded4	-0.13561565
135	0xbe0c10f6	-0.13678345
136	0x3bea377b	0.007147727
137	0xbdbbec41	-0.09175921
138	0xbdb5acad	-0.08870826
139	0xbe0095e5	-0.1255718
140	0xbdbd802f	-0.09252965
141	0x3d27e5cb	0.040990632
142	0x3d17fd9f	0.037107106
143	0xbd851b71	-0.06499375
144	0xbd8000cb	-0.06250151
145	0xbd8a1a3d	-0.06743286
146	0xbdbe36e4	-0.09287813
147	0xbd2ffe1e	-0.042966954
148	0xbe3032f3	-0.17206936
149	0xbd3142eb	-0.04327671
150	0xbe4ad9a2	-0.19809583
151	0xbe1461e1	-0.14490463
152	0xbd038d47	-0.032117154
153	0xbd00f722	-0.031485684
154	0xbd697194	-0.056993082
155	0x3d414842	0.04718805
156	0xbd6271da	-0.05528436
157	0xbe323982	-0.1740475
158	0xbe4f5b20	-0.20249605
159	0xbe29836c	-0.1655404
160	0x3db042ee	0.08606516
161	0xbe462b67	-0.19352494
162	0xbdd22f03	-0.10262873
163	0xbe1e736c	-0.15473717
164	0xbd800949	-0.06251771
165	0xbd73ca2f	-0.05951899
166	0xbdb88e7b	-0.09011551
167	0xbd91abb5	-0.07112829
168	0xbd8377a2	-0.064193025
169	0xbe0ce3cc	-0.13758773
170	0xbd8d8270	-0.069096446
171	0xbd719d50	-0.058987916
172	0xbe312244	-0.17298228
173	0xbe66d1f1	-0.22541024
174	0xbd91a39d	-0.07111285
175	0xbd6c3e9c	-0.057676896
176	0xbddfe815	-0.10932938
177	0xbe5020f1	-0.20325066
178	0xbe2b4504	-0.16725546
179	0xbe1e7d0b	-0.15477388
180	0xbd65dec1	-0.056120638
181	0xbb731f67	-0.0037097575
182	0xbdd650d5	-0.10464636
183	0xbdb13964	-0.086535245
184	0xbdb82b0f	-0.08992588
185	0xbe0de5a2	-0.13857129
186	0xbde4aca6	-0.111657426
187	0x3cc65f87	0.024215473
188	0x3dbf26ef	0.09333598
189	0xbe5045fa	-0.20339194
190	0x3d21dc99	0.03951702
191	0xbdaf71f5	-0.085666575
192	0xbdde27dc	-0.10847446
193	0xbdd719d4	-0.10502973
194	0xbd94c9d6	-0.0726506
195	0xbe002a58	-0.12516153
196	0xbdffd9ee	-0.12492739
197	0xbe3a48cc	-0.18191832
198	0xbe33f96e	-0.17575619
199	0xbe424a38	-0.18973625
200	0xbe282a15	-0.16422303
201	0xbe434fdb	-0.19073431
202	0xbd7d970b	-0.061911624
203	0xbd8499a8	-0.0647462
204	0xbda4c7c6	-0.08045916
205	0xbd89c6c4	-0.06727365
206	0xbe225b63	-0.15855174
207	0x3d70f95e	0.058831565
208	0xbd373ac0	-0.044733763
209	0xbdadd83e	-0.084885105
210	0xbde5c268	-0.11218721
211	0x3d4792fc	0.04872416
212	0xbdf890b1	-0.12136973
213	0xbe55f213	-0.20893125
214	0x3cf84b9b	0.030309489
215	0xbdaf8a41	-0.08571292
216	0xbd9cb833	-0.07652321
217	0xba6efb1c	-0.00091163977
218	0x3c296844	0.0103398
219	0xbe211b3f	-0.1573305
220	0xbdc3e918	-0.095659435
221	0xbe18747e	-0.14888188
222	0xbe1e701a	-0.15472451
223	0xbded4394	-0.11585155
224	0xbe0ba4d6	-0.13637099
225	0xbd2b186b	-0.041771334
226	0xbdcfffad	-0.10156188
227	0x3cd10c9c	0.025518708
228	0xbe0704ad	-0.13185377
229	0xbdebd39b	-0.1151497
230	0xbc79c566	-0.015244817
231	0xbd3d3e91	-0.046202246
232	0xbd1b8034	-0.03796406
233	0xbdb3d4cc	-0.08780822
234	0xbd8c1377	-0.0683965
235	0xbe33b207	-0.17548381
236	0xbd2b1bf4	-0.041774705
237	0x3c0132cc	0.007885646
238	0xbc15fbf6	-0.00915431
239	0xbd4f665c	-0.050634727
240	0xbdd1e653	-0.10249009
241	0xbd6188a8	-0.055061966
242	0xbdbca231	-0.09210623
243	0xbd9db51c	-0.077005595
244	0xbe2d676f	-0.16933988
245	0xbe256f7b	-0.16155808
246	0xbe0c4fde	-0.13702342
247	0xbd72772f	-0.059195694
248	0xbce6c5fb	-0.028170576
249	0xbdb73c6e	-0.08947073
250	0xbe264e39	-0.16240777
251	0xbe4eb5ef	-0.2018659
252	0xbdefee0d	-0.117153265
253	0xbe1ae672	-0.1512697
254	0xbd9eace5	-0.07747821
255	0xbdf3e9e2	-0.11909844

mlp.7.weight f4 [128, 256]
0	0x3d69589a	0.056969263
1	0x3d023bbe	0.031795256
2	0x3de053b9	0.10953469
3	0x3d5e92e2	0.054339297
4	0x3c68b0c8	0.014202304
5	0x3d9003e8	0.07031995
6	0x3ddf1446	0.10892539
7	0xbc282f65	-0.010265206
8	0x3dc55156	0.09634654
9	0xbdbea111	-0.09308065
10	0x3c42154e	0.0118459
11	0xbd89e56f	-0.06733214
12	0x3e01cada	0.12675038
13	0xbba9040b	-0.0051579527
14	0xbdd7b98b	-0.105334364
15	0xbdb66b76	-0.08907215
16	0xbd9f7a18	-0.077869594
17	0x3d3b72ca	0.04576377
18	0x3d9109ec	0.070819706
19	0x3c9cf6cd	0.019160653
20	0x3da27b10	0.079336286
21	0xbdd96129	-0.10614235
22	0x3d0b83d6	0.034061275
23	0x3de489b2	0.11159076
24	0xbd4c92f3	-0.04994483
25	0x3da6ee65	0.08150939
26	0x3bd561b9	0.0065118936
27	0x3dd106b7	0.10206359
28	0x3d9d1dd1	0.07671703
29	0xbb9fa3f9	-0.004871842
30	0xbd387fc6	-0.04504373
31	0x3c713bbf	0.014723717
32	0xbcd90fab	-0.026496729
33	0x3dd6b184	0.10483077
34	0x3dc2c99c	0.0951111
35	0xbd760dfe	-0.060071938
36	0x3e1c9dd1	0.15294577
37	0x3da196b6	0.07890074
38	0xbd616451	-0.05502731
39	0x3bd2a8f9	0.0064288345
40	0x3e014a26	0.12625942
41	0xbb01f6dd	-0.001983098
42	0x3dba0aaa	0.09084065
43	0x3d296e24	0.041364804
44	0x3d4752e2	0.048663028
45	0x3d93a86a	0.07209857
46	0x3c98df19	0.018661069
47	0xbd72e6ca	-0.05930213
48	0xbd8f4622	-0.06995799
49	0xbdedf3aa	-0.11618741
50	0x3cfc8810	0.030826598
51	0x3d9f7cd5	0.07787482
52	0x3e0aa1ce	0.13538286
53	0xbda7cc3f	-0.08193254
54	0x3c827c1e	0.015928324
55	0x3dfd601c	0.12371847
56	0x3c396a4b	0.011316846
57	0x3c1e6de2	0.009669753
58	0x3d42206d	0.047394205
59	0x3d75af1b	0.059981447
60	0x3d0f9c48	0.03506115
61	0x3d167716	0.036734663
62	0x3ddadaca	0.10686262
63	0xbca63b1d	-0.02029186
64	0x3dac4dbc	0.08413264
65	0xbbfc2fef	-0.007696144
66	0xbcab6382	-0.020921472
67	0x3db08dc8	0.086207926
68	0x3d5a2c76	0.053265058
69	0x3da19607	0.078899436
70	0x3d0ce544	0.034398332
71	0x3cfa3fdb	0.030548027
72	0x3c9a30a0	0.018822014
73	0xbc59855a	-0.013276422
74	0x3ced6cdc	0.028982572
75	0x3d26e4d2	0.040745564
76	0xbb30b1b2	-0.0026961383
77	0xbb837b8c	-0.0040125307
78	0xbd347c92	-0.044064112
79	0x3d80b5fd	0.062847115
80	0x3de46040	0.11151171
81	0x3d8bf1c8	0.068332255
82	0x3c34f802	0.011045458
83	0x3c61a531	0.013772295
84	0xbdd2064d	-0.10255108
85	0x3e578916	0.21048388
86	0x3cf8a817	0.030353589
87	0x3d963d42	0.07335903
88	0xbd2eb996	-0.042657457
89	0xbe0d2e38	-0.13787162
90	0x3dc704a6	0.097176835
91	0x3d8c3054	0.06845155
92	0xbd457ef2	-0.048216768
93	0x3cfa1b3e	0.030530568
94	0x3da7a58f	0.08185875
95	0xbd2c51f7	-0.042070355
96	0x3cdabc91	0.026701244
97	0x3decb419	0.115577884
98	0xbd1f7c85	-0.03893711
99	0xbda7da2e	-0.08195911
100	0x3db83c30	0.08995855
101	0xbd80af36	-0.06283419
102	0x3c83a515	0.016069928
103	0x3d82914e	0.06375371
104	0xbd2f6cab	-0.042828243
105	0x3caaacaa	0.020834286
106	0x3dab96e4	0.083783895
107	0xbdaf4057	-0.08557194
108	0x3d1958c1	0.037438158
109	0x3d5faf25	0.05461039
110	0x3e24066e	0.16018078
111	0xbde3a26a	-0.111149624
112	0x3d3f85c6	0.046758436
113	0x3def7c65	0.11693648
114	0x3d97b846	0.07408194
115	0xbc44c30a	-0.012009392
116	0xbe3e74bf	-0.18599223
117	0x3d392ee2	0.045210727
118	0xbbc50725	-0.0060128146
119	0x3e07e513	0.13270979
120	0x3d3b4f75	0.045730073
121	0xbe0faa23	-0.14029746
122	0x3c9c7061	0.019096555
123	0x3d71826c	0.05896227
124	0x3d736c02	0.059429176
125	0xbdc97ab9	-0.098378606
126	0x3a917300	0.0011096895
127	0x3e22786d	0.15866251
128	0xbc1abc32	-0.009444283
129	0xb93fa395	-0.00018276118
130	0x3e12728f	0.14301513
131	0xbd3304a9	-0.043705616
132	0xbd769088	-0.06019643
133	0x3c99309c	0.018699937
134	0x3d2732ce	0.040819936
135	0x3cb8f0be	0.022575732
136	0x3c63cba4	0.013903532
137	0x3cc4cb1f	0.024022637
138	0x3d8b209d	0.0679333
139	0xbd5bc522	-0.053654797
140	0x3c225f2a	0.009910384
141	0xbc5202b4	-0.012818027
142	0xbe205d7a	-0.15660658
143	0x3de8e545	0.11371855
144	0xbd6b239c	-0.057407007
145	0xbe013695	-0.12618478
146	0xbd3f86d6	-0.04675945
147	0x3dbc4f17	0.09194773
148	0x3d1c1632	0.038107105
149	0xbcf2f5d5	-0.029658237
150	0xbd67cd1b	-0.05659209
151	0x3bf1e547	0.0073820683
152	0xbe1c186a	-0.15243688
153	0xbe0ca7f3	-0.13735943
154	0x3da5052a	0.080576256
155	0xbe393aea	-0.1808888
156	0x3e18e6d6	0.14931807
157	0x3daed67b	0.08537003
158	0x3a8cd8d8	0.0010745777
159	0xbc197795	-0.0093668895
160	0xbe61eafd	-0.22062297
161	0x3e1084a4	0.14113098
162	0x3df32753	0.11872735
163	0x3c9df2a1	0.019280734
164	0xbe3d538c	-0.18488902
165	0x3cd0cd24	0.025488444
166	0x3d492490	0.049107134
167	0x3d97173e	0.0737748
168	0x3d793331	0.060839836
169	0xbd1ed5dd	-0.038778175
170	0x3db2d14b	0.08731326
171	0x3be1ee0a	0.0068948315
172	0x3da06c25	0.07833127
173	0x3e0d9794	0.13827354
174	0x3cb4d312	0.022073302
175	0x3db3b779	0.08775229
176	0x3dc9950f	0.09842884
177	0x3e2db826	0.16964778
178	0x3d0f82a3	0.035036694
179	0x3d9a0061	0.075196035
180	0xbbfd26b1	-0.0077255596
181	0xbe23e132	-0.16003874
182	0x3d8cb64f	0.0687071
183	0xbe053c77	-0.13011347
184	0x3d0b088b	0.033943694
185	0x3e0a0f46	0.13482389
186	0x3de85c48	0.11345726
187	0xbe3a5a9d	-0.18198629
188	0xbd8c4ade	-0.06850217
189	0x3dd10f5f	0.1020801
190	0xbdb9d4c9	-0.09073789
191	0x3d72a8ce	0.059243016
192	0x3e1f9fe0	0.15588331
193	0xbd8fe6c6	-0.070264384
194	0xbbb71b70	-0.0055879876
195	0xbcf14ef0	-0.029456586
196	0x3d3f949e	0.04677259
197	0x3da249b7	0.07924216
198	0xbbcf64e4	-0.006329166
199	0x3e0d5f98	0.13805997
200	0x3d2ec34d	0.042666722
201	0x3e07c960	0.13260412
202	0xbc888bf7	-0.016668303
203	0xbc2fdd0a	-0.010733852
204	0xbe09e42e	-0.1346595
205	0xbd478fdd	-0.048721183
206	0x3d949d5e	0.07256578
207	0xbe09454b	-0.1340534
208	0xbd52f5ce	-0.05150395
209	0x3d076abf	0.033060785
210	0xbdb52468	-0.088448346
211	0xbe219db0	-0.1578281
212	0x3bc8fee8	0.006133903
213	0x3d2cb987	0.04216912
214	0x3d8ba6c4	0.068189174
215	0xbce0eca6	-0.027456593
216	0xbcafabc8	-0.021444216
217	0xbcd4f6d2	-0.0259966
218	0xbd206365	-0.03915729
219	0x3df4e563	0.119578145
220	0x3c091c8b	0.008368622
221	0x3d4d68d8	0.050148815
222	0x3bb8884f	0.0056314836
223	0x3cde8be4	0.027166314
224	0xbdef0ff7	-0.11672967
225	0x3da3d691	0.0799991
226	0x3d6d9ba2	0.05800975
227	0xbd6e8f79	-0.058242295
228	0x3c391c74	0.011298288
229	0xbc45a7a0	-0.012063891
230	0xbd1aef7c	-0.037826046
231	0xbd8e8f42	-0.06960918
232	0xbdb69629	-0.089153595
233	0x3e09c5dc	0.13454384
234	0x3c1ac334	0.009445954
235	0x3d5e582d	0.05428331
236	0x3d479c9b	0.048733335
237	0xbdf3d1df	-0.11905264
238	0xbd71bb48	-0.059016496
239	0x3d99c2be	0.07507847
240	0x3d1315df	0.03590953
241	0x3da634a0	0.08115506
242	0x3dce2e31	0.10067404
243	0x3bf109ef	0.0073559205
244	0x3d960f5c	0.07327148
245	0x3d770d12	0.0603152
246	0x3da31941	0.07963801
247	0xbd9c2e20	-0.07625985
248	0xbdedae3d	-0.11605499
249	0x3e10a750	0.14126325
250	0xbd83bb8f	-0.06432258
251	0x3df135ef	0.11777865
252	0xbe31f361	-0.17377998
253	0xbe1a58f9	-0.15073003
254	0xbda4df36	-0.080503866
255	0x3ce52f4f	0.02797666

mlp.7.bias f4 [128]
0	0xbe01261c	-0.12612194
1	0x3de36afa	0.111043885
2	0x3d8ad245	0.06778387
3	0x3dd2eab9	0.10298676
4	0x3ddf1048	0.10891777
5	0xbb805823	-0.0039167567
6	0xbd0dd8ea	-0.034630693
7	0x3de80dbf	0.11330747
8	0x3d4fd1a5	0.050737042
9	0x3d24ac41	0.040203337
10	0x3ccb9d5a	0.024855305
11	0xbdb3e229	-0.08783371
12	0xbd3588e9	-0.04432002
13	0x3d865acf	0.06560289
14	0x3dc8e641	0.098095424
15	0xbc0af6c0	-0.008481681
16	0xbda3f89b	-0.08006402
17	0x3de87f34	0.11352387
18	0xbdc342e0	-0.0953424
19	0x3d5f50e1	0.05452049
20	0x3defc093	0.117066525
21	0xbe0b5d9a	-0.13609925
22	0xbcd88b14	-0.026433505
23	0xbdf12db4	-0.11776295
24	0xbd9f0053	-0.07763734
25	0xbd1b2ba4	-0.037883416
26	0x3d6a0077	0.05712935
27	0xbdfb1fa7	-0.122618966
28	0x3d614458	0.05499682
29	0x3d7ca44c	0.061680123
30	0xbe0aef0e	-0.13567755
31	0xbddddd32	-0.10833205
32	0x3daccbc2	0.08437301
33	0xbdc142c2	-0.09436561
34	0x3c894d29	0.016760426
35	0xbdd86268	-0.105656445
36	0x3d7a1e6c	0.06106417
37	0xbd248d2f	-0.040173706
38	0xbe01c79f	-0.12673806
39	0x3d3a88c8	0.0455406
40	0x3da654c7	0.08121639
41	0x3d2be612	0.04196746
42	0xbda64027	-0.08117705
43	0xbd79fa7d	-0.0610299
44	0xbd600299	-0.054689977
45	0x3c42d219	0.0118909115
46	0x3dc49734	0.09599152
47	0x3ded4456	0.115853
48	0x3d19b8c3	0.037529718
49	0xbd5b7ec5	-0.053587694
50	0xbd2bd5de	-0.041952007
51	0xbda1a319	-0.078924365
52	0xbdb548f4	-0.08851805
53	0x3d90c502	0.07068826
54	0xbdae222c	-0.085026115
55	0x3dd069d0	0.10176432
56	0xbdd9422e	-0.10608326
57	0xbd3270d5	-0.043564636
58	0xbd86d2e2	-0.065831915
59	0x3de8bfff	0.11364745
60	0x3d9632ca	0.07333906
61	0xbdb3f51a	-0.08786984
62	0x3d4f4aba	0.050608374
63	0xbcfe4ae1	-0.031041564
64	0xbe01b482	-0.12666515
65	0xbd7cd099	-0.06172237
66	0xbdee41f4	-0.11633673
67	0xbdaca103	-0.08429148
68	0xbbd724db	-0.006565673
69	0x3de6210a	0.112367705
70	0x3dfc9953	0.12333932
71	0x3cc2a3e5	0.023759792
72	0xbe151319	-0.14558066
73	0xbc88fbad	-0.01672157
74	0x3ddd2e23	0.107998155
75	0x3df9834a	0.121832445
76	0xbd4edfff	-0.050506588
77	0xbb986e09	-0.004651789
78	0xbd0687cf	-0.03284436
79	0xbdc51c7d	-0.09624574
80	0xbdca570d	-0.09879885
81	0x3d1f769f	0.038931485
82	0xbd4d4e12	-0.05012328
83	0x3dcb2696	0.09919469
84	0xbdc01bf1	-0.093803294
85	0x3db71cd6	0.08941047
86	0x3da8ab89	0.08235843
87	0xbddf3959	-0.1089961
88	0xbd274e48	-0.04084614
89	0x3d3b925d	0.04579388
90	0xbd466fd0	-0.048446476
91	0x3dda734e	0.10666524
92	0x3dfb5cc1	0.12273551
93	0xbd90f4fc	-0.07077977
94	0x3dac2810	0.08406079
95	0xbd8a267a	-0.0674562
96	0x3ccad7af	0.02476105
97	0x3de5af75	0.112151064
98	0xbd95612e	-0.07293926
99	0xbe0923a1	-0.13392498
100	0xbdbfc393	-0.09363475
101	0x3d937ffd	0.07202146
102	0x3cb730d2	0.022362147
103	0xbd4b102d	-0.049575973
104	0xbdbce168	-0.0922268
105	0x3dbb633d	0.091497876
106	0x3d558873	0.05213208
107	0x3d22b920	0.03972733
108	0xbe0b8852	-0.13626221
109	0xbe12b53d	-0.1432695
110	0x3c2121d6	0.009834727
111	0xbd300bf7	-0.04298016
112	0x3de0cbde	0.109763846
113	0x3dfb3606	0.122661635
114	0x3d3df6fc	0.04637812
115	0xbdc7ea2e	-0.09761463
116	0xbdee405b	-0.116333686
117	0x3ddaa09b	0.10675164
118	0x3db86e8f	0.090054624
119	0x3d509f0b	0.050932925
120	0x3d976f76	0.07394306
121	0xbd9617ee	-0.07328783
122	0xbda0ac40	-0.07845354
123	0x3d7eac5e	0.0621761
124	0xbdd4c86c	-0.1038979
125	0xbde524ec	-0.11188683
126	0xbe11edab	-0.1425082
127	0xbdc721de	-0.097232565

mlp.9.weight f4 [4, 128]
0	0x3ca20189	0.019776123
1	0xbcc571bf	-0.02410209
2	0xbdd9aece	-0.106290445
3	0xbcd78a81	-0.026311161
4	0xbd2e05ac	-0.042485878
5	0x3d5f5c7e	0.054531567
6	0xbb54a714	-0.003244822
7	0x3d0f5acc	0.0349987
8	0xbd46b474	-0.048511937
9	0xbd164f34	-0.036696628
10	0xbcffbb7e	-0.031217333
11	0xbcdbb245	-0.026818404
12	0x3c70262b	0.014657537
13	0xbc291412	-0.010319727
14	0xbc4c8f5b	-0.0124853505
15	0x3d43b980	0.04778433
16	0x3c9d196a	0.019177157
17	0x3c449933	0.011999416
18	0x3d201169	0.039079104
19	0xbd09e11e	-0.033661954
20	0x3a9e83af	0.0012093688
21	0x3b0c99db	0.002145401
22	0xbbf5ce6e	-0.007501415
23	0x3ca55d1e	0.020186003
24	0x3d0000f1	0.031250898
25	0x3cfc07cf	0.030765442
26	0xbd288430	-0.04114169
27	0x3d090479	0.03345153
28	0xbd145b99	-0.036220167
29	0xbc01c07d	-0.007919428
30	0xbd24ca05	-0.040231723
31	0x3bf82a35	0.007573391
32	0xbcecf98b	-0.028927585
33	0xbce9b7c8	-0.028530017
34	0x3be5f87d	0.0070181475
35	0x3b87c321	0.004143134
36	0xbc9fda7b	-0.01951336
37	0x3cb82121	0.022476735
38	0x38376b4d	4.373053e-05
39	0xbc958b1c	-0.01825481
40	0xbd4c39da	-0.04985986
41	0x3d327617	0.04356965
42	0x3ce5108f	0.027961997
43	0xbcdb5676	-0.026774626
44	0xbcaacb4c	-0.020848893
45	0x3cc1d090	0.02365902
46	0xbce7b4ec	-0.028284512
47	0x3acb522e	0.0015512162
48	0x3c883ee4	0.016631551
49	0xbcf6fc3e	-0.030149575
50	0x3c2f92f6	0.010716191
51	0xbd497b10	-0.049189627
52	0x3d491eb6	0.049101554
53	0xbd34ad37	-0.044110503
54	0x3bb43731	0.0054997434
55	0x3d4c5456	0.049885117
56	0xbbcb4b10	-0.0062040165
57	0xbc0756c3	-0.008260432
58	0x3b10968b	0.0022062387
59	0x3b9072b0	0.004408203
60	0xbc91aa9e	-0.017781552
61	0x3c7e4fed	0.0155219855
62	0xbbceff78	-0.0063170753
63	0xbd039894	-0.03212793
64	0x3d34b286	0.044115566
65	0x3bdba9e2	0.006703601
66	0x3ca22151	0.019791277
67	0xbb741318	-0.0037242826
68	0x3d7d6420	0.061863065
69	0x3a172cf3	0.0005766891
70	0xba2e7ad7	-0.0006655878
71	0x3cbd66a4	0.023120232
72	0x3b9d0911	0.0047923406
73	0xbc8bbca2	-0.01705772
74	0xbd06067e	-0.032721035
75	0x3d439249	0.04774693
76	0xbb5085e7	-0.0031818093
77	0x3c830d61	0.01599759
78	0x3ce04858	0.027378246
79	0xbb3cdac9	-0.002881693
80	0xbb0cee4d	-0.0021504343
81	0xbd482374	-0.048861936
82	0xbca21a91	-0.019788058
83	0xbcae2e23	-0.021262234
84	0xbbf3a827	-0.007435817
85	0xbcd69afe	-0.026196953
86	0xbd94d727	-0.072675996
87	0x3d486ea7	0.04893365
88	0xbc062cd5	-0.0081894
89	0xbc384d2e	-0.01124887
90	0xbc87fb3d	-0.016599292
91	0xbd09e67b	-0.03366707
92	0xbcd675e2	-0.026179258
93	0xbdb83b0c	-0.08995637
94	0xbd21e4a7	-0.0395247
95	0x3c79ea45	0.015253608
96	0xbbd5a9b8	-0.006520476
97	0x3ab8f488	0.0014110962
98	0xbc0db335	-0.008648683
99	0xbcc552ed	-0.024087394
100	0x3c3f399d	0.011671451
101	0xbbb9a7d1	-0.005665757
102	0x3d6ba2ba	0.057528235
103	0xbc8f5863	-0.0174982
104	0xbc2468dc	-0.010034766
105	0x3cf6161d	0.030039841
106	0xbc08ca53	-0.008349019
107	0x3d0390f8	0.032120675
108	0xbd440e1b	-0.047865015
109	0xbd2f4567	-0.042790797
110	0xbcd8fdf7	-0.026488287
111	0x3c20da8a	0.009817729
112	0x3c7506a5	0.014955197
113	0x3b2b4dbd	0.0026138865
114	0x3c4ef1fb	0.012630935
115	0xbc41ea81	-0.011835695
116	0x3d8ddc52	0.069267884
117	0xbcf91538	-0.030405626
118	0xbc352bef	-0.011057838
119	0xbc8aa9ca	-0.016926665
120	0xbcf391a7	-0.029732538
121	0x3d70e62f	0.05881327
122	0xbcb182a9	-0.021668749
123	0xbbaa985c	-0.005206151
124	0xbcd56cc6	-0.026052844
125	0xbaf41ed5	-0.0018624911
126	0xbcd5b917	-0.026089234
127	0x3cc28071	0.023742886
128	0xbd8bf1cd	-0.06833229
129	0x3dc7475a	0.09730406
130	0x3d4a54ad	0.04939716
131	0x3dc4d1c0	0.09610319
132	0x3d5c50ea	0.053788103
133	0x3dc25e43	0.09490635
134	0x3d5c25fc	0.053747162
135	0x3e02b360	0.12763739
136	0x3d1594ea	0.03651897
137	0x3cb5fccc	0.02221527
138	0x3cfac299	0.03061037
139	0xbdeadf3e	-0.11468361
140	0xbd93921d	-0.07205603
141	0x3dc625b5	0.09675161
142	0x3da16e12	0.07882322
143	0xbcc37747	-0.023860587
144	0xbdbef7cf	-0.093246095
145	0x3df15453	0.11783662
146	0xbdab82f4	-0.08374587
147	0x3d7b8049	0.06140164
148	0x3dd0555f	0.10172533
149	0xbdc71876	-0.097214624
150	0xbcf4c962	-0.029881183
151	0xbdc0c625	-0.09412793
152	0xbce4d27e	-0.027932402
153	0xbd1f6b13	-0.038920473
154	0x3dab3297	0.083592586
155	0xbd98ad5d	-0.074549414
156	0xbcaa1011	-0.020759614
157	0x3d90c028	0.07067901
158	0xbe0f227c	-0.13977998
159	0xbdcb0ff9	-0.09915156
160	0x3dc329da	0.09529467
161	0xbdfb10ea	-0.122590855
162	0xbd2f8c62	-0.04285849
163	0xbdcdf37f	-0.10056209
164	0x3d9c1805	0.07621769
165	0xbcc63dee	-0.024199452
166	0xbdee6b6e	-0.11641584
167	0x3da33f48	0.07971054
168	0x3d5a4778	0.053290814
169	0x3da08f45	0.078398265
170	0xbddd645c	-0.10810158
171	0xbd63c592	-0.05560834
172	0xbd6d3f6b	-0.05792181
173	0xbd6be183	-0.05758811
174	0x3db3e935	0.08784715
175	0x3daef3df	0.085426085
176	0x3dc0a346	0.09406142
177	0xbdeea3a1	-0.116523035
178	0xbd9f390a	-0.07774551
179	0xbe16135b	-0.14655821
180	0xbd0b4985	-0.03400566
181	0x3d15b06f	0.036545213
182	0xbdab3a58	-0.083607376
183	0x3dfcc56c	0.12342343
184	0xbdb45f28	-0.08807212
185	0xbd693ed3	-0.05694468
186	0xbdc4f0ae	-0.096162185
187	0x3dcbab4c	0.09944782
188	0x3d5291e8	0.05140868
189	0xbd898f5c	-0.06716797
190	0x3d5f6c47	0.05454662
191	0x3bfecdaf	0.0077759842
192	0xbd455d8d	-0.04818492
193	0xbdb92cc3	-0.09041741
194	0xbdabae5a	-0.08382864
195	0xbd5ee2d6	-0.054415546
196	0x3dec4558	0.11536664
197	0x3dc8d7d5	0.09806792
198	0x3df75d3e	0.120783314
199	0x3ce5455b	0.027987173
200	0xbddbedc6	-0.10738711
201	0xbd9e1817	-0.077194385
202	0x3d9b864b	0.07593974
203	0x3e0f580a	0.13998428
204	0xbdcdb4d9	-0.100442596
205	0xbdadd532	-0.084879294
206	0x3d8a97c0	0.06767225
207	0xbdd19b25	-0.102346696
208	0xbdd28393	-0.10279002
209	0x3cd1aac4	0.025594123
210	0xbd5af597	-0.05345687
211	0x3db6be3e	0.089230046
212	0xbdc59eed	-0.09649453
213	0x3daf0a03	0.085468315
214	0xbbb9c5bd	-0.005669324
215	0xbc9e39f9	-0.019314753
216	0xbdca848e	-0.09888564
217	0x3d3302be	0.043703787
218	0xbd502eb9	-0.05082581
219	0x3dc1cbfd	0.09462736
220	0x3d8a30d9	0.06747598
221	0xbdec079c	-0.11524889
222	0x3d6b9fa7	0.057525303
223	0xbdc52e94	-0.09628025
224	0x3d700bb1	0.0586049
225	0x3db74f9b	0.089507304
226	0xbddfb372	-0.10922898
227	0xbdec1f0e	-0.11529361
228	0xbdd4125a	-0.10355063
229	0x3d9b7e75	0.07592479
230	0x3df43847	0.119247966
231	0x3bb1aa92	0.005421945
232	0xbdb2c440	-0.08728838
233	0x3dfaa593	0.12238612
234	0x3dae6793	0.08515849
235	0xbd357ff5	-0.044311482
236	0xbe1505c4	-0.1455298
237	0xbe173f1e	-0.14770171
238	0x3bc3253a	0.0059553655
239	0xbd95eb5c	-0.07320282
240	0x3deb5ceb	0.11492332
241	0x3dca9ffe	0.09893797
242	0xbce89ed7	-0.028396053
243	0xbdffbe1b	-0.124874316
244	0xbcd75120	-0.0262838
245	0x3d88003d	0.066406704
246	0x3da2bc5d	0.07946084
247	0x3cae6409	0.021287935
248	0x3da59544	0.08085111
249	0xbd475b14	-0.048670843
250	0xbde14c88	-0.11000925
251	0x3d5da10a	0.054108657
252	0xbddcdd1e	-0.10784362
253	0xbdb194a7	-0.08670931
254	0xbe0007b8	-0.12502944
255	0xbdbbb3fd	-0.091651894

mlp.9.bias f4 [4]
0	0x3cd4e54e	0.025988247
1	0x3d4f5429	0.05061737
2	0x3ccffc23	0.025388783
3	0xbe29c45a	-0.16578808
