models/fjsp_same.pth (torch, 290136 bytes, 8 tensors)

mlp.1.weight f4 [128, 40]
0.14927937 0.14063133 -0.050849605 0.115794756 -0.031367738 0.03190591 -0.07697854 0.09285754
0.15631218 -0.15112025 0.13594829 0.02009293 0.11681594 0.02468352 0.07624064 -0.022324258
0.15242411 0.026738781 -0.08859791 0.033765454 -0.07284886 -0.018542467 -0.059045404 0.104888156
-0.14778747 -0.09664116 -0.068562075 -0.118679196 0.014923282 -0.15616578 0.14279409 -0.1578351
0.08623556 0.050954204 -0.0017776886 0.14728627 -0.0022825645 0.12957068 0.039421313 -0.0681279
0.09539397 0.025932087 0.19906369 0.30989027 0.21437106 -0.069123045 0.09127355 0.02829072
0.12454333 -0.016865967 -0.018474277 0.043907974 -0.12127696 0.25272307 0.045541752 0.06549291
0.061866824 0.022404287 0.1403185 -0.0842334 0.009955439 -0.107919075 0.06323943 -0.05445162
0.07305907 -0.0076727704 0.15659212 -0.06838639 -0.0942988 -0.094304495 0.14221439 0.07774573
0.26132357 0.030058606 0.031457502 0.06459277 0.0518024 0.021490721 0.08675223 0.15274581
-0.024763908 -0.055449404 0.12675714 -0.029117454 0.13765523 -0.037520524 0.0904484 -0.12284943
-0.035702568 0.11561794 0.07198135 0.016409425 0.09424686 0.14918514 -0.11465997 -0.08441197
0.18524233 -0.011599257 -0.03859578 -0.1398213 -0.090547115 0.039497428 -0.00068447937 -0.11477265
0.055834025 -0.05591266 -0.08200713 -0.034884725 -0.13838318 -0.100677125 0.15805204 0.08192985
0.07263469 -0.12215898 -0.05699825 -0.0057912036 0.03866149 -0.08363567 -0.021802492 -0.045345694
-0.026737092 -0.08940729 -0.045845747 -0.12441279 -0.14138861 -0.092243925 -0.054121975 -0.124796264
0.11313854 -0.03647636 0.10274316 0.032347232 -0.13389036 0.07655463 -0.043504216 -0.06060917
-0.12136071 -0.13068376 0.065178394 -0.015930261 0.06155739 -0.12975828 0.13982065 -0.11606409
-0.05184528 0.007405017 0.05574792 0.10199223 0.14403531 -0.125372 0.039792087 -0.09329882
-0.056111194 -0.1535122 0.11307573 -0.14698319 0.10773741 0.082144745 0.06722906 -0.10497794
0.09275455 -0.00960211 -0.009779966 -0.1431907 0.023438204 -0.023720339 -0.07243581 0.13581137
-0.050369035 -0.161842 -0.105434775 -0.0013288168 0.08828467 -0.08333463 -0.09021581 -0.05414497
-0.1321162 0.039173517 0.104221426 -0.15920319 0.036722057 0.081680335 0.013679427 -0.05630825
0.14208123 0.14267819 0.11865921 0.031518217 -0.041868757 0.016915169 -0.027931465 0.012490339
0.052815527 0.090485364 -0.057697263 -0.07744178 -0.049490474 -0.004851788 0.027621388 0.097423576
-0.196232 -0.11972487 0.10769238 0.050273262 -0.040843803 -0.09532777 -0.096734874 -0.14163317
-0.10821362 -0.0007760311 0.0699314 0.056440305 -0.13976382 -0.12805274 -0.024953002 0.15295139
0.05045341 -0.018615397 0.079516605 -0.04856435 -0.1023401 0.115405306 -0.054888822 -0.031696577
-0.1401037 0.12438494 0.1387445 0.07645901 -0.11024873 -0.1560489 -0.12841678 0.13601717
0.073388696 0.09223997 0.030425904 -0.012388391 0.0023946469 -0.12465003 -0.116381556 -0.13269709
0.02622836 -0.10767768 -0.05520734 -0.07672596 -0.054336935 -0.11128607 -0.10331409 0.052448086
-0.07593701 0.0616885 -0.07392763 -0.14525819 -0.027897444 -0.102171324 -0.04837361 -0.15052372
00000000: b1dc 183e a901 103e ad47 50bd cd25 ed3d
00000010: 757b 00bd c5af 023d eda6 9dbd 182c be3d
00000020: 4d10 203e 44bf 1abe 0736 0b3e ee99 a43c
00000030: 323d ef3d 1835 ca3c 0d24 9c3d 5de1 b6bc
00000040: 1115 1c3e 4a0b db3c d272 b5bd a54d 0a3d
00000050: c831 95bd 5fe6 97bc 98d9 71bd 9acf d63d
00000060: 9955 17be cdeb c5bd 466a 8cbd 140e f3bd
00000070: c880 743c ece9 1fbe 9d38 123e 869f 21be
00000080: 459c b03d 5bb5 503d 5501 e9ba 36d2 163e
00000090: 1497 15bb 2dae 043e 3e78 213d a486 8bbd
000000a0: ea5d c33d 876f d43c 5ad7 4b3e f0a9 9e3e
000000b0: 1684 5b3e 6290 8dbd a1ed ba3d f1c1 e73c
000000c0: 9310 ff3d 7f2a 8abc 5e57 97bc d9d8 333d
000000d0: 0e60 f8bd eb64 813e fd89 3a3d 2621 863d
000000e0: 1168 7d3d 3289 b73c a7af 0f3e 9082 acbd
000000f0: 231c 233c ad04 ddbd ad83 813d a908 5fbd
00000100: fe9f 953d dd6b fbbb af59 203e 2a0e 8cbd
00000110: bb1f c1bd b722 c1bd a6a0 113e 2739 9f3d
00000120: 34cc 853e 773d f63c 95d9 003d 3749 843d
00000130: c12e 543d 4f0d b03c 27ab b13d 6669 1c3e
00000140: aedd cabc ea1e 63bd a0cc 013e ba87 eebc
00000150: 7ef5 0c3e 1faf 19bd 033d b93d 7b98 fbbd
00000160: db3c 12bd 19c9 ec3d f56a 933d 0f6d 863c
00000170: 7f04 c13d fdc3 183e d9d2 eabd 2fe0 acbd
00000180: 2ab0 3d3e cf0a 3ebc 9c16 1ebd 512d 0fbe
00000190: c470 b9bd 0ec8 213d a26e 33ba ec0d ebbd
000001a0: 38b2 643d ac04 65bd 5bf3 a7bd 49e3 0ebd
000001b0: 52b4 0dbe cf2f cebd 65d8 213e d6ca a73d
000001c0: 7fc1 943d 7d2e fabd ff76 69bd 23c4 bdbb
000001d0: 835b 1e3d 2e49 abbd 249b b2bc 68bc 39bd
000001e0: bf07 dbbc 2b1b b7bd c0c8 3bbd 22cc febd
000001f0: 2dc8 10be 62ea bcbd 01af 5dbd 2f95 ffbd
00000200: 2eb5 e73d 3c68 15bd 026b d23d 887e 043d
00000210: 8e1a 09be adc8 9c3d 7a31 32bd 5241 78bd
00000220: f78b f8bd f7d1 05be 407c 853d 2e80 82bc
00000230: 9a23 7c3d 5bdf 04be 252d 0f3e 02b3 edbd
00000240: b75b 54bd c9a5 f23b ee57 643d 4de1 d03d
00000250: fe7d 133e 8461 00be 07fd 223d 7413 bfbd
00000260: dad4 65bd 4d32 1dbe 4094 e73d c382 16be
00000270: 6ea5 dc3d 813b a83d 64af 893d adfe d6bd
00000280: 19f6 bd3d 2b52 1dbc 273c 20bc 95a0 12be
00000290: 7a01 c03c 2851 c2bc 3a59 94bd 2312 0b3e
000002a0: c34f 4ebd e9b9 25be 30ee d7bd b12b aeba
000002b0: 98ce b43d 59ab aabd 11c3 b8bd 1ec7 5dbd
000002c0: 7849 07be 6974 203d 0b72 d53d 2906 23be
000002d0: de69 163d 0548 a73d ad1f 603c 7ba3 66bd
000002e0: be7d 113e 3b1a 123e 9a03 f33d 3f19 013d
000002f0: 937e 2bbd ae91 8a3c 87d0 e4bc 47a4 4c3c
00000300: 1855 583d 6450 b93d f753 6cbd cc99 9ebd
00000310: 86b6 4abd bffb 9ebb 4046 e23c 0386 c73d
00000320: 0bf1 48be 5032 f5bd d38d dc3d 56eb 4d3d
00000330: d54b 27bd 353b c3bd ef1c c6bd 4908 11be
00000340: 1a9f ddbd 916e 4bba 3238 8f3d f32d 673d
00000350: 3f1e 0fbe 4220 03be 3d6a ccbc 4a9f 1c3e
00000360: 3ca8 4e3d 517f 98bc 9ad9 a23d 69eb 46bd
00000370: b097 d1bd 9e59 ec3d 1ad3 60bd 45d4 01bd
00000380: 5877 0fbe 88bd fe3d 0a13 0e3e 8b96 9c3d
00000390: 16ca e1bd 48cb 1fbe b07f 03be 1648 0b3e
000003a0: d04c 963d 4fe8 bc3d bf3f f93c aef8 4abc
000003b0: 82ef 1c3b 8448 ffbd 7459 eebd bfe1 07be
000003c0: dcdc d63c 1e86 dcbd 1721 62bd 8022 9dbd
000003d0: 6890 5ebd f3e9 e3bd 5696 d3bd ced3 563d
000003e0: dd84 9bbd 15ad 7c3d 5f67 97bd 90be 14be
000003f0: 2e89 e4bc 333f d1bd 6823 46bd e422 1abe

mlp.1.bias f4 [128]
-0.029619863 -0.031635746 -0.111962244 -0.053569872 0.0702341 -0.13722745 0.025979852 0.10742572
-0.1227935 0.029058948 0.10679114 -0.19183697 -0.04714936 -0.17791681 0.17847261 0.024260525
0.010980664 0.042901337 0.07657629 0.13125493 0.06594694 -0.0063814986 0.0690505 0.008392431
-0.065531485 -0.044338953 0.111522526 0.007286167 0.09562193 -0.030701807 0.08622772 -0.11256223
0.1154909 0.13541512 -0.035268 0.14304851 0.031247986 -0.032835998 0.02227406 -0.0034353575
-0.017057642 -0.11059353 -0.034173574 -0.011661635 0.100059964 0.088625655 -0.08097444 -0.1322103
0.11013952 -0.077448055 0.13084452 0.15576605 -0.08279818 -0.18352644 0.02701586 0.042134687
0.11429046 0.019360643 0.0959446 -0.14769393 0.038264073 0.003163821 0.07623357 -0.12333347
-0.08560584 -0.115724005 -0.070710026 0.03600155 -0.071113154 0.03133556 -0.04158231 0.0034548105
0.01791254 0.026889924 -0.112158835 -0.063605726 0.08057392 0.08222405 -0.095751494 0.10222935
0.00017051492 0.06459816 0.08705108 -0.009156571 0.021293314 0.006538659 -0.041623335 -0.062123377
-0.1153902 -0.04321243 0.072458215 -0.046003006 0.13082296 -0.15657051 -0.0033781608 0.05618142
0.09756048 -0.09212337 -0.21818261 -0.08851123 0.095834695 0.0053321007 0.093925446 -0.12803902
-0.08370332 0.06134509 0.014201324 -0.10822629 0.09238448 -0.050595928 -0.09929055 0.1451281
-0.09136405 -0.09413972 -0.08816211 0.012519245 0.0043693325 0.116850615 -0.105419494 -0.046731062
0.08239238 -0.122258015 -0.058895323 -0.061914407 -0.12621653 -0.17675659 0.101722896 0.10842931
00000000: 5ba5 f2bc 7c94 01bd 764c e5bd 156c 5bbd
00000010: e5d6 8f3d 5a85 0cbe b3d3 d43c 0402 dc3d
00000020: 297b fbbd 080d ee3c 50b5 da3d e970 44be
00000030: b01f 41bd d32f 36be 86c1 363e 02be c63c
00000040: 3ee8 333c 50b9 2f3d 08d4 9c3d b167 063e
00000050: 300f 873d e41b d1bb 596a 8d3d 6880 093c
00000060: 5f35 86bd c39c 35bd ec65 e43d ccc0 ee3b
00000070: 6ed5 c33d 5b82 fbbc 2998 b03d 0787 e6bd
00000080: 7e86 ec3d 43aa 0a3e 2e75 10bd 4f7b 123e
00000090: c7fb ff3c 0a7f 06bd 1778 b63c bc23 61bb
000000a0: 78bc 8bbc dc7e e2bd 97f9 0bbd 7110 3fbc
000000b0: 3dec cc3d 5e81 b53d edd5 a5bd 2362 07be
000000c0: d490 e13d 169d 9ebd 1bfc 053e 2381 1f3e
000000d0: 1892 a9bd 5bee 3bbe 5d50 dd3c 6c95 2c3d
000000e0: 1e11 ea3d 369a 9e3c 9a7e c43d 143d 17be
000000f0: caba 1c3d 1c58 4f3b 5920 9c3d 4296 fcbd
00000100: 1d52 afbd b500 edbd 6bd0 90bd 5c76 133d
00000110: c6a3 91bd b759 003d 3652 2abd 1a6a 623b
00000120: 52bd 923c 4248 dc3c 88b3 e5bd b843 82bd
00000130: f003 a53d 1565 a83d 5c19 c4bd 9f5d d13d
00000140: 40cc 3239 0a4c 843d d647 b23d 7105 16bc
00000150: 516f ae3c 3f42 d63b 3b7d 2abd 1575 7ebd
00000160: b251 ecbd 84ff 30bd f964 943d a66d 3cbd
00000170: 74f6 053e 0554 20be 2264 5dbb 7d1e 663d
00000180: cacd c73d 2dab bcbd 436b 5fbe 6045 b5bd
00000190: fb44 c43d e7b8 ae3b fc5b c03d a91c 03be
000001a0: a56c abbd fd44 7b3d acac 683c bfa5 ddbd
000001b0: 1334 bd3d ad3d 4fbd d858 cbbd 769c 143e
000001c0: 131d bbbd 53cc c0bd 568e b4bd 851d 4d3c
000001d0: 9e2c 8f3b 604f ef3d 2de6 d7bd 1269 3fbd
000001e0: 56bd a83d 6962 fabd 393c 71bd f699 7dbd
000001f0: e83e 01be aeff 34be 1854 d03d 3010 de3d

mlp.4.weight f4 [256, 128]
0.009161672 -0.058934256 -0.04179454 -0.0057580867 0.09024941 0.021696273 0.095256746 0.06117705
-0.02806094 -0.009066076 -0.1097401 -0.012427738 0.16052103 -0.13204665 -0.06219753 -0.056948587
-0.1072733 -0.0070611676 0.05085095 -0.1328361 0.018219182 -0.07314172 -0.0039353603 0.04020511
0.019199338 -0.017061515 0.037876487 -0.11857367 -0.028332196 -0.0735417 0.026221842 0.055412307
-0.028720373 0.06536578 0.12335035 0.065739386 -0.0017640799 0.00989598 0.01296968 -0.03310821
0.01930404 0.08435166 -0.025635272 0.014281773 0.053549375 0.037395418 -0.07991716 -0.049835894
0.116106 0.12518485 -0.015213646 0.011342318 0.04330334 -0.00571435 0.065581426 -0.0011573198
0.078089975 -0.070209794 -0.087565675 0.090636685 0.10812414 0.037577946 0.091823675 0.057939745
0.02062756 -0.05954143 -0.00415115 -0.035723843 -0.03191636 -0.18936911 -0.052505624 0.058996815
0.16048762 -0.066955395 -0.039844487 0.079574116 -0.032073636 0.04721577 -0.0041103703 -0.07699536
0.02098899 -0.02936428 -0.015680728 -0.104388006 0.19526327 0.013506038 0.014261143 -0.008650386
-0.095168136 0.12985066 0.0600289 0.048669234 -0.10708528 0.04114051 -0.035398573 0.03150656
0.025006643 0.07682374 0.079758294 -0.055113684 0.1379333 0.04422721 0.0069870185 -0.15617988
0.003027103 0.023533624 0.09999505 0.0954114 -0.03948618 -0.09061679 -0.015422507 -0.010936009
-0.03715007 -0.00095458276 0.09985662 -0.07303974 0.07906322 0.1211615 -0.025980202 0.019884441
0.0044695693 -0.020068679 0.17438468 0.019658644 0.08877811 0.08842738 0.052460108 -0.06704263
-0.15568998 0.030666092 0.017267952 -0.023329154 0.0901979 0.08119164 0.015084748 0.009297455
0.08484767 -0.009991859 -0.048189633 0.03639088 0.06580063 -0.017393772 -0.06843261 0.025806595
0.008592128 -0.13111918 0.08671463 -0.04498121 -0.048108496 0.008742308 0.06783947 -0.052889224
0.01575186 -0.024147479 0.050927415 -0.04928751 0.0006733996 -0.062286396 -0.05037827 0.04082738
-0.062112555 0.09322804 0.034589477 -0.049546894 0.09901223 0.027668215 0.04552181 0.012661686
0.04342048 -0.12325196 -0.042160224 -0.0015179666 -0.010633933 -0.074561074 -0.02575964 -0.043500394
-0.11252321 0.0014661272 -0.09059208 0.0074572535 -0.035163317 -0.09612232 0.027136922 0.05220275
0.09241987 -0.025630359 -0.017337378 -0.07432027 0.13861303 0.047089156 -0.05844502 -0.046201933
-0.073956974 0.03520123 0.039592132 -0.08858413 0.016963601 0.023532122 -0.05540524 -0.13048649
0.08135494 0.018950105 0.027957642 -0.048409708 0.094411574 0.059649788 0.008273166 0.06502561
-0.055305246 0.011021243 0.086069025 0.013932406 -0.027857812 0.07162722 0.00844719 0.13547531
0.10049192 -0.07142977 -0.053554557 -0.009831904 -0.04134434 -0.06763131 -0.057576798 0.017565753
0.03593661 0.011411214 -0.027774857 -0.044098288 0.028094288 0.045656245 -0.031120103 0.042142574
-0.0019828281 0.020836674 0.028045693 0.10812353 -0.12032347 0.125638 0.027842494 0.017411945
0.058846008 0.03236131 -0.074654184 0.033949837 -0.0712246 0.06812837 0.030461604 -0.07030487
0.0180424 0.13195753 0.12384304 -0.035416074 -0.05659005 0.07146448 -0.006440016 0.069974355
00000000: d61a 163c 0c65 71bd c030 2bbd 55ae bcbb
00000010: afd4 b83d 62bc b13c f815 c33d c994 7a3d
00000020: 0ee0 e5bc e189 14bc 6bbf e0bd b69d 4bbc
00000030: a05f 243e 3d37 07be d6c2 7ebd ec42 69bd
00000040: 1bb2 dbbd 5e61 e7bb 1649 503d 3006 08be
00000050: 6540 953c 53cb 95bd 32f4 80bb 1dae 243d
00000060: ee47 9d3c 97c4 8bbc 6024 1b3d c1d6 f2bd
00000070: ec18 e8bc 089d 96bd 30cf d63c 04f8 623d
00000080: fd46 ebbc 7ede 853d 1c9f fc3d 5fa2 863d
00000090: b338 e7ba c022 223c c87e 543c 799c 07bd
000000a0: 8223 9e3c 90c0 ac3d 1001 d2bc 19fe 693c
000000b0: 9756 5b3d f02b 193d 9cab a3bd b920 4cbd
000000c0: fcc8 ed3d 7530 003e a842 79bc 21d5 393c
000000d0: d85e 313d 713f bbbb 8e4f 863d 35b1 97ba
000000e0: a3ed 9f3d 27ca 8fbd a255 b3bd ba9f b93d
000000f0: 3070 dd3d 55eb 193d 0d0e bc3d 3a52 6d3d
00000100: 21fb a83c b7e1 73bd 5f06 88bb 2a53 12bd
00000110: bbba 02bd fae9 41be 2310 57bd a5a6 713d
00000120: de56 243e e91f 89bd f933 23bd c1f7 a23d
00000130: a55f 03bd 5365 413d 49b0 86bb beaf 9dbd
00000140: 1af1 ab3c 5c8d f0bc df74 80bc 61c9 d5bd
00000150: 18f3 473e 6e48 5d3c 92a7 693c 59ba 0dbc
00000160: 83e7 c2bd 92f7 043e dde0 753d 6459 473d
00000170: 874f dbbd f482 283d 18fe 10bd 060d 013d
00000180: bbda cc3c c455 9d3d 5158 a33d e3be 61bd
00000190: 633e 0d3e 9727 353d 5cf3 e43b 9eed 1fbe
000001a0: 5c62 463b 96c9 c03c 34ca cc3d 0d67 c33d
000001b0: 43bc 21bd 4c95 b9bd afae 7cbc f22c 33bc
000001c0: ac2a 18bd f73c 7aba a181 cc3d dc95 95bd
000001d0: e6eb a13d 8523 f83d 6fd4 d4bc b2e4 a23c
000001e0: 7775 923b 1267 a4bc e691 323e 2a0b a13c
000001f0: 4cd1 b53d 6a19 b53d 69e0 563d a54d 89bd
00000200: 326d 1fbe 7537 fb3c 8575 8d3c c81c bfbc
00000210: adb9 b83d cd47 a63d 0526 773c 5a54 183c
00000220: 9dc4 ad3d e5b4 23bc 7e62 45bd 9a0e 153d
00000230: 7bc2 863d 627d 8ebc 6526 8cbd 5a68 d33c
00000240: ffc5 0c3c 1b44 06be 7197 b13d 383e 38bd
00000250: 6a0d 45bd e63b 0f3c 6cef 8a3d 5fa2 58bd
00000260: 0b0a 813c efd0 c5bc 4499 503d b3e1 49bd
00000270: 1587 303a 0520 7fbd 7259 4ebd 9c3a 273d
00000280: bc69 7ebd 58ee be3d b2ad 0d3d aff1 4abd
00000290: edc6 ca3d 74a8 e23c 1475 3a3d f672 4f3c
000002a0: acd9 313d 866b fcbd 33b0 2cbd 82f6 c6ba
000002b0: f339 2ebc 7ab3 98bd e105 d3bc 782d 32bd
000002c0: 9272 e6bd 112b c03a 5788 b9bd fa5b f43b
000002d0: 6907 10bd c7db c4bd 404e de3c 8dd2 553d
000002e0: a146 bd3d c2f6 d1bc 1e07 8ebc 3a35 98bd
000002f0: 93f0 0d3e 8fe0 403d 0c64 6fbd 3d3e 3dbd
00000300: c176 97bd 2a2f 103d 5c2b 223d 996b b5bd
00000310: 40f7 8a3c 70c6 c03c 9bf0 62bd 409e 05be
00000320: 6b9d a63d 403d 9b3c 6d07 e53c 4249 46bd
00000330: db5a c13d 5653 743d 2c8c 073c 262c 853d
00000340: c187 62bd 7292 343c f544 b03d bf44 643c
00000350: 1136 e4bc 4bb1 923d 1566 0a3c 0aba 0a3e
00000360: b5ce cd3d c549 92bd 065c 5bbd ff15 21bc
00000370: af58 29bd 4982 8abd a6d5 6bbd 0ee6 8f3c
00000380: 4432 133d 1af6 3a3c 1988 e3bc 68a0 34bd
00000390: fe25 e63c 0b02 3b3d 96ef febc b19d 2c3d
000003a0: 56f2 01bb acb1 aa3c 15c0 e53c df6f dd3d
000003b0: 276c f6bd 3fa7 003e f115 e43c 7fa3 8e3c
000003c0: 8308 713d 4b8d 043d 4be4 98bd fc0e 0b3d
000003d0: 34de 91bd e386 8b3d 9d8a f93c 00fc 8fbd
000003e0: a8cd 933c e01f 073e 6ba1 fd3d 7210 11bd
000003f0: f8ca 67bd f85b 923d c506 d3bb b74e 8f3d

mlp.4.bias f4 [256]
0.005416043 0.00052836136 -0.0006344184 0.09073992 -0.032045506 0.072716035 -0.0127619365 -0.071064174
-0.02416654 -0.030239034 -0.017370032 0.079388306 -0.076674744 -0.025933603 0.031434763 -0.02216296
-0.036100753 -0.073153496 -0.04392076 0.013582916 0.03320546 0.03776658 -0.04614255 0.03027192
-0.011263315 0.020065665 -0.048369404 -0.018381916 0.05276542 0.055265035 -0.03225432 0.05481028
-0.02761674 -0.07652034 -0.07155661 0.08663627 -0.054198615 -0.06581154 -0.07216655 -0.09208707
-0.056201972 -0.046162415 -0.013685848 0.026373658 -0.06367951 0.01727323 -0.018919086 -0.077017665
-0.049258493 -0.02298867 -0.06253576 -0.07634672 0.03253068 -0.08732925 -0.04907319 0.029488102
0.03689155 0.02330405 0.04606161 0.021586634 0.04073093 -0.007483538 -0.03518051 0.0004050913
-0.07699325 -0.0910532 -0.05054796 -0.07344884 -0.10129361 -0.029602133 -0.04394639 0.06616786
-0.003813142 -0.0054867794 -0.05675424 -0.095939524 0.011621544 -0.059842512 -0.033748195 -0.10078964
0.033017438 -0.012969701 -0.065345824 0.066082135 -0.07718128 0.018869027 -0.03002365 0.0013914236
-0.0046093003 0.005709729 -0.007898538 -0.06092929 -0.008340385 -0.081766404 -0.03735972 -0.075501844
-0.04628756 -0.076153874 -0.001409653 0.016989868 -0.1001128 0.044963356 0.0016363021 -0.023289818
-0.070131 -0.08817065 0.04229136 -0.065381244 0.0967929 -0.053179212 -0.011385692 -0.0028282604
-0.06775348 0.077237785 -0.07413016 0.07325791 -0.05071 0.03980648 0.009720247 -0.009485
-0.07979501 0.03308361 -0.09754171 -0.09465633 0.011346606 -0.036885057 -0.081030376 -0.047627043
-0.105449334 0.07034419 -0.04100912 0.019761203 0.050613616 0.067252204 -0.023423819 0.001098419
0.05058991 -0.048960768 -0.007948715 -0.08181687 0.0064087184 0.024417205 -0.03235838 0.057266615
-0.012176115 -0.07213208 0.01208518 -0.0018371101 -0.07787722 -0.04924968 -0.07604225 -0.06514487
-0.051099025 -0.07125506 -0.020058231 0.025918063 0.008181268 -0.0015440888 -0.09487236 -0.00756787
-0.005358184 -0.07377346 -0.0564472 -0.06701961 -0.053048916 -0.006845439 -0.022468122 -0.010506767
-0.021229494 -0.076026544 -0.037537724 0.018490782 0.023135027 -0.04196334 0.019121902 0.03865631
-0.012855939 -0.116322376 0.0044809687 -0.086439416 -0.04335135 -0.03466889 -0.0077144713 -0.03489462
-0.066007204 -0.05028743 -0.04681502 -0.0385248 -0.054960687 -0.061331596 -0.092604436 -0.00803928
-0.027921034 -0.1295432 0.00039456558 0.059063327 -0.045039766 -0.07435122 -0.030499876 -0.03381712
-0.05142929 -0.07012082 0.016382543 0.0060624965 -0.09515941 -0.013048495 -0.062449068 0.049703717
-0.09216673 -0.024064353 -0.07506356 0.034322683 -0.084402464 -0.037032723 0.04469228 -0.056032892
-0.02856219 0.114422135 -0.109180614 -0.08535107 -0.05623853 0.03009986 -0.008654984 -0.037828885
-0.044506922 0.083454564 -0.06059713 0.0042648977 -0.123118445 -0.06183337 -0.0020123287 0.031580262
-0.09296204 -0.09006424 -0.018688299 -0.06110598 0.022561355 0.022524044 -0.009698686 -0.052867997
-0.025317332 -0.016632233 0.06846271 -0.08507539 -0.018116528 -0.033980723 -0.009346025 -0.0043593673
0.009988541 -0.026050419 -0.03449317 -0.08894706 -0.104605466 -0.053975444 -0.055446547 0.010836772
00000000: 1079 b13b bb81 0a3a 194f 26ba dad5 b93d
00000010: 2642 03bd 25ec 943d 7117 51bc 188a 91bd
00000020: e8f8 c5bc dab7 f7bc 994b 8ebc 5696 a23d
00000030: a607 9dbd b572 d4bc bdc1 003d 198f b5bc
00000040: 62de 13bd 80d1 95bd 41e6 33bd e18a 5e3c
00000050: 7302 083d 21b1 1a3d f8ff 3cbd d1fc f73c
00000060: c489 38bc c060 a43c ff1e 46bd ac95 96bc
00000070: 8e20 583d 975d 623d 1b1d 04bd bf80 603d
00000080: 803c e2bc b2b6 9cbd 468c 92bd 5b6e b13d
00000090: 5eff 5dbd 33c8 86bd 0ecc 93bd 2598 bcbd
000000a0: 0a34 66bd cd14 3dbd 9b3a 60bc 920d d83c
000000b0: 676a 82bd 9780 8d3c 33fc 9abc 70bb 9dbd
000000c0: 46c3 49bd bc52 bcbc c012 80bd ab5b 9cbd
000000d0: e43e 053d aed9 b2bd f800 49bd 0891 f13c
000000e0: 981b 173d 23e8 be3c 19ab 3c3d 74d6 b03c
000000f0: 7ad5 263d 7738 f5bb 7019 10bd 6f62 d439
00000100: a3ae 9dbd 1a7a babd 610b 4fbd 586c 96bd
00000110: 0673 cfbd 2c80 f2bc 2101 34bd 0483 873d
00000120: e8e5 79bb 71ca b3bb 2277 68bd f17b c4bd
00000130: 4a68 3e3c 6c1d 75bd 8c3b 0abd cc6a cebd
00000140: 4b3d 073d de7e 54bc 08d4 85bd 1256 873d
00000150: 3811 9ebd 3893 9a3c 28f4 f5bc 6e60 b63a
00000160: 9d09 97bb ae18 bb3b df68 01bc fe90 79bd
00000170: 1ca6 08bc 2575 a7bd 8106 19bd b6a0 9abd
00000180: 0698 3dbd 90f6 9bbd 1bc4 b8ba 562e 8b3c
00000190: f107 cdbd 7f2b 383d 3079 d63a 4aca bebc
000001a0: d7a0 8fbd d092 b4bd b539 2d3d 9ae6 85bd
000001b0: 5b3b c63d 72d2 59bd 0e8b 3abc 565a 39bb
000001c0: 56c2 8abd d82e 9e3d 8ed1 97bd 3e08 963d
000001d0: 4ab5 4fbd 1f0c 233d ac41 1f3c f966 1bbc
000001e0: 916b a3bd ae82 073d f3c3 c7bd 2edb c1bd
000001f0: 1de7 393c c914 17bd 41f3 a5bd 9314 43bd
00000200: d2f5 d7bd 9d10 903d 2ef9 27bd 3fe2 a13c
00000210: 3950 4f3d 86bb 893d 4fe3 bfbc d3f8 8f3a
00000220: 5e37 4f3d 168b 48bd 543b 02bc 9a8f a7bd
00000230: 3a00 d23b 9706 c83c 388a 04bd 6690 6a3d
00000240: 547e 47bc fcb9 93bd eb00 463c 30cb f0ba
00000250: 187e 9fbd 08ba 49bd 0abc 9bbd ac6a 85bd
00000260: 364d 51bd 2cee 91bd 2951 a4bc 1e52 d43c
00000270: ba0a 063c 0663 caba 714c c2bd e5fb f7bb
00000280: b593 afbb 8a16 97bd 2e35 67bd 9441 89bd
00000290: d249 59bd b44f e0bb 110f b8bc 9324 2cbc
000002a0: 7ae9 adbc ceb3 9bbd 28c1 19bd fb79 973c
000002b0: ab85 bd3c c0e1 2bbd 89a5 9c3c 1456 1e3d
000002c0: b7a1 52bc 6d3a eebd 17d5 923b 2607 b1bd
000002d0: 2f91 31bd f700 0ebd adc9 fcbb a9ed 0ebd
000002e0: c92e 87bd 31fa 4dbd 1bc1 3fbd 2ecc 1dbd
000002f0: 751e 61bd d736 7bbd 65a7 bdbd 2fb7 03bc
00000300: a7ba e4bc f9a6 04be b2dd ce39 63ec 713d
00000310: 9e7b 38bd 7445 98bd e0da f9bc d283 0abd
00000320: 85a7 52bd 819b 8fbd af34 863c e8a7 c63b
00000330: f0e2 c2bd 5bc9 55bc 98ca 7fbd 2096 4b3d
00000340: e9c1 bcbd 9b22 c5bc ecba 99bd f195 0c3d
00000350: 33db acbd a0af 17bd 410f 373d bf82 65bd
00000360: 41fb e9bc 2756 ea3d 169a dfbd 8bcc aebd
00000370: 5f5a 66bd fb93 f63c a2cd 0dbc 76f2 1abd
00000380: e44c 36bd 3aea aa3d b234 78bd 8ec0 8b3b
00000390: 8625 fcbd fd44 7dbd 46e1 03bb 4e5a 013d
000003a0: e262 bebd 9a73 b8bd 3418 99bc 444a 7abd
000003b0: 97d2 b83c 5884 b83c 3de7 1ebc 1d8c 58bd
000003c0: 4b66 cfbc 5240 88bc 2d36 8c3d 023c aebd
000003d0: 1d69 94bc 5f2f 0bbd 1220 19bc 06d9 8ebb
000003e0: faa6 233c b067 d5bc b648 0dbd e029 b6bd
000003f0: 643b d6bd 5b15 5dbd eb1b 63bd b78c 313c

mlp.7.weight f4 [128, 256]
0.010054417 0.038768742 0.002555263 0.09114723 0.041036386 0.028639715 -0.03883025 0.0109411385
-0.011830041 -0.038905177 0.0026989053 0.10410566 0.047678087 0.058622 0.0069525456 0.040842805
-0.03972915 -0.038108196 -0.026456624 -0.05402864 -0.03764537 -0.00270361 0.0758221 0.062045522
0.055317584 0.1275351 -0.011719217 -0.05109836 0.049765702 0.0010409331 0.012696758 0.11370826
0.017430006 0.050356433 0.0065054735 0.05315223 -0.018062316 0.07626555 -0.050370812 -0.059374142
0.07523688 -0.049532793 0.07593526 0.042378798 -0.05782499 -0.021358958 0.07546834 0.040746294
-0.02831947 -0.077745676 0.0077920156 0.0040159454 0.043198325 -0.029989919 -0.046467073 0.059992608
0.03082321 0.003369463 -0.019403042 0.025180338 0.032005616 -0.07529292 -0.05724989 -0.004060681
0.056423746 -0.025194379 0.051944513 -0.005834003 0.03451286 0.07463066 0.03514032 0.059293184
0.06371016 0.050726328 0.033576783 0.015398476 0.017309053 -0.0029286728 -0.033325464 0.013215883
0.0533887 -0.067367144 0.0013744781 0.09722092 -0.061740477 -0.009717708 0.01003911 0.082568966
0.099914506 -0.0043162913 0.025273466 -0.051630948 -0.033839267 -0.012872615 0.012233016 0.05307808
-0.027045066 0.036829673 -0.012150197 -0.03752105 0.036284607 0.009258166 0.10558439 0.06922726
0.023456534 -0.053251382 0.03665147 -0.043118853 0.08319378 0.042125225 -0.009097761 0.05127698
0.06259473 0.12612164 -0.013696399 0.06541634 -0.04674736 -0.017372083 0.10701584 0.040532667
-0.025128445 0.06490349 -0.033085007 -0.03624749 0.053741667 -0.026602129 -0.017980907 0.02685127
0.0046942336 0.06309511 -0.03293992 -0.045887344 0.07389094 0.123906896 -0.046385553 -0.048888233
0.09718326 -0.045909293 -0.054569446 0.029707916 -0.064347684 0.032618213 -0.024598079 0.15292206
-0.07353472 -0.034496643 0.07591682 0.12890342 -0.08425317 -0.019685626 0.07084037 0.068475224
0.028061926 -0.04269265 0.044138025 0.057480674 -6.303491e-05 0.074530885 -0.03225514 -0.017839704
-0.079790175 0.04820814 0.014894588 0.015365182 -0.007875336 0.050484326 -0.0026242768 0.113718905
-0.007131249 -0.04417568 0.03352071 -0.032549687 0.0596921 0.052500997 0.009760251 0.032710265
0.076240085 0.019711463 0.009219061 0.02898186 0.031813078 -0.013735696 -0.0072134095 -0.024796555
0.07423077 -0.03216013 0.087150134 -0.07168352 -0.008055844 0.041077096 0.017169544 0.024887972
0.040360373 -0.07512899 -0.04718258 -0.015205861 0.041108713 0.048380267 -0.00675652 0.048749354
0.0017653968 -0.07541902 -0.05332643 0.038388003 -0.02908074 0.034877155 0.0074289604 0.017400831
0.064828195 -0.044382613 -0.03650879 -0.06863835 -0.004722761 -0.026406357 -0.023932334 -0.05538112
-0.015669538 0.06753067 0.06344219 0.022446876 0.007964544 0.025236053 -0.03860643 0.05060564
-0.01415966 0.07531227 0.035836678 0.010072128 -0.06161782 -0.023785943 -0.01064465 -0.023207104
0.031029873 0.05838274 -0.009127887 -0.041225832 0.056459974 0.028810453 -0.010947206 -0.007105589
0.010868847 0.048076224 0.14284742 0.05777018 0.09545803 0.0021116335 -0.0568844 -0.05804776
0.012960497 0.01586413 0.015788222 0.07373886 -0.002962464 -0.010288921 0.013174289 -0.024637824
00000000: 48bb 243c f9cb 1e3d 3376 273b 66ab ba3d
00000010: c515 283d d69d ea3c 780c 1fbd 7642 333c
00000020: cad2 41bc 095b 1fbd 1ee0 303b 5935 d53d
00000030: 194a 433d 9f1d 703d 2ed2 e33b c94a 273d
00000040: 08bb 22bd 5717 1cbd 90bb d8bc 234d 5dbd
00000050: 0832 1abd 0d2f 31bb 9e48 9b3d 7223 7e3d
00000060: b194 623d 9098 023e f501 40bc 844c 51bd
00000070: 1fd7 4b3d eb6f 883a 1006 503c e0df e83d
00000080: 5fc9 8e3c 8c42 4e3d de2b d53b 27b6 593d
00000090: 6cf7 93bc 1d31 9c3d a051 4ebd 4d32 73bd
000000a0: cb15 9a3d e6e2 4abd f283 9b3d 6495 2d3d
000000b0: e6d9 6cbd fbf8 aebc 258f 9a3d 96e5 263d
000000c0: 3cfe e7bc 2039 9fbd 2a54 ff3b 3198 833b
000000d0: baf0 303d 6bad f5bc 4254 3ebd cfba 753d
000000e0: f580 fc3c 35d2 5c3b 21f3 9ebc ff46 ce3c
000000f0: 5218 033d 2d33 9abd dc7e 6abd 760f 85bb
00000100: 961c 673d 7164 cebc c5c3 543d 2a2b bfbb
00000110: 5b5d 0d3d f6d7 983d 4cef 0f3d 69dd 723d
00000120: 797a 823d 69c6 4f3d cf87 093d e449 7c3c
00000130: b7cb 8d3c faee 3fbb 4880 08bd 6e87 583c
00000140: 1cae 5a3d c9f7 89bd d527 b43a c31b c73d
00000150: 95e3 7cbd 0637 1fbc 147b 243c eb19 a93d
00000160: fa9f cc3d ad6f 8dbb 4d0a cf3c f97a 53bd
00000170: 0b9b 0abd a9e7 52bc fd6c 483c 6768 593d
00000180: 9d8d ddbc b6da 163d 9f11 47bc acaf 19bd
00000190: 2b9f 143d 90af 173c a13c d83d 06c7 8d3d
000001a0: eb27 c03c 1f1e 5abd da1f 163d 659d 30bd
000001b0: 8061 aa3d 808b 2c3d c60e 15bc d007 523d
000001c0: aa31 803d 0826 013e dc66 60bc 01f9 853d
000001d0: 297a 3fbd e64f 8ebc 1f2b db3d 9505 263d
000001e0: 2bda cdbc 1fec 843d 2584 07bd 4078 14bd
000001f0: 3920 5c3d b5ec d9bc b24c 93bc 32f7 db3c
00000200: 16d2 993b 0238 813d 02ec 06bd 5ef4 3bbd
00000210: 2254 973d e6c2 fd3d c7fe 3dbd 073f 48bd
00000220: 0408 c73d 620b 3cbd 3684 5fbd 045e f33c
00000230: b8c8 83bd ad9a 053d e981 c9bc 9a97 1c3e
00000240: 5f99 96bd 5a4c 0dbd 477a 9b3d 42ff 033e
00000250: ed8c acbd c043 a1bc c214 913d bd3c 8c3d
00000260: 20e2 e53c 7dde 2ebd 13ca 343d db70 6b3d
00000270: 9c31 84b8 a6a3 983d f71d 04bd 9224 92bc
00000280: 0869 a3bd e675 453d 6e08 743c 3fbe 7b3c
00000290: 8e07 01bc a7c8 4e3d 0ffc 2bbb 75e5 e83d
000002a0: 41ad e9bb 8ff1 34bd 034d 093d d252 05bd
000002b0: b47f 743d 490b 573d 76e9 1f3c 33fb 053d
000002c0: c323 9c3d ef79 a13c 8b0b 173c 5e6b ed3c
000002d0: 6e4e 023d af0b 61bc 775e ecbb 2522 cbbc
000002e0: 4d06 983d 57ba 03bd c57b b23d cfce 92bd
000002f0: a9fc 03bc 7540 283d 25a7 8c3c dce1 cb3c
00000300: eb50 253d 3add 99bd 8542 41bd 0122 79bc
00000310: 9c61 283d 632a 463d cc65 ddbb 67ad 473d
00000320: e364 e73a 4a75 9abd d16c 5abd bd3c 1d3d
00000330: bb3a eebc 59db 0e3d a36e f33b 308c 8e3c
00000340: a5c4 843d 8bca 35bd 3e8a 15bd 4392 8cbd
00000350: 64c1 9abb 2552 d8bc be0d c4bc 50d7 62bd
00000360: 675d 80bc 854d 8a3d fbed 813d 83e2 b73c
00000370: b87d 023c d7bb ce3c c721 1ebd dc47 4f3d
00000380: ebfd 67bc 523d 9a3d 7bc9 123d 9105 253c
00000390: f862 7cbd bdda c2bc e666 2ebc d31c bebc
000003a0: 5c32 fe3c bd22 6f3d 228d 15bc 6bdc 28bd
000003b0: 9342 673d e603 ec3c e95b 33bc 00d6 e8bb
000003c0: 4013 323c 93eb 443d 9846 123e 6da0 6c3d
000003d0: 807f c33d 5563 0a3b 9eff 68bd 7dc3 6dbd
000003e0: 4458 543c 7ef5 813c 4d56 813c 6604 973d
000003f0: e625 42bb dd92 28bc f9d8 573c 43d5 c9bc

mlp.7.bias f4 [128]
-0.04628733 0.0009348242 -0.025099609 -0.0089844875 0.019689804 0.01718534 -0.013355887 0.04538527
0.0019318638 0.024110343 0.0046842233 -0.046153404 -0.0014098707 0.03306123 0.021791773 0.038978055
0.032733757 0.030411614 0.032643795 -0.04675726 0.029353563 -0.024801075 0.019501204 0.0101359375
-0.0069650062 -0.029054923 -0.018524496 0.02620991 -0.020036988 -0.015725264 0.03430287 -0.014516604
0.032413572 -0.0272625 0.04617634 0.002262436 0.005433568 -0.06309207 0.023204343 -0.040036164
-0.041946106 -0.021447051 -0.0021969683 -0.015045706 0.0049529304 0.027849894 -0.017739162 0.009371592
0.009463961 0.033053294 -0.015273305 -0.01022688 0.034405142 0.035866603 0.007553952 0.013024612
-0.014981134 0.03774658 -0.0076050763 -0.010776424 0.027018309 0.02903776 -0.02300046 0.0010288169
-0.014799937 -0.0031093615 0.0066922377 0.06724826 0.037569415 0.0007596342 0.025277741 -0.019032743
0.0156321 -0.03937329 -0.015893726 -0.01701623 0.012043939 -0.011957116 0.008809308 -0.045058317
-0.0018436479 0.037074264 0.030217014 4.8477552e-05 -0.021916928 -0.040612295 0.05616768 -0.04073692
-0.018280314 0.029105788 -0.04925088 -0.042481918 0.018309679 -0.0028517775 -0.063027546 -0.04622853
-0.023166332 -0.011329169 0.010781685 -0.007267667 -0.0023717773 -0.023901865 0.0035111671 -0.012959983
-0.021848364 -0.035616197 0.022414202 0.0188589 0.03257991 -0.035062835 -0.02533913 -0.041704632
0.021997526 -0.0010604894 -0.044799592 0.023964848 -0.029103395 -0.024318704 0.033018887 -0.035785496
0.009506941 0.012650243 -0.016456174 0.002019279 -0.004633462 0.018813755 0.0072141374 -0.010887175
00000000: c997 3dbd fd0e 753a b29d cdbc ac33 13bc
00000010: 834c a13c 45c8 8c3c a6d2 5abc e8e5 393d
00000020: 9836 fd3a 0e83 c53c 1d7e 993b 5a0b 3dbd
00000030: 69cb b8ba 366b 073d a984 b23c 74a7 1f3d
00000040: d513 063d c721 f93c 80b5 053d 8a84 3fbd
00000050: e276 f03c a02b cbbc fdc0 9f3c 3411 263c
00000060: b53a e4bb 9704 eebc afc0 97bc 2ab6 d63c
00000070: 9c24 a4bc 45d2 80bc 2b81 0c3d 0dd7 6dbc
00000080: 18c4 043d 9b55 dfbc 6723 3d3d 6145 143b
00000090: 120c b23b 6a36 81bd 0917 be3c f6fc 23bd
000000a0: aecf 2bbd bab1 afbc 03fb 0fbb 4482 76bc
000000b0: 314c a23b 7625 e43c b851 91bc 4e8b 193c
000000c0: bb0e 1b3c e462 073d e23c 7abc a58e 27bc
000000d0: 68ec 0c3d dce8 123d 2487 f73b 2f65 553c
000000e0: 6e73 75bc 289c 1a3d 0134 f9bb 998f 30bc
000000f0: 8055 dd3c 99e0 ed3c 766b bcbc 5ed9 863a
00000100: 6f7b 72bc 6ec6 4bbb 8f4a db3b 75b9 893d
00000110: 63e2 193d 3022 473a 4413 cf3c 8eea 9bbc
00000120: e40e 803c e345 21bd 8f33 82bc 9f65 8bbc
00000130: f153 453c c8e7 43bc ea54 103c 128f 38bd
00000140: 8fa6 f1ba 2fdb 173d ac89 f73c 6054 4b38
00000150: 218b b3bc 1459 26bd 1510 663d c2db 26bd
00000160: 99c0 95bc 436f ee3c 4abb 49bd 8501 2ebd
00000170: 2efe 953c e3e4 3abb 9614 81bd 215a 3dbd
00000180: 52c7 bdbc fb9d 39bc aaa5 303c 9c25 eebb
00000190: d26f 1bbb d8cd c3bc 9c1b 663b 1c56 54bc
000001a0: 57fb b2bc 4ae2 11bd fd9d b73c fb7d 9a3c
000001b0: 8372 053d 0c9e 0fbd 0294 cfbc 7ad2 2abd
000001c0: 2834 b43c 1f00 8bba c77f 37bd ee51 c43c
000001d0: 3e6a eebc 0538 c7bc d03e 073d d093 12bd
000001e0: 00c3 1b3c f742 4f3c 19cf 86bc e155 043b
000001f0: 4cd4 97bb 4e1f 9a3c 9264 ec3b 1f60 32bc

mlp.9.weight f4 [4, 128]
0.07771531 -0.071197 -0.11580032 -0.03371394 -0.07099526 0.03064225 0.06624832 0.0034523876
-0.057519164 -0.064288825 0.027240865 0.026993377 0.045689575 -0.039868444 0.06260396 -0.012741653
-0.028073598 -0.0122009 -0.081052616 -0.009322068 -0.054505445 0.10438489 -0.0634958 -0.00092521415
-0.0003807114 0.076325886 0.071271405 -0.027120441 -0.07138408 0.017775327 -0.07834096 0.054182567
-0.08785342 0.006599567 -0.11127816 0.05126947 -0.018969577 0.10333006 -0.013160117 0.033095554
0.0071442374 0.009732222 -0.034739144 0.06505367 -0.089839764 -0.06772588 0.11266976 0.084156156
0.014000725 -0.08464882 0.03652976 -0.013405755 0.00030238632 -0.06751534 -0.00071526406 0.037048522
0.038682327 -0.083800174 -0.01521306 -0.054364957 -0.102263 -0.04582648 0.04171856 -0.0755634
0.10706304 0.019863462 -0.060738333 -0.04622577 -0.002481701 -0.061574955 0.037808523 0.054699365
-0.00968302 0.051339198 -0.029840074 0.063637905 -0.07828084 0.048076488 0.07871309 0.05255048
0.07095614 0.07641155 -0.086589836 0.08547482 0.009085658 -0.048135966 -0.104893945 0.09047899
0.05420671 -0.050304875 0.05347257 0.070419915 -0.1267758 0.023245003 0.02318979 0.020551736
0.08975221 0.04225683 -0.0599216 0.039668903 -0.023687217 0.045042843 0.07822092 0.011130296
0.046304327 0.11695062 -0.021785354 -0.056689534 -0.083557576 -0.0043054717 0.01505715 -0.025735883
0.09925646 0.054395422 0.11698758 0.06481009 0.035804737 -0.04550128 -0.052884493 0.08211973
-0.08971673 -0.012908293 -0.09231292 -0.067017324 0.057023674 -0.10172812 0.04114647 0.03635781
0.0020617985 0.043642562 0.032919716 0.046950955 -0.041332178 0.076919116 -0.044817206 0.07344602
0.055167712 0.0029463696 -0.03125585 -0.023762457 -0.056138575 0.058031116 -0.028404158 0.10046583
0.0009273125 0.05606247 0.0094302045 -0.09166018 0.051210187 -9.4557094e-05 0.05701352 0.062078897
0.083701536 -0.033941988 -0.054317273 0.030562595 0.039401855 0.042704545 0.0057703326 -0.048217382
0.0061163083 -0.07464517 -0.029186727 0.021975527 -0.02405242 0.009940949 -0.07169878 -0.040703952
-0.055765115 0.044776574 -0.01235437 0.019358056 -0.029928984 0.022089615 0.006147813 0.00094464683
-0.025866946 -0.055446126 0.0036702272 -0.08747102 0.04366506 0.0059063197 -0.082005285 0.10520739
-0.07336982 0.017207593 -0.028098641 0.030758828 0.0073044435 0.055268798 -0.0671717 -0.035334263
0.0319091 0.004307364 0.060151435 0.06120158 0.05003892 0.06832848 -0.01650413 0.000305521
0.026034899 -0.036194343 0.038204182 -0.018542733 0.007678381 -0.05703376 -0.01863978 -0.016434006
-0.07361843 -0.060367987 -0.008695788 0.008683056 0.027198661 0.04603116 -0.02525794 0.04371852
-0.05290286 0.036221676 -0.039828192 -0.0014292335 -0.002883441 -0.07528203 -0.043506753 -0.05738528
-0.007479408 -0.07493819 0.02009912 -0.08371074 -0.0926901 -0.032783285 -0.043328095 -0.11934889
-0.043121543 0.003985627 0.08269303 0.025892997 -0.038982388 -0.0775152 -0.010914936 -0.054683294
-0.025534032 0.0051096873 0.032479104 -0.072478466 0.057345636 0.061789546 0.03293481 -0.0044782674
0.0065415213 0.057584394 0.0023678595 0.030756162 -0.05842622 0.0091934 -0.066129364 -0.027676066
00000000: 3429 9f3d bccf 91bd b828 edbd a117 0abd
00000010: f665 91bd 7505 fb3c 33ad 873d 7441 623b
00000020: 3799 6bbd dca9 83bd 3c28 df3c 3721 dd3c
00000030: fe24 3b3d 184d 23bd 8136 803d 5ec2 50bc
00000040: 9afa e5bc 49e6 47bc eafe a5bd 96bb 18bc
00000050: 1a41 5fbd bfc7 d53d 160a 82bd 128a 72ba
00000060: 389a c7b9 bf50 9c3d bef6 913d b02b debc
00000070: d131 92bd 909d 913c 3a71 a0bd 8aee 5d3d
00000080: 7eec b3bd 2e41 d83b cee5 e3bd f0ff 513d
00000090: 1666 9bbc b69e d33d 889d 57bc 348f 073d
000000a0: 351a ea3b e673 1f3c a24a 0ebd dc3a 853d
000000b0: e9fd b7bd deb3 8abd 67bf e63d 105a ac3d
000000c0: 4c63 653c 5c5c adbd 3ba0 153d d0a3 5bbc
000000d0: 9b89 9e39 7c45 8abd 8f80 3bba 31c0 173d
000000e0: 5c71 1e3d 6d9f abbd 3340 79bc caad 5ebd
000000f0: 446f d1bd 8cb4 3bbd 15e1 2a3d fcc0 9abd
00000100: de43 db3d b3b8 a23c c2c8 78bd 3c57 3dbd
00000110: 09a4 22bb 0536 7cbd 1cdd 1a3d 710c 603d
00000120: 88a5 1ebc 0d49 523d 2c73 f4bc 9754 823d
00000130: b451 a0bd daeb 443d 5434 a13d 2c3f 573d
00000140: 7451 913d a97d 9c3d 0356 b1bd 6c0d af3d
00000150: 03dc 143c 382a 45bd a3d2 d6bd 0c4d b93d
00000160: db07 5e3d 7c0c 4ebd 0e06 5b3d 5138 903d
00000170: 84d1 01be 4e6c be3c 84f8 bd3c 1d5c a83c
00000180: 02d0 b73d 7f15 2d3d 5a70 75bd dc7b 223d
00000190: b20b c2bc d87e 383d 4a32 a03d d85b 363c
000001a0: 9ba9 3d3d cf83 ef3d 3377 b2bc 4933 68bd
000001b0: 3c20 abbd ea14 8dbb 44b2 763c 0fd4 d2bc
000001c0: f946 cb3d bccd 5e3d 2f97 ef3d 27bb 843d
000001d0: fda7 123d 8d5f 3abd 699d 58bd 642e a83d
000001e0: 68bd b7bd 4e7d 53bc 8e0e bdbd 6140 89bd
000001f0: a891 693d d556 d0bd 3389 283d edeb 143d
00000200: 3d1f 073b 8bc2 323d d3d6 063d a54f 403d
00000210: ee4b 29bd c587 9d3d 3f92 37bd de6a 963d
00000220: 8af7 613d e117 413b 2206 00bd 7ca9 c2bc
00000230: 90f1 65bd 09b2 6d3d d6af e8bc 07c1 cd3d
00000240: e316 733a c3a1 653d 2581 1a3c 55b8 bbbd
00000250: c6c1 513d f44c c6b8 0287 693d 7146 7e3d
00000260: b66b ab3d c106 0bbd ca7b 5ebd 685e fa3c
00000270: d763 213d f6ea 2e3d 0f15 bd3b 977f 45bd
00000280: 506b c83b 91df 98bd 0119 efbc 0506 b43c
00000290: 9509 c5bc 5ddf 223c cfd6 92bd 30b9 26bd
000002a0: f669 64bd a467 373d fc69 4abc c994 9e3c
000002b0: a12d f5bc 48f5 b43c 9873 c93b 2da2 773a
000002c0: ebe6 d3bc 7a1b 63bd 3288 703b 0224 b3bd
000002d0: 22da 323d cd89 c13b 63f2 a7bd f976 d73d
000002e0: eb42 96bd f0f6 8c3c 1f2f e6bc f0f9 fb3c
000002f0: 1d5a ef3b 8961 623d 5191 89bd a9ba 10bd
00000300: 1eb3 023d ca24 8d3b 5a61 763d 82ae 7a3d
00000310: 9cf5 4c3d cdef 8b3d ab33 87bc 562e a039
00000320: 2447 d53c 8540 14bd fd7b 1c3d eee6 97bc
00000330: ee9a fb3b 3b9c 69bd 74b2 98bc 9ca0 86bc
00000340: 42c5 96bd 6c44 77bd c778 0ebc 6043 0e3c
00000350: bacf de3c 2b8b 3c3d bde9 cebc 3112 333d
00000360: abb0 58bd 2e5d 143d e322 23bd 1e55 bbba
00000370: 1df8 3cbb 772d 9abd 2334 32bd d40c 6bbd
00000380: d215 f5bb 3279 99bd e9a6 a43c 8970 abbd
00000390: 4fd4 bdbd c447 06bd cd78 31bd 316d f4bd
000003a0: 37a0 30bd dd99 823b f75a a93d 8d1d d43c
000003b0: ffab 1fbd 4ac0 9ebd 8fd4 32bc 97fb 5fbd
000003c0: bf2c d1bc 2a6f a73b cf08 053d 976f 94bd
000003d0: 42e3 6a3d 0917 7d3d a7e6 063d 6ebe 92bb
000003e0: 425a d63b 9ddd 6b3d 172e 1b3b 59f4 fb3c
000003f0: 5550 6fbd ea9f 163c d56e 87bd ebb8 e2bc

mlp.9.bias f4 [4]
0.11520808 -0.037083823 -0.006505578 -0.13782343
00000000: 37f2 eb3d 35e5 17bd be2c d5bb 9621 0dbe
