models/fjsp_same.pth (torch, 290136 bytes, 8 tensors)

mlp.1.weight f4 [128, 40]
00000000: a015 573d 3efb 573d 3a91 bfbd 9429 be3d
00000010: cf5d d4bd c5af 023d eda6 9dbd 182c be3d
00000020: a848 1b3d 84e1 74be 9e32 b43d 49a1 03bd
00000030: 323d ef3d 0120 43bd 0d24 9c3d 5de1 b6bc
00000040: 9407 733e 106c b93d 1d47 f8bb d874 d93d
00000050: c831 95bd 5fe6 97bc c413 ce3c 9acf d63d
00000060: f73f 90bd 9ee8 bfbc 1763 d13b 222b 4ebd
00000070: c880 743c ece9 1fbe 9d38 123e 5b73 a1bd
00000080: 2d74 6e3d d4bb 0a3d 1ab7 7bba 77a3 173e
00000090: fb0a 02be f1cd 773c 07bf f93d 00bf 21bd
000000a0: bbbe 083e 5215 023d 64e0 e63d f367 0d3e
000000b0: 006c 163e 6290 8dbd a1ed ba3d f1c1 e73c
000000c0: 88c3 fd3d 41f2 503c 460e b2bd 32b7 b53a
000000d0: 0e60 f8bd 76ae 3d3e fd89 3a3d 2621 863d
000000e0: aa20 543e 96ff c63d ee07 4c3e 87b1 15bd
000000f0: 231c 233c ad04 ddbd c4bb 1b3e a908 5fbd
00000100: 3ff2 883d cd3b 4cbc 1451 1a3e 28ed a0bd
00000110: bb1f c1bd b722 c1bd a6a0 113e 0a6f 983d
00000120: d0fc f63d 02d1 88bd dc4e 75bd 5739 dbbc
00000130: 453f 9dbd 2010 da3d 1cfe 343e 1c2a 123e
00000140: b051 34bd 5005 babd 385d 2e3e e3da 943c
00000150: c248 3b3e 1faf 19bd 033d b93d 7b98 fbbd
00000160: d4ff 213d c06b e13d 51a3 d93d da06 893c
00000170: 7f04 c13d bc15 473e d9d2 eabd 2fe0 acbd
00000180: 9ea0 dd3d e819 d6bd 3ac4 ebbd 4512 5dbe
00000190: c470 b9bd 0ec8 213d 98ca 9abd ec0d ebbd
000001a0: d7b6 b83c 3332 a8bd e644 dabd 994c 61bd
000001b0: 52b4 0dbe cf2f cebd 65d8 213e 1702 503d
000001c0: 6d4d e53d c361 5dbe 21ab 74be 4439 40be
000001d0: 2837 083e bc6e 95bd 6037 c0bd 5891 8fbd
000001e0: 4ff5 933c b25b e5ba 69e7 343c c5a3 ccbd
000001f0: 3e67 c7bd 62ea bcbd 01af 5dbd 2f95 ffbd
00000200: 8735 403e 9c9b 9abc 7716 1a3e 2044 673d
00000210: 8e1a 09be b1f4 f63d 7a31 32bd 5241 78bd
00000220: e207 a9bd ea49 03be e946 993d 6acd 7e3b
00000230: 9a23 7c3d 5bdf 04be 0f49 193e 02b3 edbd
00000240: 0e10 23bd 233e b53c 2704 993d 8fd4 fa3d
00000250: fe7d 133e 8461 00be 07fd 223d 2639 9ebd
00000260: 9ecf 063d be3f 85be 0325 8dbd 9971 a8be
00000270: 9af1 f43d bbb0 ce3c 9b84 c23d 8e20 c0bd
00000280: ebbf 013e 94c9 b93c 5ee2 89bd 7f00 71be
00000290: 41e1 1c3c 2851 c2bc 3a59 94bd 2312 0b3e
000002a0: 9745 33bd 222e e0bd 1068 f7bd 3c5b a1bd
000002b0: 98ce b43d 2913 c7bd 11c3 b8bd 1ec7 5dbd
000002c0: 52cf 9f3c d9f6 263e 648c 873e 1d8d b33b
000002d0: de69 163d 0548 a73d 7582 363e 7ba3 66bd
000002e0: 3aae 8b3d f09e 823d 80da 2c3d a7f9 3dbd
000002f0: 937e 2bbd ae91 8a3c 87d0 e4bc e77a 79bd
00000300: 0e33 58bb dee2 023e 9093 c43c 2231 8b3b
00000310: 40f8 d8bd 85ef 07be d87d 223e e0ca 8d3c
00000320: 616e 1ebe 099f 9dbd 38be 163e 3f89 ce3d
00000330: 3db4 aeba 353b c3bd ef1c c6bd 4908 11be
00000340: cabb acbd b0ba babc d1e3 f63d 87b0 bf3d
00000350: 3f1e 0fbe 4f5a b5bd 3d6a ccbc 4a9f 1c3e
00000360: 1374 de3c c874 1fbd c511 ac3d 5574 17bd
00000370: b097 d1bd 9e59 ec3d 6af1 62bd 45d4 01bd
00000380: 0ddc 3fbe b68d a13d 5cd4 c53d 0d3f 153d
00000390: 16ca e1bd 48cb 1fbe b07f 03be fb1a ba3d
000003a0: c918 4e3d 9225 243d 2acb a3bd 277a fbbd
000003b0: 3439 90bc 0609 21be b2db dabd f501 2ebe
000003c0: ae63 673c 8b48 24be 78cd 12be 5c76 4cbe
000003d0: 3b96 e2bd f3e9 e3bd 5696 d3bd ced3 563d
000003e0: 66d6 a5bd 93dc 7d3d 8030 1cbe 7a25 5fbe
000003f0: 2e89 e4bc 8746 22be 6823 46bd e422 1abe
0.052510858 0.052729838 -0.09353872 0.09285274 -0.10369455 0.03190591 -0.07697854 0.09285754
0.037911087 -0.23914152 0.08798717 -0.032136235 0.11681594 -0.047637943 0.07624064 -0.022324258
0.2373336 0.090538144 -0.0075768367 0.10617989 -0.07284886 -0.018542467 0.02515591 0.104888156
-0.0704345 -0.02342635 0.0063899863 -0.050334103 0.014923282 -0.15616578 0.14279409 -0.078833304
0.058216263 0.033870533 -0.00096021744 0.1480845 -0.12699501 0.015124784 0.12194639 -0.039488792
0.13354008 0.031758614 0.11273268 0.13809185 0.14689636 -0.069123045 0.09127355 0.02829072
0.1239081 0.01275307 -0.08694129 0.00138638 -0.12127696 0.18523583 0.045541752 0.06549291
0.20715585 0.09716718 0.199249 -0.036546256 0.009955439 -0.107919075 0.15208346 -0.05445162
0.0668683 -0.0124654295 0.15069991 -0.07857734 -0.0942988 -0.094304495 0.14221439 0.07443054
0.12059939 -0.0668049 -0.05988966 -0.02676074 -0.07678083 0.10647607 0.1767506 0.14273876
-0.044023216 -0.090830445 0.17027748 0.01817078 0.18289474 -0.037520524 0.0904484 -0.12284943
0.039550617 0.1100688 0.10626853 0.0167269 0.09424686 0.19441885 -0.11465997 -0.08441197
0.10821651 -0.1045416 -0.115120366 -0.21589 -0.090547115 0.039497428 -0.07558173 -0.11477265
0.022548122 -0.082127 -0.106576726 -0.05500469 -0.13838318 -0.100677125 0.15805204 0.050783243
0.111964084 -0.21619324 -0.23893405 -0.18771845 0.1330229 -0.072965115 -0.09385562 -0.07010144
0.018061308 -0.0017498641 0.011041501 -0.09992174 -0.09736489 -0.092243925 -0.054121975 -0.124796264
0.18770419 -0.018873028 0.15047632 0.056461453 -0.13389036 0.1205839 -0.043504216 -0.06060917
-0.08253457 -0.12821165 0.07484228 0.003887976 0.06155739 -0.12975828 0.14969276 -0.11606409
-0.039810233 0.022124356 0.07471495 0.122475736 0.14403531 -0.125372 0.039792087 -0.07725744
0.032912843 -0.26025194 -0.06891825 -0.32899168 0.11960144 0.025230756 0.09497949 -0.09381209
0.12670867 0.022679128 -0.06732629 -0.23535345 0.009575189 -0.023720339 -0.07243581 0.13581137
-0.043767538 -0.10946299 -0.12080395 -0.0787873 0.08828467 -0.097204514 -0.09021581 -0.05414497
0.019508038 0.16305102 0.26474297 0.0054794685 0.036722057 0.081680335 0.17823203 -0.05630825
0.068203405 0.06377971 0.042200565 -0.046380665 -0.041868757 0.016915169 -0.027931465 -0.060908224
-0.0032989415 0.12781855 0.023996145 0.0042478004 -0.10594225 -0.13274963 0.15868318 0.017308652
-0.15471794 -0.07696349 0.14721 0.10084771 -0.0013328862 -0.09532777 -0.096734874 -0.14163317
-0.084342554 -0.022794098 0.12055171 0.09359842 -0.13976382 -0.088551156 -0.024953002 0.15295139
0.027154958 -0.03892973 0.08401827 -0.036976177 -0.1023401 0.115405306 -0.05540601 -0.031696577
-0.18736286 0.07888357 0.09659645 0.036437083 -0.11024873 -0.1560489 -0.12841678 0.09087177
0.050316606 0.040074892 -0.07997735 -0.12279158 -0.017605402 -0.15726098 -0.10686435 -0.16992934
0.014122887 -0.16043298 -0.14336193 -0.19967026 -0.110638104 -0.11128607 -0.10331409 0.052448086
-0.08097534 0.061977934 -0.15252876 -0.2179164 -0.027897444 -0.15847217 -0.04837361 -0.15052372

mlp.1.bias f4 [128]
00000000: bbc8 d0bd d4e9 cabd b79f 88bd e14c 1cbc
00000010: 1ce0 663d 5c24 c8bd a666 f8bc fbf4 043e
00000020: 24cd 81bd ad5a 603d 0bfd aabc 150e 98bd
00000030: ae6e c83b 1a68 40be 328d 213e 6a8d 8c3c
00000040: e1cd 5d3d 8ac8 613d 71b8 583d 135f e73d
00000050: f7df 463d 46fc 14be 4853 e83d 6d5c 923d
00000060: 70cf 8bbd b895 85bd c5e5 013e dade 263d
00000070: 416c 883d 4f29 f93d 09ec 143e fcca 47bd
00000080: 540b 513d 81ea 973c cac9 6fbc 9f7c 3e3e
00000090: d708 763d 9923 a23b b2fe cb3d 2f9d 12bd
000000a0: 8e3e 683d 04ab 01be c452 b5bd c492 c6bd
000000b0: e5e9 cf3d f937 7b3d c17b e9bd f8b9 88bd
000000c0: b0fc f03d 2622 8bbd a511 013e 2c14 833e
000000d0: 1aa7 2fbd a5e1 2ebe 32b2 c73d 5fb4 d53d
000000e0: 3f3e bb3d ff9c d53d d3c2 fc3d aaf2 d7bd
000000f0: 789f cd3b 383d 48bc c0f9 d03d 130b dbbc
00000100: 5e3d eebd 59a8 9f3c 1c0a 7cbc 33d7 363d
00000110: 0bb7 fabc 5797 c03c 2f56 f0bc 85e3 8ebd
00000120: b1d7 4d3d 5961 823b 4d9b ecbd 0e7b cbbc
00000130: 2d7b dc3d 0f86 f23d 6026 80bd 3514 b33d
00000140: 1cbe 1ebe d351 283e beee 1e3e c0ce c3bc
00000150: 3099 473d a032 01be c14e 8dbd 5334 61bd
00000160: 2f8d f5bd eb0f c1bd 1987 933d 5079 42bd
00000170: 24a1 103e b71a e0bd b3cc 763d 06a7 813d
00000180: dc5c 6d3d b898 5dbd eb1e 27be f4f4 b9bd
00000190: dbe8 d93d 8fb1 2c3d d07d 2a3e c02c d6bd
000001a0: 0ce1 18be 3474 be3d 81e7 5e3d c369 9cbd
000001b0: f665 413e f25b 31bd 7263 a3bc 504a 903d
000001c0: cefc b0bd 4e18 cabd 6289 cbbd 985f b63c
000001d0: 8f07 033d 10fe 543e f555 13be bb49 f33c
000001e0: 7712 cd3d e2d2 80ba 97eb 7bbd eb2d bebc
000001f0: 81d0 28be f0d0 c3bd ef03 d13d 68d1 803c
-0.10194536 -0.099078804 -0.06671088 -0.009539814 0.05636607 -0.0977256 -0.030322384 0.12984078
-0.063379556 0.054773975 -0.020872613 -0.07424561 0.0061167097 -0.18789712 0.15776518 0.017157275
0.05415142 0.05512289 0.052910272 0.11297431 0.048553433 -0.1454936 0.1134401 0.07146535
-0.06826675 -0.06522697 0.12685306 0.04073987 0.06661273 0.12166082 0.14543165 -0.048777565
0.051036194 0.018544437 -0.014635513 0.18602227 0.060067024 0.004948091 0.09960689 -0.035794433
0.05670028 -0.12662894 -0.08853677 -0.09695962 0.10152034 0.061332677 -0.11400557 -0.06676096
0.11766946 -0.06793623 0.12604387 0.25601327 -0.04288397 -0.17078264 0.09750785 0.10434794
0.09142732 0.10430335 0.12341847 -0.10544331 0.0062751137 -0.012221627 0.10203886 -0.026738679
-0.116327986 0.019489454 -0.01538327 0.044638824 -0.03060486 0.023509664 -0.02933797 -0.0697699
0.050254527 0.00397889 -0.11553059 -0.02483895 0.107656814 0.11841976 -0.062573195 0.087440886
-0.15502208 0.16437463 0.1552076 -0.023902297 0.048730075 -0.12616968 -0.06899787 -0.05498154
-0.11989819 -0.09426864 0.07203502 -0.047478974 0.1412397 -0.109425955 0.06025381 0.06330685
0.057949886 -0.054100722 -0.16320388 -0.09079924 0.10640117 0.04216152 0.16649556 -0.10457754
-0.14929599 0.09299508 0.054419998 -0.0763736 0.18886551 -0.043300577 -0.01994488 0.07045424
-0.08641969 -0.09867917 -0.09938313 0.02226238 0.03198963 0.20800042 -0.14388259 0.029698243
0.100132875 -0.0009828473 -0.061503973 -0.023215255 -0.16485788 -0.09561336 0.102058284 0.015724853

mlp.4.weight f4 [256, 128]
00000000: 20a3 cdba c3d4 0d3e 127c 8c3d 17bf 5d3d
00000010: ebbd 1c3e b700 ec3d 5422 033e 3055 6bbd
00000020: 0149 0bbc 663c f73d 96a9 c0bc 3606 14be
00000030: 4935 05bc 4364 5536 62fa ec3d 943a 24be
00000040: c6b1 14be f76b 64bd 4a49 523e e29a 54bd
00000050: 79cd ed3d 81aa f13d f1d6 8d3d d3d2 8a3c
00000060: 4516 40bd e433 68bb 40dc 1b3d 0655 a03d
00000070: 4107 dd3d 534d 12bd f57b 093d 9a19 9e3d
00000080: 3567 683c 5fc9 163e 2daf 8a3d 58e8 a83c
00000090: 2c5a 02bd 6c59 c2bc 2342 c03c d2c1 533d
000000a0: 1e95 993d 34ff 1c3e ad3f 17be 2184 6c3e
000000b0: af1a 2d3e 5876 72bc 164c 10bc 4546 bebc
000000c0: d19e e43b 6677 0b3c c465 ff3c bee0 343d
000000d0: 319c 69bd 3ec1 70be b4ac ddbd 3c32 d23c
000000e0: 9dfa 873d 9a95 bebc 307e a5bc dddf 123e
000000f0: 07fd 203e 464c 2b3e e931 8abd 5b9c ff3a
00000100: c5ac 00bd eaa2 473d 8d2a e53d 38cf f8bd
00000110: 7df0 02bc dd5f 1abe 5eed 96bd 23c6 bcbd
00000120: ea84 d13d dce0 2abe 5a2f acbc d33a 923d
00000130: 4c76 103e 134a cd3d ecfd 1fbe c198 9ebd
00000140: d014 c93c c816 513b 90aa 2dbc 0968 6dbd
00000150: 81df 533e 3991 073d 1c21 303e c7df a03b
00000160: aaa1 c73b 7caf b43d 615b b73c db34 163d
00000170: f278 123c da24 f0bd 2176 0a3d 8347 cdbb
00000180: c1a8 513e bf7a d93b 6a2b b63b 2d9e 2ebd
00000190: 46f3 353d 5578 563d 44c2 58bd b001 373c
000001a0: f17a 5ebd 9d2c 853d d340 67bd f588 713e
000001b0: f3ba cbbd 5a31 34be 8412 a6be d5d0 b73a
000001c0: 66fb 053c e732 5ebd f79e 033e fa4d adbd
000001d0: b1af a03d 8166 6b3d 4ded 923d aa49 a23c
000001e0: 6f6a 12bd d726 873d ec19 8a3e 01ee 2e3e
000001f0: 5d89 693c 610e be3d 7af0 80bd 66e9 a8bb
00000200: 61f2 813c 4c8f 85bc ed06 8fbd 258e 49bd
00000210: 5687 c43d 8d86 f03d 1d6d 603d c296 88bc
00000220: ac5a 1cbd 712f 0a3e 423b be3d cad1 8b3d
00000230: 0888 57bd 02bb 1f3d e6b8 eb3d a06d 10be
00000240: c4a2 d3bd 76c4 eebb f4b6 a23d bd85 2c3c
00000250: 80d3 babd 45f6 2c3d 2f57 963d 6f0a 3e3c
00000260: d014 1a3c cde1 b13d b230 1a3d 04fd aebd
00000270: fb83 b83b d1ce c6bc b9e5 90bd 2d2f 1e3d
00000280: b2e7 15be 4e17 c73d 65af f43d 2b73 afbd
00000290: 33ab 663d 67f6 233c 0165 b8bd a963 04bc
000002a0: fea2 3cbd ed24 8d3c 4e30 08bd 32eb 823d
000002b0: bfd2 103e dfba b7bd 67e0 72bd 38c6 e6bc
000002c0: b054 2bbe fc25 1d3d 605f 8c3d 6e52 2bbe
000002d0: 2c68 81bd e9b8 c9bd 788f 8dbd 0c2f 7c3d
000002e0: e94f d63c b206 513d e18b 3fbd 220e aebc
000002f0: ad83 953d 4f9f e63d e672 80bd e36b d7bd
00000300: f1da 4abe b8c3 283e 57af a03d 98d2 2abd
00000310: 8031 7a3b 0314 48bc 75af 63bd 1cad 6dbe
00000320: c256 1b3e 9b29 09bd d219 8ebb 7266 00be
00000330: 918e 0a3e 32e0 11be 157b e0bd c4bc df3c
00000340: 629e e8bd fc6c 8d3c b4fa 3ebc dc6e 9c3d
00000350: 619f 8f3d 1439 803d f344 5f3d eae4 d03d
00000360: e035 253e 06c7 6dbd fe71 6bbd a2d7 9ebc
00000370: 15e0 d53d 52f9 4cbe add8 c03b f936 263d
00000380: 85c5 073e 0132 6e3e 90bf 56bc a6db 54bb
00000390: 44e0 5cbd 8c00 8abe 2fb3 a23c 03d7 bf3d
000003a0: d545 f53d f84c e8bc 27b7 e4bc 9c38 e43d
000003b0: f7a1 6abe 15fb 813a 026d 1cbe 8f64 febd
000003c0: 6098 89bd b86f 113e 26f4 dbbc 1c55 b3bc
000003d0: 8c92 1dbe 8916 34be 6324 ca3d 86c6 973c
000003e0: 32cb 4ebb 5d83 cd3c 20d5 5c3e 9a27 c3bc
000003f0: 0f75 433d 0484 713d 235e 45be c534 c1bc
-0.0015688874 0.13850693 0.06859602 0.054137316 0.15306823 0.11523574 0.12806064 -0.057454288
-0.008501292 0.12072067 -0.023518365 -0.14455494 -0.00813038 3.1797833e-06 0.11571194 -0.16037971
-0.1452094 -0.055767026 0.2053577 -0.05190552 0.116114564 0.11800099 0.069257624 0.016946232
-0.046896238 -0.003543132 0.038051844 0.07828717 0.10792399 -0.035718273 0.03356548 0.07719727
0.014184763 0.14725254 0.067716934 0.020618603 -0.031824276 -0.02372428 0.023469036 0.051698513
0.07499145 0.15331727 -0.14770384 0.23097278 0.1690471 -0.014798723 -0.008807203 -0.023226866
0.00697694 0.0085123535 0.031176455 0.044159643 -0.05703372 -0.23511216 -0.10823956 0.02565872
0.066395976 -0.023264695 -0.020201772 0.1434321 0.15721522 0.16728315 -0.06747801 0.0019501554
-0.031414766 0.04873935 0.111897565 -0.12148899 -0.007991907 -0.15075631 -0.07369493 -0.09217479
0.102304295 -0.1668734 -0.021018673 0.07140126 0.14107627 0.10023894 -0.15624207 -0.07743979
0.024546057 0.0031904448 -0.010599747 -0.057960544 0.20690729 0.03309748 0.1720013 0.004909489
0.00609227 0.088225335 0.02238244 0.0366715 0.008939968 -0.11725779 0.033804063 -0.0062646284
0.20474531 0.006636947 0.0055593746 -0.042631317 0.044421457 0.05236085 -0.05291964 0.011169836
-0.054316465 0.0650265 -0.056458306 0.23587401 -0.09947767 -0.17596951 -0.32436 0.0014024029
0.008177614 -0.054247763 0.12853609 -0.084621385 0.078460105 0.057470802 0.07174168 0.019810516
-0.035746034 0.06599205 0.26972902 0.17082979 0.014253941 0.09280086 -0.06295867 -0.0051547764
0.015862646 -0.01630368 -0.06983743 -0.049207825 0.09596126 0.117444135 0.05479156 -0.01667345
-0.03817241 0.1349466 0.09288646 0.068271235 -0.052619964 0.038996704 0.11509876 -0.14104319
-0.103337795 -0.0072866036 0.07945052 0.010529933 -0.09122372 0.04222705 0.07340848 0.011599167
0.009404376 0.08685646 0.037644096 -0.08544353 0.0056309677 -0.02426854 -0.07075066 0.03861921
-0.14639166 0.09721242 0.11947516 -0.085668884 0.056315612 0.010007477 -0.0900364 -0.008080401
-0.04605388 0.017229522 -0.033249192 0.06392516 0.14142893 -0.0897119 -0.059296038 -0.02817069
-0.16731524 0.038366303 0.06854129 -0.16730663 -0.06318697 -0.09849722 -0.0691213 0.061568305
0.026161151 0.051031776 -0.04676426 -0.021246973 0.07300506 0.112608545 -0.06271915 -0.10518625
-0.19810082 0.16480911 0.078459434 -0.041704744 0.0038176477 -0.012211802 -0.05558725 -0.23210567
0.15169814 -0.033486944 -0.004336574 -0.1253908 0.13530947 -0.1424568 -0.10960976 0.02731169
-0.11358334 0.017263882 -0.011656452 0.07638332 0.07012821 0.06260887 0.054509114 0.10199912
0.16133833 -0.05805113 -0.05748176 -0.019389931 0.10443131 -0.20016983 0.0058852048 0.04057977
0.13258941 0.23261262 -0.0131071955 -0.0032479553 -0.053924814 -0.26953542 0.019860832 0.09367182
0.1197621 -0.028357014 -0.027919365 0.1114361 -0.22913347 0.0009916747 -0.15275958 -0.12421524
-0.06718516 0.14202774 -0.026849817 -0.02189117 -0.15387934 -0.17586721 0.098702215 0.01852728
-0.003155422 0.025087053 0.21565676 -0.023822594 0.047719058 0.05896379 -0.19274192 -0.023584733

mlp.4.bias f4 [256]
00000000: 944f f5bd e994 a2bc d766 02be e260 10bd
00000010: fbb5 373d c3c6 8d3c 1721 cf3c 1768 abbd
00000020: ab41 41bc fa26 81bd 3775 c5bc e034 45bc
00000030: 144e 07be fb14 80bd ba4b a9bd 8d65 503c
00000040: 090c a6bd 4af8 173d 222f 4ebc 5032 8c3d
00000050: efc8 25be 83a4 9bbc 4fba c0bd bc1a a83d
00000060: 4668 cabc d1a1 bcbc ba26 cc3c be5c bdbd
00000070: 8cb5 48bd f5cf 1c3d a4e9 55bd a264 3c3c
00000080: 030d d2bd 4769 b3bd e29f 0cbe 36b6 babd
00000090: ed72 92bd 6811 d3bd 2921 d9bd 7d2c 1fbd
000000a0: 2f1b e9bd 34fd 02bd 71b0 39bd 9149 fcbc
000000b0: e8a6 00be 449a bbbd e3e7 13be cffa 0abe
000000c0: 6fed 92bd 222d c1bc f564 93bc d151 3abd
000000d0: 3fe5 403d b06f 12be 8252 ba3c 6ea5 ebbd
000000e0: de7e 3dbd 2d46 693b 3844 41ba f1d2 333c
000000f0: 9611 14bd 667f 8ebd e461 8bbc 7fe0 1a3d
00000100: e101 c0bd e6cd 8cbd 47f3 b8bd 1761 10bd
00000110: cf0c edbd fe74 eabc 98a0 8abd fbeb a4bd
00000120: 0d6c 1bbe daaa d9bd 64f5 6cbc 3149 1cbe
00000130: e1ac 89bd 854c 27be c8ad d7bd 9d09 fdbd
00000140: af86 503d 55cb 203d 6675 19bd b7d7 16be
00000150: 47fd 0bbe 2bc2 8a3c e342 dcbd 495e 33bd
00000160: 7f98 4abd 5f94 b2bc 0418 023d 2d37 aabd
00000170: e628 9abd c688 0ebe 8ebc eabc ef3b 88bc
00000180: e245 21be a798 8a3b 475f f738 e967 25bd
00000190: 208e dcbd 408e ccbd ec99 d7bc 6a63 29bd
000001a0: c02e c9bd f750 88bd b8f1 54bd a0a2 3ebe
000001b0: 5582 003d 33fa adbd 2b4f 9dbd 0a14 9b3c
000001c0: 674d dabd 0180 97bd 461a 1dbe 361d 03bb
000001d0: e44f 87bd d309 46bd 805a 31be 9d3b 59bd
000001e0: 48f9 a6bd 42fe 06bd e22f d9bd 5dd2 05bd
000001f0: 5239 39bd 8ce9 a43c 5c40 3abd 57cb 71bb
00000200: c01d c2bd 125e 62bd f391 983c 5250 34bd
00000210: 33eb 15bd ef83 f1bd 2f71 a5bd 2d9a 04be
00000220: 1df4 a5bc c345 adbd 3b32 acbd 00ac 3cbe
00000230: 950c efbd e510 45be 8840 cebd 75ae 94bd
00000240: 1583 813a 4926 ebbd dcdd 00be 5811 6cbd
00000250: a9aa f6bd 812c 983d 4772 25be b9ff 34be
00000260: 35ff febc 33db 0abe 91aa 0dbd 4ab9 1e3d
00000270: 78d6 4ebd e4f1 a3bd f48a 0fbe 5f36 0cbd
00000280: 1faa 9ebd 3035 a0bd 85cb c1bd 63fd 61bc
00000290: ac44 e5bd cd53 57bd 7711 1ebd 4b1e 97bd
000002a0: b4e3 8bbd ee43 f8bd c810 3bbd 6f88 263a
000002b0: 3eef babc 18b9 04be d363 623d b05d 1a3d
000002c0: 4b64 87bd e208 1fbe cda2 85bb 50c0 ebbd
000002d0: ff76 83bd ca44 7ebd 4031 383d 63b4 a9bd
000002e0: 62de 873c ead9 fcbd d26e 11bd fecd aebd
000002f0: ddad ddbd fbc4 c4bd e965 09be 2849 b8bd
00000300: 797c 7dbd dac3 3abe 8f3e f3bd aa47 db3c
00000310: cd39 fdbc 4c19 2fbe 7b99 a5bd cefd 563d
00000320: 88b6 03bd 38f2 acbd 2278 8bbd 5784 1c3b
00000330: 89cc d6bd 4595 84bd ad9a cfbd 970b 05bd
00000340: 1483 3ebe 0e6a 82bd 6f51 9bbd f348 8f3c
00000350: 658c c3bd 7488 d7bd 6cf5 96bd 765f 76bd
00000360: 2ad5 5abd bbad a0bd dfa4 73be 4e65 41be
00000370: 65d7 6abd 6082 a1bd 3f84 413b 4a07 97bd
00000380: 88ab cfbd 7e55 72bc 5887 5cbd 1278 263d
00000390: 6b02 27bd 621f 8ebd a3bb bbbd 22dd 62bd
000003a0: 8f9a 3bbd 7bc1 46be 51ab 423d 40fc 58bb
000003b0: a92f 0abd f05b 17bb 6eda d3bd 043e 13be
000003c0: a97b d7bd ab86 babb 6253 2cbd d731 18be
000003d0: d07b 883b f166 bb3c 27a6 33bd 61a2 efbd
000003e0: d40f 173c 24eb 67bd 2e5a 71bd fd46 57be
000003f0: 7afb 40bd c36c a5bd 287f 9cbd 123b 71bd
-0.11978069 -0.019846397 -0.12734543 -0.035248645 0.044851284 0.017306691 0.025284333 -0.08369463
-0.011795442 -0.06306262 -0.024103744 -0.012036532 -0.13213378 -0.06254002 -0.08266397 0.012719524
-0.08107764 0.03710202 -0.0125844795 0.06845534 -0.16189931 -0.018999344 -0.094105355 0.08208224
-0.024707925 -0.023026379 0.02492081 -0.09246205 -0.04900126 0.03828426 -0.05222477 0.011498602
-0.10256388 -0.087603144 -0.13732865 -0.09116785 -0.071508266 -0.10306054 -0.10602028 -0.038860787
-0.11382138 -0.031979755 -0.045334283 -0.030796798 -0.1256367 -0.09160283 -0.14443927 -0.13572238
-0.07174193 -0.023581091 -0.017992476 -0.045488182 0.047093626 -0.14300418 0.02274442 -0.115061626
-0.046263568 0.0035594807 -0.0007372531 0.010975585 -0.036149584 -0.06957893 -0.017014451 0.037811752
-0.093753584 -0.068752095 -0.090307765 -0.035248842 -0.11574709 -0.02862024 -0.06768912 -0.08052822
-0.15177937 -0.106282905 -0.014462803 -0.15262295 -0.06722427 -0.16337784 -0.10531193 -0.12355349
0.050909694 0.039256413 -0.037465475 -0.14730726 -0.13670836 0.01693829 -0.10754945 -0.04379109
-0.049461838 -0.021799264 0.031761184 -0.08311305 -0.07527332 -0.13919362 -0.028654363 -0.016630141
-0.15749314 0.0042296234 0.000117956246 -0.0403823 -0.10769296 -0.099880695 -0.026318513 -0.041354574
-0.0982337 -0.06656068 -0.051988333 -0.18616724 0.031374294 -0.08494987 -0.07681116 0.018930454
-0.106592946 -0.07397462 -0.15342054 -0.0020006425 -0.06607035 -0.048349213 -0.1731968 -0.053035367
-0.081530154 -0.032957323 -0.10604836 -0.03267132 -0.04522068 0.020130895 -0.045471534 -0.0036894882
-0.094783306 -0.055265494 0.018624282 -0.044021912 -0.036601257 -0.117927425 -0.08078229 -0.12949438
-0.020258004 -0.084605716 -0.08408018 -0.18424988 -0.11672322 -0.19244726 -0.10070902 -0.072598375
0.0009880984 -0.11481912 -0.12584633 -0.057633728 -0.120442696 0.074303634 -0.16156875 -0.17675675
-0.031127552 -0.1356018 -0.034586493 0.038750924 -0.050497502 -0.08005121 -0.1401785 -0.03423154
-0.07747292 -0.07822645 -0.094626464 -0.013793322 -0.11194739 -0.052570153 -0.038590875 -0.07378825
-0.0683054 -0.121223316 -0.0456703 0.00063527277 -0.022819158 -0.12961233 0.05527098 0.037687004
-0.06610926 -0.15530732 -0.0040782453 -0.1151129 -0.06419181 -0.06207732 0.044968843 -0.08286359
0.016585533 -0.12346251 -0.035506077 -0.08535384 -0.108241774 -0.096078835 -0.13417782 -0.089983284
-0.061886285 -0.18238774 -0.118771665 0.02676757 -0.03091135 -0.17099494 -0.08085915 0.05248814
-0.032156497 -0.08444637 -0.06810023 0.0023882592 -0.10488231 -0.064737834 -0.10136924 -0.032481756
-0.1860469 -0.063678846 -0.075838916 0.01749084 -0.095482625 -0.10524073 -0.07371029 -0.060149632
-0.053425945 -0.078456365 -0.23793362 -0.18886301 -0.057334322 -0.07886195 0.0029528288 -0.07374437
-0.10140139 -0.014790891 -0.05384001 0.04064185 -0.04077379 -0.069395795 -0.09166648 -0.05538667
-0.045801695 -0.19409744 0.04752666 -0.0033109337 -0.03373686 -0.002309557 -0.103443965 -0.14379126
-0.10521633 -0.005692323 -0.042071708 -0.14862762 0.00416515 0.022876235 -0.043859627 -0.11700893
0.009220082 -0.056620732 -0.058923893 -0.21023174 -0.047114827 -0.08077385 -0.07641441 -0.058894224

mlp.7.weight f4 [128, 256]
00000000: cfc3 03bd 379c e43c 3e29 9e3c 5e3e d43d
00000010: f54a 903d c462 003d a7b7 64be 7abd d5bd
00000020: d51f 38bd bf61 a4bd 5c70 833d b262 1ebd
00000030: f562 da3a f668 263c 2426 af3c a444 11be
00000040: a97e 92bd 2cb1 1b3e a9ce 2cbd c787 f5bd
00000050: 6dcb 06be 45b5 9dbd 91fe 0ebd 6931 ffbd
00000060: 3d45 b7bc 3fe1 2f3e 37a9 95bd cf19 3a3c
00000070: 801b 813d ad40 123c 1154 ddbd 22b9 183e
00000080: 65fa 3ebd 7ad2 ac3d 690d 1abd 51f9 ffbd
00000090: 9d32 58bd f150 b23d 3477 10be ddd7 013d
000000a0: afcc 813d 6b85 5fbe 175e d73c c27f 6fbd
000000b0: f54e 7ebd ba42 0ebe 8a1b 43be e69d c23d
000000c0: a2a9 5b3c 6f42 90ba 4b97 7e3d 5707 463d
000000d0: f26e 083c 428d 573d eb24 d9bd 886a 71bd
000000e0: d9b2 9dbd b68c 24be cce7 3f3d a304 b5bd
000000f0: 6865 8d3d eca6 58be 58db e73c be67 26be
00000100: a8ec 543d c78c 85bd 0617 3b3e add9 5e3d
00000110: 5c91 8d3d 836e 3b3d 2f30 3cbd 7da2 dfbd
00000120: 27b5 1fbc d9d0 373e 81a6 de3c c01d 46bd
00000130: 10c8 9ebd 31e6 09be 7118 223c 80e1 7f3d
00000140: 7694 11bd ef45 8ebd c246 b7bd 3183 b53d
00000150: e0ac 51bd aa97 5dbd 4284 033c a12e 723d
00000160: 2a64 dcbd f921 0bbe 2a11 173d 1d93 3b3d
00000170: 5c6f 0ebd e3cb 86bd 0e56 943d e610 bfbc
00000180: a9fb 2cbc 57c7 2f3d 7f95 7939 178d b8bd
00000190: 92c5 4fbd 988e b5bc 0237 bfbd 6a73 25bb
000001a0: 1ad8 5a3d 829d fdbd 0bff 1abd 4a69 d9bc
000001b0: a179 febb 7a54 003e 837b 4fbd 4e03 8dbd
000001c0: 1ef0 e63b b2aa 7bbb 628a 40bd 5068 743c
000001d0: aacb 9dbc 4084 24bd 0df5 c93d ea0c 1d3d
000001e0: dd93 1ebe b2b6 aa3c 7a1c 9ebd 7432 67be
000001f0: c5bf 9e3c 7f31 f4bd 41e5 a73c 0000 76bc
00000200: 99f1 73bd 3e30 7bbc 7227 8ebc 2ed3 9dba
00000210: 8d7e d53d f164 023d 483e 40bd d01b 1cbe
00000220: 5f9d a5bc 2495 05bd fb36 afbc 8969 ddba
00000230: 9f92 bebc ecc7 4f3c 0275 12be 82fb e13c
00000240: 81c0 15be e9ab bfbd 8cb8 323d 7b6a 433d
00000250: f435 e6bd 1b6d 8ebd ed20 f43d 9051 9f3d
00000260: e566 50be 0762 b6bd 1a09 a6bc c301 07be
00000270: 8e72 9d3d 76f3 873d 0a9c 7dbc 4a72 01be
00000280: 4233 afbd 6ca3 cd3c 8865 3bbd edda c2bd
00000290: bbbd 093c c60e 64bc bc12 d5bb 5a29 973d
000002a0: 6662 fc3c 0887 803c 33af 413c c889 5ebd
000002b0: 7d62 0bbd bfd2 15bd 5c18 353c f68c a3bd
000002c0: 7e77 87bd 89a0 f33b d9bf f4bd 1cd7 3bbd
000002d0: 3327 c7bd 4dc1 993d 7b08 8a3d ccf7 5cbc
000002e0: 9f00 e9bd 271f 19bd 021d d23c cee6 b1bd
000002f0: fcf7 d23c 2a6c 1fbc 8094 dfbd bdf7 91bd
00000300: 1eb7 6d3c 0100 34be 5513 e3bc f9ec ccbd
00000310: b7de 1d3d e0a5 0bbd 844c e33d a2ff 0bbe
00000320: 010b 913d c1ea 163c e440 44bd 7d95 5a3d
00000330: 62bf 31be d8ca 9a3d cfb1 b03d b0a7 e7bd
00000340: fbb8 b8bd be81 c23c 0ef4 1fbd e4ba cdbd
00000350: cb88 0dbd cbef d93d e03e fabd c1c0 28be
00000360: 0dbf 523d d51e 84bd 6d1b 243b c15c 833d
00000370: 2ab5 f63c b2e7 703d 2b59 a1bd 8b00 093c
00000380: 1f43 9bbc 7fa1 ff3c c0eb 5a3d 7d00 a7bc
00000390: 2d1f 903d 62ef 0bbe 0e46 17bc 7be4 593d
000003a0: 43f2 da3d 0b40 14bd d3a1 c0bd 7004 95bd
000003b0: bcf4 5ebb 81e3 213e 67c3 53bd 10ab c03b
000003c0: dccb 113d 9236 3b3e 6f4e c0bd 5256 253c
000003d0: 7204 7f3d bb42 d3bd 23a0 f3bd 1d91 50bc
000003e0: 5666 17bc 8ee8 4b3c 62f5 b0bd 9367 8cbb
000003f0: 7750 2e3d 8646 22be 0209 08bd af14 51bd
-0.03216916 0.02790652 0.019306775 0.10363458 0.07045547 0.03134419 -0.22335683 -0.104365304
-0.044952232 -0.08026456 0.06417915 -0.038668342 0.0016661572 0.010156861 0.021380492 -0.1418634
-0.07153065 0.15204304 -0.042189274 -0.11988788 -0.13163538 -0.0770059 -0.034910742 -0.12460596
-0.022371883 0.17175768 -0.07307666 0.011358692 0.06304073 0.008926553 -0.1080705 0.14914373
-0.046625514 0.08438583 -0.037610445 -0.12498725 -0.052782644 0.087068446 -0.14107972 0.031700004
0.063378684 -0.21828239 0.026289983 -0.05847145 -0.062087018 -0.13892642 -0.19053474 0.09502773
0.013407143 -0.0011006127 0.062156003 0.048346844 0.008327233 0.05262495 -0.10602745 -0.058939487
-0.07700128 -0.16069302 0.046851918 -0.08838775 0.06904107 -0.21157426 0.028302833 -0.16250512
0.051983505 -0.06520992 0.18270501 0.05440681 0.06912491 0.04575969 -0.04594439 -0.10919664
-0.00974778 0.17950763 0.027179005 -0.048368216 -0.07753003 -0.13466717 0.009893523 0.062470913
-0.035541974 -0.069469325 -0.08949043 0.088629134 -0.051190257 -0.054099716 0.008027138 0.0591265
-0.10761292 -0.13587178 0.036881603 0.045794595 -0.03477417 -0.06581857 0.07242976 -0.023323487
-0.010558047 0.042914715 0.00023802182 -0.09011286 -0.050725527 -0.02216272 -0.09336664 -0.0025245794
0.053428747 -0.12383558 -0.037840884 -0.026539464 -0.007765964 0.12532225 -0.0506549 -0.06885396
0.007047667 -0.0038401303 -0.047006972 0.014917448 -0.019262154 -0.040165186 0.09861193 0.038342394
-0.15486093 0.020839069 -0.07720275 -0.2257784 0.019378552 -0.11923503 0.020495059 -0.015014648
-0.059556577 -0.015331326 -0.017352793 -0.0012041086 0.10424528 0.031834546 -0.046934396 -0.15244985
-0.020216642 -0.032612935 -0.021388521 -0.0016892414 -0.023263274 0.012681942 -0.14302447 0.027585749
-0.14624216 -0.09358961 0.04363303 0.04770897 -0.112407595 -0.06954404 0.119203426 0.07779229
-0.20351751 -0.08905416 -0.020268012 -0.13184266 0.07687865 0.06638233 -0.015479097 -0.12641254
-0.085546985 0.02510234 -0.045751125 -0.09514413 0.008407052 -0.013919538 -0.0065024775 0.07380934
0.030808639 0.015689388 0.011821556 -0.054330617 -0.034029473 -0.036577936 0.011053171 -0.079858705
-0.06614588 0.0074349088 -0.119506545 -0.04585944 -0.097242735 0.07507572 0.06739899 -0.013486814
-0.113770716 -0.037383225 0.025648598 -0.086866006 0.025753014 -0.009730378 -0.10916996 -0.071273305
0.014508991 -0.17578126 -0.02771918 -0.100061364 0.038542476 -0.034093738 0.110985786 -0.13671735
0.07082177 0.009211243 -0.047913447 0.05336522 -0.17358163 0.075582206 0.08627664 -0.11311281
-0.09019657 0.023743507 -0.039051108 -0.10045412 -0.034554284 0.1064144 -0.12219024 -0.1647978
0.05145173 -0.06451193 0.002504076 0.06414176 0.030115683 0.058814712 -0.078783356 0.008361946
-0.018952904 0.031204937 0.053447485 -0.020385975 0.07037196 -0.13665536 -0.009233011 0.05319641
0.10690739 -0.03619389 -0.094058655 -0.07276237 -0.0034020385 0.15809442 -0.051700022 0.0058797672
0.035594806 0.18282536 -0.0938996 0.010091381 0.0622601 -0.10315462 -0.11895778 -0.01272991
-0.009240707 0.012445582 -0.08640553 -0.004284808 0.042557206 -0.15847215 -0.033211716 -0.051045116

mlp.7.bias f4 [128]
00000000: 61f2 263e 06f0 803d 582d 23be 3a41 603c
00000010: 9021 073e 7cf7 cabd bc8e 08be ef21 c5bd
00000020: 2a37 c1bd 4c69 173e b6bd 31bd 9169 0c3c
00000030: e7ec 60bd 00d4 013e 0ed6 053e 8a8e cabd
00000040: 6ec7 c73d 5156 a83d 71b3 79bd 5f6c 23be
00000050: 2917 eb3d 9538 313d 1b79 e23d 316d 0b3e
00000060: b2ca 523c afb3 a03d cc6d 86bd e2b8 973d
00000070: c13f 78bd 91cf 0ebd aad4 343e 9ba6 61bd
00000080: c987 1f3d 66a0 2cbd 33c7 cabb edec 8bbd
00000090: 456b 9dbd 42ee a2bc 2ff4 23be a527 053d
000000a0: 8d7c 5cbd 6d52 08be 3c9b 1b3e bc0a c7bd
000000b0: 186c d73d 0f2f 0e3d e267 033e bf32 d6bc
000000c0: 7515 3e3d c80b ec3c 02df c73d 6400 8e3d
000000d0: 3cfe 0e3e 0416 dc3d 4730 4b3d 4a8c 1b3e
000000e0: 1309 9d3d 2d02 f1bd 3710 b1bd 9652 53bd
000000f0: 4880 8b3d 5ec3 c73d 4e87 a93d 62b4 c3bc
00000100: 1735 b4bc 6908 423d 6494 0cbe 32bf 973d
00000110: cb0a 093e c516 b8bc a3a0 44bd 273f 96bd
00000120: 3624 bbbd 5bdd 3ebd 471f bc3d 512d 13be
00000130: 5d55 b83c 1528 4f3c 5bdf 17be 9b61 9dbd
00000140: 6425 07be 12a6 a2bd dcb1 c0bc 8e74 fa3d
00000150: 16f2 d2bb 4e3c f63a ef87 033e 87a4 1f3b
00000160: 948e e0bd 2f88 9e3c 6ea3 e43d cf71 acbd
00000170: 8e33 c93d 72ce 94bd 8f83 983d 6ae7 00be
00000180: c480 263d bae1 9e3d 1545 7e3c 59d4 15be
00000190: 188b efbb 53a6 8f3d 9839 b5bd 683a 153d
000001a0: 05be a73d 08de 97bc cbf7 0c3e e78c 213d
000001b0: 4c21 74bc 3c2e aebd ee93 773d 7ef3 d03d
000001c0: 82d4 583d 7c07 e93d baaa a63c 6a00 e23d
000001d0: b441 c63d c2af a7bd 3f6d 55bd a7ca 1bbe
000001e0: e432 82bd 91b3 e63d cc03 883d 6e5c b13d
000001f0: bfc4 a0bd ed70 55bd 8f63 f13d 2a04 e6bd
0.16303398 0.06295781 -0.15935266 0.013687426 0.13196397 -0.09910485 -0.13335699 -0.09625613
-0.0943435 0.14786261 -0.043393813 0.008570091 -0.054913428 0.12678528 0.13069937 -0.098904684
0.09754835 0.082195885 -0.060962144 -0.15959309 0.11479027 0.04326685 0.11058255 0.13615872
0.012865709 0.07846772 -0.06563911 0.074083105 -0.060607675 -0.03486592 0.1765925 -0.055090528
0.038947854 -0.042145155 -0.006188297 -0.068322994 -0.07686476 -0.019889 -0.16011117 0.03250851
-0.05382972 -0.13312693 0.15195936 -0.09718844 0.10518664 0.034712847 0.12832597 -0.026147244
0.04640718 0.028814211 0.09759332 0.06933668 0.1396417 0.10746387 0.049606588 0.15190235
0.076677464 -0.11767993 -0.08645671 -0.051592432 0.06811577 0.0975406 0.082777604 -0.023889724
-0.021997971 0.0473713 -0.13728482 0.074095145 0.13383023 -0.022471795 -0.048004758 -0.07336264
-0.09137766 -0.04659782 0.09185653 -0.14372756 0.022501642 0.012643834 -0.14831297 -0.076846324
-0.13197857 -0.07941832 -0.02352231 0.12229262 -0.0064375503 0.0018786283 0.12844823 0.002435954
-0.109646946 0.019352047 0.11163984 -0.08420145 0.098242864 -0.07265939 0.07446968 -0.12588277
0.040650144 0.07757898 0.0155194 -0.14631785 -0.0073102824 0.07014146 -0.08848876 0.036432654
0.0819054 -0.01853849 0.137664 0.039441016 -0.014900517 -0.08504912 0.06044381 0.102026924
0.05293704 0.11378381 0.02034508 0.11035235 0.096805006 -0.0818782 -0.05210614 -0.15214024
-0.06357363 0.11264718 0.06641349 0.08660208 -0.07850026 -0.052109648 0.117865674 -0.11231263

mlp.9.weight f4 [4, 128]
00000000: 69c4 203d c337 a33c 219f 8cbd b275 993c
00000010: e12f 48bd c104 f53c 2f74 cb3c 082e 093d
00000020: d9c6 ea3b 46b8 0abd 94bd d2bc 6fe8 6f3b
00000030: 2ebd 1b3c abeb b93b b77a 903c bb27 543d
00000040: bb53 38bc 9408 173d 0b29 98bb c983 6dbd
00000050: 8d5b 773c a7a5 553d 140d 21ba fd82 543d
00000060: 5d56 86bc 65c3 baba ff2f 5537 e906 7aba
00000070: c244 e4bc 4c01 863d 546d d2bb 3c7c 68bc
00000080: 14a5 15bd 50f6 08bd 0387 f6bc d8c1 bb3b
00000090: b8ad d2bc 5109 4e3d 458b 2fbd addd 063d
000000a0: d5bb 46bd e441 9a3c 69a5 7abc 82ea 1c3c
000000b0: e088 9abc 5168 48bd 916a 763b 1d70 953d
000000c0: 4dcc ce3b b871 fdbc 59bb 233d b041 b1bc
000000d0: 5b28 1f3d e260 16bd 62bc 253d 9c3d 9a3d
000000e0: 445f 363c f25e 7cbb a0aa b5bc 9137 12bd
000000f0: 9a32 cfbc 7386 563d b066 1dbc 4c92 52bd
00000100: 47d6 343d 1f27 673d 0d82 f0bb 7cf8 fd3c
00000110: aaba 243d fcd3 503c 0cf3 b43b 339b fe3c
00000120: 4b13 95bc bad2 d8bc 4a88 a13b ac47 2c3d
00000130: 7177 55bc 5e8d f3b9 7dd1 8a3d e4f3 78bc
00000140: c23a cabb e438 533c b228 453c ff64 093d
00000150: bb67 4fbb 6535 ef3c cb74 fe3a 7e3f 413d
00000160: 5eec 0dbd 885d bebc 8512 583c 2fd3 0b3c
00000170: c951 94bd ddb1 47bc 66a2 a4bc d55f 46bd
00000180: 6ffc 853c afc9 b9bc 3602 79bc 8969 acbc
00000190: d5ca 9ebc ec93 bc3c ccc7 9bbc d08a 99bc
000001a0: bc1f 00bc a9c5 fe3c 623c 4d3d f4a2 91bc
000001b0: e5ff dcbd 7efd 97bd 63ec dc3c 6e1e 39bd
000001c0: 0e7c f03c 43c9 dd3c 7e69 d93c 486a c43c
000001d0: e0c9 ba3d 0cf6 94bc 5546 39bd 9d25 d13c
000001e0: a341 ba3a 7365 403d 5611 09bb 8f62 9c3a
000001f0: c87c 4b3b 86c3 34bd da14 953c 2b73 6f3c
00000200: bce3 903c b4f2 59bd 0026 ebbc 294f 5d3c
00000210: 0a52 85bd b529 a23d b71a fbbc a887 903c
00000220: c6d8 873c 57b9 06bd 68bb bdba 6bb8 423c
00000230: b02d e4bc 1c23 cd3c ba81 06bc 7864 523d
00000240: f1eb 713b a020 ba3b 5f42 d1bc a866 62bd
00000250: 4752 97bc 058f 443d a3fe 3bbb 7c72 0a3d
00000260: 5d79 993d b1f3 a53c b934 913c 6042 193d
00000270: 7d5f c1bb 9929 9b3c 82dc 3bbd 4c77 393c
00000280: 2553 1ebd d24a 06bd e81b 38bd 7958 453d
00000290: c87d 94bc def7 0b3d 0811 60bd 4b37 3cbc
000002a0: 96a4 9bbb 2837 133d a4f9 42bd 12bf 6e3d
000002b0: 3b4b c2bd 50ff 88ba 6f61 943d 4153 663d
000002c0: f1be 43bc 31ce e1bd ca5d 8e3c 08cb 86bd
000002d0: ba80 523c 78d0 e5bc eb25 73bd 437b 923d
000002e0: f603 56bd 81a8 1bbd 35ac c4bc fac2 19bc
000002f0: e996 74bd ab22 c7bc d682 eebc e15b a2bd
00000300: ec47 cc3d a2cb 2fbd bba9 013d ff6a a33b
00000310: b68e 193d 612c d6bc 1e2a e53b dc86 743d
00000320: d039 4d3d 0815 073d a4ce 97bb b739 553b
00000330: 0086 9bbc 44d4 11bc 8c6e 9b3c 5f6e 0f3d
00000340: f5aa 18bc 0a12 fb3b 8c9a c8bd 59de 4e3d
00000350: 0f71 1abc fe31 66bd cfed e0bd 8258 503d
00000360: e7e9 1c3c 4206 10bd b253 f0bc 193b 4b3d
00000370: 7534 80bd d27e 16bd 9ec9 d9bc 4d16 ebbc
00000380: 991b d13c ad0b e8bb 1116 e6bb fffa 69bc
00000390: a9de d5bd 8148 d3bc 1bcf 1a3d 3733 93bd
000003a0: d42f bbbb 0d94 963d 9d52 923c 2a4c 61bc
000003b0: 472f f5bc 78c1 d7bc 3203 473c 5d10 36bd
000003c0: ec31 243d f50f ec3c 53f4 ba3d 314f 8bbb
000003d0: 698b 8f3c 899b 323d 9ebb 483d e6ab d63c
000003e0: e5a9 d7bc 5de3 28bc 5477 72bd a620 12bd
000003f0: d983 e53a 5a3e 5cbc aa8c fbbc 1145 77bb
0.03924981 0.01992405 -0.06866289 0.01873288 -0.048873786 0.029909493 0.024835674 0.033491164
0.007164818 -0.033867143 -0.025725164 0.0036607047 0.009505553 0.0056738458 0.01763664 0.051795702
-0.011250432 0.036873415 -0.0046435646 -0.05798701 0.015097511 0.05215993 -0.00061436114 0.051882733
-0.016398603 -0.0014248906 1.2706964e-05 -0.0009537773 -0.027864818 0.06543216 -0.0064217243 -0.014189776
-0.036534384 -0.033438027 -0.030093675 0.005729895 -0.025717601 0.050301854 -0.042857427 0.03292625
-0.048518974 0.018830247 -0.015298226 0.009577395 -0.018864095 -0.04892761 0.003760014 0.072967745
0.0063109756 -0.030938014 0.03997359 -0.021637768 0.038856845 -0.03671349 0.04046286 0.07531282
0.0111311115 -0.003850874 -0.022176087 -0.035697524 -0.025292683 0.052374315 -0.009607002 -0.05140905
0.044149663 0.056433793 -0.007339722 0.031002276 0.04021708 0.0127458535 0.0055221375 0.031079864
-0.018197676 -0.02646767 0.004929577 0.04206054 -0.013028965 -0.00046453899 0.06778238 -0.015194867
-0.0061715553 0.012891982 0.012033628 0.033543583 -0.0031647522 0.029200265 0.0019413469 0.04717969
-0.034649245 -0.023237959 0.013188009 0.008534237 -0.07242162 -0.012188402 -0.020096969 -0.048431236
0.016355721 -0.022679178 -0.015198281 -0.021046417 -0.019383827 0.023019753 -0.019016169 -0.018742949
-0.007820066 0.031100111 0.050106414 -0.017777897 -0.107909955 -0.07421397 0.026968187 -0.045195036
0.029356029 0.027073508 0.02653956 0.02397646 0.09120536 -0.01818373 -0.04523309 0.02553063
0.0014210235 0.04697175 -0.0020914874 0.0011931228 0.0031049717 -0.04413178 0.01819842 0.0146148605
0.017686717 -0.053209975 -0.028704643 0.013507643 -0.06509788 0.07918111 -0.030652387 0.017642811
0.016582858 -0.032891598 -0.0014475407 0.011884789 -0.027853817 0.025041156 -0.00820964 0.051365346
0.0036914314 0.0056801587 -0.025544344 -0.055273682 -0.01847185 0.047987957 -0.002868571 0.033800587
0.07493851 0.020257803 0.017725335 0.037416816 -0.0059012757 0.018940734 -0.04586459 0.0113199465
-0.03865351 -0.032786198 -0.04494849 0.048180077 -0.018126383 0.03417193 -0.054703742 -0.011487792
-0.004749845 0.035941273 -0.047601357 0.058287688 -0.09487005 -0.0010452066 0.072451465 0.05623174
-0.011947379 -0.11025656 0.017378706 -0.06581694 0.012848074 -0.028053507 -0.059362333 0.071524166
-0.05224987 -0.038002495 -0.024007896 -0.009384865 -0.05971423 -0.024308523 -0.029115122 -0.07927681
0.099746555 -0.04291881 0.03165601 0.00498712 0.037489615 -0.026144208 0.006993546 0.059698924
0.050103962 0.03297904 -0.004632788 0.0032535621 -0.018984795 -0.008900706 0.018973611 0.035017367
-0.009318103 0.0076620625 -0.097951025 0.050505016 -0.009426369 -0.05620002 -0.109828584 0.050865658
0.009577251 -0.035162218 -0.029336784 0.049616907 -0.062600054 -0.03674204 -0.026585396 -0.028697157
0.025525855 -0.00708147 -0.0070216735 -0.014281034 -0.1044286 -0.025791408 0.037795167 -0.07187503
-0.0057124887 0.07352457 0.017861659 -0.013751069 -0.02992977 -0.02633737 0.012146758 -0.0444492
0.04008667 0.028816203 0.091286324 -0.0042513837 0.01752253 0.04360536 0.04900705 0.026205014
-0.02632613 -0.010308114 -0.05919583 -0.035675667 0.0017510607 -0.0134426 -0.030706722 -0.0037730376

mlp.9.bias f4 [4]
00000000: 4b5f 133e a512 15bd 99af 82be b251 08be
0.1439182 -0.036394734 -0.25524595 -0.13312414
