models/fjsp_same_reward1.pth (torch, 39000 bytes, 7 tensors)

mlp.0.weight f4 [64, 6]
-0.2887308 0.84288466 -0.2139455 -0.033633973 -1.1268404 0.082380705 -0.39922306 -0.561604
-0.330591 -1.5204608 -0.02396825 0.07640747 0.6397627 -0.68933403 -0.13454252 0.4346255
-0.014427986 0.060342737 0.09214211 -0.3511684 -0.78800213 -0.7031477 0.05863282 0.27082008
-0.3813499 -0.4840946 0.077686794 -0.17598513 -0.42469653 -0.40321833 0.19699481 -0.056101505
0.7509228 0.9952894 -1.4540902 0.25227702 0.3198751 -0.2049219 -0.4412027 -0.45670477
0.069679156 -0.11070854 -0.19789816 0.4371344 0.03179758 -0.26031676 -0.31929094 0.07304633
-0.13436282 -1.0909818 -0.5286563 -0.41584912 0.071976416 0.33498362 -0.15729104 -0.32484993
-0.10344899 -1.1727947 0.07626041 -0.29006597 0.055015497 -0.85573417 -0.14146402 -0.29004216
-0.2759464 -0.08505505 0.22466767 -0.16188058 0.03127828 -0.8303295 0.39681506 0.13604921
0.22355114 -0.3856231 -0.2557144 -0.9986966 -0.5231696 0.16535695 0.12469722 0.3167642
-0.15247363 0.36362135 0.10497399 -0.1650158 -0.21322024 -0.17068033 0.474702 0.8706398
-0.1472306 0.124465294 0.39775482 -0.8374266 0.060080413 0.36934084 0.10662096 -0.21795079
0.42673695 -0.53660995 -0.3429839 -0.6766195 -0.47944388 0.10198192 0.27175698 -0.06330246
0.22867829 -0.28148085 -0.16168606 -0.22480708 0.19638711 -1.5284064 -0.43313658 -0.5343691
0.38063958 -0.38076678 -0.34784743 0.38654438 -0.15880863 -1.1943073 -0.20889911 -0.24440543
-0.45087823 0.15938348 -0.2634189 -0.369086 -1.3099127 -0.2381728 0.2077834 -1.236792
-0.17548461 -0.7377212 0.38080752 0.12720285 0.11021542 -0.046326213 -0.5113545 -0.52880096
-0.5421988 -0.4058644 -0.12422233 -0.20288365 -0.010553079 -0.74174035 0.05805198 -0.29967618
0.13090365 -0.22726773 0.19184491 0.2754263 0.067025445 -0.32370913 -0.039835766 -0.96282005
-0.5666613 -0.42061472 0.2804035 -0.29963404 -0.09126367 -0.55611616 -0.8246265 -0.796662
-0.50150704 0.08971273 0.9581974 -0.1682727 -0.0028107916 1.1189314 -0.94240445 0.35066348
-0.0631547 -0.31717932 -0.39225322 -1.1033863 0.6226937 -0.10432125 -0.37569046 -0.1364486
-0.5119578 -0.083578974 -0.050358485 -0.38434142 0.5294561 -0.025375264 0.065777406 -0.51845914
0.30602756 0.21453986 0.13726187 -0.58308274 -0.37384334 0.58204997 -0.5139086 -0.12165842
0.16470939 -0.4809934 -0.4477025 -0.47608826 -1.2421278 -0.024375787 0.23401923 0.44750687
0.3782289 1.1367142 -0.59434545 0.15903516 -0.074951574 -0.8312478 -1.1662674 -1.4866852
0.057392817 0.13786715 0.40992486 0.49861997 -0.3127611 -0.5349559 -0.6603164 0.3949188
0.2849745 -0.31959292 0.16158552 -0.34032607 -0.01858814 0.29797524 -0.2190843 -0.20556463
-0.26345506 0.54040205 0.19392993 0.14878535 -0.035190254 -0.26806998 -0.8576527 0.08667451
0.7198179 0.34354275 0.16717921 -0.23434627 0.154255 -0.9337772 -0.06105466 -0.3818545
-0.009208675 -0.66879493 -0.39704758 -0.69035345 0.19357696 -0.2873394 -0.08462905 0.2471119
-0.20017265 -0.34137696 0.0036953404 -0.29947758 -0.24431588 -0.3036765 -0.5954359 -0.50569963
00000000: 86d4 93be 4ac7 573f 8714 5bbe c7c3 09bd
00000010: 4e3c 90bf 37b7 a83d f766 ccbe 48c5 0fbf
00000020: 3943 a9be 769e c2bf 1059 c4bc 857b 9c3d
00000030: 7dc7 233f 3278 30bf 84c5 09be 3c87 de3e
00000040: 5c63 6cbc f229 773d 01b5 bc3d 58cc b3be
00000050: 82ba 49bf 7d01 34bf f828 703d eea8 8a3e
00000060: 4b40 c3be 3fdb f7be 411a 9f3d 7235 34be
00000070: d371 d9be a272 cebe 02b9 493e b1ca 65bd
00000080: 7a3c 403f 49cb 7e3f a11f babf 742a 813e
00000090: abc6 a33e 0cd7 51be 52e5 e1be 35d5 e9be
000000a0: f2b3 8e3d 29bb e2bd d1a5 4abe 14d0 df3e
000000b0: 2e3e 023d 3d48 85be 1a7a a3be 5099 953d
000000c0: 6896 09be 4ba5 8bbf 0556 07bf 2dea d4be
000000d0: 5f68 933d f982 ab3e e710 21be bb52 a6be
000000e0: 10dd d3bd 231e 96bf 6b2e 9c3d 8783 94be
000000f0: ee57 613d 6511 5bbf f2db 10be 6880 94be
00000100: d948 8dbe 5831 aebd 480f 663e 06c4 25be
00000110: a71d 003d 7990 54bf 582b cb3e 7c50 0b3e
00000120: 97ea 643e 6470 c5be ffec 82be 95aa 7fbf
00000130: 71ee 05bf 5553 293e 4261 ff3d eb2e a23e
00000140: 0c22 1cbe 942c ba3e 9afc d63d e7f9 28be
00000150: 6856 5abe d3c6 2ebe 240c f33e 40e2 5e3f
00000160: 9ec3 16be a9e7 fe3d 85a6 cb3e 9761 56bf
00000170: e116 763d 3e1a bd3e 175c da3d 7e2e 5fbe
00000180: 447d da3e 455f 09bf 969b afbe f036 2dbf
00000190: ab79 f5be e6db d03d bb23 8b3e b8a4 81bd
000001a0: a42a 6a3e 421e 90be 0891 25be d433 66be
000001b0: b419 493e d2a2 c3bf 14c4 ddbe 6acc 08bf
000001c0: 31e3 c23e ddf3 c2be 0f19 b2be 25e9 c53e
000001d0: bb9e 22be 10df 98bf a6e9 55be 6b45 7abe
000001e0: 83d9 e6be 6c35 233e d8de 86be d7f8 bcbe
000001f0: 38ab a7bf 92e3 73be 2cc5 543e 334f 9ebf
00000200: 3db2 33be 4cdb 3cbf 34f9 c23e 7741 023e
00000210: 9fb8 e13d 8ec0 3dbd 21e8 02bf 805f 07bf
00000220: 8acd 0abf 75cd cfbe 4768 febd bbc0 4fbe
00000230: d2e6 2cbc b2e2 3dbf eac7 6d3d 286f 99be
00000240: 9b0b 063e dfb8 68be fe72 443e ad04 8d3e
00000250: a344 893d 34bd a5be d42a 23bd 607b 76bf
00000260: b710 11bf d05a d7be 0c91 8f3e a269 99be
00000270: 72e8 babd a15d 0ebf b91a 53bf 0af2 4bbf
00000280: c462 00bf 4fbb b73d 6d4c 753f ae4f 2cbe
00000290: 4235 38bb 2539 8f3f 6b41 71bf 2a8a b33e
000002a0: 4057 81bd 5465 a2be 6ad5 c8be c33b 8dbf
000002b0: db68 1f3f 61a6 d5bd 805a c0be 2fb9 0bbe
000002c0: ab0f 03bf 742b abbd b344 4ebd 66c8 c4be
000002d0: 6f8a 073f c9df cfbc 4eb6 863d bdb9 04bf
000002e0: a5af 9c3e 56b0 5b3e 608e 0c3e e944 15bf
000002f0: 6568 bfbe 3a01 153f 848f 03bf 0d28 f9bd
00000300: 94a9 283e c444 f6be 4339 e5be d7c1 f3be
00000310: 0bfe 9ebf bbaf c7bc bda2 6f3e 9f1f e53e
00000320: 38a7 c13e da7f 913f 0627 18bf 1dda 223e
00000330: 3680 99bd a8cc 54bf 4048 95bf b34b bebf
00000340: bb14 6b3d 0c2d 0d3e ace1 d13e 1e4b ff3e
00000350: 3922 a0be dff2 08bf 7f0a 29bf cc32 ca3e
00000360: 2de8 913e afa1 a3be ad76 253e 383f aebe
00000370: 2846 98bc 3690 983e a257 60be 897f 52be
00000380: 95e3 86be ca57 0a3f 9195 463e 305b 183e
00000390: a823 10bd 7840 89be 218f 5bbf 6882 b13d
000003a0: fc45 383f d6e4 af3e 0731 2b3e 78f8 6fbe
000003b0: 06f5 1d3e 060c 6fbf 7314 7abd 6f82 c3be
000003c0: fbdf 16bc 2536 2bbf d249 cbbe 01bb 30bf
000003d0: 0a39 463e 261e 93be ff51 adbd e70a 7d3e
000003e0: 0ffa 4cbe f6c8 aebe 862d 723b 2055 99be
000003f0: f12d 7abe 7c7b 9bbe 7d6e 18bf 8875 01bf

mlp.0.bias f4 [64]
-0.55197555 -0.37702492 -0.397816 -0.6728448 -0.16208331 0.09782989 -0.1475737 -0.19986482
-0.22414038 -0.61998826 -0.042612106 -0.55339414 -0.81943756 -0.37205562 0.280301 -0.33146098
-0.94731045 -0.46837255 0.1294638 -0.040278215 -0.7592667 -0.7974476 -0.70200336 -0.6306444
-0.46313146 -0.36335346 -0.94289315 0.2716365 -0.19366568 -0.6967113 -0.34139428 -0.23345186
-1.0644959 0.24501942 -0.86280173 -0.60787845 -0.91318095 -0.18564828 -0.8350375 -0.71323043
-0.53755116 -0.22866629 -0.5753508 -0.52194685 -0.006185277 -0.0120843835 -0.3566751 -1.2822871
-0.1718432 -0.051308326 -0.027220104 -0.76871634 -0.61288184 -0.16449688 -0.38085145 -0.58956206
0.024371453 -0.2828601 -0.50455177 -0.5554162 -0.044822536 -0.32779935 -0.52299833 -0.51693374
00000000: 454e 0dbf 6909 c1be 8aae cbbe 8f3f 2cbf
00000010: 2bf9 25be 0a5b c83d 8f1d 17be 5da9 4cbe
00000020: 0e85 65be 8db7 1ebf 088a 2ebd 3dab 0dbf
00000030: a9c6 51bf 137e bebe 9d83 8f3e 41b5 a9be
00000040: f082 72bf 87ce efbe 2992 043e c5fa 24bd
00000050: 4d5f 42bf 8725 4cbf 7eb6 33bf e971 21bf
00000060: 911f edbe 7709 babe 7261 71bf f013 8b3e
00000070: 4c50 46be ac5b 32bf 3bcb aebe 010e 6fbe
00000080: 6741 88bf 5fe6 7a3e 93e0 5cbf ec9d 1bbf
00000090: 3ac6 69bf 951a 3ebe 05c5 55bf 4596 36bf
000000a0: f49c 09bf 7f27 6abe 314a 13bf 4f9e 05bf
000000b0: ddad cabb 94fd 45bc 1e9e b6be fc21 a4bf
000000c0: aaf7 2fbe ae28 52bd b2fc debc 98ca 44bf
000000d0: d3e5 1cbf df71 28be f6fe c2be 8aed 16bf
000000e0: a4a6 c73c 0ad3 90be 4e2a 01bf c22f 0ebf
000000f0: d697 37bd 51d5 a7be 38e3 05bf c555 04bf

mlp.3.weight f4 [128, 64]
0.3341029 0.39060444 0.47591478 0.699054 0.37378892 0.029096134 0.42565295 -0.6108325
0.02110289 0.012551932 0.3105025 0.22075783 0.36088082 0.7632312 0.20806928 0.17740056
0.21243872 0.13722114 0.4781924 0.17072248 0.75117 0.90879494 1.5049971 0.2380038
0.46927884 0.8964254 0.33667788 0.3381029 0.18985108 0.65618104 -0.16549984 1.2933207
1.1892276 0.3954697 1.5912491 1.3994223 0.5543429 0.96001375 0.79562455 -0.07557802
0.66383356 0.5738353 0.104701795 0.97963357 0.7696943 0.9366961 0.07626684 1.0928591
1.3379716 -0.16615747 0.11688217 0.020756405 0.1667436 -0.42852658 0.10406059 0.48562434
0.73449934 0.15965228 0.3217742 0.17998075 0.3956063 0.39006022 0.9733666 0.73800313
0.19372381 -0.5391852 -0.607054 0.43326744 -0.081274964 0.5334187 -0.6806468 0.55913067
-0.13159959 0.2816034 -0.612362 0.40682304 0.6643158 -0.1870687 0.0165224 0.21690159
0.36376938 -0.052303143 -0.47887272 0.6119384 0.10550995 0.45144522 0.14379942 0.49267972
-0.22902295 -0.0737095 -0.019762615 0.48443243 -0.081643 0.4896109 -0.23949254 0.2432019
0.5283443 -0.34999782 4.3409596e-05 0.011313614 0.3040173 -0.08677251 0.03888248 0.3234186
-0.019753445 0.5638645 -0.6277584 -0.20503065 0.47450536 0.25216562 0.5711852 1.0048026
0.1942894 0.33357254 0.08974789 0.35960838 -0.014245568 0.12315854 0.37793794 0.040513307
0.44184175 -0.0020113804 0.32476312 -0.42053163 -0.7524713 0.028112128 -0.42724752 0.32895234
0.21648468 0.025960676 0.19315322 0.101390034 -0.032586206 -0.1411493 0.37131232 0.058245275
0.38825637 0.72452885 0.43466812 -0.6939421 0.958134 0.57806724 0.06592661 0.31267756
0.5608667 0.78174186 0.11965344 -0.7886731 0.19668125 -0.043702804 0.85846853 0.31151828
0.6662546 0.6324185 0.8321725 0.98635805 0.23816225 0.18699469 -0.19596148 0.5776168
0.53695065 0.54431325 0.88758934 0.2404625 0.73454833 0.89869225 0.7088508 -0.35484907
0.50356716 0.3772193 0.6442721 0.49060783 -0.60452247 -0.07903026 0.21391718 0.31210193
0.53496057 0.12617995 -0.46341246 0.27581412 0.9011747 -0.022053955 -0.51314896 0.12220327
0.45380306 0.07795519 0.039085567 0.68995744 -0.14592987 0.05689137 0.22411118 0.16223612
0.6039404 0.17170897 0.5685824 0.944993 0.22744393 0.1868 0.19787768 0.39632013
0.054822933 0.41068 0.5808811 0.21265823 0.4707239 -0.15649037 0.25118315 0.5933193
0.5212776 0.37583944 0.7912401 -0.43361187 0.74328876 0.23609164 1.4983095 0.5636301
0.14001215 0.23691809 0.64893484 1.1636857 0.94537956 0.78849584 0.25771096 1.4119812
1.3295408 0.51698893 1.2349123 1.1386435 0.23158662 0.20938702 -0.12006864 0.091697626
0.49291554 0.65270436 0.39710006 0.06525422 0.8718758 -0.26361924 0.680864 0.32019165
1.1749088 0.23826218 0.64464706 0.07724212 0.00521125 0.22512327 0.5395946 0.71689457
0.85103786 0.3184846 0.69405407 0.5599942 0.19203389 1.3106575 0.75550145 0.70549077
00000000: 890f ab3e 4efd c73e 1aab f33e 34f5 323f
00000010: 4361 bf3e 045b ee3c 2fef d93e 855f 1cbf
00000020: f8df ac3c 9ea6 4d3c 2ffa 9e3e 570e 623e
00000030: 5fc5 b83e 1f63 433f 1d10 553e 7ea8 353e
00000040: 8989 593e b383 0c3e a2d5 f43e e0d1 2e3e
00000050: ad4c 403f c9a6 683f bfa3 c03f 45b7 733e
00000060: 5145 f03e 237c 653f 0b61 ac3e d31b ad3e
00000070: 5268 423e 7bfb 273f ca78 29be 888b a53f
00000080: 9c38 983f 017b ca3e 0dae cb3f 4520 b33f
00000090: 6be9 0d3f 76c3 753f 0dae 4b3f a6c8 9abd
000000a0: fff0 293f dfe6 123f e56d d63d 44c9 7a3f
000000b0: b00a 453f 51cb 6f3f ca31 9c3d cfe2 8b3f
000000c0: a742 ab3f 2f25 2abe eb5f ef3d 5609 aa3c
000000d0: d6be 2a3e d667 dbbe b81d d53d c1a3 f83e
000000e0: 2608 3c3f e37b 233e 97bf a43e e04c 383e
000000f0: e98c ca3e f9b5 c73e 8e2e 793f c6ed 3c3f
00000100: 895f 463e 0b08 0abf e467 1bbf 3bd5 dd3e
00000110: 7d73 a6bd 218e 083f de3e 2ebf 3023 0f3f
00000120: 0bc2 06be 522e 903e c2c3 1cbf 1c4b d03e
00000130: 9a10 2a3f f08e 3fbe fc59 873c 731b 5e3e
00000140: fb3f ba3e d23b 56bd ce2e f5be ffa7 1c3f
00000150: 9a15 d83d d423 e73e 2840 133e 8440 fc3e
00000160: fe84 6abe 02f5 96bd 35e5 a1bc 8707 f83e
00000170: 7234 a7bd 48ae fa3e 883d 75be eb09 793e
00000180: 9241 073f ea32 b3be b312 3638 bd5c 393c
00000190: 28a8 9b3e c9b5 b1bd 3c43 1f3d 1f97 a53e
000001a0: fad1 a1bc 6d59 103f c6b4 20bf 8ef3 51be
000001b0: 5ef2 f23e da1b 813e 3139 123f 5f9d 803f
000001c0: cdf3 463e 05ca aa3e becd b73d 971e b83e
000001d0: 3e66 69bc 8b3a fc3d 1581 c13e 48f1 253d
000001e0: 1539 e23e 5dd1 03bb 5a47 a63e ec4f d7be
000001f0: f6a1 40bf 684b e63c 30c0 dabe 716c a83e
00000200: 29ae 5d3e 7cab d43c f5c9 453e 94a5 cf3d
00000210: 1d79 05bd 7189 10be a61c be3e 9992 6e3d
00000220: 8ac9 c63e b97a 393f d28c de3e 31a6 31bf
00000230: 4548 753f 37fc 133f 8804 873d 4617 a03e
00000240: f694 0f3f 3c20 483f dd0c f53d 7be6 49bf
00000250: cf66 493e b601 33bd 98c4 5b3f 537f 9f3e
00000260: a98f 2a3f 2ee6 213f 4209 553f f681 7c3f
00000270: cee0 733e 897b 3f3e 20aa 48be b2de 133f
00000280: 9975 093f 1d58 0b3f 0e39 633f cd3b 763e
00000290: 5c0b 3c3f b210 663f 3f77 353f c7ae b5be
000002a0: c7e9 003f e322 c13e 04ef 243f f330 fb3e
000002b0: fcc1 1abf 9eda a1bd 1b0d 5b3e d3cb 9f3e
000002c0: 2df3 083f 5135 013e 6644 edbe 8237 8d3e
000002d0: 63b3 663f 7faa b4bc bb5d 03bf b545 fa3d
000002e0: e058 e83e f8a6 9f3d 3018 203d 0da1 303f
000002f0: a46e 15be ed06 693d 677d 653e 3a21 263e
00000300: d79b 1a3f 7ad4 2f3e 9e8e 113f 10eb 713f
00000310: 10e7 683e 8048 3f3e 72a0 4a3e 79ea ca3e
00000320: 038e 603d a644 d23e a0b4 143f 14c3 593e
00000330: b902 f13e 033f 20be 149b 803e c6e3 173f
00000340: 7372 053f 076e c03e b68e 4a3f 6002 debe
00000350: 2c48 3e3f 02c2 713e 9bc8 bf3f 104a 103f
00000360: 585f 0f3e a89a 723e 9820 263f a7f3 943f
00000370: 6504 723f ddda 493f b1f2 833e cdbb b43f
00000380: 652e aa3f 6359 043f 9b11 9e3f 12bf 913f
00000390: 0b25 6d3e 8d69 563e 8ce6 f5bd f7cb bb3d
000003a0: 6d5f fc3e a217 273f b350 cb3e 01a4 853d
000003b0: 4133 5f3f 1af9 86be 1a4d 2e3f 29f0 a33e
000003c0: 6963 963f 00fb 733e 9707 253f 1e31 9e3d
000003d0: 22c3 aa3b b786 663e df22 0a3f 6786 373f
000003e0: 9edd 593f 6a10 a33e 87ad 313f c85b 0f3f
000003f0: 88a4 443e a0c3 a73f 8b68 413f 0b9b 343f

mlp.3.bias f4 [128]
-0.90309083 -0.5634884 -0.8743307 -1.0688293 -0.75265205 0.1442531 0.35744467 -1.0652053
-0.9184639 -0.2348332 -0.4667172 -0.2831457 -0.15166406 0.047006655 -0.20774457 0.21939246
-0.60302866 -0.7770114 0.064491406 0.22612013 -1.1147115 0.29514635 -0.8242496 -1.110039
-0.824817 -1.284119 -0.34558213 -0.7856071 -0.009067466 -0.22872461 0.3975569 -0.7328941
-0.21788448 -0.46509755 -0.9653379 -0.6794828 -0.40135342 -0.03374561 -0.043489758 -0.009788455
-1.1116421 0.15454341 -1.3378997 -0.22232282 -1.1434869 -0.36370608 -0.77139515 -0.53282166
-0.20543243 -0.99833703 -0.598333 0.108824864 -1.0296413 0.05659565 -0.96222436 0.2097161
-0.5274535 -1.2385579 -0.120938845 -1.352763 -0.9624321 -0.33992 0.2938089 -0.14108288
-1.1164541 -1.0852282 -0.8030314 -0.80832624 -0.5675767 -0.043233126 -0.81298447 -0.9957711
-1.2190061 -1.1788275 -0.021086754 -0.35234743 0.19666627 -1.325627 -1.0214022 -0.39287028
0.039158676 -0.186232 -0.87880135 -1.4352633 0.14177832 -0.9083351 -0.37944168 -0.043968115
-0.6475696 0.11373245 -1.0478387 -0.4313226 -0.6626219 -0.108766265 -0.94034886 -1.2541659
-1.0081711 -0.511918 -0.9266666 -0.3003618 -0.22478867 -1.0833621 -1.1482126 -1.2911081
-0.33404538 -0.9659335 -0.86857283 -0.68642473 -0.8085736 -0.25589058 -0.344632 -0.7260535
-0.34675932 -1.09871 0.07294338 -0.21050632 0.3361379 -0.8762071 -1.0382034 -1.1084936
-0.72304213 -1.0749316 -0.6796032 -0.39472613 -1.0658755 -0.11644665 -0.9820224 -0.24419968
00000000: f630 67bf c740 10bf 23d4 5fbf 66cf 88bf
00000010: cead 40bf 16b7 133e fd02 b73e a658 88bf
00000020: 7320 6bbf 1d78 70be 8ff5 eebe 79f8 90be
00000030: d34d 1bbe 0d8a 403d feba 54be 6ba8 603e
00000040: 1660 1abf 38ea 46bf 1214 843d 098c 673e
00000050: deae 8ebf 6c1d 973e 0602 53bf c215 8ebf
00000060: 3527 53bf 035e a4bf 24f0 b0be 8c1d 49bf
00000070: b58f 14bc c936 6abe 948c cb3e f39e 3bbf
00000080: 1c1d 5fbe 4421 eebe 6220 77bf 96f2 2dbf
00000090: 327e cdbe d638 0abd 5122 32bd c25f 20bc
000000a0: 4a4a 8ebf a140 1e3e 4c40 abbf 98a8 63be
000000b0: c75d 92bf af37 babe 277a 45bf 0067 08bf
000000c0: e15c 52be 0493 7fbf 5a2c 19bf 92df de3d
000000d0: 49cb 83bf d7d0 673d 5654 76bf d1bf 563e
000000e0: 3107 07bf 1189 9ebf c9ae f7bd 5727 adbf
000000f0: f361 76bf ff09 aebe 1f6e 963e 0878 10be
00000100: f8e7 8ebf c2e8 8abf 7793 4dbf 78ee 4ebf
00000110: b54c 11bf 3815 31bd c01f 50bf dbea 7ebf
00000120: 6408 9cbf d2e3 96bf 21be acbc e266 b4be
00000130: e262 493e 25ae a9bf 4fbd 82bf 4b26 c9be
00000140: d964 203d 9ab3 3ebe 20f9 60bf b5b6 b7bf
00000150: 562e 113e a688 68bf 2e46 c2be e917 34bd
00000160: 1fc7 25bf 8fec e83d 941f 86bf 51d6 dcbe
00000170: 97a1 29bf d9c0 debd b4ba 70bf 8288 a0bf
00000180: c00b 81bf 0f0d 03bf 063a 6dbf 06c9 99be
00000190: 002f 66be 9cab 8abf a1f8 92bf 0843 a5bf
000001a0: ff07 abbe 6b47 77bf ca5a 5ebf 88b9 2fbf
000001b0: aefe 4ebf 1704 83be 9b73 b0be a4de 39bf
000001c0: 708a b1be 87a2 8cbf 5763 953d f88e 57be
000001d0: 441a ac3e 1c4f 60bf d9e3 84bf 1ee3 8dbf
000001e0: 4a19 39bf 5c97 89bf 7afa 2dbf 8b19 cabe
000001f0: 9c6e 88bf 957b eebd d265 7bbf 7b0f 7abe

mlp.6.weight f4 [1, 128]
0.084061086 -0.112644166 0.06632444 0.24886012 0.1121341 0.4080301 -0.3897035 0.27176803
0.09063158 0.016359597 -0.06784103 0.039746758 -0.39016768 -0.63560444 -0.08150908 -0.75468767
0.0312089 0.27770165 -0.29641607 -0.35487473 0.16742225 -0.76668453 0.41764283 0.28492633
0.03148003 0.29933077 0.08175613 0.195534 -0.28984454 0.09936304 -0.6716947 -0.0029373907
-0.03174464 0.046884745 0.63678527 -0.14685656 0.10015038 -0.1608338 -0.47680733 -0.5744492
0.53680146 -0.3610337 0.4541235 -0.4716609 0.3303598 -0.03752466 0.084899575 -0.1073453
0.17748697 0.26585722 0.08326515 -0.6047494 0.29010165 -0.53932613 0.27113172 -0.570929
0.07368025 0.42184243 0.12032723 0.28788182 0.03722472 -0.45610926 -0.84244955 -0.10686838
0.4065157 0.35616642 -0.07426403 0.17608015 0.11883341 -0.35761902 0.14408594 0.37712994
0.3066692 0.20333152 -0.284984 0.017484332 -0.56085885 0.31794468 0.21394226 -0.3973098
-0.47209466 -0.31812057 0.27099964 0.515027 -0.65942633 0.065215506 0.12685123 -0.07735917
0.09148658 -0.45007724 0.26220906 0.101186685 0.08932642 -0.42980236 0.22078612 0.5387589
0.111038126 0.15495323 -0.007987684 -0.01312597 -0.17423224 0.0914781 0.26988724 0.39378434
0.055304855 0.2658137 -0.006671131 -0.09099971 -0.046140634 -0.30840993 0.16241954 0.04144275
-0.042540688 0.40849662 -0.32743737 -0.0079850685 -0.8042988 0.17439987 -0.08213564 0.3849875
0.08391299 0.19902235 0.075331345 -0.08998659 0.38980198 -0.4716074 0.06411831 -0.015967898
00000000: 3828 ac3d fcb1 e6bd 1cd5 873d 30d5 7e3e
00000010: 90a6 e53d 52e9 d03e 3887 c7be 2e25 8b3e
00000020: 0d9d b93d 9004 863c 3df0 8abd 7fcd 223d
00000030: 0fc4 c7be f9b6 22bf 3cee a6bd 3633 41bf
00000040: cfa9 ff3c e92e 8e3e d9c3 97be 24b2 b5be
00000050: bd70 2b3e 7045 44bf 48d5 d53e dde1 913e
00000060: 34f1 003d e241 993e c26f a73d 113a 483e
00000070: 8166 94be d97e cb3d 2ff4 2bbf 3d81 40bb
00000080: ab06 02bd 380a 403d 5c04 233f 9161 16be
00000090: a41b cd3d 9eb1 24be 1720 f4be 1a0f 13bf
000000a0: d26b 093f 69d9 b8be e082 e83e 8a7d f1be
000000b0: eb24 a93e 75b3 19bd d4df ad3d dad7 dbbd
000000c0: 25bf 353e 701e 883e eb86 aa3d dbd0 1abf
000000d0: 3488 943e 4711 0abf c7d1 8a3e 6728 12bf
000000e0: ace5 963d bbfb d73e 1f6e f63d 3f65 933e
000000f0: f378 183d 2787 e9be c6aa 57bf cfdd dabd
00000100: d322 d03e 725b b63e bd17 98bd 5b4e 343e
00000110: ee5e f33d d719 b7be 448b 133e 2d17 c13e
00000120: bf03 9d3e 2336 503e 6ce9 91be 4d3b 8f3c
00000130: 7294 0fbf a5c9 a23e ae13 5b3e 316c cbbe
00000140: 64b6 f1be b3e0 a2be 77c0 8a3e cfd8 033f
00000150: 2ad0 28bf b58f 853d 4ae5 013e 7c6e 9ebd
00000160: 515d bb3d 8670 e6be 4440 863e f73a cf3d
00000170: c5f0 b63d 0e0f dcbe c215 623e 1aec 093f
00000180: f567 e33d 0fac 1e3e c6de 02bc 4f0e 57bc
00000190: f069 32be df58 bb3d a92e 8a3e 1a9e c93e
000001a0: 5887 623d bc18 883e 8199 dabb 0e5e babd
000001b0: f6fd 3cbd e8e7 9dbe 4f51 263e dfbf 293d
000001c0: 253f 2ebd 7826 d13e dfa5 a7be ced3 02bc
000001d0: 87e6 4dbf e195 323e bb36 a8bd 151d c53e
000001e0: 93da ab3d 84cc 4b3e 5247 9a3d e44a b8bd
000001f0: 2094 c73e 8676 f1be 7650 833d 1ccf 82bc

mlp.8.weight f4 [4, 5]
0.04401815 -0.008214634 1.3436304 0.34927666 0.087395914 -0.25935274 -0.12416035 -1.176657
0.48570654 -0.16023958 0.12278465 0.055393655 0.23448582 0.14053318 -0.3285735 -1.3649079
-0.115010686 -0.6825354 -0.92841285 -0.009863566
00000000: 604c 343d ac96 06bc 15fc ab3f 64d4 b23e
00000010: a1fc b23d e2c9 84be c847 febd b29c 96bf
00000020: 87ae f83e d815 24be 8576 fb3d 75e4 623d
00000030: 0d1d 703e eee7 0f3e c93a a8be 4db5 aebf
00000040: b98a ebbd a4ba 2ebf 77ac 6dbf cb9a 21bc

mlp.8.bias f4 [4]
0.29562074 -0.08691355 -0.0825697 0.056704063
00000000: 9a5b 973e bbff b1bd 4e1a a9bd 8542 683d
