models/fjsp_same_2op.pth (torch, 39000 bytes, 7 tensors)

mlp.0.weight f4 [64, 6]
-0.4154183 -0.105640806 -1.0608293 0.57457155 -0.08944866 0.082380705 -0.97514755 -0.11219903
0.23051396 -0.3734479 0.35484788 0.07640747 -0.5922017 0.19429661 0.116107345 0.1561678
0.31471282 0.060342737 0.0273435 0.16550797 -0.14161532 0.30273023 -0.16581345 0.27082008
0.08127282 -0.1004558 -0.3118839 -0.009235786 0.03853175 -0.40321833 0.4132191 -0.40571302
0.058632966 -0.14509976 -0.13256007 0.25227702 -0.35888687 0.052505776 -0.22747152 -0.100213766
0.10968965 -0.11070854 -0.16453572 0.11076563 -0.052524414 -0.5498228 0.23566732 0.07304633
0.31351525 -0.4442133 -0.35776722 -0.2695292 -0.31313577 0.33498362 -0.07914143 -0.07331075
-0.13508677 -0.069366716 0.3194985 -0.29006597 0.3987027 -0.66527283 -0.10446686 0.03384247
0.12509392 -0.08505505 0.39473546 -0.32023522 -0.24807884 0.50815874 0.367196 0.13604921
0.5845857 -0.38116583 -0.25534943 -0.0822717 -0.27462417 0.16535695 -0.57006514 -0.07462386
-1.0181804 0.51568353 0.21660763 -0.1650158 0.015537689 -0.39746228 -0.012583283 0.04672297
-0.20602241 0.124465294 -0.10118213 -0.015169264 0.1603836 0.10747681 -0.2960508 -0.21795079
0.29449615 -0.29870018 -0.11067775 0.34249103 -0.23379165 0.10198192 -0.46574646 -0.1865542
0.031143537 -0.20459218 -0.3463565 -0.22480708 -0.73747426 -0.25083303 0.15399614 -0.2320407
0.12580568 -0.38076678 0.3979238 -0.36438742 -0.08720454 -0.1255006 -0.17590319 -0.24440543
0.9800374 0.25131977 0.023590581 -0.20137641 -0.28021967 -0.2381728 -0.6293918 -0.44555745
0.47126034 0.0068450216 0.3512555 0.12720285 -0.18905805 0.20343894 -0.28639987 0.11912056
-0.33887488 -0.4058644 -0.30057412 -0.6148392 -0.06948932 -0.32371497 0.30309543 -0.29967618
0.73271936 0.37596598 0.4730178 0.3783178 0.37189758 -0.32370913 -0.21494512 -0.3282399
0.026744861 -0.040870916 0.37185648 -0.29963404 0.035647653 -0.002961485 -0.07968256 -0.37063733
0.37107792 0.08971273 0.25325906 -0.6907966 -0.0761385 0.3569563 -0.18702847 0.35066348
0.14740968 0.013823705 0.033706848 -0.12832911 0.22795005 -0.10432125 0.8138427 -0.5206635
0.43782607 1.2959749 0.3160006 -0.38434142 -0.35504124 -0.2831662 -0.27997577 0.2782839
0.213082 0.21453986 0.27461186 -0.35880366 -0.44173226 -0.12863483 -0.07211874 -0.12165842
0.055718534 0.11513119 -0.07828379 0.11556699 0.0059572775 -0.024375787 -0.10504512 0.15065655
0.05372816 -0.39409763 0.34379792 0.15903516 -0.24615458 0.19813555 0.14726765 0.17079675
-0.13307361 0.13786715 0.2433009 0.19406378 -0.33889368 -0.090620995 -0.06442838 0.3949188
-0.011029695 -0.038658056 0.067738794 -0.85376245 -0.26424104 0.29797524 0.694722 -0.24460568
-0.5915625 0.461153 0.30930305 0.14878535 0.29458922 -0.45457116 -0.694712 0.5887945
0.19600236 0.34354275 0.32784134 0.5220635 0.39292467 0.3349169 -0.3497758 -0.3818545
0.2847476 -0.41029158 0.013260969 -0.13722473 -0.07439246 -0.2873394 -0.6016539 -0.010930698
0.020726552 0.23855533 -0.13096963 -0.29947758 0.023178097 -0.035739835 0.030518025 -0.14847079
00000000: b5b1 d4be 355a d8bd 41c9 87bf 1f17 133f
00000010: dc30 b7bd 37b7 a83d 45a3 79bf 9bc8 e5bd
00000020: da0b 6c3e 9034 bfbe 9fae b53e 857b 9c3d
00000030: 889a 17bf b1f5 463e b0c9 ed3d 74ea 1f3e
00000040: 0a22 a13e f229 773d 7aff df3c ec7a 293e
00000050: 9b03 11be 75ff 9a3e 00cb 29be eea8 8a3e
00000060: 5d72 a63d c5bb cdbd 3faf 9fbe b251 17bc
00000070: 78d3 1d3d a272 cebe 7491 d33e 9eb9 cfbe
00000080: 1f29 703d 0895 14be d4bd 07be 742a 813e
00000090: 05c0 b7be 4c10 573d 4bee 68be e03c cdbd
000000a0: f8a4 e03d 29bb e2bd 0d7c 28be 17d9 e23d
000000b0: d723 57bd 30c1 0cbf c652 713e 5099 953d
000000c0: 1285 a03e ed6f e3be 442d b7be bbff 89be
000000d0: 5553 a0be f982 ab3e e714 a2bd f223 96bd
000000e0: 3054 0abe 2310 8ebd 4f95 a33e 8783 94be
000000f0: c322 cc3e 524f 2abf b9f2 d5bd 679e 0a3d
00000100: 9f18 003e 5831 aebd c41a ca3e dff5 a3be
00000110: 6108 7ebe b116 023f 1d01 bc3e 7c50 0b3e
00000120: 69a7 153f 2b28 c3be 29bd 82be 117e a8bd
00000130: 8a9b 8cbe 5553 293e caef 11bf 65d4 98bd
00000140: bc53 82bf d603 043f 64ce 5d3e e7f9 28be
00000150: cb91 7e3c 2d80 cbbe 1d2a 4ebc 9660 3f3d
00000160: 8af7 52be a9e7 fe3d 9438 cfbd 8188 78bc
00000170: 993b 243e cd1c dc3d f893 97be 7e2e 5fbe
00000180: 33c8 963e 3bef 98be 04ab e2bd fc5a af3e
00000190: 1467 6fbe e6db d03d 5276 eebe 1008 3fbe
000001a0: bb20 ff3c 9d80 51be a455 b1be d433 66be
000001b0: 1dcb 3cbf 306d 80be 2ab1 1d3e 149c 6dbe
000001c0: 34d3 003e ddf3 c2be abbc cb3e fd90 babe
000001d0: 4b98 b2bd 3b83 00be f71f 34be 6b45 7abe
000001e0: bbe3 7a3f fcac 803e 0941 c13c 9e35 4ebe
000001f0: f478 8fbe 92e3 73be d21f 21bf 1b20 e4be
00000200: 0949 f13e 344c e03b c3d7 b33e 7741 023e
00000210: 6f98 41be 4c52 503e 01a3 92be 7bf5 f33d
00000220: 0281 adbe 75cd cfbe dae4 99be 1a66 1dbf
00000230: 6b50 8ebd f8bd a5be 532f 9b3e 286f 99be
00000240: 7f93 3b3f 9d7e c03e 642f f23e dfb2 c13e
00000250: 5c69 be3e 34bd a5be 931a 5cbe 0f0f a8be
00000260: 0a18 db3c 4368 27bd f963 be3e a269 99be
00000270: 4603 123d 7915 42bb 9c30 a3bd 2dc4 bdbe
00000280: edfd bd3e 4fbb b73d 2cab 813e 0cd8 30bf
00000290: 80ee 9bbd fac2 b63e 6484 3fbe 2a8a b33e
000002a0: 90f2 163e d27c 623c 3110 0a3d b568 03be
000002b0: bd6b 693e 61a6 d5bd ff57 503f 344a 05bf
000002c0: bd2a e03e 81e2 a53f d5ca a13e 66c8 c4be
000002d0: f7c7 b5be 29fb 90be fc58 8fbe 3a7b 8e3e
000002e0: 2b32 5a3e 56b0 5b3e ed99 8c3e 1db5 b7be
000002f0: bb2a e2be d9b8 03be fdb2 93bd 0d28 f9bd
00000300: 1e39 643d e7c9 eb3d 4053 a0bd 63ae ec3d
00000310: 4435 c33b bbaf c7bc e521 d7bd b645 1a3e
00000320: 0f12 5c3d 2ac7 c9be 4806 b03e 1dda 223e
00000330: f20f 7cbe 0ce4 4a3e 55cd 163e 58e5 2e3e
00000340: 7344 08be 0c2d 0d3e df23 793e a8b8 463e
00000350: 7983 adbe 8097 b9bd 07f3 83bd cc32 ca3e
00000360: e5b5 34bc e957 1ebd a3ba 8a3d 2d90 5abf
00000370: 9a4a 87be 3690 983e 4dd9 313f e979 7abe
00000380: a470 17bf 3f1c ec3e f85c 9e3e 305b 183e
00000390: 66d4 963e 8dbd e8be a5d8 31bf 3dbb 163f
000003a0: d8b4 483e d6e4 af3e d2da a73e f4a5 053f
000003b0: 6c2d c93e 3a7a ab3e d015 b3be 6f82 c3be
000003c0: 70ca 913e bd11 d2be 8944 593c a484 0cbe
000003d0: 135b 98bd 261e 93be fd05 1abf ac16 33bc
000003e0: bbca a93c d947 743e e71c 06be 2055 99be
000003f0: fedf bd3c ef63 12bd f000 fa3c ba08 18be

mlp.0.bias f4 [64]
-0.37174758 -0.25195387 -0.33790082 -0.09101408 -0.16911246 -0.083403975 -0.028050225 -0.18092847
-0.40883338 -0.14215212 -0.477561 -0.45553234 -0.28939012 -0.349342 -0.18496092 -0.24112204
-0.46489456 -0.12412046 -0.066920646 -0.44876227 -0.08045217 -0.2228448 -0.31373423 -0.13747768
0.58016264 -0.0717908 -0.11075221 -0.38030565 -0.29230168 0.07775809 -0.14636369 -0.3654577
-0.12987474 -0.21037309 -0.39199248 -0.31597418 -0.46877095 -0.63338643 -0.31991303 0.73379946
-0.18486793 -0.20914891 -0.13894983 -0.22710834 -0.2967939 -0.4633885 -0.11203143 -0.6836417
-0.1636302 -0.54314554 -0.07409306 -0.07462578 -0.4153862 -0.42663628 -0.08022837 -0.4742344
-0.3422932 -0.2005088 -0.35659128 -0.09781993 -0.33114535 -0.54488176 -0.18081318 -0.34821683
00000000: b355 bebe 1900 81be 5601 adbe 9765 babd
00000010: d12b 2dbe b4cf aabd 96c9 e5bc 5045 39be
00000020: 9c52 d1be 5390 11be e082 f4be 893b e9be
00000030: f12a 94be f4dc b2be 6566 3dbe b2e8 76be
00000040: a906 eebe de32 febd b10d 89bd 2bc4 e5be
00000050: 1bc4 a4bd 6d31 64be c6a1 a0be f3c6 0cbe
00000060: 8a85 143f 0e07 93bd 0ed2 e2bd 6cb7 c2be
00000070: 91a8 95be a23f 9f3d 5de0 15be 461d bbbe
00000080: e2fd 04be 0b6c 57be 3db3 c8be 5ec7 a1be
00000090: bf02 f0be 9d25 22bf a4cb a3be 48da 3b3f
000000a0: 054e 3dbe 222b 56be dd48 0ebe 178f 68be
000000b0: 5ff5 97be 4241 edbe bc70 e5bd 2403 2fbf
000000c0: ad8e 27be 960b 0bbf 1abe 97bd 67d5 98bd
000000d0: 80ad d4be 1270 dabe c64e a4bd dace f2be
000000e0: 0e41 afbe 2e52 4dbe 2293 b6be d155 c8bd
000000f0: e28b a9be 5f7d 0bbf 1727 39be 7a49 b2be

mlp.3.weight f4 [128, 64]
0.3458465 -0.13002412 0.096236296 -0.1395832 -0.06278193 -0.14157349 -0.21616998 -0.037483074
-0.030752078 0.18626073 -0.14965396 -0.0099381935 0.0652815 0.42161605 -0.029863035 0.3252949
0.0732193 -0.117672995 0.098426946 -0.26945445 0.29442003 -0.0013640663 0.38380972 0.21377724
0.36620858 0.18821709 0.035268147 -0.020942647 -0.01618534 0.37976152 0.0769683 0.10519851
0.016835503 -0.072407655 0.23946343 -0.015588624 0.2140147 -0.10817738 0.04976729 -0.3193382
0.03594793 -0.07013396 0.09055769 -0.020967536 0.1449262 0.22590499 0.07359328 0.083204605
0.1345465 0.29894215 -0.45122525 -0.049342792 0.32635826 0.02126597 0.39806923 0.10209334
0.08880899 0.3116132 -0.003266879 0.025573242 0.083800055 0.08456648 0.14717513 -0.06275571
0.4028178 -0.53118676 0.08388745 -0.002618916 0.24584967 -0.15439369 0.29896548 0.31429258
-0.15461056 0.07154785 -0.04870467 -0.1119647 -0.007663701 0.5188518 0.16134565 0.21336
0.20254253 0.24813093 0.45540246 0.2196604 0.3753624 0.4465069 0.009077763 0.1556766
0.27415544 0.095654845 -0.14647724 0.52359354 -0.07807582 0.13065253 0.048637684 -0.05776041
0.0052602375 0.39549947 -0.029153438 -0.36281568 0.07154157 0.82630384 0.26030704 -0.036531553
-0.32926813 0.35907784 -0.17420965 -0.3450004 -0.18462214 0.3445225 -0.039557442 0.7160667
-0.10722564 0.045171883 -0.09660522 0.2715479 0.13148908 0.04144206 0.33238545 0.06765852
-0.5419873 -0.07349673 0.6279245 0.082697056 0.39323527 0.22755168 0.33088076 -0.14622584
0.26964253 -0.013545843 0.34214205 0.3370883 0.12910213 -0.5530835 -0.0147999665 0.12988739
0.22068423 0.21038148 0.27436498 0.32290497 -0.04774235 0.62173593 0.4457875 0.3201934
0.18044055 0.18781176 0.98919827 -0.10665753 -0.43411565 0.91813064 -0.46450558 0.6097012
0.2869286 0.53186876 0.08124153 0.13385741 0.15556574 0.5444692 0.24827756 -0.058909617
-0.10867472 -0.5700342 0.25171545 -0.23150617 0.024451453 -0.05512347 0.5152853 0.32144853
0.3041937 -0.07945863 -0.29262564 0.24553262 -0.5127967 0.3794282 0.19029354 -0.090690196
0.22887607 0.27309582 -0.40283066 0.3792194 0.023253817 -0.12866753 0.5098692 0.06117462
-0.059149574 -0.1701959 0.4458296 0.29116157 0.22243123 0.30673763 0.32330817 0.4770623
0.22413512 -0.276213 -0.08933332 0.42914364 0.102408946 0.37069827 -0.11902192 -0.17160986
0.1080705 0.035742022 -0.122942664 0.037768472 0.26454258 0.3113355 0.12619293 -0.10257127
0.43139678 -0.040207326 0.11707332 0.20181087 -0.26955178 -0.022316914 0.06147724 0.06849466
0.03535656 0.19656295 0.06473438 0.4246318 0.0954886 0.3224553 -0.038842205 0.37526292
0.23363893 0.37037918 0.3370172 0.7413591 0.0043561347 0.17721148 0.34269288 -0.07962388
-0.01570578 0.089268856 0.22762306 -0.42847145 -0.1619807 0.17226607 0.018307114 0.16836907
-0.6426173 -0.085762896 0.115079224 0.17977044 0.13748573 -0.36633313 0.25395745 0.010271744
0.08693692 0.17090732 0.3241317 0.45855767 -0.13425706 -0.024198787 0.25249597 -0.24074614
00000000: cb12 b13e 0b25 05be 8917 c53d e6ee 0ebe
00000010: d093 80bd a4f8 10be aa5b 5dbe da87 19bd
00000020: c8eb fbbc 22bb 3e3e e33e 19be ced3 22bc
00000030: 4fb2 853d 0fde d73e 53a3 f4bc 0e8d a63e
00000040: 00f4 953d 8afe f0bd 1194 c93d eff5 89be
00000050: 39be 963e 78ca b2ba b582 c43e 6ce8 5a3e
00000060: b17f bb3e fbbb 403e 5575 103d ea8f abbc
00000070: 1e97 84bc 1a70 c23e 8ea1 9d3d 5172 d73d
00000080: 9cea 893c 774a 94bd e735 753e 6e67 7fbc
00000090: ab26 5b3e 1a8c ddbd c9d8 4b3d 4c80 a3be
000000a0: 233e 133d 65a2 8fbd 4f76 b93d 1cc4 abbc
000000b0: 8967 143e a353 673e 13b8 963d 2d67 aa3d
000000c0: 8fc6 093e f20e 993e ff06 e7be ab1b 4abd
000000d0: 6e18 a73e f935 ae3c bbcf cb3e 5016 d13d
000000e0: 7de1 b53d c48b 9f3e 2219 56bb fa7e d13c
000000f0: 5d9f ab3d 3131 ad3d 14b5 163e 1186 80bd
00000100: 223e ce3e dbfb 07bf 2fcd ab3d 1fa2 2bbb
00000110: 04c0 7b3e 6119 1ebe 0112 993e f5ea a03e
00000120: 3b52 1ebe ae87 923d 8c7e 47bd c04d e5bd
00000130: c91f fbbb 79d3 043f cb37 253e 0b7b 5a3e
00000140: 4f67 4f3e 0916 7e3e 832a e93e a8ee 603e
00000150: 802f c03e 8d9c e43e e6ba 143c b069 1f3e
00000160: 1a5e 8c3e b0e6 c33d 21fe 15be 3a0a 063f
00000170: 37e6 9fbd c7c9 053e 4f38 473d 2e96 6cbd
00000180: 125e ac3b e87e ca3e 31d3 eebc fac2 b9be
00000190: 6384 923d a688 533f f746 853e 1ca2 15bd
000001a0: d595 a8be 0dd9 b73e 0464 32be e4a3 b0be
000001b0: 960d 3dbe 4165 b03e fc06 22bd 2650 373f
000001c0: 1e99 dbbd 2706 393d f5d8 c5bd 5408 8b3e
000001d0: 13a5 063e 26bf 293d 6d2e aa3e 8d90 8a3d
000001e0: aebf 0abf 7485 96bd a9bf 203f 135d a93d
000001f0: 2256 c93e 4f03 693e 3469 a93e 3abc 15be
00000200: 960e 8a3e 62ef 5dbc 3e2d af3e d696 ac3e
00000210: 5933 043e e196 0dbf 8f7b 72bc 3301 053e
00000220: 0cfb 613e 3e6e 573e 9179 8c3e cd53 a53e
00000230: 7b8d 43bd 162a 1f3f 423e e43e 64f0 a33e
00000240: 68c5 383e ba51 403e 193c 7d3f 436f dabd
00000250: 6844 debe 9c0a 6b3f add3 edbe 6115 1c3f
00000260: 4ee8 923e 8d28 083f f661 a63d eb11 093e
00000270: a04c 1f3e 5562 0b3f 793c 7e3e 364b 71bd
00000280: da90 debd c3ed 11bf d9e0 803e f40f 6dbe
00000290: 6a4e c83c 26c9 61bd bde9 033f e794 a43e
000002a0: 47bf 9b3e 35bb a2bd 07d3 95be e76c 7b3e
000002b0: a546 03bf 6a44 c23e 4fdc 423e c8bb b9bd
000002c0: 7d5e 6a3e 37d3 8b3e d23f cebe 0c29 c23e
000002d0: ca7e be3c 6cc1 03be ca86 023f 3d92 7a3d
000002e0: d346 72bd d647 2ebe c743 e43e 2113 953e
000002f0: 03c5 633e b70c 9d3e a688 a53e 8341 f43e
00000300: ad83 653e ca6b 8dbe 63f4 b6bd b7b8 db3e
00000310: c8bb d13d 2acc bd3e c4c1 f3bd 7fba 2fbe
00000320: 1154 dd3d 3a66 123d 5dc9 fbbd 1db3 1a3d
00000330: 2072 873e 5e67 9f3e b838 013e e310 d2bd
00000340: 0ae0 dc3e 70b0 24bd 23c4 ef3d 82a7 4e3e
00000350: b102 8abe f6d1 b6bc 8fcf 7b3d ee46 8c3d
00000360: 0ad2 103d cc47 493e 7593 843d 5769 d93e
00000370: 878f c33d dc18 a53e 0119 1fbd 7622 c03e
00000380: 0b3f 6f3e 57a2 bd3e 858d ac3e b6c9 3d3f
00000390: e8bd 8e3b ed76 353e 7175 af3e d811 a3bd
000003a0: 68a9 80bc 97d2 b63d 0516 693e 9c60 dbbe
000003b0: 45de 25be 8466 303e cdf8 953c f168 2c3e
000003c0: 9182 24bf 75a4 afbd a8ae eb3d be15 383e
000003d0: 0fc9 0c3e 0490 bbbe b606 823e d14a 283c
000003e0: fc0b b23d 5402 2f3e 97f4 a53e 12c8 ea3e
000003f0: af7a 09be 893c c6bc 2747 813e 2886 76be

mlp.3.bias f4 [128]
-0.26146504 -0.4758698 -0.25786844 -0.3531572 -0.40368497 0.67256236 -0.3587434 -0.090055205
0.43541977 -0.4077869 -0.3616966 -0.37895375 0.14611992 -0.118903436 -0.5305213 -0.38060033
0.48552325 -0.16121016 -0.22043037 -0.585939 -0.40463218 -0.10843843 -0.6203865 -0.15253921
-0.032513876 -0.5270822 -0.22496228 0.0067636315 -0.60994196 -0.17793874 -0.5975416 -0.41676223
-0.030893343 -0.29068887 -0.65120345 -0.43958136 -0.50778973 0.5262257 -0.2653043 -0.46604112
-0.045593865 -0.5247066 -0.46552688 -0.23999692 -0.82982886 -0.5596934 -0.62503105 -0.039126962
-0.0754919 -0.047704894 -0.47765753 -0.28049716 0.097898155 -0.7867482 -0.48580277 -0.11865274
-0.40346372 -0.29162115 0.5489691 -0.4585048 -0.41198415 -0.5539028 -0.4609097 -0.1576738
-0.5832792 -0.17363785 0.07311338 -0.19276686 -0.16827004 -0.65803576 -0.03917371 -0.36893484
-0.21135923 -0.3196292 -0.46524402 0.48581815 -0.13505647 -0.20286058 -0.019051408 -0.41571665
-0.4622934 -0.037049305 -0.3186496 -0.0002831878 -0.45139095 -0.08550872 -0.018578805 0.14858714
-0.35821885 -0.09341093 -0.37910512 -0.3051588 -0.35114315 -0.7469622 0.18000735 -0.21129705
-0.19039658 -0.6728313 -0.5934334 0.3720126 -0.24671443 -0.3862095 0.7291954 -0.8335366
-0.48868245 -0.34805644 0.019990139 -0.10342263 -0.8591277 -0.053421255 -0.33792484 -0.4066087
0.46920776 -0.57376134 0.26057228 -0.001083565 0.3691017 -0.26682568 -0.44367182 0.665731
0.37214455 -0.5682875 -0.526768 -0.20426883 -0.64265287 -0.46676803 -0.19485785 0.04469335
00000000: bfde 85be 35a5 f3be 5507 84be 05d1 b4be
00000010: ccaf cebe 0c2d 2c3f 37ad b7be dd6e b8bd
00000020: 57ef de3e 72c9 d0be 4c30 b9be 3a06 c2be
00000030: 76a0 153e a583 f3bd 3ed0 07bf 0cde c2be
00000040: 8196 f83e 4714 25be 80b8 61be 1900 16bf
00000050: f32b cfbe f814 debd a6d1 1ebf 3d33 1cbe
00000060: 452d 05bd dcee 06bf 835c 66be 74a1 dd3b
00000070: 2825 1cbf 9335 36be 7cf8 18bf dc61 d5be
00000080: 0914 fdbc 2cd5 94be 45b5 26bf cf10 e1be
00000090: 82fe 01bf bab6 063f f7d5 87be f19c eebe
000000a0: a2c0 3abd 2c53 06bf 8a59 eebe c1c1 75be
000000b0: aa6f 54bf 1148 0fbf 0902 20bf 9843 20bd
000000c0: 7f9b 9abd 3566 43bd 878f f4be 539d 8fbe
000000d0: d47e c83d 5468 49bf 24bb f8be 3500 f3bd
000000e0: cc92 cebe 5e4f 95be 3d89 0c3f 24c1 eabe
000000f0: 96ef d2be 93cc 0dbf 5bfc ebbe 3e75 21be
00000100: c951 15bf 1fce 31be 78bc 953d ad64 45be
00000110: fb4e 2cbe 0875 28bf 9d74 20bd 07e5 bcbe
00000120: 8e6e 58be 70a6 a3be 7734 eebe 28bd f83e
00000130: 3e4c 0abe afba 4fbe b311 9cbc d0d8 d4be
00000140: b8b1 ecbe 03c1 17bd 0a26 a3be d378 94b9
00000150: b71c e7be 321f afbd 9432 98bc 3a27 183e
00000160: 7668 b7be 3b4e bfbd 111a c2be c63d 9cbe
00000170: 09c9 b3be ea38 3fbf d953 383e 415e 58be
00000180: 52f7 42be ac3e 2cbf 40eb 17bf 6f78 be3e
00000190: b5a2 7cbe 40bd c5be 8dac 3a3f a862 55bf
000001a0: 9634 fabe 7434 b2be 5cc2 a33c 3ecf d3bd
000001b0: cbef 5bbf 3fd0 5abd 7c04 adbe 042f d0be
000001c0: 003c f03e 06e2 12bf bb69 853e 6806 8eba
000001d0: e6fa bc3e 609d 88be f428 e3be 596d 2a3f
000001e0: bb89 be3e 4a7b 11bf 45da 06bf d92b 51be
000001f0: e684 24bf 38fc eebe d188 47be 6010 373d

mlp.6.weight f4 [1, 128]
-0.018331531 0.046102483 -0.01959085 0.055272136 0.008223617 -0.8424011 -0.016378772 0.028988525
-0.6309562 0.014993562 0.10103578 0.013466217 -0.28736943 -0.0088529205 0.04262382 0.034429085
-0.53289795 0.026931563 0.067784846 0.06265015 0.04910108 -0.04220726 0.01287972 -0.034463298
-0.2026078 0.03612001 -0.17857958 0.013172469 -0.0007267498 -0.038643412 -0.0063317236 0.06946986
0.08620536 0.13222182 -0.19049406 0.042269375 0.0660561 -0.5753771 0.09523671 0.026874768
0.05513082 0.083360784 0.052483376 0.016739674 0.06438532 0.08407579 0.104208045 -0.30843988
0.0137238605 -0.005120192 -0.09651798 0.046560712 0.4279098 -0.0057338844 -0.0017627946 0.004213743
-0.003178763 -0.055085346 -0.71239257 0.04833929 -0.041019257 0.059997037 0.05599655 -0.05738673
0.11402115 0.013006896 -0.31710005 -0.019431787 0.037661072 -0.0050635985 0.072114676 -0.14397852
-0.00046680434 0.043096468 -0.18939643 -0.5962497 -0.28469786 -0.0047397274 0.05839258 -0.061632425
0.061080925 -0.005640902 -0.011452577 -0.015097736 0.10282058 -0.083493374 -0.0032166631 -0.462766
0.033178452 -0.020535078 -0.039348368 0.030527126 0.06890087 -0.044034764 -0.426518 -0.19285284
0.16163503 0.12997916 0.06646201 -0.766996 -0.0074797748 -0.12779146 -0.7385881 0.02786837
0.08854339 -0.024577476 -0.40632507 0.17600575 0.036808122 -0.052637156 0.014689679 0.026461849
-0.6151834 -0.2887986 -0.34802425 0.05012806 -0.5587472 0.012450908 0.16661918 -0.76193637
-0.70870894 0.024699667 0.104696415 0.04083795 0.052560836 -0.010181218 -0.20585935 -0.1187634
00000000: 022c 96bc f5d5 3c3d fe7c a0bc 0965 623d
00000010: 5abc 063c 99a7 57bf c62c 86bc 5879 ed3c
00000020: 5886 21bf 8fa7 753c d9eb ce3d 68a1 5c3c
00000030: 1622 93be d70b 11bc 5196 2e3d 8305 0d3d
00000040: 006c 08bf 959f dc3c c8d2 8a3d b94e 803d
00000050: 371e 493d 85e1 2cbd 7605 533c 6329 0dbd
00000060: 6b78 4fbe 93f2 133d 91dd 36be 57d1 573c
00000070: 5a83 3eba 8e48 1ebd 597a cfbb 3746 8e3d
00000080: 708c b03d 2865 073e e010 43be a722 2d3d
00000090: 6c48 873d ea4b 13bf 770b c33d 7928 dc3c
000000a0: dbd0 613d 0fb9 aa3d cff8 563d a421 893c
000000b0: 73dc 833d ee2f ac3d 076b d53d d5eb 9dbe
000000c0: 0bda 603c 49c7 a7bb 38ab c5bd 72b6 3e3d
000000d0: fe16 db3e 4fe3 bbbb 920d e7ba 7013 8a3b
000000e0: cb52 50bb 2ca1 61bd 5c5f 36bf 6bff 453d
000000f0: cf03 28bd 74bf 753d a35c 653d 590e 6bbd
00000100: ec83 e93d e01a 553c f05a a2be 692f 9fbc
00000110: 7f42 1a3d 8bec a5bb dcb0 933d 1b6f 13be
00000120: 6bbd f4b9 ec85 303d 23f1 41be d2a3 18bf
00000130: ebc3 91be b74f 9bbb 0f2d 6f3d 4872 7cbd
00000140: fe2f 7a3d 51d7 b8bb 97a3 3bbc 7f5c 77bc
00000150: 9993 d23d 93fe aabd a7ce 52bb aaef ecbe
00000160: 21e6 073d 2e39 a8bc c12b 21bd 0614 fa3c
00000170: e61b 8d3d cc5d 34bd 9160 dabe 377b 45be
00000180: a783 253e 4219 053e 3c1d 883d da59 44bf
00000190: e618 f5bb c4db 02be 1c14 3dbf 354c e43c
000001a0: 3d56 b53d b456 c9bc d709 d0be da3a 343e
000001b0: 1dc4 163d 0f9a 57bd fbac 703c 85c6 d83c
000001c0: a97c 1dbf 69dd 93be 3c30 b2be 1553 4d3d
000001d0: 0e0a 0fbf e5fe 4b3c 389e 2a3e 430e 43bf
000001e0: f36d 35bf f556 ca3c 136b d63d b245 273d
000001f0: 084a 573d 20cf 26bc cbcc 52be 3a3a f3bd

mlp.8.weight f4 [4, 5]
0.10614889 -0.06619274 0.25548694 0.26390615 0.30882806 -0.29008827 -0.4043357 -0.12386261
0.025942033 0.017137228 -0.75752157 -0.13923123 -0.6820907 -0.8192982 -0.889166 -0.79745436
0.22456473 -0.19550033 -0.13448556 -0.5121419
00000000: 9764 d93d 0f90 87bd 2fcf 823e b51e 873e
00000010: b61e 9e3e 7386 94be 1705 cfbe aeab fdbd
00000020: 6384 d43c 5f63 8c3c efec 41bf a292 0ebe
00000030: 7f9d 2ebf 87bd 51bf 62a0 63bf f825 4cbf
00000040: 4cf4 653e 3d31 48be 95b6 09be bb1b 03bf

mlp.8.bias f4 [4]
0.19761652 -0.044069875 0.15006453 -1.420697
00000000: fc5b 4a3e 9d82 34bd 84aa 193e 66d9 b5bf
