models/fjsp_same_reward3.pth (torch, 39000 bytes, 7 tensors)

mlp.0.weight f4 [64, 6]
0.117117785 0.7494296 0.0515881 0.9110974 -0.08944866 0.082380705 0.20640129 -0.41049153
-0.2874914 -0.016504642 0.35484788 0.07640747 0.6054225 -0.20751616 -0.064277664 0.025649104
0.31471282 0.060342737 1.3160568 -0.2174161 -0.23092537 -0.11808199 -0.16581345 0.27082008
0.77614814 -0.1759714 -0.7901045 -1.0975165 0.03853175 -0.40321833 0.3422139 -0.54929334
-0.05864123 -0.040953822 -0.13256007 0.25227702 -0.117235586 0.1418719 -0.4112511 -0.81880176
0.10968965 -0.11070854 -0.22877876 -0.04166524 0.17706318 0.4938693 0.23566732 0.07304633
0.31945318 -0.6531358 0.4188228 -0.3169361 -0.31313577 0.33498362 -0.31975803 0.046237808
-0.79559916 0.72263706 0.3194985 -0.29006597 -0.06070481 -0.6576695 0.10063651 -0.22344208
0.12509392 -0.08505505 -0.06987449 -0.082768746 -0.6254836 0.5851285 0.367196 0.13604921
0.56810504 -0.41225356 -0.3062076 0.42323974 -0.27462417 0.16535695 0.16816916 0.065758966
-0.35148925 0.1544268 0.21660763 -0.1650158 -0.1388453 -0.3647562 0.12410502 -0.04533882
-0.20602241 0.124465294 0.8989617 -0.6675792 -0.17031564 0.0981158 -0.2960508 -0.21795079
0.6170764 -0.2031945 -0.2817791 0.39923304 -0.23379165 0.10198192 -0.5397688 -0.44510478
0.0983894 0.80112374 -0.3463565 -0.22480708 0.6155834 -0.5795005 0.18520318 -0.35269114
0.12580568 -0.38076678 0.11934647 -0.5053106 0.27988482 -0.20902687 -0.17590319 -0.24440543
0.8023689 0.036347378 0.29530528 0.20303832 -0.28021967 -0.2381728 -0.22029923 -0.19907777
-0.048717447 -0.048004497 0.3512555 0.12720285 -0.8247634 0.36234382 -0.3792157 -0.100185364
-0.33887488 -0.4058644 0.08694229 0.024823016 -0.40240183 0.22750585 0.30309543 -0.29967618
-0.3057924 -0.32562935 -0.024900177 1.1089258 0.37189758 -0.32370913 -0.23264568 -0.023972668
0.0951848 0.47164294 0.37185648 -0.29963404 1.0826778 -0.35023075 -0.09079158 0.50054073
0.37107792 0.08971273 -0.40519345 -0.38662985 0.14733312 0.21410799 -0.18702847 0.35066348
0.39876518 -0.38349533 -0.3117952 0.42344788 0.22795005 -0.10432125 -0.05873768 -0.5102564
0.021493673 0.017132176 0.3160006 -0.38434142 0.6758471 0.22656427 -0.22901231 -0.76804036
0.213082 0.21453986 0.2545819 0.30992746 -0.24078925 1.0273631 -0.07211874 -0.12165842
0.28174505 0.22166541 -0.3099177 -0.15893212 0.0059572775 -0.024375787 0.2459101 -0.22503024
-0.03366077 0.18038782 0.34379792 0.15903516 0.5714811 -0.62764925 -0.20426604 -0.57965744
-0.13307361 0.13786715 0.35643604 0.436883 -0.26148766 -0.35958138 -0.06442838 0.3949188
1.0139538 0.14950296 0.3505211 0.43867406 -0.26424104 0.29797524 0.2890926 -0.016139966
-0.3017945 0.6566402 0.30930305 0.14878535 0.12815168 -0.19088827 -0.013172576 0.23082066
0.19600236 0.34354275 0.30740002 -0.018691616 -0.06541538 0.08589467 -0.3497758 -0.3818545
1.3498089 -0.102662995 -0.18341814 0.6264244 -0.07439246 -0.2873394 0.41312027 0.089062475
-0.32284817 0.37070924 -0.13096963 -0.29947758 -0.18149622 -0.2052735 0.09317591 -0.49858445
00000000: 73db ef3d 9eda 3f3f 0b4e 533d ae3d 693f
00000010: dc30 b7bd 37b7 a83d dc5a 533e f22b d2be
00000020: 1332 93be be34 87bc 9fae b53e 857b 9c3d
00000030: f8fc 1a3f 1e7f 54be 02a4 83bd 121e d23c
00000040: 0a22 a13e f229 773d 8d74 a83f 53a2 5ebe
00000050: b377 6cbe f8d4 f1bd 00cb 29be eea8 8a3e
00000060: a5b1 463f d931 34be 4a44 4abf 6c7b 8cbf
00000070: 78d3 1d3d a272 cebe a936 af3e 7d9e 0cbf
00000080: c931 70bd 32bf 27bd d4bd 07be 742a 813e
00000090: 3619 f0bd de46 113e 818f d2be fe9c 51bf
000000a0: f8a4 e03d 29bb e2bd fb44 6abe 2ca9 2abd
000000b0: 0d50 353e 70dc fc3e c652 713e 5099 953d
000000c0: 5e8f a33e e833 27bf f16f d63e 7345 a2be
000000d0: 5553 a0be f982 ab3e 53b7 a3be db63 3d3d
000000e0: 63ac 4bbf befe 383f 4f95 a33e 8783 94be
000000f0: 9ba5 78bd 075d 28bf 841a ce3d 00ce 64be
00000100: 9f18 003e 5831 aebd 5b1a 8fbd a982 a9bd
00000110: b11f 20bf fbca 153f 1d01 bc3e 7c50 0b3e
00000120: 556f 113f e612 d3be 3ec7 9cbe e1b2 d83e
00000130: 8a9b 8cbe 5553 293e 8934 2c3e a3ac 863d
00000140: 66f6 b3be 0f22 1e3e 64ce 5d3e e7f9 28be
00000150: 762d 0ebe 53c1 babe c62a fe3d 33b5 39bd
00000160: 8af7 52be a9e7 fe3d 5b22 663f 78e6 2abf
00000170: 3967 2ebe f0f0 c83d f893 97be 7e2e 5fbe
00000180: b8f8 1d3f 3812 50be 5a45 90be 4668 cc3e
00000190: 1467 6fbe e6db d03d 4a2e 0abf c6e4 e3be
000001a0: 6280 c93d 7216 4d3f a455 b1be d433 66be
000001b0: e096 1d3f 255a 14bf e7a5 3d3e ef93 b4be
000001c0: 34d3 003e ddf3 c2be ec6b f43d 095c 01bf
000001d0: 104d 8f3e 240b 56be f71f 34be 6b45 7abe
000001e0: 0c68 4d3f fde0 143d 4132 973e 47e9 4f3e
000001f0: f478 8fbe 92e3 73be 1f96 61be 0bdb 4bbe
00000200: f28b 47bd 5da0 44bd c3d7 b33e 7741 023e
00000210: b223 53bf 2185 b93e 8f28 c2be fc2d cdbd
00000220: 0281 adbe 75cd cfbe cd0e b23d a359 cb3c
00000230: 9d07 cebe 4bf7 683e 532f 9b3e 286f 99be
00000240: d290 9cbe e4b8 a6be 75fb cbbc 48f1 8d3f
00000250: 5c69 be3e 34bd a5be ab3a 6ebe 5462 c4bc
00000260: 40f0 c23d 2f7b f13e f963 be3e a269 99be
00000270: 3095 8a3f 7251 b3be f0f0 b9bd 7023 003f
00000280: edfd bd3e 4fbb b73d 8475 cfbe 59f4 c5be
00000290: 7ede 163e 203f 5b3e 6484 3fbe 2a8a b33e
000002a0: f32a cc3e 8059 c4be 9fa3 9fbe 29ce d83e
000002b0: bd6b 693e 61a6 d5bd ec96 70bd 2aa0 02bf
000002c0: 8013 b03c c758 8c3c d5ca a13e 66c8 c4be
000002d0: 5104 2d3f 7700 683e 3482 6abe 4b9e 44bf
000002e0: 2b32 5a3e 56b0 5b3e 8f58 823e d0ae 9e3e
000002f0: 7591 76be a280 833f fdb2 93bd 0d28 f9bd
00000300: e340 903e 42fc 623e 88ad 9ebe 1abf 22be
00000310: 4435 c33b bbaf c7bc dbcf 7b3e 546e 66be
00000320: e0df 09bd 96b7 383e 4806 b03e 1dda 223e
00000330: 964c 123f 9fad 20bf 1e2b 51be 6e64 14bf
00000340: 7344 08be 0c2d 0d3e c97e b63e 21af df3e
00000350: b6e1 85be 0d1b b8be 07f3 83bd cc32 ca3e
00000360: 3dc9 813f 4e17 193e 8077 b33e e399 e03e
00000370: 9a4a 87be 3690 983e f203 943e f637 84bc
00000380: cf84 9abe 9219 283f f85c 9e3e 305b 183e
00000390: 323a 033e 3778 43be cad1 57bc 405c 6c3e
000003a0: d8b4 483e d6e4 af3e 8963 9d3e 291f 99bc
000003b0: 80f8 85bd 8be9 af3d d015 b3be 6f82 c3be
000003c0: 8ac6 ac3f fa40 d2bd f7d1 3bbe 595d 203f
000003d0: 135b 98bd 261e 93be 8084 d33e 6366 b63d
000003e0: 5b4c a5be 9acd bd3e e71c 06be 2055 99be
000003f0: 25da 39be 3733 52be 03d3 be3d 7646 ffbe

mlp.0.bias f4 [64]
0.033046983 -0.21730001 -0.42733404 0.082582414 -0.086321905 -0.11403757 -0.09540364 -0.36697668
-0.31831795 -0.2569921 -0.042515766 -0.02046467 -0.24263416 -0.3159633 -0.08564932 -0.45439416
-0.24864489 -0.22804342 -0.2150997 -0.1763042 0.30867153 -0.1141919 -0.35986108 -0.11396083
-0.1425532 -0.29161876 0.2004468 -0.15517014 -0.15008369 -0.12192159 -0.48475495 -0.6926174
-0.15776326 -0.17233396 -0.057479613 -0.2524019 0.21020143 -0.017782597 -0.3688775 -0.6776294
0.07359049 -0.16719726 -0.03920989 0.30197725 -0.13697162 -0.52405655 -0.2693592 -0.10037795
-0.18006209 0.23459932 -0.050906837 0.17375328 -0.19108318 0.33819258 -0.15869813 -0.12691088
-0.23683535 -0.15392026 -0.2583592 -0.0920749 0.22547242 0.30025434 -0.08323556 -0.34120986
00000000: 465c 073d e583 5ebe 87cb dabe f820 a93d
00000010: 8ac9 b0bd 888c e9bd fc62 c3bd 5ee4 bbbe
00000020: 92fa a2be 7894 83be 0325 2ebd 86a5 a7bc
00000030: 1775 78be f1c5 a1be e968 afbd 5aa6 e8be
00000040: c49c 7ebe 3784 69be 1943 5cbe 1789 34be
00000050: 320a 9e3e 71dd e9bd b63f b8be 4c64 e9bd
00000060: 77f9 11be 0e4f 95be ed41 4d3e ece4 1ebe
00000070: 8aaf 19be 07b2 f9bd cd31 f8be 604f 31bf
00000080: b18c 21be 5078 30be be6f 6bbd d23a 81be
00000090: 0b3f 573e cfac 91bc 83dd bcbe 1f79 2dbf
000000a0: 9cb6 963d c235 2bbe 8d9a 20bd c39c 9a3e
000000b0: 4a42 0cbe 9228 06bf 73e9 89be f492 cdbd
000000c0: 3262 38be ce3a 703e b083 50bd 61ec 313e
000000d0: 4fab 43be 9427 ad3e c381 22be edf4 01be
000000e0: f784 72be 469d 1dbe a847 84be c491 bcbd
000000f0: 3ee2 663e f0ba 993e 6877 aabd 0fb3 aebe

mlp.3.weight f4 [128, 64]
1.084751 0.9678618 0.4824602 1.6429603 2.0015538 1.310023 1.0440931 -0.10413499
0.4638017 -0.512009 0.8406919 0.45997217 2.372149 0.25928536 0.3304552 1.5778157
0.2625536 0.28649133 0.21559738 -0.042216137 1.7038469 0.396943 0.43711224 0.062735975
0.22720002 0.34412497 0.9094411 0.03960982 0.8352554 0.91161585 0.48930857 0.21965338
0.98932165 1.2707874 0.7446725 0.3327903 1.1450734 0.7459184 0.01543262 0.20282876
1.114196 1.7101138 1.6446648 0.9000226 0.5831598 1.2734435 0.28964832 0.6762388
1.2063452 0.8180364 0.5100556 1.3020015 0.2244916 1.1125369 0.8291576 1.4364425
1.6374342 1.1247277 1.6181915 0.98033917 0.79585767 1.5606477 1.0285581 1.1577272
0.11065998 0.9513178 -0.1801169 0.22808215 0.551402 -0.18197857 0.31655028 -0.22337003
0.19304919 0.29426265 0.68729514 0.97051555 0.76975954 -1.3972973 -0.23214707 0.106181346
0.37061182 0.6481383 0.2309713 0.22183184 0.5193931 -0.11839137 -0.30115247 1.2540278
0.82634246 0.47138762 0.64828664 0.4274949 0.17820053 0.08238516 -0.20689261 0.22930907
0.2830577 0.6689508 0.40028775 0.14618342 -0.38378027 0.057674937 -0.021737184 0.16356817
1.066683 0.32775128 0.3165992 0.054701723 -0.7280863 -0.6976997 0.038318574 0.34863967
0.55875677 -0.08955705 0.007108384 -0.09068846 0.37007225 -0.17722367 0.21508153 0.3304034
0.17775114 -0.13561255 0.22590214 -0.22251354 -0.3509645 -0.00619474 -0.15539734 -0.40215603
-0.02666936 0.29001153 0.22999501 -0.8603747 -0.11206394 -0.12885582 -0.73109466 -0.08742186
0.35843098 -0.47889176 0.02907606 0.27744588 0.48250043 -0.33186418 0.15389383 0.57879853
1.2549939 0.3538318 0.43221882 0.41846162 0.2579239 0.068215646 0.01636352 0.6422599
0.2509175 0.22976035 0.1533561 0.19812188 0.072527796 -0.030881433 -0.2700728 0.59944886
-0.016285082 0.4156565 -0.28226203 0.17005752 -0.1808096 0.33481038 -0.11246624 0.4754847
-0.1242728 0.14241892 0.22220586 0.19378321 -0.11348052 0.66313505 -0.22676785 -0.28063127
0.13983281 -0.042508934 0.017813267 0.33482006 0.3230741 0.05251194 0.028278867 0.2008315
0.11133653 0.20192511 -0.77472603 0.13145347 0.05459346 0.30927327 -0.29128748 -0.17870076
-0.03857791 0.01214333 0.4227633 -0.09899164 -0.22975159 0.15294854 -0.010322982 0.3985239
0.47002733 -0.3985392 0.11026771 0.1764427 0.47974563 0.27868724 -0.48507068 0.25720423
0.52043164 -0.3051984 0.0066367104 0.41773877 0.17591181 0.35491812 0.2316035 -0.18605404
0.14066443 0.18302299 -0.18347272 0.3077639 0.23884831 -0.1826404 0.4825818 0.71798277
-0.09823783 -0.18941307 -0.44038093 0.33627045 -0.047175843 0.0033088534 -0.04599091 0.33465582
-0.0689685 0.03830471 0.0821026 0.37269887 0.19667351 -0.1667497 -0.6193659 -0.008227034
0.26330575 -0.14471509 -0.2260124 0.2082689 -0.42807102 0.37887785 -0.0066989744 0.5520717
0.026146293 0.25024313 -0.10615626 -0.20251296 -0.06787352 0.059547953 -0.14036694 -0.22808273
00000000: 1fd9 8a3f cac5 773f 0605 f73e 864c d23f
00000010: 7519 0040 d5ae a73f d8a4 853f ba44 d5bd
00000020: 6b77 ed3e 0613 03bf 9637 573f 7981 eb3e
00000030: 4ad1 1740 0dc1 843e 6d31 a93e ddf5 c93f
00000040: 6d6d 863e feae 923e 8fc5 5c3e d4ea 2cbd
00000050: a817 da3f 1d3c cb3e 2dcd df3e b87b 803d
00000060: 1fa7 683e 2631 b03e 22d1 683f e83d 223d
00000070: 4cd3 553f a85f 693f a786 fa3e d1ec 603e
00000080: 2f44 7d3f 29a9 a23f dba2 3e3f 7d63 aa3e
00000090: c491 923f 82f4 3e3f 1ad9 7c3c 58b2 4f3e
000000a0: f99d 8e3f 02e5 da3f 6084 d23f e267 663f
000000b0: f649 153f 3200 a33f c94c 943e fc1d 2d3f
000000c0: 8569 9a3f d56a 513f 0193 023f fca7 a63f
000000d0: 20e1 653e 9c67 8e3f ac43 543f 59dd b73f
000000e0: 7297 d13f 14f7 8f3f e620 cf3f 82f7 7a3f
000000f0: 54bd 4b3f 4ec3 c73f cba7 833f 6830 943f
00000100: b3a1 e23d 9089 733f 9170 38be 5e8e 693e
00000110: ae28 0d3f 9758 3abe e112 a23e 1dbb 64be
00000120: b0ae 453e 98a9 963e 93f2 2f3f b573 783f
00000130: f60e 453f a3da b2bf f6b7 6dbe 9b75 d93d
00000140: d5c0 bd3e 64ec 253f be83 6c3e e327 633e
00000150: f2f6 043f 2d77 f2bd a830 9abe fc83 a03f
00000160: 2e8b 533f b859 f13e 1df6 253f 9de0 da3e
00000170: 337a 363e 8db9 a83d a8db 53be ffcf 6a3e
00000180: f0ec 903e 5c40 2b3f 84f2 cc3e 1bb1 153e
00000190: d97e c4be 8e3c 6c3d 2e12 b2bc 6a7e 273e
000001a0: 1289 883f 04cf a73e 4a19 a23e ea0e 603d
000001b0: dd63 3abf 739c 32bf f0f3 1c3d e680 b23e
000001c0: af0a 0f3f b069 b7bd 72ed e83b dfba b9bd
000001d0: 1c7a bd3e 1f7a 35be 553e 5c3e a22a a93e
000001e0: 6504 363e 04de 0abe e452 673e 97da 63be
000001f0: 9eb1 b3be 3ffd cabb 7b20 1fbe 65e7 cdbe
00000200: b479 dabc 647c 943e d083 6b3e 8441 5cbf
00000210: c781 e5bd c8f2 03be 0529 3bbf 3b0a b3bd
00000220: 4484 b73e 4d31 f5be eb30 ee3c 630d 8e3e
00000230: 4c0a f73e 1aea a9be 5896 1d3e 242c 143f
00000240: a4a3 a03f 7129 b53e c94b dd3e 9a40 d63e
00000250: 9a0e 843e a5b4 8b3d ca0c 863c 256b 243f
00000260: 4278 803e 4c46 6b3e 6209 1d3e 76e0 4a3e
00000270: 7489 943d 0ffb fcbc fb46 8abe 7b75 193f
00000280: 4b68 85bc eed0 d43e a684 90be 8f23 2e3e
00000290: 2726 39be 446c ab3e b354 e6bd bb72 f33e
000002a0: bd82 febd 44d6 113e ef89 633e 1b6f 463e
000002b0: 7a68 e8bd 38c3 293f d535 68be e7ae 8fbe
000002c0: 5530 0f3e d91d 2ebd 21ed 913c 896d ab3e
000002d0: f869 a53e c316 573d 15a9 e73c c6a6 4d3e
000002e0: 6804 e43d 75c5 4e3e 7254 46bf bd9b 063e
000002f0: 649d 5f3d 1159 9e3e a223 95be 55fd 36be
00000300: df03 1ebd d1f4 463c 6e74 d83e 21bc cabd
00000310: 0044 6bbe 8b9e 1c3e ba21 29bc 530b cc3e
00000320: 6ca7 f03e 540d ccbe 0ad4 e13d 65ad 343e
00000330: 38a1 f53e 18b0 8e3e 2f5b f8be 46b0 833e
00000340: 023b 053f f742 9cbe c378 d93b dbe1 d53e
00000350: 3a22 343e d4b7 b53e 7829 6d3e f384 3ebe
00000360: 560a 103e 616a 3b3e 46e0 3bbe 3b93 9d3e
00000370: a794 743e 1606 3bbe f614 f73e b8cd 373f
00000380: ea30 c9bd 80f5 41be 9c79 e1be a42b ac3e
00000390: 753b 41bd 59d9 583b f760 3cbd 0258 ab3e
000003a0: 5b3f 8dbd 66e5 1c3d 6825 a83d 63d2 be3e
000003b0: c864 493e 6fc0 2abe c38e 1ebf aeca 06bc
000003c0: 03d0 863e 3130 14be cb6f 67be 7144 553e
000003d0: 202c dbbe 47fc c13e 1283 dbbb 9254 0d3f
000003e0: c030 d63c de1f 803e 7468 d9bd 8f5f 4fbe
000003f0: 4601 8bbd 8ee8 733d 5abc 0fbe 858e 69be

mlp.3.bias f4 [128]
-1.0111991 -0.30881104 -0.3669628 -0.34664243 -0.32701388 -0.63597155 -0.5055965 -0.09307692
-0.43681332 -0.23187985 -0.7828265 -0.020604858 -0.8620854 -0.5032385 -0.7975234 -0.84451985
-0.3983645 -0.14971513 -0.491954 -0.74873835 -0.44340685 -0.7678322 -0.5988369 -0.27267066
-0.7658619 -0.46909985 -0.3756172 -0.7251382 -0.42935845 -1.007286 -0.65224445 -0.29965013
-0.75788605 -1.0676336 -0.53347105 0.2790895 -0.21307097 -0.3197217 -0.45710367 -0.5964647
-0.8904267 -0.081274204 -0.7099804 -0.9542023 -0.27594665 -0.31360242 -0.29311135 -1.4198581
-0.38695756 -0.2117323 -0.53585917 -0.47935963 -0.34451407 -0.38361934 -0.5490044 -0.83890224
-0.73598665 -0.5711008 -0.07875589 -0.6783353 -0.40503362 -0.42638752 -0.2767863 -0.57030976
-0.7152935 -0.46633798 -0.7752383 -0.36683285 -0.7481599 -1.034261 -0.57967305 -0.8236134
-0.62115055 -1.0997427 -0.9783608 -0.35900396 -0.9600904 -0.45911735 -0.3783279 -0.521202
0.024763541 -0.2298879 -0.55748266 -0.38935593 0.3667103 -0.39562207 -0.2851299 -0.59829104
-0.41146347 -0.6297302 -0.6639433 -0.08441072 -0.33427995 -0.73529387 -1.3012625 -0.6090402
-0.42030418 -0.24985099 -0.6135397 -0.5030392 -0.5792895 -0.772251 -0.60580015 -0.5947076
-0.593256 -0.2748345 -0.27799463 -0.4236455 -0.27767828 -0.9802246 -0.45872656 -0.2396455
-0.78878087 -0.6942727 -0.5843467 -0.45480433 -0.41413447 -0.595049 -0.5601276 -0.7566385
-0.25449732 -0.8883377 -0.9917987 -0.36984608 -0.29417378 -0.6804433 -0.020100633 -0.85526764
00000000: f96e 81bf 7b1c 9ebe 8ce2 bbbe 1e7b b1be
00000010: 5d6e a7be 08cf 22bf c66e 01bf 1d9f bebd
00000020: ffa5 dfbe e971 6dbe 5167 48bf 85cb a8bc
00000030: a1b1 5cbf 3dd4 00bf 7e2a 4cbf 7432 58bf
00000040: 6ff6 cbbe ec4e 19be 65e1 fbbe 51ad 3fbf
00000050: 3906 e3be a790 44bf 604d 19bf 7d9b 8bbe
00000060: 870f 44bf db2d f0be e650 c0be a8a2 39bf
00000070: dfd4 dbbe bfee 80bf 7ef9 26bf be6b 99be
00000080: d204 42bf 38a8 88bf 8f91 08bf d2e4 8e3e
00000090: 472f 5abe 90b2 a3be 7e09 eabe e9b1 18bf
000000a0: 01f3 63bf 1773 a6bd 47c1 35bf 9a46 74bf
000000b0: e148 8dbe 7f90 a0be b112 96be e9bd b5bf
000000c0: 4d1f c6be 5ad0 58be 112e 09bf a06e f5be
000000d0: 2664 b0be c169 c4be 8d8b 0cbf 4cc2 56bf
000000e0: 9f69 3cbf a933 12bf c54a a1bd 62a7 2dbf
000000f0: 9160 cfbe 774f dabe efb6 8dbe d2ff 11bf
00000100: 7a1d 37bf dac3 eebe 0476 46bf 84d1 bbbe
00000110: 6887 3fbf aa62 84bf 7465 14bf 54d8 52bf
00000120: b903 1fbf 5ec4 8cbf da75 7abf 5ecf b7be
00000130: 7cc8 75bf 6e11 ebbe 32b4 c1be 7f6d 05bf
00000140: e9dc ca3c bc67 6bbe 2fb7 0ebf a959 c7be
00000150: 74c1 bb3e fa8e cabe 8cfc 91be 9a29 19bf
00000160: 57ab d2be 0036 21bf 30f8 29bf 87df acbd
00000170: be26 abbe 383c 3cbf c58f a6bf 0fea 1bbf
00000180: 1c32 d7be f0d8 7fbe f010 1dbf 2dc7 00bf
00000190: 514c 14bf 3eb2 45bf b815 1bbf c23e 18bf
000001a0: a0df 17bf 1cb7 8cbe 5055 8ebe 10e8 d8be
000001b0: d92b 8ebe 00f0 7abf 35de eabe a165 75be
000001c0: 8bed 49bf dbbb 31bf bf97 15bf 1ddc e8be
000001d0: 6f09 d4be 2255 18bf 8664 0fbf 10b3 41bf
000001e0: 794d 82be 196a 63bf 85e6 7dbf 775c bdbe
000001f0: f29d 96be 8831 2ebf 15aa a4bc d2f2 5abf

mlp.6.weight f4 [1, 128]
-0.6929137 -0.04489272 0.18557292 0.005533845 -0.033801183 0.24400465 -0.21484216 -0.20335276
-0.21076225 -0.33113313 -0.04935301 -0.68288684 -0.026871845 -0.0029459505 0.021232257 -0.07846389
-0.0255083 -0.002746564 -0.0008351722 -0.037962865 -0.092374586 -0.055400003 -0.04739661 -0.49725574
0.08404832 -0.36635515 -0.07885649 -0.06742866 -0.110183015 -0.6960266 -0.09368276 0.2809915
0.022522382 -0.5616023 -0.050472762 -0.25259942 0.014398398 -0.15154284 0.002025316 -0.5509095
-0.4654843 0.37244162 -0.08515299 -0.55682266 0.1955354 0.05007542 -0.015093031 -0.7233811
-0.20978983 -0.009397866 -0.7831729 -0.010271755 0.016246708 -0.7178883 -0.07177167 -0.12502725
-0.4726027 -0.25886768 0.030857585 -0.07012932 0.042476226 0.016940638 0.035809282 -0.23027328
0.07293572 -0.055320762 -0.02940227 0.083745584 -0.17052741 -0.15389946 0.030265244 -0.046790145
-0.46527103 -0.0792539 0.22575481 -0.021318141 -0.05559724 -0.060979933 -0.009201605 -0.5835353
-0.16363803 -0.6582113 0.14773598 -0.03360032 -0.49445295 0.013918282 -0.24663882 -0.39178982
0.046235643 -0.03129352 0.0011740786 0.046015237 -0.068233974 -0.21329926 -0.07075603 -0.6833349
-0.019757455 -0.46202418 -0.19532564 0.026253218 0.08925221 -0.08638295 -0.143567 0.07936134
-0.009352796 0.18739597 -0.0053593265 -0.5673032 -0.023875762 -0.6651886 0.020650832 -0.7445003
-0.025597323 -0.09926478 -0.21349165 -0.0551883 -0.020905174 -0.48123768 -0.11093302 -0.018240083
0.047233526 -0.06518212 0.084703706 0.015753219 -0.6830494 -0.32242557 -0.12132164 -0.051447533
00000000: cb62 31bf 6ee1 37bd d406 3e3e 4255 b53b
00000010: 1c73 0abd 5bdc 793e 95ff 5bbe b53b 50be
00000020: 0fd2 57be 488a a9be 6226 4abd acd1 2ebf
00000030: 5822 dcbc d910 41bb 45ef ad3c adb1 a0bd
00000040: c8f6 d0bc b3ff 33bb 75ef 5aba f37e 1bbd
00000050: e32e bdbd 1deb 62bd f322 42bd 4e98 febe
00000060: 8721 ac3d e792 bbbe 837f a1bd 0a18 8abd
00000070: a2a7 e1bd cd2e 32bf bfdc bfbd 1ede 8f3e
00000080: dc80 b83c 2bc5 0fbf 87bc 4ebd b654 81be
00000090: 42e7 6b3c 0c2e 1bbe 2abb 043b 6808 0dbf
000000a0: f553 eebe abb0 be3e b164 aebd ee8b 0ebf
000000b0: 6f3a 483e e21b 4d3d c348 77bc 812f 39bf
000000c0: 25d3 56be 82f9 19bc 057e 48bf dd4a 28bc
000000d0: d117 853c 87c7 37bf 06fd 92bd 2507 00be
000000e0: fbf8 f1be 4e8a 84be 0cc9 fc3c f69f 8fbd
000000f0: 8dfb 2d3d 18c7 8a3c c1ac 123d c2cc 6bbe
00000100: 535f 953d 0698 62bd 08dd f0bc ce82 ab3d
00000110: bd9e 2ebe d297 1dbe d1ee f73c 06a7 3fbd
00000120: 0138 eebe de4f a2bd 452c 673e 62a3 aebc
00000130: eeb9 63bd 18c6 79bd 54c2 16bc 9262 15bf
00000140: ba90 27be 8980 28bf 1a48 173e 7da0 09bd
00000150: f028 fdbe 8209 643c e38e 7cbe ad98 c8be
00000160: 9661 3d3d a22d 00bd 8ae3 993a 797a 3c3d
00000170: 41be 8bbd 1f6b 5abe 8ae8 90bd 09ef 2ebf
00000180: 63da a1bc 6f8e ecbe 7203 48be fd10 d73c
00000190: ddc9 b63d 8be9 b0bd 3a03 13be 3388 a23d
000001a0: 783c 19bc bbe4 3f3e 4a9d afbb c83a 11bf
000001b0: 1a97 c3bc cd49 2abf ef2b a93c 9297 3ebf
000001c0: 7ab1 d1bc 554b cbbd 8e9d 5abe 200d 62bd
000001d0: 5441 abbc c964 f6be da30 e3bd 3a6c 95bc
000001e0: f177 413d 347e 85bd 2379 ad3d e50c 813c
000001f0: 53dc 2ebf f714 a5be 7b77 f8bd a6ba 52bd

mlp.8.weight f4 [4, 5]
-0.054527767 0.0069894157 -0.16719405 0.14303698 0.23410374 -0.5566766 -0.39876398 -0.2718039
-0.03707596 -0.8018791 -0.05444275 -0.22583844 0.061200514 0.115760386 0.22495064 0.041470155
0.5677555 0.30790344 0.35943544 0.31793073
00000000: 8258 5fbd 7807 e53b eb34 2bbe 4978 123e
00000010: e4b8 6f3e 5c82 0ebf cb2a ccbe e129 8bbe
00000020: f6dc 17bd f347 4dbf 5cff 5ebd 3142 67be
00000030: 64ad 7a3d c813 ed3d 7659 663e 9cdc 293d
00000040: 6d58 113f 85a5 9d3e ec07 b83e d1c7 a23e

mlp.8.bias f4 [4]
-0.12730055 0.14898033 0.5483948 -0.50651723
00000000: 135b 02be 4d8e 183e 9a63 0c3f 1dab 01bf
