models/fjsp_same.pth (torch, 22861 bytes, 17 tensors)

state_embedding.weight f4 [12, 6]
0	0xbecbd5d1	-0.39811566
1	0xbeb04ca1	-0.34433463
2	0x3d9fa885	0.077958144
3	0xbdd30753	-0.10304131
4	0xbe25be37	-0.16185842
5	0xbd1ae110	-0.037812293
6	0x3deb30ff	0.11483955
7	0xbe8d2212	-0.27565056
8	0xbd1f8194	-0.038941935
9	0xbe080644	-0.1328364
10	0xbecc0b0e	-0.39852184
11	0xbe9c7ffa	-0.30566388
12	0xbe9ec423	-0.31009015
13	0x3d3a0809	0.04541782
14	0x3e7a3cdb	0.24437277
15	0x3b9c19b5	0.0047638067
16	0x3e4857b3	0.19564705
17	0x3d6d8588	0.057988673
18	0x3e8c9cef	0.2746348
19	0x3c2c5be8	0.010519959
20	0x3e5f5eb8	0.21813476
21	0x3ec93ac4	0.39302647
22	0x3eb2630d	0.34841195
23	0xbe0b3502	-0.1359444
24	0x3e4df6b7	0.20113645
25	0xbe86392a	-0.26215488
26	0x3ec1fe99	0.37889555
27	0xbe79ad7e	-0.24382588
28	0x3ea62565	0.32450405
29	0xbc9b70a2	-0.018974606
30	0x3ea347cb	0.3189071
31	0xbe61eb32	-0.22062376
32	0xbe9ff1d9	-0.31239203
33	0x3e626bb6	0.22111401
34	0xbc8bf470	-0.01708433
35	0x3e6d773f	0.2319002
36	0x3e0412fe	0.1289787
37	0x3dd84038	0.10559124
38	0x3e7cc897	0.24685894
39	0x3e5641b7	0.20923506
40	0x3eb3a7fa	0.35089093
41	0xbe4b244e	-0.19838068
42	0x3e0d284d	0.13784905
43	0x3e6c1fd9	0.23059024
44	0xbed08d89	-0.40732983
45	0xbde950ee	-0.11392389
46	0x3debab96	0.11507337
47	0x3d5e8adf	0.054331657
48	0xbe2ad17a	-0.16681471
49	0xbe498d00	-0.19682693
50	0x3e088732	0.13332823
51	0xbd9ea170	-0.077456355
52	0x3e90530a	0.28188354
53	0x3b9ba3bd	0.0047497437
54	0xbe84eda0	-0.25962543
55	0x3eaec69b	0.341359
56	0x3ec32a5d	0.38118258
57	0xbd940ceb	-0.072290264
58	0x3d9c03b0	0.07617891
59	0xbe9ca1bf	-0.30592152
60	0xbea04081	-0.31299213
61	0xbec79345	-0.38979545
62	0xbe39fe03	-0.18163304
63	0xbebb4469	-0.3657563
64	0xbe9b06bd	-0.30278578
65	0x3dcc73e9	0.099830456
66	0x3e3805f1	0.17971016
67	0xbe452c96	-0.1925529
68	0x3eda4c6e	0.42636436
69	0x3e80ca22	0.25154215
70	0x3e9d7dde	0.30760092
71	0xbb918e57	-0.004442017

state_embedding.bias f4 [12]
0	0xbdeda8d9	-0.11604471
1	0xbe81cda7	-0.25352213
2	0xbe63a4fb	-0.22230904
3	0xbe55e9d8	-0.20889986
4	0xbdd723ae	-0.10504852
5	0xbe7d2672	-0.24721697
6	0x3e875771	0.264339
7	0xbe0dbdf9	-0.13842
8	0x3e864b7c	0.26229465
9	0xbe68b5c0	-0.22725582
10	0x3e864791	0.26226476
11	0xbeb026e1	-0.34404662

attention.in_proj_weight f4 [36, 12]
0	0xbe392573	-0.18080692
1	0xbd25b5db	-0.040456634
2	0x3e85be9f	0.26121995
3	0xbd2fa037	-0.042877402
4	0x3eb76460	0.35818768
5	0x3eb181f8	0.3466947
6	0xbdb9bd18	-0.0906927
7	0xbe965740	-0.2936344
8	0x3e39dd3f	0.18150805
9	0x3e65ba99	0.22434463
10	0xbd9c0fe7	-0.07620221
11	0xbe8d1242	-0.27552992
12	0xbe2999ec	-0.16562623
13	0x3e4bbf4e	0.19897196
14	0x3dc0dd61	0.09417225
15	0xbd402c5d	-0.046917308
16	0x3e91e312	0.28493553
17	0xbe4d60a4	-0.20056397
18	0x3cba63ff	0.02275276
19	0x3d8939ea	0.06700499
20	0x3e9740a9	0.2954152
21	0xbe87aae3	-0.26497564
22	0xbe0f3ceb	-0.13988082
23	0x3e7ab127	0.24481641
24	0xbaaf2602	-0.0013362768
25	0x3e168fdc	0.14703315
26	0x3e173599	0.1476654
27	0xbdb5f3d6	-0.08884399
28	0x3cb88883	0.022526031
29	0x3ea093d6	0.3136279
30	0x3e4a8084	0.19775587
31	0xbe5ac616	-0.21364626
32	0x3eb1dc69	0.34738472
33	0xbd368423	-0.04455961
34	0x3e0b5db2	0.1360996
35	0x3df466a7	0.11933642
36	0x3e47bf33	0.1950653
37	0x3e601f7d	0.21887012
38	0x3e8c882a	0.27447635
39	0x3e020c9b	0.12700121
40	0x3e225f28	0.15856612
41	0xbcaa8bc2	-0.020818595
42	0x3ebe19ce	0.37129062
43	0x3dad8052	0.08471741
44	0x3e26d9d2	0.1629403
45	0x3e7af01b	0.24505655
46	0x3dd5a08e	0.10431014
47	0xbdbacc85	-0.0912104
48	0x3d31ca42	0.04340578
49	0xbda72996	-0.08162229
50	0xbd5a492f	-0.05329245
51	0xbdf9ea40	-0.12202883
52	0x3e27d64a	0.16390339
53	0xbea480dd	-0.32129565
54	0xbe543620	-0.20723772
55	0xbe943081	-0.28943256
56	0xbdf46b22	-0.119344965
57	0x3dda5b9e	0.10662006
58	0x3e9aa917	0.3020713
59	0x3c9f8d18	0.019476458
60	0xbe98cdf6	-0.29844636
61	0xbe5fbe9f	-0.2185006
62	0x3d9de5f5	0.077098764
63	0x3d8fadd9	0.07015581
64	0x3e936f6d	0.2879595
65	0x3e5f7f0f	0.21825813
66	0xbec5b35f	-0.38613412
67	0x3d19c055	0.037536938
68	0xbc6f7d66	-0.0146173
69	0xbdf9d7fa	-0.121993974
70	0x3e361a77	0.17783533
71	0xbec8eac5	-0.39241615
72	0x3e4287fd	0.18997188
73	0x3e8c2341	0.27370647
74	0x3da31c17	0.07964342
75	0x3e5cf394	0.21577293
76	0x3d084839	0.033272002
77	0x3eb5b9fe	0.35493463
78	0x3e14c7c9	0.14529337
79	0x3eb84a34	0.35994112
80	0x3dd8f245	0.10593084
81	0xbea326b3	-0.31865463
82	0x3e851070	0.25989103
83	0xbe00efbc	-0.12591451
84	0xbde4e600	-0.111766815
85	0x3d0d44c2	0.0344894
86	0xbb27a353	-0.0025579527
87	0x3e97e1a4	0.29664338
88	0x3e45cb00	0.1931572
89	0xbc9ffa43	-0.019528514
90	0xbdeb1c97	-0.114800625
91	0x3d969775	0.07353107
92	0x3d385fb6	0.045013152
93	0x3ead1bac	0.33810174
94	0xbe332e6a	-0.17498174
95	0xbe5cbb5b	-0.21555845
96	0xbe36df30	-0.17858577
97	0x3cdee440	0.027208447
98	0xbe9cc7f7	-0.3062131
99	0x3e43898c	0.19095439
100	0x3d90a819	0.07063312
101	0xbc2c080c	-0.010499965
102	0x3d896c62	0.067101255
103	0xbe7de3eb	-0.24793975
104	0xbe9d0f74	-0.30675852
105	0xbeb05a79	-0.34444025
106	0xbe9d2686	-0.30693454
107	0xbe144fde	-0.14483592
108	0x3e0c7e6b	0.137201
109	0xbe93b41d	-0.28848353
110	0x3e4e7324	0.2016111
111	0xbd5d21bb	-0.053987246
112	0x3dae68a8	0.08516055
113	0x3ea8fe75	0.33006635
114	0x3c714566	0.0147260185
115	0x3e625d91	0.22106005
116	0xbded3ed1	-0.11584247
117	0x3eaf41b3	0.34229812
118	0xbe87a2b4	-0.2649132
119	0xbd5dc428	-0.054142147
120	0xbda34e24	-0.079738885
121	0x3dc97d47	0.09838348
122	0xbe4bf0a1	-0.19916011
123	0x3d81a268	0.06329805
124	0xbb6f1afa	-0.0036484585
125	0xbe3c6e93	-0.18401556
126	0x3e76b9b9	0.24094285
127	0xbc7fef6a	-0.015621046
128	0xbeaba422	-0.3352366
129	0xbe94b921	-0.29047492
130	0xbd1d65a6	-0.038427018
131	0x3d8a38e7	0.067491345
132	0xbe7c6122	-0.24646428
133	0xbe8a9d5e	-0.27073187
134	0xbebc542d	-0.3678297
135	0xbe7d54f6	-0.24739441
136	0xbe86ca91	-0.2632642
137	0x3d6832f8	0.056689233
138	0xbdee028c	-0.116215795
139	0x3c15c5c4	0.009141389
140	0xbca803cb	-0.020509621
141	0x3eaa904f	0.33313224
142	0xbd6533c0	-0.055957556
143	0xbe287444	-0.16450602
144	0xbd1c3056	-0.038132034
145	0x3dd0c62b	0.101940475
146	0xbe0b5d9e	-0.13609931
147	0xbead2792	-0.33819252
148	0xbdb74607	-0.089489035
149	0xbe0f9033	-0.14019851
150	0x3e0f202d	0.13977118
151	0xbd9b2048	-0.075745165
152	0xbe5eaa61	-0.21744682
153	0xbd9948cf	-0.0748459
154	0xbeb5aa01	-0.35481265
155	0xbda1f780	-0.07908535
156	0xbe8eabd6	-0.27865475
157	0xbb1f40db	-0.0024300131
158	0xbea85ad1	-0.32881787
159	0xbe9ee100	-0.31031036
160	0xbe9c9ec3	-0.30589876
161	0xbddbcb2b	-0.107321106
162	0xbdb980f9	-0.09057803
163	0xbe161315	-0.14655717
164	0x3e03cfd8	0.12872255
165	0x3dd29436	0.10282175
166	0x3e1b47da	0.15164128
167	0xbea00f30	-0.31261587
168	0xbe81cfdb	-0.25353894
169	0x3e1ae403	0.15126042
170	0x3eab2291	0.3342481
171	0x3d52d72b	0.05147473
172	0x3e7bf0dc	0.246036
173	0xbda7a434	-0.08185616
174	0xbd93acbc	-0.07210681
175	0xbd1627d9	-0.036659095
176	0x3cb9c260	0.022675693
177	0x3ea427ab	0.32061514
178	0xbe8a0578	-0.26957297
179	0x3cc139dc	0.02358716
180	0x3ddf1078	0.10891813
181	0xbc4b7994	-0.012419123
182	0xbe25ac6b	-0.16179053
183	0x3e2b81ce	0.16748735
184	0xbea9a90f	-0.33136794
185	0x3dcf0071	0.10107506
186	0x3c8d2db8	0.017233714
187	0xbd2b18ae	-0.041771583
188	0x3eae2d3e	0.34018892
189	0x3e2af421	0.1669469
190	0x3e86db57	0.26339218
191	0x3e3f33cb	0.18672101
192	0x3ea5f7df	0.32415673
193	0x3cd0b801	0.025478365
194	0x3b1b666c	0.0023712171
195	0x3da9924f	0.08279859
196	0x3d91c825	0.07118253
197	0x3e5e93fa	0.21736136
198	0xbc292118	-0.010322832
199	0x3e98bff0	0.29833937
200	0x3eb9444c	0.3618492
201	0x3d1c0ebd	0.038099993
202	0xbe6d2a9d	-0.23160787
203	0xbe33d3f1	-0.17561318
204	0x3de5cbc7	0.11220508
205	0xbe8d26bd	-0.27568617
206	0x3b344a73	0.0027510196
207	0xbe5e1ff2	-0.21691874
208	0x3e2932d9	0.16523303
209	0xbd070946	-0.03296783
210	0x3e67d75b	0.22640745
211	0x3de80376	0.11328785
212	0xbcdcbfc4	-0.02694691
213	0x3dc98d75	0.09841434
214	0x3e96366d	0.293384
215	0xbe9d20f7	-0.30689213
216	0x3e3b5eaa	0.1829783
217	0xbe826143	-0.2546483
218	0xbea7c09b	-0.32764134
219	0xbe3c06fe	-0.18362042
220	0x3d69797b	0.05700062
221	0xbe067327	-0.13129865
222	0xbe577f89	-0.21044745
223	0x3d32b44e	0.043628983
224	0x3e1aa421	0.15101673
225	0xbc9a3189	-0.018822448
226	0x3cdd58fb	0.027019968
227	0x3e6b16f0	0.22957969
228	0xbea6f229	-0.3260663
229	0x3e24368c	0.16036433
230	0x3d83d773	0.06437578
231	0x3de775d9	0.113017745
232	0xbe45f3c3	-0.19331269
233	0xba7b1ef2	-0.00095795013
234	0x3eaac94e	0.33356708
235	0xbe77b507	-0.2419015
236	0x3e688291	0.22706057
237	0x3dbe6b11	0.09297765
238	0xbe9e87ed	-0.30963078
239	0xbe54964f	-0.20760463
240	0xbe6e682e	-0.23281929
241	0x3cd8354e	0.026392605
242	0x3e06f5b1	0.13179661
243	0xbe18151c	-0.14851803
244	0x3e1c85ca	0.15285411
245	0xbe7c0baa	-0.24613824
246	0x3de3ff2b	0.11132654
247	0x3e866966	0.26252288
248	0x3e6780e5	0.22607763
249	0x3e5291fb	0.205635
250	0x3d539bce	0.05166226
251	0x3e6351e0	0.22199202
252	0x3d420295	0.047365744
253	0x3e37018f	0.17871688
254	0x3e33cef9	0.17559423
255	0xbddb3903	-0.107042335

attention.in_proj_bias f4 [36]
0	0x3c5a703f	0.013332426
1	0xbb829b04	-0.0039857645
2	0xbadfab1f	-0.0017064548
3	0x3c9b4476	0.018953543
4	0xbc8dc325	-0.017304966
5	0xbd610ce3	-0.05494393
6	0x3c165d89	0.009177574
7	0xbc90414e	-0.017609265
8	0xbb34f666	-0.0027612685
9	0xbc8c5619	-0.017130898
10	0xbc4ae740	-0.012384236
11	0xbc2d4e93	-0.010577816
12	0x387d334a	6.0367667e-05
13	0x39450bf3	0.00018791835
14	0xb83fcfec	-4.573159e-05
15	0xb8cdaefa	-9.807754e-05
16	0x371cae9e	9.338981e-06
17	0xb7ea478d	-2.7928292e-05
18	0xb7b81158	-2.1942586e-05
19	0x37f7f74e	2.9559855e-05
20	0xb880fa40	-6.150128e-05
21	0xb866d624	-5.5035707e-05
22	0xb73cffdc	-1.1265245e-05
23	0x379f39b4	1.8981147e-05
24	0xbcd7bc94	-0.026335038
25	0xbb8d64a3	-0.0043149753
26	0xbae33f07	-0.0017337509
27	0xbc0bc81c	-0.0085315965
28	0x3b2d09c4	0.0026403526
29	0xbd9b0e21	-0.07571054
30	0xbc8a22f9	-0.01686238
31	0x3ccc65d7	0.024950905
32	0xbcdee312	-0.027207885
33	0x3d2429a8	0.04007879
34	0x3d2795c8	0.040914327
35	0x3cea68b9	0.028614389

attention.out_proj.weight f4 [12, 12]
0	0xbdc0804b	-0.0939947
1	0xbca4bb8e	-0.020108964
2	0x3dea9bf3	0.11455526
3	0x3dce5af7	0.10075944
4	0x3e78e43c	0.24305815
5	0xbd88594a	-0.066576555
6	0x3b23e4d6	0.0025008223
7	0xbdb77fa2	-0.08959891
8	0xbe09d3b3	-0.13459663
9	0xbe607673	-0.21920185
10	0x3e49f6e9	0.19723095
11	0xbe44b3da	-0.19209233
12	0xbe342592	-0.17592457
13	0x3e374325	0.17896707
14	0x3cc9adf7	0.024619086
15	0xbe53aed3	-0.20672159
16	0x3cf52638	0.02992545
17	0x3e7e6590	0.2484343
18	0x3dce06a4	0.1005986
19	0xbce0b1f0	-0.027428597
20	0xbe59d902	-0.21274188
21	0xbdf96365	-0.12177161
22	0xbe4061dc	-0.1878733
23	0xbdb45126	-0.0880454
24	0x3e051af6	0.12998566
25	0x3cbcf133	0.023064232
26	0xbe15f2c2	-0.14643386
27	0xbe294c81	-0.1653309
28	0xbe43a2fa	-0.1910514
29	0x3d1a1fcb	0.037627976
30	0x3e02a9aa	0.12760034
31	0x3c4b965b	0.012425984
32	0x3e4690c4	0.19391161
33	0xbdb35b0d	-0.08757601
34	0xbe702308	-0.23450863
35	0x3d79073e	0.060797922
36	0xbe628d42	-0.22124198
37	0xbe448020	-0.19189501
38	0x3cbd0e9f	0.023078261
39	0xbe3e808c	-0.18603724
40	0x3d28864a	0.041143693
41	0xbe5eec0e	-0.21769735
42	0xbe36ac6c	-0.17839211
43	0x3e5db88b	0.21652429
44	0xbe4067df	-0.18789624
45	0xbd580d8a	-0.052747287
46	0x3d872978	0.065997064
47	0x3cf1288d	0.029438281
48	0xbd6ab549	-0.057301793
49	0xbe220f39	-0.1582612
50	0x3d997001	0.07492066
51	0xbd5909e7	-0.05298796
52	0x3e6cdcb0	0.2313106
53	0x3e253136	0.16132054
54	0xbd3f125f	-0.04664838
55	0xbde3e19b	-0.11127015
56	0x3e1623c5	0.14662082
57	0xbe3ba0d4	-0.1832307
58	0xbe8e4195	-0.2778441
59	0x3e1f6df1	0.15569283
60	0xbe622342	-0.22083762
61	0xbd97ee78	-0.07418531
62	0xbea8628a	-0.3288768
63	0xbe08497b	-0.1330928
64	0x3e8c19ef	0.27363536
65	0xbde53226	-0.11191206
66	0x3ced2708	0.028949276
67	0x3d913ec3	0.07092049
68	0x3d675797	0.056480017
69	0x3ca9b38d	0.0207155
70	0x3d79736f	0.0609011
71	0x3dd1db77	0.10246938
72	0x3e4f4f43	0.2024508
73	0x3e320fb7	0.17388807
74	0x3e5e8308	0.21729672
75	0x3d07ff00	0.03320217
76	0xbe750799	-0.2392868
77	0x3e3ce143	0.18445306
78	0xbdd48992	-0.10377802
79	0xbe49e4b8	-0.19716156
80	0x3e8b8538	0.27250075
81	0x3db247b3	0.08705082
82	0xbd798fad	-0.060928036
83	0x3e36753c	0.17818159
84	0x3e936352	0.28786713
85	0x3d1ca035	0.038238723
86	0x3d3761dd	0.044771064
87	0x3e4de3eb	0.20106475
88	0x3d91875f	0.07105898
89	0x3d74b77e	0.059745304
90	0xbd4b8ccf	-0.049694832
91	0xbd7940d5	-0.060852844
92	0xbe8d134e	-0.2755379
93	0x3d1395bc	0.03603147
94	0xbe13016d	-0.14356013
95	0x3e8f4321	0.27980903
96	0xbe755da1	-0.23961498
97	0xbdd7e3f4	-0.105415255
98	0xbe4aab53	-0.19791918
99	0xbe8c9713	-0.2745901
100	0xbe64ff3c	-0.22362989
101	0x3e77cfc9	0.24200357
102	0x3e7c906c	0.24664468
103	0xbdfb996f	-0.122851245
104	0xbcc3d5ac	-0.023905598
105	0xbe964f1d	-0.29357234
106	0x3e4b9a56	0.19883093
107	0x3dfd2a3b	0.123615704
108	0x3db8b403	0.090187095
109	0x3de2c15c	0.110720366
110	0xbc8d7743	-0.017268782
111	0x3dec3db6	0.11535208
112	0xbc5cff2f	-0.013488575
113	0xbe337db6	-0.17528424
114	0xbe708fe4	-0.2349239
115	0xbe277baf	-0.16355775
116	0x3e4158b4	0.18881494
117	0xbcbd2c55	-0.023092428
118	0x3c992a5c	0.018696956
119	0x3e16c853	0.14724855
120	0x3e8a4e22	0.27012736
121	0x3bab4535	0.005226756
122	0x3e40f038	0.18841636
123	0xbdb56c0e	-0.088585004
124	0x3e42d9aa	0.19028345
125	0xbd353b5a	-0.044246055
126	0xbe1fa344	-0.15589625
127	0xbddf9969	-0.109179325
128	0xbe9409ef	-0.2891383
129	0xbdbded2b	-0.09273752
130	0x3e1c1795	0.15243371
131	0x3da9984d	0.08281002
132	0xbdb6ca00	-0.08925247
133	0xbe02374c	-0.12716407
134	0x3e8273dc	0.2547902
135	0x3e60be7b	0.21947663
136	0xbd853891	-0.0650493
137	0xbdef229f	-0.11676525
138	0xbd89e17c	-0.06732461
139	0x3d41698b	0.047219794
140	0xbe45e9a2	-0.19327405
141	0xbe054820	-0.13015795
142	0x3e03b7a1	0.12863018
143	0x3d7ef3ab	0.0622441

attention.out_proj.bias f4 [12]
0	0x3cf3dda4	0.029768772
1	0xbd455b57	-0.04818281
2	0xbc8f12d1	-0.017465027
3	0x3d3d1f4a	0.046172418
4	0xbd6efcc9	-0.058346543
5	0x3d3d4b5f	0.046214458
6	0xbbced910	-0.006312497
7	0x3c54949c	0.012974884
8	0x3c1be59d	0.009515193
9	0x3d062f84	0.03276016
10	0x3d2a780d	0.041618396
11	0xbca54d40	-0.020178437

mlp.1.weight f4 [36, 60]
0	0x3cb59171	0.022164078
1	0xbe5204e3	-0.20509677
2	0xbc68ac79	-0.014201277
3	0x3e7a54ad	0.24446364
4	0xbda5ff56	-0.08105342
5	0x3cf56669	0.02995606
6	0xbd515f9f	-0.051116582
7	0x3d72d72e	0.059287243
8	0xbddaa2b3	-0.10675564
9	0x3dfe825e	0.12427209
10	0x3e77879e	0.24172828
11	0x3d31f30d	0.043444682
12	0x3e4d46b9	0.2004651
13	0xbe8390a8	-0.256963
14	0xbe351507	-0.17683803
15	0x3d1889b0	0.037240684
16	0xbe59ff06	-0.2128869
17	0x3e4776b1	0.19478871
18	0xbda71b28	-0.081594765
19	0x3e4c9a16	0.19980654
20	0xbe355f65	-0.17712171
21	0x3d32f9e0	0.04369533
22	0x3dd054a7	0.10172396
23	0x3d97860b	0.073986135
24	0x3e0ed354	0.13947803
25	0xbde4c68a	-0.11170681
26	0xbd53c73c	-0.051703677
27	0x3e5d2fa9	0.21600212
28	0xbe3f6d6b	-0.18694083
29	0x3e2d2799	0.16909637
30	0xbdea3037	-0.114349775
31	0x3e375963	0.17905192
32	0xbdfeb85f	-0.1243751
33	0x3dfb0576	0.12256901
34	0x3e371d92	0.17882374
35	0x3cf646cd	0.030063057
36	0x3e546553	0.20741777
37	0xbe42806a	-0.18994299
38	0xbd620352	-0.055178948
39	0x3e149894	0.14511329
40	0xbda0afdb	-0.07846042
41	0x3e1f377c	0.1554851
42	0xbe6b607c	-0.22986025
43	0x3dd7ef99	0.105437465
44	0xbdd79552	-0.105265275
45	0x3e2b7413	0.16743498
46	0x3df6a534	0.12043229
47	0x3dd90dc1	0.105983265
48	0x3e039ace	0.12852022
49	0xbdb23989	-0.0870238
50	0xbce739b4	-0.028225757
51	0x3e1d2464	0.15345913
52	0xbdebe4e0	-0.11518264
53	0x3e2af91c	0.1669659
54	0xbd387212	-0.04503066
55	0x3d5c4afa	0.05378244
56	0xbdfc0626	-0.1230586
57	0x3ccc7597	0.024958415
58	0x3e3f347a	0.18672362
59	0x3e6b5db1	0.22984959
60	0x3d671aed	0.056422163
61	0xbc7b5f49	-0.015342542
62	0x3bbfe302	0.005855919
63	0xbc97bbe2	-0.018522207
64	0x3df0b16b	0.1175259
65	0x3df19cda	0.11797495
66	0xbc1679ef	-0.009184345
67	0xbd05799f	-0.03258669
68	0x3d301749	0.042990956
69	0x3d97d301	0.07413293
70	0x3de6a45b	0.11261817
71	0xbd0995eb	-0.03359024
72	0x3d8a9012	0.067657605
73	0x3c8a1d5f	0.016859708
74	0x3c08fa4f	0.0083604595
75	0xbdbaf2da	-0.091283515
76	0xbcea8e84	-0.02863241
77	0xbe059fbc	-0.13049215
78	0x3d0158dc	0.031578884
79	0x3db1c17d	0.08679483
80	0xbd4836e4	-0.048880473
81	0xbda92c11	-0.08260358
82	0xbe0437dc	-0.12911934
83	0xbbd36e00	-0.006452322
84	0x3d1e5ffa	0.03866575
85	0x3c7a5750	0.015279606
86	0x3dae7edf	0.085202925
87	0xbd832838	-0.064041555
88	0x3daf7c14	0.08568588
89	0x3dfea26e	0.12433325
90	0xbd22d5ea	-0.039754786
91	0xbd97924c	-0.07400951
92	0xbcd4c0ab	-0.025970777
93	0xbdd46e80	-0.10372639
94	0x3d890fd4	0.06692472
95	0xbcbdc5f5	-0.023165682
96	0x3d499bd3	0.04922087
97	0xbc68daf5	-0.01421236
98	0xbd7f50d0	-0.06233293
99	0xbdb30b30	-0.08742368
100	0xbdac6d2c	-0.084192604
101	0xbdb27e59	-0.08715505
102	0x3e00b485	0.12568863
103	0x3dc6e3cf	0.0971142
104	0x3dc8393f	0.09776544
105	0x3cb85648	0.02250208
106	0x3cc778cc	0.024349593
107	0xbd5caf1d	-0.05387794
108	0xbd08854a	-0.03333024
109	0x3e1dc15b	0.1540579
110	0x3b88ce7d	0.004175006
111	0x3dc04ad9	0.09389276
112	0x3d23e1b3	0.040010165
113	0xbcd55443	-0.026041156
114	0x3bd5d201	0.0065252786
115	0x3907cb0e	0.00012950247
116	0xbd447928	-0.047967106
117	0xbdab683e	-0.08369492
118	0x3d9358ca	0.071946695
119	0x3d66c275	0.056337792
120	0xbc85bda4	-0.01632578
121	0xbd7fcff1	-0.062454168
122	0xbd9d3078	-0.0767526
123	0xbdad51c1	-0.08462859
124	0x3e06429e	0.1311135
125	0xbc5ff0fc	-0.013668295
126	0x3c4ceb12	0.012507217
127	0xbdd23b95	-0.102652706
128	0x3df65228	0.12027389
129	0xbc4ded12	-0.012568729
130	0xbe1c2c31	-0.15251233
131	0x3d5b6a85	0.05356838
132	0xbd4d919c	-0.050187692
133	0x3e0f853b	0.14015667
134	0x3d8dd3f8	0.069251955
135	0xbdc1470d	-0.0943738
136	0x3cf611d0	0.03003779
137	0xbd968a81	-0.07350636
138	0xbd7c1929	-0.061547432
139	0x3cb4c383	0.022065884
140	0xbd508312	-0.05090625
141	0x3d8df61a	0.06931706
142	0xbdd5d01c	-0.10440084
143	0xbdbadeca	-0.09124525
144	0x3d8ce399	0.06879348
145	0x3dcb2d9c	0.09920809
146	0x3e140630	0.14455485
147	0xbe017017	-0.12640415
148	0x3db6081e	0.08888267
149	0xbe049099	-0.12945785
150	0xbd6022d0	-0.0547207
151	0xbcb299a7	-0.021801783
152	0xbdb507d9	-0.088393874
153	0x3be2adf7	0.006917711
154	0xbbdddf14	-0.0067709778
155	0x3b8ef5c3	0.004362793
156	0x3db93377	0.09043019
157	0x3e112da7	0.14177571
158	0x3dfe301f	0.12411522
159	0xbc8314ef	-0.016001193
160	0xbdd185ae	-0.102305755
161	0xbdd10292	-0.102055684
162	0x3e37838c	0.17921275
163	0xbb140434	-0.0022585513
164	0xbd44af4d	-0.048018742
165	0xbdd6b6e1	-0.104841
166	0xbe2236a9	-0.15841164
167	0x3dd03fb1	0.10168398
168	0xbd987181	-0.07443524
169	0x3c93035a	0.017945934
170	0x3e181e16	0.14855227
171	0xbd3d1255	-0.04616006
172	0x3d2cfa19	0.0422307
173	0xbd6a5cf3	-0.05721755
174	0xbd96512c	-0.07339701
175	0x3d51f83c	0.051262125
176	0x3dfa38d0	0.122178674
177	0xbcd02fb1	-0.025413366
178	0xbe057c0f	-0.13035606
179	0xbd97a910	-0.07405293
180	0x3d11aa81	0.035562996
181	0x3d915718	0.0709669
182	0x3d78c762	0.06073702
183	0x3d0b1b87	0.0339618
184	0xbcce3ff7	-0.025176985
185	0x3c06bb4b	0.008223365
186	0x3d877860	0.066147566
187	0x3d3a843d	0.04553627
188	0xbd342712	-0.043982573
189	0x3d3f9bd7	0.04677948
190	0xbc569f64	-0.013099525
191	0xbe0fb939	-0.140355
192	0xbcc4b202	-0.024010662
193	0x3defbc53	0.11705842
194	0xbc6ebd29	-0.0145714665
195	0x3cef19b0	0.029187053
196	0xbdde799f	-0.10863041
197	0xbda068ee	-0.07832514
198	0x3ddb344a	0.10703333
199	0x3b0c913c	0.002144887
200	0x3dfb6c51	0.12276519
201	0x3d6b1b6e	0.057399206
202	0x3c2d3d68	0.010573722
203	0x3db30299	0.0874073
204	0xbce83acf	-0.028348355
205	0xbccf7309	-0.025323408
206	0x3dfc6739	0.12324376
207	0xbd8337aa	-0.064071015
208	0x3c9e3887	0.019314064
209	0xbddf4dba	-0.10903497
210	0x3dd5a30e	0.10431491
211	0xbd88c9da	-0.06679125
212	0x3d02664e	0.031835847
213	0x3c287122	0.010280879
214	0x3daa7f02	0.08325006
215	0x3bda3c19	0.006659996
216	0xbd81e4fe	-0.06342505
217	0x3dd12e6b	0.10213932
218	0x3d08d07d	0.033401955
219	0xbd24648a	-0.040134944
220	0x3dd90142	0.10595943
221	0x3dc1bdb2	0.0946001
222	0x3caed26d	0.021340573
223	0x3dce6a00	0.10078812
224	0xbd13c2e7	-0.036074545
225	0x3db72a38	0.089435995
226	0xbdf0d5d6	-0.11759536
227	0x3d9e3e68	0.07726747
228	0xbd9b64bb	-0.07587572
229	0xbd75bbd8	-0.059993595
230	0xbb87da72	-0.0041459138
231	0x3d960e3e	0.07326935
232	0x3dc62d83	0.096766494
233	0xbdc168ce	-0.09443818
234	0x3e0456b2	0.12923697
235	0x3de292cd	0.11063156
236	0xbc442fe7	-0.011974311
237	0xbd1fc463	-0.03900565
238	0xbd49f810	-0.049308836
239	0xbc3a6a11	-0.011377827
240	0x3e164190	0.14673448
241	0x3d190dfa	0.037366845
242	0xbd894595	-0.06702725
243	0x3ddcd55b	0.10782882
244	0xbc76ad65	-0.015055989
245	0x3d9189a6	0.071063325
246	0xbe451a3c	-0.19248289
247	0xbd378653	-0.044805836
248	0xbc2cb54a	-0.01054127
249	0x3e52b30a	0.2057611
250	0x3cf4b0e4	0.029869504
251	0x3d9c184c	0.07621822
252	0xbd74ccb7	-0.059765544
253	0xbd03a472	-0.03213925
254	0xbe0f0b77	-0.13969217
255	0x3e1174c5	0.142047

mlp.1.bias f4 [36]
0	0x3e850df3	0.25987205
1	0xbdb99f30	-0.09063566
2	0x3dc6bea9	0.09704334
3	0xbe183dc4	-0.14867312
4	0x3e27d1fc	0.16388696
5	0xbdd8061f	-0.105480425
6	0xbdcc2a8c	-0.09969053
7	0x3e45a592	0.19301441
8	0x3a61e3c3	0.0008617008
9	0x3e6ce8fd	0.23135753
10	0x3e1b3dfa	0.15160361
11	0x3d8d3f9b	0.068968974
12	0x3ca93881	0.020656826
13	0xbcd909ee	-0.026493993
14	0x3e1e5498	0.15461957
15	0x3e3c7eda	0.18407765
16	0xbd3bbde7	-0.045835402
17	0x3e30e079	0.1727313
18	0x3d90efbb	0.07076975
19	0x3aef9529	0.0018278706
20	0xbdd8b4fb	-0.10581394
21	0x3e1c9df6	0.15294632
22	0x3d57c2b5	0.05267592
23	0x3c3ab245	0.011395042
24	0xbdc7661f	-0.09736275
25	0x3cbc617e	0.022995707
26	0xbd33adc4	-0.043866888
27	0xbbc69075	-0.006059701
28	0x3df224cd	0.118234254
29	0x3c36cbc6	0.011156982
30	0x3d8a5e22	0.06756236
31	0x3e3e6481	0.18593027
32	0x3c7e0a65	0.015505408
33	0x3df0c5e5	0.117564954
34	0x3daf35a8	0.08555156
35	0x3daece91	0.08535493

mlp.4.weight f4 [18, 36]
0	0x3e1f62e1	0.15565063
1	0x3ca4ef48	0.02013363
2	0xbd5f7899	-0.05455837
3	0xbc51e2df	-0.012810438
4	0x3db50b3c	0.088400334
5	0xbb116b66	-0.0022189259
6	0xbe008554	-0.1255086
7	0xbdc1fda1	-0.09472204
8	0xba0ce8b5	-0.0005375252
9	0xbdc3713c	-0.09543082
10	0xbddf33bc	-0.108985394
11	0xbddc7e62	-0.10766293
12	0xbe188d87	-0.14897738
13	0x3de23e0c	0.11046991
14	0x3d84e3b3	0.06488743
15	0xbdb8d81c	-0.090255946
16	0xbdefa4fa	-0.11701389
17	0xbcf6a90d	-0.030109907
18	0xbdd26581	-0.102732666
19	0xbd3b4e3f	-0.04572892
20	0xbe20da5f	-0.15708302
21	0xbd9c2f1e	-0.076261744
22	0x3e0c1bc0	0.13682461
23	0xbe05df35	-0.13073428
24	0xbdd3fbd3	-0.10350766
25	0xbd59c521	-0.053166512
26	0xbda2866a	-0.07935794
27	0x3e28120e	0.16413137
28	0xbb0cd78d	-0.0021490783
29	0xbe1820e4	-0.14856297
30	0x3daa1c02	0.08306123
31	0x3e1b7caa	0.15184274
32	0xbc7edb3d	-0.0155552
33	0xbdc9c271	-0.0985154
34	0x3da51be2	0.08061959
35	0x3cb6079f	0.02222043
36	0xbd11e238	-0.03561613
37	0xbde572f8	-0.11203569
38	0xbe0a78be	-0.13522622
39	0xbdadf291	-0.084935315
40	0xbe24f64e	-0.16109583
41	0xbddabfd5	-0.1068112
42	0xbded9e15	-0.116024174
43	0xbdb96a7f	-0.09053516
44	0xbdbee1bd	-0.093204
45	0x3d98cb5f	0.07460665
46	0xbd21bdfc	-0.039487824
47	0xbc15f248	-0.009152003
48	0x3daf5ddd	0.08562825
49	0xbe0e7809	-0.13912977
50	0xbe3354ab	-0.17512767
51	0x3db26561	0.08710743
52	0x3d65e116	0.05612286
53	0xbdd69b3d	-0.10478828
54	0x3de4c9f5	0.11171333
55	0x3cecec30	0.028921217
56	0xbc26d2d5	-0.010182102
57	0x3d56e7b3	0.05246706
58	0xbc18b90b	-0.009321461
59	0x3dc496a4	0.09599045
60	0x3e1ccc28	0.15312254
61	0xbdbed073	-0.09317102
62	0xbbdeb58f	-0.006796546
63	0x3e2e1a7b	0.17002289
64	0xbe228218	-0.1586994
65	0x3d8b43e8	0.068000615
66	0x3dc4f706	0.096174285
67	0xbd8e1079	-0.06936736
68	0xbd6c13d4	-0.057636097
69	0xbddfe53f	-0.10932397
70	0xbcf5286a	-0.029926497
71	0xbcf30890	-0.029667169
72	0x3c71dc9b	0.014762069
73	0x3ded9985	0.11601547
74	0xbd8c8148	-0.06860596
75	0x3e0b8071	0.13623215
76	0xbd7221c8	-0.059114248
77	0xbc5e0f82	-0.013553502
78	0xbd4d827d	-0.05017327
79	0xbda88acc	-0.082295984
80	0x3d1a2861	0.037636165
81	0xbe671189	-0.22565283
82	0x3d2263c8	0.03964594
83	0xbd877277	-0.06613629
84	0x3e18f9a5	0.14938982
85	0xbdca4afb	-0.09877583
86	0xbe547677	-0.20748316
87	0xbd05b5b3	-0.032643985
88	0xbda1cacd	-0.07900009
89	0xbe431da8	-0.19054282
90	0xbe817738	-0.2528627
91	0xbdfb7859	-0.12278814
92	0xbd6caed0	-0.0577839
93	0xbd12efb8	-0.035873145
94	0xbd2c3e3a	-0.04205153
95	0xbda2de80	-0.07952595
96	0xbe2b0a82	-0.16703227
97	0x3d622ed5	0.055220444
98	0x3d12b681	0.03581858
99	0x3d27bde8	0.040952593
100	0xbe45d033	-0.19317703
101	0x3b8831aa	0.004156311
102	0x3e30410b	0.17212312
103	0xbcd1f7f6	-0.025630932
104	0xbd87c73e	-0.06629799
105	0xbd016880	-0.0315938
106	0x3d81d5ad	0.063395835
107	0xbe391b74	-0.18076879
108	0x3e23671a	0.15957299
109	0xbe134fb2	-0.1438587
110	0xbe587e87	-0.21142016
111	0xbd649e3c	-0.055814967
112	0x3da2bf66	0.079466626
113	0x3d9df99b	0.07713624
114	0xbe164891	-0.1467612
115	0x3e61135a	0.21980038
116	0x3dfc9994	0.1233398
117	0x3de8a6b2	0.113599196
118	0x3e3045df	0.17214154
119	0xbd964f3d	-0.07339332
120	0xbe65fcd9	-0.22459735
121	0xbd72608f	-0.059174117
122	0x3cecf643	0.02892602
123	0x3d2fee8a	0.042952098
124	0x3e033ac9	0.12815394
125	0xbc8acad0	-0.016942412
126	0x3e152bb2	0.1456745
127	0xbde265f4	-0.11054602
128	0xbe12c68c	-0.14333552
129	0x3e0b0579	0.13576306
130	0x3e4c19a1	0.19931652
131	0xbe195422	-0.149735
132	0x3d790b5a	0.06080184
133	0xbde7e52a	-0.113230065
134	0x3e6a61d5	0.22888882
135	0x3c9b67b7	0.018970354
136	0x3e7bb419	0.2458042
137	0xbdce8b9f	-0.10085224
138	0xbd93e571	-0.07221497
139	0x3dc3dd52	0.09563698
140	0xbdc53b37	-0.09630435
141	0x3d6c6892	0.057716914
142	0xbe24de61	-0.16100456
143	0xbce4be66	-0.02792282
144	0x3d7d2834	0.06180592
145	0x3d2c7877	0.04210707
146	0x3d8aafcb	0.06771811
147	0x3d399d85	0.045316238
148	0xbe125ea6	-0.14293918
149	0xbdb5bb6d	-0.08873639
150	0xbdfdc45e	-0.1239097
151	0xbe2e8374	-0.17042333
152	0x3d6acfc8	0.057327062
153	0xbd193dd2	-0.037412472
154	0x3d6f1641	0.058370832
155	0xbdedccc0	-0.116113186
156	0xbb47f438	-0.0030510556
157	0x3da98257	0.082768135
158	0x3d397098	0.045273393
159	0xbe1a57de	-0.15072581
160	0x3e15effe	0.14642331
161	0xbdcf3f19	-0.10119457
162	0xbde6d14e	-0.112703905
163	0x3de4957a	0.11161323
164	0x3d5f94dc	0.054585323
165	0xbe22a91b	-0.15884821
166	0x3d374849	0.04474667
167	0xbde81db5	-0.11333791
168	0x3d0adc0f	0.03390127
169	0x3d43f9f9	0.047845814
170	0x3d45056f	0.048100885
171	0x3d502237	0.05081388
172	0xbe08a569	-0.13344349
173	0x3ca5af73	0.020225262
174	0x3cd82b0f	0.02638772
175	0x3df1a94e	0.117998704
176	0xbe2654d4	-0.16243297
177	0x3d46f088	0.048569232
178	0xbc764952	-0.015032129
179	0xbbad64c4	-0.005291553
180	0xbac08f85	-0.001469121
181	0xbd705e4d	-0.058683682
182	0xbe681552	-0.22664383
183	0xbd960e91	-0.07326997
184	0x3e681afe	0.22666547
185	0xbd45d67f	-0.048300263
186	0xbe0b54ed	-0.13606615
187	0x3bbdb5fa	0.0057895156
188	0x3cc5b02f	0.024131862
189	0x3e269ffe	0.1627197
190	0x3bfa9cde	0.0076480946
191	0xbd8b005f	-0.0678718
192	0xbe208861	-0.15677024
193	0x3e15f40b	0.14643876
194	0x3e759bf8	0.23985279
195	0x3e2a892c	0.1665389
196	0xbd05b22b	-0.032640617
197	0x3e5cfa5a	0.21579877
198	0x3e196b8a	0.14982429
199	0xbe77a96d	-0.24185725
200	0xbe420198	-0.1894592
201	0x3cf54bd6	0.029943388
202	0x3e6b4335	0.22974856
203	0xbd4a5485	-0.04939701
204	0xbe16df79	-0.14733686
205	0xbd9dc0bd	-0.077027775
206	0x3dd787ac	0.10523924
207	0xbe276d52	-0.16350296
208	0xbd5f19eb	-0.054468077
209	0xbe42dba3	-0.19029097
210	0xbd1f8a3d	-0.038950194
211	0x3e37c162	0.17944863
212	0xbe067d46	-0.13133726
213	0x3e3ecb4c	0.18632239
214	0xbc1ac2d7	-0.0094458675
215	0x3d740f17	0.059584703
216	0x3e865c93	0.26242504
217	0x3df37478	0.11887449
218	0xbe358376	-0.1772593
219	0xbd4142fd	-0.047183026
220	0xbbeabd8c	-0.007163709
221	0x3c613560	0.013745636
222	0x3b5a06f9	0.0033268316
223	0x3e4b7945	0.1987048
224	0x3c133fa6	0.008987343
225	0x3e309d16	0.17247424
226	0x3e0bffdc	0.13671821
227	0xbd28d12e	-0.041215114
228	0xbe028a4b	-0.12748067
229	0xbe0cdf27	-0.13757001
230	0x3cd9ca61	0.02658576
231	0x3db15c16	0.08660142
232	0xbd5bde37	-0.053678717
233	0x3e1c01ef	0.15235113
234	0x3e892bf1	0.26791337
235	0xbe110e94	-0.14165717
236	0xbdc99f82	-0.09844877
237	0x3daa29d2	0.08308758
238	0x3d6668e1	0.056252364
239	0x3d2d9668	0.042379767
240	0xbd194215	-0.037416536
241	0xbd1f4014	-0.03887947
242	0x3dfb97b8	0.122847974
243	0xbd37458c	-0.04474406
244	0x3e2d6d82	0.16936305
245	0xbe4a6f27	-0.19768964
246	0xbe241439	-0.1602334
247	0x3d7fbe56	0.062437378
248	0xbd9742c9	-0.07385785
249	0x3b9074ae	0.0044084406
250	0x3df813ac	0.12113127
251	0x3d805448	0.062660754
252	0xbe146001	-0.14489748
253	0x3c6d5431	0.014485405
254	0x3e2446d9	0.16042651
255	0xbcb57dde	-0.022154745

mlp.4.bias f4 [18]
0	0x3e10f5fb	0.14156334
1	0xbdefc290	-0.11707032
2	0x3cada178	0.021195158
3	0x3cc9c36e	0.024629321
4	0x3ddd972d	0.1081985
5	0x3e2ed620	0.1707387
6	0xbccd5b33	-0.025067901
7	0xbd40b50a	-0.047047652
8	0x3cc3d63e	0.02390587
9	0x3dec6601	0.11542893
10	0x3db33277	0.0874986
11	0xbd039dc4	-0.03213288
12	0xbe1f9789	-0.1558515
13	0x3d3d511a	0.046219923
14	0xbc7cf152	-0.015438395
15	0xbd67ee70	-0.056623876
16	0x3e2993cb	0.16560285
17	0x3dc64ebe	0.09682988

mlp.7.weight f4 [4, 18]
0	0x3dee0438	0.116218984
1	0xbdaa1210	-0.083042264
2	0x3d0bec59	0.034160946
3	0xbdd12604	-0.10212329
4	0xbe12e6f3	-0.14345913
5	0x3d250f9d	0.040298093
6	0xbe05fa9d	-0.13083883
7	0xbdb1ffa3	-0.08691337
8	0x3c9c4136	0.019074064
9	0x3e1eaa26	0.15494594
10	0x3e193cd0	0.14964604
11	0x3e1c22af	0.15247606
12	0xbdc3423e	-0.09534119
13	0xbcd127db	-0.0255317
14	0x3d07bf9e	0.033141725
15	0xbe42097a	-0.18948928
16	0xbe7cea06	-0.24698648
17	0xbe23063f	-0.15920351
18	0xbdcb190a	-0.09916885
19	0x3cb25bf6	0.021772366
20	0x3d2c2339	0.04202578
21	0xbe20e28d	-0.15711422
22	0x3e539355	0.20661671
23	0xbd6ab48c	-0.05730109
24	0x3d997472	0.07492913
25	0x3e7230ec	0.23651475
26	0x3e3b5c49	0.18296923
27	0xbe45c9eb	-0.19315307
28	0xbe686928	-0.22696364
29	0x3e3049b7	0.1721562
30	0x3d2bc6a8	0.0419375
31	0xbe08217b	-0.13294022
32	0xbe286938	-0.16446388
33	0xbea0c086	-0.31396884
34	0x3d045bd7	0.032314148
35	0xbe52f19f	-0.20599984
36	0x3e6dd821	0.23226978
37	0xbdec5a7d	-0.11540697
38	0xbea3cabd	-0.31990615
39	0x3ea0cf14	0.31407988
40	0xbda31489	-0.07962901
41	0x3e89550f	0.26822707
42	0x3e42f84d	0.19040032
43	0xbe4cd5e3	-0.20003466
44	0xbe20e8b8	-0.15713775
45	0xbe3c60c8	-0.18396294
46	0xbca564ac	-0.020189606
47	0x3e18ce2a	0.14922395
48	0x3e09dd53	0.13463335
49	0x3e69f097	0.22845684
50	0x3e9117fe	0.28338617
51	0x3e60d122	0.21954778
52	0x3d26478d	0.04059558
53	0x3e9f5ba2	0.31124598
54	0x3ca120b2	0.01966891
55	0x3dd82cb9	0.10555405
56	0xbd273a42	-0.040827043
57	0xbe7d3526	-0.24727306
58	0x3d0cc060	0.03436315
59	0xbe4e5a7e	-0.20151708
60	0xbc804a8d	-0.015660549
61	0x3e68b73e	0.22726151
62	0x3e5c237f	0.21497916
63	0x3e1d6f8e	0.15374586
64	0x3e30f54b	0.17281072
65	0x3e265be8	0.16245997
66	0xbdaca143	-0.08429196
67	0x3d4c249d	0.049839605
68	0xbe4baa3f	-0.19889162
69	0x3c1d7782	0.009611012
70	0xbd3b5c51	-0.045742337
71	0xbdb19634	-0.08671227

mlp.7.bias f4 [4]
0	0xbb976e83	-0.0046213283
1	0xbe86505f	-0.26233193
2	0x3d83050d	0.06397448
3	0xbe8c93cf	-0.2745652

norm_after_embedding.weight f4 [12]
0	0x3f84e7b0	1.0383205
1	0x3f7f8600	0.9981384
2	0x3f75f125	0.9607108
3	0x3f75edd9	0.9606605
4	0x3f8317a6	1.0241592
5	0x3f76c753	0.96397895
6	0x3f7d7435	0.9900544
7	0x3f7160f5	0.9428857
8	0x3f823908	1.0173655
9	0x3f79b7f5	0.9754632
10	0x3f828eda	1.0199845
11	0x3f86c58e	1.0529039

norm_after_embedding.bias f4 [12]
0	0xbd45c656	-0.04828485
1	0xbcae8f19	-0.021308469
2	0xbd2caea3	-0.042158734
3	0xbc82d22e	-0.015969362
4	0x3d2df832	0.042473026
5	0xbcb7d34b	-0.02243962
6	0x3c4a9294	0.0123640485
7	0xbd5873de	-0.052844875
8	0x3d4d8451	0.050175015
9	0x3ce1a1c1	0.02754295
10	0xbcd61a89	-0.0261357
11	0x3d71da9b	0.05904637

norm_after_attention.weight f4 [12]
0	0x3f8c4a0a	1.0960095
1	0x3f8f8a9e	1.1214178
2	0x3f8ce9a3	1.10088
3	0x3f8b3e20	1.0878334
4	0x3f8fc661	1.1232415
5	0x3f8e8c46	1.1136558
6	0x3f9006e6	1.1252105
7	0x3f8c806a	1.0976689
8	0x3f8a6a67	1.0813721
9	0x3f8e5f42	1.112282
10	0x3f8de4a4	1.10854
11	0x3f8ac82b	1.0842336

norm_after_attention.bias f4 [12]
0	0x3df5666b	0.11982425
1	0xbdfba817	-0.1228792
2	0xbdf29c26	-0.11846189
3	0x3e0b8301	0.13624193
4	0xbe01d1a6	-0.12677631
5	0x3e0f5086	0.13995561
6	0xbde97f5c	-0.11401245
7	0x3ddb5109	0.107088156
8	0xbdd6b3cc	-0.10483512
9	0x3df1cc14	0.11806503
10	0x3df6d277	0.12051862
11	0x3dd4a0ec	0.10382256

positional_encoding.pe f4 [1, 50, 12]
0	0x00000000	0.0
1	0x3f800000	1.0
2	0x00000000	0.0
3	0x3f800000	1.0
4	0x00000000	0.0
5	0x3f800000	1.0
6	0x00000000	0.0
7	0x3f800000	1.0
8	0x00000000	0.0
9	0x3f800000	1.0
10	0x00000000	0.0
11	0x3f800000	1.0
12	0x3f576aa4	0.84147096
13	0x3f0a5141	0.54030234
14	0x3e5ae952	0.21378067
15	0x3f7a14eb	0.9768817
16	0x3d3e0d1e	0.04639923
17	0x3f7fb96a	0.99892294
18	0x3c23d657	0.009999833
19	0x3f7ffcb9	0.99995
20	0x3b0d3164	0.0021544332
21	0x3f7fffd9	0.9999977
22	0x39f35a5c	0.00046415895
23	0x3f7ffffe	0.9999999
24	0x3f68c7b7	0.9092974
25	0xbed51133	-0.41614684
26	0x3ed5d9be	0.41767687
27	0x3f6899b9	0.9085956
28	0x3dbdd8b7	0.09269851
29	0x3f7ee5d1	0.9956942
30	0x3ca3d43e	0.019998666
31	0x3f7ff2e5	0.9998
32	0x3b8d314e	0.004308856
33	0x3f7fff64	0.9999907
34	0x3a735a5b	0.00092831784
35	0x3f7ffff9	0.9999996
36	0x3e1081c3	0.14112
37	0xbf7d7026	-0.9899925
38	0x3f1a2dc8	0.60226107
39	0x3f4c5d56	0.7982992
40	0x3e0e2117	0.1387981
41	0x3f7d85a8	0.9903207
42	0x3cf5b91f	0.0299955
43	0x3f7fe283	0.99955004
44	0x3bd3c9bf	0.006463259
45	0x3f7ffea2	0.99997914
46	0x3ab683c2	0.0013924765
47	0x3f7ffff0	0.99999905
48	0xbf41bdcf	-0.7568025
49	0xbf275530	-0.6536436
50	0x3f424dbe	0.75899875
51	0x3f26adf9	0.6510921
52	0x3e3d0773	0.18459873
53	0x3f7b99b2	0.98281395
54	0x3d23cbdb	0.039989334
55	0x3f7fcb94	0.9992001
56	0x3c0d30f8	0.008617632
57	0x3f7ffd91	0.99996287
58	0x3af35a54	0.0018566349
59	0x3f7fffe3	0.9999983
60	0xbf757c10	-0.9589243
61	0x3e913c2c	0.2836622
62	0x3f6171cf	0.88064283
63	0x3ef29363	0.47378072
64	0x3e6b8593	0.23000173
65	0x3f7922ff	0.97319025
66	0x3d4cb6f4	0.049979165
67	0x3f7fae19	0.99875027
68	0x3c307ce6	0.010771966
69	0x3f7ffc33	0.999942
70	0x3b181871	0.0023207928
71	0x3f7fffd3	0.9999973
72	0xbe8f0f8c	-0.2794155
73	0x3f75cdb8	0.96017027
74	0x3f762963	0.961569
75	0x3e8c938f	0.27456328
76	0x3e8cc0e9	0.2749093
77	0x3f7622e9	0.9614702
78	0x3d759cd1	0.059964005
79	0x3f7f8a12	0.99820054
80	0x3c53c89d	0.012926248
81	0x3f7ffa86	0.99991643
82	0x3b3683b7	0.0027849504
83	0x3f7fffbf	0.9999961
84	0x3f283046	0.6569866
85	0x3f40ffbd	0.75390226
86	0x3f7f7f41	0.9980355
87	0x3d804f23	0.06265094
88	0x3ea3716a	0.31922466
89	0x3f729b18	0.94767904
90	0x3d8f3e32	0.06994285
91	0x3f7f5f81	0.997551
92	0x3c771415	0.0150804715
93	0x3f7ff88c	0.9998863
94	0x3b54eef8	0.003249107
95	0x3f7fffa8	0.99999475
96	0x3f7d4695	0.98935825
97	0xbe14fdf6	-0.14550003
98	0x3f7d04e9	0.9883562
99	0xbe1bcf59	-0.15215816
100	0x3eb9c7cb	0.36285242
101	0x3f6e8d80	0.9318466
102	0x3da3aa50	0.07991469
103	0x3f7f2e65	0.9968017
104	0x3c8d2fa1	0.017234625
105	0x3f7ff644	0.99985147
106	0x3b735a38	0.0037132632
107	0x3f7fff8c	0.9999931
108	0x3ed30132	0.4121185
109	0xbf693fd5	-0.91113025
110	0x3f6ed7af	0.9329786
111	0xbeb84901	-0.35993198
112	0x3ecfb7ba	0.4056986
113	0x3f69fc5c	0.91400695
114	0x3db8123e	0.089878544
115	0x3f7ef6c2	0.9959527
116	0x3c9ed50c	0.019388698
117	0x3f7ff3ae	0.999812
118	0x3b88e2ba	0.0041774185
119	0x3f7fff6e	0.9999913
120	0xbf0b44f8	-0.5440211
121	0xbf56cd64	-0.8390715
122	0x3f559f61	0.8344632
123	0xbf0d1282	-0.55106366
124	0x3ee5351e	0.44767088
125	0x3f64ea30	0.8941984
126	0x3dcc7576	0.099833414
127	0x3f7eb898	0.9950042
128	0x3cb07a47	0.021542681
129	0x3f7ff0ca	0.9997679
130	0x3b981856	0.004641573
131	0x3f7fff4b	0.9999892
132	0xbf7fff5c	-0.9999902
133	0x3b910572	0.004425698
134	0x3f328683	0.697365
135	0xbf377ab6	-0.7167162
136	0x3efa341d	0.48867884
137	0x3f5f59c9	0.87246376
138	0x3de0d372	0.1097783
139	0x3f7e73e8	0.9939561
140	0x3cc21f4c	0.023696564
141	0x3f7fed99	0.9997192
142	0x3ba74df0	0.0051057264
143	0x3f7fff25	0.99998695
144	0xbf095cd8	-0.53657293
145	0x3f5806d0	0.84385395
146	0x3f072c85	0.52802306
147	0xbf596723	-0.84923
148	0x3f075491	0.52863413
149	0x3f594e38	0.8488498
150	0x3df52bac	0.119712204
151	0x3f7e28b5	0.99280864
152	0x3cd3c416	0.025850337
153	0x3f7fea19	0.9996658
154	0x3bb68388	0.005569879
155	0x3f7ffefc	0.9999845
156	0x3ed72022	0.42016703
157	0x3f684e6f	0.9074468
158	0x3eab250b	0.334267
159	0xbf714644	-0.9424784
160	0x3f114474	0.56745076
161	0x3f52cad2	0.8234073
162	0x3e04bed0	0.12963414
163	0x3f7dd700	0.9915619
164	0x3ce568a0	0.02800399
165	0x3f7fe64c	0.9996078
166	0x3bc5b91d	0.00603403
167	0x3f7ffecf	0.9999818
168	0x3f7d9872	0.9906074
169	0x3e0c04d7	0.13673721
170	0x3e000e9c	0.12505573
171	0xbf7dfd86	-0.9921497
172	0x3f1ae43c	0.6050451
173	0x3f4bd330	0.7961912
174	0x3e0ee464	0.13954312
175	0x3f7d7ecc	0.990216
176	0x3cf70ce4	0.030157514
177	0x3f7fe231	0.99954516
178	0x3bd4eeaf	0.00649818
179	0x3f7ffe9e	0.9999789
180	0x3f267944	0.65028787
181	0xbf427ae8	-0.7596879
182	0xbdb8315e	-0.08993791
183	0xbf7ef668	-0.99594736
184	0x3f242e9a	0.6413361
185	0x3f446b28	0.7672601
186	0x3e19064f	0.14943813
187	0x3f7d201a	0.9887711
188	0x3d04586e	0.032310896
189	0x3f7fddc8	0.99947786
190	0x3be4243e	0.006962328
191	0x3f7ffe69	0.99997574
192	0xbe936810	-0.2879033
193	0xbf75292c	-0.9576595
194	0xbe99fee8	-0.3007729
195	0xbf742568	-0.9536958
196	0x3f2d1e6f	0.6762456
197	0x3f3c96d0	0.7366762
198	0x3e232450	0.15931821
199	0x3f7cbaed	0.98722726
200	0x3d0d2a43	0.034464132
201	0x3f7fd911	0.9994059
202	0x3bf359ca	0.007426475
203	0x3f7ffe31	0.9999724
204	0xbf761e25	-0.96139747
205	0xbe8ce236	-0.27516335
206	0xbefed2b0	-0.49770117
207	0xbf5e0a8e	-0.86734855
208	0x3f35aecd	0.7096985
209	0x3f345a7a	0.70450556
210	0x3e2d3e23	0.16918235
211	0x3f7c4f49	0.9855848
212	0x3d15fbec	0.036617205
213	0x3f7fd40d	0.9993294
214	0x3c0147a9	0.00789062
215	0x3f7ffdf6	0.9999689
216	0xbf4040b3	-0.75098723
217	0x3f290a84	0.6603167
218	0xbf2bef22	-0.6716176
219	0xbf3dab7d	-0.74089795
220	0x3f3ddafb	0.7416226
221	0x3f2bbaaf	0.6708173
222	0x3e375387	0.17902957
223	0x3f7bdd2e	0.9838437
224	0x3d1ecd67	0.038770106
225	0x3f7fceba	0.99924815
226	0x3c08e26c	0.008354764
227	0x3f7ffdb6	0.9999651
228	0x3e197969	0.1498772
229	0x3f7d1bbf	0.9887046
230	0xbf5081ce	-0.81448066
231	0xbf148760	-0.58019066
232	0x3f459e78	0.7719493
233	0x3f22bc32	0.63568413
234	0x3e41643a	0.1888589
235	0x3f7b64a1	0.9820042
236	0x3d279eb3	0.04092283
237	0x3f7fc91a	0.9991623
238	0x3c107d2c	0.008818906
239	0x3f7ffd74	0.99996114
240	0x3f69b6c8	0.9129453
241	0x3ed0f022	0.40808207
242	0xbf6b7075	-0.9196847
243	0xbec90a6e	-0.3926577
244	0x3f4cf4fc	0.80061316
245	0x3f1963f7	0.5991816
246	0x3e4b6ff8	0.19866931
247	0x3f7ae5a5	0.9800666
248	0x3d306fcb	0.043075364
249	0x3f7fc32c	0.99907184
250	0x3c1817eb	0.009283046
251	0x3f7ffd2d	0.9999569
252	0x3f562f10	0.8366556
253	0xbf0c37fc	-0.54772925
254	0xbf7b7c53	-0.9823658
255	0xbe3f74d9	-0.18696918
