models/jsp.pth (torch, 36481 bytes, 19 tensors)

state_embedding.weight f4 [12, 6]
00000000: 125d a73e 9e05 b13e 844e b5bd d102 c03e
00000010: c148 8abd 1f61 c13d e1a1 3cbe 9617 803e
00000020: 231d bb3e 6358 99be 2030 b93e fa59 af3d
00000030: dab2 963e ca55 1c3d e034 3e3e f518 6cbd
00000040: 65b4 9a3e 2b7f 3b3d a1e0 39be 27ec e53d
00000050: ae1d 3bbe 171a 44bd 020c 24be 770c 8e3e
00000060: 3670 aabe de4d 5fbe 92fa 13be 165c 7bbe
00000070: 521f faba a6e0 debe da14 c53e a602 afbe
00000080: 72cf a43e 4d24 8b3d 96bb 00be 2d9a 833e
00000090: 8034 253d d9fa a03e 56d5 063d 30d7 03be
000000a0: 8f2a b13d 3ea2 03be 041b 253e c6fb b33e
000000b0: 07f3 633e 23c2 36be 1b18 5a3e 8e78 793d
000000c0: 6219 5e3e 467a 67be 8f06 c8be 3e84 21be
000000d0: ed99 93be 0e58 b93e 06bd 0c3e 763c 4b3e
000000e0: 615b 1c3e dcb6 e8bb 74d5 b63e 8f0e 86be
000000f0: 851d 063c 0515 91be f09a f13d bdf7 0fbe
00000100: 08c7 f63d 1fe1 b6bd 9dfb 9f3e ea08 8abe
00000110: 915e 88be 4656 79be 69f2 aa3e 7129 dd3d
0.32688195 0.34574598 -0.08852866 0.3750215 -0.06752158 0.094423525 -0.18421127 0.25017995
0.36545667 -0.29950246 0.3616953 0.085620835 0.29433328 0.038167752 0.18574858 -0.05764099
0.30215755 0.045775574 -0.18152095 0.11226683 -0.1827304 -0.047876444 -0.16020206 0.27743885
-0.33288735 -0.21807048 -0.14451054 -0.24546847 -0.001908282 -0.43530768 0.3849247 -0.34181708
0.32189518 0.06794033 -0.12571558 0.25703564 0.04033327 0.31441382 0.032918297 -0.12875056
0.086506955 -0.12854859 0.16123587 0.35153025 0.22260676 -0.17847495 0.21298258 0.060905986
0.2168937 -0.22605237 -0.39067504 -0.15773103 -0.28828374 0.36199993 0.13743982 0.19847283
0.15269233 -0.0071018767 0.35709727 -0.26182982 0.008185749 -0.2833635 0.1179713 -0.14059348
0.12049681 -0.08929657 0.31246653 -0.26959926 -0.26634648 -0.24349317 0.3338807 0.1079892

state_embedding.bias f4 [12]
00000000: 1ed7 cf3e 14dc a2be 7076 d7be d542 a2be
00000010: 392b 9cbe 1381 323e 6234 043e 7bcf a83e
00000020: ff3a 40be c535 7ebe 77d0 503e b516 49be
0.4059381 -0.3180853 -0.42082548 -0.31691614 -0.30501726 0.1743205 0.12910607 0.32970795
-0.18772505 -0.24825199 0.20392023 -0.19637568

attention.in_proj_weight f4 [36, 12]
00000000: 2fcc 033e 946c 29be 3535 71bd 8a4c 5dbe
00000010: 5da5 a5bd c38f 7bbe beaf 7abe c97e 0d3e
00000020: 6c3e f5bd 945d 703e 4ace fcbd 8fe3 81be
00000030: f9cb 53bd 7b04 34be a6d3 00be 937b a4be
00000040: 639c 573e 0784 7abe 0459 4a3e 3611 153e
00000050: 94c0 883e f89b 94be da73 8b3e 924a 36be
00000060: 054e d53d a508 ae3e 7226 19bd 6616 8ebc
00000070: 4b87 c2bd 815b 97be aebc 253e ae70 abbe
00000080: e0af 483e a16e 913e 9bd6 a93e 7f4d 7abd
00000090: 7768 9abe d016 a93d 8658 3a3e 5595 b1be
000000a0: 0d3a 87bd 569c 66be 6b9c 77bc eab6 3fbe
000000b0: a11e 17be ac9e dfbd 5c0e a1be f817 953e
000000c0: f603 973e 33de 65bd acd5 3fbd 9279 12be
000000d0: 8088 a3be e60f aebe a5a1 053e f9eb 3ebe
000000e0: 4126 69be 0fff d3bc 87d3 dabd 11c3 edbd
000000f0: 15d4 153c 747f abbd 2467 f6bd 371d 32be
00000100: 0c85 91be ba1c 963e 43eb 02be ffae b93d
00000110: 75ae f9bd 7f09 fd3c c9f0 ad3e 07ce 283e
00000120: 1c1b 8fbe 7a52 e93d 87e7 a03e 95e7 f53d
00000130: 975b 863e 5049 ba3e ea76 33bd f817 2c3d
00000140: beaf 59be eaf5 c9bd ea63 8c3e 03eb 243e
00000150: 9eb8 4abe 3941 9ebe 723e 88be 0d83 a4be
00000160: 1178 7bbe a075 aebd d825 833e ccb0 d13c
00000170: 311f 74be eff6 9cbe 23d9 453e d39a 91be
00000180: b911 8abd ef40 3e3e 6664 0cbe 19d5 89bd
00000190: b6a1 74bd 5d95 9cbd 33cd 51be d18a 90be
000001a0: 3989 a2be 3178 2cbe fbca 9f3e 0058 12be
000001b0: 28dd 7ebe 0154 c33d 4281 ec3d e004 293e
000001c0: d1c4 7c3e 5797 4a3e 2712 bbbe d2ed 5e3d
000001d0: 1d9e 443e 5fd8 0dbc c27c 64be 8f81 b73e
000001e0: e133 0dbe 987c 43be 66d9 a0be 023c bb3c
000001f0: 7a3e 193e 34d6 933d 0dfd 733d 8a9a 85be
00000200: d49e acbe aa57 d33b c6d6 9f3e 5c5f 533e
00000210: 86b0 4ebe 3223 43bd 4069 94be 3cc8 0ebe
00000220: 6485 af3d 8b4d 3e3e b884 9a3e 499b afbe
00000230: a2b0 833e 27e9 86be 1467 1a3e bc41 8e3e
00000240: b414 fd3b 549f aa3e a6db 98be 7611 14be
00000250: 44cd 5a3e cf27 cabd 4d7b 94bd 4636 19be
00000260: f6ed 753e 40f4 3b3e a0b9 e83d abb5 51be
00000270: ee24 97be 263d 003d 38d6 cc3d 5341 17be
00000280: 1ee8 ccbd d6be 803e 788a cb3c 0b37 ca3c
00000290: 2f43 b4bd 4503 adbe b551 aabe 263d 25be
000002a0: 0464 42be 5360 e23d dcb0 d9bd 073b 05be
000002b0: c48e ac3e 070c f03d c2ae 7b3e 4c27 3bbe
000002c0: 6cff 19be da6d 043e e1ac 66be 1a07 4dbe
000002d0: 6a57 06bd 7c43 eebd 5397 86be 0d9a 433e
000002e0: 4932 973e 612a 3d3d 0e1b 83bd 7880 a7be
000002f0: 5b7e 0fbe 088f e83d e5b9 2f3e 385d 5cbd
00000300: ec5d 08be d490 473e b498 8ebe 0c10 5c3e
00000310: 0f2c 0dbe e994 d23b 696c 8fbd 15b7 1a3d
00000320: fe94 cbbd 704a 833e 608d 69bb ed09 8c3e
00000330: 93ea af3e c86b 2cbe 2e29 89be 6b0e 8a3e
00000340: 0e86 8e3e df12 8bbe 84b7 17bd ad4f b2be
00000350: 3b48 91be a782 983d 8ece b73d 9bdd 983d
00000360: 5b72 a4bd 958d 993e 63ce 213d 130e 56be
00000370: 9759 0fbd a459 dc3d 3f92 0e3e cd94 7dbe
00000380: 8758 1f3e 43d5 45be 54d6 97be f8b3 46be
00000390: 72e1 b23e b03a 943e e35d 993e 0dc5 603e
000003a0: 4a55 873e b9b0 10bd 322d 4cbe 222e 2f3e
000003b0: e46c 30be 2aeb 7fbe c10e d5bd 8225 b63d
000003c0: fd26 2f3e 7994 00be d9f8 52be 7546 473d
000003d0: 38e2 49be e786 7cbe a7a7 403e 3ee7 60bd
000003e0: 0c92 9e3e 143f ae3e 3e84 f33d 2159 083e
000003f0: 8af0 a63d 1860 f33a 4598 05bd 9fc5 fdbb
0.12870859 -0.16545326 -0.058888633 -0.21611229 -0.08088181 -0.2456656 -0.24481103 0.13817896
-0.11974797 0.23473197 -0.12344034 -0.25368926 -0.051708195 -0.17579834 -0.12580737 -0.3212553
0.2105575 -0.24464427 0.1976052 0.14557347 0.26709425 -0.29025245 0.27236825 -0.17801884
0.10415272 0.3399097 -0.03739018 -0.017344665 -0.09498461 -0.29562 0.16185257 -0.33484405
0.19598341 0.28404716 0.33171543 -0.061109062 -0.30157825 0.08256304 0.18197832 -0.34684244
-0.06602869 -0.22520575 -0.015112977 -0.1872212 -0.14757778 -0.10918936 -0.31456268 0.2911985
0.2949521 -0.05612011 -0.046834633 -0.14304188 -0.3194008 -0.33996505 0.13049944 -0.18644704
-0.22768499 -0.025878457 -0.10684877 -0.116094716 0.009144803 -0.08373919 -0.12031391 -0.17393957
-0.2842182 0.29318792 -0.12785058 0.09066581 -0.12191478 0.030888317 0.33972767 0.16484843
-0.2795037 0.11392684 0.3142664 0.120070614 0.26241753 0.36384058 -0.043814577 0.042015046
-0.21258447 -0.098613575 0.27419978 0.16105275 -0.19796988 -0.30909136 -0.26610142 -0.32131234
-0.2455752 -0.08518529 0.2561481 0.025596999 -0.23840024 -0.30657145 0.19321112 -0.28438434
-0.067416616 0.18579458 -0.13710174 -0.06730098 -0.059724532 -0.07645676 -0.20488434 -0.2823091
-0.31745318 -0.16842724 0.3120955 -0.14291382 -0.24889052 0.09537507 0.115480915 0.16505766
0.24684455 0.19784294 -0.36537287 0.054426022 0.1920094 -0.008657544 -0.22313216 0.35841033
-0.13789321 -0.19090497 -0.31415862 0.022855762 0.14965239 0.072185904 0.0595675 -0.26094466
-0.33714926 0.0064496594 0.31218547 0.20641845 -0.20184526 -0.047640987 -0.2898655 -0.13943571
0.08570364 0.18584268 0.3017938 -0.3429816 0.25720698 -0.26349756 0.15078384 0.27784526
0.0077234153 0.33324683 -0.29855078 -0.14459786 0.21367365 -0.09870874 -0.0725008 -0.1496211
0.24016556 0.18354893 0.1136353 -0.20479457 -0.29520363 0.031308316 0.100017965 -0.14771013
-0.1000521 0.25145596 0.0248463 0.02468445 -0.08801877 -0.33791557 -0.33265463 -0.16136608
-0.18983465 0.11053529 -0.106294364 -0.13010798 0.33702672 0.11721044 0.24578384 -0.1827671
-0.15038842 0.1293253 -0.22526886 -0.2002224 -0.03279821 -0.116339654 -0.26287326 0.19101734
0.29530552 0.046182994 -0.06401645 -0.327152 -0.14013045 0.11355406 0.17160757 -0.053799838
-0.13317078 0.19488841 -0.27850878 0.21490496 -0.13786338 0.006426443 -0.070030995 0.037772257
-0.099405274 0.2564273 -0.0035637245 0.27351323 0.34358653 -0.1683799 -0.2678923 0.26964125
0.2783665 -0.27162835 -0.03704025 -0.34826413 -0.2837542 0.07446795 0.08974944 0.07464143
-0.08029624 0.2999083 0.039503466 -0.20903806 -0.03499755 0.10759285 0.13922976 -0.24763794
0.15561114 -0.19319634 -0.29655707 -0.1940459 0.34937626 0.28951025 0.29954442 0.21950169
0.26432258 -0.035324786 -0.19939116 0.17107442 -0.17229038 -0.24992052 -0.10403205 0.08893873
0.17104717 -0.12556638 -0.2060274 0.048651177 -0.19715202 -0.24660836 0.18813954 -0.05490803
0.309708 0.340325 0.118904576 0.1331525 0.08151348 0.0018568067 -0.03261592 -0.0077445055

attention.in_proj_bias f4 [36]
00000000: 08bb 953c c538 90bc 907a 9b3c a769 15bc
00000010: cc5d 0b3b e586 51ba a9c9 e1bc 2104 f1bc
00000020: 2237 083d 651a d33c be79 4e3b 6b8c c8bc
00000030: 0516 d8b7 53d9 a138 11de 17b7 edfa e837
00000040: 5029 4437 c338 9e37 690c 9e36 bdc3 8236
00000050: 2c32 4537 78ff 4a36 b780 8b37 4b97 2438
00000060: d58f 1cbb aed1 83bc 562b 073d f682 94b9
00000070: 846f 273c cb53 50bc 6f68 15bc 9ba7 07bd
00000080: 25a5 403d 2858 b8bb 0a91 2dbd 33bc 2abc
0.01827766 -0.017605195 0.01897934 -0.009119428 0.0021265624 -0.0007992818 -0.02756198 -0.029420914
0.033255704 0.025769422 0.003150567 -0.024481019 -2.575946e-05 7.717558e-05 -9.052005e-06 2.7773402e-05
1.1692129e-05 1.88615e-05 4.7102117e-06 3.897089e-06 1.1753797e-05 3.0249048e-06 1.6630029e-05 3.924155e-05
-0.0023889442 -0.016091194 0.033000313 -0.00028326333 0.0102194585 -0.01271529 -0.009119137 -0.033118825
0.047032494 -0.0056257434 -0.04237465 -0.010420847

attention.out_proj.weight f4 [12, 12]
00000000: acc8 403e 8850 a2bd 53f7 163e bc3c 69be
00000010: 05bc 1bbe e7f7 bd3d f873 443d 30f9 83bd
00000020: baa1 2f3e 6fb2 423e fe0c 4abe edd5 29be
00000030: e059 8b3e 1f52 d7bd e732 d0bd 3ca6 8bbe
00000040: b24c 1fbe 1458 7e3d 7f80 31bd 2faf 50be
00000050: c9bc 68bb 8952 44be aee7 6dbe 33e5 29be
00000060: db83 65be 23db 55be 189f 933e b4d5 a53d
00000070: 8384 e33d 2eb0 90be bd3d 5abe a0a8 8abd
00000080: f65e 463d 9d4b 76be a02a d1bd 56ad 52be
00000090: 8af9 973c a01a 01be 0b20 52bc d8aa 42be
000000a0: 07f6 42be 5c17 2dbe 9381 efbd 93e7 58be
000000b0: ef22 833e 4f83 80bd f3ec 793e cea5 973d
000000c0: 50ec 81be 6fea 543e a4ad 91bd 39a2 debd
000000d0: 14ff 74be e4f6 91be b83e c03d 5900 9bbd
000000e0: 22d6 f03d 086f 78be 8573 4e3e 4918 50be
000000f0: 77ae 58bd 7060 7e3d 54c8 183e 8eac 6c3e
00000100: 2dc8 843e 284a 66be a265 933d fad3 f9bd
00000110: 479a 2ebd 1270 56be faa8 863e a7f0 59be
00000120: 0185 2f3e 43bb aa3d 7f15 eb3d 2269 17be
00000130: 4b85 8d3e 4118 5d3d 7a35 cb3c 1717 6dbe
00000140: 4c10 0f3e 76f1 04bd 1ec1 12be 9d36 6e3e
00000150: 1c24 1d3d 828f 0bbe e29b 10be 6417 99bc
00000160: 4d82 153e 924c 88bd aefa 0cbe 07e7 f4bd
00000170: 404a 64be 63d8 d73d d967 533e 1310 7bbe
00000180: 0efb 923d 95c1 133e c1a7 883d 11ba d0bd
00000190: 13fa 223e 093c 1a3e 1535 c83d 2e11 44bd
000001a0: df63 6abd 9b61 083d 2ff1 82bd 6790 b7bd
000001b0: 89ca 3a3e e58f 813e 5ada 64bd 501f 95bd
000001c0: 8fba 5abc 7c42 ebba d585 883d 8fea 953d
000001d0: 5310 88be 76bd 01be eb61 843e a8bc f23d
000001e0: 04f9 ebbc 143b 24be b7a2 48be 0861 8cbe
000001f0: 7a86 dfbd a99b e03d 170b 4b3e 6e16 f03d
00000200: 9ff7 7bbe c107 3cbe cebc 51bd d465 963e
00000210: b415 a03c 85c4 59bd 2540 fc3d c3a6 f8bd
00000220: ede4 47be 4fa1 533e 73fb e6bd 0840 a2bd
00000230: f926 9cbe 9c42 463e 3c1e 5b3e d30c 013e
0.1882655 -0.07925516 0.14742784 -0.22777075 -0.15208443 0.09275799 0.04796216 -0.06444013
0.17151538 0.1901338 -0.19731519 -0.16585512 0.27217007 -0.1051371 -0.10165959 -0.27275264
-0.155566 0.062095717 -0.043335434 -0.20379327 -0.0035512915 -0.1917211 -0.2323291 -0.16591339
-0.2241358 -0.20884375 0.28832316 0.08097401 0.11109259 -0.28259414 -0.21312614 -0.06770444
0.048430406 -0.24052282 -0.10213208 -0.20573935 0.018551607 -0.12607813 -0.012825022 -0.19010484
-0.19039164 -0.16903442 -0.11694636 -0.21182089 0.2561259 -0.06275045 0.24406795 0.074046716
-0.25375605 0.20792554 -0.071131974 -0.10870785 -0.2392543 -0.28508675 0.09386963 -0.07568426
0.117595926 -0.24261105 0.20161255 -0.20321764 -0.052900758 0.06210369 0.14920169 0.231127
0.25933972 -0.22489226 0.07197119 -0.121986344 -0.0426276 -0.20941189 0.26300794 -0.21283208
0.1714058 0.083364986 0.114787094 -0.14786199 0.27640757 0.05397821 0.024805773 -0.2315334
0.1397106 -0.032456838 -0.14331481 0.23263021 0.038364515 -0.13628963 -0.14121965 -0.018687911
0.14600487 -0.0665523 -0.13767502 -0.119581275 -0.22293949 0.10539319 0.20645083 -0.2451785
0.07176791 0.14429314 0.066726215 -0.10191739 0.15915708 0.15061964 0.097757496 -0.047867946
-0.05722415 0.03329621 -0.06393658 -0.089630894 0.18241324 0.25305095 -0.0558723 -0.07281363
-0.013350143 -0.0017948891 0.066661514 0.07320129 -0.26574954 -0.1266993 0.25855955 0.118523896
-0.028805263 -0.16038162 -0.19593321 -0.2741778 -0.10914321 0.1096719 0.19828449 0.11723028
-0.24606179 -0.18362333 -0.05120545 0.29374564 0.019541599 -0.05316593 0.12316922 -0.12141182
-0.19520922 0.20667003 -0.11278429 -0.07922369 -0.30498484 0.19361347 0.21398252 0.12602548

attention.out_proj.bias f4 [12]
00000000: bbc1 5b3c 232a b13b 23f0 043d c970 8e3c
00000010: 2f47 0fbc 8e47 b4ba 0be5 9e3c cdfd e0bc
00000020: ed2f 963b 83e2 8bbb 64bb 85bc f22c b7bc
0.013412888 0.0054066344 0.032455575 0.017387765 -0.008744999 -0.0013754235 0.019396326 -0.027464772
0.00458335 -0.0042689457 -0.016324706 -0.022360299

mlp.1.weight f4 [36, 60]
00000000: 910b 083e 28ce 8a3d 7d54 a3bd 9036 c53d
00000010: bf99 09bd c73c bebc d2d8 e8bd 3ea5 95bc
00000020: 9aaa ba3d 37de 773c b6ea a5bd 2410 043d
00000030: 61bb 10bd 216a f63d 67ac d0bd b83a 4abd
00000040: cc12 07be 0e2f 3ebd 4d9c 323d f937 033e
00000050: 5122 db3c 458e fb3d 3d36 a23c 1ae6 8b3d
00000060: 8c32 e03d 81f9 e23d 0202 7fbd 93a8 ee3d
00000070: ccc7 943d 2bc5 69bd 69e3 6cbd 4754 d9bd
00000080: 680e 0a3d 29d8 debd 15c1 443d 3605 073d
00000090: 7c62 d8bd c098 1a3d 5a7f feba 2032 543d
000000a0: 4d49 843d 73b2 03be f6cd fb3d 59ce e53d
000000b0: dde9 583d fc2d f6bd 12ec 41bd 5c08 1fbd
000000c0: 5b7d eabc fae2 9c3d 1da8 613d a654 ce3d
000000d0: 71b1 5dbd b8fb 3a3d 8daf 4b3d 9c91 d2bd
000000e0: 903c fbbd d448 90bd b3bb ad3d d449 04be
000000f0: 2550 e5bd b823 8e3d 35fd 4f3d ecda db3d
00000100: d5b5 bfbd 797b c6bd 486e 893d a7a2 e33d
00000110: 25d2 a13d a8de 093d 2fa1 393d ca57 0c3e
00000120: c743 a3bd 9ba1 76bd 31bb 8c3d 4818 b7bd
00000130: 45b6 88bd 630e b83d 793d 163d f454 283d
00000140: 7071 54bd 82da 303c 25cd fb3d 4ab4 81bd
00000150: 8ee7 c83a feda 753d 3472 ddbd 6c98 fe3d
00000160: 284a 70bd 41a5 0bbd 54a8 2cbd f9dd adbd
00000170: 6d43 00be d107 af3d e741 1c3d 7aad e4bd
00000180: 2186 a0bd 24c3 023e 0fd1 e03c 5fea 493d
00000190: 56ec 99bd 9432 7fbd 2805 a6bc 199f d8bc
000001a0: 2f69 aebd e712 bc3c bf5c ac3c 533d 02ba
000001b0: 59e6 983c b2e5 55bd bd1b 323c a642 443d
000001c0: 7486 87bd 579d 07be 6735 803d aa71 fb3c
000001d0: c874 84bd d850 0b3e 8b23 58bd 7861 d53d
000001e0: 2aaf 873d 00a8 d8bd f40e 813d d60e eabd
000001f0: 59d5 90bd a4eb ecbc 45cb aebd 77b4 fc3d
00000200: df65 eebc 9c93 833d 374a dfbd 6fdf b43d
00000210: 6e32 1ebd 2e15 bbbd a7c3 5abb 4366 8d3d
00000220: f62f e83d 1fb4 b0bd 69ea 84bd a63e bc3c
00000230: e52b fa3c 9a3a 7b3d 1d99 973d ec97 b9bc
00000240: 6ef3 953d 0ed2 d33d 3a56 62bd bdfb cd3d
00000250: 734f 863d ae48 d73d 8296 9ebd 762b 86bd
00000260: aefd 3bbd c880 853c 7b85 a33d 970d 7ebd
00000270: cd78 8c3d 58d5 0dbd d713 6a3d f573 953b
00000280: e49a e9bd ad1a a9bd 4a74 c0bd e4a4 7c3d
00000290: 8b73 c7bd c387 18bb 5d8f 083d 7bbf 81bd
000002a0: b62a 263d dea3 efbd bd0f edbd a591 dabd
000002b0: e543 23bd a352 68bd 679b 903c 59b0 d3bc
000002c0: 42aa 4c3d fe42 033e b4b0 503d 8ad8 22bd
000002d0: b14c 03be e0b9 183d cb10 80bd 1733 723d
000002e0: 8b21 b53d a877 653d c4af ff3d 66b9 f83d
000002f0: 76e7 0a3d ad70 c2bd 86a5 f93d e19c 8abd
00000300: c2aa 94bd 7791 c63d b818 d63d ca01 133d
00000310: 9398 783c ca7b ccbd 5ce6 3fbc ba6f f93d
00000320: 5837 163d cba0 3a3c f42f c6bc 3766 5dbd
00000330: b5a1 873d 04aa dabb f01e c63d b54a e1bc
00000340: fc44 863d 5092 843d d6da b53c 8a44 9d3d
00000350: 6943 b33d c19a f43d 02cb cf3d c9bb 35bd
00000360: 1c5b efbd 3529 7b3c 4415 fd3a bd40 22bd
00000370: 46f1 75bc 20bd 6f3c 4ce8 ba3d 0552 223d
00000380: e2b5 21bd 0d41 57bd bfb6 fdbc 64b1 6abd
00000390: ccdf da3d a347 6b3d 46c6 e93d 50a4 a3bb
000003a0: 3103 013d c599 583d 6b9b f6bd 5dfa 183c
000003b0: 7fa1 cc39 803f 90bd 73e3 c4bd d472 e73d
000003c0: c6d6 dc3d 3573 6a3d 733e d33d 4842 5fbd
000003d0: cfe5 debc cc71 483d 9d31 e4bc 63ca 95bc
000003e0: 0ec2 ddbd b1ba 753d a0c3 b0bd 0051 cb3c
000003f0: 242e 083e 497f 23bd 4741 7ebd 3de9 9d3d
0.13285662 0.067776024 -0.07975099 0.096295476 -0.03359389 -0.02322234 -0.1136948 -0.01826727
0.09114571 0.015128664 -0.08101408 0.032241955 -0.03533495 0.12031961 -0.10189133 -0.049372405
-0.13190764 -0.046431594 0.04360609 0.1281432 0.026749762 0.12282995 0.019801253 0.06830998
0.10947141 0.11082745 -0.062257774 0.11653247 0.07264671 -0.0570728 -0.057834063 -0.10611778
0.033705145 -0.10881073 0.0480357 0.032963954 -0.105656594 0.03774333 -0.0019416616 0.051805615
0.064592935 -0.12861042 0.12295143 0.11220998 0.052957404 -0.120204896 -0.047344275 -0.03882633
-0.028624227 0.0766048 0.055091966 0.10074739 -0.0541243 0.045650214 0.049727965 -0.10281679
-0.12267411 -0.07045141 0.084830664 -0.12918788 -0.11196927 0.069404066 0.050778586 0.107351154
-0.093608536 -0.09691519 0.067104876 0.11115008 0.0790141 0.033659607 0.045319732 0.13705364
-0.07971912 -0.060212713 0.068716414 -0.08940178 -0.0667539 0.08987119 0.03667972 0.041096643
-0.051865995 0.010794284 0.122949876 -0.063332155 0.0015327798 0.0600233 -0.10812798 0.12431416
-0.05866447 -0.034093145 -0.042152718 -0.084896035 -0.12525721 0.08546413 0.038148787 -0.111659005
-0.07838083 0.12769753 0.027443437 0.04929578 -0.07515781 -0.062304094 -0.02026613 -0.026443051
-0.08516156 0.022958232 0.021040319 -0.00049682445 0.018664526 -0.052221008 0.010870871 0.047915123
-0.06617442 -0.13243614 0.06260186 0.030693848 -0.06467587 0.13605058 -0.05276827 0.10418981
0.06625207 -0.105789185 0.0630168 -0.11428611 -0.07071943 -0.028920956 -0.08534864 0.123391084
-0.02910131 0.06424639 -0.10902827 0.08831679 -0.038622312 -0.09134899 -0.0033380778 0.069042705
0.11337273 -0.08628105 -0.06490023 0.022979092 0.030538509 0.061335184 0.07402251 -0.02265545
0.07321821 0.10342799 -0.055258013 0.10057781 0.065581225 0.105119094 -0.07743551 -0.06551258
-0.045896225 0.01629676 0.07984444 -0.06202468 0.068589784 -0.03462729 0.057147827 0.0045609423
-0.11406496 -0.08257041 -0.093971804 0.06168069 -0.09738835 -0.002327428 0.033339847 -0.0633535
0.040568076 -0.11701177 -0.115752675 -0.10672311 -0.03985967 -0.056719434 0.017652227 -0.025840925
0.049967058 0.12818524 0.050949767 -0.03975729 -0.12822224 0.03728664 -0.06253203 0.059130754
0.088442884 0.056022316 0.124846965 0.12144737 0.033912145 -0.094941474 0.12189774 -0.067682035
-0.07259132 0.09695714 0.104539335 0.035890378 0.015173095 -0.099845484 -0.011712637 0.12179513
0.036673874 0.011390875 -0.024192788 -0.054052558 0.0662264 -0.0066730995 0.096738696 -0.027501443
0.065561265 0.064732194 0.022199076 0.076790884 0.08753092 0.119435795 0.101461425 -0.04436854
-0.116872996 0.015329649 0.0019308706 -0.03961252 -0.015011137 0.014632493 0.09126338 0.039629
-0.039480098 -0.05255227 -0.03097093 -0.05729808 0.10687217 0.057441365 0.11414771 -0.004993953
0.031497184 0.05288102 -0.120413624 0.009337035 0.00039030236 -0.07043362 -0.09613695 0.113011986
0.10783152 0.057238776 0.103146456 -0.05450657 -0.02720919 0.04893665 -0.027855689 -0.018284982
-0.108280286 0.059992496 -0.086310625 0.024818897 0.13298851 -0.03991631 -0.062073972 0.07710502

mlp.1.bias f4 [36]
00000000: 0fb9 d8bd 227e a83d 2cf6 80bd 4561 7039
00000010: e015 9d3d b63e e5bd 7dec e8bd 89be 523d
00000020: ec92 e43d 0dd7 01bc 34a4 a43d 5d06 4c3d
00000030: e5c3 4d3d e886 aabd 428d fb3d e5aa 653d
00000040: 8bb1 dd3c c3ef a13d 443a ccbd 7db8 d43c
00000050: a2c1 89bd 35d9 d2bc 571e 383d f0e4 5f3d
00000060: ef91 173d 94e9 bfbd 7aed a0bd 628b 413b
00000070: 09f9 febb 819f e0bd b940 043e 421e d03c
00000080: f786 c1bd 87c9 893d 5cdd 803d 64e4 75bd
-0.10582172 0.08227183 -0.062969536 0.0002292442 0.07670188 -0.11193602 -0.113732316 0.05145124
0.111608356 -0.007924807 0.08039132 0.049810756 0.050235648 -0.083265126 0.12282802 0.05607118
0.027062198 0.07907059 -0.09972051 0.025966877 -0.06726386 -0.025738338 0.04495081 0.05466169
0.037004407 -0.09370723 -0.07857795 0.0029532542 -0.007781152 -0.10967923 0.12915315 0.025405053
-0.094495706 0.067278914 0.06292221 -0.060032263

mlp.4.weight f4 [18, 36]
00000000: 0636 ac3d 0707 d5bd 2502 483d b0a2 1e3e
00000010: 5d3e e23d c7e2 9d3d 61ea 1dbd dce3 d63c
00000020: e5c7 633d 6fca 113d 59a5 0dbd b5af c63c
00000030: 8c78 92bd 0070 bcbd e507 22be dc0c 0cbe
00000040: 5e79 e1bd ff79 1e3e fafe f13c 9a72 26be
00000050: e4ad bbbd 3f4a 213d e72b 39bd f0cc 70bd
00000060: 8df7 80bd f796 25bd b9ce 003d e420 db3b
00000070: fdce da3d 2e75 df3d 36ed 0d3e d8b6 073c
00000080: 16c9 96bd add3 3ab9 61fc efbd 6a20 883d
00000090: e10f 03bd f6c3 6cbd a5c3 15be f09a b13d
000000a0: 2f2c b53d 16d0 233e cf1c 4ebd f255 3b3d
000000b0: 67fb 8bb9 7c04 e4bd d34e c9bd 8570 b33d
000000c0: 7c90 c2bd 5013 ec3d 9d3b 573d a8a0 4a3d
000000d0: ae17 dc3d b96f a23d 051a af3d c9aa a73d
000000e0: 7474 96bd 9163 bebd ba7c f8bc 16e7 aa3d
000000f0: e3d3 f93d dbda f33d c3b6 4ebd 5eba 95bc
00000100: 01be fcbd 8a5d c93d e6ea d7bd 68fa 72bd
00000110: 281d 093e f167 1f3d b478 9ebd 792d d8bd
00000120: d938 f0bd 56f2 0a3e 2292 15be 2eb2 153e
00000130: 9170 013e a46b 5c3c 0c72 8d3b 854c 033e
00000140: bc1e 993d a54d 223e 8b13 083e 0338 e5bd
00000150: 8f09 d83d 9bc9 b03d c5ec eebd e21f 933d
00000160: 50d9 bdbd d338 cdbd 12ab ea3b f1f1 c9bc
00000170: bf71 38bd 6ab9 d1bd b121 c03d cfc1 263e
00000180: b9d6 e3bc e816 e4bd b5ca e7bb 9878 03be
00000190: 6dbb 11be 7e35 5abd cf9e de3d de7f 00be
000001a0: 5f87 04bd 2a72 9bbd f0e2 20be 1dfc 0dbd
000001b0: 007c c1bb 4279 b3bc c06a 003e 4aa1 913d
000001c0: f87d d93d 7a20 5b3d 99ba 6c3c 7243 cb3d
000001d0: 2af0 bebd 58b4 ba3d cc6a 9f3d 403b 90bd
000001e0: 941d 01bc 8c3a 08be f2a7 17be 77df 183c
000001f0: 7a03 1a3d bfd4 dfbc 9eaa 553d c9a9 00be
00000200: 4ef9 c0bd 366b e53d 2516 26be ac6d b43c
00000210: 2c62 fb3d 41bf 063e a7cd 6d3d 6973 1abe
00000220: f7a5 cc3c b7ac 5dbd c4ce 70bd bce6 013e
00000230: f48e 8abd d5cf edbd 271b f7bd 54d9 dc3d
00000240: 7487 963b 1477 223e fb89 ac3c fd05 24be
00000250: 2d35 ea3c db0d 1a3e a853 e03d 322c 333d
00000260: 525b 16be 4c4d efbd e7ac df3d f0da f1bd
00000270: 7146 133d db8c 18bd de6f 783d 8ef8 663c
00000280: a6b3 0abe de84 95bd f440 173e 7e55 883c
00000290: 3928 b53d 58bc acbd 389c 113e 575f 1fbd
000002a0: e30c 44bd 05a5 ca3c 4a59 4ebd a811 81bd
000002b0: a83b 0dbd d06d 9f3a 11af afbd fe90 7b3d
000002c0: 804f 24be 4f22 e33d 3877 113e caff 1a3d
000002d0: d31a 05bd 6e54 19be a237 8d3d ed2b 023e
000002e0: 6b87 1f3e 4dec 743c 240c 2f3d 4df5 263e
000002f0: bd80 d23c 4815 9dbd aa0d 1dbe 7aea 8a3d
00000300: a494 723d 50e3 163e 729a c4bd f29a 9d3d
00000310: 5ea3 84bd 3f62 1fbd 8bec ca3d 29d8 1dbe
00000320: 50e7 fd3d 7f44 953d fb7f dabd 3c81 ab3d
00000330: dbfa 37bd 8beb 6f3c efe6 2bbd fc73 2dbe
00000340: d05d 23bc 69df 933d 1711 e0bb a29f bebd
00000350: 4b20 0d3b 9680 eb3c a67d 36bd ee75 0abe
00000360: 4ffb b0bd 0224 03bd 2305 4a3d a8b6 1f3e
00000370: 43e3 883b ec46 433d 329b b83d a607 a4bd
00000380: 208c 75bd f05c ea3d bb82 f13d 4a46 453d
00000390: 8f12 03be ee25 a63d 927c 0bbe 2834 a53d
000003a0: 6a7b e93c 2238 413d 167c 1cbe 2abc 60bd
000003b0: 6f7d 813d 2ee8 ff3d b56c 2abd 3a75 233e
000003c0: 335b 02bd 4237 d0bd e36c 89bd f1ed 073c
000003d0: c3f2 e7bc e38f b73d c686 b4bd db76 2fbd
000003e0: 9e61 15be 373d 133e d614 ddbc 9d56 f4bd
000003f0: d528 fabb fdac 1d3b ad5c 5e3d fb2e b63a
0.08408742 -0.10401731 0.04883017 0.15491748 0.11047051 0.0770927 -0.0385536 0.026231699
0.055610556 0.035593446 -0.034581516 0.024253706 -0.07151899 -0.0920105 -0.15823324 -0.1367678
-0.11009477 0.15476225 0.029540528 -0.16254655 -0.091640264 0.039377447 -0.045207884 -0.058789194
-0.062972166 -0.040427174 0.031447146 0.0066872705 0.10684011 0.10911022 0.1386002 0.008283339
-0.07362573 -0.00017817198 -0.11718059 0.066468075 -0.031997565 -0.05780407 -0.14625414 0.0867213
0.08846318 0.15997347 -0.050320443 0.04573626 -0.00026699455 -0.11133668 -0.09829488 0.08761696
-0.095002145 0.11527121 0.052547086 0.04946962 0.10746704 0.07931466 0.08549885 0.081868716
-0.073464304 -0.092963345 -0.030332912 0.083448574 0.12198617 0.11906978 -0.050467264 -0.018277343
-0.12340928 0.09832294 -0.1054285 -0.059320837 0.13390028 0.038917486 -0.07737866 -0.10555548
-0.11729593 0.13569006 -0.14606526 0.14618751 0.12640597 0.013453398 0.004316574 0.12822159
0.07476565 0.15849932 0.13288705 -0.11192324 0.10548698 0.08632203 -0.11666254 0.071838155
-0.09269965 -0.10020604 0.0071615065 -0.0246515 -0.04503035 -0.10240443 0.09381426 0.1628487
-0.027812349 -0.111371815 -0.007073725 -0.12838972 -0.14231654 -0.05327367 0.10870134 -0.12548777
-0.032355662 -0.075901344 -0.1571157 -0.034664262 -0.0059046745 -0.021908406 0.12540722 0.071108416
0.1061973 0.05349777 0.014448785 0.099249735 -0.093231514 0.09116429 0.07784042 -0.07042551
-0.007880587 -0.13303584 -0.1481016 0.009330622 0.03760097 -0.027323125 0.052164666 -0.12564768
-0.09422551 0.112020895 -0.16219385 0.022024952 0.12274584 0.13158895 0.058057453 -0.15083088
0.024981482 -0.05411979 -0.058790937 0.12685674 -0.067655474 -0.116119064 -0.12065726 0.107836396
0.004593784 0.15865737 0.021061888 -0.1601791 0.02858981 0.15044348 0.10953456 0.04374332
-0.14683273 -0.11684665 0.109216504 -0.11809337 0.03595585 -0.037243705 0.06065356 0.014097346
-0.13545093 -0.07300733 0.14770871 0.016642328 0.088455625 -0.08434361 0.14219749 -0.038909283
-0.047863852 0.02473689 -0.05037812 -0.06302196 -0.03448072 0.0012163464 -0.08578313 0.061417572
-0.16045952 0.11090528 0.14205635 0.037841596 -0.032496285 -0.14973614 0.06895377 0.12712069
0.15579002 0.014948917 0.042736188 0.16304512 0.025696153 -0.07670075 -0.15337244 0.06783004
0.059223786 0.1473515 -0.095997706 0.07695569 -0.06476472 -0.038912054 0.09908398 -0.1541449
0.12397635 0.07288455 -0.106689416 0.08374259 -0.04491697 0.01464356 -0.041968282 -0.16938776
-0.009971097 0.072203465 -0.006837975 -0.09307791 0.002153414 0.028747838 -0.04455342 -0.13521549
-0.08641683 -0.03201676 0.049321305 0.15597022 0.0041774823 0.04767506 0.09013976 -0.08009271
-0.059948087 0.11443508 0.11792513 0.048162736 -0.12800048 0.08112703 -0.13621739 0.08066589
0.028501231 0.047172673 -0.1528171 -0.054866947 0.06322753 0.12495457 -0.041607577 0.15962687
-0.031825256 -0.101667896 -0.067102216 0.008296476 -0.028314 0.08962991 -0.088147685 -0.04283796
-0.14588019 0.1437882 -0.026987474 -0.11930583 -0.007634262 0.0024059408 0.0542876 0.0013899499

mlp.4.bias f4 [18]
00000000: de05 0dbe c8bb 1bbe 4ffc 97bd b5e2 e3bc
00000010: d08a 89bd 5ed1 dc3d 951b dfbd 93cc e3bd
00000020: a7d1 04be ed7e c8bd 7e1d 2b3e 42f7 803c
00000030: 1fa4 0cbd 61c4 60bd 2458 fabd bbaf 64bd
00000040: 72e0 a53d b8ef f33d
-0.1377177 -0.15208352 -0.07421171 -0.027818063 -0.067159295 0.10782121 -0.10893933 -0.11123004
-0.12970601 -0.09789834 0.16710469 0.015742902 -0.034336206 -0.05487478 -0.12223843 -0.055831652
0.0809945 0.11910957

mlp.7.weight f4 [18, 18]
00000000: 2bb5 3a3e eeda bd3c d375 06be 0b1f 11be
00000010: 78eb 6c3e 1ba6 6abe 6dab 2e3d 3344 b9bb
00000020: 9051 5f3e 6820 0b3e bfd2 86bd 60d6 4abe
00000030: bf4a 133d e090 17be 4b75 63bc a3a5 973d
00000040: ef67 d13d 44b8 a4bd 5f61 2cbe 049f 53be
00000050: 36b0 54be 3dfd 123d 4979 0fbe 7a7e be3c
00000060: ec7e aebd 8d85 45be b032 313e 636b 023e
00000070: 2339 343e cf9d 653e 033d 30be bb25 09be
00000080: 82b7 41be 5a00 183e d88d 0c3e 24b0 4e3e
00000090: d38c 25be 0768 04be 9610 653e d0ce 3dbe
000000a0: b557 2abe 5d6a ba3d 8aa2 5bbe 23b8 88bd
000000b0: d6f2 ae3d a589 433e f8aa 1ebd fb74 52be
000000c0: afa6 0a3e 5fbb 6e3e b006 2dbe 82e9 2fbc
000000d0: cdc0 33be 33c4 fabd fd96 a53d 8abc e23d
000000e0: 71b8 eb3d b6b7 55be 3e76 27bd 1e8d e63d
000000f0: 9219 e4bb b02e 9bbd 6d04 e6bd 41fd 683e
00000100: a508 34be 0bc2 3bbe c19b 313e 1c6b 18be
00000110: ea64 0a3e 7b0f 0cbe 72d1 fcbc 96d2 cfbd
00000120: 0eb5 3a3e 44ba 163e acb3 4b3b 9f94 3a3b
00000130: c02f bdbd b2d1 f2bd c9db a1bd f140 733d
00000140: 84ba 28bd 209e 213e 1893 dd3c 4465 243b
00000150: 182b 16be d410 b93d c76b 67be 97c6 473d
00000160: be95 ad3d 563d 413d a167 253e cedc 673d
00000170: 2856 55bd 1115 20be a1df 4ebe 7182 f53d
00000180: b32b 113e 6194 42be aac9 893d 7299 bcbd
00000190: 42da 593e a88e b4bd f06c 463e 6e58 283e
000001a0: 83ee 013e 6ff2 1e3e 4720 8d3d 8c61 a03d
000001b0: aee2 50be 9d06 5cbd 671a 8cbc 26ac f93d
000001c0: 2ff5 aebd cb3c dc3d c468 2d3e 4fe8 b23d
000001d0: fc66 013e 1bf0 2dbd f80d f83d 317e bcbd
000001e0: 8cf4 503e 5772 54bc ff72 b9bc 8d35 56be
000001f0: 265a 513e 542a 09bd 5bfe 2d3e b4a0 14be
00000200: 1ed7 47be 3648 30bd 87db 43be 8b43 473d
00000210: 676c 803b 3afa c5bd 67ac 183e ec45 1e3e
00000220: f3ae 51be 8991 40be a685 093e 8327 18be
00000230: 1260 1f3d 569c 90bd cdcc 423d 418a 03be
00000240: a3b7 e2bb b0aa abbd 03b2 cfbd 26e6 e2bd
00000250: f836 7f3d 7e9c 2a3e cf5d 713b c1bb febc
00000260: ad8f 513e dc35 3c3e 8f6d 94bc 513a 3cbe
00000270: b59f 443d 6214 6d3d 9a9d 4dbe 2427 64be
00000280: 7ad1 f93c 03b1 7c3e 6a8b 5bbe bd97 02be
00000290: ccec c1bd 5e3a 58be 2a69 11be 82fd 443e
000002a0: 1fcb 373e 5050 32be 71b7 173c 7584 3abe
000002b0: a34f c23d d0bf 15be 5fef ecbd 07e5 e0bd
000002c0: 1b15 ff3c c9f7 2b3e 6f1f aabd 37e3 593d
000002d0: f2e3 483e 6dbf d1bc 1bd4 bb3c aa2d 7e3c
000002e0: 45f9 cbbb fd8d 0a3e 0905 fb3d 2db5 e7bd
000002f0: 31c8 583e 26dc 013e 14c5 47bd d830 483e
00000300: a61b bd3c 623a 1a3e f6f0 37be 1a24 683e
00000310: 3266 5c3e 2942 37be 8e8e 5cbe 46aa 8abd
00000320: 11d4 1dbe d479 883d 0413 e83d a2f5 b9bc
00000330: caa1 273e 5223 08bc 2413 92bd f60a 4bbe
00000340: 3495 9e3d 64c3 65be a526 84bb 72a2 0d3d
00000350: a700 08be 22c7 803d 3639 523d 53ed 2a3e
00000360: 4957 0c3e 7306 4dbe b8dc 36be 9cb8 aebd
00000370: b4a5 30be 75a2 ac3d 3140 14be 56b7 47be
00000380: 3470 9e3d 0c49 183e b443 8dbd ea27 69be
00000390: e5e9 ee3c d8f8 e03d 1039 2c3e d347 143c
000003a0: 4475 333e 9eb5 4ebe ef0a 6e3e 75e8 1cbe
000003b0: 4847 23be 8c12 1c3e 5ecc 83bd 5be2 0f3e
000003c0: 33e5 1bbe 7842 393e 3b00 5f3e 7607 863d
000003d0: f889 443e 03f0 32be 5c8a 1cbd 4e66 993d
000003e0: 6b3b 193e ea62 f3bd 5365 113e 0b55 b0bd
000003f0: 4a13 0cbe aba8 4d3d 518e 2cbe a6af 56be
0.18233173 0.023175683 -0.13130884 -0.14171998 0.23136699 -0.22914927 0.042643953 -0.005653882
0.21808457 0.13586581 -0.065831654 -0.1980834 0.035959955 -0.14801359 -0.013882945 0.074046396
0.10224902 -0.080429584 -0.16834019 -0.20666128 -0.20770344 0.035886038 -0.1401111 0.023253668
-0.08520302 -0.19289227 0.17304492 0.12736277 0.17599921 0.2242348 -0.17210774 -0.133933
-0.18917659 0.14843884 0.13725984 0.2018438 -0.16167001 -0.12930308 0.22369608 -0.18535924
-0.1663502 0.091023184 -0.21448722 -0.06675746 0.08542411 0.19095476 -0.038737267 -0.20552437
0.13540147 0.23313664 -0.16897082 -0.010736825 -0.17554016 -0.12244453 0.08085439 0.11071117
0.11509789 -0.20870861 -0.04088425 0.11257385 -0.006961056 -0.07577264 -0.11231313 0.22752859
-0.17581423 -0.1833574 0.17344572 -0.14884609 0.13515058 -0.1367778 -0.03086159 -0.10147588
0.1823313 0.14719492 0.0031082435 0.0028469933 -0.09237623 -0.118564025 -0.07903249 0.059388105
-0.0411935 0.15782976 0.027047679 0.0025084773 -0.14664876 0.09036413 -0.22599708 0.048773374
0.08475827 0.047177635 0.16152813 0.05660706 -0.052084118 -0.15633036 -0.20202495 0.1198777
0.14176826 -0.19001915 0.067279175 -0.09208955 0.21274665 -0.08816272 0.19377494 0.16439983
0.12688641 0.15522169 0.06890922 0.078311056 -0.20398971 -0.053717244 -0.017102433 0.12191038
-0.08542859 0.10753783 0.16934496 0.087357156 0.12636942 -0.04246531 0.12112039 -0.092037566
0.20405787 -0.012966714 -0.022637842 -0.20918866 0.20444545 -0.033487633 0.1699156 -0.14514428
-0.19515654 -0.043037616 -0.19126712 0.0486484 0.0039191726 -0.096668676 0.14909516 0.1545636
-0.20476894 -0.18805517 0.13429889 -0.14858823 0.03890998 -0.07061069 0.047558594 -0.12845708
-0.006918864 -0.083821654 -0.10141375 -0.110790536 0.06230828 0.1666126 0.0036829596 -0.031095387
0.20464964 0.1837992 -0.018118648 -0.18381621 0.04800387 0.057880767 -0.20079651 -0.22280556
0.030495394 0.246769 -0.21439901 -0.12753196 -0.094689935 -0.21116015 -0.14200273 0.1923733
0.17948578 -0.1741345 0.009260044 -0.18214591 0.09487846 -0.14623952 -0.11569094 -0.109811835
0.031137994 0.16793741 -0.08306777 0.053195205 0.19618204 -0.025603974 0.022928288 0.015513817
-0.0062247836 0.13530727 0.1225682 -0.113138534 0.21170117 0.12681636 -0.048771933 0.19549882
0.023084473 0.15061334 -0.17963013 0.22670022 0.2152336 -0.17896332 -0.21538755 -0.06770758
-0.15412928 0.06663862 0.11331752 -0.022700135 0.16370311 -0.008309202 -0.07132557 -0.198284
0.07743302 -0.22437817 -0.004032927 0.034578748 -0.13281499 0.062879816 0.05132409 0.16692095
0.13705172 -0.20021991 -0.17857635 -0.08531305 -0.1725071 0.08429424 -0.14477612 -0.19503531
0.07736245 0.14871615 -0.06897679 -0.22769132 0.029164264 0.10984963 0.16818643 0.009050327
0.17525202 -0.20186469 0.23246358 -0.1532305 -0.1594516 0.1524145 -0.06435464 0.14051192
-0.15224151 0.18091762 0.21777432 0.06544392 0.19193256 -0.1747437 -0.038217887 0.07490216
0.14964072 -0.11884101 0.14198808 -0.08609971 -0.13679233 0.050209682 -0.16851164 -0.20965442

mlp.7.bias f4 [18]
00000000: bc91 283d 1181 953d 236c 39bc ae26 d73d
00000010: ee92 e63d 5548 563e 397d 253c 45fc 403c
00000020: eccd 313b b973 193d 6ccb 23be adeb cfbc
00000030: d155 43be 7719 36be dace 53be 03b0 2a3e
00000040: 3572 02be e820 6ebc
0.041154608 0.07300008 -0.011317286 0.105054244 0.11258493 0.2092603 0.010100656 0.011778896
0.0027130796 0.037463877 -0.15995568 -0.025380934 -0.19075705 -0.17783152 -0.20684376 0.16668706
-0.12738879 -0.014534213

final_layer.weight f4 [4, 18]
00000000: 1cf4 953c 2a8e 5d3e 6f0d de3d 25a6 30be
00000010: 07f3 6f3e 09bd 55be b9b8 393d 57c3 523e
00000020: fbf6 5c3e 12f5 1fbd e51d 21be 580c ea3d
00000030: 012e 393e acb5 f5bd 9e33 00bd d459 0fbe
00000040: 92fa c23d cf84 5c3d f497 e93d 5755 9bbd
00000050: 49c6 59be 88ea d6bd d760 3cbe 2ec2 7dbd
00000060: 1a0a 9f3d f128 4abe 3ce5 a7bc 3f06 71be
00000070: a947 27be 3c7a 28be 85fa 9dbd 5883 e6bd
00000080: 5191 553d e612 133e ef9e 3f3e 0130 aa3d
00000090: 9c99 813c 9201 30bd 59f3 213e 56dc 01be
000000a0: 2db9 333e 80b2 67be 2bde 36be ade0 983d
000000b0: b35a c0bd 56a7 283d 9765 483e 645d c03d
000000c0: 7042 6e3e 96d3 e1bd 8bfd 03be b7f0 a3bc
000000d0: b741 93bd 1e87 d4bd 7a01 a2bc 92bc 5d3e
000000e0: 7a4a 19be 34a7 093e 0812 e73d df6f 113e
000000f0: ce85 9b3d 4729 b5bd e448 d83d c428 d3bd
00000100: ba3d 1cbe 020c 723e 1ea0 3b3e 71ba 2dbe
00000110: 6fd3 393e 0945 403d f389 7f3d 4bcb 6a3e
0.018304877 0.21636263 0.10842406 -0.17250879 0.23432551 -0.20872892 0.04534218 0.20582329
0.2157859 -0.039052077 -0.1573406 0.11428136 0.18083955 -0.11997542 -0.031299226 -0.1399911
0.09520449 0.053837594 0.11405936 -0.07584637 -0.21267046 -0.10493952 -0.18396316 -0.061952762
0.077655986 -0.1974218 -0.02049505 -0.23537539 -0.1633593 -0.16452879 -0.077137984 -0.112555206
0.052140538 0.14362678 0.18712972 0.08309937 0.015820317 -0.042970248 0.15815486 -0.12681708
0.17551108 -0.22626686 -0.17858188 0.074647285 -0.093922995 0.04117521 0.19570003 0.09392813
0.23267531 -0.11026685 -0.12889688 -0.020012243 -0.071902685 -0.10377334 -0.019776095 0.21653965
-0.14969817 0.13442689 0.11282736 0.14202832 0.075938806 -0.08845764 0.10560778 -0.1031051
-0.15257922 0.23637393 0.18322799 -0.16965653 0.18147062 0.046940837 0.062387418 0.22929113

final_layer.bias f4 [4]
00000000: a0db 133c b26f e7b9 7164 023b 6397 6b3b
0.009024531 -0.00044142973 0.0019896294 0.0035948388

norm_after_embedding.weight f4 [12]
00000000: dba8 7b3f f5e6 7e3f 5ef8 7c3f 5a43 7f3f
00000010: a52a 843f 80a1 813f 650e 823f 6b14 7a3f
00000020: 250a 7a3f b58a 843f cd5a 803f 301a 783f
0.9830453 0.9957116 0.9881648 0.99712145 1.0325514 1.0127411 1.0160643 0.97687405
0.9767173 1.035483 1.002771 0.9691496

norm_after_embedding.bias f4 [12]
00000000: 89b4 853c d0a5 7539 fa9a 7abc 5169 8d3a
00000010: 721a 23bd 64ea ce3b 1cf2 a7bc e0c9 a7bc
00000020: a26f c53c d00d 263d 7a05 3ebc c2ca f1bc
0.016321437 0.0002342679 -0.015295738 0.0010788833 -0.039820142 0.0063145626 -0.020501189 -0.020482004
0.024101082 0.040540516 -0.011597985 -0.029515628

norm_after_attention.weight f4 [12]
00000000: f627 7f3f 9bc9 7e3f 8eb2 803f 56f3 7c3f
00000010: 0346 813f eb6d 7d3f 309e 7f3f 1bf4 7a3f
00000020: 9710 803f c0ba 833f 5717 823f 921a 823f
0.9967035 0.99526376 1.005449 0.988088 1.0099491 0.98995847 0.9985075 0.98028725
1.0005063 1.0291367 1.0163373 1.0164359

norm_after_attention.bias f4 [12]
00000000: 8088 783b b935 2bba 17da a43c aa8c 563c
00000010: ea04 32bc cbcd 9cbb b47d 0a3b 20c6 d0bc
00000020: 06e1 5aba 699a bbbb d67b abbc db9c afbc
0.0037923157 -0.00065311376 0.020123525 0.01309506 -0.010865429 -0.0047852746 0.0021132054 -0.025485098
-0.0008349571 -0.0057251942 -0.020933073 -0.0214371

positional_encoding.pe f4 [1, 300, 12]
00000000: 0000 0000 0000 803f 0000 0000 0000 803f
00000010: 0000 0000 0000 803f 0000 0000 0000 803f
00000020: 0000 0000 0000 803f 0000 0000 0000 803f
00000030: a46a 573f 4151 0a3f 52e9 5a3e eb14 7a3f
00000040: 1e0d 3e3d 6ab9 7f3f 57d6 233c b9fc 7f3f
00000050: 6431 0d3b d9ff 7f3f 5c5a f339 feff 7f3f
00000060: b7c7 683f 3311 d5be bed9 d53e b999 683f
00000070: b7d8 bd3d d1e5 7e3f 3ed4 a33c e5f2 7f3f
00000080: 4e31 8d3b 64ff 7f3f 5b5a 733a f9ff 7f3f
00000090: c381 103e 2670 7dbf c82d 1a3f 565d 4c3f
000000a0: 1721 0e3e a885 7d3f 1fb9 f53c 83e2 7f3f
000000b0: bfc9 d33b a2fe 7f3f c283 b63a f0ff 7f3f
000000c0: cfbd 41bf 3055 27bf be4d 423f f9ad 263f
000000d0: 7307 3d3e b299 7b3f dbcb 233d 94cb 7f3f
000000e0: f830 0d3c 91fd 7f3f 545a f33a e3ff 7f3f
000000f0: 107c 75bf 2c3c 913e cf71 613f 6393 f23e
00000100: 9385 6b3e ff22 793f f4b6 4c3d 19ae 7f3f
00000110: e67c 303c 33fc 7f3f 7118 183b d3ff 7f3f
00000120: 8c0f 8fbe b8cd 753f 6329 763f 8f93 8c3e
00000130: e9c0 8c3e e922 763f d19c 753d 128a 7f3f
00000140: 9dc8 533c 86fa 7f3f b783 363b bfff 7f3f
00000150: 4630 283f bdff 403f 417f 7f3f 234f 803d
00000160: 6a71 a33e 189b 723f 323e 8f3d 815f 7f3f
00000170: 1514 773c 8cf8 7f3f f8ee 543b a8ff 7f3f
00000180: 9546 7d3f f6fd 14be e904 7d3f 59cf 1bbe
00000190: cbc7 b93e 808d 6e3f 50aa a33d 652e 7f3f
000001a0: a12f 8d3c 44f6 7f3f 385a 733b 8cff 7f3f
000001b0: 3201 d33e d53f 69bf afd7 6e3f 0149 b8be
000001c0: bab7 cf3e 5cfc 693f 3e12 b83d c2f6 7e3f
000001d0: 0cd5 9e3c aef3 7f3f bae2 883b 6eff 7f3f
000001e0: f844 0bbf 64cd 56bf 619f 553f 8212 0dbf
000001f0: 1e35 e53e 30ea 643f 7675 cc3d 98b8 7e3f
00000200: 477a b03c caf0 7f3f 5618 983b 4bff 7f3f
00000210: 5cff 7fbf 7205 913b 8386 323f b67a 37bf
00000220: 1d34 fa3e c959 5f3f 72d3 e03d e873 7e3f
00000230: 4c1f c23c 99ed 7f3f f04d a73b 25ff 7f3f
00000240: d85c 09bf d006 583f 852c 073f 2367 59bf
00000250: 9154 073f 384e 593f ac2b f53d b528 7e3f
00000260: 16c4 d33c 19ea 7f3f 8883 b63b fcfe 7f3f
00000270: 2220 d73e 6f4e 683f 0b25 ab3e 4446 71bf
00000280: 7444 113f d2ca 523f d0be 043e 00d7 7d3f
00000290: a068 e53c 4ce6 7f3f 1db9 c53b cffe 7f3f
000002a0: 7298 7d3f d704 0c3e 9c0e 003e 86fd 7dbf
000002b0: 3ce4 1a3f 30d3 4b3f 64e4 0e3e cc7e 7d3f
000002c0: e40c f73c 31e2 7f3f afee d43b 9efe 7f3f
000002d0: 4479 263f e87a 42bf 5e31 b8bd 68f6 7ebf
000002e0: 9a2e 243f 286b 443f 4f06 193e 1a20 7d3f
000002f0: 6e58 043d c8dd 7f3f 3e24 e43b 69fe 7f3f
00000300: 1068 93be 2c29 75bf e8fe 99be 6825 74bf
00000310: 6f1e 2d3f d096 3c3f 5024 233e edba 7c3f
00000320: 432a 0d3d 11d9 7f3f ca59 f33b 31fe 7f3f
00000330: 251e 76bf 36e2 8cbe b0d2 febe 8e0a 5ebf
00000340: cdae 353f 7a5a 343f 233e 2d3e 494f 7c3f
00000350: ecfb 153d 0dd4 7f3f a947 013c f6fd 7f3f
00000360: b340 40bf 840a 293f 22ef 2bbf 7dab 3dbf
00000370: fbda 3d3f afba 2b3f 8753 373e 2edd 7b3f
00000380: 67cd 1e3d bace 7f3f 6ce2 083c b6fd 7f3f
00000390: 6979 193e bf1b 7d3f ce81 50bf 6087 14bf
000003a0: 789e 453f 32bc 223f 3a64 413e a164 7b3f
000003b0: b39e 273d 1ac9 7f3f 2c7d 103c 74fd 7f3f
000003c0: c8b6 693f 22f0 d03e 7570 6bbf 6e0a c9be
000003d0: fcf4 4c3f f763 193f f86f 4b3e a5e5 7a3f
000003e0: cb6f 303d 2cc3 7f3f eb17 183c 2dfd 7f3f
000003f0: 102f 563f fc37 0cbf 537c 7bbf d974 3fbe
0.0 1.0 0.0 1.0 0.0 1.0 0.0 1.0
0.0 1.0 0.0 1.0 0.84147096 0.54030234 0.21378067 0.9768817
0.04639923 0.99892294 0.009999833 0.99995 0.0021544332 0.9999977 0.00046415895 0.9999999
0.9092974 -0.41614684 0.41767687 0.9085956 0.09269851 0.9956942 0.019998666 0.9998
0.004308856 0.9999907 0.00092831784 0.9999996 0.14112 -0.9899925 0.60226107 0.7982992
0.1387981 0.9903207 0.0299955 0.99955004 0.006463259 0.99997914 0.0013924765 0.99999905
-0.7568025 -0.6536436 0.75899875 0.6510921 0.18459873 0.98281395 0.039989334 0.9992001
0.008617632 0.99996287 0.0018566349 0.9999983 -0.9589243 0.2836622 0.88064283 0.47378072
0.23000173 0.97319025 0.049979165 0.99875027 0.010771966 0.999942 0.0023207928 0.9999973
-0.2794155 0.96017027 0.961569 0.27456328 0.2749093 0.9614702 0.059964005 0.99820054
0.012926248 0.99991643 0.0027849504 0.9999961 0.6569866 0.75390226 0.9980355 0.06265094
0.31922466 0.94767904 0.06994285 0.997551 0.0150804715 0.9998863 0.003249107 0.99999475
0.98935825 -0.14550003 0.9883562 -0.15215816 0.36285242 0.9318466 0.07991469 0.9968017
0.017234625 0.99985147 0.0037132632 0.9999931 0.4121185 -0.91113025 0.9329786 -0.35993198
0.4056986 0.91400695 0.089878544 0.9959527 0.019388698 0.999812 0.0041774185 0.9999913
-0.5440211 -0.8390715 0.8344632 -0.55106366 0.44767088 0.8941984 0.099833414 0.9950042
0.021542681 0.9997679 0.004641573 0.9999892 -0.9999902 0.004425698 0.697365 -0.7167162
0.48867884 0.87246376 0.1097783 0.9939561 0.023696564 0.9997192 0.0051057264 0.99998695
-0.53657293 0.84385395 0.52802306 -0.84923 0.52863413 0.8488498 0.119712204 0.99280864
0.025850337 0.9996658 0.005569879 0.9999845 0.42016703 0.9074468 0.334267 -0.9424784
0.56745076 0.8234073 0.12963414 0.9915619 0.02800399 0.9996078 0.00603403 0.9999818
0.9906074 0.13673721 0.12505573 -0.9921497 0.6050451 0.7961912 0.13954312 0.990216
0.030157514 0.99954516 0.00649818 0.9999789 0.65028787 -0.7596879 -0.08993791 -0.99594736
0.6413361 0.7672601 0.14943813 0.9887711 0.032310896 0.99947786 0.006962328 0.99997574
-0.2879033 -0.9576595 -0.3007729 -0.9536958 0.6762456 0.7366762 0.15931821 0.98722726
0.034464132 0.9994059 0.007426475 0.9999724 -0.96139747 -0.27516335 -0.49770117 -0.86734855
0.7096985 0.70450556 0.16918235 0.9855848 0.036617205 0.9993294 0.00789062 0.9999689
-0.75098723 0.6603167 -0.6716176 -0.74089795 0.7416226 0.6708173 0.17902957 0.9838437
0.038770106 0.99924815 0.008354764 0.9999651 0.1498772 0.9887046 -0.81448066 -0.58019066
0.7719493 0.63568413 0.1888589 0.9820042 0.04092283 0.9991623 0.008818906 0.99996114
0.9129453 0.40808207 -0.9196847 -0.3926577 0.80061316 0.5991816 0.19866931 0.9800666
0.043075364 0.99907184 0.009283046 0.9999569 0.8366556 -0.54772925 -0.9823658 -0.18696918
