models/jsp.pth (torch, 22543 bytes, 17 tensors)

state_embedding.weight f4 [12, 6]
0	0x3eb9ed1c	0.36313713
1	0x3ec5408a	0.38525802
2	0xbd987523	-0.07444217
3	0x3ed3f5e2	0.4139853
4	0xbd079c33	-0.033107948
5	0x3e0dca0e	0.13846609
6	0xbe67931e	-0.22614715
7	0x3e4bcd75	0.19902594
8	0x3ea74d6a	0.3267625
9	0xbea5d202	-0.32386786
10	0x3e9d068e	0.30669063
11	0x3cc5b037	0.024131877
12	0x3eace066	0.33764952
13	0x3db115cf	0.08646738
14	0x3e6567e0	0.22402906
15	0xbd5fa55c	-0.05460106
16	0x3eb3b5cd	0.3509964
17	0x3dd4686a	0.10371478
18	0xbe554ec8	-0.20830834
19	0x3dae7d26	0.08519964
20	0xbe566005	-0.20935066
21	0xbd033716	-0.032034956
22	0xbe1d8107	-0.15381251
23	0x3e6c6329	0.23084702
24	0xbeb733a7	-0.35781595
25	0xbe66f476	-0.22554192
26	0xbe10d3a8	-0.1414324
27	0xbe880e0d	-0.2657322
28	0xbcbeba4b	-0.02328219
29	0xbee49651	-0.44645932
30	0x3ec81258	0.39076495
31	0xbea5e5e4	-0.32401955
32	0x3eadd85d	0.33954135
33	0x3d9d3c6e	0.07677542
34	0xbd8bbcbe	-0.06823109
35	0x3e8d36e4	0.2758094
36	0x3d85f544	0.06540921
37	0x3ea326a3	0.31865415
38	0x3d0ca11c	0.034333333
39	0xbe180a59	-0.14847697
40	0x3d935e52	0.071957245
41	0xbdf2515d	-0.11831925
42	0x3e228602	0.15871432
43	0x3eb3f166	0.3514511
44	0x3e6b5ca3	0.22984557
45	0xbe575b82	-0.21031001
46	0x3e397d4c	0.18114203
47	0x3d9aae4c	0.07552776
48	0x3e1731b0	0.14765048
49	0xbe9b1338	-0.302881
50	0xbee173f0	-0.44033766
51	0xbe332162	-0.17493203
52	0xbeb423e9	-0.35183647
53	0x3e8beb8c	0.27328146
54	0x3dfa2492	0.122140065
55	0x3e3f71ec	0.18695801
56	0x3e0fdc09	0.1404878
57	0x3bc6c9bf	0.0060665305
58	0x3eaef338	0.34169936
59	0xbe85650b	-0.26053652
60	0x3dc14695	0.094372906
61	0xbe5c9d49	-0.21544375
62	0x3e2f9e56	0.17150244
63	0xbde9e488	-0.11420542
64	0x3e37cf00	0.17950058
65	0xbc45f5d7	-0.012082539
66	0x3ea8682d	0.3289198
67	0xbe81a531	-0.25321344
68	0xbe778b89	-0.24174322
69	0xbe860bf1	-0.26180986
70	0x3eb41ac2	0.35176665
71	0x3e02123a	0.12702265

state_embedding.bias f4 [12]
0	0x3ee227e0	0.44171047
1	0xbec16060	-0.3776884
2	0xbebdd819	-0.37078932
3	0xbead7ccd	-0.33884278
4	0xbe9fbdd5	-0.31199518
5	0x3e4045bb	0.187766
6	0x3e05514b	0.13019292
7	0x3ea4eb73	0.32210883
8	0xbe861f19	-0.261956
9	0xbe849cfc	-0.2590102
10	0x3e8bc215	0.2729651
11	0xbe39457c	-0.18092912

attention.in_proj_weight f4 [36, 12]
0	0x3e1126df	0.14174984
1	0xbe3689f3	-0.17826061
2	0xbda84292	-0.08215822
3	0xbe43f2b6	-0.19135556
4	0xbd3e1bcb	-0.046413224
5	0xbe818d52	-0.2530313
6	0xbe654ad0	-0.2239182
7	0x3ddad219	0.10684604
8	0xbdc01a92	-0.09380068
9	0x3e4e0608	0.20119488
10	0xbdfc2d56	-0.12313335
11	0xbe86fd02	-0.26364905
12	0xbd4f3287	-0.050585296
13	0xbe2bd834	-0.16781694
14	0xbdb93cf0	-0.09044826
15	0xbeb5997f	-0.3546867
16	0x3e349640	0.17635441
17	0xbe6ee2b3	-0.23328666
18	0x3e23b3c9	0.15986551
19	0x3e2d7ed5	0.16942914
20	0x3e743d27	0.23851453
21	0xbe837edf	-0.25682732
22	0x3e84604d	0.25854722
23	0xbe1ccb6e	-0.15311977
24	0x3e11db8f	0.14243911
25	0x3e95abbb	0.29232582
26	0xbd3e06a3	-0.046393048
27	0xbc2162fd	-0.009850261
28	0xbdafb5e7	-0.08579617
29	0xbe8b9ab1	-0.27266458
30	0x3e3327fc	0.17495722
31	0xbeadffba	-0.33984166
32	0x3e5ffa66	0.21872863
33	0x3e88804a	0.26660377
34	0x3ea83c6b	0.32858595
35	0xbd974395	-0.07385937
36	0xbe90998c	-0.28242147
37	0x3d95e43d	0.073189236
38	0x3e425447	0.18977462
39	0xbeb07c00	-0.34469604
40	0xbda7620a	-0.08172996
41	0xbe4c8325	-0.19971903
42	0xbcde680a	-0.027149219
43	0xbe2f2b07	-0.17106257
44	0xbe0fa8cb	-0.14029233
45	0xbdf48f55	-0.11941401
46	0xbeadbfd3	-0.33935413
47	0x3e9182ab	0.28420004
48	0x3e8fcfa1	0.28088096
49	0xbd31d5e7	-0.043416884
50	0xbd8dbbbe	-0.069205746
51	0xbddba3df	-0.10724615
52	0xbe9236ac	-0.28557336
53	0xbebbbe9f	-0.3666887
54	0x3e16acc4	0.14714342
55	0xbe62e665	-0.22158201
56	0xbe4b36c8	-0.19845116
57	0xbd869a01	-0.06572343
58	0xbe01182a	-0.12606874
59	0xbe132023	-0.14367728
60	0xbbea98fa	-0.0071593495
61	0xbd43f0a4	-0.047836915
62	0xbe12ac41	-0.14323522
63	0xbe10ef05	-0.14153679
64	0xbe86d706	-0.26335925
65	0x3e8d083d	0.27545348
66	0xbe035016	-0.12823519
67	0x3d9e197c	0.077197045
68	0xbdd9aa7b	-0.1062822
69	0x3aaa0db6	0.0012974057
70	0x3ea39f6a	0.3195756
71	0x3e0db441	0.13838293
72	0xbe8bbe1e	-0.27293485
73	0x3de3ba90	0.11119568
74	0x3e9540d8	0.29151034
75	0x3e03606a	0.12829748
76	0x3e88eced	0.2674326
77	0x3ebcd573	0.368816
78	0xbd06c4ff	-0.032902714
79	0x3d242769	0.040076647
80	0xbe4e8094	-0.20166236
81	0xbdd54b12	-0.10414709
82	0x3e7c78b3	0.24655418
83	0x3e18be58	0.1491636
84	0xbe4ab091	-0.19793917
85	0xbea31337	-0.31850597
86	0xbe829fc4	-0.25512516
87	0xbeaf2422	-0.34207255
88	0xbe88c88e	-0.2671551
89	0xbd80f88b	-0.06297406
90	0x3e783556	0.24239096
91	0x3d50c01b	0.050964456
92	0xbe81de63	-0.2536498
93	0xbe9378c8	-0.28803086
94	0x3e30065d	0.17189927
95	0xbe8c24af	-0.27371737
96	0xbd849caf	-0.064751975
97	0x3e4bc857	0.19900642
98	0xbe0f6444	-0.14003092
99	0xbd837460	-0.06418681
100	0xbd3be49e	-0.045872323
101	0xbdc8bec9	-0.098020144
102	0xbe41f0e4	-0.18939549
103	0xbe998cf9	-0.29990366
104	0xbea06776	-0.31328934
105	0xbe2d975f	-0.16952275
106	0x3ebc92bc	0.368307
107	0xbe12a043	-0.14318947
108	0xbe78d063	-0.24298243
109	0x3dde6c8a	0.10860546
110	0x3d6f5722	0.058432706
111	0x3e67f8d8	0.2265352
112	0x3e9922a7	0.2990925
113	0x3e3b9222	0.18317464
114	0xbead065a	-0.33793908
115	0xbb49df26	-0.0030803173
116	0x3e704a0f	0.23465751
117	0xbd58dfa9	-0.052947674
118	0xbe476c06	-0.19474801
119	0x3ea083f7	0.3135068
120	0xbe0c00a4	-0.1367212
121	0xbe582c3f	-0.21110629
122	0xbea91bae	-0.3302893
123	0x3d17b3d6	0.03703674
124	0x3e33a23f	0.1754236
125	0x3d643f28	0.055724293
126	0x3d975769	0.07389719
127	0xbe90a8d4	-0.28253806
128	0xbe9df802	-0.30853277
129	0xbc701f43	-0.014655891
130	0x3e9ebf1b	0.31005177
131	0x3e48ff30	0.19628596
132	0xbe45dfe1	-0.19323684
133	0xbd04cff3	-0.03242488
134	0xbe877b0e	-0.2646107
135	0xbe24a521	-0.16078617
136	0x3d6a0b68	0.057139784
137	0x3e4d198e	0.2002928
138	0x3e920def	0.28526255
139	0xbea60078	-0.32422233
140	0x3e74b98b	0.23898904
141	0xbe80196d	-0.25019398
142	0x3dffd18a	0.12491138
143	0x3e922644	0.2854482
144	0x3c8c55f9	0.017130839
145	0x3ea15ccf	0.3151612
146	0xbe90f367	-0.283107
147	0xbe0006d5	-0.12502606
148	0x3e3d8d5e	0.18510959
149	0xbd8bec28	-0.068321526
150	0xbd994761	-0.074843176
151	0xbe1d715c	-0.15375274
152	0x3e7dadc0	0.24773312
153	0x3e290808	0.1650697
154	0x3dde979f	0.10868763
155	0xbe5193f7	-0.204666
156	0xbe98674d	-0.29766312
157	0x3ce867a1	0.028369727
158	0x3da058c5	0.078294314
159	0xbe295b18	-0.16538656
160	0xbd94ab5c	-0.07259247
161	0x3e6edee6	0.23327217
162	0x3d367ff8	0.044555634
163	0x3cf12ba0	0.029439747
164	0xbda907c5	-0.08253435
165	0xbe9f2d17	-0.31089088
166	0xbea4f837	-0.32220623
167	0xbe288323	-0.16456275
168	0xbe09e64f	-0.13466762
169	0x3dd8af68	0.10580331
170	0xbdbd7da8	-0.09252483
171	0xbdd5ca15	-0.10438935
172	0x3eac02bb	0.33595833
173	0x3e21a46d	0.1578538
174	0x3e5ee7b5	0.21768077
175	0xbe4804a5	-0.19533022
176	0xbdf73b77	-0.12071889
177	0x3d8a5bbc	0.06755778
178	0xbe845337	-0.25844738
179	0xbe59dcb9	-0.21275605
180	0xbd42bd58	-0.047543854
181	0xbe0e2654	-0.13881809
182	0xbe83603c	-0.25659359
183	0x3e4cfb93	0.20017843
184	0x3e89c618	0.26908946
185	0x3d30958a	0.04311136
186	0xbd73b7ac	-0.059501335
187	0xbea3b91b	-0.31977162
188	0xbe0d842f	-0.13819955
189	0x3df4b8b4	0.11949292
190	0x3e171a1a	0.1475605
191	0xbd17649f	-0.036961194
192	0xbe09807e	-0.13427922
193	0x3e2b42e8	0.16724741
194	0xbe7cad94	-0.2467559
195	0x3e656c95	0.22404702
196	0xbe1c6061	-0.1527114
197	0x3c81a6d0	0.015826613
198	0xbd932089	-0.0718394
199	0x3d2694ef	0.040669378
200	0xbdc8aa89	-0.09798152
201	0x3e82cc3f	0.25546452
202	0xbcb04213	-0.021515882
203	0x3e8a3bfb	0.26998886
204	0x3eae4ef3	0.34044608
205	0xbe526964	-0.20548016
206	0xbe5f6888	-0.2181722
207	0x3e920e96	0.28526753
208	0x3e867083	0.26257715
209	0xbe8716c1	-0.26384547
210	0xbcf7d91a	-0.03025489
211	0xbeb122ea	-0.3459695
212	0xbe8fa92b	-0.28058752
213	0x3d850fc1	0.064971454
214	0x3da0fa13	0.07860198
215	0x3d7b1813	0.061302256
216	0xbda47237	-0.08029597
217	0x3e92d271	0.2867618
218	0x3d50e517	0.050999727
219	0xbe5865db	-0.21132605
220	0xbc9320d4	-0.01795999
221	0x3dde2da1	0.10848547
222	0x3e01d5d1	0.1267922
223	0xbe801f08	-0.25023675
224	0x3e0d3932	0.1379135
225	0xbe3f1823	-0.18661551
226	0xbe9ed573	-0.31022224
227	0xbe2558e3	-0.16147189
228	0x3eaf61cd	0.34254304
229	0x3e8b0fbf	0.2716045
230	0x3eade2a7	0.33961985
231	0x3e46768b	0.19381158
232	0x3e891f9f	0.26781937
233	0xbcf4835b	-0.029847791
234	0xbe4ef07b	-0.20208924
235	0x3e400eac	0.18755597
236	0xbe3dc735	-0.18533023
237	0xbe804623	-0.2505351
238	0xbe139521	-0.14412357
239	0x3dd2a30b	0.10285004
240	0x3e5a4fd5	0.21319516
241	0xbe1ae5c8	-0.15126717
242	0xbe3cca01	-0.18436433
243	0x3d99f542	0.07517482
244	0xbe7ec659	-0.24880351
245	0xbe4244fa	-0.18971625
246	0x3e1c74bf	0.1527891
247	0xbdd6d72d	-0.1049026
248	0x3eb731f5	0.35780302
249	0x3ea50101	0.32227328
250	0x3d87d0c5	0.066316165
251	0x3ddc8fec	0.107696384
252	0x3dbde37c	0.09271905
253	0x3ce87f4e	0.028381016
254	0xbc8a9bf7	-0.016920073
255	0x3d16c8d1	0.036812607

attention.in_proj_bias f4 [36]
0	0xbc4dcadf	-0.012560575
1	0x3c890c9a	0.016729642
2	0x3ba25082	0.004953445
3	0xbb2bdbb4	-0.0026223483
4	0xbd0e22aa	-0.034701027
5	0xbcc78b22	-0.024358336
6	0xbd105af1	-0.03524298
7	0xbc1cc8c5	-0.009569352
8	0x3ca7dafd	0.020490164
9	0xbd08db8c	-0.0334125
10	0xbca9a3b5	-0.020707944
11	0xba64661b	-0.00087127247
12	0xb797b271	-1.8083696e-05
13	0x38b3775f	8.55762e-05
14	0xb7f8eb17	-2.9673376e-05
15	0x3818a34d	3.639171e-05
16	0xb8191d6c	-3.6505444e-05
17	0xb8809ffb	-6.133314e-05
18	0xb79018f5	-1.717776e-05
19	0x372fec7a	1.0485872e-05
20	0xb81b2a5c	-3.699433e-05
21	0xb6521252	-3.1303102e-06
22	0xb8979da6	-7.2296054e-05
23	0xb9112b07	-0.00013844307
24	0xba5236a8	-0.00080190087
25	0xbd9d1cc0	-0.07671499
26	0x3d364cb4	0.044506744
27	0x3cf94831	0.030429931
28	0xbcfa595f	-0.030560194
29	0xbbb9d478	-0.00567108
30	0xbda40eb9	-0.080106206
31	0xbcfe3a9a	-0.031033803
32	0x3cf359d0	0.029705912
33	0x3bb7e172	0.005611592
34	0x3a2bf512	0.00065596506
35	0x3a85f84f	0.0010221096

attention.out_proj.weight f4 [12, 12]
0	0x3e55dbd4	0.20884639
1	0xbdd1e543	-0.10248806
2	0x3df033e4	0.11728647
3	0xbe4cf3a2	-0.20014814
4	0xbe2f73b0	-0.17133975
5	0x3dad02bb	0.084477864
6	0x3c473050	0.012157515
7	0xbdb6cda4	-0.089259416
8	0x3e4f10e3	0.20221286
9	0x3e3909f5	0.18070205
10	0xbe2734e8	-0.16328776
11	0xbe43b5d8	-0.19112337
12	0x3e9229ba	0.2854746
13	0xbdea3e9b	-0.11437722
14	0xbd62e0db	-0.05539022
15	0xbe6581bd	-0.22412772
16	0xbdedf9ea	-0.11619933
17	0xbbdbe896	-0.006711076
18	0xbd344314	-0.044009283
19	0xbe1ca48b	-0.15297143
20	0xbcfd68bc	-0.03093373
21	0xbe04dcf5	-0.12974913
22	0xbe524e74	-0.2053774
23	0xbe4099aa	-0.18808618
24	0xbe5944ac	-0.21217602
25	0xbe6456a6	-0.22298679
26	0x3e61836a	0.22022787
27	0x3d944949	0.072405405
28	0x3d04e71c	0.032446966
29	0xbe7499a8	-0.2388674
30	0xbe6a5916	-0.22885546
31	0xbdd758f1	-0.10515011
32	0x3d85fb56	0.06542079
33	0xbe826a67	-0.25471804
34	0xbdb6c740	-0.08924723
35	0xbe465b31	-0.19370724
36	0x3cb6a300	0.022294521
37	0xbe049616	-0.12947878
38	0x3d0e66ab	0.03476588
39	0xbe151c80	-0.14561653
40	0xbe32d12e	-0.17462608
41	0xbe654a37	-0.22391592
42	0xbdc657e5	-0.09684733
43	0xbe3a45e2	-0.1819072
44	0x3e5e8841	0.21731664
45	0xbc1d6e53	-0.009608823
46	0x3e861959	0.26191214
47	0x3d88f566	0.06687431
48	0xbe8bb39b	-0.27285466
49	0x3e71f7e6	0.23629722
50	0xbd815994	-0.06315914
51	0xbe0f2716	-0.13979754
52	0xbe241acc	-0.16025847
53	0xbea28d5d	-0.31748477
54	0x3e0e3ef0	0.13891196
55	0xbc60a709	-0.013711699
56	0x3d2a3c26	0.04156127
57	0xbe2d3d78	-0.1691798
58	0x3e25bd81	0.16185571
59	0xbe1e358a	-0.15450111
60	0x3c4f3474	0.012646783
61	0xbc0b84f4	-0.008515585
62	0x3dcc2fe1	0.0997007
63	0x3e8782dc	0.26467025
64	0x3e3bb93e	0.18332383
65	0xbe23ec07	-0.16008006
66	0xbadd0ce1	-0.00168648
67	0xbe20fcfd	-0.15721507
68	0x3d05b80d	0.032646228
69	0xbe882c88	-0.26596475
70	0x3e97b24b	0.29628214
71	0xbe84c012	-0.25927788
72	0x3e16684b	0.14688222
73	0x3dda1e5b	0.10650321
74	0x3dbe720e	0.09299098
75	0xbe23b947	-0.15988646
76	0x3e86fd4c	0.26365125
77	0x3d4f2c96	0.05057963
78	0x3d390738	0.0451729
79	0xbe558b37	-0.20853887
80	0x3dc2c325	0.09509877
81	0xbc18bd7f	-0.009322523
82	0xbdec2467	-0.11530381
83	0x3e743cb8	0.23851287
84	0x3d2e64f1	0.042576734
85	0xbe0e675b	-0.13906614
86	0xbe249127	-0.16070996
87	0xbd83548a	-0.06412609
88	0x3e292664	0.16518551
89	0xbccc63dd	-0.024949962
90	0xbe1d8529	-0.15382828
91	0xbe096d6a	-0.13420644
92	0xbe4f7858	-0.20260751
93	0x3d4787d5	0.048713524
94	0x3e497024	0.19671685
95	0xbe82f665	-0.2557861
96	0x3c3f602e	0.011680646
97	0x3e553fd6	0.20825133
98	0x3d96cfd3	0.07363858
99	0xbe2269fb	-0.15860741
100	0x3e3f32d3	0.18671732
101	0x3e2c4554	0.16823322
102	0x3e2d5fb8	0.16931045
103	0xbda47274	-0.08029643
104	0xbdf6f5d1	-0.120586045
105	0x3c0a63ad	0.008446616
106	0xbdcbd988	-0.099536
107	0xbce6e4e9	-0.028185325
108	0x3e1bcc69	0.15214695
109	0x3e8d6046	0.27612513
110	0x3bcee009	0.006313328
111	0xbda99c1c	-0.082817286
112	0xbbeb2c25	-0.0071768933
113	0x3c83a2df	0.016068874
114	0x3dcf5d49	0.101252146
115	0x3d3522f2	0.04422278
116	0xbe815400	-0.252594
117	0xbe03704d	-0.12835808
118	0x3e4c417d	0.19946857
119	0x3e12a5d6	0.14321074
120	0xbcff6fde	-0.031181272
121	0xbe1c0a44	-0.15238291
122	0xbe21393b	-0.15744488
123	0xbe8365a4	-0.25663483
124	0xbd957387	-0.07297426
125	0x3d6b68e1	0.057473067
126	0x3e3f2c3c	0.18669218
127	0x3dfff1f6	0.12497322
128	0xbe816e4b	-0.2527946
129	0xbe224743	-0.15847497
130	0xbcf61222	-0.030037943
131	0x3e8af75a	0.2714184
132	0x3dd97647	0.10618263
133	0xbe18b69f	-0.14913414
134	0x3dc6d03d	0.09707687
135	0xbd47bf56	-0.048766457
136	0xbe87d663	-0.26530752
137	0x3e480c13	0.19535856
138	0xbe5333a6	-0.20625171
139	0xbd9f91bb	-0.07791468
140	0xbe43e656	-0.19130835
141	0x3e114be0	0.141891
142	0x3e889865	0.26678768
143	0x3d157fa1	0.03649867

attention.out_proj.bias f4 [12]
0	0x3d16b593	0.036794256
1	0x3ce49315	0.027902165
2	0x3ce52847	0.027973307
3	0x3c8ef246	0.01744951
4	0xbd2fddc0	-0.042936087
5	0x3d6de4fd	0.05807971
6	0xbb71649a	-0.0036833645
7	0xbc2d7124	-0.010586057
8	0xbd729683	-0.05922557
9	0xbd102fc8	-0.035201818
10	0xbb9b39d5	-0.0047371187
11	0x3d896a85	0.0670977

mlp.1.weight f4 [36, 60]
0	0x3dac2555	0.08405558
1	0x3cb1d368	0.021707252
2	0xbe0dd09b	-0.13849108
3	0x3d7c75f0	0.06163591
4	0x3cab3bac	0.020902477
5	0xbd1a9a2f	-0.037744697
6	0xbd8c07d4	-0.068374306
7	0xbd96e694	-0.07368198
8	0x3e1a4095	0.15063699
9	0x3d8468d0	0.06465304
10	0xbcc08231	-0.02349958
11	0x38d281ce	0.00010037758
12	0xbdb402f3	-0.08789625
13	0x3d972247	0.07379585
14	0xbe1c011a	-0.15234795
15	0xbda04db9	-0.078273244
16	0xbda115bb	-0.07865473
17	0xbd7f2a79	-0.062296364
18	0x3dbe3be6	0.092887685
19	0x3d92eacf	0.071736924
20	0x3da4ca98	0.08046454
21	0x3e3148ca	0.17312923
22	0x3d9cd826	0.076584145
23	0x3d0adb10	0.03390032
24	0x3d68fe2f	0.056883033
25	0x3d82fe8f	0.063962094
26	0xbde90b49	-0.113791056
27	0x3da462cc	0.080266565
28	0x3df72610	0.12067807
29	0xbd8f7236	-0.07004206
30	0xbc23f9e3	-0.010008308
31	0xbe2586ee	-0.16164753
32	0x3dbbf616	0.091777965
33	0xbd6cb10e	-0.05778604
34	0x3dd72fc3	0.10507157
35	0xba6d5d85	-0.0009054768
36	0xbe1fd791	-0.15609576
37	0xbc0a4a68	-0.008440591
38	0xbd5f4745	-0.054511327
39	0x3cb2d685	0.021830807
40	0x3de3c315	0.11121193
41	0xbe10f509	-0.14155973
42	0x3e304134	0.17212373
43	0x3d5a8c18	0.05335626
44	0x3de0e232	0.10980643
45	0xbd910a8b	-0.07082089
46	0x3bb47b6b	0.0055078766
47	0xbda06bdc	-0.078330725
48	0xbda3e096	-0.08001821
49	0x3ce7ee70	0.028311938
50	0x3b53cdaf	0.0032318642
51	0x3d82081f	0.06349205
52	0xbb2386b9	-0.0024952127
53	0x3d127002	0.03575135
54	0x3dc99c7a	0.09844299
55	0xbe24f252	-0.16108063
56	0xbd86190a	-0.065477446
57	0xbca1fa7d	-0.019772762
58	0x3e0f5a79	0.13999356
59	0xbe224f1b	-0.15850489
60	0xbe1e256c	-0.15443963
61	0x3d2a4c9d	0.04157697
62	0x3cfc0a1b	0.030766537
63	0x3dac652b	0.08417734
64	0xbd931f8e	-0.07183753
65	0xbddcbed3	-0.10778584
66	0x3dc08b49	0.094015665
67	0x3dba97b6	0.09110968
68	0x3e007dbc	0.12547964
69	0x3d6a1154	0.05714543
70	0x3d998099	0.07495231
71	0x3dc35303	0.095373176
72	0xbe00ea4a	-0.12589374
73	0xbdb6196c	-0.088915676
74	0x3d60eb8e	0.054912142
75	0xbde242ab	-0.11047872
76	0xbd2cd6b8	-0.04219696
77	0x3da24d8e	0.07924949
78	0x3d89fdeb	0.06737884
79	0x3ca30477	0.01989959
80	0xbbcde911	-0.006283887
81	0x3d13f6ab	0.036123913
82	0x3e1ab5db	0.15108435
83	0xbdd5c836	-0.10438578
84	0xbd2d6efd	-0.042342175
85	0x3cf9e702	0.03050566
86	0xbe05f95a	-0.13083401
87	0x3dd4408c	0.10363874
88	0xbd11fe48	-0.035642892
89	0xbd2acffa	-0.04170225
90	0xbbf80279	-0.007568654
91	0xbdd81861	-0.10551525
92	0xbda1cf52	-0.07900871
93	0x3de1022d	0.10986743
94	0x3d8816cc	0.06644973
95	0xbe1eeaa5	-0.15519197
96	0xbdfd3520	-0.123636484
97	0x3dc8aca9	0.09798557
98	0x3c046494	0.00808062
99	0x3cee1c0a	0.029066104
100	0xbd58c15c	-0.052918777
101	0xbd91098a	-0.070818976
102	0x3c0f82e5	0.008759235
103	0xbd376391	-0.04477269
104	0xbd250a8f	-0.040293273
105	0x3d45b140	0.048264742
106	0x3d438b86	0.04774048
107	0xbd2d4ed9	-0.042311523
108	0xbcda7b20	-0.026670039
109	0xbda89526	-0.08231573
110	0xbb4cddd6	-0.0031260154
111	0x3cdc2071	0.026870938
112	0xbd32b99a	-0.043634035
113	0xbe0d7bf8	-0.13816822
114	0x3dc691f9	0.09695811
115	0x3c1f6a8a	0.009729991
116	0xbc968bd8	-0.01837723
117	0x3e26f220	0.16303301
118	0xbcbedb9e	-0.023298081
119	0x3d8274b3	0.06369915
120	0x3d756d80	0.05991888
121	0xbdf3ff0b	-0.1191388
122	0x3dbfe553	0.09369912
123	0xbdd5234f	-0.10407125
124	0xbd52888c	-0.051399752
125	0xbd0c22ba	-0.034212805
126	0xbd9aaf8e	-0.07553016
127	0x3de55ad3	0.11198964
128	0xbcadc56f	-0.021212308
129	0x3d2b8276	0.041872464
130	0xbdd6648d	-0.10468397
131	0x3d8a488e	0.0675212
132	0xbd4820f9	-0.04885957
133	0xbdeb7076	-0.114960596
134	0x3d0d7899	0.03453884
135	0x3d9e7f7c	0.077391595
136	0x3e0734b2	0.13203695
137	0xbdb86d4c	-0.09005222
138	0xbd4c9862	-0.04995001
139	0x3c26befc	0.01017737
140	0x3d246eea	0.04014484
141	0x3d254706	0.040350936
142	0x3da57530	0.08078992
143	0xbd2abdb2	-0.041684814
144	0x3d857acd	0.06517563
145	0x3da84ca5	0.08217744
146	0xbcce7ef4	-0.02520702
147	0x3dd48269	0.10376436
148	0x3d9d3c86	0.076775596
149	0x3dcf07c8	0.10108906
150	0xbd742df2	-0.05961413
151	0xbd9f9092	-0.077912465
152	0xbced3cab	-0.028959593
153	0x3a9f9593	0.0012175314
154	0x3db7201c	0.08941671
155	0xbda2faef	-0.07958018
156	0x3d79dd3f	0.061002012
157	0xbd5bb2f6	-0.053637467
158	0x3db3f09e	0.087861285
159	0x3be0bf46	0.006858739
160	0xbdcca1ea	-0.0999182
161	0xbdad5dac	-0.08465132
162	0xbda3ed96	-0.080043
163	0x3d4d16a4	0.05007042
164	0xbda5a227	-0.08087569
165	0xbc9c9b41	-0.019117
166	0x3d226783	0.039649498
167	0xbda52d91	-0.08065332
168	0x3d0ff728	0.035147816
169	0xbe08f434	-0.13374406
170	0xbdac848f	-0.08423721
171	0xbdd3976a	-0.10331614
172	0xbcbb05c9	-0.022829907
173	0xbd763400	-0.060108185
174	0x3cf481df	0.029847084
175	0xbd1a901d	-0.037735093
176	0x3d85bdc9	0.06530339
177	0x3de195e2	0.11014916
178	0x3d6a9736	0.057273112
179	0xbd62d4ab	-0.055378597
180	0xbc38db80	-0.011282802
181	0x3e1e433c	0.15455335
182	0x3d00dab3	0.031458568
183	0x3e1cbb93	0.15305929
184	0xbd09afc4	-0.03361489
185	0x3e13944c	0.1441204
186	0x3c8cc84e	0.017185356
187	0x3e60d635	0.21956713
188	0xbdcd4735	-0.10023347
189	0xbe458133	-0.19287567
190	0x3c155a03	0.009115699
191	0x3d980987	0.07423692
192	0x3d556b3f	0.05210423
193	0x3e60b0e1	0.21942474
194	0x3e421cb6	0.18956265
195	0x3e016971	0.12637879
196	0xbde3674b	-0.11103686
197	0xbc873342	-0.016503934
198	0xbdf3971b	-0.118940555
199	0x3e623afd	0.22092815
200	0xbdc3111b	-0.09524747
201	0xbdb53114	-0.088472515
202	0xbe06c039	-0.13159265
203	0x3dbcb60a	0.09214409
204	0x3e401750	0.18758893
205	0x3df0817c	0.11743447
206	0x3e367b34	0.17820436
207	0x3d87066c	0.06593022
208	0xbd7662a5	-0.06015267
209	0x3e14ce26	0.14531764
210	0xbdaa7c27	-0.083244614
211	0x3e35d627	0.17757474
212	0xbd3fff5b	-0.046874385
213	0x3c9c0a91	0.019048007
214	0xbbc21764	-0.0059231985
215	0x3dcc847f	0.09986209
216	0xba0f44c9	-0.0005465267
217	0x3e086396	0.13319239
218	0x3dc45e18	0.095882595
219	0x3d61b919	0.055108164
220	0xbe0d2f1d	-0.13787504
221	0x3dccef8b	0.10006627
222	0xbc172536	-0.00922518
223	0x3e0c3baf	0.13694642
224	0xbe31eda6	-0.17375812
225	0xbe1e65c6	-0.15468511
226	0xbe0dd319	-0.13850059
227	0x3da47da2	0.08031775
228	0x3e666e0d	0.22502919
229	0x3e35e627	0.17763577
230	0x3e5ae170	0.2137506
231	0x3db88dd0	0.090114236
232	0xbdb7f5f2	-0.08982457
233	0x3e0ca396	0.13734278
234	0xbe67aba8	-0.22624075
235	0x3ddd0d2c	0.10793528
236	0xbe0ddae9	-0.13853039
237	0xbe30af37	-0.17254339
238	0xbe532786	-0.20620546
239	0x3e7d6286	0.24744615
240	0x3e5b4dee	0.21416447
241	0x3e259f5a	0.16174069
242	0x3e74e47e	0.23915288
243	0x3d3ffb0c	0.046870276
244	0xbe12ab29	-0.14323105
245	0x3e18e7f4	0.14932233
246	0xbdf6eac7	-0.12056499
247	0x3d8e507b	0.06948944
248	0xbe6844b7	-0.22682463
249	0xbd92ef98	-0.07174605
250	0xbe3c17b0	-0.18368411
251	0x3e08bbed	0.13352938
252	0x3e6ddb0a	0.23228088
253	0x3d7dd722	0.061972745
254	0x3da36de0	0.07979941
255	0x3e358a8c	0.17728633

mlp.1.bias f4 [36]
0	0xbe23ef79	-0.1600932
1	0x3d704b17	0.05866536
2	0xbd9b44c5	-0.07581476
3	0x3deb57f5	0.11491386
4	0x3e2f5acc	0.1712448
5	0x3bc9e8ce	0.0061617857
6	0xbb50fed0	-0.0031890161
7	0x3dc044e0	0.09388137
8	0x3e6a0753	0.22854356
9	0xbcaf674a	-0.021411557
10	0x3e4e47b7	0.20144545
11	0x3e293711	0.16524912
12	0x3c931b5f	0.017957387
13	0x3d0ff4dd	0.03514563
14	0x3e29e134	0.16589814
15	0x3e37325d	0.17890306
16	0x3c1aa184	0.009437922
17	0x3db05f3b	0.08611914
18	0xbde71bea	-0.11284621
19	0x3dd13ea6	0.10217027
20	0xbd8fd0e1	-0.07022262
21	0x3dcaaa60	0.09895778
22	0x3e0fad84	0.14031035
23	0x3e359e90	0.17736268
24	0x3d1c1d6a	0.03811399
25	0xbc34248d	-0.0109950425
26	0xbe511f50	-0.20422101
27	0xbd655c2d	-0.05599611
28	0xbde24d78	-0.11049932
29	0xbd702c80	-0.05863619
30	0x3d97dae4	0.07414797
31	0xbcf69705	-0.030101309
32	0x3bbe12a4	0.005800562
33	0x3e1f4650	0.15554166
34	0x3ccf21b5	0.025284627
35	0xbd993f90	-0.07482827

mlp.4.weight f4 [18, 36]
0	0x3d67d70a	0.05660156
1	0xbdfc908e	-0.12332259
2	0x3d7b3b44	0.061335817
3	0x3e571e81	0.2100773
4	0x3e1855e4	0.14876515
5	0x3e15bf62	0.14623788
6	0x3ccc1b7b	0.024915447
7	0x3d8c8949	0.068621226
8	0x3dd647aa	0.104628876
9	0x3cf555c7	0.029948128
10	0x3ca8a6e1	0.020587387
11	0x3d92b0aa	0.07162602
12	0xbda2cca9	-0.07949192
13	0xbd078454	-0.033085182
14	0xbde6b6a0	-0.11265302
15	0xbda68071	-0.08129967
16	0xbdc46e71	-0.095913775
17	0x3e2b2200	0.16712189
18	0x3c9c11c7	0.019051446
19	0xbdce4b45	-0.1007295
20	0xbde3d869	-0.11125261
21	0x3db499c6	0.088183925
22	0x3c0845cd	0.008317423
23	0x3c6d8527	0.014497078
24	0xbd7789e3	-0.060434233
25	0x3c08b93f	0.008344947
26	0xbc97f053	-0.018547213
27	0xbce49de9	-0.027907329
28	0x3d6fcabf	0.058542963
29	0x3e0b9229	0.13629974
30	0x3dae10d9	0.08499307
31	0xbd29243d	-0.041294325
32	0xbcc00573	-0.023440098
33	0x3d21cc76	0.03950163
34	0xbe0673b1	-0.1313007
35	0x3d8271ba	0.06369348
36	0xbd48cc3c	-0.049022898
37	0xbdac2d6a	-0.084070995
38	0xbe0dac22	-0.13835195
39	0x3e3bc67c	0.18337435
40	0x3e433b5c	0.19065613
41	0x3e8a1ae4	0.2697364
42	0x3d6dd820	0.05806744
43	0x3dcb5c0f	0.09929668
44	0x3dfb96c6	0.12284617
45	0xbdeb0768	-0.11476022
46	0x3d15acf1	0.036541883
47	0x3e3570c3	0.17718796
48	0xbdb0ae0e	-0.08626948
49	0x3e7b8b66	0.24564895
50	0x3e2078c9	0.15671076
51	0x3e31e437	0.17372213
52	0x3df45e6b	0.11932071
53	0x3dcf4d87	0.10122209
54	0x3d19ed7c	0.03758
55	0x3e476c78	0.19474971
56	0xbdf37bc7	-0.11888843
57	0x3d0c3d8e	0.03423839
58	0x3db42f9a	0.08798142
59	0x3e4362c7	0.1908065
60	0x3de494cc	0.11161193
61	0x3e687aff	0.2270317
62	0xbe12379c	-0.14279026
63	0xbdeef787	-0.11668306
64	0xbe51d1eb	-0.20490234
65	0x3e3a384b	0.18185537
66	0xbe458b4f	-0.19291423
67	0xbe0c59fc	-0.13706201
68	0x3e749243	0.2388392
69	0x3e243d12	0.16038921
70	0xbd909828	-0.070602715
71	0xbdb4cde8	-0.08828336
72	0xbe274a03	-0.16336827
73	0x3dc6dbc5	0.097098865
74	0xbe225927	-0.15854321
75	0x3e6c9d6c	0.23106927
76	0x3e6e31af	0.2326114
77	0x3de3a096	0.11114614
78	0x3daa8b74	0.0832738
79	0x3e3e0b72	0.18559054
80	0x3e344618	0.17604864
81	0x3e05a015	0.13049348
82	0x3e74cd1f	0.23906372
83	0xbc911ecd	-0.017714882
84	0x3db8f662	0.09031369
85	0x3e3fbe98	0.1872505
86	0xbd01cd8b	-0.03169016
87	0x3e39e59f	0.18154
88	0xbda706e5	-0.08155612
89	0xbdb670b6	-0.08908217
90	0xbcf9ed3f	-0.030508636
91	0x3d9aa10a	0.07550247
92	0xbdc6eee6	-0.09713535
93	0xbb509bdb	-0.0031831178
94	0x3e40e13e	0.18835923
95	0x3e803592	0.2504087
96	0xbd61d4d9	-0.055134628
97	0xbc71989e	-0.014745859
98	0xbdade37e	-0.08490656
99	0xbe5fd3f8	-0.21858203
100	0xbe4ed4d8	-0.20198381
101	0x3c1fde06	0.009757524
102	0x3cfbdb8e	0.03074434
103	0xbe3709a1	-0.17874767
104	0x3d8179b9	0.06322045
105	0x3ca53337	0.020166023
106	0xbe444cf3	-0.19169979
107	0xbd06822f	-0.032838996
108	0xbc897229	-0.016778069
109	0xbd06f19e	-0.032945268
110	0x3df44516	0.119272396
111	0xbbd7034e	-0.0065616732
112	0xbca16204	-0.019700058
113	0xbb29d837	-0.0025916228
114	0xbdcdf196	-0.100558445
115	0x3d02b351	0.03190929
116	0xbe54f0fd	-0.20795055
117	0x3d914d0b	0.07094773
118	0xbca21591	-0.019785674
119	0xbe2a1bb8	-0.16612136
120	0xbcce6579	-0.02519487
121	0xbe89d83f	-0.26922795
122	0xbe640516	-0.22267565
123	0xbdea2b01	-0.114339836
124	0x3ca1ca2d	0.019749725
125	0xbd558622	-0.052129872
126	0x3d9a9e7b	0.07549759
127	0xbe66dc6f	-0.22545026
128	0xbd8a48eb	-0.06752189
129	0x3cb25b78	0.021772131
130	0xbe7c3935	-0.24631198
131	0xbd220da8	-0.039563805
132	0x3e04fd97	0.12987362
133	0x3d3f440c	0.046695754
134	0x3dda4986	0.10658555
135	0xbdde8893	-0.10865893
136	0x3d693e0c	0.056943938
137	0xbdec0fe0	-0.115264654
138	0xbb2bf253	-0.0026236966
139	0x3e1b4547	0.15163146
140	0xbe13c794	-0.14431602
141	0xbe5a0ed3	-0.21294717
142	0xbe1e528d	-0.15461178
143	0x3dad6f0e	0.084684476
144	0x3c6a0eb9	0.014285737
145	0x3e2f3a83	0.17112164
146	0x3d13486c	0.03595774
147	0xbe3580c2	-0.17724898
148	0x3a71a95b	0.00092186563
149	0x3e0aa242	0.13538459
150	0x3d941c4a	0.07231958
151	0x3ca065d4	0.019579805
152	0xbe113ae6	-0.14182624
153	0xbdcdd4df	-0.100503676
154	0x3d954730	0.072889686
155	0xbe1db56f	-0.15401243
156	0x3d17da1f	0.03707325
157	0xbd812b7a	-0.063071206
158	0x3cbae9f9	0.022816645
159	0xbd0bc338	-0.034121722
160	0xbe076d6b	-0.13225333
161	0xbd78437c	-0.060611233
162	0x3e22bab8	0.1589154
163	0xbc6cb017	-0.01444628
164	0x3dceed8f	0.101039045
165	0xbe0081eb	-0.1254956
166	0x3dca49ab	0.09877332
167	0xbd863cdb	-0.06554576
168	0xbd49bd19	-0.049252603
169	0xbc103337	-0.008801273
170	0xbd21891e	-0.039437406
171	0xbd62425a	-0.05523906
172	0xbc54385e	-0.012952892
173	0xbd2b8cca	-0.041882314
174	0xbdb497f2	-0.08818044
175	0x3d64e06b	0.055878084
176	0xbe456c0f	-0.19279502
177	0x3d727042	0.05918909
178	0x3e186273	0.14881305
179	0x3c8b5317	0.017007394
180	0xbd91dbed	-0.07122026
181	0xbe3881f7	-0.18018328
182	0x3d9f3bd2	0.07775082
183	0x3e66eb35	0.22550662
184	0x3e82fb61	0.25582412
185	0x3dee7a70	0.11644447
186	0x3e28293c	0.1642198
187	0x3e611457	0.21980415
188	0x3e0a2514	0.13490707
189	0xbdb395de	-0.08768819
190	0xbce3f22c	-0.027825437
191	0x3e264453	0.16237001
192	0x3d853dc3	0.06505921
193	0x3e80f29f	0.25185105
194	0x3caef3f5	0.021356562
195	0x3e480fc6	0.19537267
196	0xbd289e01	-0.04116631
197	0xbcf08be8	-0.029363587
198	0x3d64eda3	0.05589069
199	0xbd36e473	-0.04465146
200	0x3d8c3cad	0.068475105
201	0x3e3e5cd1	0.18590094
202	0x3c6fce2b	0.014636557
203	0x3e3903c4	0.18067843
204	0xbd65466f	-0.055975374
205	0x3ded1f9b	0.11578294
206	0xbe0c51d3	-0.13703088
207	0xbe776cfd	-0.2416267
208	0xbdaf376e	-0.08555494
209	0x3e202bce	0.1564171
210	0xbdbcc05a	-0.09216376
211	0xbe09c772	-0.13454989
212	0x3dd1d69f	0.10246014
213	0x3e25600c	0.1614992
214	0xbd4250d4	-0.047440365
215	0xbdcafe96	-0.0991184
216	0xbe1f2945	-0.15543087
217	0xbda87e64	-0.08227232
218	0x3d4ea34c	0.0504487
219	0x3e7ab31f	0.24482392
220	0x3dd88de2	0.10573937
221	0x3e358d74	0.17729741
222	0x3e67ace5	0.22624548
223	0xbc07f193	-0.008297342
224	0x3d7d6a76	0.061869107
225	0x3d9da14b	0.0769678
226	0x3e792a9f	0.24332665
227	0x3e099dce	0.13439104
228	0xbe086707	-0.13320552
229	0x3e5dd90b	0.21664827
230	0xbd176e48	-0.036970407
231	0x3e5463a6	0.20741138
232	0x3d0e83d9	0.03479371
233	0x3d92c859	0.071671195
234	0xbe363ded	-0.1779706
235	0x3d5f7e12	0.05456359
236	0x3c6a476c	0.014299255
237	0x3e75006f	0.23925947
238	0x3da9a5bb	0.08283564
239	0x3e80ae81	0.25133136
240	0xbd2b0a70	-0.041758
241	0x3b9d03ec	0.0047917273
242	0xbe18666d	-0.14882822
243	0xbdabd2a0	-0.08389783
244	0xbded45b7	-0.11585563
245	0x3e1e041f	0.1543126
246	0xbe45ffab	-0.19335811
247	0xbe00a5ab	-0.12563197
248	0xbd6e72a6	-0.058214806
249	0x3e795461	0.24348594
250	0xbd87e6f9	-0.066358514
251	0xbe00d463	-0.12581019
252	0xbba9aa31	-0.005177759
253	0x3bddd437	0.0067696827
254	0x3d47476c	0.048652098
255	0xbc36cb4c	-0.011156868

mlp.4.bias f4 [18]
0	0xbdc0991a	-0.09404202
1	0xbd801f95	-0.06256024
2	0x3ac8083f	0.0015261247
3	0xbdaf6568	-0.085642636
4	0xbdabfbaf	-0.08397614
5	0x3e49cb49	0.19706453
6	0xbd299309	-0.04139999
7	0xbdfd73db	-0.12375613
8	0xbe7ae2e9	-0.24500622
9	0x3c8719d1	0.016491802
10	0x3dce7edf	0.100827925
11	0x3ce6d964	0.028179832
12	0x3e07daf9	0.13267125
13	0xbda49bd5	-0.08037535
14	0xbd4336ee	-0.047659807
15	0xbe0fb686	-0.14034471
16	0x3d4fa2bf	0.050692316
17	0x3d915b4e	0.07097493

mlp.7.weight f4 [4, 18]
0	0x3de6a057	0.11261051
1	0xbd9412a0	-0.07230115
2	0xbe6644db	-0.22487204
3	0xbd79c2c2	-0.06097675
4	0x3e8237cf	0.25433204
5	0xbe8b775e	-0.27239507
6	0xbd8b7233	-0.06808891
7	0xbd28c6c0	-0.041205168
8	0x3ea34847	0.3189108
9	0x3d5da648	0.054113656
10	0x3cac9b38	0.021070108
11	0xbe806713	-0.2507864
12	0xbdbb884d	-0.09156857
13	0xbe2cd4a5	-0.16877992
14	0xbdcc9929	-0.099901505
15	0x3e1bef82	0.15228084
16	0x3e3439b2	0.17600134
17	0xbd3f0e8d	-0.046644736
18	0xbe38b3c0	-0.18037319
19	0xbe835cf8	-0.25656867
20	0xbe8ebd51	-0.27878812
21	0x3d5413ba	0.051776625
22	0xbdd6b9d7	-0.10484665
23	0xbdbfc664	-0.09364012
24	0xbe4c2f7e	-0.19939992
25	0xbe2a3431	-0.16621472
26	0x3e80c9f6	0.25154084
27	0x3d74c201	0.05975533
28	0x3e50967f	0.2036991
29	0x3e40a17b	0.188116
30	0xbe6c2e6d	-0.23064585
31	0xbdfa63ac	-0.12226042
32	0xbe7aedc2	-0.2450476
33	0x3e59b513	0.2126048
34	0x3e18aa64	0.14908749
35	0x3e3a0c66	0.18168792
36	0xbe5da863	-0.21646266
37	0xbe47c88b	-0.19510095
38	0x3d9c5c5f	0.07634806
39	0xbdb1fdd7	-0.08690994
40	0xbdeff7ba	-0.11717172
41	0xbc99d4c0	-0.018778205
42	0xbe99a002	-0.3000489
43	0xbd4bca9c	-0.04975377
44	0x3e4643ff	0.19361876
45	0x3dce493e	0.100725636
46	0x3d8aed3a	0.067835286
47	0xbe8c5341	-0.27407268
48	0xbcb832cb	-0.022485157
49	0x3e5c560c	0.215172
50	0xbe80bce7	-0.2514412
51	0x3dc21f27	0.09478598
52	0xbd8cdb34	-0.06877747
53	0xbd785311	-0.060626093
54	0x3e08955e	0.13338229
55	0x3e633364	0.22187573
56	0x3e821a39	0.2541063
57	0xbea9f79c	-0.33196723
58	0xbe044dd7	-0.12920319
59	0x3e7fc2d2	0.24976662
60	0x3e0d8a8e	0.13822386
61	0xbd8dad2a	-0.06917794
62	0xbe97ad98	-0.2962463
63	0x3ebd9808	0.37030053
64	0xbea43478	-0.3207128
65	0xbde78d69	-0.11306269
66	0x3e9ea99f	0.30988786
67	0xbe04a21d	-0.12952466
68	0x3e810e25	0.25206104
69	0xbe8cb4ac	-0.27481592
70	0xbe189f67	-0.14904557
71	0xbe1827b2	-0.14858893

mlp.7.bias f4 [4]
0	0x3dce142c	0.10062441
1	0x3da0ceae	0.07851921
2	0xbd4dfa3e	-0.050287478
3	0x3e24778f	0.16061233

norm_after_embedding.weight f4 [12]
0	0x3f73dd76	0.952598
1	0x3f747e6d	0.9550541
2	0x3f808b37	1.0042485
3	0x3f7e55a0	0.99349403
4	0x3f86ab8e	1.0521104
5	0x3f6ce72c	0.9254024
6	0x3f81c4d6	1.0138195
7	0x3f73fd89	0.9530874
8	0x3f8320c7	1.0244378
9	0x3f801c26	1.000859
10	0x3f7b0ed1	0.98069483
11	0x3f77418c	0.9658439

norm_after_embedding.bias f4 [12]
0	0x3d2a47ab	0.041572254
1	0xbd7bc67b	-0.061468583
2	0x3d049fe0	0.03237903
3	0xbc834e1b	-0.016028455
4	0xbd6bfb6a	-0.057612814
5	0x3d0b15d7	0.033956375
6	0xbd08cc47	-0.03339794
7	0xbd2d9ada	-0.042384006
8	0xbd7fd46a	-0.062458433
9	0x3cbe89a7	0.023258997
10	0x3d723516	0.059132658
11	0xbc839aef	-0.016065089

norm_after_attention.weight f4 [12]
0	0x3f954818	1.1662626
1	0x3f91cf23	1.1391338
2	0x3f94ee13	1.1635154
3	0x3f913cc5	1.134667
4	0x3f933d7a	1.1503136
5	0x3f9283a1	1.144642
6	0x3f91ecda	1.1400406
7	0x3f912d73	1.1341995
8	0x3f95b4a0	1.1695747
9	0x3f965cd8	1.1747084
10	0x3f92bfc2	1.146477
11	0x3f968d3f	1.1761855

norm_after_attention.bias f4 [12]
0	0x3e26e697	0.162989
1	0x3e24aaa6	0.16080722
2	0x3e35978f	0.17733596
3	0x3e28ed99	0.16496886
4	0xbe1f9690	-0.15584779
5	0x3e2d1c5e	0.16905352
6	0xbe1c3d84	-0.15257841
7	0x3e22613a	0.15857401
8	0xbe248d8e	-0.16069624
9	0xbe3383d4	-0.17530757
10	0xbe1d78d6	-0.15378127
11	0x3e42a24d	0.19007225

positional_encoding.pe f4 [1, 50, 12]
0	0x00000000	0.0
1	0x3f800000	1.0
2	0x00000000	0.0
3	0x3f800000	1.0
4	0x00000000	0.0
5	0x3f800000	1.0
6	0x00000000	0.0
7	0x3f800000	1.0
8	0x00000000	0.0
9	0x3f800000	1.0
10	0x00000000	0.0
11	0x3f800000	1.0
12	0x3f576aa4	0.84147096
13	0x3f0a5141	0.54030234
14	0x3e5ae952	0.21378067
15	0x3f7a14eb	0.9768817
16	0x3d3e0d1e	0.04639923
17	0x3f7fb96a	0.99892294
18	0x3c23d657	0.009999833
19	0x3f7ffcb9	0.99995
20	0x3b0d3164	0.0021544332
21	0x3f7fffd9	0.9999977
22	0x39f35a5c	0.00046415895
23	0x3f7ffffe	0.9999999
24	0x3f68c7b7	0.9092974
25	0xbed51133	-0.41614684
26	0x3ed5d9be	0.41767687
27	0x3f6899b9	0.9085956
28	0x3dbdd8b7	0.09269851
29	0x3f7ee5d1	0.9956942
30	0x3ca3d43e	0.019998666
31	0x3f7ff2e5	0.9998
32	0x3b8d314e	0.004308856
33	0x3f7fff64	0.9999907
34	0x3a735a5b	0.00092831784
35	0x3f7ffff9	0.9999996
36	0x3e1081c3	0.14112
37	0xbf7d7026	-0.9899925
38	0x3f1a2dc8	0.60226107
39	0x3f4c5d56	0.7982992
40	0x3e0e2117	0.1387981
41	0x3f7d85a8	0.9903207
42	0x3cf5b91f	0.0299955
43	0x3f7fe283	0.99955004
44	0x3bd3c9bf	0.006463259
45	0x3f7ffea2	0.99997914
46	0x3ab683c2	0.0013924765
47	0x3f7ffff0	0.99999905
48	0xbf41bdcf	-0.7568025
49	0xbf275530	-0.6536436
50	0x3f424dbe	0.75899875
51	0x3f26adf9	0.6510921
52	0x3e3d0773	0.18459873
53	0x3f7b99b2	0.98281395
54	0x3d23cbdb	0.039989334
55	0x3f7fcb94	0.9992001
56	0x3c0d30f8	0.008617632
57	0x3f7ffd91	0.99996287
58	0x3af35a54	0.0018566349
59	0x3f7fffe3	0.9999983
60	0xbf757c10	-0.9589243
61	0x3e913c2c	0.2836622
62	0x3f6171cf	0.88064283
63	0x3ef29363	0.47378072
64	0x3e6b8593	0.23000173
65	0x3f7922ff	0.97319025
66	0x3d4cb6f4	0.049979165
67	0x3f7fae19	0.99875027
68	0x3c307ce6	0.010771966
69	0x3f7ffc33	0.999942
70	0x3b181871	0.0023207928
71	0x3f7fffd3	0.9999973
72	0xbe8f0f8c	-0.2794155
73	0x3f75cdb8	0.96017027
74	0x3f762963	0.961569
75	0x3e8c938f	0.27456328
76	0x3e8cc0e9	0.2749093
77	0x3f7622e9	0.9614702
78	0x3d759cd1	0.059964005
79	0x3f7f8a12	0.99820054
80	0x3c53c89d	0.012926248
81	0x3f7ffa86	0.99991643
82	0x3b3683b7	0.0027849504
83	0x3f7fffbf	0.9999961
84	0x3f283046	0.6569866
85	0x3f40ffbd	0.75390226
86	0x3f7f7f41	0.9980355
87	0x3d804f23	0.06265094
88	0x3ea3716a	0.31922466
89	0x3f729b18	0.94767904
90	0x3d8f3e32	0.06994285
91	0x3f7f5f81	0.997551
92	0x3c771415	0.0150804715
93	0x3f7ff88c	0.9998863
94	0x3b54eef8	0.003249107
95	0x3f7fffa8	0.99999475
96	0x3f7d4695	0.98935825
97	0xbe14fdf6	-0.14550003
98	0x3f7d04e9	0.9883562
99	0xbe1bcf59	-0.15215816
100	0x3eb9c7cb	0.36285242
101	0x3f6e8d80	0.9318466
102	0x3da3aa50	0.07991469
103	0x3f7f2e65	0.9968017
104	0x3c8d2fa1	0.017234625
105	0x3f7ff644	0.99985147
106	0x3b735a38	0.0037132632
107	0x3f7fff8c	0.9999931
108	0x3ed30132	0.4121185
109	0xbf693fd5	-0.91113025
110	0x3f6ed7af	0.9329786
111	0xbeb84901	-0.35993198
112	0x3ecfb7ba	0.4056986
113	0x3f69fc5c	0.91400695
114	0x3db8123e	0.089878544
115	0x3f7ef6c2	0.9959527
116	0x3c9ed50c	0.019388698
117	0x3f7ff3ae	0.999812
118	0x3b88e2ba	0.0041774185
119	0x3f7fff6e	0.9999913
120	0xbf0b44f8	-0.5440211
121	0xbf56cd64	-0.8390715
122	0x3f559f61	0.8344632
123	0xbf0d1282	-0.55106366
124	0x3ee5351e	0.44767088
125	0x3f64ea30	0.8941984
126	0x3dcc7576	0.099833414
127	0x3f7eb898	0.9950042
128	0x3cb07a47	0.021542681
129	0x3f7ff0ca	0.9997679
130	0x3b981856	0.004641573
131	0x3f7fff4b	0.9999892
132	0xbf7fff5c	-0.9999902
133	0x3b910572	0.004425698
134	0x3f328683	0.697365
135	0xbf377ab6	-0.7167162
136	0x3efa341d	0.48867884
137	0x3f5f59c9	0.87246376
138	0x3de0d372	0.1097783
139	0x3f7e73e8	0.9939561
140	0x3cc21f4c	0.023696564
141	0x3f7fed99	0.9997192
142	0x3ba74df0	0.0051057264
143	0x3f7fff25	0.99998695
144	0xbf095cd8	-0.53657293
145	0x3f5806d0	0.84385395
146	0x3f072c85	0.52802306
147	0xbf596723	-0.84923
148	0x3f075491	0.52863413
149	0x3f594e38	0.8488498
150	0x3df52bac	0.119712204
151	0x3f7e28b5	0.99280864
152	0x3cd3c416	0.025850337
153	0x3f7fea19	0.9996658
154	0x3bb68388	0.005569879
155	0x3f7ffefc	0.9999845
156	0x3ed72022	0.42016703
157	0x3f684e6f	0.9074468
158	0x3eab250b	0.334267
159	0xbf714644	-0.9424784
160	0x3f114474	0.56745076
161	0x3f52cad2	0.8234073
162	0x3e04bed0	0.12963414
163	0x3f7dd700	0.9915619
164	0x3ce568a0	0.02800399
165	0x3f7fe64c	0.9996078
166	0x3bc5b91d	0.00603403
167	0x3f7ffecf	0.9999818
168	0x3f7d9872	0.9906074
169	0x3e0c04d7	0.13673721
170	0x3e000e9c	0.12505573
171	0xbf7dfd86	-0.9921497
172	0x3f1ae43c	0.6050451
173	0x3f4bd330	0.7961912
174	0x3e0ee464	0.13954312
175	0x3f7d7ecc	0.990216
176	0x3cf70ce4	0.030157514
177	0x3f7fe231	0.99954516
178	0x3bd4eeaf	0.00649818
179	0x3f7ffe9e	0.9999789
180	0x3f267944	0.65028787
181	0xbf427ae8	-0.7596879
182	0xbdb8315e	-0.08993791
183	0xbf7ef668	-0.99594736
184	0x3f242e9a	0.6413361
185	0x3f446b28	0.7672601
186	0x3e19064f	0.14943813
187	0x3f7d201a	0.9887711
188	0x3d04586e	0.032310896
189	0x3f7fddc8	0.99947786
190	0x3be4243e	0.006962328
191	0x3f7ffe69	0.99997574
192	0xbe936810	-0.2879033
193	0xbf75292c	-0.9576595
194	0xbe99fee8	-0.3007729
195	0xbf742568	-0.9536958
196	0x3f2d1e6f	0.6762456
197	0x3f3c96d0	0.7366762
198	0x3e232450	0.15931821
199	0x3f7cbaed	0.98722726
200	0x3d0d2a43	0.034464132
201	0x3f7fd911	0.9994059
202	0x3bf359ca	0.007426475
203	0x3f7ffe31	0.9999724
204	0xbf761e25	-0.96139747
205	0xbe8ce236	-0.27516335
206	0xbefed2b0	-0.49770117
207	0xbf5e0a8e	-0.86734855
208	0x3f35aecd	0.7096985
209	0x3f345a7a	0.70450556
210	0x3e2d3e23	0.16918235
211	0x3f7c4f49	0.9855848
212	0x3d15fbec	0.036617205
213	0x3f7fd40d	0.9993294
214	0x3c0147a9	0.00789062
215	0x3f7ffdf6	0.9999689
216	0xbf4040b3	-0.75098723
217	0x3f290a84	0.6603167
218	0xbf2bef22	-0.6716176
219	0xbf3dab7d	-0.74089795
220	0x3f3ddafb	0.7416226
221	0x3f2bbaaf	0.6708173
222	0x3e375387	0.17902957
223	0x3f7bdd2e	0.9838437
224	0x3d1ecd67	0.038770106
225	0x3f7fceba	0.99924815
226	0x3c08e26c	0.008354764
227	0x3f7ffdb6	0.9999651
228	0x3e197969	0.1498772
229	0x3f7d1bbf	0.9887046
230	0xbf5081ce	-0.81448066
231	0xbf148760	-0.58019066
232	0x3f459e78	0.7719493
233	0x3f22bc32	0.63568413
234	0x3e41643a	0.1888589
235	0x3f7b64a1	0.9820042
236	0x3d279eb3	0.04092283
237	0x3f7fc91a	0.9991623
238	0x3c107d2c	0.008818906
239	0x3f7ffd74	0.99996114
240	0x3f69b6c8	0.9129453
241	0x3ed0f022	0.40808207
242	0xbf6b7075	-0.9196847
243	0xbec90a6e	-0.3926577
244	0x3f4cf4fc	0.80061316
245	0x3f1963f7	0.5991816
246	0x3e4b6ff8	0.19866931
247	0x3f7ae5a5	0.9800666
248	0x3d306fcb	0.043075364
249	0x3f7fc32c	0.99907184
250	0x3c1817eb	0.009283046
251	0x3f7ffd2d	0.9999569
252	0x3f562f10	0.8366556
253	0xbf0c37fc	-0.54772925
254	0xbf7b7c53	-0.9823658
255	0xbe3f74d9	-0.18696918
