models/jsp1.pth (torch, 39000 bytes, 7 tensors)

mlp.0.weight f4 [64, 6]
000000 e8 0e de 3e 99 8f 07 3e fd 9f fa bd df ee 76 3f
       0.43370748 0.13238372 -0.122375466 0.9645824
000010 dc 30 b7 bd 37 b7 a8 3d 48 e5 b2 be 86 3f 43 3e
       -0.08944866 0.082380705 -0.34940553 0.19067201
000020 2f 3e cc 3c cd d8 b9 be 9f ae b5 3e 85 7b 9c 3d
       0.024931995 -0.36298218 0.35484788 0.07640747
000030 95 fc ec 3e 67 5b 60 be 45 d2 cd 3e 7c 8e e8 bd
       0.46286455 -0.21909867 0.40199485 -0.11355302
000040 0a 22 a1 3e f2 29 77 3d 98 4d 42 3e af c1 13 3f
       0.31471282 0.060342737 0.18974912 0.5771741
000050 25 da 09 3f 28 c5 94 be 00 cb 29 be ee a8 8a 3e
       0.5384849 -0.29056668 -0.16581345 0.27082008
000060 08 fe 8d be 58 43 58 3d d5 d8 00 3f 63 c7 87 bf
       -0.27732873 0.0527986 0.5033086 -1.0607723
000070 78 d3 1d 3d a2 72 ce be 53 d5 b0 3e 41 53 84 be
       0.03853175 -0.40321833 0.34537753 -0.25844768
000080 6a 25 8c 3e 4b 0c 4c 3e d4 bd 07 be 74 2a 81 3e
       0.27372295 0.19926564 -0.13256007 0.25227702
000090 ca f5 8f 3e 32 4f e9 3e 3e 96 5d be de 30 ee be
       0.2811721 0.45568234 -0.21639344 -0.46521658
0000a0 f8 a4 e0 3d 29 bb e2 bd 95 96 33 3d b3 3c 89 3d
       0.10968965 -0.11070854 0.043844778 0.067010306
0000b0 29 78 d5 bc fb 57 aa bd c6 52 71 3e 50 99 95 3d
       -0.026058273 -0.08317562 0.23566732 0.07304633
0000c0 f2 aa 73 3f f4 aa e8 be 67 48 f9 be 79 8e a9 be
       0.95182717 -0.45442927 -0.4868805 -0.3311651
0000d0 55 53 a0 be f9 82 ab 3e a8 fe 4b bf 28 5c 24 bf
       -0.31313577 0.33498362 -0.7968545 -0.6420312
0000e0 e3 3e 1e be 71 75 4c bf 4f 95 a3 3e 87 83 94 be
       -0.15453677 -0.798667 0.3194985 -0.29006597
0000f0 8f 95 20 3f 34 bd 60 bf a1 b3 a7 3c 8e bc ac be
       0.6272821 -0.877887 0.020471396 -0.33737606
000100 9f 18 00 3e 58 31 ae bd 0b 5c 54 3e 8d b9 b6 3e
       0.12509392 -0.08505505 0.20738237 0.3568844
000110 cc 3e 84 3d 2b 36 c9 be 1d 01 bc 3e 7c 50 0b 3e
       0.0645729 -0.3929914 0.367196 0.13604921
000120 90 d2 dd 3d 7b d7 e4 bd a4 09 31 3d b0 00 eb 3e
       0.10831177 -0.11173912 0.043222085 0.45898962
000130 8a 9b 8c be 55 53 29 3e 19 0a f9 bd 8e ef 80 3f
       -0.27462417 0.16535695 -0.12160129 1.0073106
000140 c2 f7 cf 3e 92 65 85 bf 64 ce 5d 3e e7 f9 28 be
       0.40618712 -1.0421622 0.21660763 -0.1650158
000150 52 a4 63 be a8 85 1b bf e1 b4 a4 3d bc 7c 06 bf
       -0.22230652 -0.6075082 0.080423124 -0.5253408
000160 8a f7 52 be a9 e7 fe 3d 29 36 71 3e 0e ec 0a bf
       -0.20602241 0.124465294 0.23555817 -0.5426644
000170 27 f5 58 3e 46 5b 8a be f8 93 97 be 7e 2e 5f be
       0.21187268 -0.2702276 -0.2960508 -0.21795079
000180 71 bc 9e 3e d3 2b 61 3d d5 a1 3b be 92 62 af be
       0.31003144 0.054973435 -0.18323453 -0.3425489
000190 14 67 6f be e6 db d0 3d c3 ed ff 3d de 16 52 be
       -0.23379165 0.10198192 0.12496521 -0.20516536
0001a0 0f e0 d8 3d cf 0d 06 bf a4 55 b1 be d4 33 66 be
       0.10589611 -0.5236482 -0.3463565 -0.22480708
0001b0 57 5e 66 3e f8 b2 09 bf ae 87 ff 3d a9 9b 30 3e
       0.22496925 -0.5378871 0.12477051 0.1724688
0001c0 34 d3 00 3e dd f3 c2 be df d9 1d 3e 2f a0 3f 3f
       0.12580568 -0.38076678 0.15415142 0.74853796
0001d0 4e 39 39 3f 6c 0d 14 bf f7 1f 34 be 6b 45 7a be
       0.72353065 -0.5783298 -0.17590319 -0.24440543
0001e0 7b cb 11 bf dd 52 aa be b4 f3 a0 3e b0 88 2e be
       -0.5695111 -0.33266345 0.3143593 -0.1704433
0001f0 f4 78 8f be 92 e3 73 be 97 a6 c4 be 7c 41 81 3e
       -0.28021967 -0.2381728 -0.38408348 0.25245273
000200 e8 78 81 3e 01 b7 dc be c3 d7 b3 3e 77 41 02 3e
       0.25287557 -0.4310837 0.3512555 0.12720285
000210 88 7f f7 be 8d b5 26 3f 4d 42 20 3e 59 7b 6d bf
       -0.48339486 0.65120775 0.15650292 -0.9276634
000220 02 81 ad be 75 cd cf be 55 ee 16 be 93 2c 46 3f
       -0.33887488 -0.4058644 -0.14739354 0.77411765
000230 0f 38 48 3f 2c 99 25 bf 53 2f 9b 3e 28 6f 99 be
       0.7821054 -0.64686847 0.30309543 -0.29967618
000240 6d 7e 8f 3e 50 0f e8 be 9e 3c 81 3e 82 f8 25 3e
       0.28026143 -0.45324183 0.2524156 0.1620808
000250 5c 69 be 3e 34 bd a5 be d2 12 46 3d 31 02 1a 3e
       0.37189758 -0.32370913 0.048357792 0.15039898
000260 59 19 06 3e f6 b3 7c be f9 63 be 3e a2 69 99 be
       0.13095607 -0.24678025 0.37185648 -0.29963404
000270 ee 2c 7f bc 64 88 d9 3e c6 6c 92 3d 36 2e e3 be
       -0.015574677 0.4248687 0.07149653 -0.44371194
000280 ed fd bd 3e 4f bb b7 3d f7 75 0c 3d fa 0c a1 be
       0.37107792 0.08971273 0.034292188 -0.31455213
000290 ea 8d 8d 3e dc df 63 bf 64 84 3f be 2a 8a b3 3e
       0.27647334 -0.8901346 -0.18702847 0.35066348
0002a0 d8 8f 26 bf cf 12 8e bd 5f fa fc be 20 19 2c 3f
       -0.6506324 -0.06937181 -0.49409768 0.6722584
0002b0 bd 6b 69 3e 61 a6 d5 bd bf a8 84 3e fe 03 af 3e
       0.22795005 -0.10432125 0.25909993 0.34182733
0002c0 54 5d ec 3d ee b3 a8 3d d5 ca a1 3e 66 c8 c4 be
       0.115412384 0.08237444 0.3160006 -0.38434142
0002d0 61 9f 91 be d6 d2 9b be 51 67 af 3d 09 af fe be
       -0.2844191 -0.30434293 0.08564628 -0.49742916
0002e0 2b 32 5a 3e 56 b0 5b 3e 2b d0 ab be 53 cc 9a be
       0.213082 0.21453986 -0.33557257 -0.30234012
0002f0 59 bc a8 3d 4d 1a be 3f fd b2 93 bd 0d 28 f9 bd
       0.082390495 1.4851776 -0.07211874 -0.12165842
000300 c8 8a da 3e 43 ba b5 3d cf f7 97 be 44 2f 56 3e
       0.42684007 0.08873417 -0.2968125 0.20916468
000310 44 35 c3 3b bb af c7 bc c0 73 42 bf 5f 6d 5a 3e
       0.0059572775 -0.024375787 -0.7595787 0.21330784
000320 a5 da cd be 33 00 75 3d 48 06 b0 3e 1d da 22 3e
       -0.40205875 0.059814643 0.34379792 0.15903516
000330 89 14 c7 be 05 60 f7 3d 21 47 19 bd be ce 52 bf
       -0.38882855 0.12078861 -0.03742135 -0.82346714
000340 73 44 08 be 0c 2d 0d 3e 9d 13 29 3d a5 92 95 3f
       -0.13307361 0.13786715 0.04127847 1.1685377
000350 d2 c9 24 3d 1d be 40 be 07 f3 83 bd cc 32 ca 3e
       0.040231533 -0.18822522 -0.06442838 0.3949188
000360 75 2b e5 3e 8a d3 71 be 1c 21 37 3f 7f 92 42 bf
       0.44759718 -0.23615852 0.71534896 -0.76004785
000370 9a 4a 87 be 36 90 98 3e fc 90 5a 3e 19 bf 0f bf
       -0.26424104 0.29797524 0.2134437 -0.56150967
000380 b1 68 b6 be 5e 83 76 3f f8 5c 9e 3e 30 5b 18 3e
       -0.35626748 0.962942 0.30930305 0.14878535
000390 10 d3 0c 3f 8d ca ab 3e e3 2c b4 3e 41 1e fd bd
       0.55009556 0.3355297 0.35190496 -0.12359286
0003a0 d8 b4 48 3e d6 e4 af 3e 7b 7c 40 3f 8f 5d ae be
       0.19600236 0.34354275 0.7518994 -0.34055755
0003b0 6b 16 a9 be 01 52 ed be d0 15 b3 be 6f 82 c3 be
       -0.33024916 -0.46351627 -0.3497758 -0.3818545
0003c0 3e 30 ca 3d 89 5d 33 3e fc 1c a0 3e df 72 19 bf
       0.09872483 0.1751615 0.31272113 -0.59940904
0003d0 13 5b 98 bd 26 1e 93 be a1 ec 46 3e 13 fb 65 3f
       -0.07439246 -0.2873394 0.19426204 0.89836234
0003e0 4c 8b c7 3e bd 21 d0 be e7 1c 06 be 20 55 99 be
       0.38973463 -0.4065074 -0.13096963 -0.29947758
0003f0 b3 60 08 bb dc 6b 69 be de 2f c4 bb 4c 87 18 bf
       -0.002080959 -0.22795051 -0.0059871515 -0.59581447

mlp.0.bias f4 [64]
000000 9a c3 0f 3e 27 f7 2a 3e 66 dd fd be 4f 8a af be
       0.1403946 0.16695844 -0.49582976 -0.3428521
000010 98 1f cc 3e f5 25 21 bf 5b a3 a7 be c1 0c 13 bf
       0.39867854 -0.6294854 -0.32741818 -0.57441336
000020 53 a9 05 3e 02 87 a6 3e 8a d9 a9 3d 2f 5a 60 3d
       0.13052873 0.32524878 0.082934454 0.054773506
000030 70 3e 73 bf 19 6e 81 3e 45 7a 99 bd 82 eb bc be
       -0.9501715 0.2527931 -0.07494024 -0.36898428
000040 f0 9a d2 be 23 3b b8 be 4d 58 04 bf c0 ff 71 bd
       -0.41133833 -0.35982618 -0.51697236 -0.059081793
000050 ef 5d 88 be b6 82 01 bf 23 e3 48 3e e4 b1 02 3e
       -0.26634166 -0.50590074 0.19617896 0.12763172
000060 24 87 c3 be 3f 75 df be 59 48 51 3b b5 c0 61 be
       -0.38189042 -0.4364414 0.0031933992 -0.22046168
000070 78 7e f1 bd cb f8 a0 bd ea 52 6e 3d 0a 01 6f bd
       -0.117917 -0.078599535 0.05818454 -0.0583506
000080 eb c2 d7 be 58 c6 82 3e ed 69 8c 3e bd 84 1e bd
       -0.42140898 0.2554195 0.27424565 -0.038700808
000090 09 78 07 3f e3 17 10 be c1 c9 11 be dc 18 f3 3d
       0.52917534 -0.14071612 -0.1423712 0.11869976
0000a0 c3 3f bf 3d 95 f2 1a be 30 a7 a4 be 27 81 f6 be
       0.093383335 -0.151316 -0.32158804 -0.4814541
0000b0 ca 4b 08 bf c9 f4 66 be 81 a8 a0 3e ee 3d 1e 3f
       -0.53240645 -0.22554316 0.31378558 0.6181325
0000c0 27 16 cc be 41 4c 42 bc db a6 79 3e 7a 71 35 be
       -0.3986065 -0.011859001 0.24380057 -0.17719069
0000d0 44 fa 8a be f1 9e 7c be 42 6a 85 be 9e fa 65 bd
       -0.27144063 -0.24670006 -0.2605763 -0.05614721
0000e0 5b 5b 8a 3d 7c 31 39 be 3f 52 3d 3d f6 fa c6 bb
       0.06755706 -0.18085283 0.046221014 -0.0060723973
0000f0 b3 b4 7c be 7f 97 ef 3c 59 8a f3 be c4 1e 91 bc
       -0.24678306 0.029247044 -0.47566488 -0.017714866

mlp.3.weight f4 [128, 64]
000000 54 b1 91 be 7b 17 6e be 9c aa 09 3e fa 15 73 3e
       -0.28455603 -0.23251145 0.13443989 0.23738852
000010 ca 7b 34 bd 6c 9e a8 3e 19 69 b0 be ae 96 a6 3d
       -0.044063367 0.32933366 -0.34455183 0.081342086
000020 8a 6b 4b bf 8c 62 03 bd 41 87 25 bf d0 e8 02 be
       -0.79460967 -0.032076403 -0.64659506 -0.12784123
000030 18 30 ce 3e 32 15 88 3f ac 42 c8 be ff b3 2f 3e
       0.40271068 1.0631468 -0.39113367 0.17158507
000040 8f b4 cc 3e 6c 55 9f 3d c4 ad e0 bd 61 ae 12 3f
       0.39981505 0.07779965 -0.10970643 0.5729733
000050 c6 e0 55 3e 4c 66 b8 3d 76 40 10 3f 37 d5 86 3f
       0.20886526 0.090038866 0.5634836 1.0533818
000060 cc c9 a7 bc 36 50 a2 3e 3d 40 ea bd 4f f4 ab 3e
       -0.020481966 0.3170182 -0.11438034 0.3358483
000070 80 5a d1 be 7a 1c 92 bd 6a db 18 be e7 10 be be
       -0.4088936 -0.07134338 -0.1492745 -0.3712227
000080 26 73 a2 3b c1 a5 22 be b7 8b 85 be 50 2e ab 3f
       0.0049575744 -0.15883543 -0.26083156 1.3373508
000090 5d 17 17 3d 67 67 62 bf 35 36 3e 3f 3b 5d 19 bf
       0.036887515 -0.8843903 0.74301463 -0.59907883
0000a0 0e 01 cc 3e 2e 2e b4 3e ad 91 74 3f 3e 96 e7 3d
       0.39844555 0.35191482 0.95534784 0.11307953
0000b0 b9 e8 c2 3e c6 c4 49 3e bb c5 c0 3c f8 23 32 bf
       0.38068178 0.1970397 0.023531785 -0.69586134
0000c0 e4 98 34 bf 26 f4 0a be ea e2 fa 3e 51 94 ca 3e
       -0.7054579 -0.13569698 0.49001247 0.3956628
0000d0 dd f9 0a be ff 91 b6 3f 07 d5 66 be 5d 5f 87 3f
       -0.13571878 1.4263304 -0.22542201 1.0575978
0000e0 17 72 d1 be 7d 97 96 3e 2b 9e 7c bb c3 11 77 be
       -0.40907356 0.2941245 -0.0038546424 -0.2412787
0000f0 ec 37 35 3e 63 8d bb 3f f7 cd 64 3d d3 15 d2 be
       0.17697114 1.4652523 0.055860486 -0.41032276
000100 8e 0b 77 bf 68 67 a3 be 39 2f 28 bd f3 55 f4 3e
       -0.96502006 -0.3191483 -0.04106066 0.47721824
000110 75 a2 df 3d b9 06 ab be e4 62 1e be 32 f0 1a bd
       0.10919658 -0.33403566 -0.15467411 -0.037826724
000120 a7 c8 56 bf cc 20 0f bf bd 6e 95 bf da aa e8 bd
       -0.8389992 -0.5590942 -1.167442 -0.11360712
000130 5f a5 8a 3e 45 1c 42 3f a8 ac bc 3d 68 db d9 3e
       0.27079293 0.75824386 0.09212619 0.42550206
000140 b2 aa 9e 3e 92 ca 92 be ad da c7 be da 74 0a 3f
       0.30989605 -0.28670174 -0.39034024 0.5408455
000150 a1 c6 af be 4c 8f 7a 3d c1 22 6f 3f ba 0f 0d 3f
       -0.3433123 0.061171815 0.93412405 0.5510212
000160 09 7e 91 be 43 27 66 3d 75 1d 6b be 92 62 05 3f
       -0.2841647 0.056189787 -0.22960456 0.5210353
000170 48 84 c2 bf 45 bb 29 3e 25 a9 c4 bd 2c 0a 8f bf
       -1.5196619 0.16575344 -0.09602574 -1.1174979
000180 b0 0a 2b be db ca 32 bf 16 f0 80 3e a4 80 65 3f
       -0.16703296 -0.6984078 0.2518317 0.89649415
000190 fc f1 d4 3e 5b 6e 97 bf 18 d7 2c 3f fb be 63 bf
       0.4159087 -1.1830553 0.67515707 -0.8896329
0001a0 89 28 d1 3c 4b 52 cc 3e 60 ca 21 3f 88 ec 1c 3e
       0.025532024 0.39906535 0.63199425 0.15324605
0001b0 eb 35 30 3e 67 bb ec be d1 75 d7 3e 3f e3 0e 3d
       0.17208068 -0.46236727 0.42082074 0.034884688
0001c0 70 f2 41 bf 7b 3b 69 bf e3 40 85 3f f4 ee 16 3f
       -0.75760555 -0.91106385 1.0410427 0.58958364
0001d0 c4 66 3e be 6b 0f 34 3f 82 17 4b bf 5c 69 3d 3f
       -0.1859389 0.70336026 -0.79332745 0.7398889
0001e0 9a fa b0 bf 9d 74 db 3e 13 ae 16 be 67 f2 bc bd
       -1.3826478 0.42862406 -0.14714842 -0.09225922
0001f0 9a d8 1b be c8 52 3c 3f 8a 0e 03 bf af a2 2b be
       -0.15219346 0.73563814 -0.5119406 -0.16761278
000200 28 fb 08 3e f4 93 a6 3e 54 f7 7c be 02 15 0a 3e
       0.13377059 0.32534754 -0.24703723 0.13484576
000210 14 17 10 3e 6b a3 7a be bc 30 7d 3e 6e b4 9e 3e
       0.14071304 -0.24476402 0.24725622 0.30997032
000220 c4 4b a8 bb 30 51 d1 3c 37 a4 fe be 2d 99 aa 3e
       -0.005135985 0.025551409 -0.4973466 0.3331999
000230 7b a2 fb 3d bc a5 20 3f b9 2b 11 be 32 af 11 3e
       0.1228685 0.6275289 -0.14176835 0.14226988
000240 c1 e8 80 bf 11 e0 8b be 75 5f e6 3d 24 e5 3c 3f
       -1.0071031 -0.27319387 0.11248676 0.7378714
000250 32 22 b6 be 3d e7 d8 3e dc 1c 47 3e 2f cd ba be
       -0.35572964 0.4236392 0.19444603 -0.36484668
000260 aa c4 e4 3d 4b ad a3 3e d5 57 15 3f 06 a1 7a 3c
       0.11170323 0.3196815 0.58337146 0.01529718
000270 87 5d b0 bd 65 ef 7d 3d 12 72 e5 bd 9b 5f c4 be
       -0.08611589 0.061995883 -0.11203398 -0.3835419
000280 e6 9a bf 3e f8 25 0d bd 24 2e d5 3e 2f 86 4d 3e
       0.37422866 -0.034460038 0.41636765 0.20070718
000290 a8 30 1c 3d f5 be c7 bd 2a 55 54 3e d0 e0 5b be
       0.03813234 -0.09753219 0.20735613 -0.21472478
0002a0 0c 4c 0d 3e 5b a6 67 3e 43 ae 10 bd 7a 09 ae 3d
       0.13798541 0.22622053 -0.03532244 0.08497901
0002b0 15 50 fe 3e d3 ba 32 3e 35 a2 aa 3e 37 45 32 bf
       0.49670473 0.1745408 0.3332688 -0.69636863
0002c0 54 1a 4a bf 89 af 9f be 67 9f 70 be 73 07 8e bd
       -0.78946424 -0.3118861 -0.23498307 -0.069350146
0002d0 12 41 03 3f 24 18 3e 3e b3 f4 95 3c ab 0c 22 3f
       0.51271164 0.18563896 0.018305158 0.6330058
0002e0 6f 2e 99 be e8 53 78 3e a4 6b b3 3e 83 10 fd 3d
       -0.2991824 0.24250758 0.3504306 0.12356665
0002f0 27 72 a0 3e d8 3e dc 3e 72 02 a4 be 4f bb 59 be
       0.3133709 0.43016696 -0.32033116 -0.21262859
000300 2c b9 e5 be b5 76 3c be 10 01 81 bd 29 5b 90 3e
       -0.44867837 -0.18404658 -0.06299031 0.2819455
000310 68 f1 0f 3e 79 e8 72 be 08 0d 03 be c3 56 26 be
       0.14056933 -0.23721494 -0.1279794 -0.16244034
000320 ff 1a 46 bf 8a f0 5c 3e b0 7e 0f bf 12 ba 8b 3e
       -0.7738494 0.21576133 -0.56052685 0.27290398
000330 49 bb 65 3e 2b b6 73 3f 0f ac b3 39 38 01 ac bd
       0.22434725 0.9519984 0.00034269734 -0.0839867
000340 8e f6 bb 3e 0e 54 7d bd b5 51 96 be 00 a2 06 3f
       0.36711544 -0.06184774 -0.29359213 0.5259094
000350 b5 01 d1 bd 0f 2a 5e be 03 2e 04 3f ac 09 34 3f
       -0.10205404 -0.21695732 0.5163271 0.7032726
000360 52 d2 bd be 23 08 85 bd 25 0a c9 3e 62 5b 28 be
       -0.37074524 -0.064956926 0.39265552 -0.1644111
000370 8c e2 79 be d9 dd 68 be f2 8b d4 bd da 02 b8 be
       -0.24402827 -0.22740878 -0.10378255 -0.35939676
000380 f6 cc 40 be 0d cb 04 3f 07 32 04 3e e4 87 28 3f
       -0.18828186 0.5187233 0.12909709 0.6583235
000390 77 a8 e1 3e ca 67 97 bf a5 7a c8 3e 66 c5 0e bf
       0.4407384 -1.1828549 0.3915607 -0.55769956
0003a0 1a 4e 5f 3e 47 f6 a0 3d 79 d7 d0 3e 88 65 39 bd
       0.21807137 0.07859474 0.40789393 -0.045262843
0003b0 17 7e 70 3d 43 6e 77 be 55 32 b2 3d 81 32 99 3e
       0.058714 -0.24163155 0.08701006 0.29921344
0003c0 5d 49 5d bf c2 02 ab be 08 3b 41 3f b9 ce 57 3e
       -0.8644007 -0.33400542 0.754807 0.21074952
0003d0 7e 97 0b 3e b3 44 27 3f 42 9f 04 bd c2 9a 6c 3f
       0.13632008 0.653392 -0.032378443 0.9242364
0003e0 4a 11 49 bf 43 fb 25 3c 8e 61 95 be 55 a8 54 bd
       -0.78542006 0.010130706 -0.2917599 -0.051918346
0003f0 d7 99 92 bc 08 4d 54 3f f6 5e 45 bf 65 0e 9a be
       -0.017895622 0.8293004 -0.77098024 -0.30089107

mlp.3.bias f4 [128]
000000 1e 3d 24 bf 08 cb fd bc 07 75 55 be c9 28 5a 3d
       -0.6415576 -0.030980602 -0.20845424 0.053261552
000010 28 01 92 3d 87 7e fe be f1 67 d1 be c5 26 8b be
       0.07129127 -0.49705908 -0.40899613 -0.27178016
000020 10 2e a4 be 9c df 0b bf 02 2e 32 be 69 10 56 3e
       -0.32066393 -0.54638076 -0.17400363 0.20904697
000030 f3 18 5b be d6 10 62 be 11 17 aa bd 32 c6 a2 3b
       -0.21396236 -0.22076735 -0.08305181 0.0049674744
000040 44 33 ef be 5e c5 78 bf 96 0b 63 bf 91 0e 60 bf
       -0.467188 -0.9717616 -0.88689554 -0.87522227
000050 db 6a bc 3e 1c e8 0a bf b5 cc 19 bf 34 c9 76 be
       0.36800274 -0.5426042 -0.60077983 -0.2410019
000060 39 26 32 bf a3 02 15 bf 56 9d 39 bf 52 8e bb 3e
       -0.69589573 -0.5820715 -0.725057 0.3663202
000070 c5 66 3e bf 0e 1d 68 be ac 9c 12 bf 85 36 f7 be
       -0.74375564 -0.22667333 -0.5727031 -0.48283783
000080 df e6 af be 9a 0d 21 3e 3a 72 2a bf d2 16 d6 be
       -0.34355828 0.15727845 -0.66580546 -0.41814286
000090 74 6f 6b bf 31 a2 1c bf e2 b1 08 bf 82 b4 cf 3e
       -0.9196694 -0.61184984 -0.5339643 0.40567404
0000a0 5e 91 80 bc ef 91 da be ea 8a 22 bf 68 91 61 bf
       -0.015694316 -0.42689463 -0.63493216 -0.881125
0000b0 c3 0d 9d 3e 0e a2 c6 be 74 ad 1b 3d c5 6b e1 be
       0.30674562 -0.38795513 0.038007215 -0.44027534
0000c0 f0 4f 23 bf 84 1f da be f7 77 2a bf 33 61 1b bf
       -0.6379385 -0.4260217 -0.665893 -0.6069519
0000d0 3d 30 4c be 9d d9 ad be 49 ca 49 bf 07 13 14 bf
       -0.19940276 -0.33955088 -0.7882429 -0.57841533
0000e0 1f ba 2c bf 6a f5 14 bf d6 62 df be a7 32 bb be
       -0.674715 -0.5818697 -0.43630093 -0.36562082
0000f0 46 e5 28 bf e5 3e 40 bf f3 e9 a6 be 35 dc 3a bd
       -0.65974844 -0.7509597 -0.32600364 -0.045620162
000100 21 86 58 bf bb ed 64 bf ef ab 17 bf 10 c6 c2 be
       -0.84579664 -0.8942525 -0.59246725 -0.38041735
000110 e5 36 c1 3e d3 7d c1 3d d1 39 87 be c3 ee 1e bf
       0.37737194 0.09447827 -0.26411298 -0.6208307
000120 a3 27 3f bf bf 01 90 bf 17 02 2f bf 39 98 ce be
       -0.74669856 -1.1250533 -0.68362564 -0.40350512
000130 90 86 e1 be c9 49 fb be ce 32 f9 3d d4 61 46 bf
       -0.44047976 -0.4907973 0.12167893 -0.77493024
000140 f2 1e 2c bf 62 c6 b2 3e c1 47 07 bf 99 75 cf bd
       -0.6723472 0.3491698 -0.5284386 -0.10129852
000150 c3 6c 5c 3f 71 74 59 bf a2 de d6 be c3 26 92 bf
       0.8610346 -0.849433 -0.4196673 -1.1418079
000160 57 43 ba be 21 a3 37 bf 01 d4 63 be d9 81 07 be
       -0.363795 -0.7173329 -0.22248842 -0.13233127
000170 76 d1 91 bf bc 03 cc be 9d fe 39 bf 89 41 47 bf
       -1.1392047 -0.398466 -0.72654134 -0.77834374
000180 30 bd 54 bf 43 1f 09 be 4c 7d 16 bf 07 3d 14 bf
       -0.8310118 -0.13390832 -0.5878494 -0.5790562
000190 7a a9 00 bf 6b 1b 5c be 20 1b 2a be 11 67 6e bf
       -0.502586 -0.21494834 -0.1661191 -0.93126017
0001a0 7e 87 3b bf 7c a3 cd bd 36 00 42 3e d5 e3 02 bf
       -0.7325362 -0.10040948 0.18945393 -0.51128894
0001b0 cd 5d b7 be d2 60 ec bc f7 f9 1b 3c 5a fb 50 bc
       -0.35813752 -0.028854761 0.0095200455 -0.012755239
0001c0 d4 c1 ce be e9 9e b3 3d de bd 1f bf 19 63 0e be
       -0.40382254 0.08770544 -0.6239909 -0.1390499
0001d0 08 2c 96 be 0e c8 71 be 76 80 28 bf 23 0b 17 bf
       -0.29330468 -0.23611471 -0.65821016 -0.5900137
0001e0 73 96 0d bf 56 b6 e9 be de 84 35 bf 85 e3 ab be
       -0.5530769 -0.45646924 -0.70905864 -0.3357202
0001f0 70 b6 69 bf f7 2c 17 bf df d9 59 3d 62 9f 61 bf
       -0.91294 -0.59052986 0.053186294 -0.88133824

mlp.6.weight f4 [1, 128]
000000 c0 38 93 bf 12 01 6f bf d6 e4 a2 be ca 56 37 bf
       -1.1501694 -0.9336101 -0.31815213 -0.71616805
000010 64 d3 e2 be e8 05 ae be 47 23 a6 3e 78 98 91 be
       -0.44301903 -0.3398888 0.3244879 -0.28436637
000020 9e d7 b6 bd d3 2f 00 bf 78 ad 6c be f3 ee 67 bf
       -0.089278445 -0.50072974 -0.23113048 -0.9059898
000030 09 15 ef 3d be 84 25 3e 4d 14 1d bf 4b 39 02 bf
       0.11673934 0.16163918 -0.613591 -0.5086867
000040 05 45 81 be 6e 4b 5e be 5a c9 30 3e 2c 86 63 bc
       -0.2524797 -0.21708462 0.1726431 -0.01388697
000050 50 7a b6 3e 1a c1 58 bd df dc 04 be 33 bf 52 bf
       0.35640192 -0.05291853 -0.1297488 -0.82322997
000060 de 5b a8 3e e2 68 be 3c 24 77 61 bf f1 76 7e bf
       0.3288259 0.023243371 -0.8807242 -0.9940024
000070 66 7f 1a 3e 82 18 9d 3e 16 06 09 3d b6 4a 01 bf
       0.15087661 0.3068276 0.03345307 -0.50504625
000080 b9 db 4a bf fb e8 23 bf 8c 6d 0f bf 56 9e 66 bf
       -0.7924152 -0.64027375 -0.5602653 -0.9008535
000090 47 95 b9 3e 4d 4a 15 3d ee 86 44 bf b3 8b 0c bf
       0.36246702 0.036447812 -0.76768386 -0.54900664
0000a0 73 7d 9d be c1 69 ed bd 58 2e a5 be 0c 4b d4 bc
       -0.30759773 -0.115924366 -0.3226192 -0.025914691
0000b0 cc 84 3a bf 46 8a 74 be ec 3f 4b bf 2f fe 72 be
       -0.7285888 -0.23880872 -0.7939441 -0.23729776
0000c0 d4 92 43 bd d3 03 be 3d 27 a5 f9 3c 81 94 21 be
       -0.047747448 0.09278073 0.030474259 -0.15779306
0000d0 cc 2b d5 bd e7 e6 bb be 1a c6 38 3d 50 cf ec be
       -0.10408744 -0.36699602 0.0451108 -0.46251917
0000e0 73 77 29 3b 97 b7 e3 be 3a 06 93 bd 46 f1 3e 3d
       0.002585855 -0.44476005 -0.07178922 0.046616815
0000f0 64 12 5d be f4 09 eb bd 9d 01 98 be 61 c6 18 3e
       -0.21589047 -0.11476508 -0.2968873 0.14919426
000100 40 3a 87 3d d4 36 ff be bf 4f 91 be 3e 55 91 be
       0.06602907 -0.49846518 -0.28381154 -0.28385347
000110 b6 1f a2 bf c2 b6 18 3e ca ea b0 be 76 e9 2d bd
       -1.2665927 0.14913467 -0.3455413 -0.042458974
000120 81 56 20 3e 89 72 80 bc 9f 03 3a bf ea 0d aa 3d
       0.15657999 -0.015679615 -0.72661775 0.08303435
000130 8c d8 85 be 50 08 10 be af 7f a9 be f2 61 0b be
       -0.26141775 -0.14065671 -0.33105227 -0.13611582
000140 6f 40 a1 bd 19 da a2 bf 18 64 ce be 4e d1 59 be
       -0.07873618 -1.2722808 -0.4031074 -0.2127125
000150 af 3e 1b 3f 3d 67 3c 3e 1c 95 04 be 8b 48 5f bf
       0.6064252 0.18398757 -0.12947506 -0.87220067
000160 9f 59 06 3c 29 de 50 be 49 f4 04 bf ef 05 4d bd
       0.008200078 -0.20397247 -0.5193525 -0.050054487
000170 e8 79 97 be 7b 3a a8 be e7 63 7e be 8f a5 81 be
       -0.29585195 -0.32857117 -0.24842797 -0.25321624
000180 48 99 db be 7d 1b a4 be d5 08 af 3c c4 1a 19 bf
       -0.42890382 -0.32052222 0.021366516 -0.59806466
000190 dd 9f 88 3f bc 9f 02 bf 96 eb e8 be 95 fd fe 3d
       1.0673786 -0.51024985 -0.45492238 0.12450711
0001a0 64 79 49 be 1b a7 e3 be 7f 23 9a bf 32 b8 9f be
       -0.19675213 -0.4446343 -1.2042083 -0.31195217
0001b0 0d b2 70 be b7 17 eb 3e c2 18 40 bf 71 89 b8 be
       -0.23505421 0.4591653 -0.7503778 -0.3604236
0001c0 d0 98 dd bd f0 9a a8 be a2 52 b3 be 8f f8 31 bf
       -0.10820162 -0.32930708 -0.3502398 -0.69519895
0001d0 82 aa b7 bd b5 dd da bc 5d 70 41 be c2 42 5e be
       -0.08968069 -0.026717046 -0.1889052 -0.21705154
0001e0 09 5e 30 be 72 ca b4 be 8a 17 98 be 08 22 b1 bd
       -0.17223372 -0.35310704 -0.2970546 -0.08649069
0001f0 0d 13 f9 bc f2 fc 2f bf 52 e2 98 be b8 4e 8e be
       -0.030404592 -0.6874534 -0.2986017 -0.27794433

mlp.8.weight f4 [4, 5]
000000 0f e6 5a bf 0e 43 45 bf e2 10 3b 3e 45 6b c6 3e
       -0.8550729 -0.7705544 0.18268159 0.38753715
000010 74 9c 9f be b3 c2 d4 3e b7 79 19 3e 46 a6 8f be
       -0.31174052 0.41554794 0.14987837 -0.28056544
000020 81 9b c6 be 4d 45 c3 3e 27 c6 15 3f a3 d1 97 3f
       -0.38790515 0.3813881 0.5850548 1.1860851
000030 9e f6 12 3f 38 e2 0b 3f 92 c2 c2 3e 62 70 99 be
       0.5740756 0.5464206 0.3803907 -0.29968554
000040 ed e2 ab 3e b2 38 9a 3e 4d ed dc 3e 4c d1 38 bd
       0.33571568 0.3012138 0.43149796 -0.045121476

mlp.8.bias f4 [4]
000000 e8 4a 57 be b5 7f cf 3e 02 17 42 bf 72 94 b6 be
       -0.21024668 0.4052712 -0.7581636 -0.3566013
