models/model1.pth (torch, 290136 bytes, 8 tensors)

mlp.1.weight f4 [128, 40]
00000000: d102 e73d f5c0 fb3d 6add 3fbd e66c 0d3e
00000010: 80af 33bd c5af 023d eda6 9dbd 182c be3d
00000020: 0d04 013e 0ffd 00be 034f 093e b29f b43c
00000030: 323d ef3d a0b1 473c 0d24 9c3d 5de1 b6bc
00000040: df85 e23d 792b 693c add9 a3bd 6af7 053d
00000050: c831 95bd 5fe6 97bc 0766 96bd 9acf d63d
00000060: 9471 08be 0917 abbd bcea 57bd edc1 d3bd
00000070: c880 743c ece9 1fbe 9d38 123e b1f4 12be
00000080: 1941 f63d af3a a33c c1cb 5bbd 9f5b c33d
00000090: 69e1 323c 0c5c f13d d1d0 183c 3318 65bd
000000a0: 1b9e 343d 7de6 4ebd f46b 213d 302e f53d
000000b0: f692 963d 6290 8dbd a1ed ba3d f1c1 e73c
000000c0: 571b 9d3d 00d5 dabd f2b6 36be c1f9 9ebd
000000d0: 0e60 f8bd f617 e53d fd89 3a3d 2621 863d
000000e0: e05f 343d a01a 7dbc ccbc d23d 5ff6 03be
000000f0: 231c 233c ad04 ddbd c4ef fc3c a908 5fbd
00000100: 4ca8 463d 0a33 2fbd 782f d93d 268a e8bd
00000110: bb1f c1bd b722 c1bd a6a0 113e 3f99 0e3d
00000120: 66d9 0c3e 5c72 12be f250 22be f264 00be
00000130: b771 e2bd 70b3 7e3d e3b0 603d 0098 063e
00000140: c57e f2bd 3fde 13be f5ef 8a3d 6f35 b6bd
00000150: dcf0 893d 1faf 19bd 033d b93d 7b98 fbbd
00000160: 63d4 e7bd b8f4 533c 0d09 2c3c df74 88bd
00000170: 7f04 c13d db8a a13d d9d2 eabd 2fe0 acbd
00000180: 6ac5 e43d 0750 b2bd 387c a1bd 9c90 37be
00000190: c470 b9bd 0ec8 213d 44aa 4abd ec0d ebbd
000001a0: df98 1bbd 2e58 14be e395 18be bb49 dfbd
000001b0: 52b4 0dbe cf2f cebd 65d8 213e f93e a63a
000001c0: ba78 a73c 14f1 37be ff34 0dbe 8289 b1bd
000001d0: e40d 70bc 3a5c 2abe d812 c5bd 1441 01be
000001e0: b19e f7bb c6bb 94bd 19bb e7bc 08bd febd
000001f0: 343a 00be 62ea bcbd 01af 5dbd 2f95 ffbd
00000200: 5573 fb3d 72f4 37bd c02f f33d 94fc 073d
00000210: 8e1a 09be 07e9 bd3d 7a31 32bd 5241 78bd
00000220: 7797 0fbe f37e 2ebe 2e26 dd3c 2e50 4fbd
00000230: 9a23 7c3d 5bdf 04be 8b3a ce3d 02b3 edbd
00000240: 9705 26bd 7f57 903c 1fe0 883d 21b9 e43d
00000250: fe7d 133e 8461 00be 07fd 223d 0177 adbd
00000260: 229b 18bd a1df 0cbe 9c62 f53d 4b9c 0fbe
00000270: 483c 7c3d 4423 1a3d 978d 0b3d b7e2 ddbd
00000280: 1fc7 263e 3e94 693d 837f 1e3d 2aa7 f3bd
00000290: 6e39 b73d 2851 c2bc 3a59 94bd 2312 0b3e
000002a0: 66a5 333d 915f 84bd 253a 59bd 837b 703c
000002b0: 98ce b43d 75d5 8dbc 11c3 b8bd 1ec7 5dbd
000002c0: 3fc8 e1bd 73a7 a23d 057c 193e a19f 01be
000002d0: de69 163d 0548 a73d f202 543d 7ba3 66bd
000002e0: 06bf da3d 93f2 da3d 8185 9a3d 3770 2bbc
000002f0: 937e 2bbd ae91 8a3c 87d0 e4bc 28d7 c4bc
00000300: 9932 f33d da9a 233e 56bc 303c 25d1 12bc
00000310: fd19 d63c 66e5 4abb 8066 383d 06e3 6b3d
00000320: 9723 0abe 7689 4fbd af7d 013e 225c 663d
00000330: 2d1e 34bc 353b c3bd ef1c c6bd 4908 11be
00000340: 05ba 62bd 7627 583d 2b24 c93d 5f73 8e3d
00000350: 3f1e 0fbe 3f28 c9bd 3d6a ccbc 4a9f 1c3e
00000360: 21fc 9e3c 8ff7 2bbd dfba 803d c271 82bd
00000370: b097 d1bd 9e59 ec3d 7caa 99bd 45d4 01bd
00000380: 5f7b 20be 7eda dd3d 87f8 ed3d 6611 5e3d
00000390: 16ca e1bd 48cb 1fbe b07f 03be 7e0b eb3d
000003a0: 5fbb 9c3d eb52 073e e293 b93d 77bc 433d
000003b0: 9844 c9bb f36f 01be 4469 10be 2579 1bbe
000003c0: fdcc a83d 9722 5dbd 6467 af3c e938 3ebd
000003d0: cd14 fe3b f3e9 e3bd 5696 d3bd ced3 563d
000003e0: fc48 05bd d6f6 f33d d9b1 99bb c57b 9cbd
000003f0: 2e89 e4bc ea29 24bd 6823 46bd e422 1abe
0.11279834 0.12292663 -0.046842016 0.13811073 -0.04386854 0.03190591 -0.07697854 0.09285754
0.12599202 -0.12596534 0.13409047 0.022048805 0.11681594 0.012188345 0.07624064 -0.022324258
0.1106069 0.014231556 -0.08000503 0.032706656 -0.07284886 -0.018542467 -0.07343679 0.104888156
-0.13324577 -0.08354003 -0.052714095 -0.10339723 0.014923282 -0.15616578 0.14279409 -0.14351155
0.12024135 0.019925443 -0.05366111 0.0953896 0.010918 0.11785135 0.009327129 -0.05593128
0.044096094 -0.05051278 0.039409593 0.119717 0.07352249 -0.069123045 0.09127355 0.02829072
0.0767123 -0.10685158 -0.17843226 -0.077624805 -0.12127696 0.11186211 0.045541752 0.06549291
0.044036746 -0.015448242 0.102899164 -0.12886952 0.009955439 -0.107919075 0.030876048 -0.05445162
0.048500344 -0.042773284 0.10604757 -0.11354475 -0.0942988 -0.094304495 0.14221439 0.034814116
0.13754806 -0.14301437 -0.1585119 -0.12538508 -0.11056846 0.062182844 0.054856192 0.13143921
-0.118405856 -0.14440249 0.067840494 -0.088969104 0.067353934 -0.037520524 0.0904484 -0.12284943
-0.113198064 0.012936763 0.010500205 -0.066629164 0.09424686 0.07887813 -0.11465997 -0.08441197
0.11170466 -0.0870667 -0.07885021 -0.17926258 -0.090547115 0.039497428 -0.049478784 -0.11477265
-0.037987586 -0.14486763 -0.14900927 -0.10902735 -0.13838318 -0.100677125 0.15805204 0.0012683562
0.02044331 -0.17963058 -0.13789748 -0.08668806 -0.014651749 -0.16636744 -0.09622735 -0.12622482
-0.0075567593 -0.072623774 -0.028287457 -0.124383986 -0.12522203 -0.092243925 -0.054121975 -0.124796264
0.12277857 -0.044910856 0.11874342 0.03319986 -0.13389036 0.09272962 -0.043504216 -0.06060917
-0.14022623 -0.17040615 0.026995745 -0.050613575 0.06155739 -0.12975828 0.1006976 -0.11606409
-0.040532675 0.017619846 0.06683373 0.11168123 0.14403531 -0.125372 0.039792087 -0.08469964
-0.03725732 -0.13757183 0.11981699 -0.14024465 0.061580926 0.03763129 0.034070577 -0.10834258
0.16286896 0.05702614 0.038695823 -0.118971184 0.08946501 -0.023720339 -0.07243581 0.13581137
0.043858908 -0.0646354 -0.053033967 0.014677885 0.08828467 -0.017313698 -0.09021581 -0.05414497
-0.11024522 0.07942095 0.14988716 -0.1265855 0.036722057 0.081680335 0.05176062 -0.05630825
0.10680966 0.106907986 0.07544995 -0.010463766 -0.041868757 0.016915169 -0.027931465 -0.024028376
0.11874885 0.1597704 0.01078709 -0.008960997 0.026135439 -0.0030959486 0.045019627 0.057589553
-0.13490139 -0.050668202 0.126456 0.05624021 -0.010993523 -0.09532777 -0.096734874 -0.14163317
-0.055353183 0.052772008 0.098213516 0.06955599 -0.13976382 -0.098221295 -0.024953002 0.15295139
0.019407334 -0.041984137 0.06285643 -0.06369354 -0.1023401 0.115405306 -0.075032204 -0.031696577
-0.15672062 0.1083269 0.116196685 0.05421581 -0.11024873 -0.1560489 -0.12841678 0.11476801
0.07652926 0.13215224 0.090614095 0.047787156 -0.00614221 -0.12640361 -0.14102656 -0.15182932
0.082422234 -0.053988066 0.021411605 -0.046440993 0.0077539445 -0.11128607 -0.10331409 0.052448086
-0.032540306 0.119123146 -0.0046903905 -0.07640795 -0.027897444 -0.040079035 -0.04837361 -0.15052372

mlp.1.bias f4 [128]
00000000: 7c85 2cbd 6395 30be dd9f 3abe 1928 19bd
00000010: 4b86 0b3e 33f2 dbbd ab5d b43d a0d0 793d
00000020: fdb8 d1bd 56d0 e43d af57 a03d 77f3 24be
00000030: c807 76bc 452c 06be 6018 0c3e a72e 8e3d
00000040: 9381 8d3d 27a0 f93d 6f7f 173e 35cc 1f3e
00000050: d545 a43d 1aff 1cbe 3216 1e3e 14af 233d
00000060: d0a2 b7bc 312f a3bd 1257 363e 061f b83c
00000070: 86cb e43d 5655 613d df86 1c3e 9fb5 f5bd
00000080: 99a1 643d 53b1 b33c 7654 0cba 32a3 143e
00000090: ab82 833d 2321 05bc be37 fe3d 9e50 02bd
000000a0: 34c6 95bc 3bad fdbd dd2f 473c 7a88 98bd
000000b0: a264 a33d 7b37 263e 330d 2bbe e974 76bd
000000c0: e8cb 023e 25b6 32bd 53ab 443e 8375 1d3e
000000d0: 85c6 37bd 1a5b f1bd 884f d13d 4e21 973d
000000e0: 38df 393e f0b3 183c 4d2d 883d d15c 12be
000000f0: b967 f43c c30a 823d 20e5 fe3d c13c a9bd
00000100: d3fb 3cbd a6c1 adbd 8259 08be eeb5 cb3c
00000110: 00bc e73c 1e44 3f3d ad51 89bc 5f04 043c
00000120: e3c9 15bd cf90 683d 8ecf eabd e0c5 9d3c
00000130: 5d28 aa3d 6cc9 a23d baf9 0bbd d364 053e
00000140: 8a80 13be 6231 7c3d 1283 b33d 4a54 583d
00000150: 492f 143d 4d49 32be 394f b7bd 4c74 12bd
00000160: c6fc 30be d687 86bd 656d 103e a9fe 0ebd
00000170: 6108 173e b369 16be c1f5 4e3d 6f97 093e
00000180: 412c 323e 93a8 aebd d187 febd b697 13bd
00000190: 8da6 d33d 020e d6bc 6b89 273e fbe1 eabd
000001a0: afe4 f0bd 5551 a13d eaaf 923c 610d cfbd
000001b0: f6b2 e53d d44a bfbd 1eb6 21be 4fa8 973c
000001c0: 4fda c9bd 7c35 cdbc d8bf 2cbd 84ab d03c
000001d0: 8e1c 1d3d 9ecb 003e 8470 c2bd 9715 84bd
000001e0: 3f50 233e 6601 58bd 8fa7 82bd c9e5 5bbd
000001f0: 1192 1bbe 2295 c7bd 24df 0b3e 7c17 173d
-0.042119488 -0.17244487 -0.18225046 -0.037391756 0.13625447 -0.10739555 0.08806928 0.060989976
-0.10240362 0.111725494 0.07829224 -0.161085 -0.015016504 -0.13102825 0.13681173 0.06942492
0.0690948 0.1218875 0.14794706 0.15605243 0.08021132 -0.15331689 0.15438154 0.03996189
-0.022416502 -0.079679854 0.17806652 0.02247573 0.111716315 0.055013023 0.15285824 -0.11997532
0.055818174 0.02193514 -0.0005353162 0.14515379 0.06421407 -0.008125576 0.12412976 -0.031815164
-0.018282987 -0.12386557 0.012157408 -0.07447906 0.079781786 0.16232102 -0.16704254 -0.060170088
0.12773097 -0.043630738 0.1920598 0.15376858 -0.044867057 -0.11784954 0.102202475 0.07379399
0.18151557 0.009320244 0.066492654 -0.14293219 0.029834615 0.06349709 0.12446046 -0.08263541
-0.046138596 -0.08484201 -0.13315395 0.024867024 0.028287888 0.04669582 -0.016762579 0.008057683
-0.036569487 0.056778725 -0.11465369 0.019259393 0.0830848 0.079485744 -0.034173705 0.13026743
-0.14404503 0.061570533 0.08765234 0.05281476 0.036177907 -0.17410775 -0.089506574 -0.03575544
-0.17283925 -0.065688774 0.1410423 -0.03491083 0.1474929 -0.14688759 0.050527338 0.13436674
0.17399694 -0.08528247 -0.12428249 -0.036033355 0.103345014 -0.026129726 0.16361015 -0.114688836
-0.11762368 0.07876841 0.017906148 -0.10109974 0.11215775 -0.09340444 -0.15792128 0.018512873
-0.09856092 -0.025049917 -0.042175144 0.02547241 0.03835731 0.12577674 -0.09494117 -0.064494304
0.1594858 -0.05273571 -0.063796155 -0.053685937 -0.15192439 -0.09745242 0.1365934 0.03688763

mlp.4.weight f4 [256, 128]
00000000: e58b b43c 9552 133d 019f 423d 4e11 363d
00000010: f9b7 a23d 97fe 153d 4b2d f63d f626 553d
00000020: 792d 33bc 8bdb 9b3c d187 023b db05 7ebd
00000030: f4a5 c83d fd2a 6dbd 60d8 78bd f43a b8bd
00000040: c5c6 84bd e149 053d b3af 373d 5264 b1bd
00000050: b979 bf3c 7be5 93bd bbc5 4a3d b9ea 443d
00000060: c5df a9bc 23a3 4bbd 59f7 833d 75b1 aabd
00000070: e3e9 a8bc 7c36 7fbd 0351 973d 96c2 e93c
00000080: 0843 fdbc 24ab 273d 2d8f cf3d b4fa b13c
00000090: 032f 48bd 4b28 acbc 4a83 a03d 18f1 333d
000000a0: b5a4 19bd fccb 6e3d 4a7a 36bd 8919 193d
000000b0: 9111 8c3d 5bf0 ed3c 460e c3bd e727 223d
000000c0: be0a 5e3d 3d56 b03d a05b 293c b551 90bb
000000d0: 785d 3bbb 1def 04bb 4edc af39 84df e6bc
000000e0: 45d5 853d 4157 123d de04 bebc 4300 6f3d
000000f0: 75f3 1fbc cdf1 fb3c aeee 023d aec1 99bc
00000100: d8be 95bc 078a c5bb 44f3 cf3c 2bb8 6abd
00000110: c368 00bd 846a cbbd 2984 5ebd 1f7d 3a3d
00000120: bca9 843d e646 b0bd e0b1 33bd 26a0 873d
00000130: 77e8 83bd c044 1d3d 8562 593c 9900 8dbd
00000140: 675d b3bb fe98 90bd 2699 fdba d4c6 6cbd
00000150: 4367 543d 4d40 3dbd 4c33 3f3d 5d6c 36bd
00000160: f325 acbd 64e4 f13c 42b4 ae3d e899 26bc
00000170: 44f4 a1bd 21b5 1fbd f9e9 62bd 234f 223d
00000180: 5c16 583c 1e48 4b3d 4c8a c53d 4f5a 02bd
00000190: a347 133d b743 483d e0fb e63c 90e2 dabd
000001a0: b020 8dbd db25 dc3c edf9 4d3d 160c 5e3d
000001b0: bbcf 1db9 adb6 78bd 4074 afbd a3b9 8cbd
000001c0: a71f c1bc 2869 ef3c 205a cd3d 6563 a0bd
000001d0: 1c14 3a3d 804f ac3d 9cc7 8cbd 1af2 61bd
000001e0: d82c 12bc 8a1d d13c 21e8 a33d e062 ad3b
000001f0: 730b 573d 337f a33d 83e9 893d 04f6 96bd
00000200: 85ef a3bd 2641 8ebc 9e9f 4bbc bf53 6dbb
00000210: 186a c33d feb5 ad3d 520a af3c 2c2f 4fbd
00000220: 3f35 7e3c 4d4d fd3c d960 d23d b386 c43c
00000230: 4490 033d 672e 373d 4e70 833d e7e6 253d
00000240: 7d48 dbbb 6712 4abd 44e0 943d c08b cbba
00000250: 48bb 61bd 6b95 acbc 1dce ba3d 42eb 3fbd
00000260: 4a19 373c 53bb 9e3c 0a85 9d3d dfe3 debc
00000270: 49d7 9dbd b52c 83bc 41c3 98bc 85ff 1f3c
00000280: 80b2 53bd a518 5c3d 650f 213d cb10 87bd
00000290: 7538 813d 61dd 8aba a1fd cc3d 4075 5dbb
000002a0: d95c 59ba 0060 bdbd 02ed 62bd 0e9d 203c
000002b0: ebcb 843d ff5d 33bd 42ef a83b 5062 31bd
000002c0: f1d1 b0bd d1bc dc3c b21e 283b 981c 8ebd
000002d0: 0a8c cfbc 2e3c 0f3c 088c 883d 78f6 3c3c
000002e0: f144 ef3c debf f2bc 9d2b adbc 7771 9cbd
000002f0: 65be 7f3d 8cbd c03d c37d 9cbd 3f5b a4bd
00000300: d63e c1bd ab12 42bc 1c3e 71bc 2ec5 93bd
00000310: 380c 803d e348 aabc 0995 83bd b8d3 9abd
00000320: 1718 6c3d abbb ae3d 5b7c 503a aea6 febc
00000330: b887 163d d5dc 333d 16cf 213c b16e c43d
00000340: 8f55 cfbd 144f c0bc b744 4a3d 79e5 7cbc
00000350: 022d 59bd 5c3b 54bd 0e7f 35bd a690 943d
00000360: 6cb6 2e3d 8d6c b7bd 1c23 83bc e96d 49bc
00000370: 425e 1cbd ea82 65bd 040f a5bd 84be 9d3d
00000380: 4487 7b3d d60b d13b 2a2d 16bc c5ca 96bd
00000390: 402a 7ebc cfc2 9c3c 55ce f9bb 6e47 533d
000003a0: a3f6 7a3c c14e b8bc efab da3c 1814 283d
000003b0: 1638 8dbd e25a 6b3c 60cc bfbd 4d82 07bd
000003c0: 4235 25bd 4aed c93d 47bc 6abd 2a52 b23c
000003d0: c446 bdbd 9c3b 3c3d 9645 c63c 0787 23bd
000003e0: 3075 213d ed76 cb3d e04d 4f3d bcf6 c5bd
000003f0: 04c8 59bd 2854 c63d b8d4 af3c 8a04 8f3c
0.022039363 0.03596743 0.04751492 0.044450097 0.07945246 0.03661975 0.12020358 0.05203911
-0.0109361345 0.019025585 0.0019917379 -0.062017303 0.09797278 -0.057902325 -0.060753226 -0.089956194
-0.06483225 0.03254116 0.044845294 -0.08661713 0.023373472 -0.07221504 0.049504977 0.04807541
-0.020736584 -0.049716126 0.06443662 -0.083346285 -0.020619338 -0.06230782 0.07388499 0.028535169
-0.030915752 0.040934697 0.101347305 0.02172599 -0.04887296 -0.021015307 0.078375414 0.043931097
-0.037510592 0.058300003 -0.044550218 0.037377868 0.06839288 0.029045274 -0.09524207 0.039588835
0.054209463 0.08610199 0.0103367865 -0.0044042715 -0.0028589647 -0.0020284124 0.0003354274 -0.028182752
0.065348186 0.035727743 -0.02319568 0.05834986 -0.0097626345 0.030754948 0.031965904 -0.018769111
-0.018279478 -0.006028417 0.025384553 -0.057304543 -0.03134991 -0.099324256 -0.054325256 0.04552948
0.06477687 -0.08607273 -0.043870807 0.06622343 -0.064408235 0.038395643 0.013268118 -0.068848796
-0.005473781 -0.07060431 -0.001934801 -0.057806805 0.05185629 -0.0462039 0.04667978 -0.044536937
-0.08405676 0.02952785 0.08530475 -0.01016853 -0.07907918 -0.038991097 -0.055398915 0.039626252
0.013188925 0.049629323 0.09645519 -0.031824406 0.03595699 0.048892703 0.028196275 -0.106877446
-0.06891 0.02687352 0.050287176 0.054210745 -0.00015050072 -0.06072109 -0.08567095 -0.06871345
-0.023574663 0.029224947 0.100269556 -0.07831458 0.045429334 0.08413601 -0.0687401 -0.055162527
-0.008921824 0.02552678 0.080032595 0.005291328 0.052501153 0.07983246 0.06733992 -0.073711425
-0.08004669 -0.01736505 -0.012428192 -0.0036213247 0.0954172 0.08481978 0.021367226 -0.050582096
0.015515625 0.030920649 0.102723785 0.02399001 0.032120004 0.044721987 0.06417905 0.04050341
-0.006691991 -0.049333956 0.07269338 -0.001552932 -0.055110246 -0.021067342 0.09121344 -0.04685522
0.011175463 0.019376433 0.07691391 -0.027208267 -0.07707078 -0.016012529 -0.018647792 0.00976551
-0.051683903 0.05373444 0.039321322 -0.06595 0.063095964 -0.001059454 0.100093134 -0.003379181
-0.00082917284 -0.09246826 -0.05540181 0.00980307 0.06484207 -0.043790814 0.005155475 -0.04330665
-0.08633793 0.026945503 0.0025653061 -0.069390476 -0.02533533 0.008742375 0.06667334 0.011533372
0.029207679 -0.029632505 -0.02113896 -0.07638829 0.062437434 0.09411153 -0.07641175 -0.08025216
-0.09435813 -0.011845271 -0.014724281 -0.072153434 0.062523305 -0.020786708 -0.064249106 -0.075599134
0.05764016 0.085318886 0.0007953101 -0.031085338 0.036750525 0.043911774 0.009876033 0.09591425
-0.10123741 -0.023475207 0.049381938 -0.01543557 -0.05302144 -0.051814422 -0.044310622 0.07254152
0.04265444 -0.08956251 -0.016007952 -0.012294271 -0.03817583 -0.056033053 -0.08059505 0.077023536
0.061408296 0.006379585 -0.009166041 -0.07362894 -0.015513003 0.01913586 -0.0076234736 0.051581793
0.015317592 -0.02249849 0.026693312 0.041034788 -0.06895463 0.01436493 -0.09365153 -0.03308325
-0.040333994 0.098597124 -0.05730846 0.021767695 -0.09242013 0.045955285 0.024203103 -0.039923694
0.0394184 0.09934793 0.050611377 -0.096662015 -0.053169265 0.0968402 0.021463737 0.01745822

mlp.4.bias f4 [256]
00000000: 3b25 103d 29d3 b33d c1b9 da3c 3666 3d3d
00000010: f688 96ba 8ebc 863c 46fc 0e3d 50fc fbbb
00000020: 56c9 1a3d 3627 4d3d 4353 553d d2a2 a23d
00000030: 3ed3 6cbd d6bd 4dbd fb2a f63c ac9f 503c
00000040: 73ce 273a 8e2b aa3c bff3 6d3d aaf1 0c3d
00000050: ebbc abbc 6c8b 583d e410 d0bd fe8e 443d
00000060: 21ff 853c e303 503d b882 9d3b de14 b13c
00000070: f1f0 ae3d 75b3 4fbb 44da 8cbd 327c 123d
00000080: e5eb a3bb bfc6 98bc bfcd 01bd 5139 2a3d
00000090: 70e0 d0bc 47d5 85bd d89a f2ba ae7f 86bd
000000a0: 7b85 6dbd d36e cfbc 2a0a 49bc 1442 0f3d
000000b0: db91 bf3c 9252 833d fb40 afbd f03f 43bd
000000c0: 2e57 08bd bec3 093e 0a23 15bd db90 56bb
000000d0: 5e79 a63d 8181 b5bd a7ad 123d d420 073d
000000e0: 43f7 123d 1541 553d 4744 a03d 8df9 ae3d
000000f0: 5139 543d c006 463c 26ca c73c 3192 7d3d
00000100: 47bf 913b 1154 b0bd 05f3 e23c ec2d 6ebd
00000110: ce09 88bd 284b 153b b271 133d 0888 ba3d
00000120: 8842 10bd 152f 303c d022 1ebd 9bf5 6ebd
00000130: 706a c63c b713 2ebd 0d39 043d f6e8 9bbd
00000140: 93f5 153d 4b52 1b3d 6f3b 62bd 994a 913d
00000150: 6572 b8bd 20c6 c83c 8ee5 8abd 8dff ea3b
00000160: a536 3ebb 1b17 863c 0671 0abc 1d6f d0bd
00000170: 72bd 973d 2bfd 9abb 5713 b73c 068a 86bd
00000180: b501 0fbd d327 dfbc 97b9 bd3c db84 4e3d
00000190: 2902 8fbd f35a 3e3d 644b 5cbc ed39 993c
000001a0: d004 3ebd a7c7 c9bd be2d 713d 60cc a1bd
000001b0: eb41 bf3d b741 87bc 699c 433d efc2 7c3d
000001c0: c1b5 b7ba d36a 19bd 0d35 13bd b622 bb3d
000001d0: aa7d aebd 7072 7c3d cdd4 25bd 4188 4c3d
000001e0: 5b8d adbd 6076 1e3d 1743 3fbd 1794 6bbd
000001f0: 8aa7 483d dc31 973d 291e a7bd 5209 dc3c
00000200: 7b78 a0bd 1f97 c43c 0f1e 593d d6da 0c3d
00000210: d761 433d b4e0 7e3c 4937 873d d696 2f3d
00000220: e63e 933d 72cd f63c aee4 013b 90a1 4fbd
00000230: 0995 1c3c 55be 373d a5c0 26bd 4dee 833d
00000240: ff05 833c 9e3f abbc 4fbb 80bd 8481 a63d
00000250: 3a9a 90bd f16f 583d d3f8 88bd 48d9 87bd
00000260: 7910 533c 9f20 eabc 5af7 493d 4f38 95ba
00000270: 321a 8ebd c59d ca3c a666 8fbd 3a6b 883c
00000280: 28b6 5e3d 24f4 26bd 5a25 3abd 12e0 bbbc
00000290: 34e3 e63b 3074 47bb 18f9 f938 8bfe 443d
000002a0: 3966 9fbb 2da9 39bd 340a 8d3d f285 263d
000002b0: 8457 6b3d c0c6 63bd b513 8e3d 73c5 8b3d
000002c0: 473d 72bd 8911 65bd 81df cf3c a051 0dbd
000002d0: 40a8 bc3c e172 12bd b36d c93d cbde 57bc
000002e0: 01e5 f0b9 e7d6 b2bc 4239 3fbd ccae 583d
000002f0: 3b21 903d f265 b0bd 3fd5 cbbb 54aa 883d
00000300: 20c7 403c 1b24 bbbd 4ddf 8dbc 4401 583d
00000310: c32b cd3c 09a2 bcbd 740b 6dbc de4c 7dbd
00000320: a946 0dbd 9820 3bbc e882 a43d e6b3 043d
00000330: b52f d0bc 3d70 113d a93d 89bd 1ba8 e33b
00000340: bddd 9cbd 4726 c13c e660 38bd 2b1a 8a3d
00000350: ec13 0cbd b100 66bd 74ab 103d f261 10bd
00000360: d1bc e03b 7a7d de3d 4d3b a8bd b7de c0bd
00000370: d76c f13c 4f5a c7bb bb8d f53c 5f23 1b3d
00000380: 2b3a 84bd 7f1b 713d 3ac4 97bc 2605 373d
00000390: d1e7 75bd eda1 9d3c 44c1 153d f157 fa3c
000003a0: ef97 e9bc eb92 53bd 0eaf 153d 0cf1 c538
000003b0: bfbb 943d 5008 b73c 61d1 9c3d 8a91 7cbd
000003c0: 41c1 e83c 76b8 293d fec5 aa3d 4121 58bd
000003d0: 87b1 a03b 580b c13c 0ca2 32bb 7bb9 073c
000003e0: 3cdd 813d bb05 133c 8fec bfb8 dee2 47bd
000003f0: b155 9ebd 67fb 02bd 0b6e 8dbd 8008 b03c
0.035191756 0.0878051 0.026699902 0.046240054 -0.0011484909 0.016447332 0.034908555 -0.00768999
0.037789665 0.050086223 0.052081358 0.07941212 -0.057818644 -0.05022987 0.030049792 0.012733381
0.0006401308 0.020772722 0.058093783 0.034410156 -0.020964107 0.052867338 -0.10159472 0.04798793
0.016357007 0.050784957 0.0048068427 0.021616396 0.0854205 -0.0031692658 -0.06877568 0.035762973
-0.005002486 -0.018649457 -0.031690355 0.041558567 -0.025497645 -0.0653482 -0.0018509282 -0.06567322
-0.057988625 -0.0253214 -0.01227049 0.034975126 0.023384979 0.064122334 -0.08557316 -0.047668397
-0.033286266 0.13453576 -0.03641037 -0.003274015 0.08128618 -0.088625915 0.03581014 0.03299029
0.03588034 0.05206402 0.07825523 0.08543692 0.051812474 0.01208657 0.024388384 0.061906997
0.004447851 -0.086097844 0.027703771 -0.058149263 -0.06642495 0.0022780392 0.0359971 0.09107977
-0.0352197 0.010753413 -0.03860742 -0.058339696 0.024220675 -0.04249927 0.03228097 -0.07612793
0.03661115 0.037920278 -0.05523246 0.070943065 -0.09006194 0.024508536 -0.06782065 0.0071715773
-0.002902427 0.01636844 -0.008449798 -0.10177443 0.07409181 -0.004729887 0.02234809 -0.06569295
-0.034913737 -0.02724067 0.023159785 0.05041967 -0.06982834 0.046473455 -0.013445709 0.018704379
-0.04639131 -0.09852534 0.058881514 -0.079003096 0.09338745 -0.016510827 0.047756586 0.06170934
-0.0014015959 -0.03745539 -0.035939265 0.0913748 -0.08520062 0.061632574 -0.040486146 0.04993463
-0.08474227 0.03868711 -0.04669484 -0.057514276 0.048987903 0.07382557 -0.081600495 0.026859913
-0.0783548 0.023997841 0.05300718 0.034388386 0.04770073 0.015556503 0.06602342 0.042868458
0.07189731 0.03012726 0.0019820142 -0.050691187 0.009557017 0.04485925 -0.040711064 0.06441937
0.01599407 -0.020904358 -0.06285726 0.08130172 -0.070606664 0.05284113 -0.066880845 -0.0663324
0.012882345 -0.028580008 0.04930816 -0.0011384579 -0.0693859 0.024733433 -0.070020005 0.016652692
0.054372936 -0.040760174 -0.045445777 -0.022933993 0.0070461277 -0.0030434243 0.000119196426 0.048094314
-0.004864481 -0.045327354 0.06886712 0.040655084 0.05745651 -0.055609465 0.069373526 0.0682477
-0.05914047 -0.055924926 0.02537513 -0.03450167 0.023029447 -0.03575409 0.098353766 -0.013175677
-0.00045946988 -0.021830989 -0.046685465 0.052901074 0.07037588 -0.086131945 -0.0062204893 0.066731125
0.011766225 -0.09137746 -0.017318392 0.052735582 0.025045281 -0.09210593 -0.014468063 -0.061840884
-0.034491215 -0.011421345 0.08032781 0.032398127 -0.025413373 0.03550743 -0.06701214 0.00694753
-0.07659481 0.023577822 -0.045014285 0.067432724 -0.034198686 -0.056153003 0.03531976 -0.035249658
0.006858446 0.108637765 -0.08214436 -0.094174795 0.029470844 -0.0060837637 0.029974809 0.03787553
-0.06456407 0.058864113 -0.018526185 0.044682644 -0.06003553 0.019242251 0.036561266 0.030559512
-0.02851483 -0.051653784 0.0365439 9.4385905e-05 0.07262372 0.02234283 0.07657123 -0.061662234
0.028412463 0.04143568 0.08338545 -0.05276609 0.0049039754 0.02356498 -0.0027257232 0.008283968
0.06341025 0.008973534 -9.151652e-05 -0.04880034 -0.07731188 -0.031978037 -0.06905755 0.021488428

mlp.7.weight f4 [128, 256]
00000000: 6462 383d 2810 2a3d 2e42 90bc 2ceb 9c3c
00000010: 5942 e13c 3dac 17bd ba91 fbbc 20bd 663d
00000020: 3837 843a 427c 26bd 7bfb 57bc e00a 083c
00000030: c3d7 773c 0138 22bd 8e47 3ebd c9a4 663d
00000040: 0f53 81bb e448 34bc c7a7 39bc d349 35bd
00000050: 6e51 75bd 3948 b6bc 12a4 043d 5b5a 643c
00000060: b084 b9bc a35f a43d 6072 28bd f4b4 ddbb
00000070: 6b1e ad3d fd51 3cbd 5eca 2bbd f273 ad3d
00000080: ea61 1cbd b2f3 503d 8f6c 0c3d a72e 36bd
00000090: 7de4 81bc b770 6d3d fa08 b3bb 20b8 84bd
000000a0: 0388 533d 9f8f 5bbd afe0 f63b b1a2 c7bc
000000b0: 3ee2 78bc 010d 39bd 2dc3 3d3c 59a6 a03c
000000c0: 834d b5bb 1c83 333d c977 71ba 6f72 c33c
000000d0: 6969 353d c87a 49bc b6be 52bb f3ac b23c
000000e0: 1a83 b4bc 1e82 50bd 5cc1 803d 0a8c 023c
000000f0: 319c f23b 426c 8f3b e05e 04bb 32e4 1e3d
00000100: 277f 323d af45 7fbd 8acc 673d 61a0 8dbc
00000110: d4ad d13c b32b 2b3d 68af 7e3d e88d a23d
00000120: 5869 633c 8efd 253d ea88 a23d b68d 903b
00000130: e475 9dbc d617 88bc 1b99 183a a2af 643c
00000140: f98c 583d 316d f4bc eed2 c5bb 45bb 323d
00000150: c7e1 83bd a5e1 2b3d 5997 6bbd faf9 c9bc
00000160: d703 02bc 56cb 8abc 9d0e ac3c c5cc b7bc
00000170: 178e cf3b ea83 6a3d 07ca 863c acbf 1e3d
00000180: bcfa 19bd 5c7b 6d3d b5fe 07bd 7830 85bd
00000190: d917 873d d677 b1bc c5ba 0f3d 7b71 c13d
000001a0: 513d 623c 1233 31bd 87af efbc 6b57 03bd
000001b0: 1357 be3c 5f60 783d ae30 e7bb f5b6 0d3b
000001c0: 3118 303d 9b63 403d 5d82 ed3c 3bcc 873c
000001d0: c805 86bd 5ced a8bc d8a4 033d c9d3 5f3c
000001e0: 7583 1dbd 597b 503d 3498 11bc be02 52bc
000001f0: 6eb0 423d 6f3a 09bc 6ad2 2b3c 870d 3f3d
00000200: 8e59 b53c f70c 2ebd c9d3 9cbb b151 0a3b
00000210: 85bd 863b 922a 2a3d 3492 56bd 46dd a7bc
00000220: 294e f43c 53fc c1bb 7ec7 19bd 59d3 523c
00000230: b754 d4bc df0c 973d 8a2b a4bc 1aae ab3d
00000240: d075 82bd f1a8 31bd 296e 06bd 4661 eb3d
00000250: 3c55 40bd d5e8 84bc 9713 693d 090b 5f3d
00000260: c1dc cd3c c7d0 70bd 132f 923d 5f51 073d
00000270: 30e9 253d 7b61 ef3c 44bc 19bd 101e 44bd
00000280: 0875 27bd 9b99 813d 0d1e 6db9 8f25 113d
00000290: 4db6 d53b 086a 593d 2bf3 0e3c 9530 a43d
000002a0: 4c9d 943d f841 0fbd 31d9 3c3d ec7d febc
000002b0: 09ca 773d 16cf a63b 874c 0ebc d8a5 1a3d
000002c0: ebc4 973c 1982 413d 74d1 54bd 2227 a43c
000002d0: b765 393d f525 babc f45d 473d 1385 4abc
000002e0: 053c 053d dd41 84bd 4de8 d23c d893 29bc
000002f0: 0d4b 453d 0671 4c3c 8a91 e63c 7ce9 5b3d
00000300: 1ec5 303d 9762 97bd e751 98bc ae56 7dba
00000310: 4c21 6b3d 278c 7a3c a73c 403c f58b 503d
00000320: 51b0 dd3c ce5c 37bd 035c 4c3b 784c d7bc
00000330: a2a8 43bc 773a 293b 922c 053d c53f 90bd
00000340: b8cd 933d d80b ec3c db44 943a 9c68 7ebd
00000350: 1cae 043d ced2 053b 9254 6fbd c003 51bd
00000360: db44 893c f76f 213d 52e2 543d cca9 8cbc
00000370: 7602 143d 7ebd fbbc 748b b8bc 4c62 203d
00000380: 3f70 7ebd 25a9 08bb afdb 373d 8722 06bd
00000390: 414c 70bd 34cf 7fbd 317a ebbc 5fbd 8abc
000003a0: e1b9 a03d bc6a 5f3d ea9b 363d dbfa 10bd
000003b0: 4556 2c3d e9d4 6d3d 077c 9dbc 55e8 4f3b
000003c0: ae6e c5ba 18a6 413d d5ef 743d bbbc 4d3d
000003d0: 1719 8c3c 4c42 61bc 90c4 0bbd 7241 2dbd
000003e0: 0858 06bd 2649 133d 6314 b0bc 082a bd3d
000003f0: cd6c 3ebc 7150 2cbd b57a 05bd d159 9cbc
0.045015708 0.041519314 -0.017609682 0.019155107 0.027497457 -0.037029494 -0.030709136 0.056332707
0.0010087257 -0.040645845 -0.013182516 0.008303374 0.015127125 -0.03960419 -0.04645496 0.056309495
-0.003946669 -0.011003707 -0.011331505 -0.044259857 -0.05989211 -0.022251235 0.032383032 0.013937558
-0.022646278 0.08026054 -0.0411247 -0.006765956 0.084530674 -0.045976628 -0.04194104 0.084693804
-0.038179316 0.051013656 0.034283217 -0.044478085 -0.015856022 0.05796882 -0.0054637166 -0.064804316
0.051643383 -0.053603765 0.0075341086 -0.02436957 -0.015190659 -0.045178417 0.011582178 0.01961057
-0.0055329218 0.043826208 -0.000921127 0.023858277 0.04428998 -0.01229734 -0.003215713 0.021810984
-0.02203517 -0.05090534 0.062868804 0.007967958 0.0074038734 0.004376919 -0.0020198151 0.038791843
0.043578293 -0.062322315 0.056591548 -0.017288389 0.025595583 0.04178972 0.062179 0.07937223
0.013880096 0.04052501 0.079362705 0.0044114245 -0.019221254 -0.016612928 0.00058211543 0.01395789
0.052868817 -0.029837223 -0.0060371077 0.043635625 -0.06439548 0.04196324 -0.057517383 -0.02465533
-0.007935486 -0.016942661 0.021003062 -0.022436509 0.006334077 0.05725471 0.016453756 0.03875701
-0.037592635 0.057978973 -0.033201892 -0.06503385 0.065963455 -0.021663588 0.035090227 0.09445473
0.013808564 -0.043261595 -0.029258503 -0.03206579 0.02323488 0.06063878 -0.0070553636 0.0021623943
0.04299182 0.04696999 0.028992826 0.016576877 -0.065440714 -0.020620994 0.03213963 0.013661333
-0.038455445 0.050898883 -0.008886386 -0.012818037 0.047531538 -0.008375748 0.010487178 0.04664376
0.02213743 -0.042492833 -0.004785989 0.002110582 0.004111948 0.041544504 -0.052385524 -0.020491254
0.029822426 -0.005919972 -0.037543766 0.012867772 -0.025919301 0.07375502 -0.020040292 0.083828166
-0.06370127 -0.043374006 -0.0328199 0.11493163 -0.046956286 -0.016224304 0.056903448 0.054453883
0.025129678 -0.058792856 0.07137885 0.033036586 0.040505588 0.029221287 -0.03753306 -0.047880232
-0.040883094 0.06328126 -0.00022613276 0.03543621 0.006521976 0.053079635 0.008724968 0.08017079
0.072565645 -0.034975022 0.046105567 -0.031065904 0.06049541 0.0050906045 -0.008685238 0.037755817
0.018526515 0.04724321 -0.051957563 0.020038191 0.04526302 -0.022723177 0.048673585 -0.012360829
0.032527942 -0.06457875 0.025745535 -0.01035019 0.048167277 0.012478119 0.02814557 0.053689465
0.043156736 -0.073918514 -0.018593742 -0.00096641004 0.0574048 0.015292204 0.011733211 0.050914723
0.027061613 -0.04476624 0.0031182773 -0.02628158 -0.011942061 0.0025822201 0.03251321 -0.07043413
0.07216972 0.028814241 0.0011312024 -0.062111482 0.032392606 0.002041984 -0.058430262 -0.051028967
0.016756466 0.03941342 0.05197365 -0.01717081 0.03613516 -0.030730005 -0.022527434 0.039156243
-0.062118765 -0.002085277 0.04488724 -0.03274777 -0.05866647 -0.062453464 -0.028744789 -0.016936002
0.078479536 0.05454515 0.044582285 -0.035395484 0.04207446 0.058064375 -0.01922418 0.0031724174
-0.0015062892 0.04727754 0.059799034 0.050228816 0.017101808 -0.013748717 -0.034123003 -0.04229874
-0.032798797 0.03595843 -0.021494096 0.092365324 -0.01162262 -0.042068902 -0.032587726 -0.019085797

mlp.7.bias f4 [128]
00000000: 2075 83bc 6067 71bd 7682 923b e69d 1abd
00000010: 71c3 14bd 6bb2 f23c cc5b 433c c22a c1bb
00000020: 1161 c73c ae38 093d 69e6 8d3d 3fc9 93bd
00000030: 4fda 79bd 0316 183d 8d07 02bd 3f4e 843d
00000040: a82a 333c 9ae9 283d b02a 0e3d ae77 28bd
00000050: 0955 553d 8b1e 143d 8d1b 963c 4d23 45bc
00000060: b2bc a13c 85f9 74bd cdf4 7dbd b024 f03a
00000070: 8632 3e3c bcfa ef3c 9b69 36bc f721 493c
00000080: 3e70 263d 654b 70bd 51f8 c63c 5283 4f3d
00000090: 9c84 e13c 7a98 3ebd 6f40 62bc 8558 23bd
000000a0: 1e98 173a 1678 023c db15 19bd 5598 583d
000000b0: 3a7c 45bd ca9e 0aba 634a 4d3d d0d7 3b3d
000000c0: 5a1d 72bc 6e20 313d 55bf 2e3d dcac 123d
000000d0: 1044 acbc 75f8 f43b ed19 07bd 5b62 efbc
000000e0: 5509 86bc 1eee 353c 8d9a 0cbc e35c f6bc
000000f0: e74c b7ba 0416 f23c 981b 68bc 7964 68bd
00000100: d010 313d 2625 0a3d 3101 a93c bae7 473d
00000110: 9858 8cbc a5e4 583a 4303 dcbc fd10 31bd
00000120: 4951 7fbd bbbf d23c 72bc 3a3d 8c1d 13bd
00000130: 6a0e adbc d024 77bd 7c77 22bd 6e2a 4bbd
00000140: 5df0 e6bc 0f01 3ebd 87b3 af3c 774d 74bc
00000150: cd0e 0c3d 56cb 563b 5137 3a3d 08a7 c5bc
00000160: 5024 ea3c 4136 adbb 5afd 13bd b5f5 63bc
00000170: 007b 2c3d 716a d93c 5ecd 83bd f114 22bc
00000180: 6985 0abd 30e9 bdbb 5a37 193d 3886 18bd
00000190: 9428 63bd de12 113d 8d4e 61bd 6ac8 40bd
000001a0: c165 193d ce2e 47bd d050 d83c 6501 11bd
000001b0: 1272 48bd f242 db3b f101 83bd 002d 4fbd
000001c0: c650 c33a 91b0 0c3d 22c1 943b 37f0 29bb
000001d0: 8fb3 57bd 8446 9b3b aef7 f9bb 3357 fcbb
000001e0: 2fda 36bd d6f7 a53b f961 19bc 8745 f4bc
000001f0: e774 54bc 120b 513c 2201 c43c db0b b53b
-0.01604706 -0.058936477 0.0044711186 -0.03774824 -0.0363192 0.029626092 0.011923742 -0.0058949897
0.024338277 0.03350132 0.06928713 -0.07216119 -0.06099921 0.037130367 -0.031745482 0.06460237
0.010935463 0.041238405 0.03470868 -0.04112976 0.05208305 0.03616194 0.018323684 -0.012032342
0.019743297 -0.059808273 -0.06200104 0.0018321481 0.011608725 0.029294364 -0.011133577 0.012276164
0.040634386 -0.05866565 0.024288328 0.050662346 0.027529053 -0.04653213 -0.0138093075 -0.03987934
0.000578286 0.007963201 -0.03737436 0.05287965 -0.048214175 -0.00052879436 0.05011977 0.04586011
-0.014777506 0.043243818 0.042662937 0.035809383 -0.021028548 0.0074759074 -0.03298371 -0.029221704
-0.016361872 0.011104135 -0.00858177 -0.030073589 -0.0013984711 0.029551513 -0.014166735 -0.056736443
0.043228924 0.033726834 0.02063045 0.048804976 -0.017132089 0.0008273817 -0.026857024 -0.043229092
-0.06233338 0.02572619 0.04558987 -0.03591685 -0.021125037 -0.06033784 -0.03966473 -0.04960101
-0.028190786 -0.04638773 0.02144791 -0.014911047 0.034193803 0.0032775006 0.04546291 -0.024127498
0.028581768 -0.0052860086 -0.036130287 -0.013913562 0.04210949 0.026540013 -0.06435655 -0.009892688
-0.033818636 -0.0057956204 0.037406303 -0.037237376 -0.05545862 0.035418384 -0.055006552 -0.04706613
0.037450556 -0.04862862 0.026405722 -0.03540172 -0.04893691 0.00669133 -0.06396855 -0.050580025
0.0014901392 0.034348074 0.004539625 -0.0025930533 -0.052661475 0.0047386307 -0.0076284027 -0.0077008246
-0.04464167 0.0050649447 -0.009361737 -0.02981831 -0.012967325 0.012758987 0.023926321 0.005525095

mlp.9.weight f4 [4, 128]
00000000: f325 c43c f8f5 babb 82aa b6bd 2078 16bd
00000010: 9d2a f8bb 2d98 a53d e9b7 35bc 44ee 723d
00000020: c633 30bb 24ef a8bd 0a88 91bd c1aa a73d
00000030: b40a 543d 5f69 27bc c533 0a3d d50a 4a3c
00000040: 7ae1 b33c 9bfc dbbc 7890 aabd 71ad fabc
00000050: e899 89bd e2b0 5b3d e4f8 9bbb 909a 913d
00000060: 0d28 6bbb 5390 b23d 3dcc 0a3d a95e 8d3d
00000070: 649f 8fbd 4447 083d 25e3 773a 9c7c 4cbd
00000080: e797 abbc da44 0bbb 5f57 73bd eb8a 6d3d
00000090: a5ae 95bd a392 173d 94a1 a3bc 8310 283d
000000a0: a3be 6fbd 2fdb 7a3c ef80 4cbd c0d1 613d
000000b0: 44fe 63bd 7ad9 683c ed5f 5f3d 128f 263c
000000c0: 80fc 8c3c 1026 4abd a867 f9bc afb2 32bc
000000d0: 0c96 4d3d 52aa 93bd a037 16ba 61b7 d23d
000000e0: 9fad fb3c e95e 853c c28e 823d a461 17bc
000000f0: 773e fcbc 7b60 6fbd 1b80 efbb 5116 47bd
00000100: 404d 273d 4487 04bd 3ec2 56bd de6a b33c
00000110: 2aea 813d 7d0f 19bd d48b 26bc eb72 653d
00000120: cd38 5f3d 1971 a3bc 2f7c 92bc d657 4ebd
00000130: 0ea4 03bc 8691 973d d423 6e3d e332 b83c
00000140: d34c b2bd 29fe 943d 27b9 98bd d841 863d
00000150: d996 eebc ce81 74bd 560d 84bd d780 b33d
00000160: 7dcb 76bd c276 11bd f048 afbb b841 c83b
00000170: f953 febc cc93 5a3c 3abf 573c 5bc5 03bd
00000180: 3dfc 43bb 7680 423d 80ef 783c 1b90 bd3b
00000190: ae3c 59bc d1ed 57bc 050e 6a3d 9811 95bc
000001a0: f36a 9fbc e830 753d b5f9 c4bc d6f6 b7bb
000001b0: 687f b0bc a2f7 89bd 25c2 423d 54f3 2fbd
000001c0: e611 2eb9 1ad9 7f3d 22bd 683d 2883 4cbc
000001d0: 4e9f 9d3d 13f8 703a 1489 ffbc a863 8b3d
000001e0: 7720 053b f36c 233d 09e8 3ebb fe76 8ebd
000001f0: dae9 843d 3f33 a6bd b4f5 4f3d e56a 4a3d
00000200: d00f 8c3d 2254 55bd 6b13 5e3d d6db a83d
00000210: bd98 eebd 849e 6cba 1baf 103d 6288 55bc
00000220: dff7 1e3d 2fbc 3a3d 54b0 b63d 1891 d1bd
00000230: 211d 93bd ab38 9b3d 31c7 50bd 2eb6 b53d
00000240: 69eb 73bd 69c6 ca3d 516e d73c f2a7 b6bd
00000250: ecdb aa3d a3a7 723d a3a7 f9bc 47b4 ffbc
00000260: d40f d73d 0ba8 6ebd 142e 4bbd 180e c9bd
00000270: 4320 a23d 0909 483d c1a6 98bd 0353 b43d
00000280: ec4b aebd 14ae 8abd 6ef9 a6bd 0433 2b3d
00000290: 01ac 9d3d 1af6 a53d b68b bebd 6dc2 bebd
000002a0: cca7 693d 5ecd 863d 3441 053c 0c96 383d
000002b0: 19aa 99bd 4840 cbbd e6d9 b33d 445d b13d
000002c0: be5d 65bd fddc e1bd 75b9 b83d 1a07 dcbd
000002d0: ecc4 f6bc e086 1a3d 8bd2 b3bd 943b a83c
000002e0: 536a b3bd 4ed4 d8bd 3e2d 05be 5488 813b
000002f0: 4ff1 cbbd 8013 a63d 0448 23bd ca77 9fbd
00000300: a53d c53d cfe8 b93d 02c4 a93d f4b1 83bc
00000310: cd09 09bd e4f0 803d 2656 923d c9cf b7bc
00000320: d33a 68bd 10ac 403d c89d 8a3d 99f6 d83d
00000330: c04d 81bd 01da e7bd ebf9 2dbd 19ce 883b
00000340: ed4a c03d ec8a 94bd baef 88bc 2cf7 1dba
00000350: 296f c43d 3de1 e03d 40c4 a4bd c898 ee3c
00000360: 04a3 b83d efc0 4e3d 1198 0c3d 6661 b23d
00000370: 778c d0bd 9083 c5bd aca2 6fbd 15c4 af3c
00000380: 1af3 d63d 67d9 cdbd 8464 b0bd 09d3 c2bd
00000390: 6207 f9bd 5549 663d 39ca 7fbd aeeb cebd
000003a0: 505f 343d ccb4 ac3d fcb6 f23d daa1 19bd
000003b0: 2a31 d1bd 846c 653c c00d 4cbd c665 5cbd
000003c0: 185c c03d faf5 cebc c29b d63d 3e26 993c
000003d0: 5382 19bb 1f6e b53c 0af8 563d f6d4 aebc
000003e0: 4fe4 d8bd 7d1f 26bd 23fa dcbd 5bcf 913d
000003f0: 7954 c8bd 48a7 413c 0d7c cfbd a2c9 b7bd
0.023943877 -0.0057055913 -0.089192405 -0.036735654 -0.0075734393 0.08085666 -0.011091211 0.05930926
-0.0026886328 -0.082487375 -0.071060255 0.081868656 0.05176802 -0.0102179935 0.033740778 0.012331684
0.021958102 -0.02685385 -0.083283365 -0.030600281 -0.067188084 0.053635485 -0.0047598947 0.071095586
-0.0035882026 0.08718934 0.033886183 0.069028206 -0.07012823 0.03327109 0.00094561494 -0.049923524
-0.020946456 -0.0021250756 -0.059409495 0.05799381 -0.073087014 0.037005078 -0.019974507 0.04103137
-0.058531415 0.0153110465 -0.04992765 0.055131674 -0.05566241 0.014212007 0.05453484 0.010165947
0.017210245 -0.049352705 -0.030444935 -0.010906859 0.050191924 -0.072102204 -0.00057303347 0.10288883
0.030722437 0.016280608 0.06374885 -0.009239588 -0.030791504 -0.05844162 -0.0073089725 -0.048605267
0.040845156 -0.03235556 -0.052431338 0.021901544 0.063434914 -0.037368286 -0.010165174 0.056017797
0.05449753 -0.01995139 -0.017881481 -0.050376736 -0.008034719 0.07400803 0.058139637 0.022485202
-0.08706059 0.0727504 -0.0745719 0.065555274 -0.029124664 -0.059694104 -0.06447856 0.087648086
-0.060252655 -0.035513647 -0.005349271 0.00611135 -0.0310459 0.013340902 0.013168151 -0.032170635
-0.0029904984 0.04748579 0.01519382 0.005785001 -0.013259096 -0.013179258 0.057142276 -0.018196866
-0.019460177 0.059861094 -0.02404485 -0.005614142 -0.021545127 -0.06736685 0.047548432 -0.042956665
-0.00016600601 0.062462904 0.056820996 -0.012482442 0.076964006 0.00091922394 -0.031193294 0.06806117
0.002031354 0.039898824 -0.0029130003 -0.0695629 0.06489916 -0.08115243 0.05077143 0.04941835
0.068389535 -0.05208219 0.054217737 0.082450554 -0.11650226 -0.0009026306 0.035323244 -0.0130330045
0.038810607 0.045589622 0.08920351 -0.102327526 -0.0718329 0.07579168 -0.050971214 0.08872639
-0.059550676 0.09901125 0.02629772 -0.08918752 0.08342728 0.059241902 -0.030475443 -0.031213893
0.10501066 -0.058265727 -0.04960449 -0.09817141 0.0791631 0.04883674 -0.07453681 0.08804896
-0.08510575 -0.06771484 -0.08153044 0.0417967 0.07698823 0.08103581 -0.093039915 -0.093144275
0.05704479 0.065821394 0.008133221 0.04506497 -0.07503147 -0.0992437 0.08781795 0.08660367
-0.055997603 -0.11028478 0.09019748 -0.10743542 -0.030123197 0.037726283 -0.08780392 0.020536222
-0.08760514 -0.10587369 -0.1300554 0.003953019 -0.09958135 0.08109188 -0.0398636 -0.0778652
0.096308984 0.09077608 0.08289339 -0.016076066 -0.033456612 0.06295946 0.07145338 -0.022437947
-0.056696724 0.04703909 0.06768376 0.1059391 -0.06313658 -0.11320878 -0.04247467 0.0041749594
0.09389291 -0.0725306 -0.016715873 -0.0006025906 0.095915146 0.10980461 -0.08045244 0.029125586
0.09015468 0.050476965 0.03432471 0.087099835 -0.101830415 -0.09644234 -0.058504745 0.021455804
0.10495587 -0.10051232 -0.08612922 -0.09512908 -0.12159611 0.05622228 -0.062448714 -0.10103546
0.04403621 0.08432922 0.11851308 -0.03750787 -0.102144554 0.014002923 -0.0498178 -0.053807996
0.093925655 -0.025263775 0.10478927 0.018694993 -0.0023423627 0.022147236 0.052482642 -0.021341782
-0.105904214 -0.040557373 -0.10789897 0.07119628 -0.09781737 0.011819668 -0.10131083 -0.08974005

mlp.9.bias f4 [4]
00000000: 5b53 cb3c df6a 8b3d e8a5 43bd d1d4 a6bd
0.02482002 0.068074934 -0.047765642 -0.0814606
