models/model0.pth (torch, 102026 bytes, 33 tensors)

encoder.attn.in_proj_weight f4 [54, 18]
00000000: 1d0c 5a3e dc6f 9e3e 9d3a 88be b527 443e
00000010: ac7d 8a3e 172e 62be 62bc 993e 0f07 60be
00000020: 82d7 2bbe 108c 533d fe8c 933d 7a27 4ebe
00000030: e78c 333e 8d57 4e3e 9531 4c3d 0c46 223e
00000040: 9f29 87be 2ffc 0b3e 2108 04be aef0 163c
00000050: 8f4c f6bd 0277 68be 22b6 77be 84a1 80be
00000060: 41dd bebd 851d 233e 60c6 0d3e 8ada 8e3e
00000070: 5264 0abe 0c95 d33d bb0c 40bd ad14 3dbe
00000080: 44dd c63d 4d0d 03be 9baf 273e a176 81bd
00000090: 09e2 1c3e 30a9 6cbe 2b09 58be 3ac9 423d
000000a0: 9116 ff3d 8b9d e43d 2b8a 873e 5ddf aa3d
000000b0: c85e bcbc 5636 72be 2636 073d bbb8 663e
000000c0: e817 7c3e 1be7 413e d131 643d 1907 913e
000000d0: c6e7 89be f42d 323e 2445 0b3e 7004 b53d
000000e0: 3497 5e3e 403e e5bd 79f7 28be 72a0 d63d
000000f0: 0547 8c3d 5617 b6bd f44c 053e b1e6 25bb
00000100: bc20 ffbd b7af 20be 1cc3 973d d4b1 2abe
00000110: 6914 4e3e fc18 8c3e 5db9 6b3e 03d9 af3c
00000120: e39f 87bd 4b61 623e 7a97 2b3e e4ad cebc
00000130: d7e5 8b3d 4f21 98bc c9d5 4b3d 0f7f dcbc
00000140: 00a1 823e 2a2b 4f3e 7660 893d ea1c 683e
00000150: ca2f c2bd 6568 9c39 dcb5 743d babc 6c3e
00000160: 9b6b ce3d a672 8b3e ddfd 583e 7633 fabc
00000170: 4fa0 69be c821 37be 2e9b 703e 5ed4 1abe
00000180: 48a1 b73d 410b 863e 7ba0 4dbe 8c91 3b3e
00000190: c8f3 bc3c 48b1 e23d e5d1 163e 4526 febd
000001a0: 770d 5ebe 956e 4bbe dd7e a4bd ff77 793d
000001b0: 3dcc 873e 71ff 423e 9770 adbd 7f33 6dbe
000001c0: ba41 dcbc 7a06 4b3e 9a4e fabd cb12 543e
000001d0: b7ff 903d e337 52be d127 383d 8d6e 0b3c
000001e0: a013 2b3e 13ee 5f3e 11ad 8cbe 7fc0 8d3e
000001f0: d9c5 5d3e 396f f1bc 556b 7a3e 9fff 033e
00000200: 6033 21be d4d3 28bd 8cba adbd f97d 123d
00000210: aee2 113a ed18 003e bd5d 8ebe 6172 b8bd
00000220: 5092 7fbd 46f1 31bd 4c48 87be 1cad 453e
00000230: 8c5c 8c3b 5dfe 823d 95c3 8f3e f36f ab3d
00000240: 3b59 893d 7c84 1b3e dbf7 11bc 7724 a63d
00000250: 5af7 aa3d 6f2d 22bd 46cd 913e ba46 99bd
00000260: 24ef 893e 8460 65be 36f8 913e d13b c8bd
00000270: acf0 3cbd d08b 42be c479 fd3d 5602 6ebd
00000280: 3b4e b23d 2609 303d 0fad 5c3e fb81 70bd
00000290: 1c21 16bd c4db cc3d b88b e0bb 38da 8a3d
000002a0: e055 543e ec93 d83d f37b 3dbe 09e9 933c
000002b0: 2ff4 88be 59d4 fbbd f875 eebd fd17 bdbd
000002c0: 74df 0c3e 0d7b 28be b2c8 043e 6320 97bd
000002d0: 22cc 76bd 9fdd a8bd f35d 323e 9c1a 4b3c
000002e0: c271 353e 9329 22be ec0d 693e e105 b7bd
000002f0: e65b 643e 362a 5dbe 1499 cd3d e7e6 473e
00000300: 2cc8 0d3d cc20 c3bd 88cd abbc 9fe9 74be
00000310: 8371 603e 6571 4c3e ab3a 3abe 9483 a2be
00000320: 7b4f 5ebd 989e 603e 983c 033d 41c1 ba3d
00000330: 5a78 cd3d 7952 eabd 599b d0bc 392e 7a3e
00000340: 1846 0abe 92df 6dbe aff8 58be 4e13 b13c
00000350: db66 20be 14d6 bebc 5067 1a3e 9ee8 573e
00000360: 86cb ca3d b795 ae3c 8ecb 92be feb6 d03d
00000370: b7ab 8f3e 0067 33be a395 86be aae1 983d
00000380: 28cd 8f3e 180a 57be 0803 6ebd 595a 36be
00000390: 061a 163e 8e22 41be 653f 2a3e 1e01 ae3d
000003a0: 31f3 83be 6218 a43d 6055 a1bd cdc7 fa3d
000003b0: ff99 f0bd 55c9 87be 560a 93be 445a dc3d
000003c0: 0a16 5b3e 45ea e9bc ab23 20bd 4da0 29bc
000003d0: 482f ea3d 9bad b7bc f700 93be f233 02bd
000003e0: aa9c e73d bd95 d53d 4d50 92bd 6594 523e
000003f0: 7335 f43d e13f da3d 47a6 833e 2719 8dbd
0.21293683 0.30944717 -0.26607218 0.19155772 0.27049005 -0.22087894 0.30026537 -0.21877693
-0.16781428 0.051647246 0.072046265 -0.20132247 0.17534219 0.20150585 0.049851973 0.15847033
-0.26398942 0.13670419 -0.12893726 0.009212656 -0.12026321 -0.22701648 -0.24190572 -0.25123227
-0.093195446 0.1592923 0.13845205 0.27901107 -0.13514832 0.10331163 -0.04688714 -0.18464918
0.09710172 -0.12798043 0.16375582 -0.06321455 0.153206 -0.23111415 -0.21097247 0.047555186
0.12455476 0.111628614 0.264726 0.083433844 -0.022994414 -0.2365354 0.033010624 0.22531407
0.24618495 0.18935816 0.05571157 0.28325728 -0.26934642 0.17400342 0.13600594 0.08838737
0.21737367 -0.11193514 -0.16500653 0.10479821 0.068494834 -0.0889117 0.13017637 -0.0025314505
-0.124574155 -0.1569203 0.07410261 -0.16669399 0.20124973 0.27362812 0.23019929 0.021465784
-0.06622293 0.22107427 0.16757002 -0.025229402 0.06830948 -0.01857057 0.04976443 -0.026916055
0.25513458 0.2023131 0.067078516 0.2266728 -0.09481771 0.0002983242 0.059743747 0.23118868
0.10079118 0.27235907 0.21190591 -0.030542117 -0.22815059 -0.1788398 0.23496696 -0.15120074
0.08966309 0.2618046 -0.2008075 0.1831724 0.023065463 0.1106897 0.14728506 -0.12409643
-0.21684824 -0.19866402 -0.0803201 0.060905453 0.2652301 0.19042756 -0.084687404 -0.23164175
-0.02688681 0.1982669 -0.12222023 0.20710294 0.07080024 -0.20529132 0.044959847 0.008510244
0.16706705 0.21868162 -0.2747579 0.27685925 0.21657504 -0.02947198 0.24455006 0.1289048
-0.15742254 -0.04121764 -0.084828466 0.035764668 0.0005565089 0.12509508 -0.27805892 -0.09006191
-0.062395394 -0.043442987 -0.26422346 0.19304317 0.0042834934 0.06396172 0.28078905 0.08370962
0.067064725 0.15187258 -0.008909191 0.08112424 0.0834796 -0.03959411 0.28476924 -0.07484193
0.26940262 -0.22400099 0.28509682 -0.09777034 -0.04612796 -0.18998647 0.123767406 -0.058107696
0.087063275 0.042977475 0.21550392 -0.05871771 -0.03665267 0.100028545 -0.0068525933 0.06779903
0.20735884 0.10575089 -0.18504314 0.018055456 -0.26748797 -0.122963615 -0.116435945 -0.09233091
0.13757116 -0.1645319 0.12967184 -0.07379224 -0.06025327 -0.08245396 0.17418651 0.012396481
0.17719176 -0.15836172 0.22759217 -0.08936668 0.22300681 -0.21598133 0.10038963 0.19521676
0.034614727 -0.0952774 -0.020972028 -0.23917244 0.21918301 0.19965132 -0.18186443 -0.3174101
-0.054275017 0.21935499 0.03204021 0.091188915 0.10032721 -0.11441512 -0.0254647 0.24431695
-0.13503301 -0.23229817 -0.21188615 0.02161565 -0.15664236 -0.02329544 0.15078473 0.2108483
0.099021 0.021311624 -0.28670925 0.10191153 0.28060696 -0.1751976 -0.2628604 0.07464917
0.2808621 -0.20999944 -0.05810836 -0.17807902 0.14658365 -0.18860838 0.16625746 0.08496307
-0.25771478 0.08012463 -0.07877612 0.1224514 -0.117481224 -0.26520792 -0.28718823 0.10759404
0.21395126 -0.028554091 -0.039096516 -0.01035316 0.114347994 -0.022421649 -0.28711674 -0.03178782
0.11309178 0.10428951 -0.071442224 0.2056442 0.11924257 0.10656715 0.25712797 -0.06889563

encoder.attn.in_proj_bias f4 [54]
00000000: ff0c 6f3d addf 6bbb c4e1 a63c 8be6 1fbd
00000010: fb90 9bbc ed10 693b 6dfe 8abc e689 9bbc
00000020: e513 d13c 4633 ca3c bd01 ef3c 0b45 4bbd
00000030: 6627 9a3c e67c a1bc 1a63 cabc bc25 e4bc
00000040: 0e67 09b9 cf10 ec3c 6c5e 05b6 5763 5a37
00000050: d247 9bb6 fbdc 85b6 0661 a337 e7d6 5a36
00000060: db6b 9936 29fc 4db6 454e 2e37 4c2b d0b5
00000070: f5a6 a7b6 389b 2e37 64a3 feb6 863d 2e37
00000080: 4f9b be37 10bc a036 d61d 0bb7 636a f1b6
00000090: c2d0 b53a 0a8a baba 89c8 373c 65af 5fbc
000000a0: aac2 1bbb fa4f 66bb 7ed3 a33b 6a04 023c
000000b0: 6e8e c8bb a81e 73ba b18d 8c3c 9c5b 833c
000000c0: 34f9 a2bb 8d1d c33c 8d55 033c 5546 853b
000000d0: bb48 143a d938 3f3b
0.058362003 -0.0035991475 0.020371325 -0.039038222 -0.01899003 0.0035563067 -0.016967023 -0.018986654
0.025522182 0.024682652 0.029175634 -0.04962639 0.018817615 -0.019712877 -0.024705458 -0.027850024
-0.00013103729 0.028816609 -1.9873505e-06 1.3016942e-05 -4.627721e-06 -3.9894344e-06 1.9476294e-05 3.260962e-06
4.5723114e-06 -3.0694157e-06 1.0389432e-05 -1.5509809e-06 -4.996424e-06 1.0407348e-05 -7.588811e-06 1.0385533e-05
2.2722086e-05 4.790265e-06 -8.291992e-06 -7.1947447e-06 0.0013871419 -0.0014231813 0.011217245 -0.013652657
-0.0023767152 -0.0035142885 0.004999577 0.007935623 -0.0061204946 -0.00092742825 0.017157407 0.016034894
-0.004973555 0.023817802 0.008016002 0.004067222 0.00056565896 0.002917817

encoder.attn.out_proj.weight f4 [18, 18]
00000000: 73a3 133e 0c28 10be 7496 363e 620e 873d
00000010: ddde a3bd 915f cf3d 4943 08bc cb50 513c
00000020: 2ca5 eb3d 2009 5bbe 3914 40be e117 71bb
00000030: 9e2c 6ebe fcd8 52bc 7079 22be d278 353e
00000040: 4913 053e 1b22 67be e328 063e 90a1 65bd
00000050: 14c2 793d 1a25 0cbe 4f59 993d 25c1 053e
00000060: 624a acbd 779c 27be d0b2 69bc c39d 223e
00000070: 98be 263c 8641 913a 57f6 103e b208 3d3d
00000080: 9e66 eabc 1e2c 07be 71d9 6cbe 48c8 22be
00000090: 2d7d c43d 4678 723d e1d6 27be 7e11 6c3d
000000a0: e2c8 1dbe 4c34 a33d aa43 063d 3ff3 3ebd
000000b0: 2496 213d 3d8f a9bd 6532 8d3d 777e 053d
000000c0: 8190 61be 7464 ad3d 3e6d 273c 036b eb3d
000000d0: ed5e 173e 6e38 33be 18da a73c 0bca 0cbd
000000e0: 339c d93d d72a 28be 8a72 49be 37da a0bc
000000f0: 8ef0 ae3d f0be 6c3e 6cfb 013e 1944 f33d
00000100: 5dd9 3cbc 525d 43be 8c56 e73d 63b3 40bc
00000110: 24f9 b23c b23c 3c3e 817c e9bd 4fde 3f3d
00000120: d905 5f3e f5f6 f8bd de00 6bbe 4c55 23be
00000130: 1314 1fbe 407b df3d 3ce1 c1bd cbdf c43d
00000140: 94e5 64be b60c 133d f452 533e c719 ecbd
00000150: 4e63 623e 6463 6f3d 2537 33be 5cdf 493e
00000160: b080 e93d 74dd 7e3d af64 193e 9014 d0bc
00000170: baa5 533e a4cb 1abd bb34 31be 1e81 99bd
00000180: d23a b2bd eab9 00bd 293f 47be bac0 293e
00000190: 1f34 9fbd 6de2 2fbe 305e 42bd af55 72bd
000001a0: b994 4ebe 6d75 403d 6600 31bd 2d74 cdbd
000001b0: e3ce 47be 7ff8 9cbd 34c0 2fbe c3e2 953c
000001c0: 1d12 1ebe 41ad 49bd 9750 623d 8a16 30be
000001d0: 3cba 3c3e b83e 3e3e e4b3 25be e030 3f3d
000001e0: e4e5 b4bd 571f 1abe 696c a7bd 0efc 103e
000001f0: d09b 2fbe 014e f1bd dc39 5d3e 5b40 8c3b
00000200: 88f4 35bb 6878 40bc ac2c b53c 10aa 1d3d
00000210: 5a90 c0bd e84e 16be 766d 1fbe 4632 083e
00000220: d684 c3ba a49e bdbd 388b e9bc c6cc eb3d
00000230: 9811 d43d bd32 52be d513 213e 667d 153e
00000240: d340 cd3d 7aae 6f3d e1e1 a6bb 522a 923d
00000250: f0f8 563e cb6f 653e 1873 0fbd 8185 4b3e
00000260: 73e3 4bbe 9317 31bb 7bde 03be 3d6d 4ebe
00000270: 104e c53d b30b 513e a9da 02be b855 2fbe
00000280: 54b7 093e 6cb7 443e bb68 39be 0d3f 43be
00000290: 365f b2bd f2d5 573e b1d8 bd3b d515 c43d
000002a0: f589 d8bd 8fcf 66be 821a 283e 4c26 acbd
000002b0: ca1a 15be ddd9 1cbe 8f21 c23d 03ef 97bd
000002c0: 9650 3ebd 6ed4 213d 8631 233d 4d0a e2bd
000002d0: b20f b7bd ecf4 dcbd b5e4 0d3e a157 6f3c
000002e0: 9941 293d 5910 55bd 19e7 c83d 703f 523e
000002f0: 8da4 c83b 74e9 49be 90f4 15be 2cc4 0ebd
00000300: 2639 333e e074 053e c25c fa3c 4ed1 d7bc
00000310: 2ea4 873c 2bb1 bdbb 7214 553e cb9b 84be
00000320: b943 4d3e 749b e7bb 0e6b 3a3e 3312 013e
00000330: e354 b13c e86f ebbd d01a d43c e741 1b3c
00000340: 6574 55be e2c9 8bbc 8b06 d2bd d5e3 28be
00000350: ffe3 12be 782b a9bd d5e9 423e d265 14be
00000360: e88c 143e 318a 503b ad24 68be 5dd6 3f3e
00000370: 4551 3bbd 439b 263c 4211 083e ccea 3b3e
00000380: ce87 13be 8d82 af3d bca9 0dbe b688 d13d
00000390: bd0f 30be abe3 133e ce3f f2bd 14d2 2bbd
000003a0: 6e66 233e 59be ee3d 3865 2fbe 6c7e 61be
000003b0: b096 0c3e 9e58 5abe 00a2 04bc d3e0 6abe
000003c0: 5c60 4abe 7bae 0bbe 9ce7 06be 7be7 21bb
000003d0: 99b1 7d3d 55c8 173d 76db ce3d 53cf fc3d
000003e0: f838 7339 763d f23d 31c0 633d 6df9 e33d
000003f0: 1375 38be b385 56be a890 3b3e 9eab d93d
0.1441782 -0.14077777 0.17830831 0.0659454 -0.08001492 0.1012565 -0.008316823 0.01277561
0.115061134 -0.213902 -0.18757714 -0.0036787915 -0.23259208 -0.012869116 -0.15866637 0.1772187
0.12995638 -0.22571604 0.13101535 -0.05606228 0.060976103 -0.13686028 0.074877374 0.1306196
-0.08412625 -0.1636828 -0.014263824 0.15880494 0.010177277 0.001108215 0.14156471 0.04615087
-0.028613385 -0.13200423 -0.23129822 -0.15896714 0.09594188 0.059196733 -0.16390564 0.05763387
-0.15408662 0.07968959 0.032779373 -0.046618696 0.039449826 -0.08279274 0.068943776 0.03259131
-0.2202778 0.084664255 0.010218916 0.1149502 0.14782305 -0.17501995 0.020489737 -0.03437237
0.10625496 -0.16422592 -0.196726 -0.019635303 0.08541976 0.23119712 0.12693566 0.11878223
-0.011526433 -0.19078568 0.112958044 -0.011761519 0.021847315 0.18382528 -0.114007 0.04684287
0.21779574 -0.12156478 -0.2294955 -0.15950507 -0.15535001 0.1091218 -0.09466788 0.096129976
-0.22353202 0.035900794 0.20637113 -0.11528354 0.22108194 0.058444396 -0.17501505 0.19714111
0.11401498 0.062222913 0.14979814 -0.02540043 0.20668688 -0.037791863 -0.17305271 -0.0749533
-0.08702625 -0.0314273 -0.19457687 0.16577426 -0.07773613 -0.17176218 -0.047453105 -0.059163745
-0.2017392 0.046986986 -0.04321327 -0.100319244 -0.19512515 -0.07664584 -0.17163163 0.018296605
-0.15436597 -0.049237493 0.055252638 -0.17196098 0.18430418 0.18578613 -0.16181904 0.04667747
-0.08832911 -0.15051018 -0.081749745 0.14158651 -0.17149282 -0.11782456 0.21604103 0.0042801327
-0.002776416 -0.011747457 0.022116028 0.038492262 -0.09402533 -0.14678538 -0.155691 0.13300428
-0.0014916908 -0.09258774 -0.028508767 0.11513667 0.10354918 -0.20527168 0.15730222 0.14598617
0.1002213 0.058516003 -0.005092845 0.07136978 0.209934 0.22405927 -0.03502187 0.19875146
-0.19910984 -0.0027022108 -0.12877838 -0.20158859 0.0963403 0.20414619 -0.12778725 -0.17122543
0.1344884 0.19210595 -0.18106358 -0.1906702 -0.08709566 0.21077707 0.005793654 0.09574477
-0.10573188 -0.22540115 0.16416362 -0.08405742 -0.14561 -0.15317483 0.09479057 -0.07418635
-0.04646357 0.03950923 0.03984215 -0.11037121 -0.089385405 -0.10788903 0.13856776 0.014608295
0.041322324 -0.052017543 0.098097034 0.20532012 0.0061231316 -0.19717962 -0.14644074 -0.034855053
0.17502269 0.13032866 0.030561808 -0.026344921 0.01655778 -0.0057889423 0.2080858 -0.2590011
0.20045365 -0.007068092 0.182049 0.12604599 0.021646922 -0.11495954 0.025891691 0.009476162
-0.20845182 -0.017064039 -0.10255154 -0.16493161 -0.14344786 -0.08260244 0.19034512 -0.14491966
0.14506876 0.003182065 -0.2267024 0.18734117 -0.0457318 0.010168853 0.13287833 0.18351287
-0.14407274 0.085698225 -0.1383428 0.10231154 -0.17193504 0.14442317 -0.11828576 -0.041948393
0.15957043 0.116574 -0.17128456 -0.22020882 0.13729358 -0.21322867 -0.008095264 -0.22937326
-0.1976332 -0.13640778 -0.1317429 -0.0024704624 0.06193695 0.037056286 0.101004526 0.123442315
0.00023195508 0.11828129 0.05560321 0.111315586 -0.1801341 -0.2094944 0.183169 0.106284365

encoder.attn.out_proj.bias f4 [18]
00000000: d913 adbb dd63 a83b d4d8 0b3b 5598 023c
00000010: d374 b4bb a4d5 6cbb dcd1 62bc db94 e23b
00000020: aba7 a2bb 9de2 2bbc c6be 3cbb 535f 3fbc
00000030: 57f0 1b3c 50e3 ed3b fb89 4cbb adf6 d33b
00000040: 3a99 0cbb 9506 c13b
-0.005281907 0.0051388578 0.0021338956 0.007970889 -0.0055070906 -0.0036138082 -0.01384398 0.0069147176
-0.0049638352 -0.010491041 -0.0028800233 -0.011680442 0.009517751 0.007259764 -0.0031210172 0.006468615
-0.0021453635 0.005890677

encoder.feed_forward.0.weight f4 [72, 18]
00000000: 23a2 763d 8cb3 73be 7713 23be 48c5 6b3e
00000010: 64aa 6bbe cbd6 5e3b a5df 0cbe 11a8 b53d
00000020: 8014 323d 03d8 573e 4c85 36bb 57e9 3dbd
00000030: 1ad5 eb3d 05ae 1c3e 21ca 553e c554 f43d
00000040: 1ec1 a2bd fd19 0a3e 2709 2bbe b386 b0bd
00000050: a948 cb3d aba7 0b3d 0dd0 21be 7f2a efbd
00000060: 10f8 bbbd e814 383e edfc 52be 1237 0a3e
00000070: 7065 173e 38ff bc3b 2ebc 493e ad1b 3f3e
00000080: 6cab 91bd 06b5 31bc 6359 6c3e 5d7f 523e
00000090: fef8 6bbe 8c8b efbd f574 ac3d d738 f5bd
000000a0: 4f71 413e b190 bfbd 2b34 a3bd 85b0 323e
000000b0: 82d8 09be 2839 4abe 6a23 6e3a 25f5 483e
000000c0: d4f0 1dbe a27a a23d df66 1dbe bae1 633e
000000d0: b432 aa3d e0ec 2b3e 1abd d33d 3c95 29bd
000000e0: 976f 0d3e 506c 183e a725 28be e350 da3d
000000f0: 99a4 853c d1b5 bb3d 5650 063e b82f 50be
00000100: b132 8c3d 8f78 67be 398c 6fbd 49a9 173e
00000110: b702 273e 9636 c03a a7ce 433e 8f61 cf3c
00000120: f571 ef3d 970c 14be 4905 1cbe 7482 99bc
00000130: 4d8b d53c 6152 a63d 1349 c43d 5526 69be
00000140: 6384 113e 582f 4c3e ebe9 273e 5845 b6bd
00000150: f47c 01be 9af9 03be 7885 d33d 0771 86bd
00000160: 2a15 6d3e 3101 1c3e ff96 4cbe 99db 673d
00000170: 918d a5bc 792b 13be c37c 373e 9012 113e
00000180: 7c51 7abe e3eb 47bd 4990 01be 0c7a 4bbe
00000190: a3cd 763d 19b2 0b3c 5d74 483e b4cd 05be
000001a0: ef56 68bd 878c 24be 3755 dbbb 5e08 80ba
000001b0: 44cd 603e 0026 6abe f1c3 4abe b4fd 31be
000001c0: e85f 43be 4deb 393e 9d37 67be 9886 8e3d
000001d0: d2c8 6fbc b925 b9bd f8cf 17be fd87 cf3d
000001e0: b4b4 123e 25d8 703d fbb1 35bd c4e5 4c3e
000001f0: 297f a23d 4c25 91bc 334d b2bd d790 02be
00000200: d82b bfba de2d 1ebe 4b39 363e bea2 21be
00000210: 2aee 5fbe 3da3 be3d 4e71 303e 10f8 16be
00000220: 2f91 9e3c 8ad3 623e 3244 99ba a862 613e
00000230: 9a3d 613e dcf9 333e 6605 f0bd 71e9 6f3d
00000240: ea16 213e b1b8 44bd 35aa 2dbe d232 21be
00000250: fb0a 13be 8220 0f3e 94f6 453e 2049 68be
00000260: 6075 3f3e 656f 44be 8bff fc3d 57b6 543e
00000270: c1ac 513e c084 293d cf43 3fbe f127 71bc
00000280: 97bb 433d fc17 413e 5f1f 3bbd 679e 49be
00000290: 264f 743e 45d2 083e 3590 4bbd bc92 9abc
000002a0: d43d 1abd cfdd 1dbe 0d70 003e 8735 30be
000002b0: 3913 773e 49a1 9a3d 2079 663d 5bb8 d5bd
000002c0: a6ef 5d3e 9708 e9bd 3f78 843c dc5f 12be
000002d0: 2385 323e 2333 24be b636 643e 689b 8e3d
000002e0: c7b5 6abe bc1e 3bbe 3229 553d 1e33 fdbd
000002f0: 8ffd 89bc 7001 ff3d 9f02 46be fdd2 3a3e
00000300: 9f9d 303e 93f8 50bc e041 0cbe 6af4 653e
00000310: 9459 533e 8097 2a3c a5af 973d fff4 3abd
00000320: 94f8 163c 4566 eb3c 4e29 8dbd 700f 743e
00000330: 9e7d 443e 84dd 9bbd 06eb 183d 5add 81bc
00000340: ace0 90bd 471c 313d 4fc8 653e 12a3 fa3d
00000350: 622a e83d a21c e43d a9a1 90bc 2105 37be
00000360: ec83 14be 5145 5dbe cb0b 0abd 1df0 a9bd
00000370: cf45 193d c8b6 0d3e d824 973d eeda 1bbe
00000380: 87f6 443e d9c8 0c3e a500 6b3e 26c4 43bd
00000390: f6cc 3e3b 6f03 1dbe e6a7 a5bc b74e 2a3e
000003a0: 69af 2dbe 6365 453e 6110 36bc 1de6 74be
000003b0: 73e1 2ebe fb01 5f3e ec08 b7bb 63e9 53be
000003c0: a991 1e3e 391f 433e 0eed a43d 596b 65be
000003d0: ca9c a9bd 5566 4e3d adcd 2cbe 5d51 083e
000003e0: b7d3 efbd 5b4a 703e 24b2 48be 965e d3bd
000003f0: 4791 88bd cd46 00be 7acb e6bd 48e1 54bd
0.06021322 -0.2379896 -0.15925394 0.23024476 -0.23014218 0.0034002538 -0.13757189 0.08869947
0.04347658 0.21078496 -0.0027850447 -0.04636511 0.11515255 0.15300758 0.20877887 0.11930231
-0.079469904 0.13486476 -0.1670271 -0.08619442 0.09925968 0.034095448 -0.15802021 -0.11678027
-0.091781735 0.17976725 -0.20604296 0.1349757 0.14784789 0.005767729 0.19700691 0.18662901
-0.07112774 -0.010846382 0.23080973 0.20556398 -0.23044202 -0.11696538 0.08420745 -0.11973732
0.1889088 -0.093537696 -0.079689346 0.1745015 -0.13461497 -0.19748366 0.00090842566 0.19624765
-0.154239 0.079335466 -0.15371273 0.22254077 0.08310452 0.1678958 0.10338803 -0.041402087
0.138121 0.14885068 -0.16420613 0.10659959 0.016313838 0.09165538 0.13116583 -0.20330703
0.06845606 -0.22604583 -0.058483336 0.14810671 0.1630963 0.0014664705 0.191218 0.025315074
0.116916575 -0.14457928 -0.15236391 -0.018738963 0.0260674 0.08121181 0.0958425 -0.22768529
0.14210658 0.19939935 0.16397826 -0.08899945 -0.12645322 -0.12888184 0.103281915 -0.06564527
0.23152605 0.1523483 -0.19979475 0.05660591 -0.020209106 -0.14372052 0.17918687 0.14167237
-0.24445146 -0.048808943 -0.12652697 -0.19870776 0.060254704 0.0085263485 0.19575639 -0.13066751
-0.05672353 -0.16069232 -0.006693508 -0.0009768119 0.21953303 -0.22866058 -0.19801308 -0.17381936
-0.19079554 0.18156166 -0.22579809 0.069592655 -0.014635282 -0.09040398 -0.14825428 0.101333596
0.14326745 0.05879988 -0.04435919 0.20009524 0.0793441 -0.01771798 -0.08706131 -0.12750565
-0.001458521 -0.15447184 0.17795293 -0.15784737 -0.21868196 0.09308479 0.17230722 -0.14743066
0.019356338 0.22151008 -0.0011693297 0.2201029 0.21996155 0.17575783 -0.1171978 0.058572236
0.15731397 -0.048027698 -0.1695946 -0.15742043 -0.14359657 0.13977244 0.19332343 -0.22684145
0.18697119 -0.19183119 0.123534285 0.20772682 0.20476057 0.041386366 -0.1867821 -0.014718995
0.04778632 0.18856806 -0.045684215 -0.19689332 0.23858318 0.13361461 -0.049698073 -0.018868797
-0.03765662 -0.15416645 0.12542744 -0.17207919 0.24128427 0.07550294 0.056267858 -0.10435554
0.2167345 -0.113785915 0.016170619 -0.1429438 0.174336 -0.16035132 0.22286496 0.06963235
-0.22920905 -0.18273443 0.05204124 -0.123632655 -0.016844539 0.12451446 -0.19336937 0.18244548
0.17247628 -0.012754577 -0.13697004 0.22456518 0.2063964 0.010412097 0.074065484 -0.045643803
0.009214539 0.02873529 -0.06892644 0.23834014 0.19188544 -0.0761061 0.03733351 -0.015852619
-0.07074103 0.043239858 0.22439693 0.122381344 0.11336209 0.11138274 -0.01765521 -0.1787305
-0.14503449 -0.21608473 -0.033702653 -0.08297751 0.03742009 0.13839257 0.07380074 -0.15220234
0.19234668 0.13748492 0.22949465 -0.047794484 0.0029113865 -0.15333341 -0.020221662 0.1663159
-0.16961445 0.19276957 -0.0111123035 -0.23915906 -0.1707819 0.21778099 -0.0055857804 -0.20694499
0.15485252 0.19054879 0.08053027 -0.22404231 -0.08281858 0.05039056 -0.16875334 0.13312288
-0.11710303 0.23465864 -0.19599205 -0.10320775 -0.066683345 -0.12527008 -0.11269279 -0.051972657

encoder.feed_forward.0.bias f4 [72]
00000000: 74a0 66be ca47 c9bd d538 b2bb 865f 1a3d
00000010: 0462 8abd 3187 55be b6a0 f9bd e991 ff3b
00000020: a246 aa3c c910 8c3c 12f8 3c3e e689 623e
00000030: a4ee 40be fa95 d9bc 52d2 483e 4c20 31bd
00000040: 1f22 6a3e 3507 753d ac91 623e 7c2c 0cbe
00000050: 023a 3c3e b024 c33d 2eb6 1abd fbe5 ff39
00000060: 5129 c03d 505b 83bd edba ae3d 2b10 47bd
00000070: a95d 67bc 7d1b a8bc 75d1 f6bd 154a 0dbe
00000080: 0ea8 973d ec8a 5bbd 002f 2abe 739e 34be
00000090: d32d 3bbe 240e 333e 6e7d a43d 8127 433e
000000a0: 9dd4 b7bc f792 32be 708d 0d3e 25c3 08be
000000b0: 6331 c13d 7861 0ebe a528 c2bd 2842 193e
000000c0: 4df7 e23d 317e 2ebe cc48 eb3d 4122 07be
000000d0: 2e4d 12be 1455 423e d75d 2f3d b397 5dbe
000000e0: 960b c0bd 0508 c53d af2b a63d 0d4e 0f3e
000000f0: 45cf 503c 57f0 533e e7e2 c7bc 6435 aabd
00000100: 5d46 ff3d bd2d 18be 5fa3 653e c7d9 903d
00000110: 7991 9b3c 7944 10be eee2 babd 87a0 03be
-0.22522146 -0.09828146 -0.005438904 0.037688754 -0.06756976 -0.20852353 -0.12188856 0.0077993763
0.020785633 0.017097848 0.18454006 0.22122917 -0.18841034 -0.026560772 0.19611481 -0.04324369
0.22864579 0.059821326 0.22125882 -0.13688844 0.18381503 0.09528482 -0.037771396 0.0004880874
0.093828805 -0.06413901 0.08531747 -0.048599403 -0.014121451 -0.02052092 -0.120516695 -0.13797791
0.07405101 -0.053599283 -0.16619492 -0.17638569 -0.182792 0.17485863 0.08031736 0.19058038
-0.02244025 -0.17438875 0.13823485 -0.13355692 0.09433248 -0.13904369 -0.094804086 0.14966643
0.11082325 -0.17040326 0.11488494 -0.1319666 -0.14287254 0.18977767 0.042814102 -0.216399
-0.0937721 0.0962067 0.08113801 0.13994618 0.012744729 0.20697151 -0.024400188 -0.08310965
0.124645926 -0.14861198 0.22425602 0.07072788 0.018990265 -0.1408862 -0.09125315 -0.12854205

encoder.feed_forward.2.weight f4 [36, 72]
00000000: a06e 2f3d 426d 9a3d 434d b53d f33d 4fbd
00000010: 3811 9e3d 9770 5ebd 28e1 a93d 63de 093d
00000020: 1619 9fbd b226 c83d 6d44 bf3c f851 babd
00000030: de1e 14bc f5dc 8f3c db94 c23d 176a 903d
00000040: fa49 96bd 551d 9fbd d24d 3a3c d8af 9dbb
00000050: 60b5 be3d 7278 e8bb 2a2e c53b cc97 a3bd
00000060: 10bd 3d3d 44eb 793d 7f0f 6a3c 7872 e4bd
00000070: 5b88 823d 1938 f3bc c87a 9abc e487 3a3d
00000080: 56e8 8cbc b341 20bd 05af 01be 1ce9 f93c
00000090: 821c 9cbd f657 a83d 7f43 7b3d 5f9a 4a3d
000000a0: 52ed c73d d9bd 923d 3cd1 7cbd 1016 db3d
000000b0: 44ce 83bd ac5a 243d 188f 8abc c9b1 e0bd
000000c0: dd57 6bbd 9154 95bd 1e59 2cbd c522 ad3d
000000d0: 0680 d63d 06c6 4fbd 181a 903c 931d 273c
000000e0: 2592 9dbd 9f61 a2bd cf91 27bc 34e9 4abb
000000f0: 3ce7 19bc 24f9 b7bd 360b 193d 5ba7 2fbd
00000100: 013e 9a3d c348 7b3d 19f7 72bd 6395 c43d
00000110: b1c1 63bd 5521 d13d 532e a43d 2407 00be
00000120: 60de a8bc 32e5 82bd 9675 0f3c 40e6 a0bd
00000130: 1214 c33c a364 a1bc 5661 ef3d eae6 513d
00000140: 2138 7fbd bf19 d33d 8c32 b9bd ee6f 533c
00000150: 2311 3bbc f228 85bd e130 4c3d 13f1 d5bc
00000160: e74b dcbd 715c 663a 215a c63d ce9a a23d
00000170: 6873 873d e894 41bd 5b5c 7f3c f494 363c
00000180: e150 51bd 264d ef3c ff6c eabc 4ddd 803d
00000190: 2231 c7bc 5745 8e3d 66d4 69bc 3b73 20bd
000001a0: 49df c5bd 11cd 913d 0704 4fbd 9584 0d3c
000001b0: ba8c fd3b 14b1 773d 3fc3 033d d3d7 27bc
000001c0: 4f12 c33c a886 8f3d cd94 a33d a283 b83d
000001d0: 6954 b53d 9991 19bd c078 ce3c cff4 3f3d
000001e0: c36e 44bd f4c8 01be e0e0 d53c 3aa9 4bbd
000001f0: 848b 0c3e 4529 bfbc 13a3 ebbc a265 69bd
00000200: 0fd9 333d c6e1 523c dde8 9ebd d49b 2b3d
00000210: 4721 9e3b 007f 0abc 587c cebd 2276 663d
00000220: 7ca2 a4bd b646 dabd abcb c5bd 3482 96bd
00000230: 62d8 99ba ebe5 e23d 0468 8ebd 310d 063e
00000240: aff2 873d e026 a4bd 86ea 113d fa33 b53d
00000250: a842 aebd 960d e5bc 2e8b 903c ef47 923b
00000260: 2d97 503d 9304 323d 375a ac3d d7f1 c83d
00000270: d704 11bd 81d3 d83d f3c1 eb3d d713 9d3c
00000280: 7aeb e6bd ba98 1a3d 6931 09bd 9b85 b1bd
00000290: 8123 e53d 5e54 c7bd 300a c83d ac98 863c
000002a0: d853 d63d c616 df3d 0576 ad3c 51ef b03d
000002b0: 6352 31bd bde2 50bd 4cd4 61bb df2c ca3d
000002c0: f226 c43d 1382 83bc a2f3 bebd 4ebd 28bd
000002d0: db34 25bd bc35 05bd cfb4 563d 636a 6b3d
000002e0: 48c1 063e 6201 bb3d 42e1 3dbd e739 49bc
000002f0: dacc 313d 2954 43bd 0c21 bf3d a181 e2bb
00000300: 4659 c0bd a28e a5bd c91b f9bc fb15 e43d
00000310: fe4b bd3c 2050 01be 03ee 82bd 3131 f53d
00000320: 7789 713c ee5f 88bd ac8a 9ebd b8c6 24bb
00000330: 6708 143e b833 afbc a58f c53d 838c 843c
00000340: a351 c23d 564f 673d e02e 513d 1029 b33d
00000350: 243b 73bd bb44 41bd 685d 183d e066 b5bd
00000360: 5ee5 143d 1b0e 3c3d b83a b8bd 6e92 9abd
00000370: fae0 843d 336a 8c3d 051f dbbb 2aa9 4c3c
00000380: ed57 a3bd bf23 e9bd 4a69 07bd d942 81bc
00000390: 772b 893d a420 1fbd b016 093c 0515 c33c
000003a0: 0194 acbc 277c 343c 3be8 afbd d3f7 713c
000003b0: c27c 87bd eebd a63d a4a6 c73c 5f16 dfbd
000003c0: fab1 f63a 1fa3 01be a30c e5bc 79dc 86bd
000003d0: c498 ae3d 0301 93bc f964 f73d 1e9a 20bd
000003e0: 8438 9dbd dd6a 5d3d 4c6a 5abd 2b3a c6bd
000003f0: c808 483d 9f62 d8bd 8954 923c e08e 9c3b
0.04283011 0.075403705 0.08852627 -0.05059619 0.07718128 -0.054306593 0.08294898 0.03365935
-0.07768457 0.097730055 0.023348058 -0.090976655 -0.009040562 0.017561415 0.09501048 0.07051485
-0.07338329 -0.077692665 0.011371093 -0.004812222 0.09311938 -0.0070944363 0.006017466 -0.07987937
0.046322882 0.061015382 0.014285921 -0.11154646 0.06373664 -0.029689835 -0.018857375 0.04553975
-0.01720063 -0.039125156 -0.12664421 0.030506663 -0.07622625 0.08219902 0.061343666 0.049463626
0.09762062 0.07165117 -0.06172298 0.106975675 -0.064358264 0.040125534 -0.016913936 -0.1097141
-0.05745684 -0.072915204 -0.042077176 0.084538974 0.10473637 -0.05072596 0.017590567 0.010199922
-0.076938905 -0.07928776 -0.010227635 -0.0030961754 -0.0093935095 -0.08983067 0.037364207 -0.042884212
0.075313576 0.061348688 -0.059317682 0.09598806 -0.05560464 0.10211436 0.08016648 -0.12502724
-0.02061385 -0.06391372 0.008756062 -0.07856417 0.023813281 -0.019701308 0.11688487 0.051245607
-0.062309388 0.10307645 -0.09042844 0.012905104 -0.01141766 -0.0650195 0.049851302 -0.02611593
-0.10756665 0.00087875786 0.096851595 0.07939683 0.06613809 -0.04726115 0.015585984 0.011143912
-0.051102523 0.029211592 -0.028616427 0.0629221 -0.02431542 0.06946819 -0.014271831 -0.039172392
-0.09661729 0.071191914 -0.05054095 0.008637567 0.007737723 0.06047161 0.032168623 -0.010244328
0.023812441 0.070081055 0.07987366 0.09009482 0.088539906 -0.03749237 0.025204062 0.046864327
-0.047957193 -0.12674314 0.026108205 -0.049721934 0.13725096 -0.023335109 -0.028764283 -0.05698169
0.043908175 0.012871211 -0.07759259 0.041896656 0.0048257443 -0.008453131 -0.100823104 0.056265004
-0.08038804 -0.10658018 -0.09657987 -0.07349053 -0.0011737461 0.110790096 -0.06953433 0.1309097
0.06638085 -0.08015227 0.03562405 0.08847804 -0.085088074 -0.02796058 0.017644491 0.0044641416
0.050925422 0.043461394 0.084156446 0.09811752 -0.035405006 0.10587216 0.11511602 0.0191745
-0.11275382 0.037743308 -0.033494387 -0.08668061 0.111884125 -0.09732889 0.09767568 0.016430221
0.10465211 0.108930156 0.02117444 0.08639396 -0.04329146 -0.050997484 -0.0034458814 0.0987184
0.09577741 -0.016053235 -0.09323813 -0.04119616 -0.04033361 -0.03252195 0.052418526 0.057474505
0.13159668 0.09131123 -0.0463574 -0.012281871 0.043408252 -0.047687683 0.09332475 -0.0069124256
-0.093920276 -0.08083846 -0.030408757 0.11137005 0.023107525 -0.12628222 -0.063930534 0.11972273
0.014742247 -0.06658922 -0.07741293 -0.002514286 0.1445633 -0.021386966 0.09646539 0.016180282
0.09488227 0.056472145 0.051070094 0.087480664 -0.059382573 -0.047184687 0.037198454 -0.088575125
0.036351554 0.04591189 -0.08995575 -0.075474605 0.064882234 0.068561934 -0.0066870474 0.012491504
-0.07975755 -0.11383771 -0.033059396 -0.015778946 0.066977434 -0.038849488 0.0083672255 0.023813734
-0.021066668 0.011015928 -0.08589216 0.014768559 -0.066155925 0.08141695 0.024371453 -0.10892939
0.0018821352 -0.12659882 -0.027960127 -0.065850206 0.085252315 -0.017944818 0.12079806 -0.039209478
-0.07676795 0.05405699 -0.05332403 -0.096790634 0.0488365 -0.105656855 0.017862575 0.004777774

encoder.feed_forward.2.bias f4 [36]
00000000: b08a 7bbd 0b74 80bd 00a3 dd3d 0157 853d
00000010: 89b0 e53c 86cf 683d 5cb3 71bc 9e48 80bc
00000020: 9303 b43c 3b3c 37bd 2474 813d 9abb ef39
00000030: 8d09 eab9 8d2c d7bd d51d 61bd 75a0 4cbd
00000040: b19c 89bd 46df 81bc cda6 9d3d 64f7 9ebd
00000050: 9baf debd 5ac2 043d 9538 d7bd 5b31 92bd
00000060: 78fc 07bc 4cfc 5e3d 00e9 9f3d 71f8 b33d
00000070: b9cf 193d cf10 873d a344 f43c 6e92 c53d
00000080: b6fa d3bd b4b8 423d bcf7 bcbd ec84 d9bd
-0.06141156 -0.062721334 0.108221054 0.06510735 0.02803828 0.056838535 -0.014752235 -0.015659627
0.02197436 -0.044735175 0.0632098 0.00045725406 -0.00044639074 -0.10506544 -0.05496009 -0.04995771
-0.0671934 -0.015853535 0.0769783 -0.0776203 -0.10873338 0.03241191 -0.10508839 -0.0713832
-0.008299939 0.054439828 0.07808113 0.08787621 0.037551615 0.06595003 0.029817885 0.0964707
-0.10350554 0.047539428 -0.09226939 -0.10621056

encoder.norm0.weight f4 [18]
00000000: e169 7f3f ddf3 7f3f 626a 7d3f 4c5b 803f
00000010: 7ea6 7e3f 5305 813f d750 7a3f fd1e 823f
00000020: 2c6b 803f ec5f 803f b10b 813f 153b 7f3f
00000030: 690c 803f c33e 803f 1411 813f 6e51 7f3f
00000040: b7f9 7e3f 6aa9 7c3f
0.99770933 0.9998148 0.9899045 1.0027862 0.99472797 1.007975 0.977796 1.0165707
1.0032706 1.0029273 1.0081693 0.9969953 1.0003787 1.0019153 1.0083337 0.99733627
0.99599785 0.98696005

encoder.norm0.bias f4 [18]
00000000: 7a8b 083c b9f8 173c e175 c5ba f8e3 f4ba
00000010: 6142 863b cc1b 5bbc d9b4 15bb bfcf 3cbc
00000020: a7db df3b 1bf1 b23a a932 8abb 88bf 95bb
00000030: b904 e33a 3d4e e4bb bb16 e93b 4525 003a
00000040: 0744 6bba f699 1a3c
0.008334035 0.009275609 -0.0015065038 -0.0018683663 0.0040972685 -0.0133733265 -0.002284339 -0.01152414
0.0068316045 0.0013652177 -0.004217465 -0.0045699514 0.0017320133 -0.0069673345 0.0071133054 0.0004888366
-0.00089746754 0.009436121

encoder.norm1.weight f4 [36]
00000000: 045c 7f3f 1708 7f3f 49e6 803f ee8e 803f
00000010: 9561 803f 5cdf 763f 1f0c 7e3f 2bcc 813f
00000020: 3678 803f 190c 803f 7222 803f 7f8f 803f
00000030: 8992 813f 2fbe 7f3f 9194 803f f780 7d3f
00000040: 517f 813f d180 803f 1085 803f 002d 813f
00000050: c5b4 7c3f e011 7f3f 7f3e 7e3f 115c 813f
00000060: 6954 813f 288c 813f f07d 813f c2da 7f3f
00000070: c2e0 7d3f 03e7 7e3f 7771 803f 50a0 813f
00000080: 6a54 813f 76f1 7b3f 294c 7f3f 0d99 833f
0.9974978 0.9962172 1.0070277 1.0043619 1.002978 0.9643457 0.99237245 1.0140432
1.0036685 1.0003692 1.0010512 1.0043792 1.0122844 0.9989957 1.0045339 0.9902491
1.0116979 1.0039312 1.0040607 1.0091858 0.9871333 0.9963665 0.9931411 1.0106221
1.0103885 1.0120897 1.0116558 0.9994317 0.9917108 0.99571246 1.0034627 1.0127048
1.0103886 0.98415315 0.99725586 1.0281082

encoder.norm1.bias f4 [36]
00000000: 3343 afbb eca7 b43b 31cd 593c df1e 37bc
00000010: 07f4 47bb 123b 4f39 bb40 1f3c bef8 093c
00000020: 374d e13b 639f 1a3a 392a e2bb d67b 8dbb
00000030: 6153 c03b 2a6c 4b3c 7dd8 033c 1522 773b
00000040: 4444 943b 4efb 06bc 2dbd 28bc 1dd1 1cbb
00000050: 3f59 3e3b cb96 8dba b9f2 aebb c4d5 ffbb
00000060: 29c1 6a3c de32 30ba 66cd 933c 3602 1e3b
00000070: 0b87 03bb 1216 bfbb 2ad1 423c 7238 c73b
00000080: 02f4 d33b 65de f9bb d0c6 a43b e14d b6bb
-0.005348587 0.005513182 0.01329355 -0.011176794 -0.0030510442 0.00019763064 0.009720023 0.008421121
0.00687566 0.0005898384 -0.006902006 -0.004317741 0.0058693145 0.012415925 0.00804722 0.0037709523
0.0045247395 -0.008238627 -0.010299009 -0.0023928352 0.0029044894 -0.0010802386 -0.0053389934 -0.0078074653
0.0143282795 -0.0006721447 0.018042278 0.0024110205 -0.0020069506 -0.0058314884 0.011890689 0.006079727
0.006468297 -0.0076253884 0.005028583 -0.005563483

decoder.attn_0.in_proj_weight f4 [108, 36]
00000000: 75bd 453e 18f8 94bd 5e22 113e 3360 46be
00000010: 84c0 dbbc f8bd 223d 815c 273e 3f16 46be
00000020: a646 063e 16c8 82bc 8854 c03d f6fd ac3d
00000030: 4af0 27be 889e 3fbe d43d 413e a5f1 c43b
00000040: a6cc f1bd f24b 853d 2ea8 093e e09c e7bd
00000050: da48 503e f6ba 243e 0b81 423e d808 fa3d
00000060: 9143 bfbc 984a 4ebd dd5c 60bc 6f0f 47be
00000070: a0f3 2c3e 6020 23be 8846 3dbd f6bc 27bd
00000080: b55d 313e 27cb 09be 9206 573b 1f9e 2dbe
00000090: db31 53bc 1d9f 53bd b808 ccbc cc57 373e
000000a0: 1810 f0bd 3c21 0bbe df4a 2f3e 058a 473e
000000b0: 976e 2ebe a4f1 dcbd 6780 2b3e eb4e 53bd
000000c0: 3160 b73d 1a81 273d 0277 7ebd 0d37 b1bd
000000d0: 98c7 92bd a9f2 ab3d 1827 19bd 1dff a53d
000000e0: 8a46 013e b450 e03d 8e72 cc3d 8e7e ae3d
000000f0: 9dd5 313e 2525 303e 343d b13d a931 3fbe
00000100: 56b1 de3d 3a14 e73d 462a 073e 96f1 bebd
00000110: cc07 843c a078 193e 49aa 0dbe 84dd 46be
00000120: e0d5 19bc 5617 a83d 6ac1 d03d 7508 923d
00000130: c412 e5bd 2078 533d 9745 4fbd 6065 ecbd
00000140: 1019 2ebe deab 32be 507f 163d c297 ccbc
00000150: a7e2 e53d ae6b fabd 213c 28bd 5f59 e8bd
00000160: 04c2 483e 9278 45ba f9f1 2abc d79c 66bd
00000170: 7865 903d 5d30 2e3e 5ca2 b03d 246c c23d
00000180: 41f4 1d3d fab4 19be 21b5 86bd 4dc2 09bd
00000190: b106 a23d c32d 573b b14e 84bd 5508 adbd
000001a0: 5ca1 b2bd 8aeb 233c 5648 d7bd 5c8c 223e
000001b0: 623a 2ebe 8a1f 9b3c 9099 8ebd 9b07 26be
000001c0: 2e4b fc3c 6e6b cfbd 6ec5 0fbe c51d e63c
000001d0: 7a1a 03bd ce47 d1bc 9784 3cbe f580 64bd
000001e0: be43 e43c eb15 04be da26 133e b387 18be
000001f0: 952a 4a3e 6c2c 9c3c 0238 283e c733 d03c
00000200: 669d 4fbe 1273 e13d a514 ccbd b422 833d
00000210: 663b db3d 3cd5 063e 3792 603d 9b1c 483d
00000220: cee6 033e fcea 84bd 4a5f 333e 4dd8 223e
00000230: a441 fa3c 0a1a bbbc d92e 9b3c 0ef8 323e
00000240: 451c 12be 4b98 233e 51d6 0ebd 0a0f 693d
00000250: a304 d4bd c435 91bc 41ee 28be 9f39 ea3d
00000260: 6d27 423e 3933 89bd e32b 1b3e f83e 45be
00000270: e8cf b0bd 1bb7 8bbd 9194 91bd 5092 2bbd
00000280: 57c7 4dbd 1af3 bfbd 686b 333e 688b a8bc
00000290: 4707 3ebc ec66 8b3d 5f6a 53bd 2e11 f8bd
000002a0: d722 7cbd cc18 81bd 14ce 0c3d 2250 0d3e
000002b0: 54ca 88bd d4e3 df3d d874 823d 7ca9 3ebe
000002c0: 078e ab3c 49dc 0cbe 67cc 21be 50d5 2dbc
000002d0: b606 97bd effc 533d ce28 f4bd e7ed 14bd
000002e0: 5876 3fbd 81a2 e53d 6982 9f3d 19d5 193e
000002f0: 158b 9cbc 94e6 1f3e aee6 123e 69e0 1bbd
00000300: f633 50be c914 0dbd 865a 263e 1cf1 16be
00000310: fe9a 3bbe 8928 8c3c 4626 89bc b22f ef3d
00000320: 4f10 173e 6471 003d 3d20 ed3d 9c65 12be
00000330: c4a4 4e3d dfb4 9eba c5e1 7cbd 1a69 1abe
00000340: b4cb c0bd 0c58 2b3e 9d15 e4bc e64b 83bb
00000350: ca18 42be a10f d6bd e7d0 8fbc 7274 39bd
00000360: 6bab 403e f4ac fcbd 1fc8 463e 35fa 3fbe
00000370: 5a0b c1bd fee2 ef3d 3599 7b3d aa33 243e
00000380: b75d 6fbd 05be 343e b2d8 9abd c096 003e
00000390: 01cf d7bd 0e7c ca3c 9f9e 4e3e dab3 e23d
000003a0: db8d 1f3d 20a3 09be 36d4 5b3c c4aa dfbd
000003b0: ddbc 153e f5c4 e73d 8265 07bb 533d 1c3e
000003c0: 61ee 32bd e34d 84bd 1480 d6bd 43b5 2ebe
000003d0: 0e5c 193e 85e3 aa3d ac5a c83d f170 d7bd
000003e0: b643 0e3e f5df 023e fe2e 103e 5c99 973c
000003f0: 506d 49be 5962 80bd 3ed3 5b3d 2270 4e3e
0.19310553 -0.07273883 0.14173266 -0.19372635 -0.026825197 0.03973195 0.16343881 -0.19344424
0.13112888 -0.015964549 0.09391123 0.08446877 -0.16400257 -0.18712819 0.18871242 0.0060102516
-0.11806612 0.06508626 0.13443062 -0.113092184 0.2034029 0.16086945 0.18994538 0.12208718
-0.023347648 -0.050364107 -0.013694015 -0.19439481 0.1688981 -0.15930319 -0.046209842 -0.04095169
0.17320903 -0.13456403 0.0032810313 -0.1695485 -0.012890304 -0.051665414 -0.024906501 0.17904586
-0.1172182 -0.13586897 0.17118405 0.19486244 -0.17034374 -0.10788277 0.167482 -0.051588934
0.08953894 0.040894605 -0.062125213 -0.08653078 -0.07166976 0.08395893 -0.0373908 0.081052996
0.12624565 0.10952893 0.09982787 0.08520232 0.17366643 0.1720167 0.08654252 -0.18671288
0.10873668 0.11283155 0.1319972 -0.093234226 0.016117 0.14987421 -0.1383449 -0.19420439
-0.009389371 0.08207576 0.10193141 0.07130519 -0.1118522 0.051628232 -0.050603475 -0.11542773
-0.17001748 -0.17448375 0.03674251 -0.024974708 0.11224871 -0.122275695 -0.04107297 -0.11345171
0.19605261 -0.000753292 -0.010433667 -0.056301918 0.07050604 0.17010637 0.086247176 0.094932824
0.038563017 -0.15010443 -0.06577516 -0.033632565 0.079114325 0.0032833673 -0.06460322 -0.08448855
-0.08722183 0.010004887 -0.10511844 0.15873855 -0.17014459 0.018935937 -0.069628835 -0.16213839
0.030797567 -0.101279125 -0.14040157 0.028090367 -0.032007672 -0.025546934 -0.18409954 -0.055787046
0.027864333 -0.12898986 0.1437029 -0.14895515 0.19742806 0.01906415 0.16427615 0.025415314
-0.20274886 0.11008276 -0.09964875 0.064031035 0.10704689 0.1316728 0.05482694 0.048855405
0.12881014 -0.06490132 0.17516819 0.15902825 0.030548878 -0.022839565 0.018943237 0.17477438
-0.14268596 0.15976064 -0.034872357 0.056899108 -0.10352447 -0.017725833 -0.16497137 0.114367716
0.18960352 -0.06699223 0.1515346 -0.19262302 -0.08633405 -0.06822034 -0.07108415 -0.04188758
-0.050238933 -0.0937254 0.17521441 -0.020574287 -0.011598415 0.0680674 -0.051615115 -0.12112652
-0.061556663 -0.06303558 0.03437622 0.138001 -0.06679216 0.10932127 0.063699424 -0.1861934
0.020941747 -0.13755907 -0.1580063 -0.01060994 -0.07374327 0.05175489 -0.119218454 -0.036359694
-0.04674372 0.11212636 0.07788546 0.15022697 -0.019109288 0.15615302 0.1434581 -0.03805581
-0.20332322 -0.03444365 0.1624547 -0.14740413 -0.18320844 0.017109172 -0.016741883 0.11679019
0.14752315 0.031358138 0.115784146 -0.14296573 0.0504501 -0.0012108347 -0.061738748 -0.15079156
-0.09413853 0.16732806 -0.027842337 -0.0040068505 -0.18954769 -0.104522 -0.017555667 -0.045277067
0.18815391 -0.12337676 0.19412278 -0.1874779 -0.09425993 0.11713217 0.061425406 0.16035333
-0.058438983 0.17650612 -0.075608626 0.12557507 -0.1053753 0.024717357 0.20177697 0.1106946
0.038953643 -0.13441133 0.013417294 -0.10921243 0.14622827 0.113168634 -0.0020659869 0.15257768
-0.043684367 -0.06460168 -0.10473648 -0.17061333 0.14976522 0.08344177 0.09782919 -0.10519589
0.13893017 0.12780745 0.14080426 0.018505745 -0.19670606 -0.06268758 0.053668253 0.20159963

decoder.attn_0.in_proj_bias f4 [108]
00000000: 2979 8dbd 1dd6 adbc ccd8 84bc 4539 1bbd
00000010: 09ea 3bbd d94d 223c aa75 3e3d 61d6 b7bb
00000020: ac21 3d3c 2f98 af3c ff76 fbbc a7dd edbb
00000030: eb4d c7bc 1032 3d3d f2ab 3c3d ebb9 80bd
00000040: c35e 9e3c 3be5 0f3d c980 14bd 5ba8 8dbc
00000050: bea1 db3b d061 8d3c 38a6 8a3c 830d c4ba
00000060: 48ac 91bc fd1c 313d 3c6c 583d 8814 103d
00000070: 79af b2bc 808c ffbc 3a81 07bd 9b0b 0dbc
00000080: d792 12bd 6ce5 b43c f7eb 59bc ca31 4e3d
00000090: 7935 4134 0304 d032 ddba ae33 a824 7034
000000a0: 2766 b1b2 7310 2633 af3d 2f34 dc97 b132
000000b0: 8c8b 27b4 f90f a2b3 4aba 1934 a93b 4533
000000c0: d49d 33b3 80f8 53b4 6c30 80b4 b0e3 03b2
000000d0: 2271 1c34 a4c5 d6b4 9f67 aa33 f041 8234
000000e0: d4b8 9db3 a95d 7fb3 b447 6ab3 49a7 84b2
000000f0: 529d cb32 a3d6 5d34 737a d2b4 ed3a acb4
00000100: 599b 55b3 c4d5 9634 788d 0034 7a5a 1b33
00000110: 11c0 e834 df4c a9b4 4505 44b2 84fe 3fb4
00000120: da27 2b3c 8702 663c 2213 0fbc d425 c0bc
00000130: 9dcb ebbb 5696 09bc 9992 1a3c 8998 ac3c
00000140: c49b 17bd 3873 883c eba8 07bc 1212 9abc
00000150: 9382 933b c59f 083d 85a8 15bc 89e8 19bc
00000160: 6af5 9339 b570 aeba f3d7 3a3c ddb6 8d3b
00000170: da14 d03b 5b86 2fbc 5340 0b3d ea87 433c
00000180: e43f 7dbb 3a41 24bc f0b3 f13b 8716 6abb
00000190: f5fe c83b aebc d73b f6cf 80bb 9c0a ac3b
000001a0: c8e8 373b 52da 5db9 d32e 863b e6d5 763b
-0.06907875 -0.021220261 -0.016216658 -0.037896413 -0.04587749 0.009906256 0.046498932 -0.0056102728
0.0115436725 0.021434871 -0.03069639 -0.007259089 -0.024329146 0.04619032 0.046062417 -0.06285461
0.019332295 0.03513072 -0.03625563 -0.017292192 0.006702631 0.017258555 0.016924962 -0.001495764
-0.017782345 0.043240536 0.052837595 0.03517583 -0.021812188 -0.031194925 -0.033082224 -0.008608724
-0.03578457 0.022082053 -0.013300887 0.05034045 1.7993979e-07 2.4216211e-08 8.1364966e-08 2.2365077e-07
-2.0651965e-08 3.8664847e-08 1.6320585e-07 2.067457e-08 -1.5603854e-07 -7.546618e-08 1.4317007e-07 4.5921897e-08
-4.182023e-08 -1.974131e-07 -2.387709e-07 -7.676974e-09 1.456979e-07 -4.000441e-07 7.9350905e-08 2.4262363e-07
-7.344502e-08 -5.9456998e-08 -5.4547584e-08 -1.5442895e-08 2.3703851e-08 2.0660313e-07 -3.9204642e-07 -3.208037e-07
-4.9734215e-08 2.8095212e-07 1.1972395e-07 3.6171038e-08 4.3353114e-07 -3.1534634e-07 -1.14099e-08 -1.7880853e-07
0.010446513 0.0140386885 -0.008732589 -0.023455538 -0.0071959035 -0.008397659 0.009434366 0.021068828
-0.037013784 0.016656503 -0.008280019 -0.018807445 0.0045016496 0.033355493 -0.0091344165 -0.00939382
0.00028220873 -0.0013308736 0.011404025 0.0043247775 0.006350142 -0.010713185 0.03399689 0.01193426
-0.0038642818 -0.010025317 0.0073761865 -0.0035718994 0.006133909 0.0065837717 -0.003931041 0.005250288
0.0028062332 -0.00021157533 0.0040949374 0.0037664114

decoder.attn_0.out_proj.weight f4 [36, 36]
00000000: 8f2e 903d dea2 c23c ba53 653d 39cc f4bd
00000010: 0937 523d 5618 8bbd af87 81bd 1f02 f63c
00000020: bc2e 423d 0867 e4bd 14ca 9abd f89c 9abd
00000030: becf 223e 090a febd de5b 2d39 5cc1 b3bd
00000040: c24a 13be f438 58bd 8841 42bb 3ea2 693c
00000050: d262 2f3d 87b4 413e b10d b8bd f227 f1bd
00000060: ed2d 54ba d2cc 2c3c 8a54 ecbc e905 21be
00000070: cc62 47be f1b7 eebd 9e3b 7b3d f1e6 c2bd
00000080: 5dcd 883d 5f01 39be e090 7d3d 23a1 043e
00000090: 7eb3 ab3c c8c9 70bd e43e 22bd 4385 a63d
000000a0: 2523 15bb d04f 083e a9f5 b93d d048 3a3d
000000b0: b696 0dbe 8cf1 80bd 1e89 a9bd a95c a23d
000000c0: 0a45 853d 2dcb e0bd 559c 943d d662 d63c
000000d0: 45d4 22be f27a dbbd 1633 0fbd b24a d33d
000000e0: 72fa 14be 58a2 97bd 3e26 f1bd 1fe0 1abd
000000f0: 241b 663d 973d 823d f0d5 94bd 5c0f 96bd
00000100: ffeb 2f3e 2359 c13c 71e3 a7bd d3bc e4bd
00000110: 1a52 033e 47bb 7fbd af42 f03d 668e 28be
00000120: 1b4e 1ebe eb11 d5bd 8688 d6bd e26d e7bd
00000130: c94e cdbd 27ff 00be eb38 d13d 378e 78bc
00000140: 6b93 9cbd 38a1 86bd 5364 21be fdaa 523d
00000150: 3d09 543b 711e 2b3d e7ae 1e3d 8f29 16be
00000160: 7348 f4bd bc7e 233e 1de6 16be 4f45 cf3d
00000170: 2ad5 d3ba 30c8 683d f830 2cbe f162 56bc
00000180: 9dd8 b73d cbeb 133e 46cc afbd 6c8b 0b3d
00000190: abfa 3cbe f7f8 cabd 2d79 18be 7ec4 0e3e
000001a0: 3cef 553d c05e 31be ada0 47bd 30e9 573e
000001b0: aac1 ddbd a858 373d 1a14 0dbe 28b5 1abe
000001c0: e5e9 023d 1be3 ca3c e9fb 5fbd b2a7 443d
000001d0: bffb 8d3d d7af 503d be19 e43d e599 a1bd
000001e0: b32a db3c 3ebd 00bd 8f7c 94bd 9989 003e
000001f0: 9c38 87bc a8e0 d2bd c538 0abd 5043 9a3b
00000200: 2c46 003e d68a 19be 9aa0 e63d d378 e23d
00000210: d4d6 ca3d 51b4 663d 6022 f43d e0e8 2e3d
00000220: 4599 acbd a436 493b 0d07 1e3e 34a3 25be
00000230: 366b 66bb 41cd f3bc bca8 0cbe fd73 703d
00000240: 3b8d 4cbd e31e 433d b579 643d f293 11be
00000250: 982a 0ebd 08c7 00bd c386 42bc 0060 15be
00000260: 4165 8539 5c26 29bd 5a2f 813d 3b98 0cbe
00000270: f186 25b9 629d 283d 168d babc 936d 1f3e
00000280: b7df 8e3b 2645 a0bd a52c 67bd f540 f7bd
00000290: 3016 b3bc 3cdc 2dbd c843 133e 1cb8 15be
000002a0: b2e6 2bbe 1436 a93c c43e dfbd 7f3a 75bd
000002b0: a2c1 0c3d f80b 1c3e a35e 1abe 83e7 0c3c
000002c0: b67a a8bd f4d7 013d 800d 95bd b317 0e3e
000002d0: 9ca2 f33d c7a3 d5bd 55a7 f5bd 1603 dcbd
000002e0: 6caf a53d f814 87bc 6d79 c03d 0238 cebc
000002f0: e5be 0e3e 5ea6 ce3d 59ba f7bb 814a 653d
00000300: cc30 01be 8425 93bd 8c58 02bc 3d4c ca3d
00000310: 7b2a d9bc 9d0e 0c3e 9150 10bd ce27 9ebc
00000320: 0037 073e 0ee0 043e d3be 293d 8b70 bf3d
00000330: 2fcd 8c3d 9501 853d 4b01 9b3d 254e d03d
00000340: fc5c f63d 7b38 ccbc 529e 2d3e ffd3 65bd
00000350: 016f e83d 4242 0fbd 1315 0abe b5a2 bb3d
00000360: 256d 06be 9a4f 86bd 48db ffbd 07e4 be3d
00000370: 2dd6 593d acb5 46ba e9a8 f93d a520 5dbc
00000380: 88bf 223e 271e 063e 9e42 cbbc f145 6239
00000390: b607 84bc ecbd 12be 557d a0bd a662 113d
000003a0: 1521 8a3d c97a 89bd ed4c 1fbe 378e 20ba
000003b0: f862 b4bc bfc5 ea3d 626f 2abe db3b d93c
000003c0: ed38 163d a4ab 7cbd fce6 9d3c f3c6 34bd
000003d0: f907 04bb 1bb9 92bd e92a dfbc 1240 c3bc
000003e0: 1a2a 14be 7311 00be cad2 c7bb 7482 a53d
000003f0: 6246 693d 3dca 1d3e bd9c 8a3d 7b73 3abe
0.0704013 0.023759302 0.05598805 -0.11953015 0.051322017 -0.06791751 -0.06324708 0.030030308
0.04740785 -0.11152464 -0.075580746 -0.07549471 0.1589956 -0.12404258 0.00016532789 -0.08777115
-0.14383987 -0.05278869 -0.002964111 0.014259873 0.04281885 0.18916522 -0.089869864 -0.11775197
-0.00080940017 0.01054688 -0.028848905 -0.15724911 -0.19471282 -0.11656178 0.061336152 -0.09516705
0.06679795 -0.1806693 0.06190574 0.12952094 0.020959612 -0.058786184 -0.03961076 0.081308864
-0.0022756543 0.13311696 0.09080059 0.045479596 -0.13827023 -0.062960714 -0.08278106 0.0792783
0.06507309 -0.10976253 0.072563805 0.026170176 -0.15901287 -0.10716809 -0.03496083 0.103169814
-0.14548662 -0.074040115 -0.11774872 -0.037811395 0.056178227 0.063594036 -0.07267368 -0.07327148
0.17179869 0.023602074 -0.08197678 -0.11168828 0.12824288 -0.06243446 0.11731469 -0.1646057
-0.15459482 -0.10403808 -0.104752585 -0.11300255 -0.10024793 -0.12597333 0.10215934 -0.015170625
-0.07645305 -0.06573719 -0.15760927 0.0514326 0.003235414 0.041777078 0.03874102 -0.14664291
-0.11927881 0.15966314 -0.14736219 0.101206414 -0.001616155 0.05683154 -0.16815555 -0.013085113
0.089768626 0.14445417 -0.08583884 0.03406851 -0.18454997 -0.099107675 -0.14889975 0.13942143
0.052230105 -0.173213 -0.048737217 0.21085048 -0.10827954 0.044762284 -0.137772 -0.15108168
0.03196134 0.024766495 -0.0546836 0.04801149 0.069327824 0.050948944 0.111377224 -0.07890681
0.026753759 -0.031430475 -0.0725032 0.1255249 -0.016506486 -0.10296756 -0.033745546 0.0047077313
0.12526768 -0.14994368 0.11261101 0.11058202 0.099042565 0.056324307 0.11920619 0.042702556
-0.08427671 0.0030702734 0.15432377 -0.16175538 -0.0035159118 -0.029760959 -0.13736242 0.058704365
-0.049939375 0.047636878 0.05578013 -0.14216593 -0.03470859 -0.03143981 -0.01187295 -0.14587402
0.00025443177 -0.041296348 0.0630786 -0.13729946 -0.00015785896 0.041165717 -0.022772353 0.15569143
0.004360165 -0.07825689 -0.05643906 -0.120729364 -0.021861166 -0.04244636 0.14381325 -0.14621013
-0.16787222 0.02065567 -0.109006435 -0.05987024 0.03436435 0.1523894 -0.15075164 0.008600119
-0.0822653 0.03170009 -0.072779655 0.13876228 0.1189625 -0.10431629 -0.11994807 -0.10742776
0.080901 -0.01648949 0.0939816 -0.025173191 0.13940008 0.10090326 -0.007560056 0.055979256
-0.12616271 -0.0718489 -0.0079556815 0.098778225 -0.026509514 0.1367745 -0.035233084 -0.01930609
0.13204575 0.12976095 0.04144175 0.09347638 0.06875073 0.064944424 0.07568606 0.10171155
0.12029454 -0.024929276 0.16954926 -0.05611038 0.11349297 -0.034975298 -0.13484602 0.09161893
-0.13127573 -0.065581515 -0.124929965 0.093208365 0.05318277 -0.0007580172 0.1219042 -0.013496553
0.15893376 0.1309744 -0.024812039 0.00021579095 -0.016116958 -0.14330262 -0.07836405 0.03549447
0.06744591 -0.067128725 -0.15556689 -0.0006124707 -0.022019848 0.11463498 -0.16644052 0.0265178
0.036675382 -0.061687127 0.019275181 -0.044135045 -0.0020146354 -0.07164212 -0.02724214 -0.023834262
-0.14469185 -0.12506656 -0.006098126 0.080815226 0.056951888 0.15409179 0.06768177 -0.18208115

decoder.attn_0.out_proj.bias f4 [36]
00000000: 8523 03bc a718 35bb 840c 0bbb 4d3a aebb
00000010: 1838 163c 8ea4 94bb d4fa febb d86a c9ba
00000020: b15a 0e3b 7b48 253c bc15 7a3b 2dcd 58bb
00000030: c362 6fbb 3e39 d93b ef52 b43b 6772 08bc
00000040: 4f17 16bb a179 913b 9c4e 333b 52b1 e53b
00000050: 0d01 78bb 3be8 f5ba 0e06 25bb 8681 e7ba
00000060: 5d22 abba 97bf 8c3a 105c 39bb 3b5d c03b
00000070: 283f 263b 4b62 af3a 6dfa a83b 84c9 8dbb
00000080: c351 d8bb d03f 4dbc a250 a0bb dbf7 a239
-0.008004074 -0.0027633102 -0.0021217177 -0.0053170086 0.009168647 -0.004536218 -0.007781366 -0.0015366925
0.0021721537 0.0100880815 0.0038159927 -0.0033081279 -0.0036527372 0.0066291383 0.0055030505 -0.008328057
-0.0022902077 0.004439548 0.0027360087 0.0070096636 -0.0037842423 -0.0018761227 -0.002518061 -0.0017662502
-0.0013056506 0.001073825 -0.0028283633 0.005870489 0.0025367234 0.0013380734 0.005156806 -0.004327001
-0.0066015436 -0.012527421 -0.0048924247 0.00031083715
