models/model2rf.pth (torch, 25530 bytes, 13 tensors)

job_linear.0.weight f4 [32, 16]
-0.075942494 0.06709361 -0.038556512 -0.087124735 0.2163631 0.082126565 0.02333569 0.07848913
0.06972954 -0.093509 0.04927849 0.22297052 0.0025976845 -0.16538183 0.17487362 -0.05205353
0.021877138 0.0020384998 0.047790065 0.059672076 -0.024025666 0.09203349 -0.015530173 -0.11342422
0.056674067 0.22002424 -0.038575806 0.23044875 0.12729704 -0.10866698 -0.15106596 0.026280018
-0.0014965874 0.010305771 0.13802515 0.022720112 0.23577143 0.020938864 0.13936633 0.01712685
0.17588794 -0.12074936 0.0926236 0.20943378 0.0022012887 0.32547107 0.13602649 -0.08292711
-0.12262387 0.15221202 -0.0271755 0.19214462 0.10856756 -0.03963889 -0.07487617 -0.046474528
-0.02529204 0.15315957 -0.15064113 0.13373753 0.22406764 -0.17467286 0.23752688 0.025669333
-0.17063856 -0.05373253 0.25379837 -0.10030222 0.18207219 -0.043873727 0.008122815 0.0010356667
0.1802425 0.24304987 -0.08945769 0.043572187 -0.15765215 0.33049133 0.19855413 -0.15837042
0.31201527 0.25669122 0.13142641 0.049199987 -0.058237247 0.032417588 0.13355622 0.03763998
0.12883224 0.008572254 0.12554954 0.018695902 0.0054297443 0.005249592 0.19520578 -0.2254014
-0.12760612 -0.047267884 -0.07039181 -0.12892373 -0.17663395 -0.12157173 -0.046664562 -0.1847645
-0.095758654 -0.072948955 -0.118618675 0.07988454 -0.094622284 -0.09992862 -0.07706417 0.26484522
0.04165311 0.035445467 -0.0282916 0.06617769 0.082566656 -0.12800549 0.092598416 -0.15442991
-0.07028924 0.08003114 -0.0057696137 -0.17607608 0.051444553 0.02972853 0.08004012 -0.13771835
-0.006161767 0.20890945 0.061484773 -0.09896036 0.060985733 0.17616503 0.23103611 0.061106585
0.057535756 -0.10078277 -0.11037711 -0.08011932 0.2665145 0.038982805 -0.043972593 -0.052006643
-0.16804036 -0.08652351 -0.13078916 0.019956583 -0.17524485 -0.16733463 0.049577888 0.120062135
-0.054678176 -0.1623196 -0.07890252 0.021004345 0.005330807 0.16857022 0.059915 0.031697202
0.13066287 0.1261525 0.11882783 0.12866345 0.1391066 0.10934315 -0.012211775 0.029265003
-0.047992665 -0.18690756 0.13203037 0.09297816 0.124999985 0.11115808 0.12809268 0.04130313
0.11602524 -0.17462006 0.1432933 0.19659175 0.033160053 0.08378041 0.20945245 -0.02630243
0.18126462 -0.16415584 0.12695259 -0.020888519 -0.12649246 -0.12612376 0.16279261 -0.08220802
-0.119798094 0.1115314 0.0026215382 0.17501402 -0.14638971 -0.14715396 -0.05308128 -0.08997622
-0.022837032 -0.12777968 0.10237982 0.06801305 0.03836431 0.04416455 -0.17676705 0.16266684
-0.06619475 -0.17836753 0.1167414 -0.14109635 0.092856556 0.022504073 0.161564 -0.123668075
0.00051083724 0.16859685 0.06542219 -0.058592636 -0.028361443 -0.010684015 -0.0011452114 -0.023353944
-0.15791535 0.013818289 -0.0075234235 0.039551333 0.034651406 -0.07084006 -0.109546475 -0.1703945
-0.06489996 0.01689289 0.13726543 -0.1872299 0.06733452 0.016963476 0.01010962 0.06653178
-0.17025205 -0.17334528 0.16832481 0.22730963 -0.060101442 -0.1333938 -0.18617427 0.17462765
0.1796616 -0.12287058 -0.13049836 0.09960618 -0.051050805 -0.0904947 0.06389564 0.030835714
00000000: bd87 9bbd 6068 893d 6fed 1dbd 746e b2bd
00000010: 4a8e 5d3e f931 a83d 7d2a bf3c e9be a03d
00000020: 5cce 8e3d a681 bfbd 3ed8 493d 6252 643e
00000030: ea3d 2a3b db59 29be 1212 333e 1536 55bd
00000040: af37 b33c 5a98 053b 84bf 433d b56a 743d
00000050: 79d1 c4bc 0e7c bc3d 4472 7ebc f54a e8bd
00000060: 1123 683d 094e 613e aa01 1ebd c2fa 6b3e
00000070: 285a 023e cb8c debd 09b1 1abe 3149 d73c
00000080: 2429 c4ba 89d9 283c 7756 0d3e 871f ba3c
00000090: 116e 713e fb87 ab3c 0cb6 0e3e 9c4d 8c3c
000000a0: f81b 343e 714b f7bd 71b1 bd3d cf75 563e
000000b0: 7f43 103b 25a4 a63e 874a 0b3e b0d5 a9bd
000000c0: 3922 fbbd 78dd 1b3e 279f debc 8fc1 443e
000000d0: ab58 de3d 645c 22bd ad58 99bd 135c 3ebd
000000e0: 4131 cfbc ddd5 1c3e ab41 1abe 7ef2 083e
000000f0: fd71 653e 71dd 32be 3f3a 733e 7e48 d23c
00000100: e0bb 2ebe a416 5cbd dcf1 813e 406b cdbd
00000110: 2271 3a3e f0b4 33bd 8e15 053c 35bf 873a
00000120: 7d91 383e 11e2 783e 9835 b7bd c078 323d
00000130: 916f 21be 2936 a93e c651 4b3e db2b 22be
00000140: 77c0 9f3e 086d 833e a594 063e ed85 493d
00000150: 2e8a 6ebd 4ec8 043d f6c2 083e 612c 1a3d
00000160: 99ec 033e a472 0c3c 0f90 003e 2628 993c
00000170: ffeb b13b c504 ac3b 06e4 473e a0cf 66be
00000180: 2eab 02be f89b 41bd 9529 90bd 9504 04be
00000190: 88df 34be 99fa f8bd 5723 3fbd e832 3dbe
000001a0: 1d1d c4bd 4366 95bd 59ee f2bd 819a a33d
000001b0: 54c9 c1bd 60a7 ccbd d2d3 9dbd cb99 873e
000001c0: 749c 2a3d 442f 113d c9c3 e7bc 2b88 873d
000001d0: b518 a93d df13 03be 3da4 bd3d e022 1ebe
000001e0: cef3 8fbd 5ee7 a33d 070f bdbb 4a4d 34be
000001f0: 86b7 523d 3f89 f33c 13ec a33d 0a06 0dbe
00000200: a6e8 c9bb 5cec 553e 75d7 7b3d bbab cabd
00000210: 2dcc 793d 9b64 343e bb94 6c3e e64a 7a3d
00000220: 9daa 6b3d 3267 cebd 650d e2bd 9915 a4bd
00000230: 9774 883e 6fac 1f3d 9b1c 34bd eb04 55bd
00000240: c612 2cbe 3d33 b1bd 98ed 05be fd7b a33c
00000250: 6373 33be c559 2bbe 2f12 4b3d 23e3 f53d
00000260: 39f6 5fbd 1c37 26be a597 a1bd 4e11 ac3c
00000270: 0dae ae3b ac9d 2c3e 6e69 753d edd4 013d
00000280: 7dcc 053e 1f2e 013e 015c f33d 5ac0 033e
00000290: f671 0e3e 4def df3d e613 48bc 29bd ef3c
000002a0: f593 44bd b264 3fbe f832 073e 556b be3d
000002b0: feff ff3d d9a6 e33d ba2a 033e 792d 293d
000002c0: a49e ed3d 9acf 32be 7bbb 123e 594f 493e
000002d0: d6d2 073d 1095 ab3d b47a 563e 3278 d7bc
000002e0: 6f9d 393e 7818 28be dcff 013e 661e abbc
000002f0: 3d87 01be 9626 01be 1bb3 263e ae5c a8bd
00000300: b458 f5bd 936a e43d 1dce 2b3b e036 333e
00000310: 2fe7 15be 87af 16be c26b 59bd 7445 b8bd
00000320: ba14 bbbc add8 02be 83ac d13d 6d4a 8b3d
00000330: e523 1d3d e3e5 343d 6c02 35be 2392 263e
00000340: 1d91 87bd faa5 36be 1d16 ef3d 907b 10be
00000350: 942b be3d 765a b83c 0971 253e b045 fdbd
00000360: b5e9 053a a7a4 2c3e 12fc 853d d5fe 6fbd
00000370: 4256 e8bc 020c 2fbc eb1a 96ba c550 bfbc
00000380: 90b4 21be 1b66 623c 0d87 f6bb 9400 223d
00000390: a2ee 0d3d 9814 91bd e759 e0bd e57b 2ebe
000003a0: 45ea 84bd f562 8a3c 4f8f 0c3e 32b9 3fbe
000003b0: aee6 893d fdf6 8a3c d2a2 253c d041 883d
000003c0: 8e56 2ebe 6d81 31be 575d 2c3e dbc3 683e
000003d0: ee2c 76bd 6298 08be 78a4 3ebe 97d1 323e
000003e0: 36f9 373e 92a3 fbbd 5da1 05be 53fe cb3d
000003f0: a61a 51bd 4955 b9bd b8db 823d 2e9b fc3c

job_linear.0.bias f4 [32]
-0.08450826 -0.06561199 -0.026716564 -0.018170241 -0.046037402 0.2251045 0.09002455 -0.09259843
-0.0755958 0.15613693 -0.14052837 0.09399276 -0.18410887 -0.1755386 -0.0986358 0.011930493
-0.18105404 -0.17766249 0.09141224 -0.026436893 -0.15609626 0.105083264 0.027117286 0.16583474
0.040331297 -0.045229357 -0.078789085 0.18085036 0.14299366 -0.1814733 -0.19284055 0.031781655
00000000: ab12 adbd 945f 86bd b2dc dabc c2d9 94bc
00000010: b791 3cbd cb81 663e cb5e b83d 3fa4 bdbd
00000020: f9d1 9abd 5ce2 1f3e abe6 0fbe 477f c03d
00000030: 0987 3cbe 64c0 33be 9101 cabd 1d78 433c
00000040: 3b66 39be 28ed 35be 5736 bb3d 2f92 d8bc
00000050: b3d7 1fbe e535 d73d 1225 de3c 95d0 293e
00000060: 6e32 253d 6b42 39bd 2c5c a1bd d630 393e
00000070: ee6c 123e 23d4 39be fe77 45be 7b2d 023d

job_linear.2.weight f4 [1, 32]
0.07538115 0.11456301 0.16852483 0.050558813 0.15258859 0.1351223 -0.18002452 1.1340259e-08
0.17259389 -0.06062888 -0.07413823 0.076458596 0.030290663 -0.11452113 -0.03197121 0.083443515
-0.08921214 0.007116493 0.20807603 -0.030832026 -0.039142527 -0.13584879 0.027462242 0.06471167
0.18844569 0.15650062 0.09042974 0.0501793 -0.070724085 0.06808303 0.053909615 0.14087412
00000000: 6f61 9a3d 03a0 ea3d c691 2c3e c216 4f3d
00000010: 2f40 1c3e 805d 0a3e 5958 38be fdd2 4232
00000020: 74bc 303e fd55 78bd c9d5 97bd 5396 9c3d
00000030: 2024 f83c 0e8a eabd 3ef4 02bd 6fe4 aa3d
00000040: dbb4 b6bd 7831 e93b e211 553e 7293 fcbc
00000050: ea53 20bd f21b 0bbe 7ff8 e03c 8d87 843d
00000060: e8f7 403e b341 203e 3a33 b93d cf88 4d3d
00000070: cad7 90bd 1e6f 8b3d 54d0 5c3d 4e41 103e

machine_linear.0.weight f4 [16, 4]
-0.12835592 0.36624947 -0.22766693 -0.2540895 -0.18618639 -0.21482283 0.2568787 -0.020056233
-0.34758273 -0.060214173 -0.32416156 0.1926273 -0.34912035 -0.09137793 -0.18115805 0.2154162
0.17533176 -0.14329365 0.03898699 -0.2834792 0.2510975 0.35243464 0.043564297 0.33577362
-0.3533969 -0.12546815 -0.30706576 -0.30473506 -0.29418287 0.29087928 -0.112570174 -0.0075748335
-0.18801765 -0.3264154 0.29241887 -0.37562373 0.24753577 0.27084395 -0.06712649 0.03379244
0.5000278 -0.1562286 -0.08905852 -0.3042499 0.60459363 0.2193081 -0.22428864 0.19486596
0.031635817 -0.026476506 0.28815147 0.2333584 0.53915644 -0.12475167 -0.120757766 0.1269219
0.16491918 0.33869925 -0.21454175 0.3322436 0.09990727 0.27213195 0.27227506 0.16282056
00000000: bc6f 03be 0d85 bb3e 8521 69be 0518 82be
00000010: a5a7 3ebe 84fa 5bbe 9b85 833e f84c a4bc
00000020: 5df6 b1be 23a3 76bd 81f8 a5be 1740 453e
00000030: e7bf b2be 5a24 bbbd 7f81 39be 1096 5c3e
00000040: 2b8a 333e 92bb 12be d2b0 1f3d 3024 91be
00000050: da8f 803e 5072 b43e 7a70 323d 85ea ab3e
00000060: 70f0 b4be b97a 00be b937 9dbe 3c06 9cbe
00000070: 239f 96be 21ee 943e 318b e6bd 4f36 f8bb
00000080: b387 40be eb1f a7be edb7 953e c151 c0be
00000090: 047a 7d3e 0fac 8a3e 9d79 89bd f169 0a3d
000000a0: d201 003f 64fa 1fbe 5064 b6bd a5c6 9bbe
000000b0: a6c6 1a3f 4d92 603e ecab 65be f18a 473e
000000c0: 8f94 013d 42e5 d8bc 9788 933e 81f5 6e3e
000000d0: 2806 0a3f ce7d ffbd d94f f7bd d1f7 013e
000000e0: 93e0 283e fd69 ad3e d5b0 5bbe d51b aa3e
000000f0: 2f9c cc3d e154 8b3e a367 8b3e 6fba 263e

machine_linear.0.bias f4 [16]
-0.0071695186 -0.3719349 -0.060583692 -0.3455053 0.46014062 0.37980548 0.32229295 -0.057151534
0.0029389346 0.45447257 0.58797 0.09791313 -0.1755306 0.27829403 -0.16622064 -0.09990728
00000000: 48ee eabb 406e bebe 9b26 78bd 12e6 b0be
00000010: 8d97 eb3e dd75 c23e 9503 a53e ba17 6abd
00000020: 249b 403b a1b0 e83e 3485 163f ae86 c83d
00000030: 4bbe 33be 8e7c 8e3e be35 2abe 309c ccbd

machine_linear.2.weight f4 [1, 16]
-0.11237239 0.06884269 -0.10750946 0.15561675 0.4208035 0.45299283 0.033617444 0.14229126
-0.16006188 0.4554363 0.2781583 0.33441848 0.14854236 0.3485647 -0.06387626 3.6542498e-09
00000000: 7f23 e6bd 65fd 8c3d eb2d dcbd ff59 1f3e
00000010: 8e73 d73e adee e73e 72b2 093d cdb4 113e
00000020: 43e7 23be f22e e93e c46a 8e3e e638 ab3e
00000030: 7d1b 183e 1377 b23e 8ed1 82bd 3e1e 7b31

j_m_linear.0.weight f4 [32, 21]
0.20483248 0.17622179 0.2456178 -0.03197237 0.09264436 0.17458123 0.20611376 0.16414616
0.11216314 0.108148016 0.1393907 0.21815538 0.2326962 0.053128738 -0.028974207 0.18058428
0.092858545 0.0474823 0.020374974 0.2004924 0.023541046 -0.016780077 -0.12437491 -0.11636413
0.08540663 -0.10305584 -0.09472644 0.10153267 -0.01791239 0.018158706 0.026473459 -0.021141483
-0.026850058 -0.057248548 0.07426675 -0.157516 -0.023898281 0.06325535 0.05436036 0.11030796
0.10048171 0.2850389 0.004454889 0.10501758 0.019134887 -0.024286099 0.110670224 -0.107199155
0.18669562 -0.045877878 -0.021506429 -0.15260021 0.037904046 0.08262576 -0.10991659 0.04234009
-0.12037975 -0.08762716 -0.024051867 0.009070246 -0.06623214 -0.1019286 0.35378993 0.18323466
-0.10071719 0.07335466 0.053968195 0.20093222 0.18417247 0.20279293 0.06753075 -0.045956913
0.09487453 0.018967558 0.018683406 0.010901998 0.12817498 0.13929589 0.16678084 0.18848237
0.14238982 0.017567767 0.10460883 -0.24544813 -0.07237984 -0.055050444 -0.030095879 0.07408437
0.040604554 0.14705975 -0.1880103 -0.018788096 -0.10312884 0.12656127 0.024515428 0.002760531
-0.024223218 0.08780178 -0.15559255 -0.08836679 -0.14957319 -0.097112395 0.062815055 0.061081287
0.11187557 0.1515964 0.13304105 -0.027441766 0.17012607 -0.012339895 0.04059859 -0.014952448
0.0361636 0.011800645 0.042365246 0.012665408 0.12713228 0.039174885 0.023572415 -0.024797477
-0.04513169 0.03103612 -0.028389953 -0.04047064 -0.034028955 0.35130936 0.089317486 -0.097908035
-0.099471115 0.045394097 0.041842718 -0.13029517 0.18578178 -0.016096018 -0.13199213 -0.0036924526
-0.041487537 0.065790154 0.14610498 0.0881294 0.09727541 0.18286216 -0.029942898 0.12965389
0.07637741 -0.059291728 0.33836126 -0.11359112 0.06842518 0.07677349 0.11766905 0.094559275
0.054620158 -0.001982643 -0.14279653 0.1400275 -0.0481199 0.07626916 -0.1637155 0.008602023
0.027309394 0.078462794 -0.01949283 -0.13637349 -0.02576916 0.090013795 -0.15697718 -0.09466815
0.117642246 -0.045957465 -0.124321714 -0.13078293 0.022368852 -0.14444122 -0.06731034 0.07027144
0.010263666 -0.11838438 -0.1397061 -0.035846293 -0.042183965 -0.004405096 0.14160077 0.04144756
0.10446232 0.13426049 0.053573024 -0.12101032 -0.05143054 0.100671336 0.12092478 -0.029660892
-0.07255349 -0.15122952 0.012190605 -0.09718431 0.11390654 0.11584554 0.14593185 0.13954449
0.0931213 0.11242864 -0.07228632 -0.027457848 -0.156505 -0.021073002 0.21134907 -0.07740467
0.095503226 0.06324618 0.10414674 0.067428105 -0.12643193 -0.14111309 -0.1286554 0.092978515
0.025857633 -0.16082112 -0.050661422 0.049085155 -0.08710648 0.068440564 0.031548545 0.035510864
0.0068967473 -0.103343606 0.074016765 0.097315066 0.104898326 -0.035657525 -0.049070697 0.2733906
0.13014528 0.071681775 0.2196893 0.17559466 0.21935298 0.11300843 0.065327466 0.2811039
0.14649035 0.25730246 0.21243687 -0.004480074 0.18448444 0.09142615 0.118852995 0.014662226
0.13116366 0.23664269 0.22165479 -0.029700838 -0.109565295 -0.0635984 0.010806342 0.073148966
00000000: 9bbf 513e 7c73 343e 3c83 7b3e 76f5 02bd
00000010: 54bc bd3d 6cc5 323e 7c0f 533e ee15 283e
00000020: cab5 e53d b57c dd3d 70bc 0e3e 2064 5f3e
00000030: ea47 6e3e 859d 593d 515b edbc 16eb 383e
00000040: 9f2c be3d cd7c 423d 6be9 a63c e14d 4d3e
00000050: 27d9 c03c 5f76 89bc 46b8 febd 5150 eebd
00000060: ace9 ae3d f10e d3bd f0ff c1bd 5cf0 cf3d
00000070: 01bd 92bc 91c1 943c dede d83c e730 adbc
00000080: a7f4 dbbc 747d 6abd 2a19 983d e04b 21be
00000090: 54c6 c3bc 058c 813d f8a8 5e3d 24e9 e13d
000000a0: 5bc9 cd3d 9ef0 913e 51fa 913b 7513 d73d
000000b0: c4c0 9c3c a4f3 c6bc 12a7 e23d 3b8b dbbd
000000c0: 232d 3f3e 71ea 3bbd 402e b0bc 3b43 1cbe
000000d0: 4641 1b3d b237 a93d f31b e1bd cd6c 2d3d
000000e0: a989 f6bd de75 b3bd 6c08 c5bc 5e9b 143c
000000f0: b7a4 87bd f1bf d0bd f423 b53e dea1 3b3e
00000100: d044 cebd f83a 963d c10d 5d3d 2dc1 4d3e
00000110: b597 3c3e f3a8 4f3e 904d 8a3d 513d 3cbd
00000120: 944d c23d da61 9b3c f10d 993c 4b9e 323c
00000130: 4d40 033e 95a3 0e3e 99c8 2a3e 8601 413e
00000140: a3ce 113e 47ea 8f3c 273d d63d c156 7bbe
00000150: e23b 94bd 937c 61bd a28b f6bc 8cb9 973d
00000160: f650 263d d596 163e c685 40be 7ee9 99bc
00000170: 3735 d3bd 4799 013e 94d4 c83c 06ea 343b
00000180: c56f c6bc 6bd1 b33d a753 1fbe a6f9 b4bd
00000190: b729 19be dde2 c6bd 2ea5 803d 5f30 7a3d
000001a0: 051f e53d 163c 1b3e ea3b 083e 8ecd e0bc
000001b0: 8735 2e3e 452d 4abc b54a 263d 1dfb 74bc
000001c0: 4820 143d 7e57 413c 2e87 2d3d 9282 4f3c
000001d0: f72e 023e d875 203d f01a c13c 1424 cbbc
000001e0: 02dc 38bd 763f fe3c 0c92 e8bc 8bc4 25bd
000001f0: f261 0bbd d2de b33e 16ec b63d 0284 c8bd
00000200: 83b7 cbbd 29ef 393d 4563 2b3d 196c 05be
00000210: 943d 3e3e ccdb 83bc f228 07be 13fd 71bb
00000220: d6ee 29bd fdbc 863d 8b9c 153e 307d b43d
00000230: 5538 c73d 3840 3b3e cf4a f5bc fdc3 043e
00000240: c26b 9c3d e2db 72bd b03d ad3e 76a2 e8bd
00000250: 8022 8c3d 6b3b 9d3d 79fc f03d 4ba8 c13d
00000260: 63b9 5f3d 3bef 01bb 4139 12be 5e63 0f3e
00000270: 5f19 45bd 0133 9c3d 09a5 27be 80ef 0c3c
00000280: f3b7 df3c 1ab1 a03d 6daf 9fbc 7ea5 0bbe
00000290: d819 d3bc 2759 b83d a0be 20be 60e1 c1bd
000002a0: 6bee f03d e53d 3cbd 629c febd f6eb 05be
000002b0: e23e b73c 66e8 13be 01da 89bd 79ea 8f3d
000002c0: ef28 283c 8373 f2bd 1e0f 0fbe 90d3 12bd
000002d0: 18c9 2cbd a058 90bb cbff 103e ebc4 293d
000002e0: 57f0 d53d 957b 093e 636f 5b3d 42d4 f7bd
000002f0: d4a8 52bd c62c ce3d 69a7 f73d 66fb f2bc
00000300: ed96 94bd e9db 1abe 1abb 473c 9108 c7bd
00000310: d547 e93d 6d40 ed3d 296f 153e c0e4 0e3e
00000320: 61b6 be3d fd40 e63d da0a 94bd 48ef e0bc
00000330: d942 20be 4aa1 acbc e46b 583e 5786 9ebd
00000340: 3297 c33d 3787 813d e34a d53d bf17 8a3d
00000350: 5f77 01be f37f 10be 3ebe 03be 856b be3d
00000360: 63d3 d33c 4bae 24be 5a82 4fbd 840d 493d
00000370: e264 b2bd 912a 8c3d 0c39 013d d773 113d
00000380: 1cfe e13b d0a5 d3bd 1a96 973d 1f4d c73d
00000390: efd4 d63d a00d 12bd 5bfe 48bd daf9 8b3e
000003a0: ce44 053e e5cd 923d 3bf6 603e 16cf 333e
000003b0: 119e 603e f770 e73d 68ca 853d daec 8f3e
000003c0: 9101 163e 26bd 833e 0d89 593e 96cd 92bb
000003d0: 7de9 3c3e a23d bb3d 3369 f33d d539 703c
000003e0: c44f 063e 7652 723e 79f9 623e 2c4f f3bc
000003f0: c563 e0bd e13f 82bd 150d 313c 20cf 953d

j_m_linear.0.bias f4 [32]
-0.08084885 0.22964521 0.17533329 -0.08562056 0.3095011 0.37107646 0.20819913 -0.055610172
-0.08691834 0.16717832 -0.06567752 -5.1264724e-05 -0.09242677 0.048508145 0.08021259 -0.043474052
0.17748663 0.32042256 -0.15301725 0.19008568 0.28447327 -0.036025576 0.024220426 0.12362185
-0.0116070835 0.06283573 -0.19259638 -0.062234893 0.19912122 -0.15050833 -0.058009405 0.13058645
00000000: 1594 a5bd 1d28 6b3e 928a 333e d559 afbd
00000010: ee76 9e3e bcfd bd3e 2732 553e 7ec7 63bd
00000020: 3e02 b2bd cb30 2b3e f081 86bd 1405 57b8
00000030: 3f4a bdbd 7ab0 463d 8046 a43d d911 32bd
00000040: 0ebf 353e 6d0e a43e 8eb0 1cbe d2a5 423e
00000050: 7ba6 913e 8e8f 13bd ea69 c63c 742d fd3d
00000060: a32b 3ebc 05b0 803d fc37 45be 04ea 7ebd
00000070: 6fe6 4b3e db1e 1abe 459b 6dbd 74b8 053e

j_m_linear.2.weight f4 [64, 32]
0.1910293 0.1596599 0.066658735 0.25159714 0.047789138 0.021116417 0.09585629 -0.041030366
0.027383128 0.08217117 0.082742944 -0.020237293 0.028614057 0.8388685 0.19705494 0.5281484
0.0069100377 -0.014687191 0.0062953574 -0.020639598 -0.015290837 0.0048071607 0.10992779 0.11348803
0.08982634 0.008730931 0.30400577 -0.2168089 0.15459707 0.17516044 0.008018142 0.10263333
0.120471254 0.0216651 -0.016061172 -0.027445605 -0.122699074 0.116722085 -0.036022056 -0.09166374
-0.117123075 -0.070685185 -0.06246408 -0.11823436 0.030533507 -0.087400466 0.05068544 0.10933492
0.088785626 -0.05145814 0.085517496 0.09879919 -0.067792304 0.017806055 -0.040422313 0.098276556
0.12690084 0.03596386 -0.01601812 -0.079910845 -0.12703684 -0.071637206 -0.12885399 -0.11787187
0.017884642 0.11370779 0.005755487 -0.06691933 -0.07420073 0.0098586 -0.018395854 -0.03276473
0.007878096 0.13183539 -0.014120264 0.09251804 -0.020474825 0.03086013 0.026802069 0.049905855
0.0090603735 -0.09270302 0.05206555 0.0016798454 -0.10900318 -0.056166355 -0.030416563 0.042731777
-0.017748524 -0.057035133 0.017510578 -0.030172614 -0.107916616 -0.07858012 0.080774345 -0.1285678
0.08266934 0.0847201 0.065619506 0.18287788 -0.033515245 0.18060109 0.07046378 0.083074465
-0.055498023 0.0007702856 0.12151059 -0.038763355 0.062659554 0.5076166 0.20438547 1.0506738
0.2668117 0.004594017 0.091616735 0.17068343 -0.057926234 0.063677825 0.07304737 -0.012112044
-0.029109338 0.14822967 0.20622215 -0.037896164 -0.015753148 0.054629277 -0.075424716 0.13082951
-0.11637603 0.07383578 0.28135884 0.009240241 0.17795181 0.058002546 0.18935668 -0.09698053
-0.11805079 0.06441666 0.08380471 0.014712401 -0.042245723 -0.27641776 -0.0508799 0.09919447
0.26588073 0.056258563 0.022736274 0.060728345 0.092406236 -0.08693568 0.0025185915 0.13501073
-0.086194456 0.09606781 -0.06570962 0.30955857 0.11880089 -0.078960024 0.10198676 0.19787538
-0.13349788 -0.11944727 -0.003596656 0.1064941 -0.042836927 -0.06524532 -0.00160214 0.12186179
-0.07594739 -0.14398877 -0.09156312 0.12146902 0.08013443 0.059259627 0.024080426 -0.111621134
-0.10831677 -0.03461542 0.045342788 0.10050744 -0.0646115 -0.11431423 0.03932147 -0.04008012
-0.029405775 0.08956085 -0.041456725 0.07970115 0.046258252 0.111308746 -0.0639208 -0.118537
-0.08624496 -0.13601784 -0.13757183 -0.06954751 0.11067983 -0.08700897 -0.09351743 0.08214574
-0.072535545 0.008336385 0.11628104 0.03815288 0.050280973 -0.09001656 0.06656055 0.06599206
-0.11067785 -0.1296143 0.08475949 -0.15075615 0.060290292 -0.1223419 -0.019220725 -0.14879517
0.10493067 0.009007194 -0.02913232 0.057543803 0.054261524 0.08110045 -0.1281962 -0.06286464
-0.042512316 0.065713055 -0.11423305 0.30470407 -0.006437951 0.076520525 0.035852525 -0.12363413
0.12381387 0.021745821 -0.08203335 -0.07248577 0.021924196 0.3072112 -0.019202812 1.4416593
0.036705237 0.051874507 0.09654776 0.078553006 -0.1641748 0.030325634 -0.09092622 -0.14794002
0.10255461 -0.022077633 0.31620234 -0.06602364 0.025490291 -0.0734129 0.05697604 -0.049157314
00000000: 2f9d 433e e37d 233e 6084 883d 57d1 803e
00000010: 8bbe 433d 56fc ac3c 4d50 c43d 750f 28bd
00000020: 9552 e03c 5c49 a83d 2275 a93d aec8 a5bc
00000030: 0768 ea3c 16c0 563f c5c8 493e bc34 073f
00000040: 996d e23b 8ba2 70bc 4949 ce3b 6014 a9bc
00000050: 6b86 7abc 6385 9d3b d221 e13d 6a6c e83d
00000060: dff6 b73d 2e0c 0f3c a5a6 9b3e 2703 5ebe
00000070: b24e 1e3e 425d 333e 865e 033c 6c31 d23d
00000080: a2b9 f63d 027b b13c b892 83bc 9bd5 e0bc
00000090: a749 fbbd fd0b ef3d dd8b 13bd 33ba bbbd
000000a0: 39de efbd 65c3 90bd 56da 7fbd db24 f2bd
000000b0: 6821 fa3c 04ff b2bd 899b 4f3d fdea df3d
000000c0: 3dd5 b53d c5c5 52bd cc23 af3d 3b57 ca3d
000000d0: b1d6 8abd 01de 913c de91 25bd 3845 c93d
000000e0: 4bf2 013e d74e 133d 6f38 83bc 4ca8 a3bd
000000f0: f215 02be 87b6 92bd 4df2 03be cf66 f1bd
00000100: d082 923c a1df e83d 8698 bc3b 000d 89bd
00000110: 8df6 97bd f785 213c e7b2 96bc 4f34 06bd
00000120: 2113 013c dbff 063e ae58 67bc 197a bd3d
00000130: d2ba a7bc 62ce fc3c 0390 db3c 156a 4c3d
00000140: f671 143c 15db bdbd b042 553d 422e dc3a
00000150: 0f3d dfbd b10e 66bd 282c f9bc 8407 2f3d
00000160: 5a65 91bc ac9d 69bd 5872 8f3c 8f2c f7bc
00000170: 6303 ddbd 9dee a0bd 056d a53d 47a7 03be
00000180: 8b4e a93d bb81 ad3d 8563 863d 5744 3b3e
00000190: 4847 09bd 7eef 383e 504f 903d f222 aa3d
000001a0: e551 63bd feec 493a 8bda f83d 53c6 1ebd
000001b0: a753 803d 29f3 013f 6d4a 513e 7b7c 863f
000001c0: 8b9b 883e 6889 963b 8ea1 bb3d a3c7 2e3e
000001d0: 0f44 6dbd 8569 823d dc99 953d 9871 46bc
000001e0: b576 eebc 85c9 173e e62b 533e 0239 1bbd
000001f0: bf0c 81bc f3c2 5f3d 4678 9abd 2cf8 053e
00000200: 8e56 eebd 3737 973d 440e 903e 6164 173c
00000210: 0039 363e 1494 6d3d b8e6 413e ba9d c6bd
00000220: 9dc4 f1bd e2ec 833d cea1 ab3d 480c 713c
00000230: da09 2dbd a186 8dbe 7167 50bd 7826 cb3d
00000240: 8521 883e 616f 663d 6c41 ba3c 49be 783d
00000250: 7b3f bd3d 550b b2bd f40e 253b 4140 0a3e
00000260: b886 b0bd 33bf c43d c492 86bd 767e 9e3e
00000270: e24d f33d cbb5 a1bd 6fde d03d d89f 4a3e
00000280: abb3 08be c5a0 f4bd e0b5 6bbb 9419 da3d
00000290: c675 2fbd 579f 85bd e6fe d1ba ad92 f93d
000002a0: 4e8a 9bbd cb71 13be 7285 bbbd c0c4 f83d
000002b0: 851d a43d 39ba 723d 5044 c53c 9f99 e4bd
000002c0: 2fd5 ddbd e6c8 0dbd 5cb9 393d d8d6 cd3d
000002d0: 0953 84bd 941d eabd 8d0f 213d 0d2b 24bd
000002e0: 61e4 f0bc ae6b b73d 87ce 29bd 5b3a a33d
000002f0: 4b79 3d3d d7f5 e33d e9e8 82bd 87c3 f2bd
00000300: 33a1 b0bd 4348 0bbe a1df 0cbe ed6e 8ebd
00000310: 1bac e23d c231 b2bd 1186 bfbd 073c a83d
00000320: 848d 94bd 5595 083c c124 ee3d 3246 1c3d
00000330: 6cf3 4d3d 9a5a b8bd e650 883d d826 873d
00000340: 12ab e2bd 9cb9 04be 6296 ad3d d25f 1abe
00000350: f4f2 763d 648e fabd c874 9dbc c35d 18be
00000360: e4e5 d63d e992 133c e7a6 eebc 0db3 6b3d
00000370: 5541 5e3d fe17 a63d dd45 03be 2dbf 80bd
00000380: 6521 2ebd 9194 863d 04f3 e9bd 2c02 9c3e
00000390: 72f5 d2bb cbb6 9c3d 19da 123d e433 fdbd
000003a0: 2092 fd3d 4b24 b23c 1a01 a8bd 6b73 94bd
000003b0: 5f9a b33c c94a 9d3e 374f 9dbc 4b88 b83f
000003c0: 3b58 163d 5d7a 543d d5ba c53d 66e0 a03d
000003d0: 701d 28be 776d f83c 8737 babd 977d 17be
000003e0: 2708 d23d 27dc b4bc 46e5 a13e 6737 87bd
000003f0: 04d1 d03c 8159 96bd b55f 693d 2e59 49bd

j_m_linear.2.bias f4 [64]
0.014831735 -0.083473764 -0.05384896 0.21730326 0.2104376 0.09638818 0.047551684 -0.07173761
-0.12709126 -0.10951095 0.20690109 -0.09968485 -0.031294994 0.22191589 -0.13011518 0.2729414
0.11413234 0.04751176 -0.020072194 -0.13353251 0.14512469 0.1966854 0.20903279 0.2530437
0.05847008 0.251126 -0.065256685 -0.0057814457 -0.08424021 0.006273821 0.12237599 -0.0130383
-0.09801793 -0.12254127 0.20860447 0.0108341705 0.16467707 0.08072617 0.20990543 -0.045910113
0.19679439 0.2147907 -0.06842706 -0.093188286 -0.00057067274 0.071697995 0.014157165 0.009203255
0.113831125 0.16570324 -0.11809761 -0.12852979 0.2235577 0.2014702 0.07201674 0.044900768
-0.09327952 -0.023631195 0.10615278 0.13281676 0.058645085 -0.045978904 0.24179664 -0.017288458
00000000: ce00 733c 4bf4 aabd ba90 5cbd bf84 5e3e
00000010: f47c 573e 2b67 c53d 8ec5 423d 2beb 92bd
00000020: 3624 02be 4747 e0bd e1dd 533e 9227 ccbd
00000030: 2e2f 00bd eb3d 633e ea3c 05be fabe 8b3e
00000040: 37be e93d b19b 423d 716e a4bc bfbc 08be
00000050: 919b 143e e667 493e b10c 563e f28e 813e
00000060: 537e 6f3d 9693 803e 4ca5 85bd 4872 bdbb
00000070: 2286 acbd a094 cd3b 43a0 fa3d 989e 55bc
00000080: a0bd c8bd ebf6 fabd 699c 553e ce81 313c
00000090: 1ba1 283e c353 a53d 73f1 563e 3e0c 3cbd
000000a0: 7884 493e 18f2 5b3e 7d23 8cbd 80d9 bebd
000000b0: 3399 15ba 66d6 923d 74f3 673c 40c9 163c
000000c0: 4b20 e93d 1cae 293e 29dd f1bd 509d 03be
000000d0: 4fec 643e 344e 4e3e 837d 933d dee9 373d
000000e0: 5509 bfbd 3596 c1bc a166 d93d 1e01 083e
000000f0: d435 703d 6054 3cbd 8a99 773e 86a0 8dbc

A_net.weight f4 [21, 64]
-0.022696553 -0.0005614986 -0.059013482 0.12609372 0.08308431 -0.025800524 -0.02465474 -0.23596331
0.043643843 -0.0007586657 0.13859434 -0.0033197408 -0.06106549 0.15172261 -0.091846235 0.15349355
0.04471278 0.0013118316 0.4972118 -0.0558484 0.1800887 0.110588655 0.05288731 0.1503331
-0.07896527 0.10393475 -0.01479785 -0.0142714735 -0.07817399 -0.049936138 0.12700434 0.03692804
0.036032688 0.0548403 0.09840516 -0.07964353 0.08911927 0.1225074 0.03978382 0.022996621
0.056035798 0.11969214 0.03342601 -0.09165838 0.040118355 0.034530275 0.06450261 0.052796077
0.07881036 0.12241482 0.06641037 -0.095268466 0.023952466 -0.0042446554 0.034876805 -0.008250226
0.043851804 -0.03835867 0.118389085 0.004959829 0.36594966 0.092466615 0.04927402 -0.04134677
-0.023000006 -0.019099303 0.052184146 0.01444944 0.116822876 -0.033046626 0.052396208 -0.006931236
-0.047352813 -0.00496981 0.13066973 0.022084095 0.081968226 0.0870644 0.078778505 0.11089099
0.10829023 -0.029232241 0.15220831 -0.04330303 0.11052195 0.1157611 0.10575469 0.00062925933
0.085422836 0.19116464 -0.03074936 -0.051371153 -0.07363255 0.044767506 0.06578631 -0.09374945
-0.05479712 -0.04270826 0.011302399 0.009177504 0.12190157 0.14730603 0.15085456 -0.042818636
0.13606216 -0.020276964 -0.0102159055 0.05328 0.02261202 0.037334874 0.059845824 0.06652805
0.0899667 0.120338015 -0.021689732 0.08524759 0.06852322 0.032536086 0.13526085 0.0036590344
0.04240347 0.008595336 0.071754195 0.08930879 0.08285977 0.0503942 0.012117632 0.04559056
0.0071686055 0.09137578 0.0014015635 -0.022167291 0.15758057 0.06469951 0.05681603 0.15098199
0.031266816 0.035221703 0.0080588125 0.08198281 0.008445586 0.07428813 0.029324735 0.011018236
0.15010726 -0.027067434 0.0068495735 -0.07989462 0.03298458 0.009230529 0.14067166 0.020807693
0.008768677 0.16724823 0.07329139 -0.029744295 0.07454018 -0.033592727 0.13134608 -0.0324243
-0.0792404 -0.014428227 -0.019970877 0.082822464 0.1122928 0.034624785 0.09184575 -0.005758291
0.10691655 0.17575951 -0.05094551 -0.087268464 0.0033108366 -0.038232468 0.013333122 0.041618656
0.10344869 0.038761377 -0.02102856 0.012493703 0.101156995 0.06810619 0.08375183 0.04831937
0.011458344 0.016152387 0.11720455 0.06908759 0.0039855368 0.081727944 0.02895704 -0.05937126
0.07361592 -0.018827906 -0.02496236 0.063510105 0.043975577 0.046095368 -0.06769581 0.14516255
-0.03218921 -0.08444221 0.07267045 0.016742432 0.029563554 0.16502807 -0.018920667 0.04255011
0.12046722 0.033485133 0.23920183 -0.045034286 0.1583588 0.037941188 0.113229744 0.15796617
0.036249645 0.15276441 0.036202993 0.05605889 -0.039090507 0.13031247 0.14628671 -0.011367119
-0.077386014 -0.040204708 0.0023912797 0.009473635 0.067108884 0.009054473 0.06706632 -0.029466355
0.1596442 -0.008312406 0.04630118 0.07985768 -0.0857834 -0.06199135 -0.01398748 -0.038098183
0.08558388 0.048563033 -0.057396345 0.02257676 0.10349927 0.028376728 0.12853402 0.062821634
0.047897745 0.10346041 0.047319695 0.11916325 0.14191273 0.07183415 0.042148847 -0.07031541
00000000: 1fee b9bc 8831 13ba 1fb8 71bd b61e 013e
00000010: 1b28 aa3d 9f5b d3bc bdf8 c9bc 5ea0 71be
00000020: e3c3 323d 31e1 46ba adeb 0d3e 0290 59bb
00000030: cf1f 7abd 2c5d 1b3e e119 bcbd 6a2d 1d3e
00000040: bf24 373d c4f1 ab3a 8c92 fe3e 4bc1 64bd
00000050: 2c69 383e 4e7c e23d 5da0 583d ecf0 193e
00000060: 8bb8 a1bd bedb d43d ae72 72bc e6d2 69bc
00000070: af19 a0bd d689 4cbd 6d0d 023e db41 173d
00000080: 0397 133d 39a0 603d a588 c93d 261c a3bd
00000090: 2a84 b63d 29e5 fa3d 5cf4 223d 6963 bc3c
000000a0: cb85 653d 2721 f53d b6e9 083d 64b7 bbbd
000000b0: 2553 243d 9e6f 0d3d f219 843d b340 583d
000000c0: 5367 a13d 9fb4 fa3d 2902 883d 1d1c c3bd
000000d0: f637 c43c c016 8bbb fbda 0e3d f52b 07bc
000000e0: f39d 333d fb1d 1dbd fa75 f23d 1086 a23b
000000f0: c15d bb3e 235f bd3d 8ed3 493d 3b5b 29bd
00000100: 826a bcbc 2476 9cbc 0bbf 553d 58bd 6c3c
00000110: d540 ef3d e65b 07bd 689d 563d 6c1f e3bb
00000120: 06f5 41bd cad9 a2bb 49ce 053e b4e9 b43c
00000130: f5de a73d d24e b23d a056 a13d d11a e33d
00000140: 45c7 dd3d 7478 efbc 7fdc 1b3e 855e 31bd
00000150: 5559 e23d 2814 ed3d ea95 d83d e1f4 243a
00000160: 2bf2 ae3d aac0 433e 15e6 fbbc 8f6a 52bd
00000170: aacc 96bd 225e 373d f9ba 863d b6ff bfbd
00000180: f272 60bd dbee 2ebd b32d 393c 3e5d 163c
00000190: 88a7 f93d 64d7 163e 9e79 1a3e 9862 2fbd
000001a0: e153 0b3e e01b a6bc 9d60 27bc 213c 5a3d
000001b0: d83c b93c 74ec 183d e520 753d dc3f 883d
000001c0: 7640 b83d c773 f63d aaae b1bc 4a96 ae3d
000001d0: e755 8c3d 8f44 053d d281 0a3e 69cc 6f3b
000001e0: 43af 2d3d 74d3 0c3c ddf3 923d 87e7 b63d
000001f0: 62b2 a93d 266a 4e3d 0889 463c 2bbd 3a3d
00000200: 9fe6 ea3b 3a23 bb3d abb4 b73a 2e98 b5bc
00000210: cd5c 213e 2d81 843d edb7 683d 069b 1a3e
00000220: a211 003d a244 103d 1c09 043c 9ae6 a73d
00000230: 5b5f 0a3c 6024 983d 6d3a f03c d585 343c
00000240: b8b5 193e 86bc ddbc 6372 e03b ca9f a3bd
00000250: d71a 073d a53b 173c 3b0c 103e e574 aa3c
00000260: 7faa 0f3c 1f43 2b3e cc19 963d 4faa f3bc
00000270: 86a8 983d 8798 09bd 967f 063e 58cf 04bd
00000280: ca48 a2bd 5f64 6cbc f799 a3bc d39e a93d
00000290: c4f9 e53d b8d2 0d3d a019 bc3d 0cb0 bcbb
000002a0: 10f7 da3d 4dfa 333e 3dac 50bd cfb9 b2bd
000002b0: 9ffa 583b a699 1cbd 2b73 5a3c 5378 2a3d
000002c0: e8dc d33d 40c4 1e3d 1644 acbc 63b2 4c3c
000002d0: 662b cf3d 427b 8b3d 1486 ab3d 88ea 453d
000002e0: c7bb 3b3c 0352 843c f008 f03d cb7d 8d3d
000002f0: 1b99 823b fb60 a73d 5037 ed3c 472f 73bd
00000300: f2c3 963d fb3c 9abc dd7d ccbc 9611 823d
00000310: bc1f 343d 7fce 3c3d 1aa4 8abd 7ea5 143e
00000320: d5d8 03bd 0af0 acbd 3fd4 943d 6d27 893c
00000330: 442f f23c 1efd 283e 84ff 9abc 0649 2e3d
00000340: 85b7 f63d b527 093d 53f1 743e df75 38bd
00000350: cf28 223e 3868 1b3d ffe4 e73d e2c1 213e
00000360: 827a 143d 466e 1c3e 9749 143d 029e 653d
00000370: 5e1d 20bd a270 053e 2fcc 153e 273d 3abc
00000380: 8f7c 9ebd b1ad 24bd 04b7 1c3b 4e37 1b3c
00000390: 6270 893d 3659 143c 115a 893d 6d63 f1bc
000003a0: c579 233e c230 08bc 4ea6 3d3d 6c8c a33d
000003b0: 35af afbd a4ea 7dbd be2b 65bc d70c 1cbd
000003c0: 9a46 af3d 08ea 463d 6e18 6bbd e6f2 b83c
000003d0: 6df7 d33d 5076 e83c 6c9e 033e a1a8 803d
000003e0: 6d30 443d 0de3 d33d 4cd2 413d dd0b f43d
000003f0: 9251 113e c81d 933d 45a4 2c3d 8701 90bd

A_net.bias f4 [21]
0.14913036 -0.0068110204 0.059478723 -0.019069724 0.14384176 0.05544501 0.12589201 0.12701452
0.13902108 0.07502616 0.06408661 -0.021483548 0.13034442 0.025290964 0.09960321 0.08701085
0.025690516 0.05911536 0.113903545 0.035759505 -0.2263024
00000000: a1b5 183e fb2e dfbb f69f 733d 1c38 9cbc
00000010: 414b 133e 4f1a 633d d6e9 003e 1810 023e
00000020: 8b5b 0e3e 51a7 993d d73f 833d 44fe afbc
00000030: 0279 053e ff2e cf3c c5fc cb3d bf32 b23d
00000040: eb74 d23c f322 723d 4346 e93d 8f78 123d
00000050: d1bb 67be

V_net.weight f4 [1, 64]
0.14693409 0.024279498 0.06787173 0.13023947 0.023935111 -0.049142346 0.072826035 0.010217028
-0.04808907 -0.03707407 -0.002085532 0.019436015 0.23323074 -0.13530898 0.0943139 0.000113627655
0.10547004 0.0030617393 0.7450929 0.019985525 -0.10345553 -0.039284974 -0.040815756 -0.026977936
-0.033316627 -0.37720484 0.12498987 -0.013778134 0.06826217 0.04536301 -0.05080734 -0.05060725
-0.015245623 -0.030252706 -0.09245058 -0.08035393 0.14638996 0.14859122 0.024122171 -0.0367872
0.06306912 0.087856315 0.21408714 -0.04927148 0.0044286777 -0.03814367 0.07510995 -0.030052051
0.1417403 -0.028082771 -0.018753435 -0.043260783 -0.20183578 0.10913097 0.07204551 0.07529832
-0.07722871 0.011228188 0.12010226 0.1330379 -0.3144581 -0.09358259 0.15784742 0.079940535
00000000: e475 163e cce5 c63c 5500 8b3d 7f5d 053e
00000010: 9113 c43c 7c49 49bd d125 953d 5265 273c
00000020: 0bf9 44bd fbda 17bd 6cad 08bb 4738 9f3c
00000030: 0ad4 6e3e 708e 0abe a527 c13d 624b ee38
00000040: ad00 d83d 76a7 483b 69be 3e3f afb8 a33c
00000050: 7ee0 d3bd 48e9 20bd 6c2e 27bd d500 ddbc
00000060: 0477 08bd fe20 c1be b0fa ff3d afbd 61bc
00000070: 09cd 8b3d 90ce 393d 5b1b 50bd 8c49 4fbd
00000080: c7c8 79bc 86d4 f7bc bb56 bdbd 9a90 a4bd
00000090: 40e7 153e 4c28 183e dc9b c53c 2dae 16bd
000000a0: 622a 813d 03ee b33d a939 5b3e e4d0 49bd
000000b0: 711e 913b 893c 1cbd 3fd3 993d b82f f6bc
000000c0: 5f24 113e d70d e6bc cea0 99bc 3832 31bd
000000d0: 0aae 4ebe 0f80 df3d 998c 933d 0136 9a3d
000000e0: 162a 9ebd 6ff6 373c 2cf8 f53d 163b 083e
000000f0: a700 a1be 3ba8 bfbd c1a2 213e ddb7 a33d
