models/model22sa.pth (torch, 25550 bytes, 13 tensors)

job_linear.0.weight f4 [32, 16]
0.019329555 0.019388553 0.019356601 0.019354701 0.019459771 -0.011307329 -0.13863996 -0.04584542
0.01935366 0.019299045 -0.082571626 0.01935776 0.01937683 -0.04468128 0.01933456 0.4451621
0.46800387 0.57943463 0.33305117 0.24081138 0.2510357 0.43291298 0.52007425 0.2824094
0.40325618 0.5326249 0.32688725 0.5930046 0.24986725 0.5118754 0.31724453 -0.47384295
-0.18783581 -0.18571106 -0.14009558 -0.116756506 -0.18396054 -0.13704456 -0.18565145 -0.13831034
-0.20423058 -0.11539491 -0.17277493 -0.1155772 -0.14360124 -0.1367409 -0.18488911 0.49971762
0.38642806 0.2556527 0.46939483 0.5931244 0.38321725 0.4751318 0.042260654 0.5564545
0.21643451 0.12978385 0.36418965 0.3416903 0.26274985 0.48555133 0.40144894 -0.3642914
0.024852531 0.026552226 0.6294976 0.4603101 0.4838449 -0.19368938 0.16514593 0.2160546
0.24371855 -0.033144083 -0.21784675 -0.23219952 -0.24243712 0.5160391 0.59363973 -0.10902675
0.5668601 0.26635155 0.42253858 0.53865516 0.49512956 0.2420263 0.4781594 0.567954
0.57457256 0.42992872 0.3483637 0.6383046 0.36646676 0.2587863 -0.046995085 -0.19063196
0.53358966 0.49435073 -0.044210035 0.57192886 0.20091441 0.47496715 -0.041850835 0.18359022
0.3206158 0.35146436 0.038708527 0.42502144 0.45257592 0.1286851 0.43178216 -0.3508292
0.39418525 0.24224119 0.3951401 0.29913327 0.12645078 0.4157808 0.377169 0.15066054
0.39404634 0.39955875 0.45410514 0.43011388 0.22609307 0.43336383 0.18643026 -0.49708322
0.41746205 0.28192142 0.44516802 0.26372954 0.3130295 0.52876514 0.56745756 0.2934617
0.18005408 0.5654861 0.25429466 0.32444865 0.26661313 0.1979513 0.3609776 -0.4131843
-0.103534706 -0.16637322 -0.22702521 -0.11269178 -0.11269557 -0.24789622 -0.11267639 -0.10324967
-0.14125681 -0.10328795 -0.10347394 -0.17111403 -0.124676436 -0.10757796 -0.24769604 0.33708504
-0.10844693 -0.054976247 0.49811164 0.46071 0.60669804 0.31794775 0.0038687314 0.48717225
0.16770929 0.37906 0.20181176 0.57940936 0.2920758 0.067649506 0.4425099 -0.42040253
0.10844815 -0.074748755 0.028303593 -0.18715352 0.19080494 0.05240354 0.092500985 0.054668516
0.013222486 0.19823992 -0.17290103 0.019014299 -0.042951435 -0.12740499 -0.118624 0.03664863
0.07246007 -0.14520869 0.039084703 0.07247145 -0.047021866 -0.11428574 0.07246637 -0.22088754
-0.15629843 -0.106077224 0.0724456 0.07249443 -0.015678555 0.072452165 0.072513156 0.54395545
0.12156276 0.3815508 0.3986108 0.15549165 0.41550198 0.27359432 -0.059853792 0.28640103
0.33815578 -0.17052114 0.499905 -0.12917066 0.53737026 0.38738972 0.24445446 -0.11813158
0.48707557 -0.048124112 -0.033348072 -0.13696074 -0.2446824 -0.21840584 0.14018014 -0.11237507
0.46586847 -0.063673526 0.12396955 -0.096226685 0.17423354 0.346955 0.5771284 -0.06889886
-0.10934309 0.47227642 0.5874133 0.6045792 0.52228147 0.32253155 0.17536774 0.028568864
0.45282313 0.39647952 0.46929288 0.5109748 -5.609017e-05 0.19082029 0.58881235 -0.29265344
00000000: 0459 9e3c bed4 9e3c bc91 9e3c c08d 9e3c
00000010: 196a 9f3c 6042 39bc a2f7 0dbe 68c8 3bbd
00000020: 918b 9e3c 0819 9e3c 501b a9bd 2a94 9e3c
00000030: 28bc 9e3c b803 37bd 8363 9e3c 49ec e33e
00000040: 349e ef3e d455 143f af85 aa3e 4297 763e
00000050: c087 803e c5a6 dd3e 9623 053f f797 903e
00000060: 9877 ce3e 1b5a 083f c45d a73e 26cf 173f
00000070: 33dd 7f3e 440a 033f e06d a23e 8b9b f2be
00000080: 0858 40be 0a2b 3ebe 3775 0fbe 091e efbd
00000090: 2760 3cbe 6955 0cbe 6a1b 3ebe 3aa1 0dbe
000000a0: d221 51be 2b54 ecbd e9eb 30be bdb3 ecbd
000000b0: 340c 13be ce05 0cbe 9253 3dbe fdda ff3e
000000c0: e6d9 c53e e9e4 823e 8554 f03e 00d7 173f
000000d0: 0d35 c43e 7a44 f33e 8219 2d3d cd73 0e3f
000000e0: 02a1 5d3e 0fe6 043e 1177 ba3e 08f2 ae3e
000000f0: 2687 863e 2f9a f83e b78a cd3e 6784 babe
00000100: 8997 cb3c 0e84 d93c c126 213f c4ad eb3e
00000110: 85ba f73e 8256 46be 041c 293e 6b3d 5d3e
00000120: 5b91 793e 17c2 07bd 3813 5fbe b6c5 6dbe
00000130: 7041 78be 231b 043f c6f8 173f 6b49 dfbd
00000140: be1d 113f 3b5f 883e fa56 d83e 4ee5 093f
00000150: 9f81 fd3e bed5 773e 4fd1 f43e 6f65 113f
00000160: 3017 133f 9e1f dc3e ba5c b23e ee67 233f
00000170: 88a1 bb3e a37f 843e eb7d 40bd 0635 43be
00000180: 5599 083f 8a1b fd3e 9515 35bd ee69 123f
00000190: 82bc 4d3e e52e f33e c86b 2bbd 13ff 3b3e
000001a0: c127 a43e 23f3 b33e d58c 1e3d 699c d93e
000001b0: 08b8 e73e 07c6 033e 8d12 dd3e e39f b3be
000001c0: a6d2 c93e 130e 783e ce4f ca3e ff27 993e
000001d0: 507c 013e 39e1 d43e 4c1c c13e c246 1a3e
000001e0: 71c0 c93e f792 cc3e 7880 e83e e337 dc3e
000001f0: f184 673e dde1 dd3e 93e7 3e3e b181 febe
00000200: 96bd d53e 0158 903e 10ed e33e 8f07 873e
00000210: 6745 a03e 275d 073f e644 113f 9d40 963e
00000220: 1960 383e b2c3 103f e932 823e 221e a63e
00000230: 8481 883e bfb3 4a3e 0ed2 b83e e48c d3be
00000240: 010a d4bd be5d 2abe 4c79 68be f3ca e6bd
00000250: efcc e6bd 82d8 7dbe e1c2 e6bd 9074 d3bd
00000260: a0a5 10be a288 d3bd 25ea d3bd 8438 2fbe
00000270: 5c56 ffbd d551 dcbd 08a4 7dbe 6996 ac3e
00000280: 6d19 debd c62e 61bd 7d08 ff3e 2ee2 eb3e
00000290: 9050 1b3f 0cca a23e 8b8a 7d3b a46e f93e
000002a0: fcbb 2b3e 2714 c23e bea7 4e3e 2c54 143f
000002b0: f68a 953e d38b 8a3d a890 e23e 003f d7be
000002c0: 101a de3d e015 99bd f0dc e73c 2ca5 3fbe
000002d0: 5f62 433e 18a5 563d 2871 bd3d 18ec 5f3d
000002e0: 20a3 583c 68ff 4a3e f80c 31be e0c3 9b3c
000002f0: d8ed 2fbd 7476 02be 24f1 f2bd e01c 163d
00000300: f265 943d 96b1 14be 4817 203d e96b 943d
00000310: 009a 40bd a40e eabd 4069 943d 5830 62be
00000320: b20c 20be 043f d9bd 5c5e 943d f677 943d
00000330: 5070 80bc cd61 943d c781 943d aa40 0b3f
00000340: e5f5 f83d a05a c33e b716 cc3e 3439 1f3e
00000350: adbc d43e 8e14 8c3e 4029 75bd 28a3 923e
00000360: c122 ad3e 189d 2ebe 8cf3 ff3e 5045 04be
00000370: 1991 093f f257 c63e 4552 7a3e f8ee f1bd
00000380: f861 f93e ca1d 45bd fd97 08bd 703f 0cbe
00000390: 068e 7abe c8a5 5fbe 628b 0f3e e724 e6bd
000003a0: 5086 ee3e 4467 82bd bfe3 fd3d 7f12 c5bd
000003b0: 476a 323e 16a4 b13e b0be 133f d81a 8dbd
000003c0: 45ef dfbd 37ce f13e b860 163f b4c5 1a3f
000003d0: 3db4 053f db22 a53e 9a93 333e 4009 ea3c
000003e0: 6fd8 e73e 5dff ca3e 2847 f03e 3fcf 023f
000003f0: 5d42 6bb8 6566 433e 68bc 163f acd6 95be

job_linear.0.bias f4 [32]
-0.01940709 0.5442584 0.11539267 0.45325336 0.17979012 0.456283 0.38693184 0.5401861
0.58250713 0.10323153 0.46041203 -0.19827712 -0.072544836 0.28727874 0.1366662 0.43865967
0.586376 0.29023653 0.13272956 0.24151294 0.45181292 0.28064623 0.5436342 -0.040069494
-0.17911406 0.40075183 0.27882448 0.059740823 0.28017706 0.3406073 0.060894325 0.18016405
00000000: 9efb 9ebc 8554 0b3f fe52 ec3d d310 e83e
00000010: e71a 383e ed9d e93e ee1b c63e a349 0a3f
00000020: 301f 153f 0d6b d33d 20bb eb3e 2809 4bbe
00000030: 6392 94bd 3316 933e 39f2 0b3e 0098 e03e
00000040: bd1c 163f e299 943e 42ea 073e 2b4f 773e
00000050: 0654 e73e ddb0 8f3e 9c2b 0b3f e91f 24bd
00000060: ad69 37be 582f cd3e 15c2 8e3e cbb2 743d
00000070: 5e73 8f3e 1464 ae3e 546c 793d ed7c 383e

job_linear.2.weight f4 [1, 32]
-0.42277882 0.67347604 -0.23215923 0.5521041 0.44219542 0.40388694 0.4787742 0.5029425
0.53923863 -0.2630178 0.62656444 -0.073609546 -0.30908886 0.29440802 0.3773968 0.5275579
0.5302489 0.4424819 -0.3150035 0.44289204 0.6592112 0.50011975 0.44855872 -0.42478934
-0.061649397 0.4463368 0.4438059 -0.33536896 0.4770796 0.41971523 -0.3770386 0.4675013
00000000: 7776 d8be ed68 2c3f 26bb 6dbe b256 0d3f
00000010: 7067 e23e 45ca ce3e e421 f53e d7c0 003f
00000020: 8b0b 0a3f 45aa 86be 8766 203f 9ac0 96bd
00000030: e540 9ebe a6bc 963e 273a c13e 090e 073f
00000040: 64be 073f fd8c e23e 2448 a1be bfc2 e23e
00000050: 11c2 283f d907 003f 7da9 e53e fd7d d9be
00000060: 1484 7cbd 4286 e43e 873a e33e 7bb5 abbe
00000070: c743 f43e eae4 d63e 340b c1be 555c ef3e

machine_linear.0.weight f4 [16, 4]
-0.10157645 -0.46002203 -0.19319373 -0.4162603 0.025944173 0.10547531 0.026896358 -0.44805914
-0.39965868 -0.4724276 -0.3909812 0.30809188 0.4963317 0.30098712 0.019236386 0.051715314
-0.25205702 0.12059158 0.022272825 0.49307466 0.010392308 0.13788426 -0.09547758 0.07805979
0.3643571 -0.42259055 0.4387129 -0.241086 0.02461344 0.015753627 0.13899362 -0.2713213
-0.10777414 0.4917133 0.33941782 -0.21907228 -0.032739997 0.22508198 -0.4332298 0.35183895
-0.13461995 -0.32727134 -0.19688761 -0.12485361 0.48976237 -0.45505548 0.2497915 -0.32209212
0.46440476 0.014302194 0.25031894 -0.2845888 -0.32461143 -0.33252025 0.124109566 0.44346684
0.29676574 0.36548346 0.06221664 -0.49250555 0.066544116 -0.25984955 -0.21716219 0.16379386
00000000: 5007 d0bd 0288 ebbe 94d4 45be 1220 d5be
00000010: e088 d43c 7003 d83d c055 dc3c 0268 e5be
00000020: 10a0 ccbe 08e2 f1be b02e c8be 38be 9d3e
00000030: 301f fe3e fc1a 9a3e a095 9d3c 70d3 533d
00000040: 9e0d 81be b8f8 f63d 8075 b63c 4874 fc3e
00000050: 8044 2a3c 8831 0d3e c089 c3bd d0dd 9f3d
00000060: 048d ba3e ca5d d8be fa9e e03e 40df 76be
00000070: 20a2 c93c c00d 813c 5854 0e3e a0ea 8abe
00000080: b0b8 dcbd d8c1 fb3e 2cc8 ad3e 7c54 60be
00000090: 601a 06bd e47b 663e 4cd0 ddbe 3c24 b43e
000000a0: d0d9 09be 1c90 a7be e89c 49be 40b3 ffbd
000000b0: 22c2 fa3e 08fd e8be 58c9 7f3e 42e9 a4be
000000c0: 76c6 ed3e c053 6a3c ce29 803e a0b5 91be
000000d0: 7833 a6be 1840 aabe 282d fe3d 160e e33e
000000e0: aef1 973e a620 bb3e e0d6 7e3d b029 fcbe
000000f0: 4848 883d 000b 85be c45f 5ebe 94b9 273e

machine_linear.0.bias f4 [16]
0.20735675 -0.38631338 -0.26361734 0.07234943 0.20606697 -0.4603238 -0.3006714 0.36688513
-0.012084961 -0.33935153 -0.44616765 0.3504029 0.4554463 -0.048038185 0.25831413 0.14501369
00000000: 5455 543e deca c5be daf8 86be f02b 943d
00000010: 3803 533e 90af ebbe 9af1 99be 5ed8 bb3e
00000020: 0000 46bc 7cbf adbe 1670 e4be 0268 b33e
00000030: 4230 e93e b0c3 44bd c041 843e 787e 143e

machine_linear.2.weight f4 [1, 16]
-0.22773573 -0.21762481 -0.07212305 -0.042745233 0.067059726 0.06583005 -0.118979275 -0.22427845
0.0753794 -0.17866749 -0.038787752 -0.18284693 -0.10503656 0.06555843 -0.059742153 -0.016365826
00000000: 8e33 69be 0ad9 5ebe 40b5 93bd a015 2fbd
00000010: 9c56 893d e8d1 863d 68ab f3bd 40a9 65be
00000020: 8460 9a3d 9cf4 36be e8df 1ebd 3a3c 3bbe
00000030: 681d d7bd 8043 863d 30b4 74bd a011 86bc

j_m_linear.0.weight f4 [32, 21]
-0.18129353 0.036113568 0.08527743 0.066148765 0.31573635 0.014175046 0.017852714 -0.065692
-0.5712494 -0.1325122 0.2757524 0.17359246 -0.62656325 0.35452947 -0.062203165 -0.009552159
0.21652362 -0.019951768 0.06638757 0.00019353523 0.022411315 0.25543454 0.16611893 -0.3074199
0.02165361 -0.037329026 0.39827737 -0.010800468 -0.22981206 -0.59090984 0.038886078 0.2385001
-0.08855664 -0.28240454 -0.17002329 -0.24779618 -0.033050388 0.23016353 0.26804063 0.19946648
0.14241914 -0.12905982 0.36270812 0.21915619 0.7041578 0.2496672 0.3417558 0.21856408
0.17100374 0.60249436 0.6232786 0.09977195 0.37546518 0.20244375 0.9274191 0.49490863
0.31181237 0.23425177 0.41590285 0.09487664 0.21286377 0.29401866 0.12117497 0.4366576
0.5885238 0.6477604 0.24907085 0.37803632 0.22561423 0.1526987 0.46693546 0.9635093
0.38452113 0.45420325 0.24370061 0.59255445 0.4569589 0.4083049 0.1020943 0.49933946
0.2509194 0.2935892 0.26665187 -0.19042563 0.27948445 0.45945686 0.423194 0.0526651
0.04320053 0.2672404 0.0943267 0.7043332 0.88961995 0.23745768 0.5253096 0.29509193
0.5469047 0.45316786 0.41920075 0.2548342 0.4845941 0.15975216 0.4039477 0.29687694
-0.030649796 -0.19273932 -0.21231727 -0.2283833 0.19288918 0.13791962 -0.1178601 0.3871572
-0.05171822 -0.24454238 0.10725221 0.32817775 0.053587377 -0.35583633 -0.021810917 0.33415228
-0.009133461 -0.22390263 -0.06437295 -0.21265094 0.3554801 -0.17913519 0.32141238 0.3981389
0.49683443 0.33796677 0.017441573 0.37003753 0.18622309 0.37661007 0.5060454 0.22122104
0.17782782 0.13413511 0.47179475 0.40942988 0.40108618 0.21049191 0.22552203 -0.026835952
0.20803933 0.0008031779 0.21268891 0.2780088 0.27090433 0.7564684 0.29619807 0.28537583
0.19834836 0.35328415 0.59685683 0.5935797 0.40689683 0.4423579 0.034153834 0.87305695
0.2260817 0.20953421 0.0072295936 0.6110273 0.26651916 0.26061463 0.14610726 -0.07484245
0.12850747 -0.1293935 -0.43585628 0.21563657 0.2942843 -0.205035 -0.048554383 -0.66336435
0.14896488 0.1636848 0.098496534 -0.038587995 -0.10268666 0.37902483 -0.11276367 -0.18619068
0.07024041 0.25847796 0.11918824 -0.016369712 -0.12540965 0.30771592 -0.13556261 -0.36592257
0.08489809 0.31384188 0.069418326 0.31925002 -0.40297103 -0.66169775 -0.0069285636 -0.10640456
0.15630239 -0.30083898 0.2061288 -0.19314258 0.11086412 -0.19708337 0.2439728 0.23994708
0.25320315 -0.21071284 0.27980372 0.22544608 0.4863316 0.07224215 0.33417568 0.49056074
0.06805009 0.49916044 0.6154674 0.3845946 0.5224163 0.2728494 0.84004825 0.37234467
0.41531405 0.16430455 0.27539048 0.115903266 0.06254865 0.3824184 -0.0042110295 -0.19363147
0.1876262 -0.21541585 0.3120328 -0.08127292 0.33244622 0.22857364 -0.33367378 -0.26897433
-0.1557013 0.25763026 -0.004179965 -0.6043883 0.15322062 0.09767685 0.14810534 -0.33392015
0.14183472 0.14597885 0.09977261 -0.15994805 0.018063352 -0.13792719 -0.38256592 0.09380436
00000000: 03a5 39be d2eb 133d efa5 ae3d 0179 873d
00000010: 32a8 a13e 743e 683c db3f 923c 8789 86bd
00000020: 673d 12bf 47b1 07be 6b2f 8d3e 39c2 313e
00000030: 7366 20bf e384 b53e bfc8 7ebd a980 1cbc
00000040: 5eb8 5d3e e471 a3bc 35f6 873d b8ef 4a39
00000050: ef97 b73c 51c8 823e 151b 2a3e 2466 9dbe
00000060: e962 b13c 52e6 18bd 03eb cb3e 72f4 30bc
00000070: da53 6bbe de45 17bf 0247 1f3d 5f39 743e
00000080: 2f5d b5bd 5497 90be 961a 2ebe 48be 7dbe
00000090: d85f 07bd fdaf 6b3e 9f3c 893e f140 4c3e
000000a0: 53d6 113e 4228 04be e1b4 b93e 7b6a 603e
000000b0: b043 343f c2a8 7f3e 9efa ae3e 43cf 5f3e
000000c0: 9b1b 2f3e 123d 1a3f 308f 1f3f 3c55 cc3d
000000d0: f93c c03e 6a4d 4f3e 576b 6d3f aa64 fd3e
000000e0: dfa5 9f3e b2df 6f3e 38f1 d43e af4e c23d
000000f0: f6f8 593e 9d89 963e 952a f83d 9691 df3e
00000100: 7fa9 163f a0d3 253f 6e0c 7f3e fa8d c13e
00000110: 6b07 673e 0c5d 1c3e 2a12 ef3e 8ca8 763f
00000120: f4df c43e 548d e83e a78c 793e a6b1 173f
00000130: 84f6 e93e 570d d13e d116 d13d 6ca9 ff3e
00000140: 8278 803e 5351 963e 9886 883e f0fe 42be
00000150: 9618 8f3e ee3d eb3e e2ac d83e 5cb7 573d
00000160: 0af3 303d bcd3 883e 5b2e c13d 2e4f 343f
00000170: 22be 633f 1b28 733e b17a 063f 4a16 973e
00000180: f201 0c3f 9e05 e83e 7ba1 d63e a179 823e
00000190: b81c f83e 1296 233e 3cd2 ce3e 4100 983e
000001a0: 4815 fbbc 755d 45be b369 59be 50dd 69be
000001b0: be84 453e cd3a 0d3e a360 f1bd 7839 c63e
000001c0: 7cd6 53bd 5169 7abe 0ca7 db3d ea06 a83e
000001d0: 707e 5b3d 2e30 b6be cfac b2bc 0216 ab3e
000001e0: 83a4 15bc bb46 65be f7d5 83bd 2bc1 59be
000001f0: 7d01 b63e 376f 37be 2a90 a43e ddd8 cb3e
00000200: 1561 fe3e fb09 ad3e a1e1 8e3c 8f75 bd3e
00000210: 44b1 3e3e 09d3 c03e 318c 013f c587 623e
00000220: 7f18 363e b75a 093e 158f f13e cba0 d13e
00000230: 2b5b cd3e 318b 573e 3fef 663e 12d7 dbbc
00000240: 4308 553e 5b8c 523a 1fcb 593e 2b57 8e3e
00000250: f9b3 8a3e eaa7 413f 46a7 973e c81c 923e
00000260: d51b 4b3e a9e1 b43e 9ccb 183f d7f4 173f
00000270: c854 d03e bc7c e23e e4e4 0b3d a980 5f3f
00000280: f681 673e 2390 563e 3ae6 ec3b 496c 1c3f
00000290: 3375 883e 486f 853e 249d 153e 0047 99bd
000002a0: 7697 033e bb7f 04be 8e28 dfbe d5cf 5c3e
000002b0: 6fac 963e b2f4 51be f6e0 46bd 3fd2 29bf
000002c0: 408a 183e fd9c 273e 8db8 c93d 720e 1ebd
000002d0: 624d d2bd 8b0f c23e a4f0 e6bd c5a8 3ebe
000002e0: 34da 8f3d 3957 843e f718 f43d c619 86bc
000002f0: 636b 00be f18c 9d3e edd0 0abe 345a bbbe
00000300: 0ddf ad3d e2af a03e 322b 8e3d bd74 a33e
00000310: 3852 cebe 0665 29bf 0109 e3bb a2ea d9bd
00000320: bc0d 203e 9107 9abe 6e13 533e 2bc7 45be
00000330: ba0c e33d 39d0 49be 01d4 793e b0b4 753e
00000340: d8a3 813e 1bc5 57be 6f42 8f3e 56db 663e
00000350: 7500 f93e b1f3 933d 1319 ab3e c72a fb3e
00000360: d85d 8b3d f591 ff3e 468f 1d3f 95e9 c43e
00000370: 13bd 053f ebb2 8b3e 670d 573f f6a3 be3e
00000380: 0ba4 d43e 743f 283e fbff 8c3e b15e ed3d
00000390: 8219 803d 58cc c33e adfc 89bb 5447 46be
000003a0: 1521 403e f995 5cbe c3c2 9f3e 6b72 a6bd
000003b0: 6436 aa3e 350f 6a3e 4ad7 aabe 01b7 89be
000003c0: 2970 1fbe 1de8 833e 16f8 88bb 31b9 1abf
000003d0: dee5 1c3e cd0a c83d eda8 173e 95f7 aabe
000003e0: 1f3d 113e 7b7b 153e 9555 cc3d 6cc9 23be
000003f0: 98f9 933c c93c 0dbe aedf c3be 801c c03d

j_m_linear.0.bias f4 [32]
0.34933314 0.29164663 -0.15226264 -0.19470127 -0.2578723 0.2849835 -0.38966763 -0.44420624
0.46123737 0.48149994 -0.13707297 0.6450101 0.8788462 -0.29415068 -0.6491219 -0.26479053
0.39925545 0.77523446 0.35149896 -0.14931588 -0.28729573 -0.12849383 -0.28863537 0.71887606
0.7234905 -0.25459322 0.3468917 -0.41274157 -0.3215312 -0.23294064 -0.49086082 -0.11850999
00000000: cbdb b23e b552 953e bdea 1bbe c55f 47be
00000010: d707 84be 5be9 913e 8482 c7be 006f e3be
00000020: 4e27 ec3e 2987 f63e db5c 0cbe 621f 253f
00000030: 11fc 603f eb9a 96be da2c 26bf a092 87be
00000040: 366b cc3e c475 463f acf7 b33e 43e6 18be
00000050: 6d18 93be e393 03be 04c8 93be 4308 383f
00000060: ac36 393f 0b5a 82be ca9b b13e dd52 d3be
00000070: bd9f a4be fe87 6ebe 1c52 fbbe 5eb5 f2bd

j_m_linear.2.weight f4 [64, 32]
-0.73353887 -0.9009286 0.5296455 0.4395568 0.37571537 -0.5889077 0.13276908 0.33843118
-0.83767545 -0.8469255 0.26094002 -1.0323902 -0.8402697 0.47257826 0.20880724 0.21185213
-0.6860872 -0.8355027 -1.0394312 0.26945657 0.4351206 0.47976294 0.352352 -0.9663033
-0.79179925 0.45717686 -1.0329015 0.39539203 0.57782555 0.15160118 0.32605693 0.47429594
0.6448497 0.45037508 -0.06782676 -0.011832579 -0.14705609 0.31263825 0.07619667 -0.0025870146
0.713743 0.34208885 0.13428217 0.5945606 0.32402116 0.03231515 -0.057475224 0.12640014
0.32168046 0.3746481 0.6687804 -0.09830119 -0.018303445 0.08423519 -0.07732172 0.40366936
0.22250375 -0.17509256 0.56429666 0.15707359 0.071228005 0.12520547 -0.06671169 -0.0221381
0.1146901 0.2912679 -0.059081998 -0.10644701 -0.14174901 0.107316315 0.13198502 0.016143994
0.1058153 0.1333175 0.025567433 0.30975178 0.025766404 -0.04974479 0.09995685 0.054810874
-0.007076592 0.035643723 0.17634861 -0.15264088 -0.04701074 0.056464814 0.0887371 0.06645244
-0.12812804 -0.01285197 0.33649114 -0.053354904 0.1359848 -0.049943198 0.018656718 0.17450969
-1.0710907 -1.0089587 0.44191745 0.29672715 0.39509383 -0.91361773 0.3726189 0.2739223
-0.9302378 -0.83936256 0.45807508 -1.0655465 -0.9713215 0.25056478 0.4096256 0.30086052
-0.92880046 -0.99906147 -0.80483663 0.39993986 0.30036247 0.30444524 0.33969995 -0.95320606
-0.90792906 0.48471957 -0.8237501 0.28807986 0.42141205 0.3047958 0.433444 0.27546072
-0.87884915 -0.9640938 0.42982203 0.19181743 0.33833808 -0.865392 0.3374059 0.29618916
-0.8147435 -0.94054973 0.14866723 -0.88959974 -1.0760226 0.13859554 0.20316578 0.33302525
-0.9546814 -1.0832355 -0.7791937 0.36324129 0.32741994 0.08573238 0.30658925 -0.93336695
-1.1122963 0.34559202 -0.993928 0.42308956 0.34604797 0.1829904 0.13388857 0.28854683
-0.9332607 -0.99904233 0.20511028 0.14864126 0.28414124 -0.7643731 0.1533408 0.28811496
-0.91013443 -0.86691225 0.36332053 -0.7854034 -0.9448157 0.36091512 0.27229887 0.26478314
-0.798719 -0.9543001 -0.90793955 0.3306545 0.08013077 0.2153859 0.2779776 -0.9161105
-0.9666465 0.32801422 -1.0655091 0.35313258 0.31905437 0.2707662 0.17151676 0.41359815
-0.93125725 -0.8927291 0.21729566 0.27536154 0.4579426 -0.9679952 0.2900676 0.50525385
-0.92307097 -0.90398157 0.25244135 -1.1209251 -0.95214134 0.4588712 0.20238006 0.3451094
-0.75058883 -1.19947 -0.92468685 0.33763626 0.29057953 0.38776475 0.33801734 -0.9697343
-1.1639147 0.21687849 -0.9593659 0.2097137 0.19365837 0.32572556 0.25326583 0.3306957
0.4948614 0.68834615 0.11056981 0.042780798 0.11883118 0.23008095 -0.044769675 -0.097377874
0.50616044 0.56668735 0.18784069 0.56443346 0.34306127 0.038878456 -0.038972877 -0.05971504
0.28633082 0.3980508 0.8140205 -0.11516491 -0.07812193 0.06535158 -0.07103105 0.3712621
0.40174642 -0.1315671 0.64044625 0.13949886 -0.15156801 0.07118476 0.024352139 -0.019682232
00000000: 34c9 3bbf 42a3 66bf d996 073f 970d e13e
00000010: c45d c03e a8c2 16bf 9ef4 073e da46 ad3e
00000020: e671 56bf 1cd0 58bf ee99 853e 5d25 84bf
00000030: ea1b 57bf c7f5 f13e 91d1 553e c4ef 583e
00000040: 69a3 2fbf 81e3 55bf 150c 85bf 36f6 893e
00000050: 21c8 de3e 7da3 f53e 7b67 b43e a75f 77bf
00000060: 5bb3 4abf 1613 ea3e 1e36 84bf d370 ca3e
00000070: 60ec 133f 573d 1b3e eff0 a63e ebd6 f23e
00000080: df14 253f 9097 e63e c2e8 8abd 6fdd 41bc
00000090: df95 16be 1f12 a03e 000d 9c3d e78a 29bb
000000a0: dcb7 363f 4526 af3e 4481 093e 2035 183f
000000b0: 1ae6 a53e e45c 043d 246b 6bbd 0a6f 013e
000000c0: 4db3 a43e e0d1 bf3e 3135 2b3f 2252 c9bd
000000d0: 1bf1 95bc 8083 ac3d da5a 9ebd c0ad ce3e
000000e0: 06d8 633e 774b 33be bf75 103f e6d7 203e
000000f0: fddf 913d dd35 003e 23a0 88bd f65a b5bc
00000100: a5e2 ea3d 1121 953e f7ff 71bd e400 dabd
00000110: a726 11be a8c8 db3d 1527 073e 6940 843c
00000120: b1b5 d83d 6284 083e cb72 d13c c997 9e3e
00000130: 1114 d33c 31c1 4bbd 2db6 cc3d 5e81 603d
00000140: c2e2 e7bb 27ff 113d bb94 343e e44d 1cbe
00000150: 558e 40bd a647 673d ccbb b53d 3818 883d
00000160: ff33 03be 1291 52bc 9148 ac3e ac8a 5abd
00000170: 993f 0b3e 3d91 4cbd f9d5 983c abb2 323e
00000180: 8019 89bf 8f25 81bf 0143 e23e 9fec 973e
00000190: bd49 ca3e dae2 69bf e8c7 be3e 8b3f 8c3e
000001a0: 1124 6ebf 77e0 56bf d188 ea3e d463 88bf
000001b0: 87a8 78bf 074a 803e 72ba d13e 640a 9a3e
000001c0: dec5 6dbf 7ec2 7fbf c609 4ebf ebc4 cc3e
000001d0: 1cc9 993e 3fe0 9b3e 27ed ad3e 5005 74bf
000001e0: 0a6e 68bf 2a2d f83e 49e1 52bf 347f 933e
000001f0: 52c3 d73e 320e 9c3e 5fec dd3e 3009 8d3e
00000200: 42fc 60bf dace 76bf a211 dc3e ca6b 443e
00000210: a63a ad3e 558a 5dbf 77c0 ac3e 1ba6 973e
00000220: 0893 50bf dec7 70bf 393c 183e cfbc 63bf
00000230: 1cbb 89bf fdeb 0d3e b10a 503e 4982 aa3e
00000240: 0066 74bf 76a7 8abf 3d79 47bf c3fa b93e
00000250: 96a3 a73e 7594 af3d 44f9 9c3e 23f1 6ebf
00000260: ba5f 8ebf 70f1 b03e 1172 7ebf 329f d83e
00000270: 332d b13e d661 3b3e 161a 093e 69bc 933e
00000280: 2cea 6ebf 3dc1 7fbf 6e08 523e 6a35 183e
00000290: f67a 913e f5ad 43bf 5f05 1d3e ce83 933e
000002a0: 92fe 68bf f6ed 5dbf 2605 ba3e 3210 49bf
000002b0: 71df 71bf dec9 b83e c26a 8b3e a891 873e
000002c0: d978 4cbf 034d 74bf ba6e 68bf 8c4b a93e
000002d0: 9a1b a43d 1f8e 5c3e 1453 8e3e 3886 6abf
000002e0: 2576 77bf 7bf1 a73e 9a62 88bf cbcd b43e
000002f0: 185b a33e dea1 8a3e 17a2 2f3e 23c3 d33e
00000300: e066 6ebf e589 64bf c182 5e3e 30fc 8c3e
00000310: 7477 ea3e 89ce 77bf be83 943e 5158 013f
00000320: 614e 6cbf 566b 67bf fe3f 813e 797a 8fbf
00000330: 89bf 73bf 2af1 ea3e b83c 4f3e 2eb2 b03e
00000340: 9726 40bf 3c88 99bf 47b8 6cbf a9de ac3e
00000350: d7c6 943e 1a89 c63e 9c10 ad3e 8240 78bf
00000360: 28fb 94bf 6515 5e3e 0199 75bf 30bf 563e
00000370: 614e 463e 80c5 a63e 0fac 813e f250 a93e
00000380: 795e fd3e 7437 303f 6d72 e23d eb3a 2f3d
00000390: c35d f33d 579a 6b3e 6860 37bd 0d6e c7bd
000003a0: bb93 013f 6c12 113f 4f59 403e b67e 103f
000003b0: baa5 af3e 043f 1f3d 06a2 1fbd c297 74bd
000003c0: f499 923e 51cd cb3e a663 503f 95db ebbd
000003d0: 64fe 9fbd 0dd7 853d ba78 91bd 1116 be3e
000003e0: b5b1 cd3e 87b9 06be 49f4 233f cad8 0e3e
000003f0: a534 1bbe 51c9 913d 237e c73c a23c a1bc

j_m_linear.2.bias f4 [64]
-0.18243138 0.55511755 0.1809287 -0.5016416 -0.38933253 -0.26642284 -0.44110653 0.19488138
-0.53730094 -0.09017954 -0.06446563 -0.34014615 -0.35975504 -0.16474846 0.41043025 -0.24873908
-0.10369015 -0.12217406 -0.095144525 -0.3326031 -0.04445095 0.5051119 -0.18234704 -0.36485484
-0.3282497 -0.063820414 0.07104001 -0.14758232 -0.2746672 -0.09602585 -0.15928842 -0.32456812
-0.14787103 0.06143968 -0.05420995 -0.33498383 -0.072970115 -0.1452925 0.16310358 0.30366004
-0.21547206 -0.2635057 -0.39072308 -0.23761308 -0.4222453 -0.3366003 -0.27665263 -0.39912623
-0.2724531 -0.44438556 -0.12906288 -0.110354975 -0.44725958 -0.3221845 -0.25835037 -0.5435511
0.33491123 -0.068707876 -0.045146707 -0.229089 0.41350424 -0.02493944 -0.55580175 -0.23921475
00000000: 4bcf 3abe 2f1c 0e3f 6045 393e 956b 00bf
00000010: 9856 c7be 9368 88be b7d8 e1be fc8e 473e
00000020: 8e8c 09bf 0db0 b8bd 8e06 84bd a327 aebe
00000030: d031 b8be d2b3 28be ea23 d23e 75b5 7ebe
00000040: 805b d4bd 6536 fabd 22db c2bd f44a aabe
00000050: 3312 36bd 034f 013f 2fb9 3abe 41ce babe
00000060: 5810 a8be 47b4 82bd 6d7d 913d d21f 17be
00000070: 2ea1 8cbe 33a9 c4bd 811c 23be cb2d a6be
00000080: 816b 17be 2da8 7b3d 410b 5ebd 0083 abbe
00000090: 5b71 95bd 8fc7 14be a004 273e 5479 9b3e
000000a0: b5a4 5cbe 38ea 86be db0c c8be d850 73be
000000b0: 8930 d8be e056 acbe 6aa5 8dbe 465a ccbe
000000c0: f97e 8bbe 8186 e3be 0f29 04be ca01 e2bd
000000d0: 35ff e4be 5ef5 a4be 8046 84be 2a26 0bbf
000000e0: 7c79 ab3e b7b6 8cbd c1eb 38bd 4f96 6abe
000000f0: d4b6 d33e cc4d ccbc 0649 0ebf b6f4 74be

A_net.weight f4 [21, 64]
0.21704689 -0.19156067 -0.07832109 0.20611542 0.122037165 0.18986318 0.19829045 -0.058325253
0.24398018 0.2760144 0.22190398 0.16077761 0.096381046 0.27552286 -0.257366 0.1613474
0.09175481 0.14828116 0.027206704 0.10379362 0.18293972 -0.26270416 0.120113626 0.22221272
0.12676738 0.14530747 -0.1610158 0.1824199 0.040824708 0.10344704 -0.02001673 0.14914419
0.124149725 0.332981 0.010699078 0.07968701 -0.093822636 0.23938741 0.17215586 -0.32358405
0.17361024 0.23591451 0.2611532 0.08022839 0.23212439 0.08449403 0.28558728 0.1993332
0.2130339 0.2367322 -0.07922314 0.08458815 0.20992187 0.14924423 0.083846316 0.07966104
-0.20030324 -0.031246841 0.11580473 0.1987253 -0.15598832 0.024424665 0.24777617 0.13682503
0.12491519 -0.26293072 0.019467145 0.21005619 0.09673691 0.10622475 0.1078469 -0.12595591
0.15025124 0.08197211 0.16796018 0.06628454 0.05983279 0.2864795 -0.2906582 0.24052258
0.19951162 0.028189275 -0.020919785 0.173764 0.20985681 -0.35429648 0.05110138 0.07196143
0.17632133 0.1455173 -0.20219955 0.263713 0.049108878 0.13394699 -0.112717494 0.13761853
-0.036159378 0.33132654 -0.05876796 0.27073896 -0.10045988 0.27309096 0.3068015 -0.1347193
0.17234081 0.05331186 0.247218 0.07887112 0.20180082 0.113171354 0.084967844 0.20042095
0.20950921 0.24701548 -0.08488032 0.27573076 0.10169595 0.1858746 0.27659914 0.21104422
-0.3132104 0.0073047876 0.16420212 0.2836607 -0.1835911 0.17936653 0.099364236 0.21354356
0.19210939 -0.22953382 -0.09697678 0.096550964 0.086139016 0.22528036 0.063258976 -0.18884754
0.10328072 0.2668251 0.036494482 0.26775122 0.09636351 0.27151218 -0.2391253 0.25615442
0.15236208 -0.03551089 0.12449418 0.107907936 0.13586357 -0.30548313 0.23656198 0.0966329
0.12510543 0.28589752 -0.045582805 0.085285485 0.16885994 0.2906883 -0.10601547 0.13251713
0.087514356 0.25722873 -0.067356154 0.11958021 -0.024917295 0.13234544 0.11870011 -0.17586842
0.12024211 0.16004048 0.064677835 0.121617176 0.18313056 0.2569961 0.2662957 0.20484263
0.13871722 0.18313701 0.09618859 0.18147068 0.14899702 0.17741857 0.07996483 0.26972598
-0.32795066 -0.09566136 0.1342099 0.19701485 -0.17926152 0.004732251 0.012060569 0.23951586
0.24076076 -0.34945843 -0.22659235 0.10564562 0.24166904 0.24047768 0.15752438 -0.18453002
0.3327236 0.100217365 0.38284498 0.108505666 0.08739064 0.10964235 -0.11438231 0.08602724
0.1866775 0.2382837 0.025083005 0.18281539 0.2058811 -0.16917475 0.07942968 0.18302344
0.2989871 0.22363447 -0.13329755 0.22538026 0.075901955 0.071737416 0.029346764 -0.029847115
0.07954103 0.2938227 0.106821954 0.15632698 -0.110332966 0.10504293 0.2775682 -0.07702231
0.25796017 0.10677584 0.14518635 0.11587457 0.19466563 0.3106712 0.16080876 0.22679746
0.18612672 0.21902995 -0.073237956 0.19125082 0.056462828 0.21607243 0.12377789 0.12401956
-0.2961342 -0.0987237 -0.05700176 0.27599588 -0.15499455 -0.1387457 0.11539646 0.16033512
00000000: 8a41 5e3e 7b28 44be cf66 a0bd ec0f 533e
00000010: 9fee f93d 7e6b 423e a70c 4b3e 76e6 6ebd
00000020: f1d5 793e c251 8d3e cc3a 633e e3a2 243e
00000030: 6d63 c53d 5511 8d3e 7ac5 83be 4138 253e
00000040: f2e9 bb3d 04d7 173e 98e0 de3c c091 d43d
00000050: 8d54 3b3e 2981 86be 22fe f53d bb8b 633e
00000060: 4fcf 013e 7bcb 143e 53e1 24be 48cc 3a3e
00000070: cf37 273d 0bdc d33d 20fa a3bc 41b9 183e
00000080: 3642 fe3d 7c7c aa3e 304b 2f3c f132 a33d
00000090: 1526 c0bd f921 753e a049 303e cfac a5be
000000a0: e2c6 313e 9393 713e dfb5 853e c84e a43d
000000b0: 04b2 6d3e 350b ad3d 7f38 923e 011e 4c3e
000000c0: 8f25 5a3e ed69 723e be3f a2bd 8d3c ad3d
000000d0: c2f5 563e 7bd3 183e 9eb7 ab3d 5425 a33d
000000e0: 4b1c 4dbe 60f9 ffbc 082b ed3d a57e 4b3e
000000f0: 67bb 1fbe 3c16 c83c 09b9 7d3e dc1b 0c3e
00000100: 89d3 ff3d db9e 86be 9079 9f3c f818 573e
00000110: 001e c63d 5d8c d93d d6de dc3d 96fa 00be
00000120: 76db 193e fee0 a73d c1fd 2b3e 30c0 873d
00000130: 3a13 753d 71ad 923e 27d1 94be 8d4b 763e
00000140: c64c 4c3e 32ed e63c f85f abbc 31ef 313e
00000150: b4e4 563e 5966 b5be ae4f 513d 8460 933d
00000160: 948d 343e 7d02 153e 660d 4fbe 6405 873e
00000170: 6426 493d 6629 093e 6ed8 e6bd dfeb 0c3e
00000180: db1b 14bd a2a3 a93e acb6 70bd 4c9e 8a3e
00000190: e9bd cdbd 94d2 8b3e 1615 9d3e dbf3 09be
000001a0: 1c7a 303e 895d 5a3d b726 7d3e 2f87 a13d
000001b0: e0a4 4e3e 62c6 e73d 9f03 ae3d 263b 4d3e
000001c0: 9589 563e a0f1 7c3e bcd5 adbd 952c 8d3e
000001d0: f745 d03d e955 3e3e 679e 8d3e fa1b 583e
000001e0: 1d5d a0be 005d ef3b 9a24 283e fa3b 913e
000001f0: 4eff 3bbe dcab 373e 7a7f cb3d 2aab 5a3e
00000200: 53b8 443e ea0a 6bbe c39b c6bd 83bc c53d
00000210: a769 b03d e5af 663e ec8d 813d 4061 41be
00000220: d884 d33d 4d9d 883e 3d7b 153d b016 893e
00000230: 3b5a c53d a503 8b3e 43dd 74be ac26 833e
00000240: ce04 1c3e de73 11bd cef6 fe3d d6fe dc3d
00000250: d21f 0b3e 4968 9cbe 4e3d 723e 78e7 c53d
00000260: a31b 003e 2961 923e 09b5 3abd 28aa ae3d
00000270: 9fe9 2c3e 19d5 943e a41e d9bd 92b2 073e
00000280: ba3a b33d 7cb3 833e 06f2 89bd 78e6 f43d
00000290: 5b1f ccbc 9085 073e 0b19 f33d da16 34be
000002a0: 7f41 f63d a7e1 233e d075 843d 6d12 f93d
000002b0: 9486 3b3e fe94 833e e957 883e 44c2 513e
000002c0: e30b 0e3e 4588 3b3e 86fe c43d 73d3 393e
000002d0: ad92 183e 37ad 353e 9ac4 a33d 8619 8a3e
000002e0: 26e9 a7be 1aea c3bd 526e 093e 43be 493e
000002f0: 5590 37be 0011 9b3b b199 453c a543 753e
00000300: fd89 763e 37ec b2be d307 68be bb5c d83d
00000310: 1778 773e c83f 763e 124e 213e 70f5 3cbe
00000320: bf5a aa3e c33e cd3d 4204 c43e 3838 de3d
00000330: ddf9 b23d 2b8c e03d 4641 eabd 0d2f b03d
00000340: 6328 3f3e a400 743e e07a cd3c f533 3b3e
00000350: 7fd2 523e 253c 2dbe 07ac a23d 7f6a 3b3e
00000360: d614 993e 6f00 653e 277f 08be 15ca 663e
00000370: 7c72 9b3d 11eb 923d a068 f03c f081 f4bc
00000380: 68e6 a23d ee6f 963e 78c5 da3d 2e14 203e
00000390: 40f6 e1bd bf20 d73d 6b1d 8e3e dfbd 9dbd
000003a0: 5b13 843e 4bad da3d bbab 143e a64f ed3d
000003b0: 6d56 473e 4c10 9f3e 0dab 243e 983d 683e
000003c0: 0198 3e3e 6349 603e c8fd 95bd 41d7 433e
000003d0: 9145 673d 1742 5d3e 437f fd3d f8fd fd3d
000003e0: e79e 97be a72f cabd ad7a 69bd 554f 8d3e
000003f0: e4b6 1ebe 5a13 0ebe fb54 ec3d e42e 243e

A_net.bias f4 [21]
-0.04574018 0.11889307 0.14078955 -0.04629473 0.084983945 -0.0039077085 -0.09350316 0.1718185
0.16310865 -0.018406335 -0.024633862 -0.108579755 0.164375 -0.12789243 0.0063433014 0.07725707
-0.006856607 -0.06500586 -0.043307837 0.016694024 -0.122174025
00000000: 0e5a 3bbd 367e f33d 232b 103e 8b9f 3dbd
00000010: 100c ae3d 3c0c 80bb 967e bfbd 30f1 2f3e
00000020: f405 273e e2c8 96bc f4cc c9bc 105f debd
00000030: ec51 283e 3cf6 02be 78db cf3b f438 9e3d
00000040: 63ad e0bb cb21 85bd 8f63 31bd e8c1 883c
00000050: 6036 fabd

V_net.weight f4 [1, 64]
0.08331552 -0.03396225 -0.037606865 0.03646244 0.061307505 -0.11721988 -0.0836834 0.06620957
-0.07965024 -0.07100025 -0.015387863 0.10690184 -0.1028596 0.008457676 0.02473095 0.049536303
0.079286486 0.05680728 0.11648007 -0.11236206 0.030193284 0.023833051 0.119687796 0.07097718
0.014273584 -0.07868859 -0.060255125 -0.07580331 -0.06474894 0.08642788 -0.053552195 -0.0822974
-0.029723033 -0.086684376 -0.06268127 0.06810376 0.038996488 0.10240808 -0.0768085 -0.0047429353
0.08003901 0.090319544 -0.021928757 -0.050663084 -0.1090907 -0.072200134 0.007485181 -0.02447024
-0.023855314 -0.016173556 -0.007123783 0.08618379 -0.118299454 0.023521617 -0.047903985 -0.08438456
-0.0114353 0.072405756 -0.026612118 -0.076642975 0.1013422 -0.09729649 0.080527335 -0.05240971
00000000: 54a1 aa3d 001c 0bbd a809 1abd a459 153d
00000010: 941d 7b3d fa10 f0bd 3462 abbd e298 873d
00000020: aa1f a3bd 9468 91bd 601d 7cbc 5aef da3d
00000030: 0ea8 d2bd 1092 0a3c 9098 ca3c 94e6 4a3d
00000040: f460 a23d c0ae 683d 1a8d ee3d 141e e6bd
00000050: e857 f73c 883d c33c e01e f53d 7c5c 913d
00000060: c0db 693c 7c27 a1bd 14ce 76bd c43e 9bbd
00000070: 189b 84bd 1a01 b13d 8c59 5bbd 8a8b a8bd
00000080: b87d f3bc 9487 b1bd 0a5f 80bd fc79 8b3d
00000090: c8ba 1f3d 54bb d13d c64d 9dbd a06a 9bbb
000000a0: 7eeb a33d 74f9 b83d f0a3 b3bc 1884 4fbd
000000b0: f26a dfbd aadd 93bd 4046 f53b d075 c8bc
000000c0: 386c c3bc 687e 84bc a06e e9bb 2081 b03d
000000d0: fc46 f2bd 68b0 c03c f836 44bd d0d1 acbd
000000e0: 205b 3bbc 7849 943d a801 dabc fef6 9cbd
000000f0: 808c cf3d 6243 c7bd 84eb a43d 90ab 56bd
