models/model2r+5.pth (torch, 102780 bytes, 33 tensors)

encoder.attn.in_proj_weight f4 [54, 18]
1.0850573 0.7383127 0.40944952 0.8094972 0.4598835 0.43270728 0.87568957 0.94359106
0.653734 0.5174737 0.52152574 0.92734134 0.0023881148 -0.18866809 0.2199821 -0.15940844
0.11888021 0.25084838 -1.109591 -0.9436949 -0.4898232 -0.5557446 -0.65071875 -0.92033464
-0.5547157 -0.6325363 -0.8300796 -0.80817044 -0.5658769 -0.79025453 -0.16107875 -0.1943926
-0.538797 0.08952391 -0.22210549 -0.15985909 -0.8906161 -0.6362626 -0.64282084 -0.7298942
-0.75229204 -0.71900725 -0.2445772 -0.5072863 -0.7109726 -0.18343662 -0.35723108 -0.67815423
-0.28112003 -0.11310603 0.039867632 -0.015473373 -0.18285927 0.14767103 0.8473031 0.7215145
0.30712846 0.73454374 0.56066084 0.74692005 0.7434683 0.79562014 0.50305605 0.6530971
0.7050496 0.6260274 -0.051032003 0.1981934 0.13427761 -0.20124206 0.06220851 -0.16167265
0.65582114 0.68632466 0.6895695 0.58884746 0.3500524 0.2691479 0.67738014 0.29556578
0.6591394 0.280277 0.24482545 0.62971103 0.057105374 -0.09962346 0.26488692 -0.27084866
-0.27229202 0.06507743 -1.0160391 -0.88420725 -0.64136195 -0.6860337 -0.5529348 -0.4014559
-0.8108849 -0.4444288 -0.71586 -0.2242365 -0.45766807 -0.43310896 0.08815882 0.1346462
-0.1416126 0.17243579 -0.23354559 0.19517654 1.1293422 0.9016509 0.7825431 0.8591049
0.43550113 0.40706995 0.82985735 0.9938 0.48347422 0.8098389 0.9953468 0.83441687
-0.04870288 0.15533403 0.40580198 0.15575552 -0.019901058 -0.14563026 -0.7444901 -0.85119766
-0.95258063 -0.56033266 -0.9568636 -0.9474182 -0.54565054 -0.95137465 -1.0371686 -0.5327239
-0.48464176 -0.9521809 -0.008844554 -0.16974571 -0.34260172 -0.084770754 -0.14553906 -0.23382223
-0.63228387 -0.2625121 -0.2984888 -0.49250486 -0.135653 -0.58869797 -0.77212214 -0.5778191
-0.51368374 -0.55407584 -0.5900285 -0.55537325 0.083690815 0.20750818 -0.34928903 0.03479227
0.114389904 0.13036609 -0.66843706 -0.5122718 -0.6576052 -0.75777704 -0.35569257 -0.7139965
-0.96235746 -0.442307 -0.49531516 -0.8662019 -0.83873886 -0.39283407 -0.042133406 -0.27780834
-0.23155035 -0.2733231 0.06973382 -0.05207292 -1.1389173 -0.97694594 -0.6632346 -0.7222696
-0.78225625 -0.6605055 -1.0163294 -0.93402714 -0.75997 -0.80500543 -0.7517615 -0.60078573
0.13839056 -0.035358842 -0.55469537 -0.21223724 -0.17574051 -0.2061337 0.33564377 0.70381707
0.35664153 0.70539516 0.13896847 0.24615827 0.74550235 0.5357986 0.7409254 0.26663578
0.566862 0.59134287 0.006214284 -0.11016243 0.38102308 0.07759139 0.14108354 0.26327732
0.87127125 0.6890324 0.5522036 0.6137369 0.77495766 0.3781965 0.83519095 0.4304645
0.44919696 0.7005893 0.586204 0.8717982 -0.023319105 -0.030198306 0.35719293 0.053213634
0.15664133 -0.1554244 0.8083099 0.61572534 0.8895315 0.7560771 0.5836228 0.84935164
0.55060977 0.8523208 0.60836244 0.7899392 0.7340016 0.46230927 0.21249063 -0.1627709
0.53816986 0.14677086 -0.046821766 -0.21012664 -0.8892823 -0.53814125 -0.95150155 -1.045025
00000000: 28e3 8a3f 1002 3d3f 5ea3 d13e 353b 4f3f
00000010: da75 eb3e cf8b dd3e 312d 603f 2f8f 713f
00000020: 1d5b 273f 2879 043f b682 053f 3e66 6d3f
00000030: eb81 1c3b 3532 41be fd42 613e f73b 23be
00000040: 7877 f33d 336f 803e 1407 8ebf fd95 71bf
00000050: 1bca fabe 4745 0ebf 8195 26bf 0d9b 6bbf
00000060: d901 0ebf e6ed 21bf 1980 54bf 42e4 4ebf
00000070: 4fdd 10bf 1f4e 4abf d4f1 24be db0e 47be
00000080: 9aee 09bf 5058 b73d 9f6f 63be 1ab2 23be
00000090: 6bff 63bf 1be2 22bf e88f 24bf 59da 3abf
000000a0: 3696 40bf dc10 38bf 7272 7abe 84dd 01bf
000000b0: 4d02 36bf cfd6 3bbe fee6 b6be 849b 2dbf
000000c0: f7ee 8fbe 22a4 e7bd 3e4c 233d 0884 7dbc
000000d0: 763f 3bbe 1337 173e dbe8 583f 2db5 383f
000000e0: f13f 9d3e 0f0b 3c3f 7887 0f3f 2736 3f3f
000000f0: f053 3e3f c3ad 4b3f 48c8 003f 5f31 273f
00000100: 217e 343f 5543 203f ef06 51bd 36f3 4a3e
00000110: 1280 093e 6612 4ebe 5ace 7e3d 848d 25be
00000120: e5e3 273f f9b2 2f3f a087 303f b5be 163f
00000130: 113a b33e c1cd 893e c968 2d3f 6654 973e
00000140: 5cbd 283f 7880 8f3e 86b3 7a3e be34 213f
00000150: 53e7 693d 6207 ccbd 429f 873e adac 8abe
00000160: dc69 8bbe 5147 853d 920d 82bf 685b 62bf
00000170: 4c30 24bf e89f 2fbf 238d 0dbf a18b cdbe
00000180: 2796 4fbf 2c8c e3be 9a42 37bf 419e 65be
00000190: 7853 eabe 75c0 ddbe 9d8c b43d b2e0 093e
000001a0: e502 11be 0293 303e 9326 6fbe 5cdc 473e
000001b0: 498e 903f 98d2 663f bf54 483f 4cee 5b3f
000001c0: 01fa de3e 796b d03e 8871 543f ad69 7e3f
000001d0: ef89 f73e 9a51 4f3f 0ccf 7e3f 589c 553f
000001e0: ac7c 47bd e20f 1f3e 47c5 cf3e 607e 1f3e
000001f0: 8b07 a3bc 1920 15be e796 3ebf 17e8 59bf
00000200: 53dc 73bf f671 0fbf 03f5 74bf 008a 72bf
00000210: c1af 0bbf 4a8d 73bf f1c1 84bf 9860 08bf
00000220: f722 f8be 21c2 73bf c0e8 10bc d2d1 2dbe
00000230: 7e69 afbe 4a9c adbd 3108 15be 186f 6fbe
00000240: 5bdd 21bf fc67 86be 86d3 98be 9929 fcbe
00000250: 9fe8 0abe e9b4 16bf cca9 45bf f4eb 13bf
00000260: c780 03bf ead7 0dbf 1c0c 17bf f12c 0ebf
00000270: 1766 ab3d 067d 543e 03d6 b2be 5782 0e3d
00000280: 4145 ea3d b07e 053e b11e 2bbf 3f24 03bf
00000290: d058 28bf adfd 41bf 561d b6be 7ac8 36bf
000002a0: 0f5d 76bf 1076 e2be f399 fdbe 68bf 5dbf
000002b0: 97b7 56bf 8c21 c9be 1494 2cbd e53c 8ebe
000002c0: 891b 6dbe 01f1 8bbe 9bd0 8e3d 6a4a 55bd
000002d0: 0bc8 91bf 2119 7abf bec9 29bf a9e6 38bf
000002e0: f241 48bf e316 29bf 1517 82bf 671c 6fbf
000002f0: 658d 42bf d614 4ebf 7173 40bf 18cd 19bf
00000300: 41b6 0d3e 6fd4 10bd 8400 0ebf b854 59be
00000310: 52f5 33be b614 53be 80d9 ab3e 5b2d 343f
00000320: b899 b63e c794 343f c04d 0e3e ea10 7c3e
00000330: 3ed9 3e3f 192a 093f 49ad 3d3f 7c84 883e
00000340: de1d 113f 3f62 173f 31a1 cb3b d79c e1bd
00000350: 7515 c33e 3ce8 9e3d 3478 103e 49cc 863e
00000360: a20b 5f3f 6d64 303f 375d 0d3f dd1d 1d3f
00000370: a063 463f f9a2 c13e 13cf 553f d865 dc3e
00000380: 25fd e53e d259 333f 7711 163f 2b2e 5f3f
00000390: b507 bfbc 7062 f7bc fee1 b63e 8af6 593d
000003a0: 9666 203e 9327 1fbe 66ed 4e3f 2da0 1d3f
000003b0: 56b8 633f 458e 413f 4e68 153f 1c6f 593f
000003c0: c3f4 0c3f b231 5a3f a4bd 1b3f 7539 4a3f
000003d0: 87e7 3b3f cdb3 ec3e 2597 593e 6aad 26be
000003e0: 80c5 093f 1a4b 163e 2ec8 3fbd 702b 57be
000003f0: 01a8 63bf a0c3 09bf 9b95 73bf 61c3 85bf

encoder.attn.in_proj_bias f4 [54]
0.39847565 -0.5606586 -0.2530538 0.55212617 0.28402546 -0.3712724 0.7264101 -0.44670364
-0.7608243 -0.62391555 -0.75344825 0.37276435 0.3973947 0.4941543 -0.6129388 -0.34660554
-0.46058056 0.37140357 -0.00561298 0.0060935477 0.0019520893 -0.0028398219 -0.0035664493 0.0033088755
-0.004216839 0.0061221635 -0.0010437407 0.0033858672 0.004346835 -0.0050221453 -0.004988639 -0.0022106376
0.0060529946 0.0042227423 0.0015477444 -0.004214808 -0.0060636923 0.0042343014 0.0034013488 -0.017765706
0.01947283 0.0038252787 -0.0056406152 -0.004444093 -0.0024756962 -0.007889765 0.011295815 0.00920788
0.010539229 0.0050006 -0.011850878 0.0050670356 0.008997377 0.0035709925
00000000: 0005 cc3e 5287 0fbf 4590 81be 2458 0d3f
00000010: c96b 913e 6a17 bebe 03f6 393f 57b6 e4be
00000020: 62c5 42bf eeb8 1fbf fce1 40bf f8da be3e
00000030: 5177 cb3e cb01 fd3e 8fe9 1cbf 4876 b1be
00000040: 37d1 ebbe 9c28 be3e 17ed b7bb 62ac c73b
00000050: 3fdd ff3a 4e1c 3abb 17bb 69bb b8d9 583b
00000060: 692d 8abb 6e9c c83b 20ce 88ba 6de5 5d3b
00000070: e56f 8e3b cf90 a4bb bd77 a3bb 58e0 10bb
00000080: 3358 c63b ee5e 8a3b afdd ca3a 5f1c 8abb
00000090: f0b1 c6bb e5bf 8a3b 2ae9 5e3b 6389 91bc
000000a0: 7c85 9f3c 87b1 7a3b e9d4 b8bb c19f 91bb
000000b0: 4a3f 22bb 1344 01bc 1512 393c a6dc 163c
000000c0: bbac 2c3c 13dc a33b 2f2a 42bc 6009 a63b
000000d0: bc69 133c 5007 6a3b

encoder.attn.out_proj.weight f4 [18, 18]
0.13113263 -0.039884485 -0.061296023 -0.12690839 0.057110377 0.17878228 -0.15250483 0.07741958
-0.052319273 -0.03543474 -0.04241264 -0.15141122 -0.21677847 -0.12608531 -0.1559169 -0.21971716
0.114857435 0.0657796 -0.01975073 0.07473036 0.03507562 0.10868721 -0.14974836 0.101690516
-0.037801158 0.14232759 0.021641599 0.09226719 0.22677428 -0.16488488 -0.17027523 -0.21176785
-0.068349026 -0.13916971 0.13062643 0.09682461 -0.035785425 -0.0880329 -0.17779991 -0.074684404
0.042091884 -0.07894011 0.013382968 -0.13282381 0.0027640802 -0.15793921 0.0066754785 -0.14330621
0.1868387 -0.04590294 0.1989615 0.10175094 0.25612086 -0.07852098 -0.16860771 0.025712073
-0.023177203 -0.20200755 -0.12895364 0.010999995 0.13659517 -0.111751765 0.17173654 0.028631063
0.109778985 0.057206392 -0.052423354 0.06473427 0.08486113 0.03410293 -0.23807761 0.13161725
-0.04725965 -0.12978517 -0.09041947 0.17317992 -0.059100963 -0.20436598 -0.20915669 0.10879264
-0.16015103 -0.17126787 -0.03484741 -0.016430419 0.15698612 -0.1403147 0.06312346 -0.09408541
0.19215481 0.1918517 -0.11715759 0.09382996 -0.030985514 -0.10344407 -0.110406496 0.07270713
0.21307456 0.1393789 -0.024545323 0.21302061 -0.065875426 -0.014327937 0.009699843 -0.13837719
-0.058542904 -0.124711834 0.05240111 0.14464694 -0.2482976 0.24076806 0.15770964 -0.00048529843
-0.029322697 -0.22302206 -0.18740034 0.038194206 0.050421692 0.046824187 -0.07677048 -0.21323612
0.15993042 0.047148235 0.18509546 -0.1832558 0.09206928 0.21259081 -0.17218529 0.10139652
0.022540098 0.014861695 0.13134609 0.092548445 0.011286563 0.094206266 -0.00074129447 0.12422231
0.18563347 0.09085167 -0.17179763 -0.11230982 -0.06779275 -0.09555099 -0.11301886 -0.02037713
-0.16275378 0.28537712 0.18311767 -0.14168349 -0.21290763 0.08663914 -0.028749552 -0.15877883
0.22073983 -0.04104564 0.010365071 -0.14810425 0.13395302 0.08483345 -0.12359945 0.09348286
0.21747959 -0.23533885 -0.109994486 -0.13741957 -0.14899367 0.007860655 0.10554693 0.0069858064
0.15428895 -0.0028040952 -0.19190568 0.106869 -0.023325695 -0.1917092 0.1815872 -0.03276547
0.09489711 -0.022326784 0.14070486 0.12169368 0.2034925 -0.029577106 0.045324247 0.038992234
-0.009471112 -0.11079012 0.09258753 0.025668439 0.043532107 0.10000981 0.06904557 -0.26972154
0.16552274 -0.18154548 -0.020830356 0.19066475 -0.19949932 0.059108276 -0.1769316 -0.076751396
0.1673805 -0.17693332 -0.14940609 -0.030394025 -0.078724265 0.19811866 0.13755743 0.009057276
0.044160277 0.22121724 -0.18024825 -0.059623715 0.2136892 0.017330676 -0.04347479 0.1386336
0.06476075 -0.1450331 -0.087447226 -0.07579702 0.1333396 -0.1281203 0.02472655 0.17262736
-0.057275858 0.049535733 0.20747381 0.18879655 0.0014856429 0.13639733 -0.17995474 -0.12782145
0.14879435 0.24606767 -0.08001498 0.019766502 0.028682336 -0.0431177 0.16848025 -0.18996033
0.123699374 -0.14394973 -0.021389132 0.19706431 0.20429482 0.020327369 0.08968531 -0.07682688
-0.01420936 0.00083909836 0.10991457 -0.19907747 0.18646584 0.015566945 0.19639896 0.07235927
00000000: a247 063e ea5d 23bd 8a11 7bbd 46f4 01be
00000010: 92ec 693d b412 373e 3a2a 1cbe 288e 9e3d
00000020: bc4c 56bd 0524 11bd e0b8 2dbd 8b0b 1bbe
00000030: 2dfb 5dbe 821c 01be aea8 1fbe 89fd 60be
00000040: 603a eb3d 74b7 863d 48cc a1bc 3b0c 993d
00000050: 74ab 0f3d 6697 de3d a257 19be 1e43 d03d
00000060: 63d5 1abd 53be 113e b949 b13c 95f6 bc3d
00000070: 8437 683e 95d7 28be a15c 2ebe acd9 58be
00000080: 93fa 8bbd 8182 0ebe efc2 053e fb4b c63d
00000090: bd93 12bd 984a b4bd 2e11 36be 23f4 98bd
000000a0: 8a68 2c3d 5aab a1bd 3c44 5b3c f702 08be
000000b0: 9225 353b d1ba 21be f9bd da3b ddbe 12be
000000c0: a552 3f3e b904 3cbd 90bc 4b3e cc62 d03d
000000d0: 4622 833e 9ccf a0bd 80a7 2cbe 20a2 d23c
000000e0: 1ede bdbc 11db 4ebe 6c0c 04be 5339 343c
000000f0: 9bdf 0b3e 1cde e4bd b4db 2f3e b18b ea3c
00000100: ced3 e03d 4051 6a3d dfb9 56bd 6793 843d
00000110: accb ad3d 84af 0b3d 9eca 73be acc6 063e
00000120: 5693 41bd 67e6 04be d82d b9bd 1456 313e
00000130: da13 72bd 5145 51be 2c2d 56be adce de3d
00000140: a2fe 23be d860 2fbe 28bc 0ebd 1699 86bc
00000150: f8c0 203e a8ae 0fbe df46 813d daaf c0bd
00000160: 3bc4 443e c674 443e 52f0 efbd ec29 c03d
00000170: 55d5 fdbc 7cda d3bd cd1c e2bd 7ae7 943d
00000180: 3830 5a3e 58b9 0e3e 4613 c9bc 1322 5a3e
00000190: b2e9 86bd b9bf 6abc 17ec 1e3c c0b2 0dbe
000001a0: afca 6fbd eb68 ffbd 8ca2 563d 541e 143e
000001b0: ba41 7ebe e78b 763e a37e 213e a76f feb9
000001c0: 2736 f0bc e55f 64be e0e5 3fbe 8771 1c3d
000001d0: fa86 4e3d b8ca 3f3d d739 9dbd 925a 5abe
000001e0: cdc4 233e 821e 413d aa89 3d3e 69a7 3bbe
000001f0: d28e bc3d 68b1 593e 5751 30be fba8 cf3d
00000200: 03a6 b83c 777e 733c 977f 063e 0a8a bd3d
00000210: 47eb 383c 37ef c03d 6e53 42ba 4468 fe3d
00000220: b316 3e3e 7110 ba3d b8eb 2fbe b102 e6bd
00000230: edd6 8abd 3db0 c3bd 6f76 e7bd f0ed a6bc
00000240: eda8 26be f31c 923e 3383 3b3e 7a15 11be
00000250: 7504 5abe dd6f b13d 2e84 ebbc eb96 22be
00000260: 9f09 623e 791f 28bd 42d2 293c a4a8 17be
00000270: fb2a 093e 29bd ad3d b521 fdbd f173 bf3d
00000280: f8b2 5e3e abfc 70be ca44 e1bd b7b7 0cbe
00000290: cc91 18be fac9 003c fd28 d83d 31e9 e43b
000002a0: ecfd 1d3e e9c4 37bb ec82 44be 22de da3d
000002b0: 8715 bfbc 6b4f 44be fff1 393e 1635 06bd
000002c0: 6a59 c23d a9e6 b6bc ef14 103e 893a f93d
000002d0: 5760 503e b04b f2bc eba5 393d 52b6 1f3d
000002e0: b92c 1bbc eee5 e2bd 889e bd3d 9e46 d23c
000002f0: b94e 323d f1d1 cc3d c467 8d3d f118 8abe
00000300: cb7e 293e 0fe7 39be 6ca4 aabc 9f3d 433e
00000310: 8d49 4cbe 851b 723d 8f2d 35be d62f 9dbd
00000320: cb65 2b3e 022e 35be e9fd 18be e4fc f8bc
00000330: 303a a1bd 9edf 4a3e dbdb 0c3e f864 143c
00000340: 68e1 343d c686 623e ff92 38be ff37 74bd
00000350: 57d1 5a3e 10f9 8d3c 9f12 32bd f7f5 0d3e
00000360: 49a1 843d 8f83 14be 8817 b3bd 783b 9bbd
00000370: 2d8a 083e f831 03be 558f ca3c 3ac5 303e
00000380: 179a 6abd fbe5 4a3d 0474 543e e253 413e
00000390: e7b9 c23a beab 0b3e 0e46 38be a0e3 02be
000003a0: 8c5d 183e 2af9 7b3e e5de a3bd 5ced a13c
000003b0: 38f7 ea3c 2f9c 30bd 1686 2c3e f684 42be
000003c0: 1956 fd3d 8f67 13be 4338 afbc 3acb 493e
000003d0: a932 513e 9585 a63c efac b73d 6957 9dbd
000003e0: 60ce 68bc f0f6 5b3a e41a e13d f7da 4bbe
000003f0: e7f0 3e3e 800c 7f3c cf1c 493e 1931 943d

encoder.attn.out_proj.bias f4 [18]
0.020668602 0.00068848365 -0.00039433688 -0.0009501013 0.0069781668 0.0042275568 -0.0013112155 0.0023566396
-0.0154434955 0.009990796 -5.923384e-05 -0.004085391 -0.008601518 -0.0031554594 -0.004022403 -0.011294744
0.009297258 -0.020309687
00000000: 3351 a93c 5b7b 343a 00bf ceb9 3810 79ba
00000010: 1ba9 e43b 5187 8a3b 17dd abba da71 1a3b
00000020: b706 7dbc 70b0 233c da71 78b8 bede 85bb
00000030: 62ed 0cbc d3cb 4ebb 5dce 83bb 970d 39bc
00000040: 8753 183c 8060 a6bc

encoder.feed_forward.0.weight f4 [72, 18]
0.006990926 0.028614463 0.12167314 0.11264979 -0.23642792 0.1863344 0.038379725 0.0063809506
-0.07002351 0.2252664 0.22158144 0.13798696 0.13614732 0.18497562 0.19198105 -0.020948522
-0.1687491 -0.17127877 0.113798454 -0.042517144 -0.15916859 -0.03650466 -0.007791296 0.0688625
0.11094183 0.12275034 0.00047291708 0.090561464 0.24224228 -0.01883773 0.0046450505 0.17928044
0.04166367 0.081038676 0.035956837 -0.203264 0.021891052 -0.07798921 -0.16623858 0.07792631
0.0029355092 -0.09127766 0.10999233 0.1651895 0.07077342 -0.196905 0.23214245 0.03482936
-0.08933468 0.047045328 -0.054919105 0.04370746 0.102950335 0.21026535 0.13420114 -0.04433118
-0.037838075 0.03973816 -0.10504266 0.1393973 0.020003285 -0.08390176 -0.004657561 -0.14675876
0.23934057 -0.23059647 0.01645589 -0.01063358 0.024106877 0.14355831 0.10332983 0.09767091
0.21931863 0.2076563 0.09008409 -0.11010698 -0.19860163 0.16341248 -0.1627658 -0.16330005
0.15518324 0.13285051 0.16408053 -0.22885226 0.07004152 0.18279643 -0.02237404 0.22496855
0.107071415 -0.13007765 -0.14032336 0.19057515 -0.22747675 -0.018869799 -0.14837322 0.16919763
0.0888746 0.19237378 -0.06909332 -0.2100188 0.1452278 -0.06179085 0.067422375 -0.19315718
-0.15574682 0.23501086 0.03193848 -0.08597583 -0.114314996 0.21199284 -0.084149234 0.062142797
-0.12776418 -0.0055298875 -0.015496375 0.21066569 0.076243885 0.14989083 -0.21851496 0.04905583
-0.003854702 -0.16467161 0.17633621 -0.030646473 0.1515758 -0.10384278 -0.0077664857 0.035044897
0.24698219 -0.0044498025 0.20498838 -0.1713393 -0.07072603 0.10512723 0.13346294 0.21875565
-0.039552316 -0.067082986 -0.03144885 -0.05084894 0.16690537 0.0073162494 -0.08949483 0.15175292
-0.10094149 0.096573815 -0.070617765 0.17874868 -0.20358552 0.092977546 0.13082731 0.23519844
-0.13194327 0.22510861 0.10336133 0.110106826 0.03460948 -0.027977802 0.0494655 -0.20513669
0.19197248 -0.0769892 -0.024295714 -0.07960837 -0.2824146 -0.3135646 -0.08463602 -0.2410092
-0.19085455 0.16033305 -0.036735445 0.09934247 0.14699137 -0.11377869 0.10726992 -0.009057174
0.13836087 -0.085800804 -0.16803212 0.1887943 -0.04653387 -0.17125775 -0.070728645 -0.23296659
0.010991511 0.12562597 -0.2494818 -0.21389581 -0.109612636 0.14658624 -0.07804676 0.21013236
-0.09495851 -0.1341744 0.033440523 0.21163966 -0.15492222 -0.16847533 -0.13511819 -3.769048e-05
0.05707845 -0.13039729 0.048717488 -0.115616575 -0.10950716 0.1351076 -0.13079992 -0.12869625
-0.13503014 -0.0026208535 -0.09325409 -0.1781387 -0.20464903 -0.0405797 0.16390681 -0.095715456
0.032449506 0.08576387 0.030374754 -0.05932322 0.14074953 0.1801567 -0.095413476 -0.15602776
-0.23061267 -0.027042544 -0.18795797 0.12741897 -0.19513471 -0.10049741 -0.17151055 -0.037293408
-0.00023791326 0.17927225 -0.059829786 -0.0743798 -0.26900068 -0.08995453 -0.13205229 -0.20581816
-0.013630643 -0.22495106 -0.10585106 0.015185552 -0.11724799 0.117560156 0.06283727 -0.04750113
0.056247454 -0.12393169 -0.115605764 -0.12684703 0.105844185 -0.014225585 -0.23162013 0.058118023
00000000: 2314 e53b e168 ea3c c42f f93d efb4 e63d
00000010: 291a 72be 72ce 3e3e 0f34 1d3d 4b17 d13b
00000020: 7c68 8fbd 3cac 663e 3fe6 623e 744c 0d3e
00000030: 346a 0b3e 406a 3d3e ae96 443e 3c9c abbc
00000040: 90cc 2cbe b463 2fbe 2a0f e93d 7526 2ebd
00000050: 17fd 22be e985 15bd 214e ffbb c807 8d3d
00000060: 7835 e33d 8864 fb3d dbf1 f739 4a78 b93d
00000070: 5c0e 783e 9551 9abc 8235 983b 4b95 373e
00000080: 86a7 2a3d 9bf7 a53d 7a47 133d 7024 50be
00000090: dd54 b33c cfb8 9fbd 723a 2abe d497 9f3d
000000a0: ac61 403b c8ef babd a943 e13d 7027 293e
000000b0: a8f1 903d 77a1 49be c0b6 6d3e 3ba9 0e3d
000000c0: 1af5 b6bd 9ab2 403d dbf2 60bd 9806 333d
000000d0: a0d7 d23d cd4f 573e 066c 093e 9d94 35bd
000000e0: 19fc 1abd 7bc4 223d 9b20 d7bd 2abe 0e3e
000000f0: eedd a33c b0d4 abbd 749e 98bb ee47 16be
00000100: b215 753e 7b21 6cbe 81ce 863c 7838 2ebc
00000110: c97b c53c f300 133e 979e d33d b007 c83d
00000120: 1095 603e daa3 543e 027e b83d c57f e1bd
00000130: 3a5e 4bbe 9a55 273e 14ac 26be 2138 27be
00000140: 5be8 1e3e f709 083e ba04 283e 3f58 6abe
00000150: ee71 8f3d fd2e 3b3e c349 b7bc 285e 663e
00000160: 4248 db3d 1333 05be edb0 0fbe 2226 433e
00000170: aaef 68be d694 9abc 26ef 17be 2542 2d3e
00000180: e303 b63d a2fd 443e cc80 8dbd 2b0f 57be
00000190: 99b6 143e 6718 7dbd be14 8a3d ffca 45be
000001a0: 187c 1fbe b0a6 703e ecd1 023d 1914 b0bd
000001b0: fb1d eabd a714 593e 6f56 acbd 7289 7e3d
000001c0: 9dd4 02be 0f34 b5bb 82e4 7dbc bfb8 573e
000001d0: c125 9c3d fb7c 193e 63c2 5fbe c4ee 483d
000001e0: 2b9f 7cbb ad9f 28be 7b91 343e 500e fbbc
000001f0: b036 1b3e 86ab d4bd 017e febb 3d8b 0f3d
00000200: e6e8 7c3e a6cf 91bb 79e8 513e 9273 2fbe
00000210: cfd8 90bd f24c d73d 82aa 083e 7b01 603e
00000220: 9c01 22bd ce62 89bd 82d0 00bd fa46 50bd
00000230: 3ee9 2a3e 26bd ef3b 1149 b7bd 1e65 1b3e
00000240: 69ba cebd 7ec8 c53d 0ca0 90bd e509 373e
00000250: b978 50be 036b be3d 98f7 053e dcd7 703e
00000260: 231c 07be df82 663e 1baf d33d b07f e13d
00000270: acc2 0d3d b431 e5bc 569c 4a3d 5a0f 52be
00000280: 6f94 443e 84ac 9dbd ce07 c7bc b709 a3bd
00000290: a598 90be 8a8b a0be a655 adbd 1ecb 76be
000002a0: 606f 43be 592e 243e e877 16bd 1174 cb3d
000002b0: e884 163e cd04 e9bd 55b0 db3d 8b64 14bc
000002c0: 79ae 0d3e 55b8 afbd 9d10 2cbe 4b53 413e
000002d0: 4d9a 3ebd 315e 2fbe 2eda 90bd cb8e 6ebe
000002e0: bd15 343c 18a4 003e 2878 7fbe 8107 5bbe
000002f0: 977c e0bd b41a 163e fbd6 9fbd f02c 573e
00000300: 9b79 c2bd 0465 09be eef8 083d 11b8 583e
00000310: eea3 1ebe cc84 2cbe 6c5c 0abe d815 1eb8
00000320: 18cb 693d de86 05be fd8b 473d 62c8 ecbd
00000330: 4a45 e0bd a659 0a3e 6af0 05be f3c8 03be
00000340: 5745 0abe a0c2 2bbb 00fc bebd fe69 36be
00000350: 848f 51be e636 26bd 30d7 273e 7706 c4bd
00000360: c6e9 043d f8a4 af3d 7ad4 f83c e8fc 72bd
00000370: a520 103e ff7a 383e 2468 c3bd bec5 1fbe
00000380: ba25 6cbe 5388 ddbc 0e78 40be 1e7a 023e
00000390: 65d1 47be 96d1 cdbd 76a0 2fbe f9c0 18bd
000003a0: 5b78 79b9 2593 373e 1410 75bd 7054 98bd
000003b0: 75ba 89be 153a b8bd b738 07be ffc1 52be
000003c0: 0f53 5fbc 9259 66be 71c8 d8bd d2cc 783c
000003d0: b71f f0bd 61c3 f03d d4b0 803d 8b90 42bd
000003e0: bb63 663d e6cf fdbd b7c2 ecbd 30e4 01be
000003f0: d6c4 d83d 6e12 69bc d42d 6dbe 2a0d 6e3d

encoder.feed_forward.0.bias f4 [72]
-0.13693334 0.14559615 -0.15730281 0.1378358 -0.12688704 0.05776773 0.18514942 0.18554868
0.08927164 0.13084842 -0.1253087 -0.11991254 -0.19855294 0.028153993 0.021071626 0.0757199
-0.13938844 -0.07273498 0.086539745 -0.18717606 0.051591486 -0.0323834 0.14038457 -0.100257136
-0.102564536 -0.23890175 0.19959842 0.21900924 -0.0823164 0.009075141 0.092865326 -0.12785794
-0.1374951 0.13149312 0.11177083 0.19500989 0.1785007 -0.10272239 0.043864924 -0.102126285
-0.032863013 0.027843837 -0.19780716 0.07173647 0.10682689 -0.1740354 -0.12621562 0.2150011
-0.16538927 -0.05817858 0.2743439 0.02989312 0.21018772 -0.14861663 -0.12773569 0.08603367
-0.10299324 -0.21611162 0.1915494 0.14087707 0.17287567 -0.06711268 -0.07046747 -0.044393174
0.097566955 0.056455664 -0.07329069 0.087958865 -0.11139812 -0.091978416 0.13879552 -0.09619849
00000000: 4138 0cbe 2817 153e fd13 21be d424 0d3e
00000010: adee 01be db9d 6c3d cf97 3d3e 7900 3e3e
00000020: 0dd4 b63d 21fd 053e ed50 00be b594 f5bd
00000030: 7651 4bbe 34a3 e63c 679e ac3c 0913 9b3d
00000040: d8bb 0ebe 14f6 94bd c03b b13d 15ab 3fbe
00000050: 9851 533d 75a4 04bd f9c0 0f3e 9d53 cdbd
00000060: 5b0d d2bd a9a2 74be 8763 4c3e f543 603e
00000070: 8095 a8bd e6af 143c 2d30 be3d 31ed 02be
00000080: 84cb 0cbe 22a6 063e 1be8 e43d acb0 473e
00000090: e3c8 363e 1e60 d2bd b5ab 333d 9627 d1bd
000000a0: 5e9b 06bd c218 e43c f68d 4abe 92ea 923d
000000b0: 0ec8 da3d 5636 32be ab3e 01be 4029 5c3e
000000c0: ce5b 29be aa4c 6ebd ce76 8c3e 6be2 f43c
000000d0: 733b 573e f52e 18be 25cd 02be 6c32 b03d
000000e0: 1fee d2bd 5d4c 5dbe 8725 443e 1442 103e
000000f0: 5206 313e 5f72 89bd 4051 90bd 9ed5 35bd
00000100: 2fd1 c73d 0e3e 673d 6e19 96bd c723 b43d
00000110: b324 e4bd 2e5f bcbd 6a20 0e3e b703 c5bd

encoder.feed_forward.2.weight f4 [36, 72]
0.010633344 0.037628625 -0.036376946 -0.08867814 -0.112429254 -0.07281154 0.024377843 -0.10554402
-0.030942678 0.009824994 -0.020071931 0.021724137 -0.06399165 0.003127857 -0.050787687 0.115817845
0.012405463 0.02742289 0.022910923 0.03234668 -0.0068264226 0.012568816 -0.113739744 0.04258668
-0.00060089247 -0.037617996 0.07307994 0.008555772 -0.021878753 0.07274717 0.13272436 -0.023450598
-0.08282207 0.027360622 -0.0348309 -0.0031583786 -0.068452895 0.020561613 0.046620037 0.14785986
0.048268616 0.08082405 -0.018893985 0.03771355 0.057936136 0.039188676 -0.07623745 0.050037052
0.033204127 -0.065736815 -0.06355002 0.036927998 -0.012904334 0.10731307 0.0032088796 0.1075748
0.081916094 -0.015919996 -0.111848556 -0.10065657 -0.10740262 -0.052990213 -0.047671583 -0.03671063
0.056283955 -0.032321747 -0.022043128 0.12031885 0.038069673 -0.04828938 -0.12028365 -0.07777532
0.015899913 0.008021294 0.06462423 -0.003841834 0.005409336 -0.047028445 -0.019598616 0.02739604
-0.034320634 -0.0016721314 0.02185745 -0.030583285 0.0631253 0.009216731 0.09358061 -0.07827389
-0.083220765 -0.039277308 -0.030236283 -0.11955086 -0.04130661 -0.06022871 0.094036356 0.0219662
0.064931884 -0.15608126 -0.081686705 -0.17112526 -0.04738222 0.0315909 -0.0448791 0.006795981
-0.1426832 -0.06930845 -0.08479254 0.07608663 -0.07553182 -0.056267545 -0.07126075 -0.07110483
0.02252554 0.048549265 0.062603526 -0.0154405115 -0.10217268 -0.08479761 0.063128345 -0.07003373
-0.09061353 -0.056543052 -0.0771646 0.07767294 -0.048875496 -0.028075172 0.05263799 0.0037398243
0.054638796 -0.03564876 -0.051826034 -0.017150966 0.06985554 -0.036919057 0.036801025 -0.07407007
0.026812546 0.061417725 0.05239721 -0.14320809 -0.05725448 -0.16109437 0.013613228 -0.0071827085
0.0010571213 0.008942245 -0.00024537861 0.09999762 -0.06902003 0.020987744 -0.08485873 0.09172526
-0.025742376 -0.05705397 0.02340124 -0.078921005 -0.015142026 0.056805033 -0.0021541459 -0.0007556623
0.0014210523 0.032233827 -0.07337201 0.0030421491 -0.06262616 0.10672938 0.13293865 0.10508491
0.06710524 -0.071181744 0.0667429 -0.011890287 -0.046791967 0.021858325 0.004207808 -0.003988615
0.11270258 0.09863446 -0.036618482 0.18581676 0.09785091 -0.009645429 -0.085965544 0.12754379
0.12818812 -0.09310736 0.010813544 -0.036859035 -0.01801873 0.044229437 0.0034044432 -0.07003878
0.03387731 -0.006681389 -0.002805314 -0.07289102 -0.021776985 -0.0042961705 0.13718541 0.08908467
0.007173702 0.08667264 -0.104066245 -0.067738764 0.032019712 0.0907637 0.07719149 0.049912415
0.060788136 -0.028305192 -0.021487478 0.104714125 0.09281972 -0.10844013 0.17691389 0.09999757
0.07875171 0.011132001 -0.109969445 0.09650018 -0.026438942 -0.0623309 0.029321201 -0.09398691
0.011048477 0.13502471 -0.05000175 -0.115130596 0.024079861 0.011623326 -0.026104707 -0.07210377
-0.04249137 -0.018396847 -0.054463096 0.008544626 -0.083804645 -0.07335831 -0.11494142 0.008067165
0.087386556 0.11920901 -0.11634465 0.02117528 0.096654125 -0.021355376 -0.059446122 -0.12121772
-0.07920291 -0.041292492 -0.06601634 -0.10627545 0.057440616 0.09197319 0.017731952 -0.11625502
00000000: 7a37 2e3c 7920 1a3d feff 14bd e29c b5bd
00000010: 4f41 e6bd 371e 95bd 0bb4 c73c 7727 d8bd
00000020: 807b fdbc 03f9 203c e46d a4bc d1f6 b13c
00000030: 0e0e 83bd bcfc 4c3b c006 50bd e831 ed3d
00000040: 4840 4b3c f8a5 e03c b0af bb3c f47d 043d
00000050: 2fb0 dfbb 6fed 4d3c 62f0 e8bd 5f6f 2e3d
00000060: 3685 1dba 5415 1abd f0aa 953d 822d 0c3c
00000070: 123b b3bc 78fc 943d e5e8 073e 781b c0bc
00000080: 9e9e a9bd 6223 e03c d9aa 0ebd cdfc 4ebb
00000090: 0831 8cbd d470 a83c a7f4 3e3d 9368 173e
000000a0: 50b5 453d 1487 a53d 8fc7 9abc 8679 1a3d
000000b0: 714e 6d3d 4e84 203d 6122 9cbd a7f3 4c3d
000000c0: 0d01 083d 06a1 86bd 8326 82bd d041 173d
000000d0: b36c 53bc f4c6 db3d 114c 523b 2d50 dc3d
000000e0: a0c3 a73d a76a 82bc db10 e5bd 0825 cebd
000000f0: e8f5 dbbd 440c 59bd 4743 43bd e35d 16bd
00000100: 018a 663d cf63 04bd ca93 b4bc bb69 f63d
00000110: f2ee 1b3d 16cb 45bd 4657 f6bd ab48 9fbd
00000120: 8940 823c bf6b 033c b559 843d 47c7 7bbb
00000130: cd40 b13b e6a0 40bd 478d a0bc a96d e03c
00000140: cb93 0cbd 6b2b dbba 650e b33c cc89 fabc
00000150: d647 813d c601 173c 31a7 bf3d 104e a0bd
00000160: a66f aabd 3ee1 20bd 15b2 f7bc 15d7 f4bd
00000170: 1f31 29bd 61b2 76bd 2296 c03d 76f2 b33c
00000180: 02fb 843d c4d3 1fbe 5c4b a7bd 763b 2fbe
00000190: dc13 42bd 7665 013d 26d3 37bd d2b0 de3b
000001a0: 8b1b 12be 97f1 8dbd b6a7 adbd 4fd3 9b3d
000001b0: 6db0 9abd cc78 66bd 28f1 91bd 699f 91bd
000001c0: 7b87 b83c 98db 463d 4736 803d 33fa 7cbc
000001d0: e93f d1bd 5faa adbd 6f49 813d d86d 8fbd
000001e0: 9693 b9bd b099 67bd 7908 9ebd fe12 9f3d
000001f0: ac31 48bd e7fd e5bc ef9a 573d d717 753b
00000200: eecc 5f3d 6f04 12bd 8947 54bd 2f80 8cbc
00000210: 6c10 8f3d 7038 17bd acbc 163d 0db2 97bd
00000220: fca5 db3c 2791 7b3d 759e 563d 24a5 12be
00000230: ac83 6abd ecf5 24be 040a 5f3c ed5c ebbb
00000240: 1b8f 8a3a 7e82 123c 29a6 80b9 8dcb cc3d
00000250: 605a 8dbd 7dee ab3c 6aca adbd 74da bb3d
00000260: ade1 d2bc 6cb1 69bd f5b3 bf3c 56a1 a1bd
00000270: 4316 78bc 65ac 683d 922c 0dbb a317 46ba
00000280: 9a42 ba3a 9e07 043d 1044 96bd cb5e 473b
00000290: 2542 80bd ef94 da3d 1221 083e c236 d73d
000002a0: 796e 893d bcc7 91bd 80b0 883d 7acf 42bc
000002b0: efa8 3fbd 3b10 b33c a7e1 893b edb2 82bb
000002c0: 9cd0 e63d dd00 ca3d 43fd 15bd c046 3e3e
000002d0: 0f66 c83d dd07 1ebc b40e b0bd d79a 023e
000002e0: bf43 033e 12af bebd 4a2b 313c 80f9 16bd
000002f0: 049c 93bc ed29 353d 141d 5f3b 7e70 8fbd
00000300: efc2 0a3d 8eef dabb 5cd9 37bb e347 95bd
00000310: a665 b2bc e4c6 8cbb 557a 0c3e 0672 b63d
00000320: 6011 eb3b 6d81 b13d af20 d5bd 9fba 8abd
00000330: 1a27 033d 52e2 b93d 9216 9e3d f670 4c3d
00000340: fbfc 783d 4ae0 e7bc 8206 b0bc 5c74 d63d
00000350: 4418 be3d dc15 debd ea28 353e 87cb cc3d
00000360: 9448 a13d ff62 363c a937 e1bd e3a1 c53d
00000370: 7b96 d8bc b04e 7fbd 0433 f03c 367c c0bd
00000380: ac04 353c eb43 0a3e a3ce 4cbd 97c9 ebbd
00000390: 2143 c53c c36f 3e3c 8ad9 d5bc 24ab 93bd
000003a0: 6e0b 2ebd fcb4 96bc b214 5fbd c2fe 0b3c
000003b0: c5a1 abbd e23c 96bd 6866 ebbd 242c 043c
000003c0: b9f7 b23d da23 f43d 1b46 eebd c877 ad3c
000003d0: 99f2 c53d 78f1 aebc c77d 73bd ff40 f8bd
000003e0: 2335 a2bd 5122 29bd 9333 87bd f1a6 d9bd
000003f0: da46 6b3d 715c bc3d 9942 913c 1d17 eebd

encoder.feed_forward.2.bias f4 [36]
0.001137336 0.031421576 -0.06223461 0.08792133 -0.06677706 -0.06287693 0.046036735 0.028573195
0.115227945 0.0061061657 0.03128318 -0.054020885 -0.07771899 -0.057300422 0.099680856 0.0483414
-0.033125434 -0.049637616 0.05239648 -0.0045870724 -0.052206777 0.08529778 0.010550348 -0.11503108
0.037206847 0.013293528 0.09173715 -0.008995988 -0.056220982 0.0016352265 -0.08941949 0.10574145
-0.062161896 0.027224107 -0.07982454 0.007629284
00000000: aa12 953a e9b3 003d b8e9 7ebd 1910 b43d
00000010: 69c2 88bd 9fc5 80bd 0491 3c3d 5512 ea3c
00000020: a1fc eb3d 3b16 c83b cb22 003d 0145 5dbd
00000030: 222b 9fbd d9b3 6abd 7a25 cc3d a201 463d
00000040: 89ae 07bd d050 4bbd b19d 563d 274f 96bb
00000050: c6d6 55bd 9ab0 ae3d 5edb 2c3c 6a95 ebbd
00000060: 3566 183d 19cd 593c b0e0 bb3d e963 13bc
00000070: f947 66bd 1955 d63a 9121 b7bd f98e d83d
00000080: 799d 7ebd 1705 df3c 0c7b a3bd 13ff f93b

encoder.norm0.weight f4 [18]
0.9198261 0.9870672 1.0372473 0.991812 1.009385 1.0003836 1.0155165 0.9531637
0.9849653 1.0021296 1.0016497 0.97109586 0.99138325 0.97068137 0.9822955 0.9817004
0.9473839 1.0445652
00000000: b979 6b3f 70b0 7c3f 85c4 843f 64e7 7d3f
00000010: 8733 813f 920c 803f 72fc 813f 8902 743f
00000020: b026 7c3f c845 803f 0f36 803f bd99 783f
00000030: 4bcb 7d3f 937e 783f b877 7b3f b850 7b3f
00000040: c087 723f 50b4 853f

encoder.norm0.bias f4 [18]
-0.04613181 -0.008337734 0.029148273 0.016646843 0.007414679 -0.04954587 -0.036935043 -0.013333093
0.010196291 -0.004886649 -0.013708796 0.0104892915 -0.014874227 0.0018755597 0.023107119 0.02569613
-0.046946734 0.020769376
00000000: b5f4 3cbd fe9a 08bc 5cc8 ee3c f65e 883c
00000010: d6f6 f23b 9cf0 4abd 3349 17bd 0c73 5abc
00000020: 580e 273c 2f20 a0bb dc9a 60bc 47db 2b3c
00000030: 08b3 73bc 57d5 f53a 244b bd3c b180 d23c
00000040: 384b 40bd 8a24 aa3c

encoder.norm1.weight f4 [36]
0.9799745 0.94814444 0.9115864 0.96107835 0.99590135 0.9866088 0.9820158 0.97388595
0.9153491 1.1031048 0.9824839 1.015162 0.9705516 0.99552953 1.0267444 0.9598263
1.0018743 0.95784396 0.9503059 0.9142101 1.00136 0.9492086 0.8940191 1.0248538
0.9851963 1.0142606 0.9611395 1.0204847 1.0163047 0.98033255 0.9947742 1.0141532
0.96092814 0.9944568 0.99417925 0.97501105
00000000: 9cdf 7a3f 98b9 723f ba5d 693f 3b09 763f
00000010: 64f3 7e3f 6592 7c3f 6365 7b3f 9750 793f
00000020: 5254 6a3f 8a32 8d3f 1184 7b3f d4f0 813f
00000030: 1276 783f 06db 7e3f 5c6c 833f 2db7 753f
00000040: 6b3d 803f 4335 753f 3f47 733f ac09 6a3f
00000050: 912c 803f 56ff 723f 70de 643f 692e 833f
00000060: d335 7c3f 4bd3 813f 3d0d 763f 3e9f 823f
00000070: 4616 823f 13f7 7a3f 86a9 7e3f c6cf 813f
00000080: 63ff 753f b994 7e3f 8882 7e3f 539a 793f

encoder.norm1.bias f4 [36]
0.004756238 -0.04326678 0.03440141 -0.034735106 -0.040586863 0.03675085 0.01873361 0.012362672
-0.0157446 0.027889911 -0.023333116 0.03168191 0.00020760667 0.0074129677 -0.038981795 -0.016759994
-0.032624952 0.01346022 -0.013643422 -0.00934927 -0.0031288413 0.033767637 -0.03562367 -0.011169257
0.017078841 -0.019922521 -0.0018219332 -0.0027826587 0.04918936 0.02620831 -0.045308627 -0.002582172
-0.026876314 0.008092045 -0.021134058 -0.00041722544
00000000: 37da 9b3b 8238 31bd 7ee8 0c3d 6646 0ebd
00000010: 693e 26bd 0f88 163d 3a77 993c ce8c 4a3c
00000020: d2fa 80bc 6279 e43c 1725 bfbc e4c4 013d
00000030: feb0 5939 7be8 f23b 60ab 1fbd 414c 89bc
00000040: bea1 05bd 4188 5c3c a988 5fbc ae2d 19bc
00000050: 3f0d 4dbb ef4f 0a3d 20ea 11bd 42ff 36bc
00000060: ede8 8b3c 8e34 a3bc efcd eeba 445d 36bb
00000070: c87a 493d cfb2 d63c 8a95 39bd a839 29bb
00000080: b72b dcbc 7f94 043c 5521 adbc 0dbf dab9

decoder.attn_0.in_proj_weight f4 [108, 36]
0.08316566 0.050104443 0.016502775 0.14935887 -0.102445506 -0.025456743 0.19105653 0.13217708
0.020786129 -0.059267294 0.03333768 0.051440086 0.01763932 -0.12704127 0.08151149 -0.17341587
0.0572848 -0.11869536 -0.088643424 0.06128943 0.16723895 0.04384043 0.048687577 0.084158175
0.13974129 0.021032067 0.062488638 0.092368685 0.008447273 -0.18529052 -0.06269063 -0.037772752
0.081982784 0.18655394 0.034879573 0.1172856 -0.0052207136 0.0094731 -0.053256143 0.12911107
0.00013605804 -0.03661377 0.040519275 -0.118146814 -0.0044760113 -0.074699305 0.18428487 0.187045
-0.07011159 -0.09351107 0.02204962 0.13768207 0.1498942 -0.00754214 -0.16002803 0.14160478
-0.14373127 -0.15405867 -0.03139533 0.1970223 0.041232344 -0.15244213 -0.16219144 -0.03051227
0.13208847 0.09851895 0.06596139 0.024477586 0.19658536 0.06571434 -0.14153042 0.02712709
0.16849561 -0.020248432 -0.11109328 -0.19115229 0.045522094 -0.004998573 0.16091993 -0.18737367
0.021431427 0.062383197 0.18561974 0.07970023 -0.11281544 -0.16455197 0.1538359 0.10401479
0.17091641 -0.19697832 -0.04893916 0.16817163 -0.025970763 0.077999175 0.017821336 -0.169992
0.08751337 -0.019844519 0.07567442 0.09572982 -0.0067409105 0.00063375506 0.009121919 -0.16269594
-0.13332711 -0.12976538 0.120266184 0.05322407 0.010591759 -0.15871133 0.10574237 0.071651295
0.024504427 -0.15078633 -0.031874873 -0.19843043 0.024784189 -0.05397201 -0.15187027 0.18019308
-0.07263753 0.12758918 -0.030102907 -0.13830577 0.19172746 0.15281221 -0.17488357 0.16061684
-0.074912325 0.035879534 0.054463476 -0.04099733 -0.02861596 -0.13533813 0.19493245 -0.06927936
-0.13445799 0.0011274222 0.0990532 -0.082904175 0.06601561 -0.023122758 0.17852466 -0.10655382
0.14285982 0.046981048 0.17934255 -0.08095919 0.16988929 0.060562737 0.057072464 -0.12517595
-0.18667763 0.16478458 -0.158039 -0.084738724 0.021022797 0.16442153 0.07827903 0.09230717
-0.03128975 -0.1264252 -0.029862566 0.16514012 -0.018350273 -0.1524664 -0.119786814 0.09419694
-0.12275776 -0.07050779 0.03995491 0.056783624 0.19347969 -0.021461943 0.07972359 -0.090380564
-0.039304547 0.16174221 -0.13304015 0.113393165 -0.076382406 -0.016887732 0.11449552 0.12604074
-0.023427377 0.1490406 -0.14872564 -0.1878352 -0.13104948 -0.06900709 0.0681743 0.19691144
0.016889606 -0.07170994 0.046299912 -0.083756626 0.09881891 0.17276701 0.14501281 -0.011711346
-0.18028799 0.09678103 -0.094077624 -0.17496327 0.1870145 -0.07097209 -0.0185199 0.05331644
-0.18056658 0.0539495 0.082701646 -0.111874536 -0.1628345 0.16094857 -0.113229886 -0.10225624
-0.032444056 0.069717556 0.18696232 -0.070311785 0.049077645 0.095077224 0.08621474 -0.13685477
-0.046209343 -0.0369824 -0.02481103 0.19006935 0.12763889 -0.08573301 0.018627577 -0.063555196
0.063478425 -0.19479571 -0.13861595 0.17263749 -0.185724 -0.19253202 -0.1080801 -0.07306139
-0.0010225205 0.04967265 0.11373352 -0.09211941 -0.117303535 -0.15594132 -0.15065677 0.117021896
-0.13866042 -0.19747308 -0.009343329 -0.1419221 -0.18317056 0.146847 -0.08957712 -0.18560901
00000000: c252 aa3d 513a 4d3d d430 873c 88f1 183e
00000010: f3ce d1bd a98a d0bc 53a4 433e 6e59 073e
00000020: ac47 aa3c 43c2 72bd 178d 083d d7b2 523d
00000030: 5680 903c 1b17 02be 7fef a63d ee93 31be
00000040: 77a3 6a3d 8e16 f3bd af8a b5bd a00a 7b3d
00000050: b040 2b3e 0692 333d a06c 473d 1f5b ac3d
00000060: 5718 0f3e 714b ac3c 16f4 7f3d cb2b bd3d
00000070: 6e66 0a3c ccbc 3dbe f263 80bd 9ab7 1abd
00000080: 97e6 a73d ff07 3f3e e2dd 0e3d 6f33 f03d
00000090: 8512 abbb 1035 1b3c 1d23 5abd b135 043e
000000a0: cdaa 0e39 52f8 15bd 8af7 253d f5f6 f1bd
000000b0: 81ab 92bb f3fb 98bd 2cb5 3c3e b988 3f3e
000000c0: aa96 8fbd bb82 bfbd 68a1 b43c 87fc 0c3e
000000d0: dd7d 193e 0e24 f7bb 63de 23be d800 113e
000000e0: 4a2e 13be 8ec1 1dbe 6498 00bd 37c0 493e
000000f0: 3fe3 283d ca19 1cbe 8315 26be def4 f9bc
00000100: 3342 073e 4ec4 c93d c416 873d 3885 c83c
00000110: ac4d 493e 3d95 863d 5aed 10be a239 de3c
00000120: 1d8a 2c3e 0ae0 a5bc e084 e3bd 6dbd 43be
00000130: 6075 3a3d 12cb a3bb 32c8 243e e2de 3fbe
00000140: f690 af3c 8685 7f3d 1a13 3e3e e039 a33d
00000150: c80b e7bd 5080 28be 2887 1d3e b505 d53d
00000160: b604 2f3e afb4 49be 6e74 48bd 2f35 2c3e
00000170: a3c0 d4bc 08be 9f3d 0dfe 913c 6212 2ebe
00000180: 363a b33d f990 a2bc 31fb 9a3d ff0d c43d
00000190: dbe2 dcbb 9522 263a 1a74 153c c499 26be
000001a0: e786 08be 37e1 04be 1e4e f63d 7c01 5a3d
000001b0: 0f89 2d3c 3985 22be 758f d83d eabd 923d
000001c0: 82bd c83c bb67 1abe 3a8f 02bd 5931 4bbe
000001d0: 3608 cb3c c111 5dbd e183 1bbe 8984 383e
000001e0: fcc2 94bd bda6 023e 5f9a f6bc 07a0 0dbe
000001f0: 3454 443e ce7a 1c3e ae14 33be be78 243e
00000200: a26b 99bd 6bf6 123d 1815 5f3d d1ec 27bd
00000210: 056c eabc 1496 0abe 5f9c 473e 56e2 8dbd
00000220: 5baf 09be 03c6 933a 67dc ca3d aac9 a9bd
00000230: 3133 873d f06b bdbc 2bcf 363e e438 dabd
00000240: d849 123e 336f 403d 93a5 373e efcd a5bd
00000250: 75f7 2d3e a210 783d d1c4 693d 202e 00be
00000260: 6c28 3fbe 4abd 283e fad4 21be 7f8b adbd
00000270: 0038 ac3c 1e5e 283e c250 a03d 8b0b bd3d
00000280: ae29 00bd 9c75 01be 57a2 f4bc 7e1a 293e
00000290: 5053 96bc 2720 1cbe ca52 f5bd 53ea c03d
000002a0: 6c68 fbbd 6366 90bd c2a7 233d f295 683d
000002b0: 8a1f 463e f5d0 afbc 1f46 a33d 7219 b9bd
000002c0: cefd 20bd c09f 253e ad3b 08be ad3a e83d
000002d0: 616e 9cbd 2458 8abc a17c ea3d d310 013e
000002e0: c5ea bfbc 199e 183e 894b 18be df57 40be
000002f0: d631 06be 9753 8dbd f89e 8b3d 27a3 493e
00000300: 125c 8a3c a9dc 92bd faa4 3d3d 9888 abbd
00000310: 9261 ca3d d6e9 303e 3d7e 143e f2e0 3fbc
00000320: 6a9d 38be 2235 c63d c5ab c0bd 9229 33be
00000330: bb80 3f3e d159 91bd 0cb7 97bc 5762 5a3d
00000340: 72e6 38be 27fa 5c3d 7b5f a93d 7a1e e5bd
00000350: 16be 26be b4cf 243e 12e5 e7bd b86b d1bd
00000360: 0fe4 04bd 14c8 8e3d 0d73 3f3e a0ff 8fbd
00000370: a405 493d d9b7 c23d 5b91 b03d a823 0cbe
00000380: 0246 3dbd db7a 17bd 8040 cbbc 8aa1 423e
00000390: c5b3 023e ca94 afbd dc98 983c 3a29 82bd
000003a0: fa00 823d 8778 47be 57f1 0dbe e2c7 303e
000003b0: 6f2e 3ebe 1d27 45be 1959 ddbd 36a1 95bd
000003c0: 1806 86ba 8c75 4b3d 1fed e83d 1aa9 bcbd
000003d0: d63c f0bd 15af 1fbe c545 1abe 2da9 ef3d
000003e0: fffc 0dbe 6236 4abe c314 19bc 0754 11be
000003f0: 1091 3bbe 0f5f 163e 3674 b7bd 4a10 3ebe

decoder.attn_0.in_proj_bias f4 [108]
0.13474357 0.11702013 0.12624574 0.18198994 0.18355975 0.24811052 0.2067758 0.21004288
0.25831798 0.22279753 0.23948568 0.14554444 0.195009 0.12119081 -0.31684637 -0.18158528
0.11324838 0.08485005 0.13488227 -0.124639444 0.27383706 -0.13676131 -0.120628886 0.16009088
0.20000991 0.16839953 -0.30377614 0.20235915 -0.30560875 -0.28905633 -0.20587708 0.27547735
0.31121457 0.3103561 -0.1418095 0.14466274 0.00018905126 0.00070603733 0.00027393643 0.00066534715
0.00053006405 0.00023218791 0.0010634926 0.00036541963 0.00011195213 0.0013731766 0.0014722007 0.0006619159
0.00077276444 0.0005809694 -0.001518016 -0.000790316 0.0009697581 0.00031954283 0.00037839237 -6.627817e-05
-0.00028562153 -0.00029290048 -0.0003664358 0.0006115924 0.00084869703 0.00074308057 -0.0010554293 0.00081070536
-0.00024468853 -0.0010952606 -0.0010261361 0.0003043395 0.0009575905 0.00082292844 -8.508113e-05 -5.708644e-05
-0.013790197 -0.06308417 -0.0452191 -0.008441086 -0.041243523 -0.020413432 0.053674944 0.049607076
-0.017380677 0.028636664 0.05796385 0.061174467 -0.021892302 -0.017379971 0.013063618 0.012864177
-0.042829618 0.118089266 -0.023897389 0.095829844 0.022712896 0.0009123885 0.0005964205 -0.01468308
0.0108675845 0.015779993 -0.0027805315 -0.007680233 0.06318836 -0.010271701 0.02012523 -0.0017205625
-0.01382352 -0.0140460795 -0.004368748 0.017519727
00000000: 38fa 093e 40a8 ef3d 9046 013e 925b 3a3e
00000010: 16f7 3b3e af10 7e3e 09bd 533e 7b15 573e
00000020: 4142 843e 0925 643e bc3b 753e 9a09 153e
00000030: 70b0 473e e332 f83d b039 a2be 7ef1 39be
00000040: c4ee e73d ddc5 ad3d 941e 0a3e f742 ffbd
00000050: 5f34 8c3e 280b 0cbe 470c f7bd ddee 233e
00000060: 66cf 4c3e ed70 2c3e 8c88 9bbe 3d37 4f3e
00000070: c078 9cbe 31ff 93be 71d1 52be 5e0b 8d3e
00000080: 8457 9f3e ffe6 9e3e 8236 11be 7822 143e
00000090: 103c 4639 5d15 393a 209f 8f39 b16a 2e3a
000000a0: fff3 0a3a 7877 7339 e464 8b3a cb95 bf39
000000b0: d8c7 ea38 29fc b33a dcf6 c03a 6d84 2d3a
000000c0: 5893 4a3a 324c 183a 2af8 c6ba 352d 4fba
000000d0: 5d37 7e3a 5088 a739 f762 c639 d2fe 8ab8
000000e0: 79bf 95b9 7090 99b9 2e1e c0b9 4553 203a
000000f0: 187b 5e3a 4bcb 423a 5556 8aba 8485 543a
00000100: 8a49 80b9 d98e 8fba 6a7f 86ba c28f 9f39
00000110: d006 7b3a cbb9 573a 956d b2b8 1970 6fb8
00000120: 47f0 61bc 4632 81bd aa37 39bd 7b4c 0abc
00000130: f8ee 28bd 123a a7bc 42da 5b3d ca30 4b3d
00000140: ec61 8ebc 7097 ea3c 816b 6d3d 1492 7a3d
00000150: 7c57 b3bc 7160 8ebc c908 563c 45c4 523c
00000160: 1c6e 2fbd c9d8 f13d 75c4 c3bc 7042 c43d
00000170: 6510 ba3c 5b2d 6f3a 1a59 1c3a 4d91 70bc
00000180: f40d 323c 0b45 813c 9439 36bb 77aa fbbb
00000190: e668 813d a34a 28bc abdd a43c 7f84 e1ba
000001a0: 0c7c 62bc 8721 66bc b727 8fbb 8885 8f3c

decoder.attn_0.out_proj.weight f4 [36, 36]
-0.10275783 -0.10505214 0.056911055 0.013653615 -0.007944364 0.11645406 0.23557985 0.047294892
-0.03430992 0.08796219 -0.09449022 0.00601247 0.16830343 -0.06830965 0.1402067 0.005126865
0.06095496 -0.052213203 0.05689677 -0.09207367 0.0811045 0.07986822 -0.0076064593 -0.015107974
-0.08569728 0.085351415 0.0052078106 0.06347396 -0.09378419 0.10048125 -0.022302363 0.028590048
0.12095879 -0.050160676 0.025482763 0.1079419 0.11213056 -0.053643253 -0.025425946 -0.016529465
0.18110792 -0.027800893 0.051757094 -0.09249583 -0.074265115 -0.064483896 -0.10369306 -0.06660332
-0.03945933 0.115378276 -0.07334141 0.13285743 0.013070431 -0.023154078 -0.13795005 0.025471164
-0.063390076 0.18216005 -0.14428267 -0.06623467 0.07714267 0.111823685 -0.12559308 -0.0063484176
-0.033566575 -0.12264732 0.1645692 -0.10345223 0.12393063 -0.032853063 -0.016132835 0.052922282
0.14798616 -0.13210051 -0.1306236 -0.035879407 -0.20297296 -0.022483557 0.20633067 0.03661693
-0.089191325 0.16484658 0.04533327 0.11792513 -0.043356948 0.03750721 0.08609397 0.03918753
-0.19493155 0.081260286 -0.017161602 0.22937559 0.103961356 -0.08733475 -0.016585369 -0.16012311
0.028908942 0.23928694 0.072149724 0.02792337 0.21374388 -0.123412505 0.14138848 -0.08799474
0.018720016 0.07942267 -0.026160205 -0.032570954 0.11672167 0.13979974 0.047225486 0.13209257
-0.17386626 -0.018508453 -0.11198901 0.085776664 0.13016497 0.12819095 0.16907161 -0.11876009
-0.12656644 0.0814254 0.13588147 0.10915435 0.15777348 -0.0336048 0.13915351 -0.062190175
0.031947836 -0.039146636 -0.08066078 0.100665845 -0.12983209 -0.091581196 0.121618025 0.06885384
-0.11616765 -0.09235357 -0.09911252 0.16606914 0.04710968 0.08898182 0.085679725 -0.043790255
0.15341742 -0.10681155 -0.114958264 -0.013510712 -0.18672803 0.058078032 0.17788377 0.28418592
0.08963029 0.21284449 0.11822355 0.15243515 -0.00065024244 -0.04181569 -0.027123297 -0.039110493
-0.17319566 0.24994238 -0.07114468 0.2704919 0.13589865 -0.09480843 0.060568787 -0.09747944
0.058927298 -0.046240993 0.02716975 0.065551326 0.2345522 0.048436146 0.03125664 0.0026321316
-0.03070385 -0.021812372 0.043145526 0.21339518 0.01211691 0.14764674 -0.0526395 0.034679484
0.07522692 0.06359501 -0.10494571 0.006713875 -0.058612518 -0.11201901 0.014849755 -0.1029907
0.027828176 0.023890413 0.016720474 -0.02230946 -0.028316967 -0.14920287 -0.046517648 -0.18831323
-0.14394267 -0.11619445 -0.06510873 -0.098240435 0.07642694 -0.10342528 0.17200483 0.033501673
-0.047021925 -0.07237732 0.16450836 -0.007939402 0.054220013 0.06050994 -0.06030015 0.1338743
0.118651785 0.0069323797 0.007548226 -0.09990528 -0.1864107 -0.012012435 0.040745836 0.0868537
0.023194842 0.090494275 0.04370931 0.15644032 0.046645097 0.0499382 -0.08935688 -0.05162742
-0.16303898 0.1466082 -0.044027824 0.1130251 0.031070387 0.10290797 -0.08190381 -0.05111693
0.035416447 -0.06292112 0.04153175 0.05854318 0.07088445 -0.047837306 0.1035615 -0.08901147
0.11684127 0.010934375 0.04279715 -0.010081124 0.08119764 0.065861836 -0.10463931 0.104083285
00000000: b272 d2bd 9425 d7bd 911b 693d 69b3 5f3c
00000010: 1429 02bc 777f ee3d d83b 713e 4ab8 413d
00000020: 8f88 0cbd 8525 b43d 1784 c1bd 4104 c53b
00000030: bc57 2c3e eee5 8bbd 5892 0f3e 43ff a73b
00000040: e8ab 793d 83dd 55bd 960c 693d 1f91 bcbd
00000050: 1e1a a63d f391 a33d 9b3f f9bb 7087 77bc
00000060: 0e82 afbd b9cc ae3d 48a6 aa3b a3fe 813d
00000070: ed11 c0bd 1dc9 cd3d 72b3 b6bc ad35 ea3c
00000080: 3eb9 f73d 4875 4dbd 3ac1 d03c a510 dd3d
00000090: b5a4 e53d 07b9 5bbd 134a d0bc cd68 87bc
000000a0: 5b74 393e b3be e3bc 3fff 533d 746e bdbd
000000b0: 4f18 98bd 2210 84bd 075d d4bd 5267 88bd
000000c0: 1ba0 21bd 724b ec3d 0534 96bd c70b 083e
000000d0: 5c25 563c 9fad bdbc c742 0dbe e7a8 d03c
000000e0: a8d2 81bd 2a88 3a3e d6be 13be 0ba6 87bd
000000f0: fafc 9d3d d103 e53d 799b 00be 6306 d0bb
00000100: 1b7d 09bd 852e fbbd d484 283e c3de d3bd
00000110: 58cf fd3d ef90 06bd 0229 84bc 09c5 583d
00000120: af89 173e 5b45 07be 31c2 05be 49f6 12bd
00000130: 25d8 4fbe 702f b8bc 5948 533e a2fb 153d
00000140: f1a9 b6bd 8bcd 283e 61af 393d bb82 f13d
00000150: 0e97 31bd 29a1 193d 0952 b03d 1a83 203d
00000160: 239c 47be cb6b a63d 7d96 8cbc 6fe1 6a3e
00000170: b1e9 d43d 90dc b2bd 0ade 87bc 50f7 23be
00000180: 72d2 ec3c a307 753e 3cc3 933d 8dbf e43c
00000190: addf 5a3e b2bf fcbd 24c8 103e 9636 b4bd
000001a0: b85a 993c 5aa8 a23d ed4d d6bc 1f69 05bd
000001b0: c50b ef3d aa27 0f3e 836f 413d 4643 073e
000001c0: ff09 32be 0a9f 97bc 7e5a e5bd adab af3d
000001d0: f749 053e 7d44 033e 1c21 2d3e 7d38 f3bd
000001e0: a29a 01be 5cc2 a63d 8324 0b3e 518c df3d
000001f0: 5f8f 213e 30a5 09bd 427e 0e3e 20bb 7ebd
00000200: bcdb 023d 3958 20bd 7b31 a5bd e529 ce3d
00000210: b4f2 04be ec8e bbbd df12 f93d 3e03 8d3d
00000220: 4ee9 edbd de23 bdbd 81fb cabd 070e 2a3e
00000230: 14f6 403d 1a3c b63d da78 af3d 695d 33bd
00000240: 7519 1d3e 04c0 dabd 3d6f ebbd 095c 5dbc
00000250: a235 3fbe 3be3 6d3d 2a27 363e d180 913e
00000260: 1690 b73d e8f3 593e 301f f23d f617 1c3e
00000270: 0875 2aba ee46 2bbd ad31 debc 5332 20bd
00000280: 345a 31be e5f0 7f3e 4db4 91bd ea7d 8a3e
00000290: 0429 0b3e ec2a c2bd fa16 783d 4da3 c7bd
000002a0: c05d 713d 3267 3dbd 1893 de3c c63f 863d
000002b0: 742e 703e fb64 463d f606 003d d77f 2c3b
000002c0: a486 fbbc dcaf b2bc 5db9 303d 4484 5a3e
000002d0: 0186 463c b530 173e 849c 57bd 130c 0e3d
000002e0: 9210 9a3d 1a3e 823d c7ed d6bd 1100 dc3b
000002f0: ae13 70bd 396a e5bd 634c 733c caec d2bd
00000300: eaf7 e33c d4b5 c33c 60f9 883c 54c2 b6bc
00000310: fcf8 e7bc a3c8 18be 4a89 3ebd 2fd5 40be
00000320: b565 13be 5bf7 edbd ba57 85bd 4832 c9bd
00000330: ba85 9c3d a2d0 d3bd 0922 303e 0d39 093d
00000340: 109a 40bd 8f3a 94bd e174 283e 4414 02bc
00000350: ce15 5e3d 45d9 773d 4afd 76bd 5816 093e
00000360: b5ff f23d 0429 e33b 1c57 f73b 249b ccbd
00000370: 72e2 3ebe cecf 44bc 1be5 263d 5ae0 b13d
00000380: 1c03 be3c 1055 b93d 8908 333d e431 203e
00000390: ee0e 3f3d ff8b 4c3d bd00 b7bd 4677 53bd
000003a0: b1f3 26be 7620 163e 8556 34bd b479 e73d
000003b0: 5387 fe3c 6ac1 d23d 2fbd a7bd fc5f 51bd
000003c0: d610 113d cadc 80bd 321d 2a3d f9ca 6f3d
000003d0: de2b 913d 0df1 43bd 0d18 d43d a54b b6bd
000003e0: 7a4a ef3d 1826 333c 104c 2f3d 4c2b 25bc
000003f0: f34a a63d 92e2 863d 224d d6bd 9e29 d53d

decoder.attn_0.out_proj.bias f4 [36]
0.0028346474 -0.0018267876 -0.049601074 0.0055783 -0.058120064 0.0065105576 -0.0429058 -0.0018937596
0.035589635 0.0003405202 -0.00089139346 0.0068318876 0.0038825714 -0.0043593906 0.0022826046 -0.044148646
0.01177798 0.037348315 -0.0052677314 0.01601865 0.0011434319 0.0029510863 -0.0017712974 -0.002445504
0.00965084 -0.057050735 0.027679065 0.00597905 -0.0008439661 -0.0060855406 -0.0005082773 0.0026170604
0.0015905732 -0.0006184146 -0.0042118593 -0.022145746
00000000: 7ec5 393b d270 efba 7f2a 4bbd 2cca b63b
00000010: 4e0f 6ebd 8456 d53b febd 2fbd 0738 f8ba
00000020: 70c6 113d d987 b239 67ac 69ba 07de df3b
00000030: bd72 7e3b 38d9 8ebb c097 153b 36d5 34bd
00000040: 6ef8 403c 8cfa 183d ef9c acbb 8b39 833c
00000050: 35df 953a 0367 413b e12a e8ba c044 20bb
00000060: 8f1e 1e3c 08ae 69bd 35bf e23c e8eb c33b
00000070: 9b3d 5dba 3769 c7bb ea3d 05ba fd82 2b3b
00000080: c87a d03a 1a1d 22ba a303 8abb ff6a b5bc
