models/model0.pth (torch, 102026 bytes, 33 tensors)

encoder.attn.in_proj_weight f4 [54, 18]
00000000: 49b6 1e3e b941 debd 8756 61bc 8cc0 83be
00000010: 8fc6 9d3c 7fdc b23d 2424 843e 915b 3fbe
00000020: 30f1 7c3d 4180 dbbd 302e 63bd 01fc 15be
00000030: 4be8 c9bc fa1f d0bd 0289 78be 0870 6e3e
00000040: 9cee b5bd 5711 593e e82d 5f3e eb7b 37be
00000050: d9d4 69be 0069 4fbe 6499 52be a860 6c3d
00000060: 026b 623d 6b1a 2d3e 6934 493d b92f 4cbe
00000070: e124 8dbe e25f 553e c697 42be 0bc2 6fbe
00000080: f8db e3bd 85bf 1b3c df13 223e 1da4 573e
00000090: 0108 253e 9c6d 8fbe a2fe b73d b969 06be
000000a0: 2e37 213e 8161 ce3d 0633 703e 41ba 9f3c
000000b0: 8839 04be 088e 59be fdb3 553e 02bf 863e
000000c0: 95e6 0fbe 6987 02be 3d85 2bbe f923 ac3d
000000d0: aa26 3fbe 8267 7a3e 4ecb 45be 0ce0 4a3e
000000e0: 156d 97bd 898f 5abe e6d2 683c 0b54 e8bd
000000f0: 6c0e 5fbe 0ceb 29be 05f1 803e 916e 863e
00000100: 958b 163e af1e 263d ab63 e93d 7a6d 12bc
00000110: 3798 0f3d 876e 3ebe 0dc2 613e e773 e5bb
00000120: 524b 5e3e d1a6 e23d 79ec 75be ab2f 7fbe
00000130: b8c6 e73d bb4b 60be 454b afbc c6be 28be
00000140: 12f0 9a3d 7cef f03d aac1 98bb dd3e 83bd
00000150: c510 23be 7fff e3bd 3a43 5abe 6d53 7a3e
00000160: 5f9c 953d 020a 843e 0f86 10be bfd5 49bd
00000170: 467a 9abd d7a0 4fbe 3f5f 4b3d f6e9 3a3e
00000180: e80a 6fbd 47a3 91bd 7bff 84bd 5fa5 ad3c
00000190: ec70 f53d f23e 21be e0d0 83be 421a 7bbe
000001a0: bff8 7bbd a513 6c3e 27a8 e1bc 0eaa ec3d
000001b0: 08e3 05be dfa7 12be 3a5f 98bc b373 1b3e
000001c0: ce13 5b3e f819 2d3e 638d 32be 9e3c 79be
000001d0: ac02 b43d 1f9f 30be 8b00 9bbd 31a2 18be
000001e0: f043 55bd c9ce 5d3e ef34 15be 2ad1 65be
000001f0: 39db be3d 9587 753e e44d 813d 10f7 a53d
00000200: 7545 db3a 4be5 75bd 8c24 403d 2f9c 89be
00000210: 0de3 63be 2111 563e 0670 17bd 9335 46be
00000220: 64a1 9abd e6c7 ee3c eee1 ecbd f837 353d
00000230: 612b 5d3e dfea 973d db24 803e 4fe8 61be
00000240: ce44 a53c 9300 073e a7e5 663e cebe 4abe
00000250: bf7c 67bd 85fc 243e 6c63 8dbe 9e98 23be
00000260: 8c8b 183e 7a77 fcbc 390c 903e 8f19 dc3c
00000270: 4eb7 ac3d 3952 e8bd d2c1 433e ebe3 253e
00000280: 0a92 1dbe 3ffe 92be a599 6dbe 2528 4dbd
00000290: d845 37be 4b56 3a3e 5485 c4bd 4705 4dbe
000002a0: f64f 63bd b21b 7d3e 420d 82be 0520 103e
000002b0: fe3e 38be 6538 5abe e4cd 4cbe d68e 2c3d
000002c0: 6058 073c 02ff 58be f252 863e 544c a3bd
000002d0: 6853 93be f1f3 0d3d cfa0 18be 7142 bd3d
000002e0: dc12 043d 8001 8f3e 787b 833e 177c 8fbe
000002f0: 0c23 493e 6967 1b3e 83e4 7bbe 3b6f 973d
00000300: 8ab8 37be 0d09 433e fcea 35bd 215f 283e
00000310: 25a3 813e 837e 1abe 319b 82be 5cff f1bd
00000320: d6ba 01be d48e 78be 6e94 043e 53c3 22be
00000330: 1998 cd3d b9cd 37bd eb30 5fbe 4814 803e
00000340: 5702 5dbe 1f89 9abd 9da8 2fbe d337 34be
00000350: 7339 b33b 8f5e 6ebe 8b7e c43d fd5c 2f3d
00000360: f93a 00be a3d0 44be 07fc 91bc 2cf9 8f3e
00000370: 3e23 6a3d e444 2abe 5a16 85be 6687 ef3d
00000380: 386d 8cbe 866f 46be 6220 c9bb bb6e 69be
00000390: bd37 1f3d dddc bfbd ea01 4a3d ce44 dabd
000003a0: 7c46 a93d 749a 873e ba94 ebbd 005f efbd
000003b0: 6b8b 093e 41bc b33d 14a3 933c 7479 a93d
000003c0: bf40 81be 55e0 29be 6ed2 063d 467d 143e
000003d0: 6faf 553e 969d 43be e824 85be 5148 10be
000003e0: cd56 4cbe f38a 233d 4ef0 823c 8c59 9e3d
000003f0: 41c0 44bd e49e 5c3e d27c d2bd 3a5d 27be
0.15499224 -0.10852379 -0.01375354 -0.2573284 0.01925972 0.087334625 0.25808823 -0.18687274
0.06175345 -0.10717822 -0.05546397 -0.14646913 -0.024646899 -0.10162349 -0.24271014 0.23284924
-0.08883402 0.21198021 0.21794856 -0.17918365 -0.22835101 -0.20254898 -0.20566326 0.057709366
0.05527783 0.16904609 0.049122248 -0.1994008 -0.275672 0.20837358 -0.1900321 -0.23413865
-0.1112594 0.009506111 0.15827893 0.21058698 0.16116334 -0.28013313 0.08984114 -0.13126267
0.15743706 0.10077191 0.23456964 0.019497992 -0.12912571 -0.21245587 0.20869441 0.26317602
-0.14052804 -0.12746967 -0.16750045 0.08405299 -0.18667093 0.24453548 -0.19315836 0.1981203
-0.073938526 -0.21343817 0.014210438 -0.11344155 -0.21782845 -0.1659357 0.25183883 0.2625623
0.14701684 0.040556606 0.11395963 -0.008937234 0.035057273 -0.1859685 0.22046681 -0.007002342
0.2170842 0.11066974 -0.24015988 -0.24920528 0.113171995 -0.21903889 -0.021398196 -0.16479024
0.07565321 0.11764428 -0.0046617584 -0.064084746 -0.15924366 -0.111327164 -0.21314707 0.24445887
0.07305216 0.25788885 -0.1411364 -0.04927611 -0.07542853 -0.202762 0.04965138 0.18253312
-0.05836001 -0.07111221 -0.064940415 0.02119702 0.11984429 -0.15746668 -0.25745296 -0.24521735
-0.06151652 0.23054369 -0.027546002 0.11555873 -0.13074887 -0.1432185 -0.018600095 0.15180854
0.21394274 0.16904438 -0.17436747 -0.2433953 0.08789572 -0.172482 -0.07568463 -0.14905621
-0.052066743 0.21660914 -0.14570974 -0.22443071 0.09319157 0.23977502 0.063136846 0.08103764
0.0016729074 -0.060033124 0.046909854 -0.2687697 -0.22254582 0.20904972 -0.03697207 -0.19356374
-0.07550314 0.029148053 -0.1156653 0.04424283 0.21598579 0.07417845 0.25028118 -0.22061275
0.02017441 0.13183813 0.22548543 -0.19799349 -0.05651545 0.16111954 -0.27614915 -0.15976188
0.14896983 -0.03081869 0.28134325 0.026867656 0.084334 -0.11343808 0.19116905 0.16200225
-0.1538774 -0.287096 -0.23203142 -0.050087113 -0.17897737 0.1819698 -0.09595743 -0.20021544
-0.05549618 0.24717596 -0.2540074 0.14074714 -0.1799278 -0.21310575 -0.20000416 0.042128406
0.008260816 -0.21191028 0.26235157 -0.07973543 -0.2877457 0.03465647 -0.14905094 0.09241188
0.03224455 0.27930832 0.25680137 -0.2802436 0.19642276 0.15176167 -0.24598889 0.073942624
-0.1794149 0.19046421 -0.04441355 0.16442539 0.25319782 -0.15087323 -0.25509027 -0.11816284
-0.12668929 -0.24273235 0.12947246 -0.15894823 0.10038776 -0.044873927 -0.21796004 0.25015473
-0.21582924 -0.07545685 -0.17154165 -0.1759942 0.005469495 -0.23278259 0.09594449 0.04281329
-0.12522496 -0.19220214 -0.017820371 0.2811979 0.057162516 -0.16627842 -0.25993615 0.11695747
-0.27427077 -0.1937848 -0.0061378935 -0.22796147 0.038871516 -0.09368298 0.04931823 -0.10657655
0.08265397 0.26485026 -0.11502977 -0.11688042 0.1343209 0.08776141 0.018022098 0.082751185
-0.2524471 -0.16589482 0.032915525 0.14500913 0.20867704 -0.19103083 -0.2600472 -0.14090087
-0.19954987 0.039927434 0.015983727 0.077319235 -0.04803491 0.21544987 -0.10277714 -0.16344157

encoder.attn.in_proj_bias f4 [54]
00000000: 0000 0000 0000 0000 0000 0000 0000 0000
00000010: 0000 0000 0000 0000 0000 0000 0000 0000
00000020: 0000 0000 0000 0000 0000 0000 0000 0000
00000030: 0000 0000 0000 0000 0000 0000 0000 0000
00000040: 0000 0000 0000 0000 0000 0000 0000 0000
00000050: 0000 0000 0000 0000 0000 0000 0000 0000
00000060: 0000 0000 0000 0000 0000 0000 0000 0000
00000070: 0000 0000 0000 0000 0000 0000 0000 0000
00000080: 0000 0000 0000 0000 0000 0000 0000 0000
00000090: 0000 0000 0000 0000 0000 0000 0000 0000
000000a0: 0000 0000 0000 0000 0000 0000 0000 0000
000000b0: 0000 0000 0000 0000 0000 0000 0000 0000
000000c0: 0000 0000 0000 0000 0000 0000 0000 0000
000000d0: 0000 0000 0000 0000
0.0 0.0 0.0 0.0 0.0 0.0 0.0 0.0
0.0 0.0 0.0 0.0 0.0 0.0 0.0 0.0
0.0 0.0 0.0 0.0 0.0 0.0 0.0 0.0
0.0 0.0 0.0 0.0 0.0 0.0 0.0 0.0
0.0 0.0 0.0 0.0 0.0 0.0 0.0 0.0
0.0 0.0 0.0 0.0 0.0 0.0 0.0 0.0
0.0 0.0 0.0 0.0 0.0 0.0

encoder.attn.out_proj.weight f4 [18, 18]
00000000: a92e 06be 6f9a 093e 9ee9 383d f244 483e
00000010: 5e0f 43be 7b95 d1bd 00f6 743c eb05 f13d
00000020: d41e c73d 1f98 5abe 2814 d33a f933 433e
00000030: 8786 d0bd 14b8 78bd 1edc 433c 958b cbbc
00000040: 0051 61bd 3981 99bb 0009 61be 2355 06bd
00000050: 7cbe 803b d3e1 4cbe b8e5 f93c 3306 d73c
00000060: e5f3 43be f00d 6a3e c093 2f3e 9c69 08be
00000070: 523e 38be 330e b33b c98a 053d 8d65 3fbd
00000080: 5f5d 403e fda7 07be 5f6e 5dbe 4f01 3abe
00000090: 47ec 5f3e 164a ae3c 04d1 66be 7ce0 32be
000000a0: cbd1 413e 1138 ddbc f0c8 4dbe ea0f b0bd
000000b0: 5372 473e caf4 173e f432 49bd c584 0f3d
000000c0: e002 143e ac97 5d3d bd89 34bd d54e 103e
000000d0: 7fc2 72bd 8629 abbd 158e ec3d 03c7 2c3e
000000e0: 7d78 3bbd 66b5 1a3e 63a4 73bd 8f37 9c3d
000000f0: d18c 123d 5b44 3dbe bdb6 0c3e ee24 e4bd
00000100: 2aea c73d 95da 4f3d a8e0 6d3d ca42 9f3d
00000110: 6439 debd 79a1 a0bd 60cb e93d 0ffc 9c3c
00000120: 2327 5cbe 0618 643e 0688 6abe 7a59 de3d
00000130: 200b 85bd 4367 ce3d 1ed4 26be fe65 f63c
00000140: 0276 0fbd b31f 29be bdc3 4bbd 0756 173c
00000150: dd52 843d 63a1 59be 99d6 b83d b0cb acbd
00000160: af4b 19be 2bd7 0b3c 6b5d f0bd 741c 0abe
00000170: 02c8 d7bc 3e0d a63d 37ee e33d 5e68 0c3e
00000180: f090 abbd aa7d 6ebe 84cd 6cbe c83e f2bd
00000190: a935 623d 6725 913c e951 1ebe 3fc5 083e
000001a0: fc1c e9bb 18bb 50be 0dd3 c73d 744a 4e3e
000001b0: 6f48 08be bae4 003e d218 ba3d 0e6b f43c
000001c0: 46ba 6d3e 8c8a 983d d88f b7bc 9d76 78bd
000001d0: 9b86 2a3e 4a11 febd e642 b6bd 71b2 203d
000001e0: 1176 66be 67e7 12be 8420 06bc 1a2a 313e
000001f0: 122c 1abe 4039 be3d af3d 023e 518f b93c
00000200: 044e c9bd 6380 cb3d 8718 57bc bebd 85bd
00000210: 92ee b2bd 5396 aabd 0a9d a8bc 7a7b 15be
00000220: 97f4 a23c a384 21be 4d63 cf3d ff4b 7fbd
00000230: 3d51 f0bc 7fb5 c6bb be80 c4bd 1d2a 30be
00000240: f234 54be 158d 3b3e 9cbc c43d d992 a9bd
00000250: 401d 43be f52f cd3c 783c d6bd 2886 313e
00000260: 53d2 09be 388c 613c 9b97 4cbd 5dde 0fbb
00000270: fdaf 0fbd 23c6 3f3e 2213 b4bd 53be 01be
00000280: a902 1dbe 434a f33d 925a 08be 7b7f abbd
00000290: 70ad 87bc 33ff 3cbe 26ff d73d ea93 ce3d
000002a0: 0cd0 a5bd 9601 1dbe 4579 6dbc 3ae4 62bd
000002b0: 961b b2bd 3ae4 8ebd 1db9 263d d97f e93d
000002c0: 6e22 4bbd 0119 063e a331 963a 5989 963d
000002d0: d99e 2d3b 6f40 0bbd 0fc5 bbbc d814 223e
000002e0: 1570 423e 40f1 b93c e677 8b3d d3eb 9abd
000002f0: 802c 11be d4f2 973c d49c d03d ea11 fa3d
00000300: d878 d13d 56a8 bc3c b057 e23d d839 dc3d
00000310: 7825 a4bd 9c50 3bbe 613f c4bd f537 c6bd
00000320: 43ae 53be d573 0b3e f72f 423e cda8 0cbe
00000330: fc57 2bbd f183 da3d 22bb 57bd 9eec eebc
00000340: d2a7 35bc 1f7c febd d33f 0f3e 3491 b33d
00000350: 77e2 11be fd53 4f3e ec0b af3d 62f0 5c3e
00000360: 9feb 7dbc c41f 00be a3a3 1c3e 4f48 0bbe
00000370: 938b e33d 7dee 4b3e f2e3 58be 6636 67be
00000380: e725 53be e3e0 ad3d 594f 60be 771f 8abc
00000390: f6fb c7bd 82f1 66be cb31 39be 0938 3bbe
000003a0: 9980 8ebd 8d33 da3a d695 63be f482 463e
000003b0: e8df d2bd 6a2c b5bd da2f 13be 45d9 98bd
000003c0: d1dd 49be 528c c5bd 181b 4b3d 705b 1f3e
000003d0: 7c40 b83d 02eb 3ebe fcb1 b53d e6d6 d6bd
000003e0: 46f8 943d eaf3 2d3e 4a1b cdbd e049 ffbb
000003f0: 9217 6c3d 34af e73d d05c 173e 7460 76bd
-0.13103737 0.13437818 0.04514467 0.1955755 -0.19048831 -0.10233589 0.014951229 0.11768707
0.09722677 -0.21347092 0.001610403 0.19062795 -0.10181909 -0.060722426 0.0119543355 -0.024846831
-0.05500889 -0.004684594 -0.2197609 -0.032796036 0.0039289575 -0.2000802 0.030505046 0.026248073
-0.19136007 0.22856879 0.17146206 -0.13321537 -0.17992523 0.005464339 0.03260306 -0.046727706
0.18785618 -0.13247676 -0.21624134 -0.18164562 0.21867476 0.021275561 -0.2254067 -0.17468446
0.18927686 -0.027004274 -0.20096183 -0.08596785 0.19477205 0.14839473 -0.04912086 0.03503873
0.14454222 0.054099724 -0.04407667 0.14092572 -0.059267517 -0.08357529 0.115505375 0.16872792
-0.045769203 0.1510826 -0.059482943 0.076277845 0.035778824 -0.18483107 0.13741584 -0.11139856
0.0976146 0.050745565 0.058075577 0.07776411 -0.1085079 -0.078432985 0.11415744 0.01916316
-0.21499304 0.22274789 -0.22903451 0.1085691 -0.064962626 0.10078289 -0.16291854 0.03007793
-0.03502465 -0.16515999 -0.049747217 0.009236819 0.064611174 -0.2125297 0.09025306 -0.08437288
-0.14970277 0.008535187 -0.11736568 -0.13487417 -0.026340488 0.081079945 0.1112942 0.13711688
-0.08377254 -0.23290125 -0.23125273 -0.11828381 0.055226956 0.01771803 -0.15460934 0.13356493
-0.007114051 -0.2038387 0.097570516 0.20145589 -0.13308881 0.12587252 0.09086765 0.029836204
0.23215589 0.07448301 -0.022407457 -0.060659993 0.1665291 -0.124056414 -0.088994786 0.039232675
-0.22505976 -0.14346085 -0.008186463 0.17301217 -0.15055874 0.09288263 0.12718843 0.022651346
-0.098293334 0.09936597 -0.013128406 -0.06530331 -0.0873691 -0.08329453 -0.020582695 -0.14597884
0.01989202 -0.15773253 0.10126362 -0.062328335 -0.029335612 -0.0060641165 -0.09594868 -0.17203565
-0.20723322 0.18315537 0.09606287 -0.08279962 -0.19054127 0.025047282 -0.10460752 0.17336333
-0.13459139 0.013766341 -0.04994927 -0.0021952607 -0.035079945 0.18727927 -0.08792712 -0.12670259
-0.15333046 0.11879399 -0.133158 -0.08373924 -0.016562194 -0.18456726 0.105467126 0.10086806
-0.080963224 -0.15332636 -0.014494245 -0.055393435 -0.08696668 -0.069771245 0.04070388 0.11401338
-0.04959338 0.13095476 0.0011458885 0.07350416 0.0026492386 -0.033996996 -0.022921113 0.15828264
0.18988068 0.022698045 0.06809978 -0.07564511 -0.14177132 0.018548407 0.101861626 0.12210448
0.10228127 0.023029488 0.11051881 0.1075322 -0.08014959 -0.18292469 -0.09582401 -0.09678642
-0.20671944 0.13618405 0.1896361 -0.13736267 -0.041831955 0.10669697 -0.052668698 -0.029165562
-0.011087375 -0.12426018 0.13989191 0.0876793 -0.14246546 0.20246883 0.08547196 0.21576074
-0.015498071 -0.12512118 0.15296797 -0.13601802 0.11110606 0.19915195 -0.21180704 -0.22579345
-0.20619927 0.08490159 -0.21905269 -0.016860707 -0.097648546 -0.22553065 -0.18085401 -0.18283094
-0.06958122 0.0016647443 -0.22225127 0.19385892 -0.10296613 -0.08846362 -0.14373723 -0.07463316
-0.19713522 -0.096459046 0.049586385 0.15562224 0.089966744 -0.18644336 0.088718385 -0.104902074
0.07273917 0.16987577 -0.100149706 -0.007790789 0.057639666 0.11312714 0.14781499 -0.06015058

encoder.attn.out_proj.bias f4 [18]
00000000: 0000 0000 0000 0000 0000 0000 0000 0000
00000010: 0000 0000 0000 0000 0000 0000 0000 0000
00000020: 0000 0000 0000 0000 0000 0000 0000 0000
00000030: 0000 0000 0000 0000 0000 0000 0000 0000
00000040: 0000 0000 0000 0000
0.0 0.0 0.0 0.0 0.0 0.0 0.0 0.0
0.0 0.0 0.0 0.0 0.0 0.0 0.0 0.0
0.0 0.0

encoder.feed_forward.0.weight f4 [72, 18]
00000000: 4dcd 033e 4f9c 013d 227d 8e3d f0a3 113e
00000010: 8a8a aabd 6966 383e e8cc 203e 6367 cbbd
00000020: a6c2 94bd 2356 053d f31c 5fbe 058d f13d
00000030: c902 bdbd d294 48be 45cb 2e3e fae8 2d3e
00000040: 9a9f 1a3e 0aed 59be 8209 b03c 8dcb 3f3d
00000050: cbc3 ecbd 3945 003e 68a1 3dbe 3a48 49be
00000060: 7e8a f53d 1eb2 73bd d999 55be ee8a 91bc
00000070: 536d 853c 557e e3bd 08db 7dbd 7c63 b03d
00000080: 5659 4fbe d38d cc3d eb68 0cbe debf db3d
00000090: 80e8 9ebd 89d6 27be f735 3ebd 174a 223e
000000a0: ed77 10be ca07 293e e0be 73b9 191d 743d
000000b0: 0e44 37be 58ae f9bd cbd5 48be 0721 51be
000000c0: e943 d6bd 9dd9 cb3d 4e13 533d 46a4 933c
000000d0: 8b6a 463d 5307 523e 983d 4a3d e0ab a2bd
000000e0: f923 503e 587a 0ebe 60a7 a5bd f16b 0ebe
000000f0: 1868 52bc 17b7 6c3e 30a2 2e3e 7bc0 27bd
00000100: 3cb3 3a3d 4808 59be 40ab 183e 9552 41be
00000110: dfe5 06be 01d1 563e b392 60bd 6b82 bd3d
00000120: c1b3 583e ab21 4cbc 36ff 7c3d ef99 1b3e
00000130: e755 64be 9cdc 163d acdf 643e 0db5 02be
00000140: ca41 2d3e 7822 de39 c04e 6a3e aeb2 02be
00000150: ca91 a4bd 7ab4 66be 3ce3 86bd 32e0 493d
00000160: bdaa a13d 05c9 133e 394c 40be 82ae e6bd
00000170: 0e2a 63be 3cae b83d 7fd8 253e 34c9 19bd
00000180: 9672 f63d de0b f0bd b02e 633e f15c ca3c
00000190: 47dc 3b3e 5777 393e 3f5f 323d bbb6 b53d
000001a0: ee0d aa3d 3d34 32be 4668 e73d 8e25 64be
000001b0: 0058 25bd 3903 4bbe 10d3 f63b 2490 823d
000001c0: b111 683e 9757 033e b366 463e c431 93bd
000001d0: 13d8 523e cc63 613d f7c3 f1bd c6ed f73d
000001e0: 7481 583e c241 6b3e 1a8e dfbd fe7f efbd
000001f0: e6a8 22bd f9c3 403e 8bf2 5dbe 72a4 70be
00000200: 8e96 35be e1b4 0fbc 7e04 733d 066c c23d
00000210: 9cc1 f13d 9c17 d6bb 2bcc cdbd df96 383e
00000220: ed42 843c 9687 c2bc b7c8 693e b000 013d
00000230: a5d0 cbbc b0a3 463e 1adc 013e a5ab 4b3e
00000240: b08c 0d3d 1001 053e 9395 f63d a5bf e8bd
00000250: c95d 5a3e 1388 f4bd 1161 a1bd 41c4 5fbc
00000260: 9d97 cfbd 72a2 67bd 62ac 10be e257 553e
00000270: f131 603e 4d4e a23b c783 ccbc 1f32 64be
00000280: 22c7 b23d 9e8d 86bd 00aa a73d b378 e83c
00000290: c04a 1ebe efde ccbc b66d 293e 257f 6bbe
000002a0: 176f 93bd ada1 113e 5623 103e 7369 afbd
000002b0: 1671 703e 8865 3dbe 0b8a c03d ca1b 543c
000002c0: 8030 2d3e eb68 fabd e988 5d3e 33fe ffbd
000002d0: 1183 5cbe 0ec4 c13d 96ff d63d 5d2d 9b3d
000002e0: 6b35 bcbd f552 223d c400 04be 3967 2e3d
000002f0: f612 d83c 8666 9d3d 4b3e 2bbe 8737 d93c
00000300: fa23 48be 684f 023e c56b 1a3e 7aff fdbd
00000310: b712 1c3c ebba f7bd 4b14 47be 2b72 27be
00000320: ceb6 93bd 8a22 1d3e ea68 25bd 3455 9f3d
00000330: c906 b83d 5c14 28be f41c e83d 00c0 38be
00000340: da4d 63bd 2de3 a93d e42c 09be 6d9f 523d
00000350: a088 ccbd d780 57be 4ebb 02bd 6856 87bd
00000360: dd5c 363e e341 87bd fd1a 473e bd89 0bbc
00000370: 8971 58bd 7f95 483e 1306 a9bd b2ea 513e
00000380: f92b 8bbd 8282 333e 4ca4 683e c3ae 3e3d
00000390: 5b54 44be 918a 6b3e 12aa 26be ce8b d33d
000003a0: 0517 023e 8694 b6bd 0dd8 2abe 350a 0ebe
000003b0: a7fd 463d 1672 dbbd f510 4bbc 6943 6dbd
000003c0: e052 18bd ac60 6bbe a438 d7bc c3f5 3bbe
000003d0: 484f dd3c 9c39 47bd a6ef 223e 7054 333e
000003e0: 8106 b13d b4b8 433e 8f02 403d 4df6 00be
000003f0: 2037 fbbd 3e6b 143e 7ed3 abbd f9ce 093b
0.12871285 0.031643208 0.06957461 0.14222693 -0.083272055 0.18007816 0.15703166 -0.09931829
-0.07263689 0.03255285 -0.21788387 0.117944755 -0.09229047 -0.1958802 0.17069729 0.16983405
0.15099946 -0.2128183 0.021488909 0.04682498 -0.11560782 0.12526406 -0.18518603 -0.19656458
0.11989306 -0.059496038 -0.2085947 -0.017766442 0.016287481 -0.1110808 -0.061976463 0.08612725
-0.20248923 0.09987988 -0.13711898 0.10729955 -0.077591896 -0.16390432 -0.046438184 0.15848576
-0.14108248 0.16506878 -0.00023245392 0.059598062 -0.17897055 -0.121914566 -0.19612806 -0.20422755
-0.104621716 0.09953616 0.051532082 0.018022668 0.04844145 0.20510606 0.049375147 -0.07942939
0.20326222 -0.13913858 -0.08088565 -0.13908364 -0.012842201 0.23116718 0.17054057 -0.040955048
0.045581087 -0.21194565 0.14909077 -0.18879159 -0.13173626 0.20978166 -0.054827403 0.09253391
0.2116232 -0.012459199 0.061766826 0.1519544 -0.22298394 0.036831483 0.22350949 -0.12764378
0.16919628 0.0004236882 0.22881603 -0.12763473 -0.080356196 -0.22529784 -0.0658631 0.049286075
0.07893894 0.14432152 -0.18779077 -0.112637535 -0.22184011 0.090176076 0.16195868 -0.037545398
0.12033574 -0.117210135 0.22185779 0.024702521 0.18345748 0.18111931 0.043547865 0.08872744
0.08303438 -0.1740274 0.112991855 -0.22279951 -0.040367126 -0.19825448 0.007532485 0.06375149
0.22662999 0.12826382 0.19375114 -0.071872264 0.20590238 0.055026814 -0.118049555 0.121058986
0.21143132 0.22974303 -0.109157756 -0.116943344 -0.039711855 0.18824758 -0.21674554 -0.23500231
-0.17733213 -0.008771152 0.059330456 0.0949326 0.11804506 -0.006533576 -0.100487076 0.18026303
0.016145194 -0.023746293 0.22830473 0.031494796 -0.024879763 0.1939838 0.12681618 0.19889696
0.034558 0.12988687 0.12040248 -0.11364678 0.21324839 -0.119400166 -0.07879842 -0.01365763
-0.1013634 -0.056551404 -0.14128259 0.20834306 0.21894051 0.004953182 -0.02496518 -0.22284745
0.08729388 -0.0656998 0.08186722 0.028377866 -0.15458202 -0.025008647 0.16545758 -0.2299772
-0.07198923 0.1422183 0.1407598 -0.08565035 0.23480639 -0.18495762 0.094013296 0.012946079
0.16913033 -0.12227043 0.21634258 -0.124996565 -0.21534373 0.094612226 0.10497968 0.07577012
-0.09189876 0.039629895 -0.12890917 0.04257891 0.026376229 0.076855704 -0.16722982 0.026515735
-0.19544974 0.12725604 0.15080173 -0.12402244 0.009525946 -0.12096199 -0.19441335 -0.16352145
-0.072126016 0.15345207 -0.040383257 0.07779923 0.08985669 -0.16414016 0.11333647 -0.18041992
-0.055494167 0.082952835 -0.1339603 0.05142157 -0.09986997 -0.21045242 -0.03191691 -0.066082776
0.17808862 -0.06604364 0.19443889 -0.008516726 -0.05284265 0.19588278 -0.08253112 0.20499685
-0.067954965 0.17530254 0.22718924 0.046553385 -0.19172804 0.23002078 -0.16275814 0.103294
0.12704094 -0.08915047 -0.1668398 -0.13871081 0.048581745 -0.107151195 -0.01239418 -0.057925615
-0.03718841 -0.22986096 -0.026272126 -0.1835547 0.027015343 -0.048638925 0.15911731 0.17512679
0.08643819 0.19113427 0.04687744 -0.12593956 -0.12266374 0.14494035 -0.08389948 0.0021027906

encoder.feed_forward.0.bias f4 [72]
00000000: 743f 313e 4f8b c63d 66a1 edbc 313a 36b9
00000010: 7be4 423e 752f 2b3e 49c7 493e ca37 36be
00000020: 1b13 923d 41b3 593e 4557 6dbd c17b 63be
00000030: 0721 bcbd c687 b9bd 7fa2 36be e97d 843d
00000040: 9759 b2bc e429 20be 2cdb 043e 9057 35be
00000050: 6c62 3f3e c7d3 4abe 00d5 0ebe 5f9f 353e
00000060: 8f77 6cbd 64a1 2a3e 023b 4d3e b0a9 2fbe
00000070: bd52 cd3d acaa 09bc 4757 813d 9996 6c3e
00000080: 8a0d 70be 620a 1ebd b5ef f2bd 48ce d63b
00000090: b7e5 96bc 71f4 8c3d a391 ed3d d8c7 d0bd
000000a0: 44db 1a3d 6242 ccbd 4d5a 33be 1752 45be
000000b0: c404 b83d 27fc 103d 4bc6 01bd ddc3 25bd
000000c0: 7262 1d3e 281e f43d 556a 853d 3161 e9bd
000000d0: 69f7 63bb 332e 2bbe 6d69 bf3d 1cdd 18be
000000e0: 83fa 063e f01c 30be 6af9 3abe c87f cbbd
000000f0: 5d95 c43d 094f 213d 4d2b 50be 4434 04be
00000100: e49e 41be a977 41be 66c1 10be a3c6 503e
00000110: 4a94 7c3d f8b5 383e 11b9 8abd a9d5 dcbd
0.17309362 0.0969454 -0.029007625 -0.0001737855 0.19032471 0.16717322 0.19704928 -0.1779472
0.0713255 0.21259786 -0.057944555 -0.22215177 -0.09185987 -0.090591 -0.17835425 0.06469328
-0.021771235 -0.1564098 0.12974232 -0.17709184 0.18689889 -0.19807349 -0.1394844 0.17736576
-0.057731207 0.16663128 0.20042041 -0.17154574 0.10025547 -0.008402508 0.06315475 0.23104323
-0.23442665 -0.03858412 -0.11862127 0.0065553524 -0.018420083 0.06882561 0.116000436 -0.10194367
0.037806764 -0.09973599 -0.17514916 -0.19269596 0.08985284 0.03539672 -0.031683248 -0.040469993
0.15369585 0.11919814 0.06514422 -0.11395491 -0.003478492 -0.16716842 0.0934628 -0.14928097
0.131815 -0.17198539 -0.18259206 -0.09936482 0.09598801 0.039382014 -0.20329018 -0.12910563
-0.18908268 -0.18893303 -0.14136276 0.20388274 0.061664857 0.18038166 -0.0677358 -0.1078294

encoder.feed_forward.2.weight f4 [36, 72]
00000000: 5f18 7cbd f45d 8a3d 6ee4 c5bc 9dcf cfbd
00000010: 99cd 883d eca9 973d a14b 183c a2a2 0abd
00000020: 99c2 e13d 4279 89bd 28bf d4bd 17a0 b0bc
00000030: bd33 a83c e3d7 ec3d 10b7 4fbd 99c6 eebd
00000040: 8301 ed3d 1234 bdbd b7fa edbd 4db3 b13c
00000050: 25a5 dd3d 19a9 ce3d 762c 133d 26b2 4bbd
00000060: 8f8d 3ebd 2193 cd3d 2cb4 00bd baf7 29bd
00000070: c795 e7bc b0bf 283d d7ce af3d 2f93 063a
00000080: 3838 45bd 6832 413d 1670 82bc 2c66 01bd
00000090: 87cc 86bd 221a 883d c500 e7bd 7271 c2bd
000000a0: 269d e9bc 7950 943d 4e7b ce3d a7d8 ac3c
000000b0: 2b19 c53d 6bab 0d3d aeba 90bd cdf7 d9bc
000000c0: acd2 d73d e293 a83d cdc4 cf3d 10e7 ec3d
000000d0: 1025 193b 0b61 c0bd 4607 183c 45c9 c1bd
000000e0: b66b 82bd 6b06 41bd 4fc7 d83d 36a9 e23c
000000f0: 8ab3 873d 9c0b 6d3d 96a4 98bd dd96 d7bb
00000100: 9db7 7aba 705a 443d 612c 9dbc 4638 343d
00000110: 1476 1c3d 4ab6 a2bd bb49 2d3d 1e61 93bd
00000120: 3086 e1bd dccc d33c 4495 77bd c6b4 143d
00000130: e15b 343d 0854 a23d ffad cc3c eb01 eebc
00000140: 08f9 7fbd dedc 573a 6898 a5bd 79bd d93d
00000150: f4da 8b3d df5c 22bd b9c7 ea3d 774b eebd
00000160: ebe4 a43c 67bb 8a3d 5fc5 43bb 613e e1bc
00000170: 432b ba3c fced aebd 2b2b 6f3d c75c a7bd
00000180: 33fb b83d b60b bc3c 7892 d93d 7ace b53d
00000190: 12e1 98bd 9636 dabc a133 0f3d 011e c0bd
000001a0: 2de2 cc3c eb64 8bbd 8ad4 ce3d e937 67bb
000001b0: a121 8ebd ddfb 9c3d a8d7 e3bd b47c 973d
000001c0: 6725 a3bd e7b5 c2bc 45ef 6ebc 3795 57bd
000001d0: 4239 acbc deec a03c 5534 3ebd 7706 cc3d
000001e0: a1cc e63d 9b7e af3d 3b47 4b3c b3c8 0bbd
000001f0: 382f d03d 8edd 903d ccb7 d1bd 29e8 a13d
00000200: e4f9 ce3d 6021 b8bd cb92 933d 9670 ce3d
00000210: e716 af3d 6ed8 bd3d d794 f83c 0e2e 83bd
00000220: 5230 743d c5b0 4d3d b11c ea3d f65f edbd
00000230: 7e23 f1bd 49fd 77bd e312 9a3d d30b febc
00000240: 9178 d3bc 2caa 483d f717 34bd e54c 72bd
00000250: 53a6 533d 482c a9bd d23c 993d 74be a3bd
00000260: 71e2 9cbd 141d 503c 2a71 5d3d 6c5d 71bd
00000270: 886b 01bd f4a3 f6bc 9af4 eebc 249c a9bd
00000280: 5ab3 5d3d d424 193a 14fe 3e3b df82 8dbd
00000290: 2ff8 753d c702 553c c826 d8bd b240 d83d
000002a0: daff a5bd f003 e8bc bf4f bf3d b7da ac3d
000002b0: 8f94 9cbd f658 bb3d ba36 84bc e3a5 5d3d
000002c0: 56d9 d53d 0c0a a4bd c228 c13d bcbf 30bd
000002d0: a1e2 a83b d7af 223d 95de aa3d 93de 5ebd
000002e0: 8258 4bbd e088 003d 3867 bdbd 7d09 fbbc
000002f0: 6f21 1dbd e45e bf3d a67d 4cbd 54cb 9bbd
00000300: c266 883d bca3 403d 6eb5 503d 555a 7a3c
00000310: 4062 ae3d c97d 403d 82ba 0fbd d18d a2bd
00000320: b873 ea3d 5e3b a43d 4ad8 14bd b6ca 383d
00000330: 01b3 a1bc 3d82 e83d c5c4 dc3d f417 b1bd
00000340: 3448 0e3d 7a5a ddbd e1d1 883d 0b23 7fbd
00000350: 9da6 cabd 013f 57bd 27ae ccbd 5759 cdbd
00000360: ae54 76bd 86f7 c2bd d574 c5bd a765 063d
00000370: 1d76 a23d d08a 5ebd 2d8d cfbd 8fdc 19bd
00000380: f771 b3bd b405 f53c 7449 b6bd 907f f5bc
00000390: 7f75 cfbd 9d22 c13c 93b2 653d 5813 603d
000003a0: b50e 073d 89d6 b9bd a006 ebbc fe70 06bd
000003b0: a0ed 8ebd 1eb8 803d 6785 25bd e7cd 59bc
000003c0: 45c1 013d 4792 cebb d1e0 d1bd c334 ea3c
000003d0: fe85 3a3d 502d 8b3d 03e7 173d 8085 3dbd
000003e0: 159c 90bd b2b4 85bd 9459 d5bd c6bc 923d
000003f0: f167 c23b 72db cd3d 5f4d ee3c c8ec 7cbd
-0.06154668 0.067562014 -0.024156775 -0.10147021 0.0667984 0.07405457 0.009295375 -0.033846505
0.11023445 -0.06712581 -0.10388023 -0.021560712 0.020532483 0.115646146 -0.05071169 -0.11658973
0.11572554 -0.09238447 -0.11620086 0.021691943 0.108225144 0.100908466 0.035931073 -0.049730442
-0.04652172 0.10037828 -0.031421825 -0.041496016 -0.028269662 0.041198432 0.085843734 0.00051336264
-0.048149318 0.04716721 -0.015922587 -0.03159158 -0.06581979 0.066456094 -0.11279444 -0.09494294
-0.028517317 0.072419114 0.10082112 0.021099402 0.09623941 0.034587305 -0.07066856 -0.026607418
0.10538229 0.082313314 0.10144959 0.11567509 0.0023368038 -0.093935095 0.009279078 -0.09462217
-0.063682005 -0.04712526 0.1058489 0.027668577 0.06626041 0.0578724 -0.07453267 -0.0065792636
-0.00095641037 0.04793781 -0.0191862 0.04399898 0.038198546 -0.07944925 0.042306643 -0.07196258
-0.11011922 0.02585452 -0.060445085 0.03630521 0.044032935 0.07926184 0.024985312 -0.029053649
-0.062493354 0.0008234511 -0.0808571 0.10631842 0.06828871 -0.03963935 0.11463875 -0.116354875
0.020128688 0.067740254 -0.002987228 -0.027495565 0.022725707 -0.08541486 0.058390778 -0.08171993
0.090322874 0.022954803 0.1062364 0.08877273 -0.07464804 -0.026637357 0.034961347 -0.09380723
0.025010193 -0.06806358 0.10099132 -0.0035281128 -0.06940008 0.076652266 -0.111251175 0.07396832
-0.07966118 -0.023768378 -0.0145834135 -0.052632537 -0.021023396 0.019644197 -0.046436626 0.099621706
0.112694986 0.0856907 0.012407119 -0.03412695 0.10165256 0.07073508 -0.102401346 0.07905609
0.101062566 -0.08990741 0.07205733 0.10080068 0.0854929 0.09269796 0.03034441 -0.064052686
0.059616394 0.05021741 0.11431254 -0.11590569 -0.11774348 -0.060544286 0.075231336 -0.031011498
-0.025814326 0.048990414 -0.043968167 -0.059155364 0.05167229 -0.08260399 0.07482304 -0.079953104
-0.07660378 0.012702245 0.054063 -0.058926985 -0.03159669 -0.030107476 -0.02916937 -0.082817346
0.05412612 0.00058419746 0.0029143142 -0.06909727 0.06005114 0.01300115 -0.10554272 0.10559215
-0.081054404 -0.02832219 0.09341382 0.08440154 -0.07645523 0.09147827 -0.016139377 0.05411328
0.10441844 -0.08009729 0.09431602 -0.043151602 0.0051539694 0.039718475 0.083432354 -0.054411482
-0.049644955 0.031380534 -0.09248203 -0.030644173 -0.038361963 0.09344271 -0.049924515 -0.07607141
0.066602245 0.04703115 0.050954275 0.015280326 0.085148335 0.046994958 -0.035089977 -0.079372056
0.11447853 0.08019136 -0.03633908 0.045115195 -0.019738676 0.11352966 0.10779718 -0.08647147
0.034736827 -0.10808273 0.06680656 -0.06228928 -0.0989506 -0.05255032 -0.099941544 -0.10026806
-0.06013935 -0.095198676 -0.096414246 0.032811787 0.079326846 -0.0543316 -0.10134349 -0.037563857
-0.087619714 0.029909946 -0.08900729 -0.029968053 -0.101298325 0.023576075 0.056078505 0.054705948
0.03297301 -0.090741225 -0.028689682 -0.0328226 -0.06978917 0.062851176 -0.040410426 -0.01329372
0.031678457 -0.0063040587 -0.102479585 0.028589612 0.04553794 0.06795752 0.037085544 -0.046269894
-0.0706102 -0.065286055 -0.10417476 0.07164912 0.005932801 0.100516215 0.029089628 -0.06174925

encoder.feed_forward.2.bias f4 [36]
00000000: 6451 5ebd ffd0 443d 84a8 74bd d210 89bd
00000010: 4ed6 d43d a23f 81bd 5eb4 b3bc 1f6e a23b
00000020: 3eba 803c c371 d33d 31cb 593d 8ec2 e5ba
00000030: 2f9f e13d 351f dabd 4d48 0a3c 8cff 99bd
00000040: c239 babc 569f d13d a013 943d 14ed 3f3c
00000050: 61ef dcbd 220e b1bb 9424 9d3d efba 3f3d
00000060: 9b2c 0a3d 912a a33d c1f8 f0bd e98c debd
00000070: 96cb 033d b9a1 d1bd b9aa 9dbd 1dc0 19bd
00000080: 39ed d6bd b92c 95bd e7b0 a7bd 2ce9 d63d
-0.05427684 0.048050877 -0.05973102 -0.06692661 0.10392438 -0.06310965 -0.021936592 0.004956975
0.015713807 0.10324433 0.053172294 -0.0017529295 0.1101669 -0.106504835 0.008440089 -0.07519445
-0.02273262 0.10235469 0.07230306 0.011714239 -0.107878454 -0.005403296 0.07672992 0.046809133
0.033733945 0.07967103 -0.11766196 -0.1086672 0.032176577 -0.10235924 -0.076985784 -0.03753673
-0.104944654 -0.07283921 -0.08188038 0.10493693

encoder.norm0.weight f4 [18]
00000000: 0000 803f 0000 803f 0000 803f 0000 803f
00000010: 0000 803f 0000 803f 0000 803f 0000 803f
00000020: 0000 803f 0000 803f 0000 803f 0000 803f
00000030: 0000 803f 0000 803f 0000 803f 0000 803f
00000040: 0000 803f 0000 803f
1.0 1.0 1.0 1.0 1.0 1.0 1.0 1.0
1.0 1.0 1.0 1.0 1.0 1.0 1.0 1.0
1.0 1.0

encoder.norm0.bias f4 [18]
00000000: 0000 0000 0000 0000 0000 0000 0000 0000
00000010: 0000 0000 0000 0000 0000 0000 0000 0000
00000020: 0000 0000 0000 0000 0000 0000 0000 0000
00000030: 0000 0000 0000 0000 0000 0000 0000 0000
00000040: 0000 0000 0000 0000
0.0 0.0 0.0 0.0 0.0 0.0 0.0 0.0
0.0 0.0 0.0 0.0 0.0 0.0 0.0 0.0
0.0 0.0

encoder.norm1.weight f4 [36]
00000000: 0000 803f 0000 803f 0000 803f 0000 803f
00000010: 0000 803f 0000 803f 0000 803f 0000 803f
00000020: 0000 803f 0000 803f 0000 803f 0000 803f
00000030: 0000 803f 0000 803f 0000 803f 0000 803f
00000040: 0000 803f 0000 803f 0000 803f 0000 803f
00000050: 0000 803f 0000 803f 0000 803f 0000 803f
00000060: 0000 803f 0000 803f 0000 803f 0000 803f
00000070: 0000 803f 0000 803f 0000 803f 0000 803f
00000080: 0000 803f 0000 803f 0000 803f 0000 803f
1.0 1.0 1.0 1.0 1.0 1.0 1.0 1.0
1.0 1.0 1.0 1.0 1.0 1.0 1.0 1.0
1.0 1.0 1.0 1.0 1.0 1.0 1.0 1.0
1.0 1.0 1.0 1.0 1.0 1.0 1.0 1.0
1.0 1.0 1.0 1.0

encoder.norm1.bias f4 [36]
00000000: 0000 0000 0000 0000 0000 0000 0000 0000
00000010: 0000 0000 0000 0000 0000 0000 0000 0000
00000020: 0000 0000 0000 0000 0000 0000 0000 0000
00000030: 0000 0000 0000 0000 0000 0000 0000 0000
00000040: 0000 0000 0000 0000 0000 0000 0000 0000
00000050: 0000 0000 0000 0000 0000 0000 0000 0000
00000060: 0000 0000 0000 0000 0000 0000 0000 0000
00000070: 0000 0000 0000 0000 0000 0000 0000 0000
00000080: 0000 0000 0000 0000 0000 0000 0000 0000
0.0 0.0 0.0 0.0 0.0 0.0 0.0 0.0
0.0 0.0 0.0 0.0 0.0 0.0 0.0 0.0
0.0 0.0 0.0 0.0 0.0 0.0 0.0 0.0
0.0 0.0 0.0 0.0 0.0 0.0 0.0 0.0
0.0 0.0 0.0 0.0

decoder.attn_0.in_proj_weight f4 [108, 36]
00000000: 86c7 233e bb94 083d 856f 253e b843 80bc
00000010: 64d8 a2bd a16f 1b3e 6e3b 5a3d 6a90 133d
00000020: 6427 ca3c f8c3 613d 0748 bcbd 1bbb d2bc
00000030: 60ce c23d 3067 2e3e d568 42be c0b7 093e
00000040: 3bed 263e 01fd 833d 8f29 90bd ea7f d43d
00000050: 22e3 0bbe 6a40 17be 058c 4e3e df5f 33bd
00000060: f5d1 b13d 89e3 10be ddde 0ebd e308 22bd
00000070: ebe9 273d d162 66bc 7b94 353c 9384 38bc
00000080: 3634 303e b236 7abd 686e 293e ce07 a53d
00000090: 5eb1 94bd b8dd 96bc 6a18 3abe 1872 21be
000000a0: af9e acbd 3146 403e fd3f 4abe 0d22 c43d
000000b0: 806d 4d3e f5cc 28bd a6bc 853d 4d27 c63b
000000c0: b145 18be 0521 5a3c 6c90 0a3e 4bd1 283e
000000d0: eae7 333e 2ba2 70bd 215d 4a3e a96a 02be
000000e0: 6611 2e3d dce1 e63d 20d2 de3d f45c d2bc
000000f0: 60ca cebb b68a cfbc a94d 28be 17fe 02be
00000100: e4ef 49be 990d b7bd 53c4 a6bd 5b98 9abc
00000110: 3e62 e1bc d4b2 953c 068e c33d 13a5 4b3e
00000120: 9644 803c ff14 e1bd 6cab bdb9 55d0 c93d
00000130: dca6 a4bd 64a4 22be 6316 933d b832 363e
00000140: a061 433e 6694 9f3d 1a06 17be 8c47 1bbb
00000150: 742e 0fbe 1266 313e 0925 403e da40 4c3d
00000160: 80ba eb3c 8ca9 c5bd fe26 00be 3682 23bc
00000170: 4dbe 253e c8e3 13be 3a2a 1e3e a346 ee3d
00000180: f0f1 2dbe c7fb ffbd 3482 4e3e 35df 013d
00000190: feb7 f23d 911e 80bc 058f 7d3d 912b 0e3e
000001a0: 7909 483e b74c a33d 86c9 36bd f98e 183e
000001b0: 60fa 953c 2fdd fabd 41f3 43be 1e6f c0bd
000001c0: ed2d 893d a206 853d b52e d6bd 2834 fe3c
000001d0: c15c b5bc e1af 89bd 4a87 46bd b163 11bc
000001e0: 398f 053e c6ae 373e 8d7b 49be 55f2 0b3e
000001f0: 0d1d a83d e59f 4dbd 9308 28be 6ec8 cc3d
00000200: f228 143d 8704 d33d f973 27be 45cc 123e
00000210: dbbc 033e 8095 253e 2019 4bbe 9a7f b3bd
00000220: 2931 9a3d 37be a6bd 5718 f23d 9c66 0c3e
00000230: 0305 3abe 06f3 423e b0bd 17be 36de c1bd
00000240: 7c5a 1dbe f2ab 4f3e 6426 d13d 629f e0bd
00000250: d7ab 02bd 1b14 1ebe 3e8e 273d dbe2 41bd
00000260: e9b5 c93d 7e26 2c3e 1589 073e d61f 423e
00000270: 167b 07be e0fa 58bd 8f1f fc3d 2056 80bd
00000280: c15c b43d 7d17 0dbd 85f4 633d 41a3 3e3e
00000290: 0543 1ebe d9ec cd3d 56de 293e b671 123e
000002a0: dabc 1b3e d914 0a3e 761a c3bd 660d 01be
000002b0: f2f5 5b3d f1e4 a83d 742f 98bd 6cae 3a3e
000002c0: cff9 c93d 14a8 193e fd0d 323e 59da 0e3e
000002d0: 0105 bfbb 2cad 81bd 4a91 2c3e 1d85 dbbd
000002e0: d93d d33c 128c 7abd e399 4dbe 08b0 20be
000002f0: 213f ec3d 2429 863d 1f87 0a3e 7903 fabd
00000300: c5a2 07be a062 1fbe 2462 4fbc 1159 ccbd
00000310: 7bd6 2fbc 2d6c d53c b76e 25be f2a0 f8bd
00000320: e2e4 c5bd a2b7 373e ab08 5e3d a7ff 34be
00000330: 6d5d 203d d308 143d 1124 e9bb f949 47bd
00000340: 0824 333e 5624 63bd 49c3 113e 52d8 343e
00000350: ac71 30be 931b 2bbe c319 9e3d cf1e fbbc
00000360: c959 0abc 80f9 4e3d fbe7 1ebd 8ff1 473e
00000370: ca6d 9cbc ba23 e23d a003 44be 62d2 21be
00000380: 7cef a63d 5b5a 87bd 3e96 993d f555 e6bb
00000390: 6453 c6ba e9fe 733c 5fbe 17be 5252 c63d
000003a0: c0d7 103e d06f 07bd 8bc3 67bb 811d a23d
000003b0: 759f 57bc 62e7 443e 1bb0 983d d2bb bb3d
000003c0: 8cfa 7c3d c6fb 2d3e 49d3 71bd 67cb 2cbe
000003d0: 8d57 323e e0d1 0e3d f28a 22be d056 11be
000003e0: 1c0b 73bd 26d7 2d3d 636a 04be ff97 2d3d
000003f0: 1a67 5dbd 1bb7 d0bd b775 2bbe 9a20 453e
0.15994081 0.033344965 0.16155823 -0.01565729 -0.079514295 0.15179302 0.053279333 0.036026396
0.024676986 0.05511853 -0.091934256 -0.025723984 0.09512019 0.1703155 -0.18985303 0.13449001
0.16301434 0.06444741 -0.07039177 0.1037596 -0.13660863 -0.14770666 0.201706 -0.0437926
0.08682624 -0.14149298 -0.034880508 -0.039559256 0.040994566 -0.014061646 0.011082764 -0.011262077
0.17207417 -0.061087318 0.16546023 0.08058129 -0.072603926 -0.01841627 -0.18173376 -0.1576618
-0.08428704 0.18776776 -0.19750972 0.09576807 0.20061302 -0.041211087 0.065301225 0.0060471655
-0.14870335 0.0133135365 0.13531655 0.16486089 0.17568937 -0.058748405 0.19762088 -0.12736
0.04249706 0.11273548 0.10879922 -0.02567909 -0.006310746 -0.025334697 -0.16435875 -0.1279224
-0.19720417 -0.089381404 -0.081429146 -0.018871477 -0.027512666 0.018273748 0.09548573 0.1988719
0.015657704 -0.10990333 -0.00036176608 0.09854189 -0.080396384 -0.15883023 0.07182004 0.17792785
0.1908021 0.07791977 -0.14748421 -0.0023693768 -0.13982564 0.17324093 0.18764128 0.049866535
0.028775454 -0.09651479 -0.12514874 -0.009979775 0.16185875 -0.1444236 0.15445796 0.11634567
-0.16986823 -0.124991946 0.20166856 0.031707007 0.118515 -0.015639575 0.061903972 0.13883807
0.19534864 0.079736166 -0.04462578 0.1489829 0.018307865 -0.12249219 -0.19135763 -0.09396194
0.06698213 0.06495406 -0.104581274 0.03103073 -0.022138955 -0.06722999 -0.048468865 -0.008873866
0.13042916 0.17937765 -0.19676037 0.13666661 0.08208666 -0.050201315 -0.16409521 0.099991664
0.03617186 0.10303598 -0.16352834 0.14335735 0.12865011 0.16170311 -0.19833803 -0.087645724
0.07528908 -0.08141749 0.11821049 0.13711017 -0.18165974 0.19038019 -0.14818454 -0.094662115
-0.15366548 0.20280436 0.102124006 -0.109679 -0.03190216 -0.15437357 0.040907137 -0.047335487
0.0984915 0.16811559 0.13235886 0.18957457 -0.13230547 -0.052973628 0.12310707 -0.06266427
0.08806754 -0.03444623 0.055653114 0.18616964 -0.15455253 0.10054941 0.1658872 0.1430119
0.1520876 0.13484515 -0.095265314 -0.12602767 0.05370135 0.08246792 -0.07430926 0.18230599
0.098621 0.15005523 0.17388149 0.1395048 -0.005829454 -0.06331858 0.16852298 -0.10718749
0.025786327 -0.061168738 -0.20078234 -0.1569215 0.115354784 0.06550816 0.13528107 -0.122076936
-0.13245685 -0.15564966 -0.012657676 -0.099779256 -0.0107322885 0.026052559 -0.16155516 -0.12140073
-0.096627966 0.17941144 0.054207485 -0.17675649 0.039151598 0.036141228 -0.007114895 -0.04865453
0.17494214 -0.055454575 0.14234652 0.17660645 -0.17230862 -0.16709737 0.077197574 -0.03065434
-0.008444258 0.05053091 -0.038795453 0.19525741 -0.01909532 0.110419706 -0.19142008 -0.15802911
0.08151147 -0.06609031 0.074993595 -0.00702929 -0.0015131054 0.014892318 -0.14818715 0.0968367
0.14144802 -0.033065617 -0.0035364355 0.07915784 -0.013160576 0.1922889 0.074554645 0.09166683
0.061762378 0.16990575 -0.059039388 -0.16874467 0.1741621 0.03486812 -0.15873316 -0.14193273
-0.059336767 0.04244151 -0.12931208 0.042381283 -0.054053403 -0.101911746 -0.16744123 0.19250718

decoder.attn_0.in_proj_bias f4 [108]
00000000: 0000 0000 0000 0000 0000 0000 0000 0000
00000010: 0000 0000 0000 0000 0000 0000 0000 0000
00000020: 0000 0000 0000 0000 0000 0000 0000 0000
00000030: 0000 0000 0000 0000 0000 0000 0000 0000
00000040: 0000 0000 0000 0000 0000 0000 0000 0000
00000050: 0000 0000 0000 0000 0000 0000 0000 0000
00000060: 0000 0000 0000 0000 0000 0000 0000 0000
00000070: 0000 0000 0000 0000 0000 0000 0000 0000
00000080: 0000 0000 0000 0000 0000 0000 0000 0000
00000090: 0000 0000 0000 0000 0000 0000 0000 0000
000000a0: 0000 0000 0000 0000 0000 0000 0000 0000
000000b0: 0000 0000 0000 0000 0000 0000 0000 0000
000000c0: 0000 0000 0000 0000 0000 0000 0000 0000
000000d0: 0000 0000 0000 0000 0000 0000 0000 0000
000000e0: 0000 0000 0000 0000 0000 0000 0000 0000
000000f0: 0000 0000 0000 0000 0000 0000 0000 0000
00000100: 0000 0000 0000 0000 0000 0000 0000 0000
00000110: 0000 0000 0000 0000 0000 0000 0000 0000
00000120: 0000 0000 0000 0000 0000 0000 0000 0000
00000130: 0000 0000 0000 0000 0000 0000 0000 0000
00000140: 0000 0000 0000 0000 0000 0000 0000 0000
00000150: 0000 0000 0000 0000 0000 0000 0000 0000
00000160: 0000 0000 0000 0000 0000 0000 0000 0000
00000170: 0000 0000 0000 0000 0000 0000 0000 0000
00000180: 0000 0000 0000 0000 0000 0000 0000 0000
00000190: 0000 0000 0000 0000 0000 0000 0000 0000
000001a0: 0000 0000 0000 0000 0000 0000 0000 0000
0.0 0.0 0.0 0.0 0.0 0.0 0.0 0.0
0.0 0.0 0.0 0.0 0.0 0.0 0.0 0.0
0.0 0.0 0.0 0.0 0.0 0.0 0.0 0.0
0.0 0.0 0.0 0.0 0.0 0.0 0.0 0.0
0.0 0.0 0.0 0.0 0.0 0.0 0.0 0.0
0.0 0.0 0.0 0.0 0.0 0.0 0.0 0.0
0.0 0.0 0.0 0.0 0.0 0.0 0.0 0.0
0.0 0.0 0.0 0.0 0.0 0.0 0.0 0.0
0.0 0.0 0.0 0.0 0.0 0.0 0.0 0.0
0.0 0.0 0.0 0.0 0.0 0.0 0.0 0.0
0.0 0.0 0.0 0.0 0.0 0.0 0.0 0.0
0.0 0.0 0.0 0.0 0.0 0.0 0.0 0.0
0.0 0.0 0.0 0.0 0.0 0.0 0.0 0.0
0.0 0.0 0.0 0.0

decoder.attn_0.out_proj.weight f4 [36, 36]
00000000: 60d5 3d3d c002 523c 20a6 dd3c 9029 243d
00000010: a081 003d ef15 0e3e 608a fd3d 1041 d8bd
00000020: e0a0 cebd 2c73 01be e042 f23c 7059 193d
00000030: 0874 f53d 38f4 cb3d 1aac 043e 5ec0 bb3d
00000040: abcd d8bd e809 fbbd 360c da3c 33b6 e03d
00000050: 161b 4ebd 5bee 8dbd 3318 b1bd b345 aa3d
00000060: ab8a 3d3b 48a6 a63d c027 5ebd abe5 81bd
00000070: b856 c7bd 2e2c 12be 5769 27be 7004 183d
00000080: 5b01 ec3d f2da 0abe 62d5 283e 770b 2a3e
00000090: f0c3 b33d 7b60 f33d 2811 c7bd f6fa 8e3d
000000a0: 4b86 bc3c 6b7a 1c3c 16f5 083e 2b27 33bd
000000b0: 9e4c d53d 1658 453d 725e 243e 0e3e ec3d
000000c0: a80e 993d e371 0bbe 227b 0bbe 607a 8bbd
000000d0: 801e e9bb 58d0 99bd 8b1a f1bc c2d4 21be
000000e0: 96cf a2bd 5e24 a33d d634 76bd 8809 93bd
000000f0: 77c7 03be 68f0 cc3d 8055 5d3d 287f 99bd
00000100: bbd8 183e 567b 1dbb c079 aabd 96cb 0fbe
00000110: 9368 f5bd 372a 20be 5baa 02bd 948f 17be
00000120: d848 bdbd a0f9 6f3d 5647 ec3b efa3 053e
00000130: b454 10be 0047 89bd c0cd 6a3c 2bd8 51bc
00000140: d676 c33d 6e13 a6bd 1b7a a83d 302d 1dbe
00000150: 1e66 fdbd 78f7 0e3e ab3b 683c fb3b 05be
00000160: 2b21 bfbc dbb3 dbbd fbc0 41bd 5678 3e3b
00000170: f4e0 11be 267a 2b3d 7b36 2ebd b8fc e9bd
00000180: 0b03 663d b63c fa3d 80c4 ac3b 1b13 71bd
00000190: 1016 9d3d 166a 6e3c f678 003e c3f3 a83d
000001a0: db33 1e3d 33f2 063e 1680 b63d e09b eabd
000001b0: 1c10 0a3e a022 f0bd 2e9b febd 766c 04bd
000001c0: 66bb e2bd c3c3 263e 4c24 05be 9e42 003e
000001d0: e09f d23d 0ec0 cebd 9ba6 ecbd b690 163e
000001e0: ce43 083e f826 d23d 7c37 24be 0602 d0bd
000001f0: 6386 c93d 426f 22be 2054 b53d 73ba 04be
00000200: 40dc d2bd 5654 99bc ae24 fdbd db5c e5bd
00000210: ebb5 28be 6baa 4abd 96ce f83d b643 533d
00000220: fb60 fb3d eb85 56bc e2e1 1c3e 6075 69bd
00000230: 438a f43d f3a5 9c3d ab3a 40bc 9bde 63bd
00000240: 6bc2 01be 069e 30bd a322 c1bd fb1f 06be
00000250: 6e16 bbbd a3bf c8bd 3835 e13d 4e1f a0bd
00000260: 9686 3fbd 40ba 7bbd ab58 e53b de57 f2bd
00000270: 3ba7 1bbe eb25 523c a048 64bd 1f26 03be
00000280: a0e2 3dbd 800b 013d 807c 8d3b 208c 71bd
00000290: a3d9 ed3d c496 093e 1029 263e 5a4f 023e
000002a0: 8b9d 25bd 3045 0bbe 2b0a f93c aba3 993d
000002b0: 8070 febb 56b4 4f3c fc7a 09be fa8c 08be
000002c0: eec0 a2bd 4fa7 18be 5e86 e93d c669 eabd
000002d0: a091 f63c 80af 7e3d 0cdf 05be dabb 1fbe
000002e0: 4477 023e c0ec 333c 2bf8 9bbc e659 0cbe
000002f0: 8611 0bbe c0cc 0ebe d6c9 ca3c b0cb 27bd
00000300: a6ba d8bd f8d1 29be 667a 763d 4b86 3e3d
00000310: fbbd 03be 18ca e83d ab97 73bb 9fcb 1f3e
00000320: 1ee4 903d 4828 efbd dcd7 14be 60d4 b4bd
00000330: 10a7 53bd 001a c13d ff4c 0c3e e628 4fbd
00000340: 2bf1 d23b e4ed 25be 6bc0 153e 834c fa3d
00000350: c033 bd3c 6c57 06be 16e5 61bd d6f4 8e3d
00000360: eb41 db3c 56e4 a23c abe8 113e 5688 753c
00000370: 5b2a d73d ebdb a03c 40bd da3c 1661 b53d
00000380: becc 163e 0000 a437 1ca5 03be f8fa 0f3e
00000390: f334 15be 330e b7bd 38b0 f23d 16b9 60bd
000003a0: b04a b33d 8ec9 203e e86b 9dbd cba5 87bc
000003b0: deab a43d 23ad 1bbe 003c 04ba 56b3 f73a
000003c0: 403a e03c b009 76bd b666 c4bc e064 013e
000003d0: 0f7b 283e 8bc6 34bd 94ed 15be 733d 0d3e
000003e0: a686 793d db8e 6e3d fa95 153e 033b d03d
000003f0: aba3 74bb aa7c 2a3e 131f 01be 2e7f a4bd
0.04634607 0.012818038 0.027056754 0.0400787 0.03137362 0.13875555 0.123799086 -0.10559285
-0.10089278 -0.12641591 0.029572904 0.03743881 0.11985022 0.099586904 0.12956277 0.091675505
-0.10586103 -0.12257749 0.02661715 0.10972252 -0.0503188 -0.06930228 -0.08647194 0.08314075
0.0028921764 0.081371844 -0.054237127 -0.06342634 -0.09733337 -0.14274666 -0.16348778 0.037113607
0.11523696 -0.13560084 0.16487649 0.16605936 0.087776065 0.118836366 -0.09720069 0.06981461
0.023013255 0.009550671 0.13374743 -0.043738525 0.10415004 0.04817971 0.16051653 0.115352735
0.074734986 -0.13617663 -0.1362119 -0.068104506 -0.0071142316 -0.075104415 -0.029431602 -0.15803817
-0.0794975 0.07965921 -0.060108982 -0.07179552 -0.12869059 0.10006791 0.054036617 -0.07494956
0.14926426 -0.0024029813 -0.08324003 -0.14042506 -0.119828366 -0.15641104 -0.031900745 -0.14800864
-0.092424095 0.05858767 0.0072106523 0.13050817 -0.14094812 -0.06702995 0.014331281 -0.012807886
0.095441505 -0.08109175 0.08226415 -0.15349269 -0.12372993 0.1396159 0.014174382 -0.13011162
-0.023331245 -0.10727664 -0.04730318 0.0029063425 -0.14245969 0.041864537 -0.042532425 -0.114251554
0.056155246 0.12218611 0.005272448 -0.05885611 0.07670224 0.01455166 0.12546143 0.08249619
0.038623672 0.13178329 0.08911149 -0.11455512 0.13482708 -0.11725354 -0.12431942 -0.03233
-0.110709 0.16285615 -0.13002127 0.12525412 0.102844 -0.10095225 -0.11555215 0.1470364
0.13307115 0.10261339 -0.1603679 -0.10156636 0.09840085 -0.15862754 0.08853936 -0.1296175
-0.102959156 -0.018716972 -0.12360512 -0.111993514 -0.16475646 -0.04947893 0.12148778 0.051578246
0.12274357 -0.013093452 0.15320542 -0.056996703 0.11940434 0.0764884 -0.0117327375 -0.055632215
-0.12671821 -0.043119453 -0.094304346 -0.13098137 -0.091351375 -0.09802177 0.10996479 -0.07818471
-0.04675921 -0.06145692 0.0069990954 -0.118331656 -0.15200512 0.012826423 -0.055733323 -0.12807511
-0.046358705 0.031505108 0.00431782 -0.058971524 0.116137765 0.13436419 0.16226602 0.12725583
-0.040433448 -0.13600612 0.030400356 0.0750192 -0.007764876 0.012677273 -0.13425821 -0.13335028
-0.07946955 -0.14907573 0.11402582 -0.11445956 0.030098736 0.06217909 -0.13073367 -0.15599003
0.12740809 0.010981739 -0.019039234 -0.13706169 -0.13580903 -0.13945293 0.024754446 -0.040965736
-0.10582475 -0.16584003 0.060175322 0.04651479 -0.1286544 0.11366671 -0.0037169259 0.15605019
0.0707476 -0.11677605 -0.14535469 -0.0882957 -0.051672995 0.09428787 0.13701247 -0.050576113
0.006437441 -0.1620403 0.14624183 0.12221625 0.023095965 -0.13119286 -0.055150114 0.069802925
0.02676483 0.01988427 0.14248912 0.014986118 0.105061255 0.019636115 0.02670157 0.08856408
0.1472654 1.9550323e-05 -0.12855953 0.1406058 -0.1457098 -0.08938255 0.11850017 -0.05486401
0.0875448 0.15701887 -0.07686597 -0.016558548 0.080405936 -0.15202765 -0.0005044341 0.0018898051
0.027371526 -0.060067832 -0.023974758 0.12636137 0.16453193 -0.044134658 -0.1464141 0.13792972
0.060919426 0.058241706 0.14607993 0.101675056 -0.0037329 0.16649118 -0.1260951 -0.0803207

decoder.attn_0.out_proj.bias f4 [36]
00000000: 0000 0000 0000 0000 0000 0000 0000 0000
00000010: 0000 0000 0000 0000 0000 0000 0000 0000
00000020: 0000 0000 0000 0000 0000 0000 0000 0000
00000030: 0000 0000 0000 0000 0000 0000 0000 0000
00000040: 0000 0000 0000 0000 0000 0000 0000 0000
00000050: 0000 0000 0000 0000 0000 0000 0000 0000
00000060: 0000 0000 0000 0000 0000 0000 0000 0000
00000070: 0000 0000 0000 0000 0000 0000 0000 0000
00000080: 0000 0000 0000 0000 0000 0000 0000 0000
0.0 0.0 0.0 0.0 0.0 0.0 0.0 0.0
0.0 0.0 0.0 0.0 0.0 0.0 0.0 0.0
0.0 0.0 0.0 0.0 0.0 0.0 0.0 0.0
0.0 0.0 0.0 0.0 0.0 0.0 0.0 0.0
0.0 0.0 0.0 0.0
