models/model2.pth (torch, 178370 bytes, 35 tensors)

job_attn_0.in_proj_weight f4 [96, 32]
000000 0a 4a 2e 3e 10 1e ce 3b aa 69 af 3d f6 5d 5c be
       0.17020431 0.006290205 0.08565076 -0.21520218
000010 79 ae 75 3d b3 c8 43 be 36 b4 1d 3d 76 3e f6 3d
       0.059980843 -0.1911953 0.03850194 0.12023632
000020 8d 76 09 be 92 63 01 be e5 0e 14 3e 72 73 00 be
       -0.1342413 -0.1263564 0.14458807 -0.12544039
000030 4f 94 40 be 5c ca 34 3e e7 48 98 bd fb 57 1f be
       -0.18806575 0.17655319 -0.0743578 -0.15560906
000040 f1 24 fb bd 3e b6 16 3d dd 34 2b be a9 ef 2e 3d
       -0.122629054 0.036794893 -0.16719384 0.042709026
000050 e9 af 4b be 06 01 1d 3d 2b d5 b9 3d 24 ff 45 bd
       -0.19891323 0.038331054 0.09073862 -0.048339024
000060 7f 7f 48 3e c2 2a 28 3e ed 28 22 3d f1 a1 06 bd
       0.19579886 0.16422561 0.03958981 -0.032869283
000070 e4 4e d5 3d 1a d2 3f bd 29 01 5a be 32 44 3a bd
       0.10415438 -0.046831228 -0.21289505 -0.045475192
000080 b4 a2 04 3e 45 0e 46 3d 25 5d 2b 3e b2 b0 46 3e
       0.12952691 0.048353452 0.1673475 0.19403341
000090 ef 87 2a bd 59 2b 5b 3e 93 bc c7 bd 3e f4 31 be
       -0.041633543 0.21403255 -0.097527646 -0.17378327
0000a0 c4 e3 0d 3e 63 41 ab bd 32 c0 b6 3d cf ea 7d bd
       0.13856417 -0.08362081 0.08923377 -0.06199151
0000b0 58 e1 ab bc 9f e0 2d bc 5c 83 e8 3d f0 64 53 be
       -0.020981476 -0.010612636 0.1135318 -0.20643973
0000c0 80 a4 59 be 84 49 0e be 11 d9 04 be a5 f3 e0 3d
       -0.21254158 -0.13895231 -0.1297343 0.109839715
0000d0 40 67 40 3e e7 b6 32 3d e1 56 ac 3d 18 29 55 3e
       0.18789387 0.04363146 0.08415008 0.20816457
0000e0 9c 9f be 3d 7d 2b 1b 3e 9d e2 69 bd d0 2a 29 3e
       0.09307787 0.15153308 -0.05710088 0.16520238
0000f0 e1 57 46 bd aa c2 de bd a9 09 d4 bc 77 79 23 be
       -0.04842365 -0.10876973 -0.025883513 -0.15964304
000100 58 9e d9 3d e5 88 40 3e a5 80 ca bd ea 2a 47 3e
       0.10625905 0.18802221 -0.09887818 0.19449964
000110 29 82 d2 bb 0c 32 83 3d 83 f2 a3 bd 60 d1 00 3e
       -0.0064242077 0.0640603 -0.0800524 0.1257987
000120 64 1b e7 bb 5e 7c 13 be 4e 0c 13 3e e8 90 f5 bd
       -0.0070528258 -0.14402911 0.14360163 -0.11990529
000130 e9 45 43 3e 8a 74 9f 3d 6a 94 58 3e 0b 0f c9 3d
       0.19069637 0.077859 0.21150365 0.09817322
000140 e9 38 20 be 87 94 f7 bd 90 fb 2a 3e 4f 95 9e 3d
       -0.1564671 -0.12088876 0.16697526 0.07743322
000150 cc cf 58 be 42 01 0d be 0a 89 4b bd 43 6b 35 3d
       -0.21173018 -0.13770011 -0.049691238 0.044291746
000160 58 ee 51 3d 82 eb ea bc f4 ee 1f 3e 68 e4 ac 3d
       0.051252693 -0.028676752 0.15618497 0.084420025
000170 cc 23 00 bd c4 a5 5d be f9 72 90 bd 46 1b 08 be
       -0.03128414 -0.21645266 -0.07053179 -0.13291654
000180 19 1c 11 be 51 14 31 3d a5 23 59 3e c5 be 41 3e
       -0.14170875 0.043232266 0.21205004 0.18920429
000190 af fe 5c be b0 d9 da bd 12 2a ab bd 2b dd 39 ba
       -0.21581529 -0.10686052 -0.08357634 -0.00070901465
0001a0 b8 c3 02 be 70 65 c8 bd 97 2d d2 bd f0 70 14 3e
       -0.12769973 -0.09784973 -0.10262602 0.14496207
0001b0 85 c5 3f bd 83 29 47 3c b8 f2 79 bb 26 1a 08 bd
       -0.04681923 0.012155893 -0.0038139056 -0.033228062
0001c0 c6 38 13 bd ab 3d 16 3e b5 90 54 bb 8a 29 d9 bd
       -0.035942815 0.14671962 -0.0032434885 -0.10603626
0001d0 48 57 55 3e 29 64 6e bc 2d 23 45 3e f9 1a 3e be
       0.20834076 -0.014550247 0.192517 -0.18564977
0001e0 30 90 0c 3e 21 5b e0 3d 05 65 65 bd f2 aa 5f 3d
       0.13726878 0.109548815 -0.056004543 0.054606386
0001f0 47 08 c7 bc f4 6b 36 be fe 8a b2 bd 12 67 89 3d
       -0.02429594 -0.17814618 -0.08717917 0.06709112
000200 7e 3a 86 3d 0f 31 27 3d 81 15 49 be 4b 02 7f bb
       0.06554125 0.04081827 -0.1963711 -0.0038911279
000210 c3 01 f4 3c 3c 87 5b be 97 2e 2e bd 56 c5 32 3e
       0.029785996 -0.21438307 -0.0425249 0.1745809
000220 76 0f b2 3b 49 db 92 3d af 46 40 be 7c 4a 92 bd
       0.005433972 0.071707316 -0.18776964 -0.07143113
000230 45 22 18 be 4e 3e 23 3e 56 ac 21 3e bb dd 0b be
       -0.14856823 0.15941736 0.15788397 -0.13658802
000240 31 6c ff bd be c8 c5 3d 49 42 57 be c1 cf 8c 3d
       -0.12471808 0.09657429 -0.2102138 0.068755634
000250 66 be 2f bd 6b fd 4c 3e f0 7d 15 be 08 96 3c be
       -0.042906187 0.20018546 -0.14598823 -0.18416607
000260 cc 4f 04 3e 6c 49 7b bd d6 97 20 be 70 fb 19 3e
       0.12921065 -0.061349317 -0.15682921 0.15037322
000270 7a be 08 bd cd 7a 99 3d de b3 55 3e f6 bb 80 3d
       -0.033384778 0.074941255 0.20869395 0.06285851
000280 a3 04 b2 bb 7b 12 50 3e 60 19 92 3d 11 de 35 be
       -0.0054326816 0.2031955 0.07133746 -0.17760493
000290 1c cf 4a be 81 62 44 ba 5d c1 90 bd e4 f3 14 3e
       -0.19805568 -0.0007491485 -0.07068131 0.14546162
0002a0 43 e4 32 3d 84 2d 98 3d 26 63 a1 bd 22 c9 c7 3d
       0.04367472 0.074305564 -0.07880239 0.0975516
0002b0 74 93 47 3e cf 3e 55 be 00 f9 92 3d b0 56 12 be
       0.19489843 -0.20824741 0.07176399 -0.14290881
0002c0 59 3c 0b be f8 70 56 3e 0f 93 de bc 83 a4 51 be
       -0.1359724 0.20941532 -0.027169732 -0.20472912
0002d0 80 0c bf 3d 20 21 58 3e f0 6c 51 3e 5e b3 58 3d
       0.09328556 0.21106386 0.20451713 0.052905433
0002e0 05 26 af bd 20 0e 47 be f4 00 2c 3d da 30 bb bd
       -0.085521735 -0.19438982 0.041993096 -0.09140177
0002f0 88 fe 02 bd a5 fd 7a 3d 5c 7f 12 be 90 09 3f bd
       -0.03198102 0.06127705 -0.14306396 -0.04663998
000300 35 49 74 bc e6 3d c6 3d 15 13 d0 3d 2f eb e7 bc
       -0.014910032 0.09679775 0.101598896 -0.028310386
000310 d9 7b b1 bd b0 14 54 3e 9e 67 11 be fb 81 4e be
       -0.086662 0.20711017 -0.14199683 -0.20166771
000320 a1 bd b2 3d 19 f4 c0 bd b4 34 cf 3b f1 a0 52 be
       0.08727575 -0.09421558 0.0063234214 -0.20569207
000330 d6 dc 0c be ba 32 1b 3d bc 28 39 3d 53 ff 03 3e
       -0.13756117 0.037890173 0.045204863 0.12890367
000340 a0 12 4b 3e e3 f0 5a be 5f 38 0d 3e ce 5a 46 bd
       0.19831324 -0.21380953 0.13791035 -0.04842644
000350 ba d3 14 be 1b 57 94 bd 98 ad 59 3e c9 6e e4 bd
       -0.14533892 -0.072431765 0.21257627 -0.11153943
000360 0b b0 3f be dd c0 47 3e 93 7e c2 3d f5 58 39 3e
       -0.18719499 0.19507165 0.09496798 0.1810034
000370 e1 07 09 be b2 64 1d 3e aa b9 28 3d d1 1b 40 3e
       -0.13381912 0.15370443 0.041192688 0.18760611
000380 0b 9b bf 3d 58 f0 93 bd 9c 07 b9 bd 14 94 4d be
       0.09355744 -0.07223576 -0.090346545 -0.20076019
000390 95 eb 75 bd 4e 10 2b 3b 55 3b 0a be ef 6f 7e bd
       -0.06003912 0.0026102248 -0.13499196 -0.062118467
0003a0 ec 1b 85 bd 29 44 2a be d0 55 38 be ed 25 47 be
       -0.06499466 -0.16627564 -0.18001485 -0.19448061
0003b0 69 a4 bd bc 6f 1f ec bd 6d d8 fe 3d 6e a5 5d be
       -0.023149686 -0.11529433 0.12443624 -0.21645138
0003c0 af 71 e5 bd 1c 35 3b be 85 13 49 bd 0f 3a 88 bd
       -0.11203324 -0.18281978 -0.04909088 -0.06651699
0003d0 e1 af 45 be 04 29 94 bd aa 3b 49 be 28 95 e6 3d
       -0.19305374 -0.072343856 -0.19651666 0.11258918
0003e0 51 2a 62 3d 9f f7 27 be de 32 22 be 70 ce 1a be
       0.055216137 -0.16403054 -0.15839717 -0.15117812
0003f0 8d 04 cb bd ef e3 5b 3e 71 37 33 be b3 6f 0c be
       -0.09912977 0.21473669 -0.17501618 -0.13714485

job_attn_0.in_proj_bias f4 [96]
000000 00 00 00 00 00 00 00 00 00 00 00 00 00 00 00 00
       0.0 0.0 0.0 0.0
000010 00 00 00 00 00 00 00 00 00 00 00 00 00 00 00 00
       0.0 0.0 0.0 0.0
000020 00 00 00 00 00 00 00 00 00 00 00 00 00 00 00 00
       0.0 0.0 0.0 0.0
000030 00 00 00 00 00 00 00 00 00 00 00 00 00 00 00 00
       0.0 0.0 0.0 0.0
000040 00 00 00 00 00 00 00 00 00 00 00 00 00 00 00 00
       0.0 0.0 0.0 0.0
000050 00 00 00 00 00 00 00 00 00 00 00 00 00 00 00 00
       0.0 0.0 0.0 0.0
000060 00 00 00 00 00 00 00 00 00 00 00 00 00 00 00 00
       0.0 0.0 0.0 0.0
000070 00 00 00 00 00 00 00 00 00 00 00 00 00 00 00 00
       0.0 0.0 0.0 0.0
000080 00 00 00 00 00 00 00 00 00 00 00 00 00 00 00 00
       0.0 0.0 0.0 0.0
000090 00 00 00 00 00 00 00 00 00 00 00 00 00 00 00 00
       0.0 0.0 0.0 0.0
0000a0 00 00 00 00 00 00 00 00 00 00 00 00 00 00 00 00
       0.0 0.0 0.0 0.0
0000b0 00 00 00 00 00 00 00 00 00 00 00 00 00 00 00 00
       0.0 0.0 0.0 0.0
0000c0 00 00 00 00 00 00 00 00 00 00 00 00 00 00 00 00
       0.0 0.0 0.0 0.0
0000d0 00 00 00 00 00 00 00 00 00 00 00 00 00 00 00 00
       0.0 0.0 0.0 0.0
0000e0 00 00 00 00 00 00 00 00 00 00 00 00 00 00 00 00
       0.0 0.0 0.0 0.0
0000f0 00 00 00 00 00 00 00 00 00 00 00 00 00 00 00 00
       0.0 0.0 0.0 0.0
000100 00 00 00 00 00 00 00 00 00 00 00 00 00 00 00 00
       0.0 0.0 0.0 0.0
000110 00 00 00 00 00 00 00 00 00 00 00 00 00 00 00 00
       0.0 0.0 0.0 0.0
000120 00 00 00 00 00 00 00 00 00 00 00 00 00 00 00 00
       0.0 0.0 0.0 0.0
000130 00 00 00 00 00 00 00 00 00 00 00 00 00 00 00 00
       0.0 0.0 0.0 0.0
000140 00 00 00 00 00 00 00 00 00 00 00 00 00 00 00 00
       0.0 0.0 0.0 0.0
000150 00 00 00 00 00 00 00 00 00 00 00 00 00 00 00 00
       0.0 0.0 0.0 0.0
000160 00 00 00 00 00 00 00 00 00 00 00 00 00 00 00 00
       0.0 0.0 0.0 0.0
000170 00 00 00 00 00 00 00 00 00 00 00 00 00 00 00 00
       0.0 0.0 0.0 0.0

job_attn_0.out_proj.weight f4 [32, 32]
000000 5b f1 6e bd 50 d6 60 3d d4 f3 c0 bc 8f 31 2a 3e
       -0.058335643 0.054891884 -0.023553766 0.16620468
000010 0a 9b 28 3e 37 bb 1d be a3 c0 a1 bd 56 ba 11 3d
       0.16465393 -0.15403448 -0.07898071 0.035578094
000020 cc a6 28 3e 0a 74 8e 3d 74 22 e0 bd f3 61 0a 3e
       0.16469878 0.069557264 -0.109440714 0.13513927
000030 e8 81 ec 3d 74 6e 20 3e 31 c7 13 be cc 3c 12 be
       0.11548215 0.15667135 -0.14431454 -0.14281005
000040 5f b4 19 bd 61 2f 84 3d 31 25 b0 3d 32 5e 02 3e
       -0.03752553 0.06454349 0.08600844 0.12731245
000050 94 62 86 3d 88 47 33 3e 2b 9b 09 be 59 18 ad bd
       0.06561771 0.17507756 -0.13438098 -0.084519096
000060 3d 4c 6f 3d 25 04 3f bd 0f ba 20 be 39 8e 81 bc
       0.058422316 -0.046634812 -0.15695976 -0.015814887
000070 e0 e2 d6 3c 2f 9b 16 be 28 71 2f 3e 6f 5e 61 bc
       0.02623123 -0.14707635 0.1713301 -0.013755425
000080 68 8d fb bd 02 fc 11 3d e8 7b 2e be 4b 64 b6 bd
       -0.122828305 0.035640724 -0.17039454 -0.08905848
000090 14 54 2c 3e bd 54 7d bc 65 2f 01 be 87 6e c0 bd
       0.16828948 -0.015462098 -0.12615736 -0.093960814
0000a0 b5 77 22 3e e5 7c 1b 3e 18 fd 27 be 11 30 90 bd
       0.15865977 0.15184362 -0.16405141 -0.07040418
0000b0 99 29 10 be 91 48 8b 3a 10 2b 15 be ae 36 a8 bd
       -0.14078368 0.0010626485 -0.14567208 -0.08213554
0000c0 72 40 1f 3e 98 0b cb 3d 2f f7 14 3e a8 07 1c be
       0.15551928 0.09914321 0.14547418 -0.15237296
0000d0 a7 5e 2f bc 89 db 5b 3d 17 e0 aa bd 85 c1 ef bd
       -0.010703719 0.053676162 -0.08343523 -0.11706833
0000e0 e6 82 36 3d ba ad ff 3d 8a f7 14 be f2 ca 62 3d
       0.04455843 0.124843076 -0.14547554 0.055369325
0000f0 86 af ba bd 42 63 04 be 2e 62 56 bc c6 3d 48 bd
       -0.0911551 -0.12928489 -0.013084931 -0.048887037
000100 33 a3 11 3e f7 a4 cc 3d bb b1 f3 3c 0a b4 04 3d
       0.14222412 0.09992402 0.029747834 0.03239826
000110 e4 0d 1b 3e bb f3 d0 3d 9a 87 0b be ad 4e 20 be
       0.15142018 0.10202738 -0.13625947 -0.15655012
000120 f4 fd 97 bd 3f 68 0c 3d f9 df 3e bd dd 76 97 bd
       -0.074214846 0.034279104 -0.046600316 -0.07395718
000130 cf f4 cb bd 1c 23 06 be c0 43 0f 3d 51 d2 90 3d
       -0.09958803 -0.1309933 0.03497672 0.07071365
000140 73 e6 68 bc 0b f7 3e bd 23 d9 b3 3b 36 d0 25 3e
       -0.0142151 -0.046622317 0.005488531 0.16192707
000150 eb 07 cf bd 42 01 17 be 93 85 1c be 01 6a 5e 3b
       -0.10108932 -0.14746574 -0.1528533 0.0033937695
000160 b4 1e 9a 3d 03 43 2c 3e aa 1f 0c be 94 08 e9 bd
       0.075253874 0.16822438 -0.13683954 -0.11378589
000170 23 d1 98 bd 15 da 25 3e 4f 43 22 3e 20 6e 24 3e
       -0.07461765 0.16196473 0.15845989 0.16057634
000180 22 b5 97 3a 5a f8 10 be b8 e1 98 3d cb 92 80 bd
       0.0011574368 -0.14157239 0.074649274 -0.062779985
000190 df f0 6d 3d f9 91 57 3d a4 42 68 3d d8 4b ba 3d
       0.05809104 0.052629445 0.05670418 0.09096497
0001a0 23 2d 99 3c 9c 5c 34 be bd 68 1b be ce 66 c0 bc
       0.01869828 -0.17613453 -0.15176673 -0.023486521
0001b0 62 d0 b8 3c 03 cb 12 be 0b 3e 47 bd 87 bb 50 3d
       0.022560302 -0.14335255 -0.048643153 0.05096009
0001c0 84 b2 21 3e 68 a3 87 bd 67 3b de bd a8 d2 23 bd
       0.15790755 -0.06622964 -0.10851174 -0.03999582
0001d0 60 ae fb bc 00 ee da 3d d1 73 12 3d 04 e1 41 bd
       -0.030722797 0.10689926 0.035754982 -0.047333732
0001e0 04 8f c3 bd e4 d0 0d 3e 76 c4 e0 3b 06 a7 29 3e
       -0.095487624 0.13849217 0.0068593575 0.1656762
0001f0 a4 18 9b 3d 6a 6c 8e 3d d6 6c f7 3d 32 70 f0 bd
       0.07573059 0.06954272 0.12081306 -0.117401496
000200 6c d9 09 3e 2f 40 15 be 6d 5f df bd 97 8c d5 bc
       0.13461846 -0.14575265 -0.10906873 -0.026068015
000210 86 11 20 be e5 11 23 3e 35 29 f7 3d e3 93 e1 bd
       -0.15631685 0.15924795 0.120684065 -0.11014535
000220 bd 85 3c 3d c6 aa 25 be 9e 29 0b be 5b fd 3b bd
       0.04602598 -0.16178426 -0.13590094 -0.045895915
000230 c5 01 11 3e c0 09 28 be 7e 97 0b 3e ce 34 01 be
       0.14160831 -0.1640997 0.13632008 -0.126178
000240 0c 3e 5f 3c 48 eb 08 bb 81 52 43 bd 58 38 cd 3d
       0.013625633 -0.0020892192 -0.047686104 0.10020512
000250 3d 99 0d be b6 49 e4 bc 01 e7 93 bc 40 5e 7b 3d
       -0.13827987 -0.02786718 -0.018054487 0.06136918
000260 a2 4d c5 3d f9 41 f6 bd f3 98 f1 3d cb ae 06 bc
       0.09633948 -0.12024302 0.11796751 -0.008220385
000270 f2 8c a2 3d b0 bb b2 3d e7 a9 e8 3c ce 1a 00 be
       0.079370394 0.08727205 0.028401328 -0.12510225
000280 fd 3d ef 3d e7 11 31 be 7b df 14 3e b6 a0 0f 3d
       0.11681745 -0.17291985 0.14538376 0.035065375
000290 09 6e 1a 3e dd ad 7c 3c a8 80 27 3d 3c f5 4a 3c
       0.15081038 0.015422312 0.04089418 0.01238757
0002a0 38 3b 8b 3d b3 20 e6 3d 02 d7 d6 bd ba f8 25 3e
       0.067984045 0.11236706 -0.10490228 0.16208163
0002b0 76 d4 ff 3d e1 f5 08 3e 4d 90 ab 3c d8 f1 2a bd
       0.124916956 0.13375045 0.020942831 -0.041734546
0002c0 9a 0b a4 bc 35 a2 e5 bd af e0 a0 3c 10 21 45 3d
       -0.020025063 -0.11212579 0.019638387 0.048127234
0002d0 90 69 b4 bb 5b a4 1a be 32 b1 31 3e 4d bb f7 bd
       -0.005505748 -0.15101759 0.17352751 -0.12096272
0002e0 b3 a2 68 3d 02 2d be bd 94 f5 b0 3d 20 3b 4b 3d
       0.056795787 -0.09285928 0.0864059 0.049616933
0002f0 68 1a 8f bd 29 60 f3 bd 62 bd 6e 3d 0a d2 17 be
       -0.069874585 -0.118835755 0.05828608 -0.14826217
000300 cc f7 4a bd bd d5 23 be 5f aa 30 be 83 59 1a be
       -0.049552724 -0.15999503 -0.17252491 -0.15073209
000310 c0 2d 09 37 1b f5 1d 3e 71 b9 0a bd 5a ec 01 be
       8.176488e-06 0.15425532 -0.033868257 -0.12687817
000320 f6 74 f8 bc ad b7 23 bd 5f af 98 3d 3a 8e 1d 3e
       -0.030329209 -0.03997009 0.074553244 0.15386286
000330 ea 9c 0a 3e 46 99 b1 3d 47 65 22 be 8c 8d a1 3d
       0.1353642 0.08671813 -0.15858947 0.07888326
000340 e9 a6 29 be de 0c f5 bd 42 51 ba 3d 0c f8 9a bc
       -0.16567577 -0.11965345 0.0909753 -0.018917106
000350 a1 5e 03 3e 10 bd fa bd 51 5d 28 be ad 59 f1 3d
       0.12829067 -0.12243092 -0.16441847 0.117846824
000360 cd 24 98 bd ea 29 f3 bd 0c 5d 81 3d 86 f3 26 be
       -0.07428894 -0.11873229 0.063165754 -0.16303834
000370 03 dd 24 3e d8 92 9c 3d c7 c7 1c 3d 05 b9 14 3e
       0.16099934 0.07645196 0.03827646 0.14523704
000380 7c 95 94 bc 08 3f 3b 3d fe f3 a9 bd b9 d3 c4 3b
       -0.018137686 0.04571441 -0.08298491 0.0060066846
000390 3f fd d8 bd ff 99 91 bd 25 0e 7c 3c 4e 31 e4 3d
       -0.10595178 -0.071094505 0.015384232 0.111422166
0003a0 6f d6 1f be 52 01 1e be 10 eb 21 bd 92 fc bd bd
       -0.15609144 -0.15430191 -0.039530814 -0.092766896
0003b0 88 90 bc 3d 18 3b f9 bd 54 e4 f0 bc ce 30 bd 3d
       0.09207255 -0.12169474 -0.02940575 0.092378244
0003c0 3f f5 2a 3d 3e 7d 14 3e 67 af 04 3e df af cc 3d
       0.04173779 0.14500901 0.12957536 0.09994482
0003d0 2b 3c b1 bc 2a 53 80 3c e0 42 16 3c 05 b7 e5 bd
       -0.021635136 0.015664656 0.009171218 -0.11216549
0003e0 b5 15 ba 3d dd 2e b8 3d a6 10 9a bd 44 88 f5 3d
       0.090861715 0.089933135 -0.07522707 0.11988881
0003f0 5c b6 21 3e 05 c1 00 3e 4c 8f d1 3d 1e 5b 1e bd
       0.15792221 0.12573631 0.1023241 -0.038661115

job_attn_0.out_proj.bias f4 [32]
000000 00 00 00 00 00 00 00 00 00 00 00 00 00 00 00 00
       0.0 0.0 0.0 0.0
000010 00 00 00 00 00 00 00 00 00 00 00 00 00 00 00 00
       0.0 0.0 0.0 0.0
000020 00 00 00 00 00 00 00 00 00 00 00 00 00 00 00 00
       0.0 0.0 0.0 0.0
000030 00 00 00 00 00 00 00 00 00 00 00 00 00 00 00 00
       0.0 0.0 0.0 0.0
000040 00 00 00 00 00 00 00 00 00 00 00 00 00 00 00 00
       0.0 0.0 0.0 0.0
000050 00 00 00 00 00 00 00 00 00 00 00 00 00 00 00 00
       0.0 0.0 0.0 0.0
000060 00 00 00 00 00 00 00 00 00 00 00 00 00 00 00 00
       0.0 0.0 0.0 0.0
000070 00 00 00 00 00 00 00 00 00 00 00 00 00 00 00 00
       0.0 0.0 0.0 0.0

job_attn_1.in_proj_weight f4 [96, 32]
000000 ec ca 0c 3d e6 bf 72 3d 32 4b 10 3e 97 be 51 3e
       0.03437321 0.05926504 0.14091185 0.2048286
000010 db f6 35 bc 6d 2d 94 bc 53 a8 fc bd cc f5 3c bd
       -0.011106218 -0.018088067 -0.12336793 -0.046132848
000020 c9 47 79 3d 4e 07 06 3e de 7f a7 bd ad f3 f8 3a
       0.060859475 0.13088724 -0.081786856 0.001899352
000030 32 36 ec bd e9 f2 32 3e 50 6b cb 3d 84 7d 20 bd
       -0.115337744 0.17475475 0.099325776 -0.0391822
000040 4d 5d 91 bd 3a 42 b6 3d a4 f8 18 3e 86 72 0a 3b
       -0.07097874 0.088993505 0.14938599 0.002112539
000050 cc 6f 47 3e 85 bb f3 bd 1d 73 2c 3e 06 dd c7 bd
       0.19476241 -0.11901001 0.16840787 -0.09758954
000060 8f df 07 3e a3 de 57 be 2d 41 26 3e 2c e3 ae 3d
       0.13268875 -0.21081023 0.162358 0.08539423
000070 4d 32 14 bd ac b1 34 be ad bc 85 3d 86 0c d3 3d
       -0.036180783 -0.17645901 0.06530128 0.10305123
000080 c9 33 52 3c e9 04 04 be 75 63 39 3e 04 c1 c2 bd
       0.012829729 -0.12892498 0.18104346 -0.09509471
000090 ee 5b 78 bd 6b 80 0e 3e f3 24 3c be f7 c1 10 be
       -0.060634546 0.13916175 -0.1837347 -0.14136492
0000a0 f3 6b 68 bd 66 f1 ed bd f4 5c 3a be 5e ec 0b be
       -0.056743573 -0.11618309 -0.18199521 -0.13664386
0000b0 71 d6 15 3e b2 20 36 3d 9e 4a 1c bd d1 5a a2 3d
       0.14632584 0.044464774 -0.038157098 0.07927478
0000c0 83 55 0a 3c cf 92 cb 3d 0d aa 17 3e 70 79 05 be
       0.008443239 0.09940111 0.14810963 -0.13034606
0000d0 8f a9 9f 3d 73 fb 59 3e 6a ff 58 3e b1 37 26 be
       0.077960126 0.21287327 0.21191183 -0.16232182
0000e0 87 e2 ed 3d dd c4 12 3d da e0 26 3e 30 e1 b4 bd
       0.11615472 0.035832275 0.16296712 -0.088320136
0000f0 d9 1f 2b 3e 9a a7 4b 3e f4 a6 dc 3d 81 eb 4a bd
       0.16711368 0.19888154 0.10774031 -0.049541
000100 78 ec 3b bc a7 48 0b 3e 97 ea 50 bd 64 aa 7e bd
       -0.011469953 0.13601933 -0.051004972 -0.062174216
000110 9e 3a a8 3d 1f a0 f9 bd d3 50 3e be 53 63 18 be
       0.08214305 -0.12188744 -0.1858552 -0.14881639
000120 3a c7 52 3d 6c c4 2a 3c cc 64 c5 3b da e9 30 3d
       0.05145953 0.010422807 0.006023979 0.04319177
000130 67 ff c6 3c a0 36 01 3e 04 72 f6 bd c2 d4 2f be
       0.024291707 0.12618494 -0.120334655 -0.17171004
000140 46 bd af 3d f4 e3 19 3d fe 3e 01 3e 8f 30 46 3d
       0.08581023 0.03757091 0.12621686 0.048386153
000150 01 0e b8 3d f4 62 c4 bd b2 bf 1f bd d6 74 a1 3d
       0.08987046 -0.09589186 -0.039001174 0.07883613
000160 aa 13 01 3e 55 92 bb bd 13 68 29 be 5a fe f0 3b
       0.12605157 -0.0915877 -0.16543607 0.00735454
000170 e7 31 eb bd 0f 43 2d bd f9 51 0a be 17 5e 0d bd
       -0.114841275 -0.04230028 -0.13507833 -0.03451356
000180 e2 62 5b bd 25 14 32 be 77 ea 14 be a5 d5 f0 3b
       -0.0535611 -0.17390497 -0.14542566 0.007349687
000190 2e 9c 24 3e 0a 97 89 3d 8d fe f2 bc 88 3e c8 bd
       0.16075203 0.067182615 -0.029662395 -0.09777552
0001a0 83 7b 03 be e8 9e be 3c 09 01 d6 3c 18 1a fc bd
       -0.12840085 0.023269132 0.02612354 -0.123096645
0001b0 77 c9 e8 bd a5 42 2e 3e 75 27 e4 bd 59 53 cb bd
       -0.11366551 0.1701761 -0.11140338 -0.09928007
0001c0 3c 6c 15 bc 7d 52 fe 3d b0 f3 4c 3d 56 0a 93 3d
       -0.009120043 0.12418077 0.050037086 0.07179706
0001d0 c0 53 1d 3e c5 c8 d2 bd 89 71 d8 bd c8 01 3b 3e
       0.1536398 -0.102922 -0.1056853 0.18262398
0001e0 6c 47 82 3d a6 f8 55 3e 20 de 79 3d 41 91 92 3c
       0.06361279 0.20895633 0.06100285 0.017891528
0001f0 ef 17 17 3e 39 81 45 3e 72 40 e0 3d 2d bc 05 3d
       0.14755224 0.19287576 0.10949792 0.03265016
000200 24 b7 4b be b8 21 42 3e c3 bf 80 3d a1 b6 12 be
       -0.19894081 0.18958175 0.06286576 -0.1432748
000210 46 01 0c 3e 66 64 27 be a4 de 30 be 48 09 ca 3d
       0.13672361 -0.16346893 -0.1727243 0.098650515
000220 72 33 ba bc 1a 31 0a be 58 34 74 bd 19 cf f8 3d
       -0.02272961 -0.13495293 -0.05962023 0.12148876
000230 75 4d d5 bd 2f 96 d6 3d d3 de d7 bd 33 29 f5 bd
       -0.104151644 0.10477864 -0.10540547 -0.11970749
000240 a6 37 38 be 18 9a 07 be 68 51 87 3d ee a5 13 be
       -0.17989978 -0.13242376 0.06607324 -0.14418766
000250 6d dd 4f be b2 68 c8 3d 7a 45 47 be 4a f8 de 3d
       -0.20299311 0.09785594 -0.19460097 0.10887201
000260 57 f2 21 3e c7 0f 09 3c 8c aa 8d bc 8e b2 b1 3d
       0.15815102 0.008365578 -0.017293237 0.08676635
000270 81 8b 05 3e 8f 7b 76 bd a0 9e 9f bd 3a 69 39 bc
       0.13041498 -0.06017643 -0.07793927 -0.011316592
000280 b2 93 86 3d 8c 3b 53 3d d0 08 b6 3d cb c9 9d 3d
       0.065711394 0.05157046 0.088883996 0.077045046
000290 d4 e7 4b 3e bf 05 b2 bd 72 30 9c 3d d2 54 a4 3d
       0.19912654 -0.08692502 0.07626428 0.08023991
0002a0 be ae a7 bd 54 7b 07 3e bd 5f f4 3d f4 bf 1a 3d
       -0.08187626 0.1323064 0.11932323 0.037780717
0002b0 9b 02 56 3d bc 15 45 be 57 6d ef bd b4 35 c9 bd
       0.05224858 -0.19246572 -0.11690777 -0.09824696
0002c0 4d d2 d8 3d a1 da 81 3d 99 30 b4 3d 72 8e 69 bd
       0.10586987 0.06340528 0.08798332 -0.057020612
0002d0 cd c8 a7 bd 8c 20 92 3d 72 a7 4f 3e 28 9b 24 3e
       -0.081925966 0.07135114 0.20278719 0.16074812
0002e0 90 d7 4c 3e 30 eb 56 3d e9 bf f7 bc 41 3c 4c 3d
       0.20004106 0.052470386 -0.030242877 0.04986215
0002f0 2e 37 50 be d4 af 32 be d2 26 4c be 50 31 47 3e
       -0.2033355 -0.17449886 -0.19936684 0.19452405
000300 b6 48 fc b9 d7 b8 e1 3c 9e 8a 52 3e 59 a7 d5 3d
       -0.0004811936 0.027553959 0.20560691 0.1043231
000310 f0 ea 30 3d fb dd 60 3d 20 5e e1 bc 26 76 f7 bd
       0.043192804 0.054899197 -0.027510703 -0.12083082
000320 ee 6a bb 3d 32 03 40 be 5e e6 39 3c 54 47 5a be
       0.091512546 -0.18751219 0.011346428 -0.21316272
000330 31 98 07 3d fb 2c 64 bc 08 eb b5 3d 43 92 f6 3d
       0.033104125 -0.01392674 0.08882719 0.12039616
000340 ba c9 1b be 2d 67 3b 3e 57 73 01 3e fa 12 85 3d
       -0.15213671 0.18301077 0.12641655 0.0649776
000350 68 06 e0 3d ba 47 bc 3c 31 01 18 be 5e d8 fd bd
       0.10938722 0.02298342 -0.14844204 -0.123947844
000360 f9 0e 19 be 8b ab c8 bd 14 a1 12 be ba dd d4 bc
       -0.14947118 -0.09798344 -0.14319259 -0.025984634
000370 b9 10 53 3e 73 b7 23 3e aa 53 b2 3d e4 04 68 3d
       0.20611848 0.15987949 0.08707364 0.05664529
000380 80 12 07 3d 32 7f a5 bd 3c 0f 84 3d 66 76 54 be
       0.032976627 -0.08080901 0.06448218 -0.2074829
000390 01 22 11 3d 82 07 4c 3c 8d 14 29 be cd b0 36 be
       0.03543282 0.012452962 -0.16511746 -0.17840882
0003a0 b4 1f 9b bc 1d 82 2f 3e 8e b0 c6 bd b7 4b 4c 3e
       -0.018936016 0.17139478 -0.09701644 0.19950758
0003b0 5c 18 99 bd f1 b7 72 3d 88 32 0f be dc 6b 47 be
       -0.07475349 0.05925745 -0.1398412 -0.19474739
0003c0 62 ee af bd 06 73 43 3e e7 49 46 3e 35 58 8b 3d
       -0.0859039 0.19086847 0.19364129 0.068039335
0003d0 45 2f cd 3d 32 57 2d 3d 2c 6f 59 3e 96 ef 2a bd
       0.100187816 0.042319484 0.21233815 -0.041732393
0003e0 68 bc 7f bd 1c 07 00 bd e1 a3 3b 3e 9a 8c b2 3d
       -0.062435538 -0.03125678 0.18324234 0.08718224
0003f0 bb 2d 08 3e 36 11 46 3e 24 8e 3e be bb c4 63 bc
       0.13298695 0.19342503 -0.1860891 -0.013901885

job_attn_1.in_proj_bias f4 [96]
000000 00 00 00 00 00 00 00 00 00 00 00 00 00 00 00 00
       0.0 0.0 0.0 0.0
000010 00 00 00 00 00 00 00 00 00 00 00 00 00 00 00 00
       0.0 0.0 0.0 0.0
000020 00 00 00 00 00 00 00 00 00 00 00 00 00 00 00 00
       0.0 0.0 0.0 0.0
000030 00 00 00 00 00 00 00 00 00 00 00 00 00 00 00 00
       0.0 0.0 0.0 0.0
000040 00 00 00 00 00 00 00 00 00 00 00 00 00 00 00 00
       0.0 0.0 0.0 0.0
000050 00 00 00 00 00 00 00 00 00 00 00 00 00 00 00 00
       0.0 0.0 0.0 0.0
000060 00 00 00 00 00 00 00 00 00 00 00 00 00 00 00 00
       0.0 0.0 0.0 0.0
000070 00 00 00 00 00 00 00 00 00 00 00 00 00 00 00 00
       0.0 0.0 0.0 0.0
000080 00 00 00 00 00 00 00 00 00 00 00 00 00 00 00 00
       0.0 0.0 0.0 0.0
000090 00 00 00 00 00 00 00 00 00 00 00 00 00 00 00 00
       0.0 0.0 0.0 0.0
0000a0 00 00 00 00 00 00 00 00 00 00 00 00 00 00 00 00
       0.0 0.0 0.0 0.0
0000b0 00 00 00 00 00 00 00 00 00 00 00 00 00 00 00 00
       0.0 0.0 0.0 0.0
0000c0 00 00 00 00 00 00 00 00 00 00 00 00 00 00 00 00
       0.0 0.0 0.0 0.0
0000d0 00 00 00 00 00 00 00 00 00 00 00 00 00 00 00 00
       0.0 0.0 0.0 0.0
0000e0 00 00 00 00 00 00 00 00 00 00 00 00 00 00 00 00
       0.0 0.0 0.0 0.0
0000f0 00 00 00 00 00 00 00 00 00 00 00 00 00 00 00 00
       0.0 0.0 0.0 0.0
000100 00 00 00 00 00 00 00 00 00 00 00 00 00 00 00 00
       0.0 0.0 0.0 0.0
000110 00 00 00 00 00 00 00 00 00 00 00 00 00 00 00 00
       0.0 0.0 0.0 0.0
000120 00 00 00 00 00 00 00 00 00 00 00 00 00 00 00 00
       0.0 0.0 0.0 0.0
000130 00 00 00 00 00 00 00 00 00 00 00 00 00 00 00 00
       0.0 0.0 0.0 0.0
000140 00 00 00 00 00 00 00 00 00 00 00 00 00 00 00 00
       0.0 0.0 0.0 0.0
000150 00 00 00 00 00 00 00 00 00 00 00 00 00 00 00 00
       0.0 0.0 0.0 0.0
000160 00 00 00 00 00 00 00 00 00 00 00 00 00 00 00 00
       0.0 0.0 0.0 0.0
000170 00 00 00 00 00 00 00 00 00 00 00 00 00 00 00 00
       0.0 0.0 0.0 0.0

job_attn_1.out_proj.weight f4 [32, 32]
000000 36 74 a8 3d 87 a9 98 bd 7a 45 fc 39 cd 93 34 be
       0.082252905 -0.0745421 0.0004811695 -0.17634507
000010 d4 e7 6a bd 28 dc 49 bd 77 1a 69 3d e4 e1 58 3d
       -0.057349995 -0.049282223 0.056910004 0.0529498
000020 ce 8e 7a 3c b6 28 ea bd 6a dd 14 be 42 b4 2b 3e
       0.015292836 -0.11433546 -0.14537588 0.16767982
000030 5d a2 23 3e c3 db 4d bd 2b a6 c2 3c 06 ca 15 be
       0.15979905 -0.05025841 0.023760876 -0.14627847
000040 21 51 9e bd 43 6f 31 be e4 e8 05 be 29 c3 22 3e
       -0.07730318 -0.17327599 -0.13077122 0.1589476
000050 2a f7 d9 3d bb 0d 2d be 87 4c d1 3d 93 0a 11 3e
       0.10642846 -0.16899769 0.102196746 0.1416419
000060 db a4 cc bd b3 fb 97 3d ed fa 14 be 40 49 15 be
       -0.09992381 0.07421055 -0.14548846 -0.14578724
000070 bf 91 43 3d aa 7d 31 bd 5e 83 b9 bc 71 72 f4 3d
       0.047746416 -0.043332733 -0.022645649 0.119358905
000080 bb 54 bb bc 75 db c8 3d 9a 23 c5 bd 7a 78 6f 3d
       -0.022867551 0.09807483 -0.09625931 0.058464505
000090 a9 73 0a 3e 20 5b 28 3e 4a b1 1c 3e 11 53 f3 3c
       0.13520683 0.16441011 0.15302005 0.029702695
0000a0 88 1a c5 bd 04 46 19 3d f9 24 31 be af 75 1d bb
       -0.09624201 0.037420288 -0.1729926 -0.0024026444
0000b0 d8 b1 b8 bc a3 c9 a4 3c ed ec aa 3d 51 e7 02 3e
       -0.02254574 0.02011568 0.08345971 0.12783553
0000c0 c5 05 6b 3d 67 3d 1d bd 50 a8 4e bd 4d 54 02 bc
       0.05737855 -0.038388636 -0.050453484 -0.007954669
0000d0 8a 80 ce bc e3 02 0c bd f8 94 aa 3d 47 88 c9 3d
       -0.025207777 -0.03418244 0.08329195 0.09840446
0000e0 ac d7 de 3d ae 1a d5 bd c7 62 04 3e a7 a6 98 bc
       0.1088098 -0.10405479 0.12928306 -0.018634154
0000f0 9e 7d 0e 3e 8f 65 32 be 46 b7 4a 3d 12 52 93 3c
       0.13915107 -0.17421554 0.04949119 0.01798347
000100 fa 25 86 bd 3a ac 39 3d 83 e4 0a 3e 1b 90 c4 3d
       -0.06550212 0.045330264 0.13563733 0.095977984
000110 d9 52 34 be 70 8d 23 3e 71 97 61 bc b3 f2 2b 3e
       -0.17609729 0.15971923 -0.013769017 0.16791801
000120 38 dd 30 bd 91 62 bb 3c c8 73 84 3d 61 c7 96 3d
       -0.04317972 0.022874149 0.06467396 0.07362247
000130 8c 49 2b bd 01 89 a4 3d 90 98 c1 3d 04 b9 3e bb
       -0.041818187 0.08033944 0.09452927 -0.0029101977
000140 4d 3a d1 bd 6d e7 56 3d 65 ba 33 3e 5f aa 28 3d
       -0.10216198 0.0524668 0.17551573 0.041178104
000150 01 be 43 bd 35 b0 a5 bd 6a 85 16 3e 40 4b 8f bd
       -0.047788624 -0.080902494 0.14699331 -0.06996775
000160 26 a0 0f 3e 20 01 ee bd 25 92 f1 3d f6 8a aa bd
       0.14025936 -0.11621308 0.11795453 -0.08327286
000170 ee ba 21 be 51 ba 34 3e 7c 11 34 be 3f 53 24 be
       -0.15793964 0.17649199 -0.17584795 -0.16047381
000180 5b c6 91 3c e2 8a 6f bd 84 6a 59 3d 76 c5 c1 3d
       0.017794779 -0.05848206 0.053080097 0.09461491
000190 00 12 bd 3d 9e 51 aa bc 18 12 81 bd a6 e0 32 be
       0.09231949 -0.020790871 -0.06302279 -0.17468509
0001a0 ec 94 d9 ba 4e 65 3f 3d 3c 6e 04 3b e1 da 12 3e
       -0.0016600168 0.04672747 0.0020207306 0.14341308
0001b0 4e ae 7c bc 03 f7 50 3c 08 cc 0a be 0d e9 0c bb
       -0.015422417 0.012754205 -0.13554394 -0.0021501214
0001c0 f9 60 dd bc b3 e3 c6 bd ae c2 ae bd 79 2e ed 3d
       -0.02702378 -0.09711399 -0.08533226 0.115811296
0001d0 61 49 32 bd 97 d0 2e bd 66 be b5 3d da 4c d1 3d
       -0.04352701 -0.042679396 0.08874206 0.102197364
0001e0 f2 66 b6 3c bb 21 cc bd 67 14 18 3e 6e 6c 5b 3d
       0.022265885 -0.09967371 0.14851533 0.053570203
0001f0 38 fb be 3d 42 8b 31 3e d6 c7 bb 3d 50 2b c5 3c
       0.0932526 0.17338279 0.09168975 0.024068505
000200 82 8e f1 3d f6 84 0a 3e 42 92 07 3d d2 db 1f be
       0.11794759 0.13527283 0.033098467 -0.15611199
000210 58 5e b3 3d 5b d5 af bc 02 33 14 be 35 32 93 bc
       0.08758229 -0.02146404 -0.14472583 -0.017968277
000220 b6 94 f2 3d 7a a4 40 bd 60 4a e4 3c 04 71 01 be
       0.118447706 -0.047031857 0.027867496 -0.12640768
000230 7c 97 0c be 4b a7 19 3e dd a9 f8 bc 06 d1 90 bd
       -0.13729662 0.15005223 -0.030354435 -0.07071118
000240 cc 30 f9 bd 8c f5 d8 3d 58 25 8f 3d 9f 1b cc 3d
       -0.121675104 0.10593709 0.06989545 0.09966206
000250 5c 8c 18 3d c4 cc ed bd f9 2f 34 3e 05 62 d1 3d
       0.037243232 -0.116113216 0.17596425 0.10223774
000260 4f d4 21 be a2 45 9f bc 2e 14 30 3e 8d 6a ff bd
       -0.15803646 -0.019442383 0.17195198 -0.12471495
000270 c3 97 91 3d fa f0 d1 3c 7b 53 07 3e 95 07 e3 bc
       0.071090244 0.025627602 0.13215439 -0.027713576
000280 fb cc d3 bd 8f 69 01 be c6 77 98 bd bc 5f 59 bd
       -0.10341831 -0.12637924 -0.0744472 -0.053069815
000290 91 ba 24 bd b7 e8 ce 3d 10 72 98 3c b1 23 38 bd
       -0.040216986 0.101029806 0.018609077 -0.044955913
0002a0 0e e3 66 3b 02 86 30 3e d0 30 b9 3d e2 30 b2 3d
       0.003523055 0.1723862 0.09042513 0.0870073
0002b0 5a af 00 bd 0e 3a 5a bd 49 14 31 be 18 d8 55 bd
       -0.03141723 -0.05327802 -0.17292894 -0.052208036
0002c0 76 1b 79 3d fb de b9 3d b0 63 c4 bc 61 47 b2 bd
       0.060817204 0.09075733 -0.023973316 -0.08705021
0002d0 61 ec 51 bd 3e f5 72 bd 2c 97 1f 3e e8 95 1e 3e
       -0.05125082 -0.059315912 0.15585011 0.15486872
0002e0 8e 6b 01 be e4 c0 9d bd 95 80 2d bd 28 7c 1b 3e
       -0.12638685 -0.077028066 -0.042358954 0.1518408
0002f0 de 94 4a 3d 78 15 65 bd b7 77 22 3e dd a5 da 3d
       0.049458377 -0.055928677 0.1586598 0.10676167
000300 68 30 25 3e fb 44 d6 3d 9a 0e 8e bd 84 a0 15 3e
       0.16131747 0.10462376 -0.06936379 0.14612013
000310 96 79 15 be 76 f3 29 3d 3f 79 b9 bd 93 9f 14 3e
       -0.14597163 0.041491948 -0.09056329 0.14513998
000320 37 95 9f 3d eb fc 02 be 54 8a 13 3e ff 52 21 3e
       0.07792132 -0.12791793 0.14408237 0.15754317
000330 1f 5c 42 3d 31 e7 e1 3d 1b 43 1d 3e 18 00 a1 3d
       0.047451135 0.110304244 0.1535763 0.07861346
000340 11 f6 dc 3c 37 8b 0b be d8 4f 2f bd 2d 7c 2e be
       0.026972802 -0.13627325 -0.042800754 -0.17039557
000350 5b 0d 09 be ed 56 22 be 58 1b 10 be 71 32 2f be
       -0.13384001 -0.15853472 -0.14072931 -0.17109086
000360 e5 6d c5 bd 00 1c 28 3e 69 66 2a 3d ce 2a 82 3c
       -0.09640101 0.16416931 0.041601572 0.015889551
000370 64 51 7f bd 45 42 f8 bc 4e 81 fe 3d 9c cc ac bd
       -0.06233348 -0.030305037 0.12427007 -0.08437464
000380 6f 0c 21 3d 45 08 30 3c 27 23 27 3e dc 43 e3 3b
       0.0393185 0.010744159 0.16322003 0.0069355797
000390 99 a8 06 be c9 85 8f bd dc 25 05 3d 52 9d 27 be
       -0.13150252 -0.07007939 0.03250681 -0.16368607
0003a0 69 ee 25 3e 26 90 01 bd 8f 25 88 3d 46 95 1a 3e
       0.16204228 -0.03163161 0.06647789 0.15096006
0003b0 7b 71 2c be ee 6d ea bd ff 5a e3 3d 4d 6e 43 bd
       -0.16840164 -0.11446749 0.111013405 -0.047712613
0003c0 aa c2 ee 3b 8b f9 28 3d e6 b0 bd bd 01 dd 5d bd
       0.0072863894 0.041253608 -0.09262256 -0.054165844
0003d0 e5 f1 53 bd d3 f1 99 3d b9 11 a0 bd 6f 99 2e bd
       -0.05174436 0.075168274 -0.0781588 -0.042626794
0003e0 20 89 eb bd 0b ba d9 3c 97 df a8 bd b5 3a 94 bd
       -0.11500764 0.02657797 -0.082457714 -0.0723776
0003f0 ab a4 33 be e9 27 67 3d bf e2 e2 bd 48 54 f1 3d
       -0.17543285 0.056434546 -0.11078405 0.117836535

job_attn_1.out_proj.bias f4 [32]
000000 00 00 00 00 00 00 00 00 00 00 00 00 00 00 00 00
       0.0 0.0 0.0 0.0
000010 00 00 00 00 00 00 00 00 00 00 00 00 00 00 00 00
       0.0 0.0 0.0 0.0
000020 00 00 00 00 00 00 00 00 00 00 00 00 00 00 00 00
       0.0 0.0 0.0 0.0
000030 00 00 00 00 00 00 00 00 00 00 00 00 00 00 00 00
       0.0 0.0 0.0 0.0
000040 00 00 00 00 00 00 00 00 00 00 00 00 00 00 00 00
       0.0 0.0 0.0 0.0
000050 00 00 00 00 00 00 00 00 00 00 00 00 00 00 00 00
       0.0 0.0 0.0 0.0
000060 00 00 00 00 00 00 00 00 00 00 00 00 00 00 00 00
       0.0 0.0 0.0 0.0
000070 00 00 00 00 00 00 00 00 00 00 00 00 00 00 00 00
       0.0 0.0 0.0 0.0

job_fc_0.weight f4 [64, 32]
000000 e5 85 15 3e 20 fe 16 3e ac 96 bf 3d 28 82 ef 3d
       0.14601858 0.14745378 0.0935491 0.11694747
000010 19 9b 35 bd a0 a0 41 bc 2f b6 0d be 47 a2 26 3e
       -0.044337366 -0.011818081 -0.13839029 0.16272841
000020 7a 33 04 3d 40 1c 59 bd 01 30 96 bd 75 6d ee 39
       0.032275654 -0.053005457 -0.07333375 0.0004547645
000030 3c dc c5 3d 77 72 2c be f0 56 a5 bd 32 ae c1 bd
       0.09661147 -0.1684054 -0.08073223 -0.09457053
000040 54 03 88 bd 57 77 04 be 42 35 67 bc fc 2e e6 3d
       -0.0664126 -0.1293615 -0.014111819 0.1123943
000050 0b 8b 13 be 78 c2 04 3d 98 90 97 3d be 4c 4e bb
       -0.1440851 0.032412022 0.07400626 -0.0031478847
000060 07 de 2d bd 65 cb 04 3d fc 7c 49 bd a1 8b a9 ba
       -0.04244807 0.032420535 -0.04919146 -0.0012935289
000070 da 03 62 3d 04 b1 22 3e 6f 07 c0 3d e2 62 8d 3d
       0.055179454 0.15887839 0.09376418 0.06903626
000080 8e 2a c0 bd dc ad 63 3d e4 4c 71 bd 6e 37 a0 bd
       -0.09383117 0.055585727 -0.05891122 -0.078230724
000090 89 9e 13 be ba 32 dc bd 3e 31 7f 3c ac c3 88 bd
       -0.14415945 -0.10751863 0.015575705 -0.066779464
0000a0 d6 df 20 be 93 6a 93 bd d2 3b b6 3d fb cf d6 3d
       -0.15710387 -0.07198062 0.088981286 0.10488888
0000b0 16 66 1a be ab 44 f6 3c 49 4f 74 bd 31 dd 20 bb
       -0.15078005 0.03006204 -0.059645925 -0.0024545903
0000c0 ba d1 06 3d ae a6 63 bb 2f 1e af 3d a5 f2 a5 3d
       0.032914855 -0.00347368 0.08550679 0.081029214
0000d0 17 fa 47 bc 3e 9c 21 3d a7 72 e5 3c df fb d1 bd
       -0.012205622 0.039455645 0.028008772 -0.10253119
0000e0 7d f1 8f bd 2c e1 e9 3d c5 8b 1d 3e 64 c7 87 bd
       -0.07028482 0.11419901 0.15385349 -0.066298276
0000f0 43 39 d5 3d 18 b1 18 3e 7f 63 e0 3c 59 85 e5 3c
       0.104113124 0.14911306 0.027391193 0.028017687
000100 d6 9b ff 3b d6 03 26 be 33 26 05 be 55 73 85 3c
       0.0078005595 -0.16212401 -0.13002853 0.016290346
000110 ba e4 93 bd 6f 54 b3 bd b5 32 c7 3d 22 0b c2 bc
       -0.072213605 -0.08756339 0.097264685 -0.02368695
000120 76 4a 64 bc ab af 2e 3e 17 70 a6 3d 8b 2a fb bc
       -0.0139337685 0.170592 0.08126848 -0.030659935
000130 f1 80 1a be fe e7 f5 3c fe b9 2d be a6 99 2a be
       -0.1508825 0.030017849 -0.16965482 -0.16660175
000140 d7 6c a0 bd 56 08 0f 3e 8f a0 b5 bd 5f d3 02 be
       -0.078332596 0.13968024 -0.08868515 -0.12775944
000150 99 80 22 3e 8d 41 e5 bd 1d 0b 0f be ec 0d e9 3d
       0.15869369 -0.111941434 -0.13969083 0.113796085
000160 d4 88 52 bc fd ee 15 3e 80 ed d0 3d 05 5d f4 bd
       -0.012850005 0.14641948 0.102015495 -0.119318046
000170 6c 29 50 bc 66 d1 5e 3d 8b 38 25 3e fa b1 ea bd
       -0.012705188 0.054398917 0.1613485 -0.114597276
000180 7f a6 cd bd 99 04 d6 3d 75 ea 2b 3e 39 58 31 3e
       -0.10041522 0.10450096 0.16788657 0.1731881
000190 e6 55 16 be f3 b4 85 3d e5 77 4f bd b7 5b 95 bd
       -0.14681205 0.06528654 -0.05065145 -0.07292884
0001a0 1c 93 8d bd 34 21 d2 bd 32 98 aa bd 3d cb 1e be
       -0.069128245 -0.10260239 -0.0832981 -0.15507217
0001b0 87 99 ba 3c f9 70 50 bd 74 fd b9 bd 4a 06 80 bd
       0.022778286 -0.05088899 -0.090815455 -0.062511995
0001c0 72 ba 0f be ca 22 89 bd db de 7b bd 4a 4d 0e be
       -0.14035967 -0.066960886 -0.06149183 -0.13896671
0001d0 33 f0 a3 b9 df ba b8 3d a3 71 c3 bc d5 94 ee 3c
       -0.00031268745 0.09020018 -0.023857897 0.029123703
0001e0 86 d9 28 3d bc 94 19 3e 5a 51 d6 3d c3 59 52 3d
       0.04122307 0.14998144 0.10464735 0.051355135
0001f0 1b 4d af 3d e5 c1 1b be 47 ce c8 3d de 65 9e bd
       0.085596286 -0.15210684 0.09804969 -0.077342734
000200 73 3a e3 3d 38 6a b1 3c 97 9e 4a 3d 0c 08 22 3e
       0.11095133 0.021657094 0.04946765 0.15823382
000210 b6 3f 23 3d 94 91 01 3e 84 72 59 bd 8e 56 b3 bd
       0.03985568 0.1265319 -0.053087726 -0.08756743
000220 dd 86 5e 3d 02 34 1e be 4d 0f a2 bd 51 45 b3 bd
       0.054327834 -0.15449527 -0.07913075 -0.087534554
000230 12 10 c7 bd 11 3a 81 3d c5 e4 8f 3d 9d ed 9d bd
       -0.09719862 0.063099034 0.07026056 -0.07711337
000240 7c 5c ad bd c1 fe 7d bd 56 46 e3 bd 34 f8 48 3c
       -0.084649056 -0.06201053 -0.110974 0.0122662075
000250 4e 14 b1 3c f9 dc 4e 3d 52 1e 95 3d a3 19 f1 3d
       0.021616127 0.050503705 0.07281174 0.11772468
000260 5a c4 3e 3d c8 c3 d0 bd 94 67 d9 3c 8e 10 c9 bc
       0.046573974 -0.10193592 0.026538648 -0.024544027
000270 4d e1 25 3e 63 d0 0a be 77 19 34 3e 2f 6f bf bd
       0.16199227 -0.13556056 0.17587839 -0.093473785
000280 e6 39 2f be c1 d0 08 be 6b ab 1e 3e ed 9e 86 bd
       -0.1711193 -0.13360883 0.15495078 -0.065732814
000290 16 54 0d 3e f5 00 96 bd c1 f4 16 3d 23 b2 fa bd
       0.13801607 -0.07324401 0.03685451 -0.12241008
0002a0 99 2a c7 bc 4c cd 2d be a9 1f 21 3c 2d a2 a1 bd
       -0.024312304 -0.16972846 0.0098342085 -0.07892261
0002b0 fb 2a 8f bc 4c 4e 22 be 6c f8 1f 3e 3f 27 04 3e
       -0.01747655 -0.1585018 0.15622109 0.12905596
0002c0 a4 57 16 3e 68 03 67 bd ce ec 04 3e 58 b2 b5 3d
       0.1468187 -0.056399733 0.12980959 0.08871907
0002d0 30 ad 4c 3d 1e ca fb bd 4d 0a ae bd 7d 4b fe bd
       0.049969852 -0.1229441 -0.084980585 -0.12416742
0002e0 18 71 2b be bb 83 6e bc ca a8 9e 3d b8 55 73 bc
       -0.1674236 -0.014557774 0.07747038 -0.01485198
0002f0 50 d0 01 be 20 f7 9d 3d 6b 02 35 be db c6 05 3e
       -0.12677121 0.07713151 -0.17676704 0.13064139
000300 91 dc 04 3e ff 73 87 3d dc 88 c1 bd d0 d7 d0 bb
       0.12974764 0.066139214 -0.09449932 -0.006373383
000310 04 cd 1c be 3a ae a8 3d 2c 1b 21 3d 8d be e6 bc
       -0.15312582 0.08236356 0.039332554 -0.028167034
000320 47 6d 30 3e 4d ab a3 3c ec a1 22 be a7 3f 2e 3d
       0.17229186 0.019979144 -0.15882081 0.042541172
000330 9a 3d 25 3e 18 d7 20 3e bf b7 ee 3c 3f 23 02 be
       0.1613678 0.15707052 0.029140351 -0.12708758
000340 ee 70 c3 bd ca 10 16 3e 0a 09 d4 bd 4f db 23 be
       -0.09543024 0.14654842 -0.103532866 -0.16001628
000350 f8 ea c6 3d 1b de ff bd 9a f7 ed bd 29 b2 54 3d
       0.097127855 -0.12493535 -0.11619492 0.05192772
000360 0f c1 57 3d 8e 67 a7 bd 6b f6 ce bd 02 e0 c8 bd
       0.05267435 -0.08174048 -0.10105594 -0.09808351
000370 0d 16 c2 bc 9d 7c d9 3c 32 47 d3 3d e7 0d 95 bd
       -0.023692155 0.026548678 0.10316314 -0.07278042
000380 41 a3 a6 3d 0e ea 52 3d b1 51 db ba f4 75 83 3d
       0.08136607 0.051492743 -0.001673272 0.06418982
000390 7e ba 3f bd 1c e7 26 be 7c 21 e6 3d 00 18 c3 bd
       -0.046808712 -0.16299099 0.112368554 -0.09526062
0003a0 70 32 10 be 3b f9 a0 3d 31 98 bc 3b c9 39 c1 bd
       -0.1408174 0.07860037 0.0057554473 -0.0943485
0003b0 aa 1e 31 3e 4d b2 6c bd 5a 83 e2 bd 8b be 31 be
       0.17296854 -0.05778723 -0.110602096 -0.17357843
0003c0 93 f2 9d bc 46 ed 10 bc a3 dc 94 bc d4 99 0d 3b
       -0.019280707 -0.008845633 -0.018171614 0.0021606581
0003d0 dc f6 01 3e 58 6a ae bc f9 fe ed bd 26 48 41 bb
       0.12691826 -0.021290943 -0.11620898 -0.0029492467
0003e0 d9 da fb 3d 01 74 32 bd 31 58 27 3e 5b f5 4c bd
       0.12297601 -0.04356766 0.16342236 -0.050038677
0003f0 b2 8b d7 3d d9 df b2 3d d8 f4 94 bd cf 22 22 3e
       0.10524692 0.08734102 -0.07273263 0.15833591

job_fc_0.bias f4 [64]
000000 d6 b2 97 bd 65 90 2a 3e 67 20 08 be 1f 2b 2e 3e
       -0.07407157 0.16656645 -0.1329361 0.17008637
000010 5b 69 f9 3d c6 b9 02 3c 60 81 06 3e 97 16 12 be
       0.12178298 0.007978862 0.1313529 -0.1426643
000020 ac 4e 81 bd e0 e4 0f 3e e0 e8 8c bd 80 b0 61 bd
       -0.063138336 0.14052153 -0.06880355 -0.055099964
000030 24 51 f4 3d ef e3 ac 3d 85 82 2f be 36 99 97 bd
       0.11929539 0.084419124 -0.17139633 -0.074022695
000040 c5 92 0b bd cb 81 d3 bd 7c 24 e9 bd dc 1b c9 bd
       -0.034075517 -0.103274904 -0.11383912 -0.09819767
000050 34 2d 2a 3e 31 d9 b1 bc 33 f1 48 3d 31 ec 13 3e
       0.16618806 -0.02171001 0.04905815 0.14445569
000060 fe a9 11 3e 46 31 2c be 95 3e 1d be 32 86 b9 3d
       0.14225003 -0.16815671 -0.15355904 0.09058799
000070 50 b0 5f 3d 29 63 1a be 31 24 11 3e c2 81 a3 bd
       0.054611504 -0.15076889 0.14173962 -0.07983734
000080 86 b9 57 3d 85 91 05 3d 27 1b 10 bd 2c 2c 0f 3d
       0.052667163 0.03260948 -0.035182144 0.034954235
000090 8b 12 1f 3e 93 44 8e bd 91 d4 1d bd 59 86 04 3e
       0.15534417 -0.06946673 -0.038532797 0.12941875
0000a0 a7 ba 01 be d7 2a 99 bc 59 17 7a bd 16 9c dc 3d
       -0.12668858 -0.018697185 -0.061057422 0.107719585
0000b0 56 dd 11 3c 23 e1 c8 bd e3 72 d4 bd 7b ce 0d 3e
       0.008902868 -0.098085664 -0.103734754 0.13848297
0000c0 f1 c5 42 bd 06 57 9b bd ba 33 29 3d a1 17 4d 3d
       -0.047552053 -0.07584958 0.041309096 0.050071362
0000d0 b4 d8 ee bd a1 95 a4 3d b4 50 04 be 67 10 16 3d
       -0.116624266 0.08036352 -0.12921411 0.036636736
0000e0 36 e5 0d be da b9 ed bc 24 97 ff bd 05 59 aa bd
       -0.13856968 -0.029019285 -0.1248 -0.083177604
0000f0 3f 8f 6d 3c 71 bc ad bd 0c 99 fe bd 0c 1b 0f bd
       0.014499485 -0.08483208 -0.12431535 -0.034937903

job_fc_1.weight f4 [64, 64]
000000 d8 eb e3 3d 96 f2 9e bd 8c 56 70 3d c0 e7 d4 3b
       0.11128968 -0.07761113 0.058676288 0.0064973533
000010 d0 4e 0f bd 38 07 da bd 34 34 fb bd 58 f5 84 bc
       -0.03498727 -0.10645908 -0.12265816 -0.01623027
000020 f8 c1 d8 bc b0 08 d2 bc fe d0 98 bd 7c 5e b1 3d
       -0.026459679 -0.025638908 -0.07461737 0.086605996
000030 e8 63 78 3d c6 b1 b1 3d a0 df 53 3c b4 20 81 bd
       0.060642153 0.08676486 0.012931734 -0.06305066
000040 40 69 d2 3c f4 4d e6 bd 7c 30 1e 3d 72 8e f0 bd
       0.025684953 -0.11245337 0.038620457 -0.11745919
000050 18 b9 74 bd 74 13 eb bd 54 2c 7c 3d 56 18 d4 bd
       -0.05974683 -0.1147832 0.061565712 -0.10356204
000060 b2 25 f8 bd 40 0d 2b bd 20 86 a0 bb f2 0e c4 3d
       -0.12116565 -0.041760683 -0.0048988014 0.09573163
000070 10 70 2a 3d 68 cc d0 bd 10 03 18 3d a4 56 d7 3d
       0.041610777 -0.101952374 0.037112296 0.10514572
000080 d0 7f ee 3c 20 a3 6a 3c a0 93 fd bb a8 15 a9 3d
       0.02911368 0.014321119 -0.0077385455 0.08256084
000090 20 65 98 bd 20 f7 9a bd 30 3b 04 bd f8 42 93 bd
       -0.07441163 -0.075666666 -0.032283008 -0.07190508
0000a0 32 47 96 3d 80 71 88 ba 44 92 69 3d 00 92 b8 3d
       0.07337798 -0.0010409802 0.057024255 0.09012222
0000b0 ca e1 d8 3d ee d4 ef 3d 68 3a 5c 3d 26 39 97 bd
       0.10589941 0.11710535 0.053766638 -0.07383947
0000c0 c0 b2 c6 bd f8 25 b9 3c 00 46 60 ba 94 ec b3 bd
       -0.097020626 0.022601113 -0.00085553527 -0.08785358
0000d0 7a b3 f8 3d 0c 03 b3 3d 24 ef 8f 3d 42 f7 c2 3d
       0.121436074 0.087408155 0.07028034 0.09519817
0000e0 b0 e0 36 3c 84 43 c9 3d 2e e3 8b bd 42 1b 86 bd
       0.011161968 0.09827331 -0.068304405 -0.06548168
0000f0 cc e7 38 bd 6c 1d 81 3d aa a4 94 3d 7e da d7 3d
       -0.045142934 0.0630444 0.0725797 0.10539721
000100 62 0b ae bd f8 a6 a7 bd d6 7a c1 bd ec e0 13 bd
       -0.08498265 -0.08186144 -0.09447257 -0.036103174
000110 60 80 47 bd c0 d8 6f bc 94 a5 6f bd 94 02 78 3d
       -0.048706412 -0.01463908 -0.058507517 0.060549334
000120 e0 29 c4 3b 7e 5b f6 bd 80 a8 60 bb 60 42 24 bc
       0.005986437 -0.120291695 -0.0034280121 -0.010025591
000130 7e 37 bd bd b8 6d d7 bd 54 fd 83 bd 04 2d f7 bd
       -0.092391 -0.10518974 -0.06444803 -0.12069133
000140 78 41 04 bd b8 6c d6 3d 50 5f 0c 3c 2c 17 aa bd
       -0.032289 0.10469955 0.008567646 -0.08305201
000150 bc a5 03 bd 54 70 98 bd a0 f0 52 3c fc 92 f6 3d
       -0.03214048 -0.074433 0.012874752 0.12039754
000160 64 98 1f bd dc af 7d 3d b8 f1 55 3d 1c 5b c2 3d
       -0.03896369 0.06193529 0.052232474 0.09490034
000170 2c e1 00 3d c6 4b d1 3d 76 57 e6 bd 46 d7 8b bd
       0.03146474 0.10219531 -0.112471506 -0.068281695
000180 40 6e 6a bc 5e 57 d2 3d 50 09 b2 bd e0 a2 e8 bc
       -0.014308512 0.1027057 -0.086931825 -0.028397977
000190 24 a9 b3 3d 00 48 75 39 74 c6 2e bd 28 e3 82 bc
       0.087724954 0.00023391843 -0.04266973 -0.015977457
0001a0 a0 88 7d bd 46 7d 94 bd 80 6a e0 3a bc 9a 27 3d
       -0.061897874 -0.072504565 0.0017121583 0.04091905
0001b0 44 88 19 bd 4c 75 3f 3d 20 86 2a bc b4 43 18 bd
       -0.03748347 0.046742722 -0.010407954 -0.03717394
0001c0 f0 47 8a bc 62 04 b3 bd 86 15 b7 3d a8 ca 48 3d
       -0.016880006 -0.0874107 0.08939652 0.049021393
0001d0 18 9d 59 3d f4 37 26 bd 4a 03 95 3d f8 3c c7 bc
       0.053128332 -0.040580705 0.07276018 -0.024321064
0001e0 18 cb 20 bd ec db 5d bd 62 18 f6 bd f4 17 a2 bd
       -0.039256185 -0.054164812 -0.120163694 -0.07914725
0001f0 d0 d1 0b bd b8 e3 57 3d ae 9a e9 bd 04 09 d1 bd
       -0.03413564 0.052707404 -0.11406456 -0.10206798
000200 6c 49 a5 3d 90 cf 04 bc 00 16 53 3c e0 69 90 3b
       0.08070645 -0.008106127 0.012883663 0.0044071525
000210 ce 05 c6 3d 20 79 ad bc e0 a7 97 bd 62 af cd 3d
       0.09669076 -0.021175921 -0.074050665 0.10043217
000220 7e ce 94 bd 00 c0 09 3c e8 b8 de 3d 08 2d 90 3d
       -0.07265948 0.008407593 0.10875112 0.07039839
000230 2a 14 da bd f4 05 1f 3d 90 bc 45 3c c8 02 f3 bc
       -0.10648377 0.038824037 0.012068883 -0.029664412
000240 3e a5 b1 3d 50 66 be bc 7c 82 9a 3d cc d4 b7 bd
       0.086740956 -0.023242146 0.07544419 -0.08976135
000250 54 8f ca bd 8e 04 ef 3d 9c 2a 81 3d 42 d0 ab bd
       -0.09890619 0.116707906 0.06306955 -0.083893314
000260 1c 93 c9 bd e0 f7 f1 3d 6a 59 be bd a0 5c ca bc
       -0.09842512 0.118148565 -0.09294398 -0.02470237
000270 34 cc 51 3d c0 06 ce bd ba 8e ad bd f0 b6 30 bd
       0.051220134 -0.10059881 -0.084744886 -0.043143213
000280 82 c4 a8 bd fe 73 9e 3d 40 24 7b 3b 94 b5 09 3d
       -0.08240606 0.077369675 0.0038321167 0.033620432
000290 8c 0a 9f 3d a8 3b cc 3c 9a 57 ec bd 1e 4c 87 3d
       0.077656835 0.02493079 -0.11540146 0.06606315
0002a0 90 7d bb 3d 12 f2 e0 bd 3c 06 c4 3d d4 23 1d bd
       0.091548085 -0.10983671 0.095715016 -0.038364246
0002b0 68 16 c4 3c c8 a1 b7 3d f0 1a 41 3c ba 4f f5 3d
       0.023936465 0.08966404 0.011786208 0.11978097
0002c0 90 d6 ee 3c 14 5e a9 3d 28 3f d4 bd 80 98 67 3d
       0.029155046 0.08269897 -0.103636086 0.05654192
0002d0 b0 3d 4e 3d 00 8d 67 ba f8 31 53 bd c4 eb 62 3d
       0.0503518 -0.00088329613 -0.051561326 0.055400625
0002e0 e0 4c f4 3c a0 c0 ab 3c 04 28 98 3d 60 ff ef 3b
       0.029821813 0.020965874 0.074295074 0.0073241442
0002f0 b8 eb 5c 3d 30 1f eb 3d 1e 78 ad bd 4a af 84 3d
       0.053935736 0.11480558 -0.08470176 0.06478746
000300 b0 73 cd bd dc ec 6b 3d b8 c8 03 bd e8 5a 4d 3d
       -0.10031831 0.057598934 -0.032173842 0.050135523
000310 40 cf d8 bc 10 0e 8e bc 14 62 89 3d 20 1d 5c bc
       -0.026466012 -0.01734069 0.0670816 -0.013434678
000320 06 fc e2 bd 20 96 52 bc b0 9f e3 bc e0 b8 4f 3d
       -0.11083226 -0.012853175 -0.027786106 0.05071342
000330 90 dd 5c 3c 60 9d 0d 3d 54 bc 01 bd c6 d1 e5 3d
       0.013480559 0.034573913 -0.031673744 0.11221652
000340 ae 88 dc 3d e0 2a d5 bb e0 79 8e 3d f8 e5 c8 3d
       0.10768257 -0.0065053552 0.069568396 0.09809488
000350 64 56 de 3d c6 5c a1 3d f8 c6 e7 3d a0 e4 7f bc
       0.108563215 0.07879023 0.11317247 -0.015618473
000360 fa e2 ff bd 1e 85 c5 bd dc 15 a7 3d 7c fe 3f bd
       -0.12494464 -0.09644531 0.08158466 -0.046873555
000370 68 bd d1 3c e0 03 b7 bb 68 60 10 3d 40 f2 5c bb
       0.025603011 -0.0055851787 0.03524819 -0.0033713728
000380 50 5b d3 bd bc 85 95 3d ea e4 ef bd c6 9b d0 3d
       -0.10320151 0.073008984 -0.11713584 0.101859614
000390 30 9e ce bd a0 44 f7 bb 00 69 21 bd 22 45 fc 3d
       -0.100887656 -0.0075460225 -0.039406776 0.123178735
0003a0 da 7d aa 3d d2 af f5 bd 00 5c 4b bc b0 40 b2 bd
       0.083247855 -0.11996426 -0.012412071 -0.087037444
0003b0 34 31 e2 3d 2a ad a0 3d 18 f2 f2 bd fc 2e 53 bd
       0.11044541 0.078455284 -0.11862582 -0.05155848
0003c0 b8 a2 c2 bc 98 77 df 3d fc fd 82 3d a8 68 b2 bd
       -0.023759231 0.109114826 0.063961 -0.08711368
0003d0 00 69 0d bb a4 78 3f bd 9c 4d a0 bd b0 cc a7 3d
       -0.0021577477 -0.04674591 -0.07827303 0.08193338
0003e0 32 45 83 3d 70 84 1f 3d 0c 82 3b 3d 80 ef 66 3d
       0.06409682 0.03894466 0.04577832 0.05638075
0003f0 d0 0e 7e bd 1c 7b 7b bd 40 26 e7 bc e0 07 36 bc
       -0.062025845 -0.061396703 -0.028216481 -0.011110276
