models/model2r3.pth (torch, 102742 bytes, 33 tensors)

encoder.attn.in_proj_weight f4 [54, 18]
0	0xbf189a0d	-0.5961006
1	0xbf60bcd4	-0.8778813
2	0xbebd0f29	-0.3692563
3	0xbe0f3388	-0.13984501
4	0xbf361a3e	-0.7113379
5	0xbec1b3ba	-0.37832433
6	0xbeb5bdb0	-0.35496283
7	0xbe823259	-0.25429037
8	0xbee67b7f	-0.45016095
9	0xbef41973	-0.47675666
10	0xbe8f0a52	-0.2793756
11	0xbf0d9742	-0.55308926
12	0xbf07215f	-0.52785295
13	0xbe92591c	-0.2858361
14	0xbe19af52	-0.15008286
15	0xbf1625b6	-0.5865129
16	0xbf3bad2f	-0.7331113
17	0x3da89f33	0.0823349
18	0xbf7043a9	-0.9385324
19	0xbf475853	-0.7786915
20	0xbf144fc5	-0.5793422
21	0xbf2c8953	-0.6739704
22	0xbee95e69	-0.45579842
23	0xbef92fb1	-0.48669198
24	0xbe5cd277	-0.21564661
25	0xbf085d1a	-0.5326706
26	0xbea00eee	-0.3126139
27	0xbf310659	-0.6915031
28	0xbf3bcae1	-0.73356444
29	0xbe8b43b7	-0.272001
30	0xbf145fd3	-0.57958716
31	0xbf323659	-0.6961418
32	0xbf0048c9	-0.5011106
33	0xbf68c744	-0.90929055
34	0xbf019d2a	-0.5063044
35	0x3e89793e	0.26850313
36	0xbf0b49ea	-0.5440966
37	0xbf0469d9	-0.5172401
38	0xbeacb4da	-0.3373173
39	0xbecc929a	-0.39955598
40	0xbe749c1c	-0.23887676
41	0xbedc7466	-0.43057555
42	0xbe8cf113	-0.27527675
43	0xbf1cb4b0	-0.6121321
44	0xbe5d231b	-0.21595423
45	0xbee866cc	-0.45390928
46	0xbeaa2252	-0.3322931
47	0xbdeee2e5	-0.116643704
48	0xbf0d19c3	-0.55117434
49	0xbeb4e80f	-0.35333297
50	0xbea5c0cd	-0.32373658
51	0xbf388cc0	-0.7208977
52	0xbe996510	-0.29959917
53	0xbe110427	-0.1416174
54	0xbf06fee6	-0.52732694
55	0xbf5602ab	-0.8359782
56	0xbe37f90e	-0.179661
57	0xbe8bccbf	-0.27304646
58	0xbf01967e	-0.5062026
59	0xbf28f1b9	-0.6599384
60	0xbeb1bcd9	-0.34714392
61	0xbef7a1b4	-0.48365557
62	0xbf317724	-0.6932242
63	0xbe889f6e	-0.26684135
64	0xbf0f2db5	-0.5592912
65	0xbf0da1ca	-0.55324996
66	0xbe154559	-0.14577235
67	0xbf1ef84c	-0.6209762
68	0xbf15518f	-0.58327574
69	0xbf25e024	-0.64795136
70	0xbe8f9d57	-0.28049728
71	0xbd24841d	-0.040165056
72	0x3f52ec5d	0.8239191
73	0x3f612983	0.87953967
74	0x3ef23cf9	0.47312143
75	0x3e6432a6	0.22284946
76	0x3ec05ca8	0.3757069
77	0x3eeee3ec	0.46658266
78	0x3e2055e7	0.15657769
79	0x3f24dce6	0.64399564
80	0x3efc2842	0.49249464
81	0x3e40b08b	0.18817346
82	0x3eece656	0.46269482
83	0x3e03bc98	0.12864912
84	0x3ee33219	0.4437416
85	0x3f005e59	0.50143963
86	0x3efb7ad6	0.49117154
87	0x3f258765	0.6465972
88	0x3eb1b187	0.34705755
89	0xbe85b424	-0.26114
90	0xbea5a6bd	-0.32353774
91	0xbe9564c4	-0.2917844
92	0xbe884377	-0.26613972
93	0xbe6d0bad	-0.23148985
94	0xbea19f8f	-0.31567046
95	0xbc9c9d38	-0.019117936
96	0xbdccc43e	-0.09998368
97	0xbec5aa2e	-0.386064
98	0xbefa1f48	-0.4885199
99	0xbcb6b054	-0.022300877
100	0xbe924b3d	-0.28573027
101	0xbe3e702e	-0.1859748
102	0xbe7614b0	-0.24031329
103	0xbf2dcf20	-0.6789417
104	0xbe9ce145	-0.30640617
105	0xbc7bb1fc	-0.015362259
106	0xbf072a8d	-0.527993
107	0x3e3795b8	0.17928207
108	0x3ef0b11e	0.4701013
109	0xbd14865d	-0.03626095
110	0x3dda063d	0.10645721
111	0x3ef73120	0.48279667
112	0xbe36dd05	-0.1785775
113	0x3ce38019	0.027771043
114	0x3ed4115e	0.414195
115	0xbb4a1b19	-0.0030838905
116	0x3e2e37c1	0.17013456
117	0xbc9db809	-0.019252794
118	0x3e990f46	0.29894465
119	0x3da528e0	0.08064437
120	0x3dd904ae	0.10596596
121	0x3f20f749	0.6287733
122	0x3ea5a817	0.32354805
123	0x3e830fe3	0.25598058
124	0xbd6ded54	-0.05808766
125	0x3d90441b	0.0704424
126	0x3f1b6acb	0.6070983
127	0x3e6bf771	0.2304361
128	0x3ee4a7bc	0.4465922
129	0x3e36b8da	0.17843953
130	0x3e30056d	0.1718957
131	0x3e9389e7	0.2881615
132	0x3e82af07	0.2552416
133	0xbe169c07	-0.14707957
134	0x3e7be14a	0.2459766
135	0x3ed7c683	0.4214364
136	0x3dd7e2bf	0.10541295
137	0x3ced8f05	0.028998861
138	0x3e5b362b	0.21407382
139	0xbd5c6fdb	-0.05381761
140	0xbe1b9dfd	-0.15196986
141	0x3ecc0d51	0.3985391
142	0x3e3c6d64	0.18401104
143	0x3e02ef2e	0.12786552
144	0x3e7782c7	0.24170981
145	0x3f06663f	0.52499765
146	0x3ebc1f59	0.36742666
147	0xbeaade65	-0.333728
148	0x3d31dba9	0.043422375
149	0xbcbc1ddc	-0.022963457
150	0x3ec7f6f6	0.39055604
151	0x3e9776c6	0.29582804
152	0xbcb1909b	-0.021675399
153	0x3ea02ffb	0.31286606
154	0x3f1b0f05	0.60569793
155	0x3eb433d5	0.35195795
156	0x3e9cd17d	0.30628577
157	0x3ea1985e	0.3156156
158	0x3db6e3e7	0.08930188
159	0x3f243cfe	0.64155567
160	0x3e99ed79	0.3006399
161	0x3d1c672b	0.038184326
162	0x3e9e0849	0.30865696
163	0x3f4e80d5	0.8066533
164	0x3ea207d7	0.31646606
165	0x3dade7dd	0.0849149
166	0x3f255dbe	0.64596164
167	0x3e51ad72	0.2047632
168	0x3e19cff9	0.15020742
169	0x3ef9d0f2	0.48792225
170	0x3ea446dd	0.32085314
171	0x3ebccae8	0.36873555
172	0x3bb56270	0.0055354163
173	0x3eee1203	0.46498117
174	0x3ef12113	0.47095546
175	0x3ec4a56e	0.38407463
176	0x3e14a477	0.14515863
177	0x3f069bbe	0.52581394
178	0x3e891016	0.26770085
179	0xbe91262a	-0.2834943
180	0x3f631622	0.88705647
181	0x3f6e7d34	0.93159795
182	0x3e706bb6	0.23478588
183	0x3e4460ee	0.191776
184	0x3f1a90ca	0.6037718
185	0x3f0d9d69	0.55318314
186	0x3df59f6c	0.11993298
187	0x3ee5f2e2	0.44911867
188	0x3eefeb09	0.46859005
189	0x3edcd74c	0.43133008
190	0x3f06ac1f	0.52606386
191	0x3f1660f5	0.58741695
192	0x3e8821cf	0.26588294
193	0x3b91c947	0.004449043
194	0x3eae06c5	0.3398954
195	0x3f096d24	0.5368216
196	0x3f571ea9	0.8403116
197	0xbddae90b	-0.10688981
198	0x3f762b41	0.9615975
199	0x3f5c1e31	0.8598357
200	0x3e80962d	0.25114575
201	0x3f0a962e	0.54135406
202	0x3f4c9791	0.7991877
203	0x3f0e1766	0.55504453
204	0x3f19968d	0.5999535
205	0x3eff8f51	0.4991403
206	0x3f204679	0.6260753
207	0x3e2500df	0.16113614
208	0x3f36caed	0.7140339
209	0x3e59516b	0.21222465
210	0x3f0c6377	0.5483927
211	0x3e58bf32	0.21166685
212	0x3e164962	0.14676431
213	0x3edb12b5	0.4278771
214	0x3f0da9d3	0.55337256
215	0x3e7b8735	0.24563296
216	0xbf5e03d3	-0.86724585
217	0xbedbf33d	-0.42959014
218	0xbed00cc0	-0.40634727
219	0xbf2b300e	-0.668702
220	0xbe16cae5	-0.14725836
221	0xbf02a034	-0.510257
222	0xbec47062	-0.3836699
223	0xbe38e0df	-0.18054532
224	0xbdf6467e	-0.12025164
225	0xbeb3f159	-0.3514507
226	0xbe96f922	-0.29486948
227	0xbf1e2328	-0.61772394
228	0xbecb853a	-0.3975008
229	0xbdc7df11	-0.097593434
230	0xbee5daef	-0.44893596
231	0xbe10d2f9	-0.1414298
232	0xbeb08948	-0.34479737
233	0xbe531e1c	-0.20616955
234	0xbf36536d	-0.7122105
235	0xbf7cc7f9	-0.98742634
236	0xbf067ac1	-0.5253106
237	0xbf336dc9	-0.70089394
238	0xbf3f2bd2	-0.7467624
239	0xbf51beec	-0.8193195
240	0xbf3b961f	-0.7327594
241	0xbebd200d	-0.36938515
242	0xbe84015e	-0.25782293
243	0xbea44023	-0.32080182
244	0xbe903ae1	-0.2816992
245	0xbf05b13e	-0.52223575
246	0xbf3ba9e1	-0.7330609
247	0xbf29a661	-0.662695
248	0xbf443fdf	-0.7665996
249	0xbeec6bbc	-0.46175945
250	0xbf4d8dfb	-0.8029477
251	0xbd94e7a9	-0.07270748
252	0x3e8ef8db	0.27924237
253	0x3e8404bc	0.25784862
254	0x3f037dc8	0.513638
255	0xbe422458	-0.18959177

encoder.attn.in_proj_bias f4 [54]
0	0xbe854425	-0.26028553
1	0xbee68cca	-0.4502929
2	0xbed73421	-0.4203196
3	0xbef96974	-0.48713267
4	0x3e670970	0.22562194
5	0xbf4167ee	-0.7554921
6	0x3f044c43	0.51678866
7	0xbdfc0686	-0.12305932
8	0x3f15c4c7	0.58503383
9	0x3eb6cda0	0.35703754
10	0x3f00cfad	0.5031689
11	0x3ed4bfb5	0.4155251
12	0xbedf68b1	-0.4363456
13	0xbf0dd1c9	-0.5539823
14	0x3eec554a	0.4615882
15	0xbe9b5b25	-0.30342975
16	0xbefe23fb	-0.49636826
17	0x3e8f4296	0.2798049
18	0x380bf9c2	3.3372788e-05
19	0x3a961127	0.0011449204
20	0x39357ebe	0.0001730872
21	0x39302489	0.00016798278
22	0xb905dc47	-0.00012765928
23	0x3a247c2a	0.00062746054
24	0x3a09e9c8	0.00052609714
25	0xb895144e	-7.108656e-05
26	0xb9d74da2	-0.00041065837
27	0x38c1ceea	9.241498e-05
28	0xba114342	-0.0005541333
29	0xb9c09c9c	-0.00036737777
30	0x38ec05a4	0.000112544076
31	0x36612d8c	3.3554124e-06
32	0x38d6aa42	0.00010236028
33	0xb973336b	-0.0002319344
34	0x39b2022a	0.00033952418
35	0xb87435c4	-5.8224206e-05
36	0x38d32ad8	0.00010069244
37	0xbb37f0d3	-0.0028067126
38	0x3ba3150f	0.0049768756
39	0xbc095710	-0.008382574
40	0x3b5f0cda	0.003403476
41	0x3b98f8dc	0.004668338
42	0x3c6b8f8c	0.014377486
43	0x3b76ed1e	0.0037677954
44	0x3c1642ab	0.009171168
45	0xbc20ea5b	-0.0098215
46	0xbcdd4142	-0.027008656
47	0xbc0ca54f	-0.0085843345
48	0x38c643c0	9.453995e-05
49	0xbbcd1be6	-0.0062594293
50	0xbc885092	-0.016639981
51	0x3b2fc34c	0.0026819287
52	0xbb2ea812	-0.002665047
53	0xbbf0b700	-0.007346034

encoder.attn.out_proj.weight f4 [18, 18]
0	0xbd833e23	-0.06408336
1	0xbb83900a	-0.0040149735
2	0x3e567f56	0.20947012
3	0x3d0177f3	0.031608533
4	0xbc5f1ec4	-0.013618175
5	0xbd0fdf38	-0.035124987
6	0x3bf12bec	0.007359972
7	0xbe0b9e92	-0.13634709
8	0xbe1b0a36	-0.15140614
9	0xbddad80c	-0.10685739
10	0x3e311dcc	0.17296523
11	0x3e457a3f	0.19284914
12	0x3d35fc2b	0.04442994
13	0x3d92a0a8	0.07159549
14	0x3d522168	0.05130139
15	0xbcc824bd	-0.02443158
16	0xbcb18f89	-0.021674888
17	0xbda96767	-0.082716756
18	0x3cb27a0c	0.021786712
19	0xbe0a1c31	-0.13487317
20	0xbe41280a	-0.1886293
21	0x3da83c7f	0.08214664
22	0x3d73dd1f	0.05953705
23	0xbc33a50c	-0.010964643
24	0x3d09be68	0.03362885
25	0x3e09a7f7	0.1344298
26	0x3e3ba1f0	0.18323493
27	0x3e1c8fee	0.1528928
28	0x3e159858	0.14608896
29	0x3e43e5e7	0.1913067
30	0xbda23e44	-0.079220325
31	0x3df5e664	0.12006834
32	0x3e28a684	0.1646977
33	0x3e452425	0.1925207
34	0x3e180777	0.14846598
35	0xbc799682	-0.015233638
36	0xbdbba2c5	-0.09161905
37	0x3e3dc639	0.18532647
38	0xbb94459c	-0.0045248996
39	0x3d97c612	0.07410826
40	0x3e64f148	0.22357666
41	0xbc6a10ab	-0.0142862005
42	0xbd7f1d96	-0.062284075
43	0x3e63d986	0.22250947
44	0xbc8accb9	-0.016943322
45	0xbe43e93c	-0.1913194
46	0xbdac873b	-0.08424231
47	0x3e19e739	0.1502961
48	0x3d9043d6	0.07044189
49	0x3df83d6f	0.121210925
50	0xbdc99289	-0.098424025
51	0xbd74f1ea	-0.05980102
52	0xbe332a76	-0.17496666
53	0x3df98882	0.1218424
54	0xbe0eab64	-0.13932568
55	0x3d0a2205	0.03372385
56	0x3da354bc	0.07975146
57	0xbe1e3663	-0.15450434
58	0xbd183dc0	-0.037168264
59	0x3e011a58	0.12607706
60	0x3abe4d08	0.0014518807
61	0xbd3c9b94	-0.04604681
62	0x3cfca5e0	0.030840814
63	0x3d97ab77	0.07405751
64	0xbdcb2947	-0.099199824
65	0x3dc21949	0.09477479
66	0x3d9b1a5e	0.075733885
67	0x3e02660e	0.12734243
68	0xbdff23ac	-0.12457976
69	0xbd6d421b	-0.05792437
70	0x3e1c6e97	0.15276562
71	0x3e4033cd	0.1876976
72	0x3e1f2159	0.15540065
73	0x3d5de350	0.05417186
74	0x3db21961	0.08696247
75	0x3dcae8ee	0.09907709
76	0xbe25cef0	-0.16192222
77	0x3e139cd9	0.14415301
78	0x3e3b5c36	0.18296894
79	0xbe14a06c	-0.14514321
80	0xbcc96739	-0.024585353
81	0xbcf054ee	-0.029337373
82	0x3df76922	0.12080599
83	0x3e894dc5	0.26817146
84	0x3c2af90d	0.010435355
85	0x3bd16e4b	0.006391322
86	0x3dcddd50	0.10051978
87	0x3e76f1cc	0.24115676
88	0x3dfa7c48	0.12230736
89	0x3d65d037	0.056106772
90	0xbe0a7672	-0.13521746
91	0x3e5e7595	0.21724541
92	0xbe1cbdd4	-0.15306789
93	0xbe100e6c	-0.14068002
94	0x3d3d7c4a	0.04626111
95	0xbd53dcb1	-0.05172414
96	0xbdc35ebe	-0.09539555
97	0xbc8dee7c	-0.017325632
98	0xbde68fa8	-0.11257869
99	0x3e3836a0	0.17989588
100	0x3d12c0cf	0.035828408
101	0x3b462e45	0.003023998
102	0xbe491310	-0.19636178
103	0x3bf49d95	0.0074650743
104	0x3e27ffd3	0.16406183
105	0xbe169375	-0.14704688
106	0xbdf5d560	-0.12003589
107	0x3e0f69e8	0.14005244
108	0x3d4754e9	0.04866496
109	0x3dd7ea30	0.105427146
110	0xbe0c13b6	-0.13679394
111	0xbe413a6c	-0.18869942
112	0x3cffacbb	0.031210294
113	0x3a6f39b2	0.0009125724
114	0x3cd926e4	0.026507802
115	0x3db7ee59	0.08981008
116	0x3e473953	0.19455461
117	0x3d3f94bd	0.046772707
118	0xbe24943a	-0.16072169
119	0x3e5477fa	0.20748892
120	0x3e609805	0.21932991
121	0xbda10d2d	-0.07863841
122	0xbe4cd44a	-0.20002857
123	0xbcf0f41b	-0.029413274
124	0xbd7fd371	-0.062457506
125	0xbd7960d0	-0.060883343
126	0xbe286dff	-0.1644821
127	0xbdf0c16a	-0.11755641
128	0xbd834adc	-0.06410763
129	0x3d951fad	0.07281432
130	0xbe24e20b	-0.16101854
131	0x3dadd154	0.08487192
132	0xbdb6b6ab	-0.0892156
133	0x3e40f1d0	0.18842244
134	0x3c101992	0.008795159
135	0x3db077d1	0.08616603
136	0x3e38e482	0.18055919
137	0x3dc5aada	0.09651728
138	0xbe67d368	-0.22639239
139	0xbdc07581	-0.09397412
140	0x3da52a10	0.080646634
141	0xbe5f87b8	-0.21829116
142	0x3d57faac	0.052729294
143	0xbe290144	-0.16504389
144	0xbe5380c9	-0.20654596
145	0x3d3b3ab2	0.045710273
146	0xbe2c6fd8	-0.1683954
147	0x3d5738ea	0.05254451
148	0xbcd525e4	-0.026019044
149	0x3e3fc8ee	0.18728992
150	0xbd4d4961	-0.050118808
151	0x3dd87086	0.10568337
152	0x3e161815	0.14657624
153	0x3e16cc28	0.14726317
154	0xbba76f42	-0.0051096985
155	0x3e6bea14	0.23038512
156	0x3d888b7f	0.06667232
157	0xbd75e9c3	-0.060037386
158	0xbe1010b1	-0.14068867
159	0xbe517772	-0.20455721
160	0xbd9272ad	-0.07150779
161	0x3e12fa3e	0.14353272
162	0xbe1ef4b9	-0.15523042
163	0xbe614c3a	-0.22001734
164	0x3d41bf59	0.047301624
165	0xba9c02a1	-0.0011902639
166	0xbdf8bffe	-0.121459946
167	0x3e2f471f	0.17116974
168	0x3e03b32e	0.1286132
169	0x3deb5456	0.11490695
170	0x3e0ae53c	0.13564008
171	0x3dd92d19	0.10604305
172	0x3c248a50	0.010042742
173	0xbe16b9b5	-0.14719279
174	0xbdf06789	-0.11738498
175	0xbe2e709c	-0.17035145
176	0xbe55e1b0	-0.20886874
177	0x3e274e3e	0.16338441
178	0x3ba7786a	0.00511079
179	0xbe4ff563	-0.20308451
180	0x3dbab7e1	0.09117103
181	0xbe1bd411	-0.15217616
182	0xbe33fd4f	-0.17577098
183	0x3e2096be	0.15682504
184	0x3daeded5	0.085385956
185	0x3dba7306	0.0910397
186	0x3d90c328	0.07068473
187	0xbdd6f731	-0.10496367
188	0xbe6c2980	-0.23062706
189	0x3e485fb7	0.19567762
190	0xbe4c9e46	-0.19982252
191	0x3d38a5d3	0.045080017
192	0xbe03e019	-0.12878455
193	0x3e14196f	0.14462827
194	0xbe035036	-0.12823567
195	0xbe202661	-0.1563964
196	0x3e836321	0.25661567
197	0xbd89438b	-0.06702336
198	0x3d09b377	0.033618417
199	0x3c97463c	0.018466108
200	0x3d71ae1f	0.059003945
201	0xbd09d790	-0.033652842
202	0xbe657dac	-0.22411221
203	0xbe097c57	-0.13426338
204	0x3dbefe90	0.09325898
205	0x3df63aa6	0.12022905
206	0x3e604276	0.21900353
207	0xbe5be4a3	-0.21473937
208	0xbe0b15ef	-0.13582586
209	0x3ce5f153	0.028069174
210	0x3ca5407f	0.020172356
211	0xbd72e0aa	-0.059296288
212	0xbe00a3a8	-0.1256243
213	0x3d98f8b8	0.07469314
214	0x3e58eecf	0.21184848
215	0xbd21c836	-0.039497577
216	0xbe0971d3	-0.13422327
217	0xbd999bf9	-0.075004525
218	0x3ddd6e18	0.10812014
219	0xbd30b99d	-0.043145765
220	0xbe587987	-0.21140109
221	0x3b4dee81	0.0031422677
222	0xbdd606bc	-0.10450503
223	0xbd934764	-0.07191351
224	0xbc96c953	-0.018406546
225	0x3e78bbab	0.2429034
226	0xbd0184d2	-0.031620808
227	0x3e5242df	0.20533322
228	0xbd1e16e3	-0.038596045
229	0x3e2eecaf	0.17082475
230	0x3d5e45da	0.054265834
231	0x3e21d1af	0.15802644
232	0xbe5214a9	-0.20515694
233	0x3d98fc20	0.07469964
234	0xbd5660bf	-0.052338358
235	0x3e302098	0.17199934
236	0x3e217d4c	0.15770453
237	0xbc07a633	-0.008279371
238	0x3e3b67e8	0.18301356
239	0x3c9a4fbf	0.018836854
240	0x3de41d05	0.111383475
241	0x3e182b88	0.14860356
242	0xbd25bc19	-0.040462587
243	0x3e267e40	0.16259098
244	0x3e174448	0.14772141
245	0x3dc4d3a5	0.096106805
246	0x3d41c9c4	0.04731156
247	0xbe8c1f60	-0.27367687
248	0xbdf44c08	-0.11928564
249	0x3d0bebd3	0.034160446
250	0xbd357d93	-0.04430921
251	0xbb627f38	-0.0034560692
252	0x3c332e89	0.010936388
253	0xbe36e276	-0.17859825
254	0xbdc5ac40	-0.09651995
255	0xbdc715db	-0.097209655

encoder.attn.out_proj.bias f4 [18]
0	0xbc65d269	-0.0140272165
1	0xbc940b5d	-0.018071825
2	0xbc3fc9bb	-0.011705811
3	0x3c5f30be	0.013622461
4	0xbc673f59	-0.014114224
5	0x3c2890f8	0.0102884695
6	0x3c1ff5e9	0.009763219
7	0x3bfd51fb	0.00773072
8	0xbbcce504	-0.0062528867
9	0xbbde9e9c	-0.00679381
10	0x3a5c74ee	0.0008409758
11	0x3b64c997	0.0034910196
12	0x3a2094e0	0.00061257
13	0x3c152d74	0.009105075
14	0x388f8901	6.84429e-05
15	0x3c22771b	0.009916092
16	0x3c87534c	0.016519211
17	0x3b19ff44	0.0023498097

encoder.feed_forward.0.weight f4 [72, 18]
0	0x3e1b50d3	0.1516755
1	0x3d286fea	0.041122355
2	0xbcc442cd	-0.023957634
3	0x3cda2eab	0.026633581
4	0x3d863d80	0.06554699
5	0xbda6329e	-0.08115123
6	0xbe1a1028	-0.15045226
7	0x3c8b6b7c	0.017019026
8	0xbe32229e	-0.17396018
9	0x3e35fd29	0.17772354
10	0x3dd9a986	0.10628037
11	0xbd748f6c	-0.05970709
12	0xbd37bb9f	-0.044856664
13	0xbd9d9f59	-0.07696409
14	0x3db7b2c2	0.08969642
15	0x3d90e7cf	0.07075464
16	0xbe750246	-0.23926648
17	0xbda36a9f	-0.07979321
18	0xbccd1da6	-0.025038552
19	0x3d0659d8	0.032800525
20	0xbdc4e1e3	-0.09613397
21	0x3d271487	0.04079106
22	0xbcaef9e6	-0.021359395
23	0x3e0562c5	0.13025959
24	0x3c839c06	0.016065609
25	0x3e45f0c3	0.19330125
26	0xbdc4142e	-0.095741615
27	0xbcf0d706	-0.029399406
28	0xbe32f019	-0.17474402
29	0x3e2b42c8	0.16724694
30	0x3e46b6d8	0.19405687
31	0xbdb1af30	-0.086759925
32	0x3e330e3d	0.174859
33	0xbd87a16a	-0.06622584
34	0x3e629253	0.22126131
35	0xbb371f45	-0.0027942222
36	0xbc7bb9d6	-0.015364131
37	0x3e48c9f2	0.19608286
38	0xbe28099f	-0.1640992
39	0xbd2c31e4	-0.042039767
40	0x3d0d3612	0.034475394
41	0x3dc29ac5	0.09502176
42	0xbe804ffb	-0.2506102
43	0xbd5b4ec2	-0.053541906
44	0x3cac2a30	0.02101621
45	0x3bd40ec6	0.0064714877
46	0xbdd8da33	-0.10588493
47	0x3e13a386	0.14417848
48	0x3d199671	0.037496988
49	0x3e2567f3	0.16152935
50	0xbc9b22c0	-0.018937469
51	0x3e47dfd9	0.19518985
52	0xbd83ed90	-0.06441796
53	0xbdb904e9	-0.0903414
54	0x3e3f750c	0.18696994
55	0xbe5e3e41	-0.21703435
56	0x3d8fe089	0.070252486
57	0xbc8a982b	-0.016918262
58	0xbc60866a	-0.013703922
59	0xbdd29d31	-0.10283888
60	0xbda31277	-0.07962506
61	0x3de339fb	0.11095043
62	0xbdc1b8bf	-0.09459066
63	0xbd91c91c	-0.07118437
64	0xbd2b1086	-0.041763805
65	0xbe5e362a	-0.2170035
66	0xbd9b37d7	-0.0757901
67	0x3e33b45a	0.17549267
68	0xbe4580c6	-0.19287404
69	0x3e24c672	0.16091326
70	0xbd4794d3	-0.048725914
71	0x3ce1206c	0.02748128
72	0x3e0fde6e	0.14049694
73	0xbe0971c9	-0.13422312
74	0x3e050e0c	0.1299364
75	0x3ca9ee86	0.02074362
76	0xbddfb8e5	-0.10923938
77	0x3e5ced15	0.21574815
78	0xbd9b5481	-0.07584477
79	0x3db13fcb	0.08654746
80	0x3e22d642	0.15902045
81	0xbd7d883f	-0.061897513
82	0xbe56db42	-0.20982078
83	0xbe236c9b	-0.15959398
84	0xbe5fc061	-0.2185073
85	0xbe2dbf32	-0.16967466
86	0x3e6be220	0.23035479
87	0x3d7a2efc	0.061079964
88	0xbd9aeb80	-0.07564449
89	0x3db2a988	0.08723742
90	0x3e5c7a20	0.21530962
91	0x3e2ff843	0.17184548
92	0xbdc83fc2	-0.09777786
93	0xbe51d44e	-0.20491144
94	0xbe1e6fb7	-0.15472303
95	0xbeae12ef	-0.3399882
96	0xbd020b5a	-0.031749107
97	0xbdc91a1c	-0.09819433
98	0x3ddb8592	0.10718836
99	0xbd8d3606	-0.0689507
100	0x3ddcd1c3	0.107821964
101	0x3d9c10a0	0.076203585
102	0xbd49f0d4	-0.049301937
103	0x3e60b90b	0.21945588
104	0x3e39d834	0.18148881
105	0x3d3f55a3	0.04671253
106	0xbda6b50e	-0.08140002
107	0xbcd01e58	-0.025405094
108	0x3d71ca58	0.05903086
109	0x3be3f813	0.006957063
110	0x3d892116	0.06695764
111	0xbe0b3000	-0.1359253
112	0xbd9cd11f	-0.07657074
113	0xbb98d301	-0.0046638255
114	0xbe144901	-0.14480974
115	0xbdd8c52c	-0.105844826
116	0xbdc68439	-0.09693188
117	0x3dda7f9d	0.106688716
118	0x3e4d1d75	0.20030768
119	0xbe396f4a	-0.1810886
120	0x3e33ca15	0.17557557
121	0x3e2a7b9a	0.16648713
122	0xbde1511a	-0.11001797
123	0x3ddc208e	0.10748397
124	0xbd86b642	-0.06577732
125	0x3d82ffd9	0.06396455
126	0xbe11de99	-0.1424507
127	0x3ad1f6db	0.0016019003
128	0xbd9ac06b	-0.07556232
129	0x3de0cd42	0.1097665
130	0xbe1eeee8	-0.15520823
131	0xbe4e7b3c	-0.20164198
132	0x3e0e1a3c	0.13877195
133	0xbd48aa93	-0.048990797
134	0x3e7c627d	0.24646945
135	0x3dd18c43	0.10231831
136	0x3e42f968	0.19040453
137	0x3d26ec13	0.04075248
138	0x3e167949	0.14694704
139	0xbdda6a02	-0.10664751
140	0xbd546dfd	-0.051862705
141	0x3e5fb304	0.21845633
142	0xbd07b755	-0.033133823
143	0xbdeca8df	-0.11555647
144	0x3de41f2c	0.11138758
145	0x3e38da5b	0.18052046
146	0xbc83ba6d	-0.016080106
147	0xbd8fde7e	-0.07024859
148	0x3c926ba7	0.017873598
149	0xbd534fc8	-0.051589757
150	0xbe19701f	-0.14984177
151	0x3e3c149a	0.18367234
152	0xbe186fed	-0.14886446
153	0xbe10b547	-0.14131652
154	0x3ca9ba68	0.020718768
155	0xbc06cf8f	-0.008228197
156	0x3d383f87	0.04498246
157	0x3d9c34c4	0.07627252
158	0x3d2e91b4	0.042619422
159	0x3e8eb23b	0.27870354
160	0x3e715446	0.23567304
161	0x3dcbdaf1	0.09953869
162	0x3e31469e	0.17312095
163	0xbe3bf80b	-0.1835634
164	0x3e212c39	0.15739526
165	0x3c8b3be4	0.016996332
166	0x3d9ebfed	0.07751451
167	0xbde1c617	-0.11024111
168	0xbce42141	-0.027847888
169	0x3e4e2b6e	0.20133755
170	0x3d05fc8f	0.03271156
171	0x3df86745	0.12129072
172	0xbe363c40	-0.17796421
173	0x3e5149dc	0.20438331
174	0x3e54d63b	0.20784847
175	0xbe5d01c4	-0.21582705
176	0xbd890152	-0.06689705
177	0x3e5993f0	0.2124784
178	0xbe450aec	-0.19242448
179	0xbe7ff271	-0.24994828
180	0xbd96fef2	-0.07372846
181	0xbe5cbe6a	-0.21557012
182	0x3d9f278c	0.07771215
183	0x3e02e76d	0.12783594
184	0x3c9d0bd3	0.019170677
185	0xbdc84db1	-0.097804435
186	0x3e129282	0.14313701
187	0x3e4068ef	0.18790029
188	0xbdb9db16	-0.090749905
189	0x3db163b0	0.08661592
190	0xbe553652	-0.20821503
191	0xbd8cea22	-0.06880595
192	0x3dfb0c78	0.122582376
193	0x3e24d4f0	0.16096854
194	0x3dbb23a3	0.091376565
195	0xbe0b2944	-0.1358996
196	0x3dfddd3e	0.12395714
197	0x3d2af2f8	0.04173562
198	0x3e22796a	0.15866628
199	0x3e4776a3	0.1947885
200	0x3cebbf3f	0.028777717
201	0x3dd11932	0.10209884
202	0x3e4fa58e	0.20277998
203	0xbd3f8e75	-0.046766717
204	0xbe59a124	-0.21252877
205	0xbc817332	-0.015802
206	0x3df9964f	0.12186872
207	0x3e0ac1ab	0.13550441
208	0xbd58ac35	-0.052898604
209	0xbe573fb4	-0.21020395
210	0xbd9b7c30	-0.07592046
211	0x3dcb7f12	0.09936346
212	0xbe49e046	-0.1971446
213	0x3ddd73fa	0.108131364
214	0xbd877922	-0.06614901
215	0xbc6d482b	-0.014482538
216	0x3e7b6070	0.24548507
217	0xbddc01ee	-0.107425556
218	0x3d550854	0.052009895
219	0xbe3ad573	-0.18245487
220	0x3d9a2b07	0.07527738
221	0xbe28d496	-0.16487345
222	0x3e036552	0.1283162
223	0xbddba83e	-0.10725449
224	0x3e6ac4ea	0.22926679
225	0x3e5b8277	0.21436487
226	0xbe09a9d1	-0.13443686
227	0x3e0ee14a	0.13953128
228	0xbde2232c	-0.11041865
229	0x3d9a88d7	0.075456314
230	0x3dc92aad	0.09822593
231	0xbe084ed6	-0.13311324
232	0x3e104bc5	0.14091404
233	0x3daace39	0.08340115
234	0x3dfa0b6d	0.122092105
235	0xbe0faeb8	-0.14031494
236	0x3bdbb3e0	0.0067047924
237	0xbdeaa617	-0.114574604
238	0xbd002113	-0.031281542
239	0x3e37a8f4	0.17935544
240	0xbdf56f9c	-0.119841784
241	0x3e1bbb20	0.15208101
242	0x3e4e2949	0.20132937
243	0x3e2789b1	0.16361119
244	0xbd1e1ef3	-0.038603734
245	0xbbae0201	-0.0053102975
246	0xbc7b489b	-0.015337135
247	0xbeb10a0a	-0.34577972
248	0x3e7855b0	0.24251437
249	0x3dcb19fd	0.09917066
250	0x3e88717e	0.26649088
251	0x3e4fb795	0.20284875
252	0x3e1e78d4	0.1547578
253	0x3e0deb74	0.1385935
254	0x3c8bfe2c	0.017088972
255	0xbde9895b	-0.114031516

encoder.feed_forward.0.bias f4 [72]
0	0xbcb8e21c	-0.022568755
1	0x3cf125ef	0.029437033
2	0x3da9b625	0.082866944
3	0x3c2120e9	0.009834507
4	0x3cfe80b4	0.03106723
5	0x3d8b52ed	0.06802926
6	0x3e67fcf8	0.22655094
7	0x3dd0f303	0.10202601
8	0xbc519cc5	-0.012793724
9	0x3d8b61d5	0.06805769
10	0xbd8cb5c1	-0.06870604
11	0xbbcca20c	-0.0062449034
12	0xbe070d20	-0.131886
13	0xbd9566d4	-0.072950035
14	0xbe09f77b	-0.13473313
15	0xbdf77bf9	-0.12084193
16	0x3d4a2109	0.04934791
17	0xbcb99681	-0.022654774
18	0x3e1f64be	0.15565774
19	0x3ca90951	0.020634325
20	0xbc81a9ed	-0.015828097
21	0xbe46fbbc	-0.19431967
22	0xbe42d7e3	-0.19027667
23	0xbe3ea7ba	-0.1861867
24	0xbe1f1418	-0.15535009
25	0x3d5fffe6	0.054687403
26	0xbdaeaf23	-0.085294984
27	0xbe4fc01c	-0.20288128
28	0xbdeb4312	-0.11487402
29	0xbdccafb5	-0.09994451
30	0xbdac7354	-0.084204346
31	0xbca4145f	-0.020029245
32	0x3da42014	0.08013931
33	0x3e3c2e8f	0.18377136
34	0x3e58ab99	0.2115921
35	0xbe329823	-0.17440848
36	0xbe37fd50	-0.17967725
37	0xbc89a6f3	-0.01680324
38	0xbe471ae6	-0.19443855
39	0x3d3de73a	0.046363093
40	0xbe4362d5	-0.1908067
41	0xbdb0fe83	-0.08642294
42	0xbd849907	-0.064745
43	0xbdf7d3bf	-0.12100934
44	0x3dfb15be	0.12260006
45	0xbdeccb52	-0.11562218
46	0xbe2545eb	-0.16139953
47	0x3da58f22	0.08083941
48	0xbdda8d21	-0.106714495
49	0x3ce748f8	0.028233036
50	0x3e56e349	0.2098514
51	0xbdce9779	-0.10087485
52	0xbe3f1c62	-0.18663171
53	0xbe353871	-0.17697312
54	0x3e22f715	0.15914567
55	0x3e611c67	0.21983491
56	0xbd98b25e	-0.07455896
57	0xbe6608c0	-0.22464275
58	0xbbc14d33	-0.0058990954
59	0x3df307d9	0.11866731
60	0xbe1e9a40	-0.15488529
61	0x3c9396cc	0.018016241
62	0x3dc279a1	0.09495855
63	0xbd59b0f8	-0.053147286
64	0xbd12f490	-0.035877764
65	0x3e58d390	0.21174455
66	0xbce4c45f	-0.027925668
67	0x3e0ad183	0.13556485
68	0xbde8ba04	-0.11363605
69	0x3e836ef5	0.2567059
70	0x3dffd7c6	0.124923274
71	0x3e65772b	0.2240874

encoder.feed_forward.2.weight f4 [36, 72]
0	0x3d40b290	0.04704529
1	0xbd7ac05d	-0.06121861
2	0xbd8e4ac1	-0.06947852
3	0xbd8652a8	-0.06558734
4	0x3c7ac929	0.015306749
5	0xbce3a48c	-0.027788423
6	0x3d882cc9	0.06649167
7	0xbcf6888f	-0.030094413
8	0xbdf3025d	-0.11865685
9	0xbd827e4f	-0.06371748
10	0x3db2fe10	0.08739865
11	0xbdf271b8	-0.118380964
12	0xbd66de94	-0.05636461
13	0xbda4e880	-0.08052158
14	0xbd07fd37	-0.03320047
15	0xbcef33da	-0.02919953
16	0xbd8fd115	-0.07022301
17	0xbd8dbe42	-0.069210544
18	0xbd959d80	-0.07305431
19	0x3d453015	0.048141558
20	0xbc8143c7	-0.015779389
21	0xbe0c0805	-0.13674934
22	0xbd9827ec	-0.074294895
23	0x3bb0b7bd	0.005392997
24	0xbd09af7a	-0.033614613
25	0xbdb6cd23	-0.089258455
26	0x3d9c43bb	0.07630106
27	0xbe3c0a99	-0.18363418
28	0xbd88db9f	-0.066825144
29	0xbd1b6585	-0.037938613
30	0xbe01c9ea	-0.1267468
31	0xbe1c8e4d	-0.15288658
32	0x3d3a5f13	0.045500826
33	0x3db6c198	0.08923644
34	0xbd397766	-0.045279883
35	0x3dc910d9	0.098176666
36	0xbe07ba35	-0.13254626
37	0xbddd9549	-0.108194895
38	0x3d7c9431	0.061664764
39	0xbd40de33	-0.047086906
40	0x3d976842	0.073929325
41	0x3d89c6e1	0.06727386
42	0xbdcc340d	-0.099708654
43	0xbdbe19d5	-0.09282271
44	0x3d1fc8ff	0.039010044
45	0xbcb579cb	-0.022152802
46	0xbe18fd41	-0.14940359
47	0x3dd7f95a	0.10545607
48	0xbd055173	-0.03254838
49	0x3cad773f	0.021175025
50	0x3e028368	0.1274544
51	0xbdec544a	-0.11539514
52	0xbd17b56a	-0.037038244
53	0xbc91122d	-0.017708862
54	0xbd8c126a	-0.0683945
55	0xbd83fc49	-0.06444604
56	0x3b85c2df	0.0040820683
57	0x3c796843	0.015222612
58	0xbdf5e405	-0.12006382
59	0xbd444d3f	-0.04792523
60	0xbd591b11	-0.05300433
61	0x3da65113	0.081209324
62	0xbc030307	-0.007996327
63	0x3da95046	0.08267264
64	0x3dcbac6a	0.09944995
65	0xbae91eaa	-0.0017785628
66	0xbd11c812	-0.035591193
67	0x3d4ba19a	0.049714662
68	0xbb80a8e4	-0.0039263833
69	0xbd7ca3ae	-0.061679535
70	0x3c65aaea	0.0140178
71	0xbdf57cea	-0.11986716
72	0x3deaa16f	0.11456572
73	0xbd0fb7ab	-0.03508727
74	0xbd0e4cc1	-0.034741167
75	0x3dbf2a1f	0.09334206
76	0xbcf25ecb	-0.029586216
77	0xbdc17626	-0.09446363
78	0x3de71b98	0.1128456
79	0xbc76b2b2	-0.015057253
80	0x3c0ecad7	0.008715353
81	0xbcd9066b	-0.026492318
82	0x3cda97f5	0.026683787
83	0x3d3bd002	0.04585267
84	0xbd829847	-0.06376701
85	0xbc3a4425	-0.011368786
86	0x3d084322	0.033267148
87	0x3df6be01	0.12047959
88	0x3e3499e0	0.17636824
89	0xbd368718	-0.04456243
90	0x3db9fabd	0.09081028
91	0xbda6f3a2	-0.08151938
92	0xbcb77074	-0.022392489
93	0x3d895593	0.06705775
94	0x3d82ea69	0.063923664
95	0x3da88709	0.08228881
96	0x3de170ce	0.11007844
97	0x3d35c2e3	0.04437531
98	0xbdd60abc	-0.10451266
99	0xbc925328	-0.017861918
100	0xbdc75144	-0.09732297
101	0xbd276bb3	-0.040874194
102	0xbda44187	-0.08020311
103	0x3d18eb47	0.037333753
104	0xbd0c61b1	-0.034272853
105	0x3d6f7533	0.05846138
106	0xbdaad755	-0.083418526
107	0xbdad0866	-0.084488675
108	0xbde555bb	-0.111979924
109	0x3c5073f7	0.012722961
110	0xbdaff474	-0.085915476
111	0xbd3815ec	-0.04494278
112	0xbdeb9fa1	-0.11505056
113	0x3df01145	0.11722044
114	0x3df01a5b	0.11723777
115	0xbc8abe75	-0.01693652
116	0xbdf5ea82	-0.120076194
117	0xbd102e03	-0.03520013
118	0xbd8c1b37	-0.06841128
119	0xbda7a799	-0.081862636
120	0x3b98e1ae	0.004665575
121	0xbcce3c36	-0.025175195
122	0x3d0972e5	0.033556838
123	0x3d9f9ba2	0.077933565
124	0x3de93636	0.11387293
125	0xbd99f2d1	-0.07517017
126	0xbd614af7	-0.055003133
127	0xbdaeaed8	-0.085294425
128	0x3daadc42	0.08342792
129	0x3d0954f1	0.033528272
130	0xbd235ffa	-0.039886452
131	0xbd648aa5	-0.055796284
132	0xbe1e8f23	-0.1548429
133	0x3d143d82	0.03619147
134	0x3dbf43f5	0.09339134
135	0x3ba55f7a	0.005046782
136	0x3e04c908	0.12967312
137	0x3ce12c2c	0.027486883
138	0xbd5b164a	-0.053488053
139	0xbd586ad6	-0.05283626
140	0xbda62e4e	-0.08114301
141	0xbdbeedc6	-0.093226954
142	0x3ba1386b	0.0049200556
143	0x3d4a79a2	0.049432404
144	0xbccc269a	-0.02492075
145	0xbd473708	-0.048636466
146	0x3d25e6a5	0.040503163
147	0xbd7e65ee	-0.062108926
148	0xbdde69f1	-0.108600505
149	0xbdd6d973	-0.10490694
150	0x3de1c5bb	0.11024042
151	0x3cc9d62d	0.02463826
152	0xbda52f92	-0.08065714
153	0xbcd4cbe6	-0.025976133
154	0x3d08121c	0.033220395
155	0xbd6a6268	-0.057222754
156	0xbc99fc0a	-0.01879694
157	0x3d528e58	0.05140528
158	0x3c37d920	0.0112212
159	0x3d4a0020	0.049316525
160	0xbdf0b91f	-0.11754059
161	0xbd1af3be	-0.037830107
162	0x3cab90ff	0.020943163
163	0x3d29bf0e	0.04144197
164	0xbc94406c	-0.018097125
165	0xbc8ea84a	-0.01741423
166	0xbd783d86	-0.06060555
167	0x3daf6fd0	0.085662484
168	0xbd7872b2	-0.060656257
169	0xbda2d758	-0.0795123
170	0x3d04fd3e	0.032468073
171	0xbcf3da31	-0.029767128
172	0xbd86af35	-0.06576387
173	0x3d967883	0.073472045
174	0xbdd25a94	-0.10271183
175	0x3cd6593d	0.026165599
176	0x3d800b9d	0.06252215
177	0xba22f775	-0.00062166835
178	0xbd8465df	-0.06464743
179	0xbd5d0024	-0.053955212
180	0xbded5748	-0.11588913
181	0xbdd0f5b9	-0.10203118
182	0x3d1d4c85	0.038403053
183	0x3b58c682	0.0033077304
184	0xbd9e1966	-0.07719688
185	0x3d69af3a	0.057051875
186	0x3c76048c	0.0150157325
187	0xbde3a384	-0.111151725
188	0xbd49ee87	-0.049299743
189	0xbbb00640	-0.005371839
190	0xbde82f77	-0.11337178
191	0x3d503f6c	0.050841734
192	0x3cefd22d	0.029275024
193	0x3d6fee33	0.058576774
194	0xbb2e8f51	-0.0026635716
195	0xbde7d809	-0.11320502
196	0xbc01e227	-0.007927454
197	0xbd307b64	-0.043086424
198	0x3dcad8a8	0.09904605
199	0xbd3f34dd	-0.046681274
200	0xbd8a7ae5	-0.067617215
201	0xbbca58d5	-0.0061751404
202	0xbd556b94	-0.052104548
203	0x3c107f7f	0.00881946
204	0x3d1477b8	0.036246985
205	0x3ddbb446	0.10727744
206	0xbc95200b	-0.018203756
207	0xbd99dfec	-0.07513413
208	0xbd31bb3a	-0.043391444
209	0x3dbdd1f3	0.0926856
210	0xbc7b9a6b	-0.01535664
211	0x3c85ac0b	0.016317388
212	0xbd80db72	-0.06291856
213	0xbdc3debd	-0.09563968
214	0x3dc44c94	0.095849186
215	0x3d1d5de0	0.038419604
216	0x3dd89850	0.10575926
217	0x3c97616c	0.018479072
218	0x3dd7961f	0.1052668
219	0x3c737a82	0.014860751
220	0x3d3a6950	0.04551059
221	0x3d8cb6a1	0.06870771
222	0x3d93a98a	0.072100714
223	0xbd1e8789	-0.038703475
224	0x3d88a823	0.066726945
225	0xbc95f25f	-0.018304048
226	0xbb8a1383	-0.0042137518
227	0x3da4f2d8	0.08054131
228	0x3db22611	0.08698667
229	0x3d18fe68	0.037351996
230	0xbdac82e8	-0.08423406
231	0xbc80ce1e	-0.015723284
232	0xbc9dbb1d	-0.019254262
233	0x3cb738d6	0.022365969
234	0x3cef3c96	0.029203694
235	0x3cb28ee5	0.021796653
236	0xbdd9b0c5	-0.10629419
237	0xbca0b315	-0.019616643
238	0x3b9ab17a	0.004720864
239	0x3d17f6f7	0.03710076
240	0xbd8c2c3c	-0.068443745
241	0xbd9d228a	-0.076726034
242	0x3db5fc3b	0.08886
243	0x3e2fedb5	0.17180522
244	0xbd9ed87a	-0.077561334
245	0xbd99243d	-0.07477615
246	0x3dbc5f53	0.09197869
247	0x3da5d7b9	0.080977865
248	0x3b0fabb8	0.002192242
249	0xbbf6295e	-0.0075122556
250	0x3dcb477c	0.09925744
251	0xbdc42003	-0.09576418
252	0x3dd98b7d	0.106223084
253	0x3e0acaf6	0.13553986
254	0xbddbcc1b	-0.107322894
255	0x3dcbaa89	0.099446364

encoder.feed_forward.2.bias f4 [36]
0	0xbdd0906a	-0.10183795
1	0xbd80adaf	-0.062831275
2	0xbd787bc4	-0.060664907
3	0x3de1e977	0.11030858
4	0x3d013e4b	0.031553548
5	0x3cd4a849	0.02595915
6	0x3cff17e6	0.031139325
7	0x3d62e433	0.05539341
8	0x3dddef9f	0.1083672
9	0x3d80c896	0.06288259
10	0xbdb03d23	-0.08605411
11	0xbd90abe8	-0.070640385
12	0xbd19dc67	-0.037563708
13	0xbdba9420	-0.09110284
14	0xbc2287c3	-0.009920063
15	0x3d0921c1	0.033479456
16	0x3c0b6c9a	0.008509779
17	0xbdc42abc	-0.095784634
18	0xbda73d98	-0.08166045
19	0xbd92e65b	-0.07172843
20	0xbdc23df2	-0.094844714
21	0xbd4b01e6	-0.049562357
22	0x3dc9ead4	0.09859243
23	0xbd5b2a9f	-0.053507444
24	0xbdef3b73	-0.11681261
25	0xbd514658	-0.051092476
26	0xbd66245e	-0.056187026
27	0xbd90f369	-0.07077677
28	0x3b699092	0.003563915
29	0x3de06a5d	0.10957787
30	0x3ddbda70	0.10735023
31	0x3db09881	0.08622838
32	0xbd44e056	-0.048065506
33	0xbd97efe2	-0.07418801
34	0x3d0a03c2	0.03369499
35	0x3dcddaa8	0.10051471

encoder.norm0.weight f4 [18]
0	0x3f8133ab	1.0093893
1	0x3f7bf4fd	0.984207
2	0x3f7fd991	0.99941355
3	0x3f7dc2b1	0.991252
4	0x3f807cff	1.0038146
5	0x3f82d67a	1.0221703
6	0x3f81545c	1.010387
7	0x3f7367f7	0.9508051
8	0x3f7a0abb	0.97672623
9	0x3f7d3943	0.989155
10	0x3f7d8b42	0.99040616
11	0x3f80da81	1.0066682
12	0x3f86b625	1.0524336
13	0x3f8115a9	1.0084735
14	0x3f832f2b	1.024877
15	0x3f817de0	1.0116539
16	0x3f8496b5	1.0358492
17	0x3f759902	0.95936596

encoder.norm0.bias f4 [18]
0	0x3cb2524b	0.021767756
1	0x3caf78c0	0.021419883
2	0x3c28c543	0.010300937
3	0xbd166199	-0.03671417
4	0x3bec0442	0.007202656
5	0xbce026cd	-0.027362252
6	0x3bf9339f	0.0076050307
7	0x3b8cc08d	0.004295415
8	0x3c156977	0.009119383
9	0xbc6bbc5c	-0.01438817
10	0xbc0c5d09	-0.008567103
11	0x3b896890	0.004193373
12	0x3b7d7451	0.0038674066
13	0xbcb85ae8	-0.022504285
14	0x3bf29758	0.0074032955
15	0x3cb594cf	0.022165684
16	0xbcaca46d	-0.021074498
17	0x3c918a24	0.017766066

encoder.norm1.weight f4 [36]
0	0x3f779161	0.96706206
1	0x3f8216db	1.0163225
2	0x3f798f81	0.97484595
3	0x3f813d6e	1.0096872
4	0x3f7fb6e6	0.99888456
5	0x3f80c1a0	1.005909
6	0x3f803c7e	1.0018461
7	0x3f74b274	0.955848
8	0x3f83720d	1.026918
9	0x3f82f234	1.0230165
10	0x3f81a5b3	1.0128692
11	0x3f7bf126	0.9841484
12	0x3f83ebf6	1.0306385
13	0x3f84367d	1.0329129
14	0x3f7cabaf	0.9869947
15	0x3f81a27d	1.0127712
16	0x3f7fe564	0.999594
17	0x3f82fa85	1.0232702
18	0x3f8283ee	1.0196512
19	0x3f813c15	1.009646
20	0x3f7e3205	0.99295074
21	0x3f8484e9	1.0353061
22	0x3f81374d	1.0095001
23	0x3f848b2b	1.0354971
24	0x3f827782	1.0192721
25	0x3f75d584	0.96028924
26	0x3f83a028	1.0283251
27	0x3f7eabf6	0.9948114
28	0x3f819bc7	1.0125664
29	0x3f83580f	1.0261248
30	0x3f8183d4	1.0118356
31	0x3f7bea51	0.98404413
32	0x3f7bf45d	0.98419744
33	0x3f8073f6	1.0035388
34	0x3f830c9a	1.0238221
35	0x3f77eeac	0.9684856

encoder.norm1.bias f4 [36]
0	0xbc5b0357	-0.0133674955
1	0xbd042a12	-0.032266684
2	0xbd1d3e4e	-0.038389497
3	0x3d05b74e	0.032645516
4	0xbd054c7a	-0.032543637
5	0x3d176533	0.036961745
6	0x3d4db751	0.050223652
7	0x3ce05b49	0.027387278
8	0xbc859987	-0.01630856
9	0x3c8ebff8	0.017425522
10	0xbc84dfba	-0.016219962
11	0xbcf5ff23	-0.030028885
12	0x3c773222	0.015087636
13	0x3c8f675c	0.01750534
14	0xbcfccfc5	-0.030860791
15	0xbca96e63	-0.02068252
16	0xbb166975	-0.002295104
17	0x3c21d232	0.009876775
18	0xbcd0e29e	-0.025498684
19	0xbba620b9	-0.005069819
20	0x3b93d69f	0.004511669
21	0xbb523be5	-0.0032079157
22	0x3cd69956	0.026196163
23	0xbd10a93e	-0.035317652
24	0x3caceac7	0.021108044
25	0xbce5921a	-0.028023768
26	0xbd046e16	-0.03233155
27	0xbd312a01	-0.04325295
28	0x3c8baaa4	0.017049141
29	0x3d354d4d	0.044263173
30	0x3cfc92d8	0.03083174
31	0x3d0a78b0	0.033806503
32	0xbd226466	-0.03964653
33	0xbcdc1f58	-0.026870415
34	0xbc3b133c	-0.01141816
35	0xbcf943e2	-0.030427877

decoder.attn_0.in_proj_weight f4 [108, 36]
0	0xbde314bc	-0.11087939
1	0xbe3df7a9	-0.18551506
2	0xbe35d9dd	-0.1775889
3	0xbd18e051	-0.0373233
4	0x3e3d5388	0.18488896
5	0xbe43b613	-0.19112425
6	0xbd115e97	-0.0354906
7	0xbdeeceea	-0.116605595
8	0xbdf470ac	-0.11935553
9	0x3cf227b0	0.02955994
10	0xbdd8e206	-0.105899855
11	0xbd5cb648	-0.053884774
12	0x3e0c81ac	0.13721341
13	0x3e4caf6f	0.19988798
14	0xbe44f9bd	-0.19235893
15	0x3d4f79be	0.05065321
16	0xbe386e0f	-0.18010734
17	0x3df8709f	0.12130856
18	0x3cb35b06	0.02189399
19	0xbd1bb084	-0.038010135
20	0xbde25f17	-0.11053293
21	0xbd9fce31	-0.07803
22	0x3d946907	0.07246595
23	0x3de04ee4	0.10952547
24	0xbdeec9b9	-0.11659569
25	0x3d950df6	0.072780535
26	0x3e2d9d9f	0.16954659
27	0xbde9847d	-0.11402223
28	0x3de75cba	0.11296983
29	0x3d525e48	0.051359445
30	0xbe2fefa6	-0.17181262
31	0xbd393834	-0.045219615
32	0xbd69f2eb	-0.05711643
33	0xbdf00e3e	-0.117214665
34	0xbddcda8d	-0.10783873
35	0xbe2dd150	-0.16974378
36	0x3e4bf7e9	0.19918789
37	0x3e4e0fe5	0.20123251
38	0xbd7cbc23	-0.06170286
39	0x3e42967d	0.19002719
40	0xbdc00453	-0.09375825
41	0x3d8912c7	0.066930346
42	0xbe299648	-0.16561234
43	0x3e13391d	0.14377256
44	0xbd80419d	-0.06262515
45	0xbe4c24ca	-0.19935909
46	0xbd415037	-0.04719564
47	0x3df25f39	0.118345685
48	0x3d4b2e89	0.049604926
49	0x3e3faa77	0.18717371
50	0xbe2628d5	-0.16226514
51	0xbc48dbb1	-0.01225941
52	0xbe226fab	-0.1586291
53	0x3d59c572	0.053166814
54	0xbe3d414d	-0.18481942
55	0x3e3292aa	0.1743876
56	0x3cb302ca	0.021851916
57	0x3e160466	0.14650115
58	0xbe138372	-0.14405611
59	0x3e4c95d1	0.19979025
60	0xbe29d1bb	-0.16583912
61	0x3d32ed2e	0.043683223
62	0x3d69d4ea	0.057087816
63	0xbc62ce32	-0.013843106
64	0xbd371407	-0.044696834
65	0xbd3ddbf3	-0.046352338
66	0xbe02d518	-0.12776601
67	0xbddbe0f5	-0.107362665
68	0xbc072310	-0.008248106
69	0xbe14ed36	-0.14543614
70	0x3dce9166	0.10086326
71	0xbd37c5ec	-0.044866487
72	0x3b3d012e	0.0028839814
73	0x3e326ba8	0.1742388
74	0x3d47248b	0.048618834
75	0xbcd61487	-0.026132835
76	0xbe2d1a33	-0.16904525
77	0x3dbdb8c7	0.09263759
78	0x3cb0be43	0.021575099
79	0x3c567211	0.013088719
80	0xbe2205e2	-0.15822557
81	0xbd6cdb8a	-0.057826556
82	0xbd9619fd	-0.073291756
83	0xbe1aeb80	-0.15128899
84	0xbc80e140	-0.015732408
85	0x3e2547ad	0.16140623
86	0xbe4850e3	-0.19562106
87	0x3d9b0b68	0.07570535
88	0x3e3d28e5	0.18472631
89	0x3e2ba651	0.16762663
90	0x3de71f77	0.11285298
91	0x3e10fcb0	0.14158893
92	0xbd38bb89	-0.045100722
93	0x3e505f75	0.20348914
94	0xbd94e9a1	-0.07271124
95	0x3e3de7b0	0.18545413
96	0x3d7b5a6a	0.061365522
97	0x3cf467ad	0.029834593
98	0xbe17c897	-0.14822613
99	0x3d3adc78	0.04562041
100	0xbe122f87	-0.14275943
101	0xbd4bcf83	-0.049758445
102	0xbe1c4b15	-0.15263017
103	0x3d3fe1ea	0.046846308
104	0x3defaa12	0.1170236
105	0x3dec085c	0.11525032
106	0xbdbde364	-0.09271887
107	0xbe30155d	-0.1719565
108	0xbc2ee344	-0.010674302
109	0xbce7c26c	-0.02829095
110	0x3d3caecb	0.046065133
111	0xbc358440	-0.011078894
112	0x3e15fa5e	0.14646289
113	0x3b0c8dc8	0.0021446813
114	0xbd8bf47f	-0.06833743
115	0xbd6ee8c7	-0.058327463
116	0xbda5dc08	-0.08098608
117	0x3d703d34	0.058652118
118	0x3e464ca0	0.19365168
119	0x3ca6ffea	0.020385701
120	0xbd13b71f	-0.03606331
121	0xbdc1b76a	-0.094588116
122	0xbe1aa070	-0.15100265
123	0xbe13e562	-0.14442971
124	0x3e388a2b	0.18021457
125	0x3d25e738	0.04050371
126	0x3c632a42	0.0138650555
127	0xbd9fc42a	-0.07801087
128	0xbaf9c991	-0.0019057264
129	0x3c869a67	0.016431047
130	0x3d69ecdf	0.057110664
131	0xbb9422cc	-0.0045207497
132	0xbd74b3c3	-0.059741747
133	0xbe4cc8ac	-0.19998425
134	0xbdce8e08	-0.10085684
135	0x3e092de2	0.13396409
136	0x3d102443	0.035190832
137	0xbe39bb9c	-0.18137974
138	0x3d8a7f07	0.0676251
139	0xbdf1c0dc	-0.11804363
140	0x3e0ccfd1	0.1375115
141	0x3dc0b5cc	0.09409675
142	0x3cea4cb5	0.02860103
143	0xbba1af12	-0.0049342
144	0x3c0f1578	0.008733146
145	0xbe20a13a	-0.15686503
146	0x3dd466a8	0.103711426
147	0xbd4cb898	-0.04998073
148	0x3d100c6e	0.035168104
149	0xbe2a68fe	-0.16641614
150	0xbe13bf89	-0.14428534
151	0xbdbc5204	-0.09195331
152	0x3d830ec4	0.06399301
153	0xbe49ab28	-0.19694197
154	0x3cd676f8	0.026179776
155	0xbe29b841	-0.16574194
156	0x3e420d81	0.18950464
157	0x3da53aac	0.080678314
158	0x3e2d8822	0.16946462
159	0xbe1408a5	-0.14456423
160	0xbe27f008	-0.16400158
161	0x3d3dd1bf	0.046342608
162	0xbc83a500	-0.016069889
163	0xbe35b743	-0.1774569
164	0x3da6bdaa	0.08141644
165	0x3cb59ae9	0.022168593
166	0xbd644a26	-0.055734776
167	0xbd2ea754	-0.042640045
168	0x3d25d633	0.04048748
169	0xbe2d0fb6	-0.16900524
170	0x3e236bb6	0.15959057
171	0xbd966362	-0.073431745
172	0xbdee0096	-0.116212055
173	0x3e0f711d	0.14007993
174	0xbd07119c	-0.032975778
175	0xbdcbe2d7	-0.09955376
176	0xbc35c74e	-0.011094881
177	0xbe064def	-0.13115667
178	0x3e1f9a7c	0.15586275
179	0xbe33eb12	-0.17570141
180	0x3c2d568d	0.010579717
181	0x3d79991c	0.060937032
182	0x3d86a175	0.06573764
183	0x3e01e761	0.1268592
184	0x3df692eb	0.12039741
185	0xbcad84e3	-0.02118153
186	0x3e44c582	0.19215968
187	0x3dbb31bb	0.09140345
188	0x3dfb9b02	0.12285425
189	0x3ddf7c81	0.10912419
190	0xbdd65f78	-0.10467428
191	0x3e137172	0.14398745
192	0x3e13e2d0	0.14441991
193	0xbe2cbb00	-0.1686821
194	0x3d7f0a42	0.062265642
195	0xbd291319	-0.04127798
196	0x3e1b4776	0.15163979
197	0xbe138cac	-0.14409131
198	0xbd816319	-0.063177295
199	0x3d9a98ee	0.075487
200	0x3db5cc72	0.088768855
201	0xbdd90cb6	-0.105981275
202	0xbda41830	-0.08012426
203	0x3e31e987	0.1737424
204	0xbe0eb163	-0.13934855
205	0xbe1f3791	-0.1554854
206	0xbd044607	-0.032293346
207	0x3daf7691	0.085675366
208	0xbd67a279	-0.05655143
209	0xbe3730d3	-0.17889719
210	0x3d127e2d	0.03576486
211	0x3dde2488	0.108468115
212	0xbdca2839	-0.09870953
213	0xbe260ec3	-0.16216569
214	0x3dcf287a	0.10115142
215	0xbe3cec82	-0.18449596
216	0x3d9a11d0	0.07522929
217	0x3e1868a9	0.14883675
218	0xbd9b65df	-0.0758779
219	0x3e14e5cd	0.14540787
220	0x3e3e3da8	0.18578207
221	0x3d1887cd	0.037238885
222	0x3e468257	0.19385658
223	0xbdd4f9d4	-0.103992134
224	0x3de937fe	0.11387633
225	0xbe32cae5	-0.1746021
226	0x3b8c996a	0.0042907493
227	0x3d435a51	0.047693554
228	0xbd88f423	-0.066871904
229	0xbd07d69e	-0.03316366
230	0x3d8622c6	0.06549601
231	0xbe239630	-0.1597526
232	0x3e246e65	0.16057737
233	0xbd18a3b1	-0.037265483
234	0x3ce70842	0.02820218
235	0x3d04f171	0.03245682
236	0xbd5e0110	-0.054200232
237	0x3d6fc62d	0.058538605
238	0xbe0f9785	-0.14022644
239	0xbd3a7274	-0.045519307
240	0xbd9c8a8c	-0.07643613
241	0x3e106656	0.14101538
242	0xbe3eb205	-0.18622597
243	0xbdee6f3c	-0.1164231
244	0xbe45f2f0	-0.19330955
245	0x3e1bb53d	0.15205856
246	0x3e39506e	0.18097088
247	0x3c089558	0.008336388
248	0xbe22cde9	-0.15898861
249	0x3dd6e481	0.104928024
250	0x3d82f88e	0.06395064
251	0x3e4d854e	0.20070383
252	0xbe2b760b	-0.16744249
253	0x3da018da	0.0781724
254	0xbcf8f40d	-0.03038981
255	0x3db5f740	0.0888505

decoder.attn_0.in_proj_bias f4 [108]
0	0x3e3fbbee	0.18724033
1	0xbe56a591	-0.20961596
2	0xbde30448	-0.11084801
3	0xbe29c342	-0.16578391
4	0xbde28097	-0.11059683
5	0x3e3ad443	0.18245034
6	0xbe277112	-0.16351727
7	0xbdb1517c	-0.0865812
8	0x3d762595	0.060094435
9	0xbe01ca84	-0.1267491
10	0xbd6da68e	-0.058020167
11	0xbdc69220	-0.0969584
12	0x3e0a2b7e	0.13493153
13	0xbe1ae8da	-0.15127888
14	0xbd196fe7	-0.037460234
15	0x3d834884	0.06410316
16	0x3e4b3f43	0.19848351
17	0x3d64478f	0.055732306
18	0xbd25e83f	-0.04050469
19	0x3deb3014	0.114837795
20	0xbdd6111a	-0.104524806
21	0xbdaea75c	-0.08528015
22	0x3cdc534f	0.026895193
23	0x3e23e430	0.16005015
24	0x3d5130e1	0.051072005
25	0xbdb2d4b6	-0.08731978
26	0xbe07f65f	-0.13277577
27	0x3e143f1f	0.14477204
28	0xbdef894a	-0.11696108
29	0xbb1120db	-0.0022144828
30	0xbda35047	-0.07974296
31	0xbe2e7dce	-0.17040178
32	0xbdf323e8	-0.11872083
33	0x3e22e42e	0.15907356
34	0x3e145cb3	0.14488487
35	0xbdf7f248	-0.12106758
36	0xb4d15ca3	-3.8996686e-07
37	0xb54a0b9d	-7.5267764e-07
38	0x34bbec79	3.500352e-07
39	0xb37745f5	-5.7572795e-08
40	0x34bb44fd	3.488166e-07
41	0xb523ad9c	-6.0974867e-07
42	0x35226ff3	6.051261e-07
43	0x34d42b5c	3.9519625e-07
44	0x343a4dbc	1.735088e-07
45	0xb4a80f5a	-3.1303608e-07
46	0xb444ca0d	-1.8327428e-07
47	0x336b853f	5.4836388e-08
48	0xb4b84906	-3.4325802e-07
49	0x33d2c845	9.815316e-08
50	0xb4f340e4	-4.530949e-07
51	0xb41f5966	-1.4840552e-07
52	0xb59de847	-1.1765013e-06
53	0xb4c960e2	-3.750966e-07
54	0x335f0916	5.1929497e-08
55	0xb58a5a12	-1.0308015e-06
56	0x347f6e6c	2.3788897e-07
57	0x347f01b0	2.374934e-07
58	0xb4cc3417	-3.803586e-07
59	0xb4c91463	-3.7454e-07
60	0xb4af5113	-3.265528e-07
61	0xb4cdd85f	-3.8341656e-07
62	0x33e0ce12	1.0468297e-07
63	0xb573b3f8	-9.0786443e-07
64	0xb2ee87eb	-2.7768655e-08
65	0xb4011581	-1.2021884e-07
66	0x34d70289	4.0048715e-07
67	0x352206a4	6.0359366e-07
68	0x343b5d65	1.7449709e-07
69	0xb592bad5	-1.0932223e-06
70	0x3541aee0	7.215258e-07
71	0x35559bc8	7.9575375e-07
72	0xbcaa5edd	-0.020797187
73	0x3b04d5fb	0.0020269144
74	0xba45d45c	-0.00075465976
75	0xbaec8dcd	-0.0018047631
76	0x3b1f25ea	0.0024284073
77	0x3cb27f43	0.021789199
78	0x3a1f3424	0.0006073138
79	0x3b01a592	0.0019782525
80	0x3c9f3c84	0.019438036
81	0x3ca9c26a	0.020722587
82	0x3b2898f6	0.0025725937
83	0xbba0849f	-0.004898622
84	0x3a409d38	0.0007347646
85	0xbb768bd5	-0.0037619967
86	0xbac0d93b	-0.0014713177
87	0xbb0300ce	-0.0019989493
88	0x3cb32df0	0.02187249
89	0xbbd4f4ec	-0.0064989235
90	0x3c7d8f95	0.015476127
91	0x3ab2f03d	0.0013651919
92	0x3bb03dfc	0.005378483
93	0x3ae62beb	0.0017560696
94	0x3d502cce	0.05082398
95	0xbb88a42a	-0.0041699605
96	0x3c946f66	0.018119525
97	0x3c9e9acb	0.01936092
98	0xbcb83c9f	-0.022489844
99	0x3c8e5b58	0.01737754
100	0x3d678560	0.05652368
101	0xbbbd265f	-0.0057723965
102	0xbc4cd838	-0.012502722
103	0x3bc1597b	0.0059005595
104	0x3b83f08a	0.004026477
105	0x3c68ad2e	0.0142014455
106	0xbbaa85bf	-0.005203932
107	0xbc80bbfd	-0.01571464
