models/model2.pth (torch, 102026 bytes, 33 tensors)

encoder.attn.in_proj_weight f4 [54, 18]
0	0xbe67fd17	-0.2265514
1	0xbc541be4	-0.012946103
2	0x3d0977b2	0.033561416
3	0xbe511d59	-0.20421351
4	0x3e5ed0ca	0.21759334
5	0xbd804d9e	-0.06264804
6	0xb92a3a4e	-0.00016234184
7	0x3e2655c6	0.16243657
8	0xbe88a77d	-0.26690283
9	0x3e28ad9b	0.16472475
10	0x3e32a379	0.17445172
11	0x3e5272a9	0.20551552
12	0x3e2a81a3	0.16651015
13	0xbde6bc38	-0.11266369
14	0xbbf2fada	-0.0074151577
15	0x3e36a94d	0.1783802
16	0xbe677e7d	-0.22606845
17	0x3e50d41c	0.20393413
18	0xbe7c6aa5	-0.24650057
19	0xbdefb9a2	-0.117053285
20	0xbe00e3d6	-0.12586913
21	0x3e4f6cc1	0.2025633
22	0xbe80cb49	-0.25155094
23	0x3e2ee745	0.1708041
24	0x3e931cc2	0.28732878
25	0x3e887f65	0.26659694
26	0xbdba9f12	-0.091123715
27	0x3d2c69ee	0.04209321
28	0xbdef6b89	-0.116904326
29	0x3e443b6e	0.19163296
30	0x3d9622a4	0.07330826
31	0x3e07d0f6	0.13263306
32	0xbd84a156	-0.06476085
33	0x3d88af2e	0.06674038
34	0xbe2879d3	-0.16452722
35	0xbe2aa1ce	-0.16663286
36	0x3e357ce2	0.1772342
37	0xbcc3415f	-0.023834882
38	0xbe311b4f	-0.17295574
39	0x3dc50b25	0.09621266
40	0xbdc9e3c7	-0.09857898
41	0xbe801086	-0.25012606
42	0xbe19f96b	-0.15036552
43	0xbcae19b6	-0.021252494
44	0x3cd3da1a	0.025860835
45	0x3e296886	0.16543779
46	0x3d98ee0b	0.07467278
47	0x3dac0881	0.084000595
48	0x3c8bd156	0.017067593
49	0xbe801a9a	-0.25020295
50	0x3e5b1966	0.21396407
51	0xbd7afa76	-0.061274014
52	0xbdfa6a60	-0.12227321
53	0xbe10165e	-0.14071032
54	0xbe1dda44	-0.15415293
55	0x3ea7f275	0.32802168
56	0xbd9d22f3	-0.07672682
57	0x3e917263	0.28407583
58	0xbe551596	-0.20809016
59	0xbe845d30	-0.25852346
60	0x3def3952	0.11680855
61	0xbd84f105	-0.06491283
62	0xbdec232a	-0.115301445
63	0x3e3fc550	0.18727612
64	0xbc73c9bb	-0.014879639
65	0xbd7c968f	-0.06166702
66	0x3e22cf9e	0.15899512
67	0x3e820001	0.25390628
68	0xbbe4ab46	-0.006978425
69	0x3e2cbbf1	0.16868569
70	0xbdf06703	-0.11738398
71	0x3e75754e	0.2397053
72	0x3cb31e0c	0.021864913
73	0xbe35fd6c	-0.17772454
74	0xbe4049ed	-0.187782
75	0xb9a6d440	-0.00031820126
76	0xbe51db60	-0.20493841
77	0xbe81f9bb	-0.25385842
78	0xbe8ad8de	-0.27118582
79	0xbe1e42fc	-0.1545524
80	0xbce35dd4	-0.027754702
81	0xbe31c7d6	-0.17361388
82	0xbd4f17a7	-0.050559666
83	0x3c15ce21	0.009143383
84	0x3d272a11	0.040811602
85	0x3df9aab6	0.12190764
86	0x3cdfcfcf	0.02732077
87	0x3d1acbc5	0.037791986
88	0x3e6d9a69	0.23203434
89	0xbe22ea75	-0.15909751
90	0xbdf8f915	-0.121568836
91	0xbd69debe	-0.05709719
92	0x3e38149d	0.17976613
93	0x3e617ee2	0.22021058
94	0x3ddade7e	0.10686968
95	0xbe68ebb2	-0.2274616
96	0x3e30fd6e	0.17284176
97	0xbe06512d	-0.13116904
98	0xbda776cc	-0.081769556
99	0x3d79cc10	0.060985625
100	0x3e40935b	0.18806212
101	0x3e6b1408	0.2295686
102	0x3c6e85dd	0.014558283
103	0xbe81808a	-0.2529338
104	0x3dab848d	0.083748914
105	0xbe7fae2e	-0.24968788
106	0x3e516863	0.20449977
107	0xbe1acc60	-0.15117025
108	0xbe31f236	-0.17377552
109	0x3e8b4d2e	0.2720732
110	0x3d2bc45c	0.04193531
111	0x3d29069a	0.04126606
112	0xbd841894	-0.064500004
113	0x3d39e027	0.045379784
114	0xbe0730e7	-0.13202249
115	0xb9f8c0ce	-0.00047445897
116	0x3a874417	0.0010319975
117	0x3e17135d	0.1475348
118	0xbe913a9d	-0.2836503
119	0xbe96ca43	-0.29451188
120	0x3e3c129e	0.18366477
121	0x3d44770a	0.047965087
122	0xbe6690df	-0.22516201
123	0x3e77bec4	0.24193865
124	0xbe480ba7	-0.19535695
125	0xbe8c7d92	-0.27439553
126	0xbe85c8f2	-0.26129872
127	0xbd5ed7c4	-0.05440499
128	0x3c964366	0.018342685
129	0xbe86208b	-0.26196703
130	0xbe9687ff	-0.29400632
131	0x3c1dd1f6	0.009632578
132	0x3d8b2714	0.06794563
133	0x3e8db875	0.27679792
134	0xbd13f115	-0.036118586
135	0xbbe2ba1b	-0.006919158
136	0xbe9d94ee	-0.30777687
137	0x3dde6981	0.10859967
138	0x3e8fbde9	0.28074577
139	0xbdd382fe	-0.10327719
140	0x3e913609	0.28361538
141	0xbe2a9bb3	-0.16660957
142	0xbe12fb5c	-0.14353698
143	0x3d943f5d	0.07238648
144	0xbe830427	-0.25589105
145	0xbdbc97a2	-0.09208609
146	0xbd8793fd	-0.066200234
147	0x3e2766b0	0.16347766
148	0xbe3fdb4f	-0.18736003
149	0x3e28fa68	0.16501772
150	0xbe790d4b	-0.24321477
151	0x3e0f70bb	0.14007847
152	0xbe8207a2	-0.25396448
153	0xbe9fe986	-0.31232852
154	0xbd615118	-0.055008978
155	0xbe063995	-0.13107903
156	0x3e2b20d3	0.1671174
157	0xbd54ee33	-0.051984977
158	0xbda4447f	-0.08020877
159	0x3e4e07fa	0.2012023
160	0x3e46f615	0.1942981
161	0x3e359aa4	0.17734772
162	0xbe56f4d6	-0.20991835
163	0x3e1026c2	0.14077285
164	0x3e7045d9	0.23464145
165	0x3dbfbe57	0.09362476
166	0x3cc25718	0.02372317
167	0xbe55757e	-0.20845601
168	0xbe519321	-0.20466281
169	0xba555bfc	-0.0008139012
170	0x3e5d80be	0.21631142
171	0xbc0ed988	-0.008718856
172	0x3e1a1d9f	0.15050362
173	0x3c102492	0.008797782
174	0xbd91bf22	-0.07116534
175	0xbe4c43de	-0.19947764
176	0xbdc4bf96	-0.096068546
177	0xbe679426	-0.22615108
178	0xbe89596d	-0.2682604
179	0x3e0a398e	0.13498518
180	0x3d2464f9	0.040135358
181	0x3dcb3419	0.09922046
182	0x3e635a6a	0.22202459
183	0xbe01a68e	-0.12661192
184	0x3e0fe12d	0.14050741
185	0xbe39e3c3	-0.1815329
186	0x3e4c8dd4	0.19975978
187	0x3e8df483	0.2772561
188	0x3d001a95	0.03127535
189	0x3e7f2749	0.2491733
190	0xbe1e4a33	-0.15457992
191	0x3d805a4c	0.06267223
192	0x3d4077d4	0.046989277
193	0x3c315d47	0.010825462
194	0x3d22b3ed	0.03972237
195	0x3db0921b	0.086216174
196	0xbcc3b1e9	-0.023888545
197	0x3e4e0169	0.20117725
198	0x3e8c4cab	0.27402243
199	0x3ba148a9	0.004921992
200	0xbe80ed44	-0.2518102
201	0xbe313f51	-0.1730931
202	0x3df481d0	0.11938822
203	0x3d85169e	0.064984545
204	0x3defbbd6	0.11705749
205	0x3e4d19a2	0.2002931
206	0x3e29e614	0.16591674
207	0x3e8dabf9	0.27670267
208	0xbd10c360	-0.035342574
209	0x3988eb21	0.00026115126
210	0x3d90b777	0.07066243
211	0xbe28ff38	-0.16503608
212	0x3e3c8560	0.18410254
213	0x3e0d0d3c	0.1377458
214	0xbe6fbe8d	-0.23412533
215	0x3e0ff83c	0.14059538
216	0x3e825d4e	0.2546181
217	0xbd9418ff	-0.0723133
218	0xbc92aaab	-0.017903646
219	0xbc1dfbf5	-0.009642591
220	0x3d95ccbe	0.07314442
221	0x3e908a78	0.28230643
222	0xbda3cf8f	-0.07998573
223	0xbe7514d8	-0.23933733
224	0x3e3dc2be	0.1853132
225	0x3d3fbbc0	0.04680991
226	0xbe611378	-0.21980083
227	0x3e90e05b	0.2829617
228	0xbe64dd58	-0.22350061
229	0x3dd81ae5	0.10552005
230	0x3e922ffe	0.2855224
231	0xbd497b48	-0.049189836
232	0xbe704be0	-0.23466444
233	0x3e04917d	0.12946124
234	0x3e714748	0.23562348
235	0x3dc62b4a	0.096762255
236	0x3d3b1529	0.045674477
237	0xbda2a441	-0.07941485
238	0x3d9b5f58	0.07586545
239	0x3da96e1f	0.08272957
240	0xbdc06d35	-0.093958296
241	0x3cf67c3a	0.030088533
242	0xbe8d331a	-0.2757805
243	0x3ac7dafa	0.0015247755
244	0xbcb21de2	-0.021742765
245	0xbe0c5d5b	-0.13707487
246	0xbe78203d	-0.24231048
247	0x3d1cafa9	0.03825346
248	0xbe42b7c8	-0.1901542
249	0xbd8ba26d	-0.0681809
250	0xbe00d5f9	-0.12581624
251	0xbe427fc7	-0.18994056
252	0x3cac2b12	0.021016631
253	0xbe9208c9	-0.28522328
254	0x3c90dffb	0.017684927
255	0x3e6a8db8	0.22905624

encoder.attn.in_proj_bias f4 [54]
0	0xbba0d9d2	-0.0049087787
1	0x3c7d626e	0.015465362
2	0x3c82eb33	0.015981292
3	0x3d1a5baf	0.037685093
4	0xbc23391b	-0.0099623455
5	0x3c982f9d	0.018577391
6	0xbc38e05c	-0.01128396
7	0xbce284c9	-0.027651208
8	0xbd053f9f	-0.032531377
9	0x3b4e9c94	0.0031526433
10	0xbc6b252d	-0.014352125
11	0xbbcc9b36	-0.0062440885
12	0x3d0b2aff	0.03397655
13	0x3c28d7c7	0.010305352
14	0xbca27167	-0.019829465
15	0x3ca2d724	0.019877978
16	0x3b80179d	0.003909065
17	0xbb9203e1	-0.004456029
18	0x359ab23c	1.1525767e-06
19	0xb48c3964	-2.611879e-07
20	0xb30c44f9	-3.265902e-08
21	0x35eb44c5	1.7528879e-06
22	0x34d66e99	3.9941077e-07
23	0xb50ff5bb	-5.3629236e-07
24	0xb5167a69	-5.6057485e-07
25	0x3630f432	2.6368184e-06
26	0xb632a795	-2.6621613e-06
27	0x32a6dc66	1.9425169e-08
28	0xb62f07d7	-2.6081595e-06
29	0xb65ed600	-3.3205142e-06
30	0xb688c6bf	-4.076253e-06
31	0x3662f1dd	3.3817407e-06
32	0x36638705	3.3904228e-06
33	0x355bd405	8.1892387e-07
34	0xb5b3cb0c	-1.3395634e-06
35	0x34f02ff7	4.4738383e-07
36	0xbaf2e584	-0.0018531536
37	0x3b0d9815	0.002160554
38	0xbbd9ef57	-0.006650846
39	0x3c354f70	0.011066303
40	0x3b62b7ae	0.0034594345
41	0x3bf0b362	0.007345603
42	0x3adf36bb	0.0017029861
43	0xba818171	-0.0009880495
44	0x3b1daab7	0.0024058053
45	0xbba59078	-0.0050526224
46	0xbc62db06	-0.013846165
47	0xbc1d5980	-0.009603858
48	0x3bd38f78	0.006456312
49	0x3b8f289f	0.004368856
50	0xbc788400	-0.01516819
51	0xbb9a7921	-0.0047141467
52	0x3a6b7328	0.0008981698
53	0xba8533bf	-0.0010162516

encoder.attn.out_proj.weight f4 [18, 18]
0	0xbe457c05	-0.19285591
1	0xbe0c9c1b	-0.13731425
2	0xbe4f597a	-0.20248976
3	0x3d01cda6	0.031690262
4	0x3c988c97	0.018621726
5	0xbce43b24	-0.027860232
6	0x3e540c05	0.2070771
7	0x3e57db52	0.21079758
8	0x3c64520b	0.013935576
9	0xbe1f7639	-0.15572442
10	0x3e22e7ff	0.15908812
11	0xbdadcbd6	-0.08486144
12	0x3dbc04a1	0.091805704
13	0xbddd684e	-0.1081091
14	0x3e4f2459	0.2022871
15	0x3d205555	0.03914388
16	0xbe4f96d3	-0.20272379
17	0xbe326703	-0.17422108
18	0x3da08636	0.07838099
19	0x3e19a1f8	0.15003192
20	0x3d3344b5	0.043766696
21	0x3e707fc7	0.23486243
22	0x3e1bd068	0.1521622
23	0x3e660f78	0.22466838
24	0xbd539737	-0.05165788
25	0xbde5a1d3	-0.11212506
26	0x3dfe6977	0.124224596
27	0xbe5b3cce	-0.21409914
28	0xbda476af	-0.080304496
29	0xbdd3ac02	-0.10335542
30	0x3e39730d	0.18110295
31	0x3e5dc6e4	0.21657902
32	0xbde5fed4	-0.11230245
33	0xbbbb5e96	-0.0057180626
34	0xbdb6333a	-0.088964894
35	0x3c978478	0.018495783
36	0x3e58c0ba	0.2116727
37	0xbe0f8d47	-0.14018737
38	0xbe0e04a8	-0.13868964
39	0x3da66336	0.08124392
40	0xbe4e21a4	-0.2013002
41	0x3e4968d3	0.19668894
42	0xbe134f30	-0.14385676
43	0xbcd5c0e7	-0.02609296
44	0xbd173021	-0.036911134
45	0x3e2b7780	0.16744804
46	0x3df2ff1a	0.11865063
47	0xbdb5ee10	-0.088832974
48	0xbe5b3e89	-0.21410574
49	0xbe4b54c1	-0.1985655
50	0xbd828088	-0.06372172
51	0xbe0d5ff3	-0.13806133
52	0xbd17a95a	-0.03702674
53	0x3e6714a4	0.22566468
54	0x3e07ddfd	0.13268276
55	0xbd301321	-0.042986993
56	0x3c61bbab	0.013777654
57	0xbd8b2098	-0.06793326
58	0xbdf64540	-0.12024927
59	0x3e35985d	0.17733903
60	0xbe3e0f60	-0.18560553
61	0x3e037761	0.12838508
62	0x3e5cbf49	0.21557344
63	0x3c96b57f	0.018397091
64	0x3d94e0f8	0.07269472
65	0xbdffcd82	-0.124903694
66	0x3e52b852	0.20578125
67	0xbcb66144	-0.022263177
68	0x3e5c64f8	0.21522892
69	0x3e67fb57	0.22654472
70	0x3c46a2ed	0.0121238055
71	0x3e5695a3	0.2095552
72	0x3cf55ec5	0.029952416
73	0x3d4258d6	0.047448
74	0xbd97b003	-0.074066184
75	0x3e2283fc	0.1587066
76	0xbd84e28e	-0.064885244
77	0xbe0a0cca	-0.13481441
78	0xbe314b34	-0.17313844
79	0x3e01c73c	0.12673658
80	0xbd8718c4	-0.065965205
81	0x3e235245	0.15949352
82	0xbe1c7ca6	-0.15281925
83	0x3e532aa5	0.20621736
84	0xbd921ba4	-0.07134178
85	0xbc93465b	-0.017977884
86	0x3e379600	0.17928314
87	0xbe29168b	-0.16512506
88	0x3de9708d	0.113984205
89	0xbdfb21f8	-0.122623384
90	0x3abd1906	0.0014427013
91	0xbde079a0	-0.10960698
92	0xbd2a8573	-0.041631173
93	0x3e72da23	0.23716025
94	0xbd9370b9	-0.071992345
95	0xbdc631f0	-0.096774936
96	0x3e4d6dd0	0.20061421
97	0xbe606492	-0.21913365
98	0xbd3d71b7	-0.046251025
99	0x3e5d01a4	0.21582657
100	0xbe4e39a9	-0.20139183
101	0xbe14e3dd	-0.14540048
102	0x3e35fb6d	0.17771693
103	0x3d20b976	0.03923937
104	0xbd7b28c6	-0.06131818
105	0x3d92de30	0.07171285
106	0x3dd5ca82	0.10439016
107	0x3e0f6bec	0.14006013
108	0xbe077afa	-0.13230506
109	0xbe2c9886	-0.16855058
110	0xbd4290ca	-0.047501363
111	0xbd99e59a	-0.07514496
112	0x3d00eb50	0.03147441
113	0xbd95dcdb	-0.073175155
114	0x3e2d36e7	0.16915475
115	0xbd6d3f15	-0.057921488
116	0xbdfd9cf3	-0.12383451
117	0xbde78222	-0.11304118
118	0x3d6b05f4	0.057378724
119	0xbe039e64	-0.1285339
120	0x3dc8a65f	0.09797358
121	0x3e7533e8	0.23945582
122	0xbcfd2296	-0.03090028
123	0xbe245e34	-0.1605156
124	0x3de99599	0.114054866
125	0xbe4957f7	-0.19662462
126	0xbc61f7d9	-0.013792002
127	0xbe51837e	-0.20460317
128	0xbde25653	-0.11051621
129	0xbc9037c4	-0.017604716
130	0xbe06798f	-0.13132308
131	0xbdcde3bf	-0.10053205
132	0xbda8c663	-0.08240964
133	0x3d489147	0.048966672
134	0xbd54c4ca	-0.051945485
135	0x3d481573	0.04884858
136	0xbd2224b9	-0.039585803
137	0x3ded64b0	0.1159147
138	0xbe55b976	-0.20871529
139	0x3d61db1a	0.055140592
140	0x3d074fa7	0.033034947
141	0x3e61d333	0.22053222
142	0x3e0d23d4	0.13783199
143	0xbe343e44	-0.17601877
144	0xbd87cf98	-0.06631392
145	0xbb95a4a1	-0.0045667444
146	0xbe3a1239	-0.18171014
147	0xbe451944	-0.1924792
148	0x364ec31b	3.0809958e-06
149	0xbe113352	-0.14179733
150	0x3e1776ac	0.14791363
151	0xbcade5d5	-0.021227757
152	0xbe6aa0f3	-0.2291296
153	0x3e747076	0.23871025
154	0x3d1117a5	0.03542294
155	0xbd20c6df	-0.03925216
156	0xbe014212	-0.1262286
157	0xbe4f5bb9	-0.20249833
158	0xbe3e9b39	-0.186139
159	0xbe43bbe3	-0.19114642
160	0xbdffbb78	-0.12486929
161	0x3da3a44a	0.0799032
162	0x3e005ee6	0.12536201
163	0xbdf04f8e	-0.11733924
164	0xbe225e6d	-0.15856333
165	0xbbf1df7a	-0.007381377
166	0x3e11c5cc	0.1423561
167	0x3e6f9b51	0.23399092
168	0x3e3ed913	0.18637495
169	0x3e55e965	0.20889814
170	0x3de95c8c	0.11394605
171	0xbe201d9c	-0.15636295
172	0x3cba5a5b	0.022748163
173	0x3db52248	0.08844429
174	0x3c864263	0.016389078
175	0x3ddac88a	0.10682781
176	0x3deb86c4	0.11500314
177	0xbcb29271	-0.021798344
178	0x3dd4da5a	0.1039321
179	0x3dde2c3a	0.10848279
180	0x3e450a3a	0.19242182
181	0xbe3f55b1	-0.18685032
182	0xbcbec00e	-0.023284938
183	0x3dca6daf	0.09884202
184	0xbe757353	-0.23969774
185	0xbe0ff1ce	-0.14057085
186	0xbe41d95f	-0.18930577
187	0x3e40c616	0.18825564
188	0xbe3fdefe	-0.18737409
189	0x39dd8291	0.00042249684
190	0xbd969a34	-0.07353631
191	0x3e1a8bca	0.15092388
192	0x3e1d969c	0.15389484
193	0xbcefe7ff	-0.029285429
194	0x3e4a5689	0.19759573
195	0xbc3cb514	-0.011517782
196	0xbdf1fd91	-0.11815942
197	0xbd3b1488	-0.045673877
198	0xbe32eae7	-0.1747242
199	0x3dbb2c06	0.09139256
200	0xbe4d4930	-0.2004745
201	0x3e58d4fd	0.21174999
202	0x3b2ca5de	0.0026343982
203	0xbdbc3435	-0.09189645
204	0xbe496156	-0.19666037
205	0x3e4bf387	0.19917117
206	0x3e57e7fd	0.2108459
207	0xbe6fd008	-0.23419201
208	0xbe53718e	-0.20648786
209	0xbda74283	-0.08166983
210	0x3e4538e9	0.19259991
211	0x3c96a2cc	0.018388174
212	0xbe2990fe	-0.16559216
213	0xbe13777f	-0.14401053
214	0x3dad28c9	0.08455045
215	0xbd92d1dc	-0.07168934
216	0xbc9fadb4	-0.019492008
217	0x3c018a26	0.007906472
218	0xbe218c7e	-0.1577625
219	0x3e145081	0.14483835
220	0x3d99df22	0.07513262
221	0xbc952264	-0.018204875
222	0x3e0860d6	0.1331819
223	0xbdf8f482	-0.12156011
224	0x3c159860	0.009130567
225	0x3e43089d	0.19046254
226	0xbe258c5d	-0.16166826
227	0x3c945716	0.018107932
228	0xbe555912	-0.20834759
229	0xbe5aa15e	-0.21350619
230	0xbe38a79a	-0.18032685
231	0xbc5d3798	-0.013502024
232	0xbb7dc5d8	-0.003872266
233	0x3e37c393	0.179457
234	0xbdff0b03	-0.12453272
235	0x3bf197ea	0.007372846
236	0x3e3ae661	0.18251945
237	0xbc41d3ba	-0.011830265
238	0x3e4272f8	0.1898917
239	0x3e02f14f	0.12787364
240	0x3e3d7005	0.18499763
241	0x3d46d2a1	0.048540715
242	0x3dacd834	0.08439675
243	0xbc43ea49	-0.011957713
244	0xbe28cdd8	-0.16484773
245	0x3e0b19f3	0.13584118
246	0xbe2859ab	-0.16440456
247	0x3e0d02f9	0.13770665
248	0x3c99e2aa	0.01878484
249	0x3e63f993	0.22263174
250	0x3dd0f35f	0.10202669
251	0xbe0d19b1	-0.13779332
252	0xbe61fd22	-0.22069219
253	0xbd6f9380	-0.058490276
254	0x3a02fcd9	0.00049967837
255	0x3b5769f1	0.0032869542

encoder.attn.out_proj.bias f4 [18]
0	0xbc25b84c	-0.010114741
1	0x3c28714a	0.0102809165
2	0xbae9bfd5	-0.001783366
3	0x39f5a3cd	0.00046852083
4	0xbbed2d2e	-0.007238052
5	0x3bee02ab	0.0072635016
6	0xbad46742	-0.001620509
7	0xbbe84fbd	-0.0070895837
8	0xbb9100d5	-0.004425148
9	0x3b537aef	0.003226932
10	0xb9f3b455	-0.0004648293
11	0x3c26919d	0.010166553
12	0xbab064c8	-0.001345777
13	0x3b519d62	0.0031984677
14	0x3c20c8ee	0.00981353
15	0xbc555575	-0.013020863
16	0x3a419362	0.00073843275
17	0xbb8b70b1	-0.004255377

encoder.feed_forward.0.weight f4 [72, 18]
0	0xbe4f6b73	-0.20255832
1	0x3e125118	0.14288747
2	0xbe04161e	-0.12899062
3	0x3bec2eda	0.0072077336
4	0x3daad04a	0.08340509
5	0x3e4f30a1	0.20233394
6	0xbd6eeca4	-0.058331147
7	0xbdaacf06	-0.08340268
8	0x3b478fed	0.0030450777
9	0x3d9eb85c	0.077500075
10	0x3d7a0f7a	0.061049916
11	0xbda90f23	-0.0825484
12	0xbd0b7070	-0.034042776
13	0x38bbe539	8.959551e-05
14	0x3e2bd0ff	0.16778944
15	0xbe0c3efd	-0.13695903
16	0x3d945a0d	0.07243738
17	0xbca1f24c	-0.019768856
18	0x3e30415a	0.1721243
19	0x3e4b728f	0.1986792
20	0xbd72c0ea	-0.05926601
21	0xbd8607e2	-0.06544472
22	0xbe1492b2	-0.14509085
23	0x3c1eeb7e	0.0096997
24	0x3bf7746b	0.00755172
25	0x3dc62d0f	0.09676563
26	0xbcf7c514	-0.030245341
27	0x3e599b98	0.2125076
28	0xbe467cfa	-0.19383612
29	0xbe5ceebf	-0.2157545
30	0xbdb521ca	-0.088443354
31	0x3e27455c	0.16335052
32	0xbd381491	-0.04494149
33	0x3d4b36a4	0.049612656
34	0x3cef7118	0.029228732
35	0xbe3d9135	-0.18512423
36	0xbd51a6b2	-0.051184364
37	0x3beed5b3	0.0072886585
38	0x3e0b6fb1	0.13616826
39	0x3e5aa604	0.21352392
40	0x3c1d35c4	0.009595338
41	0x3b7b4129	0.00383384
42	0xbe4848d1	-0.19559027
43	0xbda5d287	-0.080967955
44	0xbe24466e	-0.16042492
45	0x3d367670	0.044546545
46	0xbe328377	-0.17432962
47	0x3e59f555	0.21284993
48	0x3e3821e8	0.17981684
49	0x3e61dfd4	0.2205804
50	0xbdf83cf2	-0.121209994
51	0x3e0c6541	0.137105
52	0xbe30168a	-0.17196098
53	0x3e5dc229	0.21656097
54	0x3e425fad	0.1898181
55	0xbcf9f21b	-0.030510953
56	0xbe60fd3b	-0.219716
57	0x3de4bcf6	0.11168854
58	0x3e29c8eb	0.1658055
59	0xbdbf7ee5	-0.09350375
60	0x3d960595	0.073252834
61	0x3d060d54	0.032727554
62	0xbcbf89d2	-0.023381148
63	0xbe50dbed	-0.20396395
64	0xbe322fdc	-0.1740107
65	0x3e0a2037	0.13488851
66	0xbd4bb2b6	-0.04973098
67	0x3d34f355	0.044177372
68	0x3dc6cb03	0.0970669
69	0x3c8a0433	0.016847705
70	0x3d9f2356	0.07770412
71	0xbe42c9ed	-0.19022341
72	0x3de646dc	0.11243984
73	0xbce969bd	-0.028492803
74	0x3e1f2e73	0.15545063
75	0xbda986bc	-0.08277652
76	0xbdc55819	-0.09635944
77	0x3dbf7c26	0.09349851
78	0xbb93d7d4	-0.0045118127
79	0xbe1a5cc2	-0.15074447
80	0x3e1b23c5	0.15150364
81	0x3d54b166	0.051926993
82	0xbdca9244	-0.09891179
83	0x3caf5719	0.021403836
84	0xbca168a6	-0.01970322
85	0x3e04a8fe	0.1295509
86	0x3e25effb	0.16204827
87	0xbe0857fd	-0.13314815
88	0x3e35f358	0.1776861
89	0x3e6f5f3b	0.23376171
90	0x3d83e3fc	0.06439969
91	0xbe2212b6	-0.1582745
92	0xbe2c1252	-0.16803864
93	0x3de6c72e	0.11268459
94	0xbe0e5ea7	-0.13903295
95	0xbc027d33	-0.00796442
96	0xbcf47b52	-0.02984396
97	0x3d0227b4	0.031776145
98	0xbcc001d2	-0.023438368
99	0x3c0d483a	0.008623177
100	0x3dc25b63	0.09490087
101	0xbe080ab1	-0.13285328
102	0xbe58d6d3	-0.21175699
103	0x3db924d0	0.090402246
104	0x3e393a43	0.18088631
105	0x3e483c28	0.19554198
106	0xbd2a04e8	-0.041508585
107	0xbd61c0cf	-0.055115517
108	0x3e1b5bc5	0.15171726
109	0x3dd791bc	0.105258435
110	0xbdb5d400	-0.088783264
111	0xbda17e98	-0.07885474
112	0x3d9d1e79	0.07671828
113	0x3c204976	0.009783139
114	0x3e4a8ce4	0.19780308
115	0xbcde7050	-0.027153164
116	0xbe5d68e3	-0.21622042
117	0x3e5bfa40	0.21482182
118	0x3d99c1f2	0.07507695
119	0xbc5f5c25	-0.013632809
120	0xbe593a6e	-0.21213695
121	0xbe568e5a	-0.2095274
122	0x3c939d92	0.018019471
123	0xbe5f6305	-0.21815117
124	0xbcb4b258	-0.022057697
125	0xbd36f0b2	-0.04466314
126	0xbe3462a8	-0.1761576
127	0xbb920450	-0.0044560805
128	0xbdb6c37a	-0.08924003
129	0xbe662cc9	-0.22478022
130	0x3e193dca	0.14964977
131	0xbe31c953	-0.17361955
132	0x3bb0a3c7	0.0053906175
133	0x3da5adb4	0.08089772
134	0x3da5f346	0.08103041
135	0xbdd63ae6	-0.10460453
136	0x3d44dbf4	0.048061326
137	0xbe397455	-0.18110783
138	0xbd2c291b	-0.04203139
139	0xbe4f4769	-0.20242085
140	0xbd8653f7	-0.06558984
141	0xbe34c00a	-0.17651382
142	0xbe4d5710	-0.20052743
143	0x3e0b85f0	0.13625312
144	0xbe3f346d	-0.18672343
145	0xbb6629f8	-0.003512023
146	0x3d30d24d	0.04316931
147	0x3d6b2bed	0.057414938
148	0x3d669339	0.056292746
149	0x3d8ef3e6	0.06980114
150	0x3e30e32d	0.1727416
151	0xbdaab488	-0.08335215
152	0xbe35b064	-0.17743069
153	0xbdf57259	-0.11984701
154	0xbddfa862	-0.10920788
155	0x3e32bf7f	0.17455862
156	0x3bbae4df	0.005703553
157	0x3dca1796	0.0986778
158	0xbd9ec439	-0.0775227
159	0x3e6a448c	0.22877711
160	0x3e05011b	0.12988703
161	0xbbec6db2	-0.007215225
162	0xbe3e26b3	-0.1856945
163	0xbccc78de	-0.024959978
164	0xbe52b5f0	-0.20577216
165	0x3d2fe859	0.042946193
166	0xbdde1b82	-0.108450904
167	0xbd1324fd	-0.035923947
168	0xbe0fcfa4	-0.14044052
169	0x3def5386	0.11685853
170	0x3e2b4514	0.1672557
171	0x3df9f600	0.12205124
172	0xbe3a66bd	-0.18203254
173	0xbe3582aa	-0.17725626
174	0x3e4259cb	0.18979566
175	0xbb6a6483	-0.0035765476
176	0x3d5a6748	0.053321153
177	0xbe4b6d92	-0.19866017
178	0x3da68b34	0.0813202
179	0x3e5fd193	0.2185729
180	0x3e29c7ac	0.16580075
181	0xbe593725	-0.21212442
182	0x3e09c5d7	0.13454376
183	0x3e59b609	0.21260847
184	0x3e2691e2	0.16266587
185	0x3e70ddec	0.23522156
186	0x3e24e90a	0.16104522
187	0x3e442d54	0.19157916
188	0xbdd3aa1a	-0.10335179
189	0x3e5dc94b	0.21658818
190	0xbdd14095	-0.10217396
191	0xbe0339f4	-0.12815076
192	0x3df69c59	0.1204154
193	0x3e0c25fd	0.13686366
194	0x3de068f2	0.10957517
195	0xbe2ba325	-0.16761453
196	0x3dbf5c85	0.093438186
197	0xbe1b2ec9	-0.15154566
198	0xbe019b2f	-0.12656854
199	0xbde9790b	-0.1140004
200	0x3d44ec6a	0.048077025
201	0xbd982b3e	-0.07430123
202	0xbe65905f	-0.22418354
203	0x3dd61287	0.104527526
204	0xbe58535b	-0.21125548
205	0x3deb7770	0.1149739
206	0x3d0acf0c	0.03388886
207	0xbd622eb2	-0.055220313
208	0x3e2106aa	0.15725198
209	0x3e5f33dd	0.21797128
210	0x3da3fa80	0.080067635
211	0x3e2fd63d	0.17171569
212	0xbce68cf8	-0.028143391
213	0x3e4cff19	0.20019187
214	0x3cc61354	0.024179138
215	0x3e3f8e45	0.18706615
216	0x3e4309b7	0.19046675
217	0x3dfc8670	0.123303294
218	0xbd30495e	-0.04303872
219	0x3dc934d3	0.098245285
220	0xbd894440	-0.06702471
221	0x3cdc363b	0.026881328
222	0xbd4af3c6	-0.049548887
223	0x3e0a59e9	0.1351086
224	0xbc573c30	-0.013136908
225	0xbe346e27	-0.17620145
226	0xbe068d90	-0.1313994
227	0xbe023d8b	-0.1271879
228	0x3e1b2fe3	0.15154986
229	0x3d13a80a	0.036048926
230	0xbd57012c	-0.052491352
231	0x3e1230f1	0.14276482
232	0xbe3a87a0	-0.182158
233	0x3e07134e	0.13190958
234	0xbe2daddc	-0.16960853
235	0x3d41bf00	0.047301292
236	0xbdee0b30	-0.116232276
237	0x3ca78714	0.020450152
238	0xbe0a8157	-0.13525902
239	0xbcfb9081	-0.030708553
240	0xbd9b3098	-0.07577628
241	0xbd90c680	-0.07069111
242	0x3cf91b07	0.030408395
243	0x3e5f62fb	0.21815102
244	0xbe2ad08b	-0.16681115
245	0x3c94d7b7	0.018169267
246	0xbce79f14	-0.028274097
247	0xbdf0f80f	-0.117660634
248	0xbdde179b	-0.10844346
249	0x3e15f93c	0.14645857
250	0xbd2c2581	-0.042027954
251	0xbe5573a6	-0.20844898
252	0xbdd27fa7	-0.10278254
253	0xbdfbd126	-0.12295751
254	0xbdee4646	-0.11634497
255	0x3e3ec576	0.18630013

encoder.feed_forward.0.bias f4 [72]
0	0x3ddde908	0.10835463
1	0xbdfdfba4	-0.12401512
2	0xbdb13133	-0.08651962
3	0xbe1c4918	-0.15262258
4	0x3e06f729	0.13180222
5	0x3bf7ca56	0.007561962
6	0xbd0763fc	-0.033054337
7	0xbe1d0876	-0.15335259
8	0xbd554563	-0.052068125
9	0xbdebb5f6	-0.11509316
10	0xbe710ff8	-0.23541248
11	0xbd85d5c2	-0.06534912
12	0x3db5a09a	0.08868523
13	0xbe4cbd5a	-0.19994107
14	0x3d51c935	0.051217277
15	0x3d85918a	0.065219
16	0xbe56084f	-0.20901607
17	0x3cead6b7	0.028666837
18	0x3d9a063e	0.07520722
19	0xbe121199	-0.14264525
20	0xbdc01b16	-0.09380166
21	0xbe3ae531	-0.18251492
22	0x3d8610f6	0.06546204
23	0xbd4e23d2	-0.05032713
24	0xbc507fd4	-0.012725789
25	0x3e312cff	0.17302321
26	0x3ddb1bc4	0.10698655
27	0x3d94522c	0.072422355
28	0xbe3e130b	-0.18561952
29	0xbe39bffd	-0.18139644
30	0x3e1fd02d	0.15606757
31	0x3e5283c8	0.20558083
32	0xbe446892	-0.19180515
33	0xbe16431c	-0.14674038
34	0x3e49bedd	0.19701715
35	0xbe53fb34	-0.20701295
36	0xbe4f9497	-0.20271526
37	0x3e4d7326	0.20063457
38	0xbd923c46	-0.071404025
39	0x3de8289a	0.11335869
40	0x3da94d2d	0.08266673
41	0xbe43a85c	-0.19107193
42	0x3e518921	0.20462467
43	0xbe3c356d	-0.18379755
44	0x3dbd20b7	0.092347555
45	0x3d6d6628	0.057958752
46	0xbe21cc16	-0.15800509
47	0x3d8a286f	0.06745993
48	0xbe4acab6	-0.1980389
49	0xbe265f30	-0.16247249
50	0xbda3c925	-0.0799735
51	0xbb661c47	-0.003511207
52	0xbca6a95c	-0.020344429
53	0xbe64c74d	-0.22341652
54	0xbe48178c	-0.19540232
55	0xbde9d31c	-0.11417219
56	0xbde1e2dd	-0.11029599
57	0x3e412a2a	0.1886374
58	0x3e380385	0.17970093
59	0xbe6151e4	-0.22003895
60	0x3d448b03	0.047984134
61	0xbe40c072	-0.18823412
62	0xbd3cc5e3	-0.046087157
63	0x3dc8c7b5	0.09803716
64	0xbe44bb90	-0.19212174
65	0xbd9cc9c5	-0.07655672
66	0xbe18cf97	-0.14922939
67	0x3bd3341e	0.006445422
68	0xbe5bf666	-0.21480712
69	0x3e4d975b	0.20077269
70	0x3d25d6d0	0.040488064
71	0xbe02b9fb	-0.12766258

encoder.feed_forward.2.weight f4 [36, 72]
0	0x3d15737c	0.036487088
1	0xbd24d3d5	-0.04024108
2	0x3cb6af72	0.022300456
3	0x3dfd8800	0.123794556
4	0xbd4e944c	-0.050434396
5	0x3db9a7f2	0.09065236
6	0xbce46073	-0.027878022
7	0x3bb32b38	0.0054677986
8	0x3cb55ccb	0.022138974
9	0x3dd3e990	0.10347283
10	0xbdf0425e	-0.117314085
11	0x3c73d0de	0.014881341
12	0x3dc7d7a7	0.09757929
13	0xbdb91617	-0.090374164
14	0x3d765879	0.060142968
15	0x3d6393a1	0.05556071
16	0xbdc67573	-0.096903704
17	0x3d228b9b	0.03968392
18	0x3daca6c0	0.084302425
19	0xbcbe9c15	-0.023267785
20	0x3daef89e	0.08543514
21	0xbde4ea94	-0.11177555
22	0x3dd45b57	0.10368984
23	0x3de75376	0.11295216
24	0xbd1eb286	-0.038744472
25	0xbdbdeaa2	-0.09273268
26	0x3e0aa980	0.13541222
27	0x3d61fdf3	0.055173825
28	0xbc920594	-0.017824925
29	0xbd9a09da	-0.0752141
30	0xbd240055	-0.04003938
31	0x3dc769d8	0.09736985
32	0x3db0ca74	0.08632365
33	0x3d18f5a2	0.03734363
34	0x3d8a16bd	0.06742618
35	0x3d7b5e0b	0.061368983
36	0xbd4f5ace	-0.050623707
37	0x3ca81717	0.020518823
38	0x3d94d27c	0.07266709
39	0xbca13a55	-0.019681135
40	0x3d5b7404	0.053577438
41	0xbcbc57cd	-0.022991085
42	0xbdd51aa8	-0.10405475
43	0xbd6d0618	-0.05786714
44	0x3db07441	0.08615924
45	0xbde0c887	-0.109757476
46	0x3c6bbf1d	0.014388827
47	0x3da1758d	0.07883749
48	0x3dc308c4	0.09523156
49	0xbdc0f664	-0.09421995
50	0x3d4320a6	0.047638558
51	0x3c974a9f	0.0184682
52	0x3cdc71f1	0.0269098
53	0xbdd6a101	-0.10479928
54	0x3d817bfa	0.06322475
55	0x3db7ef30	0.08981168
56	0xbd2f45e8	-0.042791277
57	0xbc1dda52	-0.009634571
58	0xbd74b50d	-0.059742976
59	0x3dd8b18d	0.1058074
60	0x3dcfec9f	0.10152554
61	0x3cbf3a1b	0.023343137
62	0xbdcd07c0	-0.10011244
63	0x3bb35ef8	0.0054739676
64	0x3d9a5b5d	0.075369574
65	0x3cb152a9	0.02164586
66	0x394418d6	0.00018701269
67	0xbd38006e	-0.044922285
68	0x3d5dc7d9	0.054145668
69	0xbdc214f0	-0.0947665
70	0x3c995b32	0.018720243
71	0xbdd83392	-0.10556711
72	0xbd90192a	-0.0703605
73	0x3d81d13d	0.06338737
74	0x3dc1aaa3	0.094563745
75	0xbcc69123	-0.024239128
76	0xbdf0502f	-0.11734044
77	0x3dc243f5	0.09485618
78	0xbd2e0646	-0.04248645
79	0xbd6e73bc	-0.05821584
80	0xbd0c2c59	-0.03422198
81	0xbc89acf9	-0.016806113
82	0x3dde6c52	0.10860504
83	0x3d6b1624	0.05739416
84	0xbdc5de46	-0.09661536
85	0xbd2fc2db	-0.042910438
86	0xbbd92d2f	-0.0066277008
87	0x3e02472a	0.1272246
88	0x3d5e8719	0.054328058
89	0xbde17df4	-0.11010352
90	0xbd11f54c	-0.035634324
91	0xbd25d73c	-0.040488467
92	0xbdc7a524	-0.09748295
93	0x3d6922fe	0.056918137
94	0xbd88dda1	-0.06682897
95	0xbda14715	-0.07874886
96	0x3c553048	0.013011999
97	0xbd05a809	-0.032630954
98	0xbd8edd4a	-0.06975801
99	0xbd67062f	-0.05640238
100	0x3d39ae9b	0.045332532
101	0xbd058096	-0.032593332
102	0x3de9687c	0.11396882
103	0x3d87f6f0	0.066388965
104	0x3d245d20	0.040127873
105	0x3dc5002b	0.09619173
106	0xbda9a594	-0.08283535
107	0xbc8cbe79	-0.017180668
108	0xbdf46fc0	-0.11935377
109	0x3d5866d1	0.05283243
110	0xbc8c8773	-0.017154431
111	0xbd53075b	-0.051520687
112	0xbdec14c0	-0.11527395
113	0xbd5d973b	-0.054099303
114	0x3bb1580a	0.0054121064
115	0xbc483649	-0.012219974
116	0x3b721794	0.0036940323
117	0x3daddee0	0.08489776
118	0x3d2168c3	0.03940655
119	0x3d2fbc2f	0.042904075
120	0xbdc2a6e9	-0.09504492
121	0x3b01cf53	0.0019807413
122	0x3d9518ac	0.072800964
123	0x3d9baada	0.07600947
124	0xbd1719d7	-0.036889877
125	0x3c9281f8	0.01788424
126	0x3dbb4f4f	0.09145986
127	0x3c0d46ac	0.0086228065
128	0x3c998014	0.01873783
129	0xbd77cb32	-0.060496517
130	0xbdd105ec	-0.10206208
131	0x3c6b8c22	0.014376672
132	0xbcdc8ff8	-0.026924118
133	0x3dadde8d	0.08489714
134	0x3d892a23	0.0669749
135	0xbd31a595	-0.043370802
136	0x3d3b97ff	0.04579925
137	0x3ca776be	0.020442363
138	0xbd81e2f7	-0.06342118
139	0x3d854d5b	0.06508895
140	0x3d9d4f76	0.076811716
141	0x3dc4b7fe	0.09605406
142	0xbbba088a	-0.0056772875
143	0x3db43709	0.087995596
144	0x3df9c324	0.12195423
145	0x3dbe3c5a	0.09288855
146	0x3d17c489	0.037052665
147	0x3dca6757	0.09882992
148	0x3d907543	0.07053616
149	0x3daa8fbf	0.08328199
150	0x3c1f5e7c	0.009727117
151	0x3ce8c21c	0.028412871
152	0x3d60d8c6	0.05489423
153	0x3d8825f0	0.06647861
154	0x3cc2d1af	0.023781626
155	0xbc4f603e	-0.012657223
156	0xbdfaf2b7	-0.122533254
157	0x3b637377	0.0034706274
158	0x3c22a850	0.009927824
159	0xbd24289f	-0.0400778
160	0xbdfade54	-0.12249437
161	0x3da66491	0.0812465
162	0x3cdbcf38	0.026832208
163	0xbdad3b98	-0.08458632
164	0xbca9a14a	-0.020706791
165	0x3d47b7af	0.04875916
166	0x3cc5dc16	0.024152797
167	0x3d37dbae	0.044887237
168	0x3ccf6176	0.025315028
169	0xbccf93ad	-0.025338972
170	0xbd682939	-0.056679938
171	0x3d0fdd4d	0.03512316
172	0xbda45cac	-0.08025488
173	0x3c4e6ede	0.012599675
174	0x3db1d2c9	0.08682782
175	0x3d41d862	0.0473255
176	0xbddc2df9	-0.10750956
177	0xbd9b04a9	-0.07569248
178	0x3d3b6e95	0.045759756
179	0x3df72cfd	0.12069128
180	0xbdbddc3c	-0.09270522
181	0x3dde3eb1	0.10851801
182	0x3cee4f38	0.029090509
183	0xbda1471e	-0.07874893
184	0xbd4a87c6	-0.04944589
185	0xbcddb26f	-0.027062623
186	0xbbda8cfd	-0.006669639
187	0x3d1a27a0	0.037635446
188	0x3d65592e	0.05599325
189	0x3da55b85	0.080740966
190	0xbce2d3e6	-0.027688932
191	0x3dba4fa7	0.09097224
192	0x3da87490	0.082253575
193	0x3d69cbfe	0.057079308
194	0xbd6537d2	-0.055961438
195	0x3bfc7100	0.0077039003
196	0x3bf1a0cd	0.0073739053
197	0xbd6421bc	-0.055696234
198	0x3dc08cce	0.09401856
199	0x3d161085	0.036636848
200	0x3ddd70dc	0.10812542
201	0x3c318b38	0.010836415
202	0xbbf7fb62	-0.007567809
203	0x3dde51f5	0.10855476
204	0xbde6dd98	-0.112727344
205	0xbdfd058e	-0.12354575
206	0x3d75baf9	0.059992764
207	0xbce74f03	-0.028235918
208	0x3dacbf7f	0.084349625
209	0xbdf2b7fb	-0.11851498
210	0x3bada052	0.0052986527
211	0x3d6b6ede	0.057478778
212	0x3da86df5	0.08224098
213	0xbd8d0d4e	-0.06887303
214	0xbc424a68	-0.01185856
215	0x3cc61568	0.02418013
216	0x3b3e19c7	0.0029007064
217	0x3d182530	0.03714484
218	0xbce5142a	-0.027963717
219	0x3d8cd761	0.06877018
220	0x3cb3c022	0.021942202
221	0xbd1658b9	-0.036705706
222	0x3d81bbe4	0.063346654
223	0x3dbc3c85	0.09191231
224	0x3ccbda2e	0.02488431
225	0xbdbcf4bd	-0.092263676
226	0x3c447852	0.011991577
227	0xbdc6920e	-0.096958265
228	0x3d9a9b12	0.075491086
229	0xbb844908	-0.0040370263
230	0x3c715a80	0.01473105
231	0x3d77a361	0.060458545
232	0xbc9a773b	-0.018855682
233	0xbdb748ff	-0.0894947
234	0xbdb042df	-0.08606505
235	0x3d3acd16	0.04560574
236	0xbd445247	-0.04793003
237	0xbd87fefc	-0.06640431
238	0xbd01ecb8	-0.031719893
239	0xbdf55e71	-0.11980904
240	0xbd00b3bd	-0.03142141
241	0xbd16e1b8	-0.036836356
242	0x3dc2e026	0.09515409
243	0x3d7a2bf6	0.06107708
244	0xbc54ae29	-0.012980976
245	0xbd5fd4a5	-0.054646153
246	0xbdce12e9	-0.100622006
247	0xbcdefd45	-0.027220378
248	0xbd7a73ad	-0.061145473
249	0xbd6ed45e	-0.058307998
250	0x3d0fc9d4	0.035104588
251	0xbe0255e8	-0.12728083
252	0xbda3b945	-0.07994322
253	0xbb7dceeb	-0.003872807
254	0xbdd3facb	-0.10350569
255	0x3d41e543	0.04733778

encoder.feed_forward.2.bias f4 [36]
0	0xbd2f669c	-0.042822465
1	0x3ddf6b68	0.10909158
2	0x3dcd33f8	0.10019678
3	0x3cbee32a	0.02330168
4	0xbd03b07d	-0.032150734
5	0x3c9c761a	0.019099284
6	0xbadb64a5	-0.0016738368
7	0x3d75d4bd	0.060017336
8	0xbdd48af2	-0.10378064
9	0x3dcf6564	0.101267606
10	0xbd409506	-0.04701712
11	0x3d7da1f8	0.061922044
12	0xbca92387	-0.020646824
13	0x3db446b3	0.08802547
14	0xbb9910c0	-0.004671186
15	0x3dda3252	0.10654129
16	0xbddcfcef	-0.10790431
17	0xbcf85773	-0.030315137
18	0xbb28518b	-0.002568337
19	0x3d3e9afa	0.046534516
20	0xbc51db2a	-0.0128086
21	0xbcd72200	-0.02626133
22	0x3cc27ba7	0.023740603
23	0x3da2faa3	0.079579614
24	0xbdb765b8	-0.08954948
25	0x3d076ac1	0.033060793
26	0x3d9462b4	0.072453886
27	0x3d963e31	0.07336081
28	0xbdce7232	-0.10080375
29	0xbd1b2163	-0.037873637
30	0x3db8b588	0.09018999
31	0xbce870e3	-0.028374141
32	0x3bb4d380	0.005518377
33	0xbda57a04	-0.08079913
34	0xbda852f2	-0.082189456
35	0xbdd7a276	-0.10529034

encoder.norm0.weight f4 [18]
0	0x3f816438	1.0108709
1	0x3f813148	1.0093164
2	0x3f7f53be	0.99737155
3	0x3f7c0aca	0.9845396
4	0x3f7f9307	0.9983372
5	0x3f80e8f8	1.0071096
6	0x3f8101cc	1.0078673
7	0x3f80b1b3	1.005423
8	0x3f80b099	1.0053893
9	0x3f809164	1.004437
10	0x3f7c4d66	0.985556
11	0x3f7cc6fb	0.9874112
12	0x3f7c68ce	0.9859742
13	0x3f7f6c79	0.9977489
14	0x3f818e56	1.0121562
15	0x3f7f0764	0.9962065
16	0x3f812cc2	1.0091784
17	0x3f805c2f	1.0028132

encoder.norm0.bias f4 [18]
0	0xbb87bf11	-0.00414265
1	0x3a6ba88e	0.0008989655
2	0xbc15e8dc	-0.009149756
3	0xbc02cb2d	-0.007983011
4	0xbada353c	-0.0016647945
5	0xbb24ec4a	-0.0025165253
6	0x3b4430ad	0.002993624
7	0x39225338	0.00015480525
8	0x3c0d37ec	0.00861929
9	0xbb8fa389	-0.0043835086
10	0x3b0c81f0	0.0021439753
11	0x3b9128a1	0.004429892
12	0xbb086d46	-0.0020817085
13	0xbbd02a49	-0.006352697
14	0x3b72ae7d	0.0037030273
15	0xbbb2b855	-0.005454103
16	0x38fb13b8	0.000119722856
17	0x3b38457c	0.0028117588

encoder.norm1.weight f4 [36]
0	0x3f808837	1.004157
1	0x3f7e4380	0.99321747
2	0x3f7ec678	0.9952159
3	0x3f806734	1.0031495
4	0x3f7ce6ec	0.9878986
5	0x3f7e750f	0.9939737
6	0x3f7e3032	0.9929229
7	0x3f831d26	1.024327
8	0x3f80039f	1.0001105
9	0x3f801185	1.0005347
10	0x3f80820f	1.0039691
11	0x3f7ebff4	0.9951165
12	0x3f7f5d13	0.99751395
13	0x3f7f55b6	0.9974016
14	0x3f7e8bb4	0.9943192
15	0x3f7fa379	0.99858814
16	0x3f7d8153	0.9902546
17	0x3f80e62f	1.0070246
18	0x3f80e59d	1.0070072
19	0x3f80476c	1.0021796
20	0x3f7d783c	0.9901159
21	0x3f7e2aed	0.9928425
22	0x3f80b60f	1.005556
23	0x3f8136d7	1.0094861
24	0x3f81d16d	1.0142037
25	0x3f7ef772	0.9959632
26	0x3f7fe5c4	0.9995997
27	0x3f801f0e	1.0009477
28	0x3f7ec726	0.99522626
29	0x3f7f7976	0.9979471
30	0x3f815ec2	1.0107043
31	0x3f7f305c	0.99683166
32	0x3f8105ce	1.0079896
33	0x3f7e1372	0.9924842
34	0x3f809388	1.0045023
35	0x3f815f05	1.0107123

encoder.norm1.bias f4 [36]
0	0x3af2af70	0.0018515419
1	0xbbc0e265	-0.0058863633
2	0xbc40cdb0	-0.01176779
3	0xbbf799aa	-0.00755616
4	0x3c28381f	0.010267287
5	0x3bb7f2bd	0.0056136535
6	0xbbefba10	-0.0073158816
7	0x3b8c44ff	0.004280686
8	0x3a917237	0.0011096661
9	0x3b30bee4	0.0026969248
10	0x391cfc85	0.0001497139
11	0xbc043717	-0.008069775
12	0xbb00e384	-0.001966686
13	0xbad98f35	-0.0016598465
14	0x3b97699d	0.0046207444
15	0xbad5a822	-0.0016300718
16	0x3a4efdc2	0.0007896089
17	0x39820341	0.00024797957
18	0xbb415e01	-0.0029505494
19	0xba75d3df	-0.00093775796
20	0xbb9359a9	-0.0044967723
21	0x3b783e4d	0.003787893
22	0x390b965b	0.00013312085
23	0xba24e00e	-0.000628949
24	0xbb35cd86	-0.002774091
25	0xbc1ebf21	-0.009689123
26	0xbac99545	-0.0015379569
27	0xbb60c79c	-0.0034298664
28	0xbb84029f	-0.004028633
29	0x3adb3059	0.0016722783
30	0x3ae4dac1	0.0017460213
31	0xbbb90753	-0.005646625
32	0xbbb89bbb	-0.005633799
33	0xbacb4030	-0.00155068
34	0x3b037a72	0.0020061997
35	0x3b028891	0.0019917826

decoder.attn_0.in_proj_weight f4 [108, 36]
0	0x3d56bc4b	0.052425664
1	0xbc257602	-0.010098936
2	0x3da177ba	0.07884164
3	0xbd296bd7	-0.04136261
4	0x3d5af416	0.053455435
5	0xbe17a34c	-0.14808387
6	0x3e483321	0.19550754
7	0xbd41fa41	-0.0473578
8	0xbd0b7458	-0.0340465
9	0x3da961cd	0.08270607
10	0xbd89653f	-0.06708764
11	0xbe3d0cc1	-0.18461896
12	0x3e44072d	0.19143362
13	0x3e42719d	0.18988653
14	0x3e171745	0.1475497
15	0x3db7a427	0.089668564
16	0xbdbf4ac3	-0.093404315
17	0x3d7bfcd8	0.061520427
18	0xbd7898f6	-0.06069275
19	0xbe145bd5	-0.14488156
20	0xbdd3001d	-0.10302756
21	0x3b805cb9	0.0039173034
22	0xbd6f4b4b	-0.058421414
23	0xbe1f0d16	-0.15532336
24	0x3e1af1e1	0.15131332
25	0x3dd452b4	0.10367337
26	0x3e4ce629	0.20009674
27	0x3de85f40	0.113462925
28	0xbe3d97cb	-0.18514936
29	0xbd9e2fcf	-0.077239625
30	0xbbbc8e77	-0.005754288
31	0x3d729f1a	0.059233762
32	0xbd1e7c13	-0.038692545
33	0x3de436cf	0.111432664
34	0xbdc2029c	-0.09473154
35	0xbe1e990c	-0.1548807
36	0xbd9fd5bc	-0.078044385
37	0x3bf03086	0.007330003
38	0xbe112d05	-0.1417733
39	0xbdad1a76	-0.08452313
40	0xbd96dae0	-0.07365966
41	0x3c53c507	0.012925393
42	0x3e035e73	0.12828998
43	0xbd9e1b14	-0.077200085
44	0x3db2475b	0.08705016
45	0xbdb55d09	-0.08855636
46	0xbe43bf18	-0.19115865
47	0x3e3a974f	0.18221782
48	0xbca6ee4f	-0.020377306
49	0x3db1c621	0.08680368
50	0x3cf0107a	0.029304732
51	0x3d1c4c7e	0.038158886
52	0x3e2c648f	0.16835235
53	0x3deb0a0f	0.11476528
54	0xbe362465	-0.17787321
55	0x3d1c8ada	0.038218357
56	0xbdfc72e5	-0.12326602
57	0x3dea630f	0.11444675
58	0xbdf86dee	-0.121303424
59	0xbd9d0315	-0.076666035
60	0xbde668bc	-0.11250445
61	0xbc5785bd	-0.013154444
62	0x3d1fff46	0.039061807
63	0x3e0300f1	0.12793328
64	0x3d7a92ce	0.06117516
65	0x3e2f3296	0.17109141
66	0xbcd777e9	-0.026302295
67	0x3e3ad0e9	0.18243755
68	0xbd9089e1	-0.07057548
69	0xbdd41abc	-0.10356662
70	0x3d61f5a5	0.055165906
71	0xbe0fe424	-0.14051872
72	0xbe19f30b	-0.1503412
73	0xbd5dd7e8	-0.054160982
74	0xbe4fd444	-0.20295817
75	0xbe4b4844	-0.19851786
76	0x3e390571	0.18068482
77	0xbd4504a1	-0.048100118
78	0x3e4c057f	0.19923972
79	0xbd7abe15	-0.061216433
80	0x3d980a65	0.074238576
81	0xbde31746	-0.110884234
82	0x3d7ec697	0.06220111
83	0xbc359fcf	-0.011085465
84	0xbd9e467e	-0.07728289
85	0x3de2d061	0.11074901
86	0x3e0ca8b0	0.13736224
87	0x3c782285	0.015144949
88	0xbdb98a95	-0.090596355
89	0xbd3357e9	-0.04378501
90	0xbdea284c	-0.11433467
91	0x3e036103	0.12829976
92	0x3dd235bc	0.10264155
93	0x3d87fafa	0.06639667
94	0xbc963b98	-0.018338963
95	0x3e252739	0.16128244
96	0xb8edb3dc	-0.00011334542
97	0x3d95f620	0.07322335
98	0xbdc6a2f3	-0.09699049
99	0xbe3e8934	-0.18607026
100	0x3ceb542f	0.028726665
101	0xbe4d47c0	-0.20046902
102	0x3b558a7d	0.0032583766
103	0x3d95a940	0.073076725
104	0xbdb08a8b	-0.08620175
105	0x3c896f81	0.016776802
106	0xbcfefc40	-0.031126142
107	0x3c04feaf	0.008117362
108	0xbb9f840f	-0.0048680375
109	0xbe26619b	-0.16248171
110	0x3dadde1d	0.0848963
111	0xbe2d0e52	-0.16899994
112	0xbe1579de	-0.1459727
113	0x3d2aecc5	0.041729707
114	0xbc361cf0	-0.011115298
115	0x3d339fb0	0.04385346
116	0x3e36f014	0.1786502
117	0xbd57a74a	-0.052649774
118	0x3c77ba9e	0.015120177
119	0xbe2db374	-0.16962987
120	0x3cbf2a90	0.023335725
121	0xbd169d78	-0.036771268
122	0xbdd1123f	-0.10208558
123	0xbd474217	-0.048647013
124	0x3dc2d8ac	0.09513983
125	0x3d41e0a2	0.047333367
126	0x3e4a663e	0.19765565
127	0xbbf9376a	-0.007605483
128	0x3e1ddd1e	0.15416381
129	0x3aab15b2	0.001305273
130	0x3dd5afb4	0.10433903
131	0xbcde3dca	-0.027129073
132	0xbc9c3ca6	-0.019071888
133	0xbdb352a8	-0.08756
134	0x3dd3df66	0.10345344
135	0xbe12b306	-0.14326105
136	0x3dafb313	0.085790776
137	0x3cf01cc6	0.029310595
138	0x3d773e07	0.06036189
139	0xbc0f1bb1	-0.0087346295
140	0xbe33e773	-0.1756876
141	0x3c2ef935	0.010679533
142	0x3e343622	0.17598775
143	0x3c732e31	0.014842556
144	0x3e226ca2	0.15861753
145	0x3e3a6a15	0.1820453
146	0xbd8b67ff	-0.06806945
147	0xbd601a86	-0.054712795
148	0xbd5b5172	-0.05354447
149	0xbe42fc76	-0.19041619
150	0x3e253f29	0.16137375
151	0xbe3bb7d2	-0.1833184
152	0xbe0c3ebc	-0.13695806
153	0xbdb4669e	-0.08808635
154	0xbdd24faf	-0.10269105
155	0xbd8f8d39	-0.07009358
156	0xbe4331b3	-0.19061927
157	0xbe47c6fa	-0.19509497
158	0x3d900f6b	0.07034191
159	0x3e368c46	0.17826948
160	0x3d120971	0.035653535
161	0xbdb171d0	-0.08664286
162	0x3e4ebca1	0.20189144
163	0x3e2b4087	0.16723834
164	0x3bf6523d	0.007517128
165	0xbe4f1339	-0.20222177
166	0x3e4a2b97	0.1974319
167	0x3da7a548	0.08185822
168	0x3baa3804	0.005194666
169	0x3d2def43	0.042464506
170	0x3e04a348	0.12952912
171	0xbd5637aa	-0.05229918
172	0xbe4fabb0	-0.20280337
173	0xbc84e481	-0.01622224
174	0xbe31eef5	-0.17376311
175	0x3dafdee0	0.08587432
176	0xbe234bf3	-0.15946941
177	0x3e4c4a72	0.19950274
178	0x3d07d917	0.033166017
179	0xbe2db78a	-0.16964546
180	0x3d26489d	0.040596593
181	0x3cd6b7fb	0.026210776
182	0xbe42b52b	-0.19014423
183	0xbc50fd3f	-0.012755691
184	0xbe50d4b7	-0.20393644
185	0x3e0be08e	0.1365988
186	0x3d9ac796	0.07557599
187	0xbcd61072	-0.026130889
188	0x3dc84805	0.09779362
189	0xbd63a099	-0.05557308
190	0x3d1386bf	0.036017176
191	0x3e440045	0.19140728
192	0xbd8dfbe7	-0.06932812
193	0x3b034ffb	0.0020036686
194	0x3d8aed10	0.06783497
195	0x3e4f8b34	0.20267946
196	0xbde12975	-0.109942354
197	0x3e1d307b	0.15350525
198	0xbd51f6ea	-0.051260866
199	0x3c140cc1	0.009036244
200	0xbe508eb5	-0.20366938
201	0xbe0ffcbd	-0.14061256
202	0x3e2d81e2	0.16944078
203	0x3d94518e	0.07242118
204	0xbdd13d78	-0.10216802
205	0x3ddee751	0.10883964
206	0xbe1d3f8c	-0.15356272
207	0x3e50ab5c	0.20377868
208	0xbe3fbe06	-0.18724832
209	0xbe3cd68d	-0.1844122
210	0xbd8b10e3	-0.0679033
211	0x3df2283d	0.11824081
212	0xbe1e350f	-0.15449928
213	0x3d1b73d7	0.03795227
214	0x3de15929	0.11003334
215	0x3c371421	0.011174233
216	0x3dd61654	0.104534775
217	0x3dd1244c	0.10212001
218	0x3d14ef89	0.03636125
219	0xbe4c78d3	-0.19967966
220	0xbd63c5d3	-0.05560858
221	0x3e167109	0.14691557
222	0x3dd316fc	0.10307118
223	0x3c7129c2	0.0147194285
224	0x3d588723	0.05286325
225	0x3e37921d	0.17926832
226	0xbd1b8c70	-0.03797573
227	0xbd1218e7	-0.03566828
228	0xbd04704f	-0.03233367
229	0xbc2e94c7	-0.0106555885
230	0xbc86f0bf	-0.016472219
231	0x3d7a4eef	0.061110433
232	0xbe2ef655	-0.17086156
233	0xbe08cefe	-0.13360211
234	0x3dca08fa	0.098649934
235	0xbe327f8a	-0.17431465
236	0xbe28e6ae	-0.16494247
237	0xbe4c489c	-0.19949573
238	0x3deb6b4d	0.114950754
239	0x3de44f0f	0.11147892
240	0x3e0075c6	0.12544927
241	0xbd4c73e8	-0.049915224
242	0x3dbd506b	0.09243854
243	0x3e1a6489	0.15077414
244	0xbdc1d7b1	-0.09464968
245	0xbe3a02fd	-0.18165202
246	0xbca6005a	-0.02026384
247	0xbd403ba1	-0.046931867
248	0xbd4e8a55	-0.050424892
249	0x3d24d0ab	0.040238064
250	0xbdcc88ba	-0.09987016
251	0x3d258b08	0.040415794
252	0x3da4f4c2	0.08054496
253	0x3dd6d0cf	0.10489046
254	0x3d97cd9a	0.07412262
255	0x3e191785	0.14950378

decoder.attn_0.in_proj_bias f4 [108]
0	0xbc5782f1	-0.013153777
1	0xbd496470	-0.04916805
2	0x3d00d331	0.031451408
3	0xbca548f1	-0.020176383
4	0xbcbf4bd3	-0.023351585
5	0x3d4dae86	0.050215267
6	0x3cea667d	0.028613323
7	0xbcda58db	-0.026653698
8	0x3b0319b2	0.002000433
9	0x3d3ebb23	0.046565186
10	0xbd0d9751	-0.034568135
11	0x3d2e2e09	0.04252437
12	0x3b768a4c	0.0037619052
13	0xbbf894af	-0.007586084
14	0xbceafa68	-0.028683856
15	0x3d09cef2	0.033644624
16	0xbd1630bc	-0.03666757
17	0xbcc3c4fa	-0.023897637
18	0x3c229617	0.0099234795
19	0x3ca63faf	0.020294039
20	0xbd123e8f	-0.03570419
21	0x3cee4d69	0.029089646
22	0xbd27ace9	-0.040936384
23	0x3ce46ead	0.027884806
24	0x3d02fdf4	0.03198047
25	0x3cc21ea2	0.023696247
26	0x3cf1a5c8	0.029497996
27	0x3c76934d	0.015049768
28	0xbb1e00a2	-0.0024109264
29	0x3d2ff773	0.042960595
30	0x3d2659e1	0.04061306
31	0x3ba3ed1f	0.0050026323
32	0xbcf02be9	-0.029317813
33	0xbd3881e5	-0.045045752
34	0x3c40d52f	0.011769577
35	0x3d089362	0.03334368
36	0xaf1edcbd	-1.4448438e-10
37	0x3266c4f0	1.343254e-08
38	0xb08e0096	-1.0332026e-09
39	0x31137cb1	2.1462194e-09
40	0xb21104df	-8.441218e-09
41	0x326418f3	1.32770195e-08
42	0xb13b25b2	-2.7233509e-09
43	0x306fc4b4	8.7227225e-10
44	0x30a647a6	1.2098453e-09
45	0x3032e85b	6.508622e-10
46	0xb20d7da0	-8.235844e-09
47	0x3178f0e9	3.6225691e-09
48	0xb1201621	-2.3295643e-09
49	0xb1b69c7e	-5.3146882e-09
50	0xb1b09b35	-5.139919e-09
51	0x323d230c	1.1009217e-08
52	0xb25bd3a8	-1.2795603e-08
53	0xb1d9fbde	-6.344165e-09
54	0x3174743e	3.557275e-09
55	0xb1d5eaba	-6.225801e-09
56	0xb0c4cdbe	-1.4319352e-09
57	0x321d5601	9.158158e-09
58	0xb2b0a1c2	-2.0562656e-08
59	0xb13d5367	-2.7550529e-09
60	0xb0590dec	-7.8963924e-10
61	0x3103b983	1.916846e-09
62	0xb0ea010d	-1.702604e-09
63	0x31861bf7	3.9030925e-09
64	0xb0d8a63c	-1.5763315e-09
65	0x32808511	1.4961673e-08
66	0xb25bea3b	-1.2800736e-08
67	0x2fd22aa9	3.822909e-10
68	0xb1a18987	-4.7013518e-09
69	0xb20656a0	-7.819523e-09
70	0x31a4e6b9	4.7992583e-09
71	0x3138c763	2.6888862e-09
72	0x3cf3ecb3	0.029775953
73	0xbabfd06a	-0.0014634256
74	0x3c9376b8	0.018000945
75	0x3b9ba5f7	0.004750009
76	0x3bb9e9f1	0.00567364
77	0x3c100079	0.008789175
78	0x3c993947	0.01870407
79	0x3b87763b	0.004133967
80	0x3b859ccb	0.004077529
81	0x3c29efeb	0.010372142
82	0x3bb29c3b	0.005450753
83	0xbb45bb35	-0.0030171399
84	0x39acb195	0.00032938705
85	0xbc757fe0	-0.014984101
86	0x3c5b11ac	0.0133709125
87	0x398b65a6	0.0002658788
88	0x3d0fec4a	0.035137452
89	0x3a8fcbd0	0.0010970775
90	0x3c41e16c	0.01183353
91	0xbcc6b426	-0.024255823
92	0x3baafbd9	0.005218011
93	0xbcb7a67d	-0.022418255
94	0x3b6990f9	0.003563939
95	0x3b607926	0.0034251898
96	0x3cc48e12	0.023993526
97	0xbc50dd40	-0.012748063
98	0x3b101bf2	0.0021989313
99	0x3c687091	0.014186994
100	0x3b48a4d4	0.0030615823
101	0xbad6adb3	-0.0016378671
102	0xb87c926a	-6.021784e-05
103	0x3c5b05b1	0.013368056
104	0x3be1892b	0.006882807
105	0xbc6a6a6f	-0.014307602
106	0x3a0d7916	0.00053967664
107	0xbbe3f887	-0.006957117
