models/model2u.pth (torch, 179946 bytes, 35 tensors)

job_attn_0.in_proj_weight f4 [96, 32]
0	0xbe8dd493	-0.27701244
1	0x3dbd3ad3	0.092397355
2	0xbdbd0248	-0.09228951
3	0xbe38509e	-0.17999503
4	0x3da22dd8	0.079189
5	0x3dd0914e	0.10183965
6	0xbcef424b	-0.029206416
7	0x3db7b342	0.089697376
8	0x3ded3988	0.11583239
9	0xbe363273	-0.17792682
10	0xbd950522	-0.0727637
11	0x3e1efae0	0.15525389
12	0x3e23e353	0.16004686
13	0x3e1001ea	0.1406323
14	0x3e2ed78e	0.17074415
15	0xbd91d46a	-0.07120593
16	0xbd0b2d56	-0.033978783
17	0x3e034400	0.12818909
18	0xbe19f120	-0.15033388
19	0x3c974d7d	0.018469566
20	0xbe32c4cb	-0.17457883
21	0xbe0ce329	-0.1375853
22	0x3da3312f	0.079683654
23	0xbca44a5d	-0.02005499
24	0x3e3cc69d	0.1843514
25	0x3e08a72c	0.13345021
26	0x3e439742	0.19100669
27	0xbe18d891	-0.14926364
28	0x3e35ca86	0.17753038
29	0xbe1a4550	-0.15065503
30	0xbd1d9282	-0.0384698
31	0x3e4fbb36	0.20286259
32	0xbe4a93cb	-0.19782941
33	0xbe7b8c8b	-0.24565332
34	0x3df359d1	0.118823655
35	0xbcec9c51	-0.028883131
36	0xbdbc7a8f	-0.09203064
37	0xbd85f1ca	-0.06540258
38	0xbdc25b9e	-0.09490131
39	0x3c125b70	0.008932933
40	0x3c08d069	0.00835047
41	0xbd731b6a	-0.059352316
42	0x3d9ecbf4	0.07753745
43	0xbda89108	-0.082307875
44	0xbd59d5bf	-0.05318236
45	0xbcb53a46	-0.022122514
46	0xbe39c982	-0.18143275
47	0x3dc4b7c5	0.09605364
48	0xbe1cf64e	-0.15328333
49	0x3e2b2a64	0.1671539
50	0x3e367eb9	0.17821778
51	0xbe19351b	-0.14961664
52	0xbe391603	-0.18074803
53	0x3ddfdfb6	0.10931341
54	0xbe8896ec	-0.26677644
55	0xbd6e3623	-0.058157098
56	0xbd8bd74c	-0.06828174
57	0x3d6684d5	0.056279022
58	0x3dcbcdd6	0.099513695
59	0x3db7e931	0.089800246
60	0x3ca24b5c	0.019811325
61	0xbe27cdd0	-0.16387105
62	0x3d596a05	0.053079624
63	0xbdf34e98	-0.11880225
64	0xbe6dff38	-0.2324189
65	0x3d2286f4	0.039679483
66	0x3db913f2	0.090370074
67	0x3e3914ec	0.18074387
68	0x3e116125	0.14197214
69	0xbdd808ae	-0.105485305
70	0xbe51a338	-0.2047242
71	0xbe083863	-0.1330276
72	0xbda08c35	-0.07839242
73	0xbcb69cd9	-0.022291588
74	0xbd92698a	-0.07149036
75	0xbe125c9d	-0.14293142
76	0x3cef7463	0.029230302
77	0x3e4dc84d	0.2009594
78	0xbd501003	-0.05079652
79	0x3d2800b8	0.04101631
80	0x3d7fc8cc	0.062447354
81	0xbe1c825e	-0.15284106
82	0x3b8893e3	0.00416802
83	0xbd53363e	-0.0515654
84	0xbd532f63	-0.051558863
85	0xbdd80a97	-0.10548895
86	0x3da7d607	0.08195119
87	0x3de10913	0.10988059
88	0x3e2b0fab	0.16705196
89	0x3e339ed8	0.17541063
90	0xbe121d43	-0.14268975
91	0xbe114610	-0.14186883
92	0x3e1d6c41	0.15373327
93	0x3d1dc586	0.03851845
94	0x3e2fd86e	0.17172405
95	0x3e53651c	0.20644039
96	0x3e2949a5	0.16532
97	0xbd9f138e	-0.07767402
98	0x3e5f6abb	0.21818058
99	0xbe22d946	-0.15903196
100	0xbd1e94b2	-0.038716026
101	0xbe5087e2	-0.20364335
102	0xbe1f6696	-0.15566477
103	0xbdcfb687	-0.10142236
104	0x3e462918	0.19351614
105	0xbe35d127	-0.17755567
106	0xbe3b5534	-0.18294221
107	0x3e1d60a0	0.15368891
108	0xbe5614f7	-0.20906435
109	0xbdf6bee7	-0.120481305
110	0xbde99b80	-0.114066124
111	0xbdb099dd	-0.08623097
112	0x3cd4681b	0.025928548
113	0x3db4b276	0.08823101
114	0xbe08941a	-0.13337746
115	0x3d387a8b	0.04503874
116	0x3d6ce51e	0.05783569
117	0x3e18bb96	0.14915308
118	0xbe0bcf50	-0.13653302
119	0x3d2c00f9	0.041993115
120	0x3e6a05cf	0.22853778
121	0x3e249773	0.16073398
122	0x3d49aeb5	0.04923888
123	0x3ddd8f9d	0.10818408
124	0x3d6a92e3	0.05726899
125	0x3e29eb2e	0.1659362
126	0xbd930f1e	-0.07180618
127	0x3bfce952	0.0077182436
128	0xbe04316c	-0.12909478
129	0x3d9336c6	0.071881816
130	0xb9ea7a5a	-0.00044723117
131	0xbe1bab7f	-0.1520214
132	0x3d9520ca	0.07281645
133	0xbd2db6f3	-0.042410802
134	0xbdf181d2	-0.117923394
135	0x3d3290ab	0.043594997
136	0xbdf3c3e0	-0.119025946
137	0xbc4b469a	-0.012406969
138	0xbe4325bf	-0.19057368
139	0x3db6df6f	0.08929335
140	0xbdb5441e	-0.08850883
141	0x3dc4a622	0.09602
142	0xbe6eb1c8	-0.23310006
143	0xbc987163	-0.018608755
144	0xbe7ca60a	-0.24672714
145	0xbd3a084d	-0.045418072
146	0x3d91be0c	0.07116327
147	0x3e481863	0.19540553
148	0xbe125a51	-0.14292265
149	0x3dc2c00e	0.09509288
150	0x3dfc2b75	0.12312976
151	0xbd942821	-0.072342165
152	0x3c3a20e3	0.01136038
153	0xbd507954	-0.050896958
154	0x3e038d9b	0.12846987
155	0x3e94156b	0.2892259
156	0x3d647bb8	0.05578205
157	0xbdd3764d	-0.103252985
158	0x3e66f3a9	0.22553886
159	0x3e4281dd	0.18994851
160	0xbd720d27	-0.059094574
161	0x3e246aa5	0.16056307
162	0x3e656fd2	0.22405937
163	0x3e69166a	0.22762457
164	0x3d212017	0.039337244
165	0x3d2a146d	0.041523386
166	0x3df3529a	0.118809894
167	0xbdf20c98	-0.11818808
168	0x3db3cfce	0.0877987
169	0xbdbea53f	-0.09308862
170	0x3e5ac934	0.21365815
171	0x3e6406f5	0.22268279
172	0x3e7158ae	0.23568985
173	0x3d568ab1	0.05237836
174	0x3db7700a	0.08956917
175	0x3d40a644	0.047033563
176	0xbd42b390	-0.047534525
177	0x3daca568	0.08429986
178	0x3e7e356b	0.24825065
179	0xbca18bcf	-0.019719986
180	0xbd0aa4a8	-0.033848435
181	0x3dbd0a69	0.09230501
182	0xbc9b0eb5	-0.018927911
183	0x3e21bf2a	0.1579558
184	0x3e51dc8b	0.20494287
185	0x3d9cf3fd	0.076637246
186	0xbc46246e	-0.012093646
187	0x3daba459	0.08380956
188	0x3e8151db	0.25257763
189	0xbdae437a	-0.08508964
190	0x3e374c24	0.17900139
191	0x3d2c7f06	0.042113326
192	0xbe1f4f02	-0.15557483
193	0xbe200256	-0.15625891
194	0x3cfe7413	0.031061208
195	0xbe6ee321	-0.2332883
196	0xbda8f21d	-0.082493044
197	0xbe43fee1	-0.19140197
198	0xbe59d412	-0.21272305
199	0x3df632d7	0.12021416
200	0x3d6ac86f	0.057320055
201	0x3e3ec6cc	0.18630522
202	0xbe0aef75	-0.13567908
203	0x3df58610	0.11988461
204	0xbcc8d26d	-0.024514401
205	0x3d37f491	0.04491097
206	0x3e4dfab5	0.20115168
207	0xbe139a20	-0.14414263
208	0x3b9e5577	0.0048319655
209	0xbe354a87	-0.17704211
210	0x3d97ac41	0.07405902
211	0xbdbf63ff	-0.093452446
212	0x3e16a764	0.14712292
213	0x3d5f65a6	0.0545403
214	0xbdc9c442	-0.09851886
215	0x3e3970fd	0.18109508
216	0x3d3f9e92	0.046782084
217	0x3e1d901e	0.15387008
218	0xbdcd6c21	-0.100303896
219	0xbc99932d	-0.018746937
220	0x3cd293d7	0.025705261
221	0x3e2f0556	0.17091879
222	0xbe3690af	-0.1782863
223	0x3e1a6fe6	0.15081748
224	0x3e65b6a6	0.22432956
225	0xbe0fa15a	-0.14026394
226	0x3e4ed2d4	0.20197612
227	0x3e7f2fc9	0.24920572
228	0x3b94da5c	0.004542632
229	0xbd7f12be	-0.062273733
230	0x3da273d2	0.07932247
231	0x3d1c69fb	0.03818701
232	0x3e528d9c	0.20561832
233	0xbdbf08c1	-0.093278416
234	0x3e27e732	0.16396788
235	0xbe31a4b4	-0.17347986
236	0x3e257ca5	0.1616083
237	0xbe33037c	-0.17481798
238	0x3d69f0ac	0.05711429
239	0xbe0ebbb2	-0.13938788
240	0xbdecf5b2	-0.115703
241	0xbdbe11f4	-0.09280768
242	0x3e68c1a0	0.22730112
243	0xbca01f8c	-0.019546293
244	0x3d2cec0f	0.04221731
245	0x3dae0179	0.08496375
246	0xbe14c648	-0.14528763
247	0x3e18b84d	0.14914055
248	0x3bff5d94	0.007793138
249	0xbd59c71f	-0.053168412
250	0x3e7bfb5c	0.24607605
251	0xbcf671b8	-0.030083522
252	0x3d8879a9	0.0666383
253	0x3d629f67	0.0553278
254	0x3dc9757d	0.09836862
255	0xbd2f6783	-0.042823326

job_attn_0.in_proj_bias f4 [96]
0	0x3d1dd834	0.038536265
1	0xbd9e4fc5	-0.077300586
2	0x3d15dfa3	0.03659023
3	0x3c7b15a4	0.015324984
4	0x3d868427	0.06568175
5	0x3dd1b3b2	0.10239352
6	0xbd988d1c	-0.074487895
7	0x3dcabda6	0.09899454
8	0xbd5c5011	-0.053787295
9	0x3d900a33	0.07033195
10	0x3d20cf07	0.039259937
11	0x3d238c51	0.039928738
12	0x3c9323f9	0.017961489
13	0xbd229af3	-0.039698552
14	0x3d7600b5	0.060059268
15	0x3cf527fd	0.029926294
16	0x3dfd7867	0.123764805
17	0x3df26585	0.118357696
18	0xbe115fa5	-0.14196642
19	0x3d8baeee	0.068204746
20	0xbde57e33	-0.11205711
21	0x3d0dc78a	0.034614123
22	0xbdc10181	-0.09424115
23	0x3b36cfd8	0.002789488
24	0x3d5170b4	0.051132873
25	0xbd0fbbab	-0.035091083
26	0x3df5618a	0.11981495
27	0x3ded1b2a	0.11577447
28	0xbda3e556	-0.08002727
29	0xbcad47b9	-0.021152364
30	0x3db91201	0.09036637
31	0x3d5e84ba	0.054325797
32	0x394fc349	0.00019813808
33	0xb9d92a8c	-0.00041421165
34	0xb9ad8917	-0.0003309927
35	0x39d57713	0.00040715243
36	0xb983004c	-0.00024986488
37	0x3a6d78ad	0.00090588146
38	0xbae70c54	-0.0017627575
39	0x3a36a06b	0.0006966653
40	0xba58bd5e	-0.0008267964
41	0x39f6cb57	0.00047072276
42	0x3aa29bc2	0.0012406039
43	0xb7633fc9	-1.35451055e-05
44	0x38480b90	4.7694484e-05
45	0xba158c21	-0.000570478
46	0xb9c96169	-0.00038410284
47	0x3991d778	0.00027817092
48	0x3a6dc0c2	0.00090695557
49	0xba0ed8bf	-0.0005449168
50	0x3883737f	6.2680796e-05
51	0x3806b298	3.2114418e-05
52	0x3ad9f3cf	0.0016628447
53	0x3a51f822	0.0008009692
54	0x3ae40b41	0.0017398373
55	0x3a6923b7	0.00088935666
56	0x3b0f1fb5	0.0021838967
57	0xbb2e7447	-0.00266196
58	0xba813a65	-0.0009859322
59	0xba0b29e3	-0.0005308671
60	0xbaa407b3	-0.0012514502
61	0xbab1e869	-0.0013573292
62	0xba32bd47	-0.00068183657
63	0x3a7ca3db	0.00096374535
64	0xbd7e2e49	-0.06205586
65	0xbd6fe397	-0.058566656
66	0x3d60b688	0.054861575
67	0x3d653847	0.055961873
68	0xbd79b401	-0.06096268
69	0x3d7eef71	0.062240068
70	0x3d7aa8c2	0.061196096
71	0xbd79e044	-0.061004892
72	0x3d3edcdd	0.04659735
73	0x3d3e8824	0.046516553
74	0x3d7c4874	0.061592534
75	0x3d7ba552	0.06143696
76	0xbd7cc408	-0.061710387
77	0x3d6e94f9	0.05824754
78	0x3d660f6d	0.056167055
79	0x3d74b88b	0.059746306
80	0x3d7d42d8	0.061831325
81	0xbd77cfd6	-0.060500942
82	0xbd5f650a	-0.054539718
83	0xbd7f20fe	-0.062287323
84	0xbd7c6747	-0.06162193
85	0xbd7dfd69	-0.06200925
86	0x3d7a45a8	0.061101586
87	0x3d7e556b	0.06209318
88	0x3d783a1c	0.060602292
89	0x3d740db7	0.059583392
90	0x3d146600	0.036230087
91	0x3d7ec1e2	0.06219662
92	0xbd5f4dae	-0.05451744
93	0x3d12152f	0.035664733
94	0x3d747c9c	0.05968915
95	0xbd73092c	-0.05933492

job_attn_0.out_proj.weight f4 [32, 32]
0	0x3e437565	0.19087751
1	0xbe0f196a	-0.13974538
2	0x3db3e7ff	0.08784484
3	0xbd9e32fd	-0.07724569
4	0xbc899465	-0.016794393
5	0x3d90419c	0.07043764
6	0x3d3aa665	0.045568842
7	0xbc7383b9	-0.014862948
8	0xbdbcb63e	-0.092144474
9	0xbe3382b3	-0.17530327
10	0x3e26054e	0.16212961
11	0x3ddb2741	0.107008465
12	0xbcc720cf	-0.024307637
13	0x3dfc60ec	0.12323174
14	0xbd2dbeac	-0.042418167
15	0xbe376dac	-0.1791293
16	0x3e08a7ed	0.13345309
17	0x3e0fd47b	0.14045899
18	0x3dfa5788	0.122237265
19	0xbdbcf43f	-0.09226274
20	0xbdfc16d8	-0.123090446
21	0x3dd34b32	0.10317077
22	0x3b11eff9	0.002226828
23	0xbda5b010	-0.08090222
24	0x3ce07141	0.027397754
25	0xbe0c30b6	-0.13690457
26	0xbe2af272	-0.16694048
27	0x3c9ab5c0	0.018885493
28	0x3e2cf584	0.16890532
29	0xbc54f2b0	-0.012997314
30	0xbe1da93c	-0.15396589
31	0x3e52d8b3	0.20590477
32	0x3cd22261	0.025651159
33	0x3c77febf	0.01513642
34	0xbe19d80c	-0.15023822
35	0x3d0f360a	0.034963645
36	0x3e412e33	0.1886528
37	0xbdf5da36	-0.12004511
38	0x3c49ad01	0.012309314
39	0x3e0907fc	0.13381952
40	0xbe1583d4	-0.1460107
41	0xbd6d7b7f	-0.057979103
42	0xbe3947b6	-0.18093762
43	0x3cb4ccee	0.022070374
44	0xbd8bd313	-0.068273686
45	0xbe380703	-0.17971425
46	0xbd2c6eeb	-0.042097967
47	0xbe299768	-0.16561663
48	0xbd131bc1	-0.03591514
49	0xbda362c4	-0.079778224
50	0x3c6fb0ce	0.014629556
51	0xbcc3c5c7	-0.023898019
52	0x3dc45632	0.09586753
53	0x3e1f772c	0.15572804
54	0xbd02f2db	-0.031969886
55	0xbd4604d5	-0.048344452
56	0x3de06521	0.10956789
57	0xbd0315e9	-0.032003317
58	0xbde6ca0f	-0.11269008
59	0xbdbbfc29	-0.09178955
60	0xbd64dd66	-0.055875205
61	0x3dcd6d04	0.10030559
62	0xbe1bb38e	-0.15205213
63	0x3dd3ea33	0.10347404
64	0xbda70491	-0.08155168
65	0xbe224568	-0.15846789
66	0xbdcf112b	-0.101106964
67	0x3e139c10	0.14415002
68	0xb975185a	-0.00023374092
69	0x3dc929cd	0.09822426
70	0x3d7532af	0.05986279
71	0x3d0754b3	0.03303976
72	0x3c113a65	0.00886402
73	0x3d36217e	0.044465534
74	0x3df58caf	0.11989724
75	0x3cfada2e	0.030621614
76	0xbda87dc2	-0.082271114
77	0xbdc98fb0	-0.09841859
78	0x3e17a826	0.14810237
79	0x3d4e21e5	0.050325293
80	0x3e0bd8b7	0.13656889
81	0xbc95a060	-0.01826495
82	0xbd0943d1	-0.03351194
83	0xbdae8377	-0.08521169
84	0xbd769ca5	-0.06020798
85	0x3dc5c467	0.096566014
86	0xbe068d3e	-0.13139817
87	0xbd9e3757	-0.07725399
88	0x3e1357b8	0.14388931
89	0x3c21b1d7	0.0098690605
90	0x3dc6c852	0.09706177
91	0xbdf864b2	-0.12128581
92	0x3da1ee8e	0.07906829
93	0x3d78062c	0.06055276
94	0x3e1315fd	0.14363857
95	0xbe11d08d	-0.14239712
96	0x3e368ff8	0.17828357
97	0x3d146232	0.03622646
98	0x3dcc2644	0.09968236
99	0x3e0471d2	0.12934044
100	0x3e058a10	0.13040948
101	0xbe24cc31	-0.16093518
102	0xbe184eb3	-0.14873771
103	0x3df4115c	0.119173735
104	0xbd96f55e	-0.07371019
105	0x3e04338e	0.12910292
106	0x3de6c659	0.112683006
107	0x3de3f331	0.111303695
108	0xbc90718c	-0.017632268
109	0xbe09872f	-0.13430475
110	0xbd036ab7	-0.032084193
111	0xbdb29fa9	-0.08721859
112	0xbdee3956	-0.1163203
113	0xbde63a53	-0.11241593
114	0x3e66b2ec	0.22529191
115	0xbd8e65e4	-0.06953028
116	0x3e042688	0.12905324
117	0x3e0f5b55	0.13999684
118	0x3dddf473	0.108376406
119	0xbe3be473	-0.18348865
120	0xbdc72084	-0.09722999
121	0xbe507d4a	-0.20360294
122	0xbe113976	-0.14182076
123	0xbd8f2210	-0.06988919
124	0x3b76a5fc	0.0037635555
125	0x3dc8d1f7	0.098056726
126	0x3d8d9715	0.06913582
127	0xbdb2e98c	-0.08735952
128	0x3e0c07a9	0.13674797
129	0xbe10f3b1	-0.14155461
130	0xbe29fcbe	-0.1660032
131	0xbe2bf0dc	-0.167911
132	0x3e0ef423	0.13960318
133	0xbbbca497	-0.0057569253
134	0xbd38843a	-0.045047976
135	0x3b1b933f	0.0023738889
136	0xbd207196	-0.039170824
137	0xbe296274	-0.16541463
138	0xbd3073ce	-0.04307919
139	0xbcc6411a	-0.024200965
140	0x3d82915f	0.063753836
141	0x3c8a3608	0.016871467
142	0x3d818981	0.06325055
143	0x3d733851	0.05937988
144	0xbe2a9e98	-0.16662061
145	0xbe04a0d5	-0.12951978
146	0x3e2c845a	0.16847363
147	0xbd1874f5	-0.037220914
148	0x3ca69206	0.020333301
149	0x3e353a55	0.17698033
150	0xbddad6fb	-0.106855355
151	0xbbe4577e	-0.0069684377
152	0x3af6763c	0.0018803547
153	0xbdb44c82	-0.08803655
154	0x3df78513	0.12085929
155	0xbd45e2f0	-0.048312128
156	0x3dfaa447	0.12238365
157	0x3dcf96ff	0.10136222
158	0xbe07ff0d	-0.13280888
159	0xbd265392	-0.040607043
160	0x3c6ef39c	0.014584448
161	0x3d1324dd	0.035923827
162	0xbe1155d4	-0.14192897
163	0x3e08e3fc	0.13368219
164	0x3e06bd60	0.13158178
165	0x3ceee747	0.029163016
166	0x3dc9c075	0.098511614
167	0xbdbdc5dc	-0.09266254
168	0xbe01e63d	-0.12685485
169	0x3e2d8f7a	0.16949263
170	0x3df5dd98	0.12005156
171	0x3e4d1aa8	0.200297
172	0xbdc0d230	-0.0941509
173	0x3e381338	0.17976081
174	0xbd37ebfd	-0.04490279
175	0x3d026633	0.031835746
176	0x3e28a644	0.16469675
177	0x3e04c54a	0.12965885
178	0xbe051b7f	-0.1299877
179	0xbe32b251	-0.17450835
180	0xbe2ca3c5	-0.16859348
181	0x3d909dce	0.07061349
182	0xbc316fc3	-0.010829869
183	0x3e320523	0.17384772
184	0xbd9bf980	-0.07615948
185	0x3e2d5b65	0.16929395
186	0x3dd31634	0.10306969
187	0xbd71f415	-0.059070665
188	0x3dfde0f9	0.12396426
189	0x3e0e5b1b	0.13901941
190	0x3e0706ba	0.1318616
191	0xbda3efd3	-0.08004727
192	0x3e54c92f	0.2077987
193	0x3da28dd6	0.07937209
194	0xbdbf6393	-0.09345164
195	0xbd1e6bbf	-0.038676973
196	0xbd98bd76	-0.07458012
197	0x3d6775fb	0.056509
198	0xbbcbbe30	-0.0062177405
199	0x3dae2623	0.08503368
200	0xbe0ea8a3	-0.13931517
201	0xbe12ddcb	-0.1434242
202	0xbd859faa	-0.06524594
203	0x3e078290	0.132334
204	0xbde2edc5	-0.11080507
205	0x3d94609e	0.07244991
206	0xbe0c244a	-0.13685718
207	0xbd1bd093	-0.03804071
208	0x3df38115	0.11889855
209	0x3db57281	0.088597305
210	0x3e0d5b35	0.13804324
211	0x3d2b7d77	0.0418677
212	0xbdb58165	-0.08862571
213	0xbdd2d4d7	-0.10294502
214	0xbe1066db	-0.14101736
215	0xbe1afa6b	-0.1513459
216	0xbdf2ebee	-0.11861406
217	0xbdd83495	-0.10556904
218	0xbdca7777	-0.09886067
219	0xbd1433e3	-0.036182296
220	0x3e122503	0.14271931
221	0xbe6cfb49	-0.23142733
222	0xbe29f947	-0.16598998
223	0xbd8caaf2	-0.06868543
224	0xbd682bf3	-0.05668254
225	0xbbc18c8f	-0.0059066485
226	0xbde6e0bb	-0.11273333
227	0x3dd2457f	0.102671616
228	0xbe0e1ce1	-0.13878204
229	0x3d98c4e0	0.07459426
230	0xbdc89620	-0.09794259
231	0x3da9aaae	0.08284508
232	0x3cdf732f	0.027276604
233	0x3cd8800f	0.02642825
234	0x3c3f6253	0.011681157
235	0xbe0aed79	-0.13567151
236	0x3d56e80f	0.052467402
237	0x3df80408	0.12110144
238	0x392281e7	0.00015497916
239	0x3d2f8c51	0.042858426
240	0x3d12412e	0.03570669
241	0xbbef5264	-0.007303523
242	0x3c450387	0.012024767
243	0x3baacc79	0.0052123633
244	0xbd41107e	-0.04713487
245	0x3dcd0924	0.10011509
246	0x3d9ad98d	0.07561026
247	0x3e13bd51	0.14427687
248	0xbd6f0183	-0.05835105
249	0xbd3867a6	-0.04502072
250	0x3d6e9c6e	0.05825465
251	0x3d289d05	0.04116537
252	0xbd50d23c	-0.050981745
253	0x3d966d80	0.07345104
254	0xb9e5b943	-0.00043816314
255	0xbdf2468b	-0.11829861

job_attn_0.out_proj.bias f4 [32]
0	0xbd77f2ca	-0.060534276
1	0xbd79dc2c	-0.061000988
2	0x3d765061	0.06013525
3	0xbd7a5f13	-0.061125826
4	0xbd78598c	-0.060632274
5	0x3d76b9d1	0.060235802
6	0xbd7ed946	-0.062218927
7	0x3d7c3dd2	0.061582394
8	0xbd77c878	-0.060493916
9	0xbd7b398e	-0.061334185
10	0x3d575727	0.05257335
11	0x3d79cac8	0.060984403
12	0xbd6b15b8	-0.05739376
13	0xbd7678f9	-0.060173962
14	0x3d679d65	0.056546587
15	0xbd77e83a	-0.060524203
16	0x3d729672	0.059225507
17	0x3d776090	0.060394824
18	0xbd79dfcb	-0.06100444
19	0x3d7997c3	0.060935747
20	0x3d798b2d	0.060923744
21	0xbd773426	-0.060352467
22	0x3d60e40c	0.054904982
23	0xbd724da2	-0.059156068
24	0x3d7c757f	0.06163549
25	0x3d7d9e9d	0.061918844
26	0xbd7cab50	-0.061686814
27	0x3d58e3c8	0.052951604
28	0x3d7d6e64	0.061872855
29	0xbd775cb0	-0.060391128
30	0x3d5b36c2	0.053519018
31	0xbd78a349	-0.060702596

job_attn_1.in_proj_weight f4 [96, 32]
0	0x3d7226e9	0.05911914
1	0x3e054d84	0.13017851
2	0x3d90940f	0.0705949
3	0x3c381e8c	0.011237752
4	0xbd871c3d	-0.06597183
5	0x3d343098	0.043991655
6	0x3e49fe2e	0.19725868
7	0x3e0c6808	0.1371156
8	0x3e58ab58	0.21159112
9	0x3d936921	0.07197786
10	0x3dd5cdad	0.1043962
11	0xbd00652a	-0.031346478
12	0xbd6ce93c	-0.057839617
13	0xbc42e116	-0.011894485
14	0x3db46692	0.08808626
15	0xbb13065f	-0.0022434217
16	0x3df13883	0.11778357
17	0x3e3237b1	0.17404057
18	0xbdf9a058	-0.12188786
19	0x3e4a411d	0.19751401
20	0xbdd30c08	-0.10305029
21	0xbd06f5ef	-0.032949384
22	0x3e254266	0.1613861
23	0xbe3eff6b	-0.18652122
24	0xbe2048f6	-0.15652832
25	0x3dc877e8	0.09788495
26	0xbe4c9da0	-0.19982004
27	0x3dc76d79	0.09737677
28	0xbe39f065	-0.1815811
29	0x3e5db1bf	0.21649836
30	0xbd3f8da8	-0.046765953
31	0xbe095820	-0.13412523
32	0x3e17e22a	0.14832368
33	0xbe2bf3af	-0.16792177
34	0x3e324369	0.17408527
35	0x3d544035	0.051819045
36	0xbdefa165	-0.117007054
37	0x3e530a83	0.20609479
38	0x3bc53caa	0.0060191946
39	0x3d4460e6	0.047943972
40	0x3e227568	0.158651
41	0xbcd6bf50	-0.026214272
42	0x3e2b82ed	0.16749163
43	0x3e451807	0.19247447
44	0x3d65adbd	0.056073893
45	0xbe0678d2	-0.13132027
46	0xbe261da0	-0.16222239
47	0xbd5f9c84	-0.054592624
48	0xbe53154f	-0.20613597
49	0xbd681f17	-0.056670275
50	0xbe413707	-0.18868648
51	0x3d5d3a57	0.054010715
52	0xbe569cea	-0.20958295
53	0xbd2e2d77	-0.042523827
54	0xbe131e6f	-0.14367078
55	0xbe475b67	-0.19468461
56	0x3d20708f	0.039169844
57	0xbdf0db3c	-0.11760566
58	0xbdcd915f	-0.10037493
59	0x3dae13e9	0.08499891
60	0xbd149682	-0.036276348
61	0x3e0713e5	0.13191183
62	0xbdc1ff37	-0.094725065
63	0xbd099132	-0.033585735
64	0xbe504b51	-0.20341231
65	0xbe0d1367	-0.13776933
66	0xbdbb7bc9	-0.091544695
67	0xbe59a46d	-0.2125413
68	0x3cb73bac	0.022367321
69	0x3e0ece95	0.13945992
70	0x3e2a91a0	0.16657114
71	0x3e4a4d9d	0.1975617
72	0xbdd53b39	-0.104116865
73	0xbe5fe66a	-0.2186524
74	0x3e311d47	0.17296325
75	0xbc21f5ba	-0.009885246
76	0x3dedddf3	0.11614599
77	0xbd3b6252	-0.045748062
78	0xbdd40a03	-0.10353472
79	0x3d74ab4f	0.059733685
80	0x3e17daea	0.14829603
81	0x3cef55e7	0.029215766
82	0xbdf38ba9	-0.118918724
83	0x3c3a1ac2	0.011358919
84	0x3e225cb2	0.15855673
85	0xbda8e356	-0.08246486
86	0x3dc3140a	0.095253065
87	0x3d0ef667	0.034902956
88	0xbe45b93b	-0.19308941
89	0x3dbf1352	0.09329857
90	0x3bbc122c	0.005739471
91	0x3e19c701	0.1501732
92	0xbe0d76a5	-0.1381479
93	0xbd13f3a0	-0.03612101
94	0xbd0feb5b	-0.03513656
95	0xbe430c09	-0.1904756
96	0x3e60404b	0.21899526
97	0xbe436da5	-0.19084795
98	0x3e34c417	0.17652927
99	0x3e1f0772	0.15530184
100	0xbdde1f40	-0.10845804
101	0x3cb33870	0.021877497
102	0x3e587c28	0.21141112
103	0x3d96110d	0.07327471
104	0x3d2547a4	0.040351525
105	0xbe4b291c	-0.198399
106	0xbcb46f54	-0.022025742
107	0xbe3d4857	-0.18484627
108	0x3e275b84	0.16343504
109	0xbd01e85d	-0.03171574
110	0xbe2988d0	-0.16556096
111	0xbc25e440	-0.01012522
112	0xbd9ddd83	-0.07708266
113	0xbd8f0f23	-0.06985309
114	0x3dbde328	0.09271842
115	0x3d492e08	0.049116164
116	0x3e2423de	0.16029307
117	0xbe06d9a2	-0.13168958
118	0x3d68d08b	0.056839507
119	0x3db0794f	0.08616888
120	0x3dd2b7eb	0.10288986
121	0xbe5120c9	-0.20422663
122	0xbe49b6be	-0.19698617
123	0x3e08476f	0.133085
124	0x3e0ec796	0.13943323
125	0x3e60c3a1	0.21949627
126	0xbd2f27d9	-0.04276261
127	0xbd5fa391	-0.05459935
128	0x3e5cf56b	0.21577995
129	0x3e2cd15d	0.16876741
130	0x3d3fb6a4	0.04680504
131	0x3e80b71c	0.251397
132	0x3e330150	0.1748097
133	0xbdbde214	-0.092716366
134	0xbe330b56	-0.17484793
135	0x3cfa0fa6	0.03052504
136	0xbb87ec2e	-0.004148028
137	0x3e07e74f	0.13271831
138	0x3e2930ce	0.16522524
139	0xbe30e535	-0.17274936
140	0x3e79b7db	0.24386542
141	0xbd154311	-0.036440913
142	0xbde969b9	-0.11397118
143	0xbe23c57f	-0.15993308
144	0xbd52aa3c	-0.05143188
145	0xbe110b87	-0.14164554
146	0xbcbb69e7	-0.022877647
147	0x3e0f7add	0.14011712
148	0x3cb0319f	0.021508036
149	0x3d643880	0.055717945
150	0xbe526f07	-0.20550166
151	0x3e36f25a	0.17865887
152	0xbd83afbb	-0.06430002
153	0x3df91b6d	0.12163434
154	0xbde44028	-0.11145049
155	0xbd4032b4	-0.046923354
156	0xbd97e6dc	-0.0741708
157	0x3e558204	0.20850378
158	0xbe5e84f2	-0.21730402
159	0x3e172e63	0.14763789
160	0x3e1e9a93	0.15488653
161	0x3e2df5be	0.16988274
162	0xbe15540c	-0.14582843
163	0x3e54a7b9	0.20767106
164	0x3c0412ed	0.008061153
165	0xbe1d22ec	-0.15345353
166	0x3e30b4ea	0.17256513
167	0xbe237223	-0.15961508
168	0x3d898a48	0.06715828
169	0x3dd0852b	0.1018165
170	0x3e2797b3	0.16366462
171	0x3d47bf57	0.04876646
172	0x3cdb7cc5	0.026792893
173	0xbe5942ca	-0.21216884
174	0xbdd01f19	-0.101621814
175	0x3e4a4bf5	0.19755538
176	0xbe47fef1	-0.19530846
177	0xbdbde992	-0.092730656
178	0xbd619e24	-0.055082455
179	0xbe5ef79c	-0.21774143
180	0xbe2d6fd5	-0.16937192
181	0xbdc47761	-0.09593082
182	0xbd7962eb	-0.06088535
183	0x3d779051	0.060440365
184	0x3ddddbed	0.10832963
185	0x3e06847b	0.13136475
186	0x3dbb7b8f	0.09154426
187	0x3e4dc974	0.2009638
188	0x3e2217b1	0.1582935
189	0xbd4d5a15	-0.050134737
190	0xbcc06f31	-0.02349052
191	0x3c8e03f1	0.017335864
192	0xbd949a3f	-0.072559826
193	0x3d88f018	0.06686419
194	0xbe2b28dd	-0.16714807
195	0xbdadaef5	-0.08480636
196	0xbdf1090c	-0.11769304
197	0x3da186a5	0.078870095
198	0x3e55f4cc	0.20894164
199	0xbe2901aa	-0.16504541
200	0x3db16de2	0.086635366
201	0x3de73f30	0.11291349
202	0xbe56d7d4	-0.2098077
203	0xbd4ecc28	-0.050487667
204	0xbe47b402	-0.19502261
205	0x3e5f8af5	0.21830352
206	0xbc9dde1e	-0.019270953
207	0xbdbd59d8	-0.09245652
208	0xbd39608a	-0.045258082
209	0xbe2adf2d	-0.16686697
210	0xbe143374	-0.14472753
211	0x3e1164b9	0.14198579
212	0x3df30e0d	0.11867914
213	0x3d5a1afb	0.053248387
214	0xbd4feecd	-0.050764848
215	0xbd838535	-0.064218916
216	0x3c8ee0f9	0.01744126
217	0x3bc2cea4	0.0059450436
218	0xbdf829df	-0.12117361
219	0xbd0734d7	-0.033009376
220	0xbe4e0e1e	-0.20122573
221	0xbdfd899e	-0.12379764
222	0x3e262760	0.16225958
223	0x3e075ae5	0.13218267
224	0x3d00f032	0.031479068
225	0xbc3b493a	-0.011431033
226	0x3d98d2b3	0.07462063
227	0xbdf0b085	-0.117524184
228	0x3de64449	0.11243493
229	0x3e3e6fd7	0.18597351
230	0x3e545da8	0.20738852
231	0xbdf1a54e	-0.117991075
232	0x3de5c24b	0.11218699
233	0xbe238b71	-0.15971161
234	0xbe184b95	-0.14872582
235	0xbe0730f3	-0.13202266
236	0xbe4a34be	-0.19746682
237	0xbd56a781	-0.052405838
238	0x3dac66e6	0.08418064
239	0x3e3e3e93	0.18578558
240	0xbe155d0b	-0.14586274
241	0x3e0e770d	0.13912602
242	0xbcf8a01e	-0.030349787
243	0xbdb70414	-0.08936325
244	0x3e3fb505	0.18721397
245	0x3c9221bc	0.017838351
246	0xbca99365	-0.020700166
247	0x3df4bca9	0.119500466
248	0xbe4b188f	-0.19833587
249	0xbd931cd7	-0.07183235
250	0xbd8b6648	-0.06806618
251	0x3db450bb	0.088044606
252	0xbe06833d	-0.13136001
253	0x3df26bdb	0.11836978
254	0xbcbf2b6a	-0.023336131
255	0xbcbc85ad	-0.02301296

job_attn_1.in_proj_bias f4 [96]
0	0xbc4eb4f1	-0.012616382
1	0xba37d1c3	-0.0007012153
2	0x3c942648	0.01808466
3	0xba4f81fe	-0.00079157937
4	0xbd372235	-0.044710357
5	0xbc595651	-0.013265208
6	0xbbb34e96	-0.0054720147
7	0xbc1f921f	-0.009739428
8	0x3bb6dc58	0.0055804662
9	0xb9b9d78a	-0.0003544654
10	0xbb217f94	-0.0024642693
11	0x3c0cdd44	0.008597676
12	0xbc3b8df1	-0.011447416
13	0x3c2bce6f	0.010486229
14	0x3d7237df	0.059135314
15	0x3badc689	0.0053032083
16	0xbc558baf	-0.013033791
17	0xbcf22d58	-0.029562637
18	0x3d17c2ad	0.03705089
19	0xbbb678c4	-0.0055685956
20	0x3a04494f	0.0005046324
21	0x3b27bc4a	0.0025594407
22	0x3cb91fe9	0.022598224
23	0xbccc81ea	-0.024964292
24	0xbc223cf7	-0.00990223
25	0x3c180333	0.0092781065
26	0x3cea53a0	0.028604329
27	0xbaea3b6e	-0.0017870495
28	0x3bd03668	0.006354142
29	0xbbb689a4	-0.0055706073
30	0xbc15898a	-0.00912703
31	0x3bc9a3d7	0.0061535644
32	0x3a1702f1	0.0005760631
33	0x39f5fa4c	0.00046916527
34	0x3a915d1f	0.0011090374
35	0xb92aaca2	-0.00016276774
36	0xbaa6c6a7	-0.0012723998
37	0xbab224d5	-0.0013591299
38	0xb9f95b52	-0.0004756102
39	0xba17e97d	-0.00057949853
40	0x39c4cea2	0.00037537987
41	0xba3ffe52	-0.00073239685
42	0x3a07b02c	0.0005176093
43	0x3ad4c77e	0.001623377
44	0x3a86b0c3	0.0010276068
45	0xba15bda9	-0.00057121605
46	0x3aa6a577	0.0012714107
47	0x3a31dd31	0.0006784974
48	0x393c3b6e	0.00017951216
49	0x3892643e	6.980494e-05
50	0x3a5722d4	0.0008206789
51	0x3a25b240	0.0006320812
52	0xb9ac3e5f	-0.00032852867
53	0xba008710	-0.00049029384
54	0x3a3a046c	0.0007095996
55	0xb9b225cf	-0.00033978975
56	0x39a0c0a8	0.00030661118
57	0xb9ff5489	-0.00048700374
58	0x39fb5ab0	0.00047942018
59	0x399b4ed5	0.00029622638
60	0xb98f05de	-0.00027279457
61	0x3970d7c4	0.00022968563
62	0xb9bd66e7	-0.00036125557
63	0xba0acf1f	-0.00052951457
64	0xbd70d26a	-0.058794416
65	0x3d74b038	0.059738368
66	0x3d55d05a	0.052200653
67	0x3d74a408	0.059726745
68	0x3d72394f	0.059136685
69	0xbd7c78fb	-0.061638813
70	0x3d827a10	0.06370938
71	0xbd765587	-0.06014016
72	0xbd13e579	-0.036107514
73	0x3d188804	0.03723909
74	0x3d6fda2b	0.05855767
75	0x3d7912d5	0.060808975
76	0x3d71d15f	0.059037562
77	0xbd7ab00e	-0.061203055
78	0x3c95610d	0.018234754
79	0xbd74c5a9	-0.059758816
80	0xbd75c1d3	-0.0599993
81	0x3d8002e0	0.06250548
82	0xbd7d5b42	-0.06185461
83	0x3d78c23d	0.060732115
84	0xbd7f1089	-0.06227163
85	0xbd758a50	-0.05994636
86	0x3d445a38	0.0479376
87	0x3cdffb80	0.027341604
88	0xbd766d39	-0.060162757
89	0xbd68f26a	-0.05687181
90	0x3d751dec	0.05984299
91	0x3d7363a7	0.059421208
92	0x3d795004	0.060867324
93	0x3d7fe820	0.06247723
94	0xbd6ffe89	-0.058592353
95	0xbd3df3fb	-0.046375256

job_attn_1.out_proj.weight f4 [32, 32]
0	0x3de5a7a1	0.11213613
1	0x3e5aef28	0.21380293
2	0xbc1dbf5b	-0.009628142
3	0x3dc11df8	0.09429544
4	0x3dbb381b	0.09141561
5	0xbd2e9d47	-0.04263046
6	0xbddcde86	-0.107846305
7	0x3d6ec484	0.05829288
8	0xbc968019	-0.018371629
9	0x3d8131d7	0.06308334
10	0xbd9792ff	-0.07401084
11	0x3ccadb4e	0.024762776
12	0xbd7a9150	-0.061173737
13	0xbd60b05e	-0.054855697
14	0x3de638be	0.112412915
15	0xbe50cccd	-0.20390625
16	0xbdc6d7db	-0.0970914
17	0x3e392fb5	0.18084605
18	0xbd8f6462	-0.070015684
19	0x3b87b7dd	0.0041417913
20	0x3df8ef7c	0.12155053
21	0x3c8674fd	0.016413206
22	0x3e503f22	0.20336583
23	0xbe1eb3f1	-0.1549833
24	0x3d59030e	0.05298143
25	0xbba972a1	-0.0051711355
26	0xbdc4dd56	-0.09612529
27	0x3e2a6aa0	0.16642237
28	0x3e144056	0.14477667
29	0xbe006485	-0.12538345
30	0xbc9ddd0d	-0.019270444
31	0xbe017853	-0.12643556
32	0x3d95e8cb	0.07319792
33	0x3d3ae471	0.045628015
34	0x3e25cf4d	0.1619236
35	0xbd8ad241	-0.06778384
36	0xbd3bb083	-0.04582263
37	0xbe0bbe54	-0.13646823
38	0x3d66aeb8	0.05631897
39	0xbb023043	-0.0019865192
40	0xbe34dbfe	-0.17662045
41	0x3d8797aa	0.066207245
42	0x3e3b8f7f	0.18316458
43	0x3e05cf82	0.13067439
44	0x3e18b532	0.1491287
45	0x3e0e50f3	0.13898067
46	0xbd823d2a	-0.06359322
47	0xbdd9eeca	-0.106412485
48	0xbcd900d8	-0.02648966
49	0xbcc6272b	-0.024188599
50	0x3e115c2d	0.14195319
51	0xbc597fb1	-0.013275073
52	0xbd91825e	-0.07104944
53	0x3dc19c40	0.094536304
54	0xbdae68ab	-0.085160576
55	0x3c04742c	0.008084338
56	0x3e0b1da4	0.13585526
57	0x3dbff1b1	0.09372271
58	0x3e0e503e	0.13897797
59	0x3e160aff	0.14652632
60	0xbe07989b	-0.13241808
61	0xbd2ac7c4	-0.041694418
62	0xbdec3df8	-0.11535257
63	0x3dbc7055	0.09201113
64	0xbd092f29	-0.03349224
65	0x3c47b7e1	0.012189836
66	0xbe539323	-0.20661597
67	0x3d0b6748	0.034034044
68	0xbe396664	-0.18105465
69	0xbddd709c	-0.10812494
70	0x3dab27df	0.08357214
71	0xbd530cdb	-0.05152593
72	0x3e09643d	0.13417144
73	0xbdcee73a	-0.10102697
74	0x3ba46825	0.005017298
75	0x3bc375e4	0.0059649814
76	0x3c761b69	0.0150211835
77	0x3dc2780f	0.094955556
78	0x3d54834e	0.051883034
79	0x3e4e85a8	0.20168173
80	0x3e5fb6b2	0.21847036
81	0x3d996569	0.074900456
82	0xbcee67c3	-0.029102212
83	0x3c0bf914	0.008543272
84	0x3e0517af	0.12997316
85	0x3e3a21e4	0.18176991
86	0xbddd36ae	-0.10801445
87	0xbd3f232c	-0.046664402
88	0xbbfa3030	-0.007635139
89	0x3e499348	0.1968509
90	0xbe29b2cb	-0.1657211
91	0x3d16a11c	0.03677474
92	0x3c10d034	0.008838702
93	0xbd27593a	-0.040856577
94	0x3e0fb981	0.14035608
95	0x3c59d8af	0.01329629
96	0xbda3bb4e	-0.0799471
97	0xbd9335ef	-0.071880214
98	0x3db4dcb0	0.08831155
99	0x3d9c310d	0.07626543
100	0xbcf4af7a	-0.02986883
101	0x3dd619c8	0.10454136
102	0xbc597bee	-0.013274176
103	0xbddcec63	-0.10787275
104	0x3dd1b23d	0.102390744
105	0xbda649d5	-0.08119551
106	0xbe0371dc	-0.12836403
107	0xbd8faa7b	-0.070149384
108	0xbe0f971b	-0.14022486
109	0x3d9215eb	0.07133087
110	0x3dbb7673	0.09153452
111	0x3e3ac3b9	0.18238725
112	0x3e28aacb	0.16471402
113	0x3d9f59db	0.077808104
114	0xbe025cdc	-0.12730736
115	0xbe467cde	-0.1938357
116	0xbe0309bc	-0.12796682
117	0x3c0f5e58	0.008750521
118	0x3d81c0e8	0.06335622
119	0x3de71ec7	0.11285167
120	0x3d190afa	0.037363984
121	0xbbd3e706	-0.006466749
122	0x3e00133f	0.12507342
123	0xbde92810	-0.113845944
124	0x3e0fe104	0.1405068
125	0x3e05c105	0.13061912
126	0x3e3b9c4e	0.18321344
127	0xbd0134a1	-0.03154433
128	0x3dcc44eb	0.099740826
129	0xbe072c07	-0.13200389
130	0xbd20c184	-0.03924705
131	0xbc1ec233	-0.009689855
132	0xbe3c9637	-0.18416677
133	0x3d441c04	0.04787828
134	0xbcfe855b	-0.031069448
135	0xbdd2b929	-0.10289223
136	0xbdf9d577	-0.12198918
137	0xbdd4c066	-0.103882596
138	0x3db1b2ff	0.08676719
139	0xbd3c9249	-0.046037946
140	0xbd8a4906	-0.06752209
141	0xbdaaefff	-0.08346557
142	0xbd6118b1	-0.05495519
143	0xbce44e46	-0.027869355
144	0x3c167740	0.009183705
145	0x3dda5bad	0.10662017
146	0x3e39367c	0.1808719
147	0xbe590ec9	-0.21197046
148	0x3dc2fec8	0.09521252
149	0x3dda72f3	0.10666456
150	0x3dfc3d71	0.123164065
151	0xbca3aff5	-0.019981364
152	0x3cf5b90a	0.02999546
153	0x3da1ec6f	0.07906424
154	0xbdf4b879	-0.11949248
155	0x3dd83fe8	0.10559064
156	0x3d3e494b	0.046456616
157	0xbdf60149	-0.12011964
158	0x3e2a5ecc	0.16637725
159	0x3ddab5dc	0.10679218
160	0x3d0a4be1	0.03376377
161	0xbe4ec5e0	-0.20192671
162	0x3dc14701	0.09437371
163	0xbe1648a8	-0.14676154
164	0xbe5aa4dc	-0.21351951
165	0x3cba4ebc	0.022742622
166	0xbdaf6e81	-0.08565999
167	0x3e05011c	0.12988704
168	0xbd91c881	-0.07118321
169	0x3b9f0c19	0.004853737
170	0xbe211560	-0.1573081
171	0x3d5ea9e0	0.054361224
172	0xbd5b1fff	-0.05349731
173	0xbdda0c1f	-0.10646843
174	0x3cf83c0d	0.030302072
175	0x3e28b3c5	0.16474827
176	0xbdc0971c	-0.09403822
177	0xbde4f437	-0.11179393
178	0xbd804b0d	-0.06264315
179	0xbdea30ef	-0.114351146
180	0xbd0efd3c	-0.034909472
181	0x3dfc191b	0.12309476
182	0xbe1304fc	-0.1435737
183	0xbd251cb0	-0.04031056
184	0x3e37ba6e	0.17942211
185	0x3dbdc8f2	0.09266843
186	0xbe39e903	-0.18155293
187	0x3e04d220	0.12970781
188	0xbe529ca3	-0.20567565
189	0x3d903df0	0.07043064
190	0xbda76ad4	-0.08174673
191	0x3d258d20	0.04041779
192	0x3c4cd7e7	0.012502647
193	0xbdfd106a	-0.12356646
194	0x3cad9045	0.021186957
195	0xbe2f2ec1	-0.17107679
196	0x3dd151ab	0.10220655
197	0x3e03e282	0.12879375
198	0xbdf04153	-0.117312096
199	0x3d845fd9	0.06463594
200	0xbdbfdf75	-0.09368793
201	0x3d839b7d	0.064261414
202	0xbe4afa04	-0.19821936
203	0x3de8347c	0.113381356
204	0x3c396a02	0.011316778
205	0x3e5cafeb	0.21551482
206	0x3ddd3b4e	0.10802327
207	0x3e084242	0.13306525
208	0xbdc33be4	-0.095329076
209	0xbe415786	-0.18881044
210	0x3daef731	0.08543242
211	0xbd1d4bb0	-0.03840226
212	0xbde5c456	-0.11219089
213	0x3e3b1063	0.1826797
214	0x3d2d3959	0.04229102
215	0x3e327a65	0.17429502
216	0xbcf82319	-0.030290173
217	0xbd385160	-0.04499948
218	0xbe002270	-0.12513137
219	0xbd2e4c09	-0.04255298
220	0x3da9b65d	0.08286736
221	0xbe5614f1	-0.20906426
222	0x3df4548c	0.119301885
223	0x3d2cb1ca	0.04216174
224	0xbd1c1b9e	-0.038112275
225	0x3e27caea	0.16386
226	0x3dad476c	0.08460888
227	0x3e3effff	0.18652342
228	0x3d278649	0.04089955
229	0xbde1d9a5	-0.110278405
230	0x3d2e621b	0.04257403
231	0x3cef7f2c	0.029235445
232	0xbdf27258	-0.118382156
233	0x3b9872c7	0.0046523544
234	0x3c03cb48	0.0080440715
235	0x3e5e6221	0.2171712
236	0x3df1be3b	0.11803862
237	0xbdb11cc9	-0.086480685
238	0x3e11dab9	0.14243592
239	0x3c4a6f72	0.012355672
240	0xbe16ac73	-0.14714222
241	0xbb4f609f	-0.0031643284
242	0xbbbfd0df	-0.005853757
243	0xbd227c11	-0.0396691
244	0xbe639f0d	-0.22228642
245	0x3ca290f5	0.019844512
246	0xbd3cff39	-0.046141837
247	0x3dc58e65	0.096463
248	0xbd272265	-0.040804286
249	0x3e0629b4	0.13101846
250	0x3dde2593	0.108470105
251	0x3db707da	0.089370444
252	0x3de0bba6	0.10973291
253	0x3e39f94f	0.1816151
254	0xbe4d207b	-0.20031922
255	0xbe483b91	-0.19553973

job_attn_1.out_proj.bias f4 [32]
0	0x3d723db3	0.059140872
1	0x3d3136db	0.043265205
2	0xbd78a9c7	-0.060708787
3	0xbd60b227	-0.0548574
4	0xbd7b699a	-0.061380006
5	0xbd6bcf5a	-0.057570793
6	0xbd76bbfd	-0.060237873
7	0x3d73ef01	0.059554104
8	0xbd71421b	-0.058900934
9	0x3d63b786	0.055594943
10	0x3d7194fc	0.058979973
11	0x3d6fcf27	0.058547165
12	0x3d7ab6fa	0.061209656
13	0x3d850e32	0.06496848
14	0x3d59616b	0.05307142
15	0xbd74f64d	-0.059805203
16	0xbd7de393	-0.06198461
17	0xbd7c3a13	-0.06157882
18	0xbd7741e6	-0.06036558
19	0x3d5f4fed	0.054519583
20	0xbd743b7b	-0.059627037
21	0xbd84ade8	-0.064784825
22	0x3d6aea7e	0.057352535
23	0xbd9b19ed	-0.07573304
24	0x3d563373	0.05229516
25	0xbd35886e	-0.044319563
26	0xbd6b66f5	-0.057471234
27	0xbd6884f2	-0.05676741
28	0xbd82274a	-0.0635515
29	0xbd63c25d	-0.05560528
30	0xbd7ee575	-0.062230546
31	0x3d3af0d2	0.04563982

job_fc_0.weight f4 [64, 32]
0	0x3d1ba7b4	0.03800173
1	0xbdfbf870	-0.12303245
2	0xbdf1b393	-0.11801829
3	0xbd34db2e	-0.04415434
4	0x3d5e1203	0.054216396
5	0xbe39fd26	-0.18162975
6	0x3dc457fd	0.09587095
7	0x3dab3a40	0.0836072
8	0xbe066899	-0.13125838
9	0xbbd0f17d	-0.006376444
10	0xbbecb987	-0.007224265
11	0x3e451509	0.19246306
12	0x3e1b4de0	0.15166426
13	0x3d0fa2b9	0.035067294
14	0x3e4109ff	0.1885147
15	0xbdc8ad51	-0.097986825
16	0xbdd1cb60	-0.10243869
17	0x3d9c9cd0	0.07647097
18	0xbdc8f63c	-0.098125905
19	0xbdc52604	-0.096263915
20	0xbcb38886	-0.021915685
21	0x3ddbe499	0.10736961
22	0x3e167e69	0.14696659
23	0xbd6a38e1	-0.05718315
24	0x3de36a93	0.11104312
25	0x3d910af0	0.07082164
26	0xbe56dd37	-0.20982824
27	0x3d9dbbc2	0.077018276
28	0xbe437482	-0.19087413
29	0xbddf33d5	-0.10898558
30	0x3df0ad94	0.117518574
31	0x3d22f3f5	0.039783437
32	0x3e255ae8	0.16147959
33	0x3d608f6a	0.05482427
34	0xbe334d37	-0.17509924
35	0xbc53f3a2	-0.012936505
36	0x3e079a45	0.13242443
37	0xbe0fe06f	-0.14050458
38	0xbdaf7c99	-0.08568687
39	0x3d1075bb	0.035268527
40	0xbe392be7	-0.18083154
41	0xbd41d4e9	-0.047322188
42	0x3e227cf6	0.15867981
43	0x3e2caac5	0.16862018
44	0x3c1ab262	0.009441944
45	0x3e081a95	0.1329139
46	0x3e497772	0.19674471
47	0xbdd45830	-0.10368383
48	0xbdda2bf1	-0.106529124
49	0x3dfcce37	0.1234402
50	0xbca2f8f6	-0.019894104
51	0xbdd57c8a	-0.104241446
52	0x3c662029	0.0140457535
53	0xbd3275de	-0.04356944
54	0x3e32393a	0.17404643
55	0x3cc69208	0.024239555
56	0xbc75f45b	-0.015011872
57	0xbd9e5ab6	-0.077321455
58	0xbd5ed97e	-0.054406635
59	0xbe318a76	-0.17337975
60	0xbd8ff630	-0.070293784
61	0xbe32b49a	-0.17451707
62	0xbe61c9c6	-0.22049627
63	0xbdeb59f6	-0.11491768
64	0x3e02c53a	0.12770548
65	0x3dbf49e9	0.09340269
66	0x3d995a4a	0.074879244
67	0xbd802e64	-0.06258848
68	0xbe1fe64c	-0.15615195
69	0x3bd99f49	0.0066413027
70	0xbdf5793c	-0.11986014
71	0x3d0eb0c7	0.034836557
72	0x3d8a4ba5	0.06752709
73	0xbd80a365	-0.06281165
74	0xbcb48eb4	-0.022040702
75	0xbd4c571e	-0.04988777
76	0x3d04d1ef	0.03242677
77	0xbd3b9cda	-0.045803882
78	0x3d1b3727	0.037894394
79	0xbe15d5e6	-0.14632377
80	0x3d387bd8	0.04503998
81	0x3d6f85b2	0.05847711
82	0x3d4ae81e	0.04953777
83	0xbdee7127	-0.11642676
84	0xbda9c59b	-0.082896434
85	0xbe25fac1	-0.16208936
86	0x3e3f36f6	0.1867331
87	0x3d63f8a1	0.055657033
88	0x3cb2c296	0.021821301
89	0x3d9ea38a	0.07746036
90	0xbe242c7e	-0.16032597
91	0xbe40d188	-0.1882993
92	0xbd8ce658	-0.06879872
93	0xbe530e45	-0.20610912
94	0x3decd27a	0.11563583
95	0xbd8de9a2	-0.069293275
96	0xbc7a579f	-0.01527968
97	0xbdeb2614	-0.11481872
98	0x3e2952e3	0.16535525
99	0xbdbc8f38	-0.09207004
100	0x3dad95fd	0.084758736
101	0xbdd2e5bf	-0.10297727
102	0x3defb6f1	0.11704815
103	0xbe1742cc	-0.14771575
104	0xbda04295	-0.078251995
105	0x3d014f08	0.03156951
106	0xbdf89fcd	-0.121398546
107	0x3cbcd350	0.02304998
108	0x3d8afaf0	0.06786144
109	0xbd82b4f2	-0.06382169
110	0xbe16cec5	-0.14727314
111	0xbdbf1473	-0.09330072
112	0xbccde94f	-0.025135664
113	0x3d995e61	0.074887045
114	0x3df37f09	0.118894644
115	0xbdd163c6	-0.102241084
116	0x3e56477d	0.20925708
117	0x3d992604	0.07477954
118	0x3cb2f994	0.021847524
119	0x3e390a94	0.18070441
120	0xbd186b48	-0.037211686
121	0x3e142eb8	0.14470947
122	0x3d347403	0.04405595
123	0x3d5b1628	0.053487927
124	0x3d81f8cf	0.063462846
125	0xbc83c9a8	-0.016087368
126	0xbdf03bc5	-0.1173015
127	0xbd951e05	-0.072811164
128	0xbd5ea5e8	-0.05435744
129	0x3e28e3c7	0.1649314
130	0xbde21d49	-0.11040742
131	0xbca8945a	-0.020578552
132	0xbd9d7efd	-0.07690237
133	0x3bd225e2	0.0064132074
134	0x3d6d9fe1	0.0580138
135	0x3db17640	0.086651325
136	0x3de8230e	0.11334811
137	0x3d9b767b	0.07590958
138	0xba561ab9	-0.0008167434
139	0xbdb39a42	-0.08769657
140	0xbc917647	-0.017756594
141	0xbd024140	-0.03180051
142	0xbd9c4b01	-0.07631493
143	0xbe3a7377	-0.18208109
144	0xbd4e9024	-0.050430432
145	0x3cfe45d7	0.031039162
146	0xbe48e17a	-0.19617262
147	0x3de93cbb	0.113885365
148	0xbdca93b6	-0.09891455
149	0x3c50e28d	0.012749326
150	0xbddd2e20	-0.10799813
151	0x3db6bf9e	0.08923267
152	0x3c2832e4	0.0102660395
153	0x3cb8534a	0.022500653
154	0xbdb5bbb6	-0.08873694
155	0xbe0d02aa	-0.13770548
156	0x3dec176e	0.11527906
157	0xbe263e31	-0.16234662
158	0xbe3a9827	-0.18222104
159	0xbc83b8f1	-0.016079398
160	0x3de84ec4	0.11343148
161	0x3dc1ede9	0.09469206
162	0xbd841850	-0.0644995
163	0xbdfa8575	-0.12232486
164	0xbe509bf1	-0.20371987
165	0x3d4e295b	0.05033241
166	0xbdd9f918	-0.10643214
167	0x3e456c66	0.19279632
168	0xbdef57b4	-0.1168665
169	0x3db1ee59	0.08688039
170	0xbd18b744	-0.03728415
171	0x3e1be7b5	0.15225108
172	0x3e054dce	0.13017961
173	0x3d16a428	0.036777645
174	0xbd9e1277	-0.07718366
175	0xbe05ef1f	-0.13079499
176	0xbcf630f0	-0.030052632
177	0xbe033f80	-0.12817192
178	0xbe5a3a80	-0.21311378
179	0x3caaec3c	0.020864598
180	0x3dee9bc9	0.116508074
181	0xbe58afe8	-0.21160853
182	0x3e5db319	0.21650352
183	0x3cae44ca	0.021273036
184	0x3cbdd390	0.02317217
185	0x3c97f989	0.018551605
186	0xbd7c0b1f	-0.061534043
187	0xbe04135f	-0.12898014
188	0xbc89c268	-0.016816333
189	0x3de20899	0.11036796
190	0x3dc3a9ae	0.09553848
191	0x3e15a17f	0.14612387
192	0x3e1518f0	0.14560294
193	0xbc02e603	-0.007989409
194	0xbe55e5c1	-0.20888425
195	0x3c8b513b	0.017006507
196	0xbdaf786f	-0.08567893
197	0x3d83aeb5	0.06429807
198	0xbe235085	-0.15948685
199	0xbd45d060	-0.048294425
200	0xbdd7a5ee	-0.105296955
201	0x3e4f231f	0.20228241
202	0x3e1ee1a5	0.15515764
203	0xbda64e0a	-0.081203535
204	0xbd9af181	-0.075655945
205	0x3cc4ea4d	0.024037505
206	0x3e3b05eb	0.18263976
207	0xbdf345a4	-0.11878517
208	0xbd9f6b67	-0.07784157
209	0xbdb63bc7	-0.088981204
210	0xbd46bd23	-0.04852022
211	0xbdae233b	-0.085028134
212	0xbd96036f	-0.07324874
213	0x3d8f4477	0.069954805
214	0x3d5ab721	0.0533973
215	0xbd3a07f9	-0.04541776
216	0x3df8f70f	0.12156498
217	0xbd4d0cf1	-0.05006117
218	0x3ca1046a	0.019655425
219	0xbe0620e2	-0.13098481
220	0x3dc5a634	0.09650841
221	0x3d39a65d	0.045324672
222	0x3dcad85d	0.09904549
223	0x3d117c15	0.035518724
224	0xbdb0e89f	-0.08638119
225	0xbbcf1100	-0.006319165
226	0xbd0b4ec4	-0.034010664
227	0x3db00229	0.08594162
228	0x3e3a849b	0.18214647
229	0x3d948f91	0.072539456
230	0x3d6af3ce	0.057361417
231	0xbc09aab3	-0.008402514
232	0x3e002212	0.12512997
233	0xbe22e845	-0.15908916
234	0xbe2148ca	-0.15750423
235	0x3e3bd55d	0.1834311
236	0xbe2fe5b3	-0.17177467
237	0xbc51b48e	-0.012799395
238	0x3c64c355	0.013962586
239	0x3e0735f0	0.1320417
240	0xbcf45423	-0.029825276
241	0x3e06d51a	0.1316723
242	0x3e04531a	0.12922326
243	0x3d9078f4	0.0705432
244	0xbdd259c0	-0.10271025
245	0x3ddd51e5	0.10806636
246	0xbd262c96	-0.040569864
247	0x3cb6e31d	0.022325093
248	0xbe16384e	-0.14669916
249	0x3e079238	0.13239372
250	0x3db212ce	0.08694993
251	0x3c869cac	0.016432129
252	0xbdacff2a	-0.08447106
253	0x3e062ed1	0.13103797
254	0x3e05d28b	0.13068597
255	0xbdbfe078	-0.09368986

job_fc_0.bias f4 [64]
0	0xbc24284f	-0.010019376
1	0x3daedd80	0.085383415
2	0x3e3f1482	0.18660167
3	0xbe47f833	-0.19528274
4	0x3e532169	0.20618214
5	0x3d789923	0.060692918
6	0x3e4b36b9	0.19845094
7	0xbd9fb501	-0.07798196
8	0x3d681f13	0.05667026
9	0x3e211ba5	0.15733202
10	0xbda3421f	-0.07971596
11	0xbdd90abf	-0.10597753
12	0x3d83d969	0.06437952
13	0xbd49bfe1	-0.049255256
14	0xbe0783f0	-0.13233924
15	0xbbf469c3	-0.007458897
16	0xbe112163	-0.14172892
17	0xbe266ab1	-0.16251637
18	0xbe3476e7	-0.17623483
19	0xbe3f59f2	-0.18686655
20	0x3d7576ff	0.059927937
21	0x3e1d18db	0.15341513
22	0xbe44507f	-0.19171332
23	0xbe0dc72f	-0.13845514
24	0xbc2fcaba	-0.010729486
25	0x3db30038	0.08740276
26	0x3d6e4d4b	0.05817918
27	0x3e378129	0.17920364
28	0x3c598d04	0.01327825
29	0x3e4e7991	0.20163561
30	0x3e0ea0ff	0.13928603
31	0x3e6307f6	0.22171006
32	0x3dd30e84	0.10305503
33	0x3d8648df	0.06556868
34	0x3e135ff3	0.1439207
35	0xbd8262a2	-0.06366469
36	0xbdace3c1	-0.08441878
37	0x3e2ff683	0.1718388
38	0x3e320eec	0.17388505
39	0x3e578303	0.21046071
40	0xbdf8bdde	-0.12145589
41	0xbdfd0b92	-0.123557225
42	0xbdb8c37e	-0.09021662
43	0xbe0d7e23	-0.13817649
44	0xbe1dabbe	-0.15397546
45	0x3dd3055b	0.10303756
46	0x3dd71327	0.105017
47	0xbe172abd	-0.14762397
48	0x3d85bb8f	0.065299146
49	0xbc64736b	-0.013943533
50	0x3d4b01ee	0.049562387
51	0xbd5c362a	-0.053762592
52	0x3d754c7f	0.059887405
53	0x3e5cf7cf	0.21578906
54	0xbdb7b15f	-0.08969378
55	0xbe0bdd88	-0.13658726
56	0x3e65b02d	0.22430487
57	0x3d3bcbc7	0.045848634
58	0xbdd96a81	-0.10616017
59	0xbe1fab8d	-0.15592785
60	0xbe259873	-0.16171436
61	0x3dc48a7b	0.095967256
62	0xbdca150b	-0.09867295
63	0xbe4bd64e	-0.1990597

job_fc_1.weight f4 [64, 64]
0	0xbbd5470e	-0.0065087145
1	0x3e1cf583	0.1532803
2	0x3e1d5708	0.15365231
3	0xbd8c58ca	-0.06852873
4	0x3e02326d	0.12714548
5	0x3dbf4271	0.093388446
6	0x3d38519b	0.0449997
7	0xbd8b4878	-0.06800932
8	0xbd3d2e81	-0.046186928
9	0x3d71854b	0.05896501
10	0xbdf11cde	-0.11773084
11	0x3cfc733c	0.030816667
12	0x3dc9cecb	0.09853896
13	0xbda1a283	-0.07892325
14	0xbe45e064	-0.1932388
15	0x3dc664f0	0.09687221
16	0xbda7f87d	-0.08201692
17	0xbe41b9c9	-0.18918528
18	0xbe242252	-0.16028717
19	0xbe36851d	-0.17824216
20	0x3deb5778	0.11491293
21	0x3dad36f3	0.08457746
22	0x3d1eb2f2	0.038744874
23	0xbd09f028	-0.033676296
24	0xbd83f3ce	-0.064429864
25	0xbc82c295	-0.015961925
26	0x3e1f6368	0.15565264
27	0x3c9def53	0.019279158
28	0xbde9e689	-0.11420924
29	0x3e189351	0.14899947
30	0x3e2a16ed	0.16610308
31	0x3da001bc	0.07812831
32	0x3ddac666	0.10682373
33	0xbd77800f	-0.06042486
34	0x3daba890	0.0838176
35	0xbd6fdc3a	-0.058559634
36	0x3c581844	0.013189379
37	0x3db6764b	0.08909281
38	0x3cc4c52f	0.024019806
39	0x3da0ebd8	0.078574836
40	0xbe2e4412	-0.17018154
41	0xbde271c0	-0.11056852
42	0xbe1308f8	-0.1435889
43	0xbd9e30c9	-0.07724149
44	0x3d148226	0.03625693
45	0x3e1079ef	0.14109014
46	0x3e0549cc	0.13016433
47	0xbe2e2174	-0.17004949
48	0x3d1369dd	0.03598963
49	0xbdba672c	-0.0910171
50	0xbcb1d0f5	-0.021706084
51	0xbe2da4b1	-0.16957356
52	0x3dd3a260	0.10333705
53	0x3d4576cc	0.048208997
54	0xbdc3d803	-0.09562685
55	0x3d493e5b	0.049131732
56	0x3e0acfd1	0.13555838
57	0xbd2a848d	-0.041630317
58	0xbdcbd008	-0.09951788
59	0xbdba761c	-0.09104559
60	0xbe2015bc	-0.15633291
61	0x3c17cd32	0.009265231
62	0xbc132efe	-0.008983372
63	0xbd96ba94	-0.07359806
64	0x3cd82fa9	0.026389914
65	0x3d9dbfc2	0.077025905
66	0x3db087a7	0.08619624
67	0xbdf556ab	-0.11979421
68	0xbda11f75	-0.07867328
69	0x3e0b4ee8	0.13604319
70	0xbd97bb58	-0.0740878
71	0xbe17141f	-0.1475377
72	0xbd93679a	-0.07197495
73	0xbda064ec	-0.07831749
74	0x3cc9e9a4	0.024647541
75	0x390e17c4	0.00013551029
76	0xbc059d0d	-0.00815512
77	0xbdeb92a2	-0.11502577
78	0xbce9182c	-0.028453909
79	0x3ce50a8b	0.027959129
80	0xbdc67a23	-0.096912645
81	0xbe47d648	-0.19515336
82	0xbd3438d1	-0.043999497
83	0xbdc8153d	-0.09769676
84	0x3dee3765	0.116316594
85	0x3d0b5a0b	0.03402142
86	0xbcea483d	-0.028598899
87	0xbd77ba05	-0.060480136
88	0xbdcc95e9	-0.099895306
89	0x3cd2599f	0.0256775
90	0x3d0a6699	0.03378925
91	0x3e17c350	0.148206
92	0x3d0bd9ad	0.03414314
93	0x3e1ee3a8	0.15516531
94	0x3cac6cee	0.021048035
95	0x3df7a6ef	0.12092387
96	0xbda1574f	-0.07877981
97	0x3aa129b4	0.0012295754
98	0x3d07bd62	0.033139594
99	0x3cab2c7e	0.020895239
100	0xbe2bf961	-0.16794349
101	0x3e2907ff	0.16506957
102	0x3dc81a0f	0.09770595
103	0xbda3509b	-0.07974359
104	0xbe0fcb22	-0.14042333
105	0xbe2c12fa	-0.16804114
106	0x3d1f09c4	0.038827673
107	0xbdccb5d3	-0.09995618
108	0xbd68dbba	-0.056850173
109	0xbd0e898c	-0.034799144
110	0x3e264d29	0.16240372
111	0xbdf776e6	-0.12083225
112	0x3d4d3c8b	0.050106566
113	0x3d447fea	0.04797355
114	0xbd5a5b81	-0.05330992
115	0xbe42bfd1	-0.19018485
116	0x3d22cd0f	0.03974634
117	0x3dafadd1	0.08578075
118	0x3cdae6a4	0.026721306
119	0xbd24b5b4	-0.040212348
120	0x3dc79e96	0.09747045
121	0xbcfb4323	-0.030671662
122	0x3b3211b5	0.0027171199
123	0xbd8470cd	-0.064668275
124	0x3b8fcb48	0.0043882467
125	0xbce1795b	-0.027523687
126	0x39978386	0.00028898957
127	0xbe028672	-0.127466
128	0xbe06cdfd	-0.13164516
129	0xbd843871	-0.06456078
130	0xbd6901c2	-0.056886442
131	0x3e111f8f	0.14172195
132	0x3d9f72fc	0.077856034
133	0xbdec7708	-0.11546141
134	0x3d220881	0.03955889
135	0x3c1597ad	0.009130401
136	0xbdbba04b	-0.09161433
137	0x3c6e4fc5	0.014545386
138	0xbc857bd5	-0.0162944
139	0x3e40eb4e	0.18839762
140	0xbd93b514	-0.07212272
141	0x3e254d3f	0.16142748
142	0xbc69a43f	-0.014260351
143	0xbe17a3f0	-0.14808631
144	0xbb037c18	-0.002006298
145	0x3dbf791b	0.09349271
146	0x3e0337dd	0.12814279
147	0xbcc5bdd7	-0.024138374
148	0xbe054e19	-0.13018073
149	0xbbb2dc11	-0.005458363
150	0xbd31bc34	-0.043392375
151	0x3cd870a9	0.026420908
152	0x3d9b2144	0.07574704
153	0xbdceb992	-0.100939885
154	0xbdfac017	-0.122436695
155	0xbdcc7fb4	-0.09985295
156	0xbd69b9d9	-0.057062004
157	0xbd487fb3	-0.04894991
158	0x3b2423e6	0.0025045811
159	0xbdeb701b	-0.11495992
160	0xbd9afa01	-0.07567216
161	0xbcacce03	-0.021094328
162	0x3bb75644	0.0055950005
163	0x3e18b44f	0.14912532
164	0x3d02e4e1	0.031956557
165	0x3d88a37b	0.066718064
166	0xbdbc7247	-0.09201484
167	0xbde09575	-0.10966007
168	0xbce90405	-0.0284443
169	0x3dbbf553	0.09177651
170	0x3df20d84	0.11818984
171	0x3d85e839	0.065384336
172	0x3dee55e3	0.11637475
173	0xbc5a323a	-0.013317639
174	0xbe252484	-0.16127211
175	0x3dfad6a2	0.12247969
176	0x3d9120ab	0.07086309
177	0x3dc8fa02	0.0981331
178	0x3d31df91	0.0434261
179	0x3e3057da	0.17221013
180	0x3a8b849a	0.0010644377
181	0x3d84b658	0.06480092
182	0x3db26fda	0.0871274
183	0x3e1f590b	0.15561311
184	0xbc85bba7	-0.016324831
185	0x3e15b333	0.1461914
186	0xbd3ea434	-0.046543315
187	0x3e3eaf1c	0.18621486
188	0xbc914921	-0.017735066
189	0xbde5c748	-0.112196505
190	0x3ce437a9	0.027858572
191	0x3e356b5f	0.1771674
192	0x3e0c7d7f	0.13719748
193	0x3d8382c0	0.06421423
194	0xbcd01bf3	-0.025403952
195	0xbe27a7bf	-0.16372584
196	0xbcdb0469	-0.026735501
197	0x3dc244fb	0.09485813
198	0x39d29474	0.00040164927
199	0x3c5cd29a	0.013477946
200	0x3d3bee90	0.045881808
201	0x3c3a5757	0.0113733625
202	0xbdc22442	-0.09479572
203	0xbcce9bd0	-0.025220782
204	0x3d8e622f	0.06952321
205	0x3cce5fa2	0.025192086
206	0xbd9d5ce2	-0.076837316
207	0x3e1e9423	0.15486197
208	0xbd05ee02	-0.032697685
209	0xbe11f915	-0.14255174
210	0xbd0db80c	-0.03459935
211	0xbe28bb3e	-0.16477677
212	0xbc210e0f	-0.009830012
213	0x3cd4851d	0.02594238
214	0xbd899223	-0.067173265
215	0xbe32eae3	-0.17472415
216	0x3da0ee6d	0.07857976
217	0x3d983575	0.07432071
218	0x3de0c4cd	0.10975037
219	0x3d329bd6	0.043605648
220	0xbe07dfb8	-0.13268936
221	0x3dc7c490	0.09754288
222	0x3dd1d571	0.10245789
223	0xbbec803a	-0.0072174342
224	0x3d48e853	0.049049687
225	0x3c639042	0.013889374
226	0xbd1a6ea5	-0.037703175
227	0xbcea16f5	-0.0285754
228	0x3d3d6568	0.046239287
229	0x3cc8243b	0.024431339
230	0x3e10662f	0.1410148
231	0x3ddc440e	0.10755168
232	0x3bfc3610	0.0076968744
233	0xbde6466d	-0.112439014
234	0xbe03f648	-0.12886918
235	0xbd42311e	-0.047410123
236	0xbe1d16a1	-0.15340663
237	0xbd8ca0e2	-0.068666235
238	0x3c03140d	0.008000386
239	0xbe264931	-0.16238858
240	0x3dc82217	0.09772127
241	0xbdd3b93a	-0.103380635
242	0x3d086802	0.033302315
243	0x3c94392a	0.018093664
244	0x3c22d270	0.0099378675
245	0x3dd021e6	0.101627156
246	0x3d2bca8a	0.041941203
247	0xbdcaf1ac	-0.099093765
248	0xbd88489a	-0.06654473
249	0xbddff85e	-0.10936044
250	0xbe3311d7	-0.17487274
251	0xbe234b9d	-0.15946813
252	0x3d48bd8d	0.049008895
253	0x3c98f1f4	0.01867006
254	0xbdd4bec8	-0.10387951
255	0x3cf0ec64	0.029409595
