models/model2rf.pth (torch, 21498 bytes, 13 tensors)

job_linear.0.weight f4 [32, 12]
00000000: abc7 903e 5977 fbbd e6bc 45be 0e9d 4ebe
00000010: 0814 4c3e 7b5b 28be 80a4 b9bc 92cf 6e3e
00000020: db20 2c3e ee83 10be 4e6b 80be 5f3f 37be
00000030: 5790 f7bb eebe b1be 7511 8bbe b0de 34be
00000040: 8e6d d1bd 6117 abbd 165e 7a3d 0ae0 a9be
00000050: cedc 3cbe 831a 29be b895 3e3e 0b01 8c3e
00000060: c79c 49be c860 f73d 4557 033e a450 1fbe
00000070: 02a5 8d3d 5ff3 113d c868 973e 5a56 063d
00000080: 92d8 26be abd5 04be 4feb 363d 209d 033d
00000090: 627d a13e 9120 803d 255c 8bbc ab01 703e
000000a0: c14f 353c 2e60 f03d 4637 07bd 5ca8 01be
000000b0: 1f8d 823e 8d52 f33b b4ef 473d 6889 a43d
000000c0: 59f6 9ebe 0e0b 4a3d 9376 cdbd 911b d0bd
000000d0: bfdc 3d3e b6c1 653d c344 36bd 796e 82bd
000000e0: 0752 12be dead 2ebe 51b5 07be 3147 713e
000000f0: dd07 d23d 8f49 32be 3025 fb3c 4dbb a53d
00000100: 3c12 293e de17 acbd f1fb 52be b5b1 67be
00000110: e1df 81be 92ab 8c3e 46c6 6dbd 3b71 8dbd
00000120: c50e dfbd 73d5 273e 5f1d 9f3e ac04 28be
00000130: 20bd 4e3e c111 4e3c 88d6 0a3d 3cd2 c13d
00000140: 8f2b 483d 8679 3bbd 936a 2cbd 5efe ba3d
00000150: a4e2 2e3e d617 4ebe 8319 213d a2b4 96be
00000160: aba4 243d 7466 a0bc a9e0 59be 5b6d 043e
00000170: bc1e 49be 8052 303e c3b1 473d 84e3 7ebd
00000180: c021 1c3e 7028 6dbe 5b08 57be 105e 35be
00000190: b7f3 ea3d 7a32 8bbe 4289 c6bb a01a 25be
000001a0: a7c3 90be 1bc4 433d 0423 8bbe ffea 8e3e
000001b0: 2174 2cbd cf5a 12be c1dd 813e b5be 48be
000001c0: e8d5 db3d b37c c43e eb7d 9c3e d9f3 3b3e
000001d0: d0d5 0dbe 2e6b a03d af11 73bd ece3 3dbe
000001e0: a077 9b3e 1790 463e 5045 05bd 1e1d 543e
000001f0: 79e0 d7bb 5e3e 233e e156 4f3e c1eb 63be
00000200: 6b1b 753e 8545 283e 7ee3 993d 8be0 183e
00000210: 6768 473e 560e 9fbd 43ee b9bc e667 1cbe
00000220: 6524 67be b963 57be 039b b0be ecda f4bd
00000230: 7fb6 27bd 537e 983e 3596 1dbe 6128 3d3e
00000240: 43c1 72bd 6b90 b3bd 9e5e d3bd c0a7 5e3e
00000250: 1d0c 74bd 2001 16be 20e9 e8bd 235d af3d
00000260: 21b4 493d c284 9bbe fa5b 11be e527 ebbd
00000270: 2472 c53d 63d1 8cbd c67d f13c 8a6d b13e
00000280: a530 7abe 8a6f 2dbc c66c eabd e15a a93e
00000290: 8fc8 13be c097 023e 0e37 b6bd 7e99 373e
000002a0: c042 a43e 391a af3d d914 9b3e 6d28 02be
000002b0: e390 833e ee66 e33d 146f 173d 3858 833e
000002c0: b614 a43e aee1 0c3e 65a4 7cbe 8bed f8bd
000002d0: 82cc 91be 6d17 4f3d d0f3 81be c487 90be
000002e0: f93e 2fbe 71c6 053e 2b40 a63c 6ad7 bebd
000002f0: 8f9d 293d f257 e5bd 76e5 6abd 1e79 943e
00000300: de5b 98be e8ec aabe 3424 84be d898 45be
00000310: 7942 69be d6f4 bfbd 738e c8bb 9c46 203d
00000320: 9a06 9b3d 6e72 38be dfb7 59be c879 643e
00000330: dfc6 9c3e 8897 c43e 1625 983e 1eb6 a4bd
00000340: 53c2 7f3d 8d85 adbb ba8f 763e 765f d3bc
00000350: d527 463e 9fe7 99be 368b fbbd 2074 4e3e
00000360: 3c60 8e3c 30a3 613d f82f a83c 042a 65bd
00000370: c996 343e 7ce1 5c3d cb98 ae3d 4e37 1bbe
00000380: c9ad 13be c032 9a3e 78ea 43be 2ded 84bd
00000390: e5b4 003e c057 9dbd e039 64bd 814b eabc
000003a0: ffbb 7c3e 8912 743e af0e 903e d24d b13d
000003b0: 0fb2 46be 8669 823e bfd4 40be 04dd 4c3e
000003c0: e402 0abd 74c1 adbd 48d1 723d abc6 87be
000003d0: 7777 c3bd 18c0 f23d 999e 8bbe a17b 4f3e
000003e0: dc13 f1bd 335f 213e dca6 1cbe cc61 2fbe
000003f0: 4156 3e3e 583c 8a3d ba30 23be 9c31 4fbe
0.28277335 -0.12278623 -0.1931034 -0.20177099 0.19929516 -0.16441147 -0.022661448 0.2332137
0.16809408 -0.14112827 -0.25081867 -0.17895268 -0.0075550484 -0.3471598 -0.27161756 -0.17663074
-0.10225974 -0.083540685 0.061124884 -0.3317874 -0.18443605 -0.1651402 0.186118 0.27344546
-0.19688712 0.120790064 0.1282626 -0.15558106 0.06916238 0.035632487 0.2957213 0.032797195
-0.16293553 -0.12972133 0.044658 0.032132268 0.31540972 0.062562115 -0.017011711 0.23438136
0.011066378 0.11737095 -0.033011697 -0.1266188 0.25498292 0.0074256123 0.048812583 0.08034021
-0.31047323 0.04932695 -0.10032382 -0.10161508 0.18541239 0.05609294 -0.04449917 -0.06368727
-0.14289103 -0.17058513 -0.1325276 0.23562314 0.10255406 -0.17410873 0.03065738 0.080923654
0.16510862 -0.0840299 -0.2060392 -0.22626384 -0.2536612 0.27474648 -0.058050416 -0.069063626
-0.10891489 0.16390018 0.31077096 -0.16408032 0.20189333 0.012577475 0.033896 0.09463927
0.048869666 -0.04577019 -0.042093825 0.09130548 0.17078644 -0.2012628 0.03933097 -0.29434687
0.040196102 -0.019580103 -0.21277107 0.12932341 -0.1964063 0.17218971 0.04875351 -0.062228695
0.1524725 -0.23159957 -0.20999281 -0.17711663 0.11472266 -0.27186948 -0.006058843 -0.16123438
-0.2827427 0.047794443 -0.27175152 0.27913663 -0.042102937 -0.14292453 0.25364497 -0.19603999
0.10734159 0.38376388 0.30564818 0.18354739 -0.13851094 0.07832943 -0.059343036 -0.18543977
0.30364704 0.19390903 -0.032536805 0.20714232 -0.0065880385 0.1594176 0.20247985 -0.22257902
0.2393624 0.1643277 0.07514094 0.14929406 0.1947342 -0.07766406 -0.02269662 -0.15274009
-0.22572477 -0.21034135 -0.34493265 -0.119558185 -0.040945526 0.29783878 -0.1538933 0.18472435
-0.05926634 -0.0876778 -0.10320781 0.21743679 -0.059581865 -0.14648867 -0.1137259 0.08562686
0.04924405 -0.30374724 -0.14195243 -0.11482219 0.09640911 -0.06875875 0.029478919 0.34653884
-0.24432619 -0.010585675 -0.11446528 0.33077148 -0.14431976 0.127532 -0.088972196 0.17929646
0.32082176 0.085499234 0.30289343 -0.12710734 0.25696477 0.11103617 0.036971167 0.25653243
0.3204705 0.13757965 -0.24672087 -0.12154683 -0.2847634 0.05055945 -0.25381327 -0.2822858
-0.17113866 0.1306398 0.02029427 -0.09318431 0.041410025 -0.11198415 -0.057347737 0.28998655
-0.2975759 -0.3338387 -0.2580887 -0.19296587 -0.22779264 -0.093728706 -0.006120497 0.03912984
0.075696185 -0.18012401 -0.21261548 0.22312081 0.30620477 0.3839686 0.29715794 -0.080425486
0.06244118 -0.0052954615 0.24078265 -0.025802355 0.19351132 -0.30059525 -0.12282412 0.20161486
0.017379873 0.05508727 0.020530686 -0.055948272 0.17635645 0.053925976 0.08525237 -0.15157816
-0.14421763 0.30116844 -0.19132411 -0.0649055 0.12569006 -0.076827526 -0.055719256 -0.028600456
0.2468109 0.23835196 0.28136203 0.08657421 -0.19403861 0.25471133 -0.18831156 0.20006186
-0.033694163 -0.08484164 0.059281617 -0.2651876 -0.095442705 0.11853045 -0.27269438 0.20262004
-0.11771366 0.15758972 -0.15298027 -0.1712715 0.18587591 0.06749791 -0.15936556 -0.20233768

job_linear.0.bias f4 [32]
00000000: 2c7a 123e 66d8 eebd 8ae3 3b3a 5584 e7bc
00000010: 6637 febd f2a4 813e 5128 4abc 476c 70be
00000020: 3477 adbd 8f5c 0abe 8c9a 803e 97bc b93c
00000030: 9249 973e d833 14be 9e3a e13d cb38 423e
00000040: 211c 75bd 01e0 4c3d 7b39 afbc d725 9e3e
00000050: 1d0d a9be e15f 26be 3b3d 77be 93fe 083e
00000060: e52e a2be 2128 08be 45a7 3cbe a9f5 183e
00000070: 2e7a f5bd d9f1 863e 5c89 923e 917c d3bc
0.14304417 -0.116623685 0.000716739 -0.028261343 -0.1241291 0.25321156 -0.012338714 -0.23478805
-0.08470002 -0.13511871 0.2511791 0.022672934 0.29548317 -0.14472902 0.109975085 0.18966977
-0.05984128 0.050018314 -0.021389714 0.30888245 -0.33017817 -0.16247512 -0.24144451 0.13378362
-0.31676403 -0.13296558 -0.18423183 0.14937462 -0.119861946 0.2635639 0.28620422 -0.025816234

job_linear.2.weight f4 [1, 32]
00000000: 1c7e a03d 3714 27bc d12a 403e 96ac cf3d
00000010: 6999 58bc e2a1 84bd 722f 283e a1e7 fbbd
00000020: eca9 8dbd 2bbf 8d3d dcab 133e fd6e eabd
00000030: 2521 663e 36de b63d 8879 583e 93df 5bbd
00000040: ff94 39be 0726 da3d 6bef c4bd 5f0c db3c
00000050: 7bad 39be 5b41 ddbd 4aa3 93bd 4bff d03d
00000060: d583 cebd 12bc fe3d 15d3 163d d2e4 3c3e
00000070: c7f6 1ebe 5f80 dcbc c92d 293e acad 5abd
0.078365535 -0.010197691 0.18766333 0.1014034 -0.01322017 -0.06476189 0.16424349 -0.12300039
-0.06917176 0.06921228 0.14421028 -0.114469506 0.22473581 0.08929102 0.2114011 -0.053680014
-0.18123244 0.106517844 -0.09615978 0.026739297 -0.18132584 -0.10803481 -0.07208879 0.10204943
-0.10083739 0.12438215 0.036822397 0.18446663 -0.15523826 -0.02691668 0.16521372 -0.053388283

machine_linear.0.weight f4 [16, 10]
00000000: 22a1 a5bd 339a d63d 197d 55be 3b31 d2bd
00000010: 5c4e 4e3e 620a 71be b606 023e 5f7c c53c
00000020: 057a 623e 52f2 683c 30e5 82be bbd1 5ebe
00000030: 3246 693e dfdf 29be d66e 963e 19c0 a73d
00000040: ede9 abbd 9a43 533e a7f2 a43d 421a 94bc
00000050: dbf2 8abd f536 82be 7c2d ba3a 470d 6fbe
00000060: 0dcb 283e 4021 353e c7e6 09be 26e7 143c
00000070: 93c5 38be 496c 803e aa29 0a3e d7b0 d13d
00000080: 83b6 d83d e3ba 733e 90e0 573e fadc ed3d
00000090: df12 903c 92e4 10bd 2b1b abbd 42fc 6c3e
000000a0: 706c 933e 28bb 44be 3c19 913e ed61 acbe
000000b0: 13b8 09be 924c 3dbc fa9e 0c3e 6999 8b3e
000000c0: db55 963d de92 83be ee13 853d 990d 66bd
000000d0: f400 3dbe 13fb 8fbe 2e6a 9c3c 705d 95bd
000000e0: 3430 3dbe f5ff 3d3e 795b 8cbe f82a 2abe
000000f0: f7cb 4d3e 2f04 a7bd 4d7a 68be bdfe fa3c
00000100: 28ea 9bbe 8a38 fc3d 8122 acbd e351 943c
00000110: 47ba 63bb 5212 cb3d 9732 41be 4d91 8abe
00000120: aa29 16bd 4d37 5abe d9b2 113d c560 a93d
00000130: 901c 113e 541e 683d b74c 28bd 10f8 493e
00000140: 217e 843e a3d6 8a3e 99a3 eb3d 9194 55bd
00000150: 82c5 89be 9be3 933e 9867 49be 6a9b 253c
00000160: ed82 893d 095d 933d 691f 853e f9d0 ad3e
00000170: 6c4f 843c 9430 aa3c ea6a f1bd eeeb c9bd
00000180: c3c2 7c3e 6721 6ebe 1c07 e43d ef29 0b3e
00000190: 7c2b 60be 036b 8abe 72f8 80be 3a5b 7d3d
000001a0: 7abc 123e 3031 9ebe 4467 323d 5c33 8ebd
000001b0: dbd3 053e 3abf 92bd ae15 a4bd f9be 743d
000001c0: 06e5 2bbd 3c06 313e 44a6 69be 0bf6 75be
000001d0: 2acc 0e3e d4cb a83d e111 803e 87cc 5ebe
000001e0: deb0 273e d2ee 11be 8450 99be bf42 fb3c
000001f0: fc7a 0cbe 4f36 de3d 38ab 25be 0e59 343e
00000200: 9f3a 81be 3c3b 9ebe 0df1 57bc 4e02 5c3d
00000210: 159d b73c 179a e43d 430d 153e 0cd6 43be
00000220: 4a13 a1be b559 813e 74d5 813d 23e5 1e3e
00000230: ba32 973e c14d a13d cc32 293e 23f0 8ebe
00000240: f6b7 10be 5ed1 13be 1596 a1be 667e 3f3d
00000250: e434 72be c23d 4d3e c3cb 3f3e 5e07 6b3e
00000260: 9692 963e 6593 8dbe 907f a2bd db8c a7bd
00000270: 4cb2 87be 50fa 6bbd bf52 8a3e f97c 8c3e
-0.08087374 0.1047863 -0.20848502 -0.10263296 0.20147079 -0.23539117 0.12697873 0.024107156
0.2211686 0.01421793 -0.2556548 -0.21759693 0.22780684 -0.16589306 0.29381436 0.081909366
-0.08394227 0.20631257 0.08054095 -0.018078927 -0.06784602 -0.25432554 0.0014204229 -0.23344909
0.16483708 0.17688465 -0.13466941 0.009088313 -0.18044119 0.25082615 0.13492456 0.10238808
0.10581686 0.2380176 0.21081758 0.116144136 0.017587123 -0.03537423 -0.08354791 0.23143104
0.2879367 -0.1921202 0.28339565 -0.3366846 -0.13449125 -0.0115539 0.1373252 0.2726548
0.073405944 -0.25697988 0.06497942 -0.05616531 -0.18457395 -0.28121242 0.0190936 -0.072932124
-0.1847542 0.18554671 -0.27413538 -0.16617954 0.20097338 -0.08155095 -0.22702904 0.030639047
-0.30452085 0.123154715 -0.084050186 0.018105453 -0.003474848 0.09915604 -0.18866955 -0.2706398
-0.036660828 -0.21310158 0.035570953 0.082704104 0.14171052 0.05666955 -0.041088786 0.19723535
0.2587748 0.2711688 0.11505813 -0.052143637 -0.269085 0.28884587 -0.19668424 0.010107854
0.06714425 0.071954794 0.26000527 0.33948496 0.016151153 0.020775117 -0.1178797 -0.09859453
0.2468367 -0.2325493 0.111341685 0.13590215 -0.21891588 -0.27034768 -0.2518955 0.06185458
0.1432971 -0.30896902 0.043555513 -0.0694339 0.13069098 -0.0716538 -0.080119476 0.05975244
-0.04196646 0.17287534 -0.22817332 -0.24019639 0.1394507 0.08242002 0.2501364 -0.21757708
0.16376063 -0.14251259 -0.2994424 0.030671475 -0.1371879 0.10850202 -0.16178596 0.17612097
-0.25240037 -0.30904567 -0.01318003 0.053713135 0.02241377 0.11162203 0.1455584 -0.19124621
-0.3146003 0.25263754 0.06339541 0.15517096 0.2953089 0.078761585 0.16523284 -0.27917585
-0.14132676 -0.14435336 -0.31559816 0.046751402 -0.23652989 0.2004309 0.18730073 0.22952029
0.2940871 -0.27651516 -0.07934487 -0.08181163 -0.26503217 -0.057611763 0.27016255 0.27439097

machine_linear.0.bias f4 [16]
00000000: 78e1 98ba 37ec a73e c458 5ebe 89ae 18bd
00000010: 19ff bbbe 0f98 e4bd cd72 1f3d 5578 2cbe
00000020: c965 863e 1ce1 423e 91d0 b43e b08a 9abe
00000030: 8549 f23c 703d a7be f96d e83d cde4 91be
-0.0011663875 0.32797405 -0.21713549 -0.037275825 -0.36718062 -0.111618154 0.038927842 -0.16842778
0.2624953 0.19031185 0.35315374 -0.30183935 0.029576072 -0.3266406 0.113491006 -0.28494874

machine_linear.2.weight f4 [1, 16]
00000000: 6c00 37bd b8f7 563e 1108 99bd 8998 28bd
00000010: c093 26be 59b5 f6bd 7597 2c3e eaa3 7abe
00000020: 6440 293e f8a1 483e 1aba 653e ce0a 0abe
00000030: be77 e83d 55a5 9ebd c380 86bd 357a 023d
-0.044678137 0.20992935 -0.07472242 -0.041161094 -0.162673 -0.12046308 0.16854651 -0.24476591
0.1652847 0.19593036 0.22434273 -0.13480684 0.11350964 -0.07746378 -0.06567528 0.031854827

j_m_linear.0.weight f4 [32, 11]
00000000: 31af ba3e 4ac3 533d 6821 813d 86ef a33c
00000010: 85ca fd3d d31c d9bd c401 0f3e 4f9b 8a3d
00000020: 5fa2 83be 2eb6 0abb 041d 713e 9b57 82be
00000030: cbfc 003e 3604 d2bc afd4 37bd 4650 0a3e
00000040: 68ff 893c 4c2e 9bbe 1320 e8bd 6df1 8dbe
00000050: edb3 813d 42c1 d2bc aed3 9cbe af32 0fbd
00000060: 7c25 78be 351e d43d 6f7b f4bd e0ba f53b
00000070: 22e3 1d3e 8c95 4fbe 169a 8fbe b3b3 57be
00000080: 7029 cd3d db8b c1bc 900f a53e 25c7 933e
00000090: df52 993e a96f 45be bb49 8dbd ef7d 75be
000000a0: 33ce adbc 679b 693c 4c0d b63d 5b5c 5b3b
000000b0: 44fa a93e e3f5 ba3e 1649 833e 1a32 7b3e
000000c0: 7dc6 1b3e 0c9a e7bc 632d 8c3e 2053 97bd
000000d0: 4cfe 863e 4a96 08be d421 f03d ab0c 52be
000000e0: fbfc c93d 169f 38be 657f 473e 5a91 603e
000000f0: 35d6 04be c2d7 02be c063 da3d f5f3 cb3d
00000100: cccb 72be fd8f 35be 8b41 84be 46ae b3be
00000110: b206 48bb bfab aabd 28a7 173d a3b4 8cbe
00000120: 01eb 8d3d c28f a6bb 1359 ae3d fe39 4abe
00000130: bd1d 12be 8ca3 c4bd 7116 b9bd f2d4 a53e
00000140: 8b4f a73d 0e5b 2cbd ad51 26bc d568 a83d
00000150: 6f48 43be 4b6c 4cbe b950 3a3c 6a7e a83e
00000160: f3c9 4abe ac0b 7a3e 42a5 113e 725a 413d
00000170: 6c3b 893e ede6 b5bd 0a30 123c 203f 21be
00000180: 62ed 7d3e 0132 583d 834b d1bd 272b 70bd
00000190: 3b54 853e eee4 02be e1ec 68be 9943 5f3e
000001a0: 8c71 16bd af59 4d3d d5e7 0fbc 21c5 23bd
000001b0: fd07 013e de60 813e 84f5 063e aa8a 5c3d
000001c0: 9cad 5a3e 9ad7 56bd ebcb f03d 23a7 e9bb
000001d0: c899 4bbd 53a4 4739 0bfc 803e d792 fe3d
000001e0: b140 14be b6b6 d9bd 4bf6 533e 84bd 67be
000001f0: f147 1ebe 4c5f 44be 7ea4 543e 892f 233e
00000200: 2947 403e b2a9 da3d f14f 823e fb29 20be
00000210: 4c0e 253e 8d61 5a3d 0fd6 09be 8c99 9fbd
00000220: 8171 593e 01d5 8c3d 6e1f c4bd 9359 7f3e
00000230: a840 003e 7f78 9c3c 129e 9bbd 4b60 cd3d
00000240: 6df5 0dbe 3c5b 2c3e 1500 6a3e 9b75 10be
00000250: 3d75 04be 88b8 a7be ccde 6cbe 86fe afbd
00000260: 4dfb 373e 8079 4cbe 4e99 b5bd 5052 b2be
00000270: da0b aebe c085 d2bd e36b 9abe 63a6 8d3b
00000280: cde6 163e 0435 8cbd 649a 293e 2ca4 c1bd
00000290: cae2 f83d 20f1 913e 630c 8e3e 32bf 55be
000002a0: abc4 833e 7437 cb3e 88df 15be f068 bf3e
000002b0: b656 143e 1750 edbd 1475 c83c ad2e 4abe
000002c0: 78be 493e 2e12 373d a345 9f3d 6c41 183e
000002d0: 5055 c0bd 8470 423c 7965 4dbe efdd 823e
000002e0: 05c8 9fbe 0bd0 113e 1a07 753e abba 573d
000002f0: 63f4 373e d1d9 08be 6717 823e e4a3 433d
00000300: dc97 36be 51e2 9abb c41b 863e d6d9 c93c
00000310: 771a 213e 9f41 893e 5f16 0bbd bd88 19be
00000320: 8a09 6a3c 69ad f3bd 6d10 933c 01c9 363e
00000330: 2963 79be 73be 4d3e 3d46 98be e2fd bc3d
00000340: a783 8cbd 7f74 603e 5d30 b13c b455 b6bd
00000350: fb8d 613e c603 3cbd d5e6 a13e 75c3 ebbd
00000360: 9ebd 053e c055 653e c7f0 d7bd 26e5 aebd
00000370: e979 7f3e 715e 703e 8541 e3bd d123 9bbd
00000380: 9e6c a73e 6d8a 68bd 5931 3abc 447e 7e3e
00000390: 1f9b 4a3e aa28 103e f24b 273e b0e8 f4bd
000003a0: e3aa b23d c955 f6bc 1082 16be 2dc3 9a3d
000003b0: b151 8bbe a467 90bd 084e 94be b1d7 08bd
000003c0: 6463 aabe ea28 9c3e 968b 3fbe 9862 26bd
000003d0: 7ba9 af3d 5b01 12be 64be 6abe b3df a1be
000003e0: 9afe 8bbe 094f e039 3bb2 1fbe c95b 5dbe
000003f0: 1f26 49be c730 373e c5ee bc3e ca58 70bd
0.36461785 0.051699914 0.063052 0.020011675 0.12392143 -0.10601201 0.13965517 0.06767904
-0.25709817 -0.0021165716 0.23546225 -0.25457463 0.12596433 -0.025636774 -0.044880565 0.13507184
0.01684542 -0.3030876 -0.11334243 -0.27723256 0.06333146 -0.025726918 -0.3063025 -0.034960445
-0.24233049 0.10357324 -0.119376056 0.007499084 0.15418676 -0.20271891 -0.28047246 -0.21064644
0.10017669 -0.023626259 0.32238436 0.28862873 0.29946038 -0.19280876 -0.068988286 -0.23973821
-0.021216488 0.014258242 0.08889255 0.0033471796 0.3319875 0.36515722 0.25641698 0.24530831
0.15212436 -0.028271697 0.27378377 -0.07388902 0.26365888 -0.1333858 0.11725202 -0.20512645
0.09862705 -0.18029436 0.19482191 0.21930447 -0.12972338 -0.12777618 0.10663557 0.099586405
-0.23710555 -0.17730708 -0.25831255 -0.35093898 -0.003052157 -0.08333539 0.037024647 -0.27481565
0.06929589 -0.0050830552 0.08513083 -0.19748685 -0.14269157 -0.096015066 -0.090374835 0.32389027
0.081694685 -0.042079024 -0.010151309 0.0822312 -0.190706 -0.19963185 0.011371785 0.32908946
-0.198036 0.24418515 0.14223197 0.047205396 0.26803148 -0.08881936 0.008922586 -0.15746737
0.24797586 0.052782062 -0.10219481 -0.058634903 0.26040825 -0.12782642 -0.22746612 0.2180313
-0.03672938 0.050134357 -0.0087833 -0.03998292 0.12600704 0.25269216 0.13179594 0.053843178
0.21355289 -0.052451707 0.11757644 -0.00713052 -0.049707204 0.00019039334 0.25192294 0.12430351
-0.14477803 -0.106305525 0.20699422 -0.22630888 -0.15457131 -0.19176978 0.20765874 0.15936102
0.18777145 0.10676898 0.25451615 -0.15641014 0.16118735 0.053315688 -0.13460563 -0.077929586
0.21234705 0.06876565 -0.09576307 0.24936514 0.12524664 0.019100426 -0.07598509 0.10028132
-0.13863154 0.16831678 0.22851594 -0.14107363 -0.12935348 -0.32757974 -0.23131865 -0.08593468
0.17966957 -0.19968224 -0.08867131 -0.34828424 -0.33993417 -0.10279417 -0.30160436 0.0043228134
0.14736481 -0.068460494 0.16562802 -0.094551414 0.121526316 0.28504276 0.27743825 -0.20873716
0.25735983 0.39690745 -0.14636052 0.37384748 0.14486203 -0.115875416 0.02446989 -0.19744368
0.19701564 0.044695072 0.07776954 0.14868706 -0.09391272 0.011867646 -0.2005824 0.25559947
-0.3120729 0.14239518 0.2392849 0.052668255 0.1796432 -0.1336434 0.2540848 0.04776372
-0.17831367 -0.004726686 0.26193058 0.024640005 0.15732752 0.26807877 -0.03395688 -0.14993568
0.014284501 -0.1189831 0.017952168 0.17850114 -0.24354233 0.20092182 -0.29741088 0.09228112
-0.06861048 0.2191944 0.021629507 -0.08903065 0.22026818 -0.045902036 0.31621423 -0.1151189
0.13060614 0.22395992 -0.105439715 -0.085398 0.24948849 0.23473527 -0.11096481 -0.07575191
0.32700056 -0.056772638 -0.011364304 0.24852854 0.19785737 0.14078012 0.16337565 -0.11958444
0.08724 -0.030070202 -0.14698052 0.07556758 -0.27210763 -0.07051018 -0.28965783 -0.033408824
-0.33278954 0.30499965 -0.18705592 -0.04062137 0.08577248 -0.1425833 -0.22924191 -0.3161598
-0.27342683 0.00042783495 -0.15595333 -0.21617045 -0.19643448 0.17889701 0.36900917 -0.058678426

j_m_linear.0.bias f4 [32]
00000000: b827 93be 7796 733e 2b83 3f3e ca3f a7be
00000010: 2c94 82be a872 97bd 2c1b 3d3e a962 2e3e
00000020: 92e3 1a3d 1228 143e 6a10 4e3e 5bde 15be
00000030: 6c61 6dbe d5b2 95be e625 873e ae9e 973d
00000040: 01a5 bdbd 6752 9c3d ffef a63e 6f13 073d
00000050: 3423 b53d 57c7 513d 0bb6 393d ca60 e83d
00000060: 769e 7b3e c4a6 fbbd 5f31 083e 6cc2 7bbe
00000070: 3c61 363e d4ab 97bb 971f 273e c402 723e
-0.2874124 0.23787867 0.1870238 -0.32665855 -0.2550367 -0.07394916 0.18467396 0.17029823
0.037814684 0.1446841 0.20123449 -0.14635603 -0.23181695 -0.29238 0.26396102 0.074033126
-0.092599876 0.076329045 0.32604977 0.032977518 0.08844605 0.051215496 0.045339625 0.11346586
0.24572167 -0.122876674 0.13300084 -0.24585885 0.1781053 -0.004628638 0.16320644 0.23633868

j_m_linear.2.weight f4 [64, 32]
00000000: 2636 b43b 47cd 043d 3b16 f63c 231a 5abe
00000010: 099a f1bd 0121 c73c 6523 2a3e 4062 843d
00000020: 8f12 103d eaa5 46bd 7cde a73d 5fc7 febd
00000030: f7c8 7cbd 7a28 163c 7cff 6bbd 8715 923b
00000040: e252 3ebe 9c68 553e 9cc0 483e 593c cdbd
00000050: 103b 583d 1841 95bd 98ff d6bd b5cb c1bd
00000060: 637e 893d 1a84 a43d b640 f33d 0aee d73d
00000070: 7bca 01bc 277e e33d fcf1 a1bd e262 8a3c
00000080: 0292 eb3c 07ad 4a3e 6499 c63d c64b 5dbd
00000090: f215 19be 5599 923d 004f 523e dcdb 6d3d
000000a0: efa4 2ebe cbbc 3c3d 680c a6bd f53e 9c3d
000000b0: 11e5 8c3d f535 fbbd d25a 9a3d 221f e6bd
000000c0: 7597 1f3d 26b3 4b3c 5451 413d bb11 32bd
000000d0: f15c 11be 6541 dd3d b030 083e 07c4 0cbe
000000e0: 26ea c23d 5ff0 77be 949e 073c cec9 b3bd
000000f0: c968 c53c 89cd 86be 32c4 863d 58c2 213e
00000100: 9afb 813d ae38 823d 422e 8d3b 8196 c7bb
00000110: 07cd d23d 7a22 1d3e 279f 093e d2f0 413c
00000120: f26e f83d 9845 3cbd f50e cebd 2051 023e
00000130: b894 ba3d ef4e 3abe ca03 44bd 5fcf 0d3e
00000140: c526 60bd 7248 8abd 61ad 8fbd d2bd e33d
00000150: c673 c8bd 9a2b e1bd 922c c53d b3fc 043e
00000160: 0ca8 f0bd e427 283d e92b b83d 9842 a43d
00000170: cf2b 633d 8d57 cc3d 0759 883d 8f9a 88bd
00000180: 124a 623d 9f25 3b3e 2eb2 08bd dc00 f63c
00000190: 972c 9d3d efed 51be d63e 8fbd 335c bf3d
000001a0: a767 85bd cc92 b2bd a5ab cabd 4373 05be
000001b0: d955 12be 88ce 66bb 3f00 76bd 5f82 043e
000001c0: cd0f 81bd 15c3 533d 0af0 433d 5f35 27be
000001d0: 8ad3 153d 9441 6a3e a749 26be 075f 97bd
000001e0: e451 56bd 23e5 263e f269 f3bd 32e9 ddbd
000001f0: 47a1 5dbd b6b8 e13d 6000 62bd 576f b1bd
00000200: f47e f1bc 4e9d 483e 1633 1f3e e65e 963c
00000210: a2c4 c9bd e11e d0bd fe4d 05be a9f7 cfbd
00000220: d871 d03d 3cf2 b83d 9ca1 0b3e a226 4fbd
00000230: af1b 943d 7e65 f3bd 3851 a43c b13b 4cbd
00000240: 96f3 c13d 117e 17be cc34 dc3d 410b 72bd
00000250: aaa4 d3bb 8726 bc3d 2355 a83d b43a 9fbd
00000260: 9d61 2e3e 7677 113e 32da 823b 50f8 f43d
00000270: 93a6 0e3e 6cb9 023e 8fcf a73d 1b61 423e
00000280: e763 15bd d0a4 b6bd 13f5 6abc db5b 003e
00000290: 8f05 cdbd 7b88 353e 1db9 e73b f912 3fbd
000002a0: d5d6 903d c6f4 713d f84d 00bd b2c2 13bd
000002b0: 8c9e 263e feb1 4abd 4961 23be 368d ebbd
000002c0: d18e 333e 92f3 8a3d 01f1 55bd 8598 c73d
000002d0: e2eb cfbd 0b05 babd 0876 083e 1f38 dc3d
000002e0: 3538 a23b e2dc 073e ce4a e9bd 05f2 15bc
000002f0: 2d65 c23c c68a 83bd 07a5 37be 4184 4bbe
00000300: e701 d23d 0e4d dbbd d84c 2bbd b08b cf3d
00000310: 5556 2b3e 5503 443c 3824 81bd 837c 5fbe
00000320: 4cdb cb3a 5148 5f3d 51d6 fcbb bac9 9dbd
00000330: 1d57 b63d e9e8 acbd db3f 3fbe f4e5 f63d
00000340: bfa8 0f3d 716b 033e f697 95bd a0bc 023d
00000350: 9a8a 48be 5a07 5f3c af63 03be 9bb7 e4bd
00000360: 57f1 19be 1419 81bd f42e 223d 7ecb df3d
00000370: c9ce b03d 4d9b 2f3e 26b9 fabc f166 9f3d
00000380: 98f9 56be ca09 7cbc f7a9 3b3d eee7 df3d
00000390: 0c28 2b3e 6e1f afbd 9c29 593e a4d4 293e
000003a0: fe92 febd 91ee d63d b3f3 8fbd 60c9 d9bd
000003b0: 8042 13bb e3db e5bd 644b 4c3e a8c3 22be
000003c0: 00b7 5e3c ff1b 093e 5604 42bd 6ca1 a73d
000003d0: b268 a23d 9472 ccbc 70e5 ee3d b2a9 463d
000003e0: b435 1e3e 7b3c 4bbe de78 953d 6077 15bd
000003f0: 613e 9c3d 5f6a bdbd 3fb2 70bd bf1d 273e
0.005499619 0.03242233 0.030039897 -0.21299033 -0.11796958 0.02430773 0.16615064 0.06464052
0.03517395 -0.04849807 0.081967324 -0.12440371 -0.061715093 0.009164924 -0.057616696 0.0044581327
-0.18586305 0.20840687 0.19604725 -0.10021276 0.0527907 -0.07287806 -0.104979694 -0.09462682
0.067135595 0.08033009 0.11877577 0.10543449 -0.00792181 0.11108046 -0.07907483 0.016892854
0.028756145 0.19792567 0.09697226 -0.05402734 -0.14949778 0.07158152 0.20537949 0.058071002
-0.17055105 0.046078485 -0.08107835 0.076291956 0.068796284 -0.12266151 0.07536854 -0.11236407
0.0389628 0.012432849 0.0471967 -0.04347394 -0.1419561 0.10803489 0.13299823 -0.13746653
0.095173165 -0.24212788 0.008277554 -0.087787256 0.024097817 -0.26328686 0.0658039 0.15796793
0.06346817 0.06358467 0.004308493 -0.0060909395 0.10293012 0.15345183 0.13439618 0.011837201
0.12130536 -0.045964807 -0.100614466 0.12726259 0.09110397 -0.18194173 -0.047855176 0.13848637
-0.054724474 -0.06752099 -0.07015491 0.1112019 -0.09787707 -0.109946445 0.09627642 0.12987022
-0.117508024 0.041053668 0.0899275 0.08020514 0.0554617 0.099776365 0.066576056 -0.06670105
0.05524642 0.1827607 -0.03337305 0.030029707 0.076745205 -0.2050092 -0.06994407 0.093437575
-0.06513911 -0.087194055 -0.0989602 -0.1303225 -0.14290561 -0.0035218317 -0.06005883 0.12940358
-0.06301842 0.051699717 0.04783634 -0.16328953 0.036578692 0.22876579 -0.16239034 -0.07391172
-0.05232419 0.16298346 -0.11885442 -0.10835494 -0.054108884 0.11021559 -0.05517614 -0.086638145
-0.029479481 0.19591257 0.15546831 0.018355798 -0.09851958 -0.1016214 -0.13018033 -0.10154659
0.10177964 0.090305775 0.13635868 -0.050573952 0.07231843 -0.118845925 0.02005826 -0.049861614
0.094702885 -0.14794184 0.10752258 -0.059092764 -0.0064588385 0.09187036 0.082193635 -0.077748686
0.17029424 0.14205727 0.003993296 0.11961424 0.1393073 0.12766045 0.081938855 0.18982355
-0.036472227 -0.08918154 -0.014340657 0.1253504 -0.10010826 0.17727844 0.007071628 -0.046648953
0.07072226 0.059071325 -0.031324357 -0.036074348 0.16271418 -0.049486153 -0.1595508 -0.11501543
0.17534949 0.067847386 -0.052231792 0.09745888 -0.10152413 -0.09082993 0.13326275 0.10752892
0.004950548 0.13267854 -0.11391221 -0.00915194 0.023729885 -0.06422953 -0.17934047 -0.1987467
0.10254269 -0.107080564 -0.04182133 0.10134065 0.16732152 0.011963685 -0.06305736 -0.21824841
0.0015553026 0.054512326 -0.007715978 -0.07704492 0.08903334 -0.084428616 -0.18676703 0.12055579
0.03507304 0.12833954 -0.07304375 0.031918168 -0.19584122 0.013612593 -0.12830995 -0.111678325
-0.1503347 -0.063036114 0.03959556 0.10927485 0.08633191 0.17149086 -0.030605864 0.077833064
-0.2099365 -0.015383193 0.045816388 0.10932909 0.16714495 -0.085509166 0.21207279 0.16585022
-0.1243038 0.10494722 -0.07028904 -0.10634112 -0.0022470057 -0.11223581 0.19950634 -0.1589495
0.013593435 0.13389586 -0.047367416 0.08185086 0.07930125 -0.024956979 0.116648555 0.048501678
0.15450174 -0.1984729 0.07298444 -0.036490798 0.07629085 -0.09248804 -0.05876374 0.16319941

j_m_linear.2.bias f4 [64]
00000000: 756f f43d 85fb c13d 7fdd a9bd ca0a 0bbd
00000010: d403 6cbc 0a1e 03be 0401 17be c02a bf3d
00000020: dda6 a2bc d9d0 003e 68a8 383d 7e9f 603c
00000030: 1db1 8b3d 33cb c8bd d001 4dbe b81e 0f3e
00000040: 123c 363d 0408 f9bd deaf 68be 6b6f 813d
00000050: af0d 213e 3860 6e3b 68bf e83d 9d9b 36bd
00000060: f97e 63be c423 583e a107 46bd 80ad 04be
00000070: 0c78 43bd b44a a23b 0c3c 49ba 5f40 cd3d
00000080: 0e94 623e 0da5 38bd 1ea7 783d cc7c 30be
00000090: 4a22 8abd 7eb3 60be 8c7e e73d 10ff ef3d
000000a0: 448c 073e b4f8 463e d167 3a3e 088f 33be
000000b0: ce32 f2bd 1695 16be 19f9 5a3d 0095 15bd
000000c0: e42c e73d 99a1 34bd 9849 df3d 5528 073e
000000d0: 1d1a 29be bbfa 213e 3ded 083e 1f43 02be
000000e0: 40d9 cebd b813 05be 295f bc3b 5ab2 42bd
000000f0: b84c 40bd f4d7 51bd f9d7 533d 43f9 233e
0.11935321 0.09471802 -0.082942 -0.033945836 -0.01440521 -0.12804428 -0.14746481 0.09334326
-0.019854957 0.12579669 0.04508248 0.013709901 0.06820891 -0.09804382 -0.20020223 0.13976562
0.04449088 -0.12159732 -0.22723338 0.063200794 0.15727876 0.0036373269 0.11364633 -0.044582
-0.22216405 0.21107394 -0.04834712 -0.1295681 -0.047721907 0.004952753 -0.0007676489 0.100220434
0.22126791 -0.04507928 0.06070625 -0.17235106 -0.06744821 -0.21943471 0.11303434 0.11718571
0.13237101 0.1943081 0.18203665 -0.17535031 -0.118260965 -0.1470531 0.053460214 -0.03651905
0.11287859 -0.044099424 0.10902709 0.13198979 -0.16513868 0.15818302 0.13371749 -0.12720917
-0.10100031 -0.12995803 0.0057486487 -0.04753337 -0.046948165 -0.05123134 0.05171964 0.16013055

A_net.weight f4 [11, 64]
00000000: 3802 db3d 92f5 fc3c 620a 0fbd 643c c53c
00000010: c820 18bc 385f d93d e7aa 883d 353c 983c
00000020: 2857 e73c d7ab 713d bfe8 cb3d 9d5a ad3c
00000030: 7359 efbc ca43 233c 1224 9f3c 4d8d b8bd
00000040: d1dd 553d 9b09 46bd 3434 f6bd e248 99bd
00000050: 3821 aabd f7c8 b63d 7d5c e3bc 09c9 c9bd
00000060: 5901 193c 0c60 023e 72ea 61bd 25bd 00be
00000070: 7e0c 323c b189 043d cbeb b2bd dfef 5abd
00000080: 383b f7bd 5815 2abc 4265 833d 4644 a23d
00000090: e39d 6fbd 350b a53d 2752 cbbc 6e83 cf3d
000000a0: 0f4a 32bd 5a51 043d 0c2a b33d c32b c53c
000000b0: b4cd 37bd 1098 bf3d 7233 003d 61e0 a83d
000000c0: f300 a5bd 69f7 473d 2657 86bd d38c 47bd
000000d0: 2b4b fd3c 7402 85bd 633e cc3d dde3 e8bd
000000e0: aab9 3d3d ee24 ce3d 358b ecbc a7de 9dbc
000000f0: 29cf 913d 02cb 96bc a5ae fabd 95f4 6bbd
00000100: 72d1 c2bd 9cfe 1c3e 91b9 163e 7bd2 4f3d
00000110: e5a2 9bbd 5428 febd c2da 543d e231 c63d
00000120: f96e d8bd d720 123d cee9 c0bc 5024 693d
00000130: 9bda 233b 37ae ae3d 1be5 36bb 0bad 80bd
00000140: b40e 0fbe 8102 2cbd 6b53 23be 1f1f bfbd
00000150: 4414 90bb 756d 9fbd d6c7 b4bd 1eb7 d6bd
00000160: 2a5d 63bd 660b e2bc 0b13 a13d 93c6 b23c
00000170: 068a 11be 6877 e4bc 8f00 e7bd 7a67 5c3d
00000180: 5f5c 3f3d 349a e23d 7bfe 86bd 17e9 18be
00000190: 9a38 07be bce3 b5bd b898 a03c 7902 12bd
000001a0: db68 f83d 4701 9a3b 8879 603d 67c4 16bd
000001b0: af85 86bc 3ac3 87bd aa78 043d cc02 9d3d
000001c0: 1b9d c73b 3cbd 6fbc 8e00 f93d 8597 e8bd
000001d0: 9f20 313d 14c5 36be 81dd 313d 1466 94bd
000001e0: 9dc4 953d 1f92 a0bb 02fe 80bd f50e 1fbe
000001f0: fbdb a23c 2b7b 4c3d a0cf 08bc 85db c73d
00000200: 9484 9d3d 601d dcbd 5e57 9d3d b6d2 d13d
00000210: ca15 603d 0abe 563d 6415 823d 5b2d 6d3c
00000220: beed f9bc fd78 133d 6c39 d23d 9870 82bd
00000230: de2f 8fbd b50e cb3d b17f 3c3a 0f01 babd
00000240: 098b cdbd 2631 523d 0046 d43d 23ad 3e3d
00000250: dcf2 c8bb cbc3 a43d 43c5 5dbc 4b33 aebd
00000260: 7c27 adbb 714b ffbd acdc b03d 3d37 70bd
00000270: 40da 753d 8e01 31bd 5d8a ed3d 44e1 c43c
00000280: ee4d 6b3d f59c 49bd 5aeb 8f3d 17f3 d33c
00000290: c0ed 52bd 821b 9fbd 61e9 0b3d 1ea9 11be
000002a0: acff 37bd c7b4 583d a47c 983b 0359 c8bc
000002b0: 0f57 e93d f53e 9eba a3e9 18bd 22ad e7bc
000002c0: 7e75 0a3d 3dcc 3dbd 8ea7 2b3d 64aa 5b3c
000002d0: f4d9 d7bd db85 423d 20a1 48bd 3a11 3e3d
000002e0: 255b f23c 78b3 8fbc 9b48 81bd 9ab4 89bd
000002f0: cfa3 96bd a09f 103e 0a46 19bd 98f9 04be
00000300: 42b9 dc3d c064 293d ac32 01bd 1d87 853d
00000310: 2134 3dbb fc1b 023a 35e3 a73d 9dae 543c
00000320: 1d61 393d b3ba 35bd 70a7 54b8 e613 953c
00000330: 9ca5 e33c 4c2a aa3d 0380 bb3c a794 843d
00000340: be63 2ebd abde a03d 19f1 a13d bfb9 15bd
00000350: f833 953d 5bcf 8fbd 57bd 023d fbdc dc3c
00000360: b96a 653d 2a29 d0bc ab34 d23d f3a9 ac3d
00000370: 2af1 ffbc 7af4 41bd 0635 ed3c f100 6fbc
00000380: d009 01bd bf75 a73d cd98 bebc d62e 35bc
00000390: c789 9c3d 0f78 273d 9558 f4bb 7329 583d
000003a0: 7368 22bd 19a9 983c 15c2 0c3d 2d7a 5dbd
000003b0: acfe ec3d 01b1 043e 9180 e9bd 7190 0a3d
000003c0: 72eb d8bc f548 093d 7812 d8bd 98fd 5ebd
000003d0: 929e 1c3d 3464 e33c 89fa 9dbd 43a7 c33d
000003e0: 97b1 093e 1593 743c 0e84 553d 4b97 403d
000003f0: f1e0 8f3d f90b d93d 0dce 963d 3945 f73c
0.106937826 0.030878816 -0.03492201 0.024076648 -0.009285159 0.10613865 0.06673222 0.018583396
0.028239802 0.05900177 0.09956502 0.021161372 -0.029217457 0.009964893 0.01942638 -0.09011326
0.052213494 -0.048349004 -0.12021676 -0.074846044 -0.08307117 0.0892505 -0.027754063 -0.098527975
0.0093387 0.12731951 -0.055155225 -0.12572153 0.010867236 0.032357875 -0.0873638 -0.053451415
-0.12071842 -0.010381065 0.06415798 0.079231784 -0.058500182 0.08058778 -0.024819447 0.1013249
-0.04352766 0.032304145 0.08748254 0.024068719 -0.04487391 0.093551755 0.031299062 0.08245922
-0.08056822 0.048819933 -0.06559591 -0.048718285 0.030919632 -0.064946085 0.09972837 -0.113715865
0.04631964 0.100656375 -0.028874973 -0.019271208 0.07119591 -0.018407349 -0.12240342 -0.0576063
-0.09512605 0.15331501 0.14719225 0.05073784 -0.07599429 -0.12410036 0.051966436 0.09677483
-0.10568041 0.03567585 -0.023548987 0.056919396 0.0025002125 0.085293226 -0.0027907554 -0.06283005
-0.13970453 -0.041994575 -0.1594979 -0.09332108 -0.004396947 -0.07784549 -0.08827178 -0.104841456
-0.05550877 -0.027593326 0.0786496 0.021823203 -0.14212808 -0.027888969 -0.112794034 0.05380962
0.04671895 0.11064568 -0.06591507 -0.14932667 -0.13205186 -0.088813275 0.019604072 -0.03564689
0.121293746 0.0046998593 0.0548034 -0.036808398 -0.016421167 -0.066290334 0.032341637 0.07666549
0.0060917265 -0.014632519 0.12158309 -0.11357025 0.043244 -0.17848617 0.043424133 -0.07246032
0.07312892 -0.0049002315 -0.06298448 -0.1553305 0.019880285 0.04992215 -0.008350283 0.09758667
0.07691303 -0.1074779 0.076826796 0.10245268 0.05470828 0.05242733 0.06351736 0.014476146
-0.030508872 0.036004055 0.102648586 -0.06369132 -0.06991552 0.099149145 0.00071906584 -0.09082233
-0.100362845 0.051316403 0.10364914 0.046551835 -0.0061324667 0.08045157 -0.0135358 -0.08505877
-0.005284248 -0.12465561 0.0863584 -0.05864643 0.060022593 -0.043214373 0.11598656 0.024033196
0.057447366 -0.04922195 0.070273116 0.02587275 -0.051496267 -0.077689186 0.034158114 -0.1422467
-0.044921562 0.052906778 0.00465353 -0.024456507 0.11393558 -0.0012073206 -0.03733219 -0.028280798
0.033803456 -0.046337355 0.04190784 0.0134073235 -0.10539618 0.047490936 -0.048981786 0.046403147
0.029584477 -0.017541632 -0.063126765 -0.067239 -0.07355463 0.14123392 -0.03742031 -0.12985837
0.107775226 0.04135585 -0.031542465 0.065199114 -0.0028870183 0.00049632764 0.08197633 0.012981084
0.04525863 -0.044367503 -5.0700677e-05 0.018197965 0.02778893 0.08308849 0.02288819 0.06473666
-0.04257559 0.078549705 0.07907314 -0.036554094 0.07285303 -0.07021972 0.03191885 0.02696084
0.05600998 -0.025410254 0.10263952 0.08430853 -0.031242926 -0.04735229 0.028955948 -0.014587627
-0.0315035 0.08176755 -0.02326622 -0.01105853 0.076434664 0.04088598 -0.007456849 0.052773904
-0.03965039 0.01863532 0.03436478 -0.054071594 0.11572012 0.12958147 -0.11401475 0.033829156
-0.026479457 0.033516843 -0.10550398 -0.054441065 0.038237162 0.027757742 -0.077138014 0.09553387
0.13446651 0.014927645 0.05212789 0.047019284 0.07025326 0.10597987 0.0736352 0.030184375

A_net.bias f4 [11]
00000000: f134 313d 609f b93d e806 8b3c 3ddb 37bd
00000010: 8943 04bd 8fdb a13d 610b 02bc 3063 d5bd
00000020: 9fba be3d 0e61 993d 7e50 b7bd
0.04326338 0.090636015 0.016971067 -0.044886816 -0.03229097 0.079032056 -0.007937283 -0.10419309
0.09312939 0.07489215 -0.089508995

V_net.weight f4 [1, 64]
00000000: 7cea 243e 7427 733d 2131 953d 2cc1 d83c
00000010: 6aed 9a3d e8ef 37be 05ff 47be 4dd3 4d3e
00000020: 78a5 ebbd f2cd 1e3d 2c68 16be 1f4f f13c
00000030: 87eb c8bd d835 e8bd 569f 46be 47f9 20bd
00000040: aa4e e0bd da03 443d 857e 9abd 41fa 5a3c
00000050: 5ead 113e 7337 25be 95b1 8abd f497 11be
00000060: 8dd9 a6bd cc7a 4f3e e91e cf3d b219 b5bd
00000070: 63e2 9d3c 4883 563d 44ce 863b 5e1d 8cbd
00000080: fbcf 983d 9cd5 a2bd 687e af3d aab1 28be
00000090: ab22 5ebd 803f d5bd 0647 3e3e d0a6 563d
000000a0: a65a 0b3e ce17 143e 0052 663d b532 abbd
000000b0: 071b 18be a683 d6bd 6a4c 31be 53d1 34be
000000c0: f75f bcbd cf41 d7bd fbca bb3d 81cf b73c
000000d0: 9d84 16be 78fd 0abe 759c 3b3d e774 acbd
000000e0: 39c9 a53d e6e2 2ebe dbee b3bd d3f1 1ebe
000000f0: 087f 00be 0868 103d ec85 873d bfa5 1a3e
0.16105074 0.059363797 0.07284761 0.026459299 0.075648144 -0.1796261 -0.19530876 0.20100136
-0.1150617 0.038770624 -0.14688176 0.029456673 -0.09810548 -0.11338395 -0.1939672 -0.03930023
-0.10952504 0.047855236 -0.07543663 0.013365329 0.1422629 -0.16134433 -0.06772152 -0.14218122
-0.08146963 0.20261687 0.101133175 -0.088427916 0.019272989 0.052371293 0.0041139442 -0.06841539
0.07461544 -0.07950899 0.08569032 -0.16474023 -0.05423228 -0.10412502 0.18581781 0.05240518
0.13608798 0.14462206 0.056230545 -0.08359281 -0.1485406 -0.10474329 -0.17314306 -0.17657976
-0.09197991 -0.10510599 0.09169575 0.022437813 -0.14699025 -0.13573253 0.045803506 -0.08420735
0.08095021 -0.17078742 -0.087857924 -0.15521936 -0.12548459 0.035255462 0.066173404 0.1510229
