models/ppo_model_10_20_10_RL_best_u_m.pth (torch, 178666 bytes, 18 tensors)

linear.1.weight f4 [64, 30]
0	0x3cb55cfd	0.022139067
1	0x3dd7efd6	0.10543792
2	0xbdf9fc02	-0.1220627
3	0xbdb2e97d	-0.087359406
4	0x3c120584	0.008912448
5	0x3ded1eac	0.11578116
6	0x3cd2546d	0.025675023
7	0x3d0de336	0.034640513
8	0xbcb06cb4	-0.021536209
9	0x3e3059e7	0.17221795
10	0x3e15ddf9	0.14635457
11	0xbdd2ea69	-0.102986164
12	0xbde9ff4b	-0.114256464
13	0x3e186b4b	0.14884679
14	0x3c9cc4bf	0.019136785
15	0x3bc38bc9	0.0059675914
16	0x3dad9f60	0.08477664
17	0xbe0ebbef	-0.13938878
18	0x3e28c8ca	0.16482845
19	0x3df72650	0.120678544
20	0xbbb09a18	-0.005389463
21	0x3e4677e2	0.19381669
22	0x3d72598f	0.05916744
23	0x3bcc06a2	0.0062263766
24	0x3d4861b3	0.0489213
25	0x3c50d653	0.012746411
26	0x3d3e589b	0.04647122
27	0xbe22b2c9	-0.15888514
28	0x3e235f6a	0.15954366
29	0x3d07daa0	0.03316748
30	0x3d714e42	0.058912523
31	0x3e2cb8d3	0.1686738
32	0x3e24ffdb	0.16113226
33	0xbdd5f68f	-0.10447418
34	0xbda745e8	-0.081676304
35	0x3e338518	0.1753124
36	0x3e004ca7	0.1252924
37	0x3e18c632	0.14919356
38	0xbe04c8f3	-0.12967281
39	0x3dbb27c8	0.09138447
40	0xbe19cff9	-0.15020742
41	0xbda1283a	-0.07869001
42	0x3e380b86	0.17973146
43	0x3d765cd8	0.060147136
44	0xbdd921e2	-0.10602166
45	0x3d6f0fad	0.05836456
46	0xbdcace90	-0.0990268
47	0x3da8cb53	0.08241906
48	0x3e30174f	0.17196392
49	0xbe00d805	-0.12582405
50	0x3dcbe7b2	0.09956302
51	0xbe53a646	-0.20668897
52	0x3d96d786	0.073653266
53	0x3e00c72f	0.12575983
54	0xbbcc774f	-0.0062398086
55	0xbc9566d8	-0.018237516
56	0x3de9449b	0.113900386
57	0x3dc5f8f7	0.09666627
58	0x3a64d290	0.0008728886
59	0xbe26f48f	-0.16304229
60	0x3d117239	0.03550932
61	0xbdef0d6b	-0.11672481
62	0xbb4e75a0	-0.0031503215
63	0x3bf28911	0.0074015935
64	0x3e02da11	0.12778498
65	0x3de75aff	0.11296653
66	0xbe0803b1	-0.13282658
67	0xbd9d47e7	-0.0767973
68	0x3df7e0c0	0.121034145
69	0x3e04d9ef	0.1297376
70	0x3ce7da8c	0.028302453
71	0xbd4ea4fe	-0.050450318
72	0x3e332498	0.17494428
73	0xbd5f7550	-0.054555237
74	0x3e3bc13b	0.1833543
75	0x3bce5375	0.00629657
76	0x3e2dc257	0.16968666
77	0x3e484f17	0.1956142
78	0x3e1899d2	0.14902428
79	0xbd134fae	-0.03596466
80	0x3c9f37bd	0.019435758
81	0xbe172fc8	-0.14764321
82	0x3dbb51cb	0.0914646
83	0xbdda87c2	-0.10670425
84	0x3e058cb3	0.13041954
85	0x3e1bc86b	0.15213172
86	0xbe043596	-0.12911066
87	0xbe19fb41	-0.15037252
88	0x3d82d279	0.06387801
89	0x3e07e73d	0.13271804
90	0xbe2a488e	-0.1662924
91	0xbd83cca4	-0.064355165
92	0xbc6ec3f1	-0.014573083
93	0xbe21d1a9	-0.15802635
94	0x3dda7f6a	0.106688336
95	0x3db2c0c8	0.08728176
96	0xbe0f133a	-0.13972178
97	0xbd976206	-0.07391743
98	0x3dd650cf	0.10464632
99	0x3e12bb0a	0.14329162
100	0x3dd8a7a1	0.10578848
101	0x3e03d371	0.12873627
102	0x3dc90b5b	0.09816619
103	0x3da49c41	0.080376156
104	0x3c9c180d	0.019054437
105	0xbd66e5a7	-0.056371357
106	0x3d92f3c4	0.07175401
107	0x3e1527d5	0.14565976
108	0x3e325ed4	0.17418987
109	0xbcee5159	-0.029091524
110	0x3e40e7b9	0.18838395
111	0xbd64db15	-0.055872995
112	0x3e0c8fe3	0.13726763
113	0xbd0e18de	-0.034691684
114	0x3e27924c	0.16364402
115	0xbd524eb7	-0.0513446
116	0x3e1ddfd6	0.15417418
117	0xbbad4b2b	-0.0052885017
118	0xbda2b794	-0.07945171
119	0xbd769546	-0.060200952
120	0x3ea65d90	0.32493258
121	0x3d808f8b	0.06277379
122	0x3e3ae4c6	0.18251333
123	0xbdd49ead	-0.103818275
124	0x3cf04caf	0.02933344
125	0xbdfde6ff	-0.12397575
126	0x3e16d08d	0.14727993
127	0x3e506722	0.20351842
128	0xbde89683	-0.11356833
129	0x3e09fa47	0.1347438
130	0x3d694238	0.056947917
131	0x3d51b76e	0.051200323
132	0x3e8d5199	0.27601317
133	0x3e46f0a1	0.1942773
134	0xbe20a755	-0.15688832
135	0xbe3affd7	-0.18261658
136	0x3d20836c	0.039187834
137	0xbdfae34e	-0.12250386
138	0x3e70a418	0.23500097
139	0xbdd621e7	-0.10455685
140	0x3dfa5b8d	0.12224493
141	0x3dbfaa52	0.09358658
142	0xbe275f17	-0.16344868
143	0xbe2ee526	-0.170796
144	0x3e841ba7	0.25802347
145	0xbdc439fb	-0.095813714
146	0xbad37a95	-0.0016134555
147	0xbdf35461	-0.118813284
148	0x3e27690f	0.1634867
149	0xbe393605	-0.18087013
150	0x3e32c1e2	0.17456773
151	0x3caf4c36	0.021398645
152	0xbe0ac9e2	-0.13553575
153	0xbe0da7d2	-0.1383355
154	0x3e274be7	0.16337548
155	0x3e265f21	0.16247226
156	0x3cf17e25	0.029479096
157	0x3d573c80	0.05254793
158	0x3d1e7531	0.03868598
159	0xbdf616e0	-0.12016082
160	0xbd6df91a	-0.05809889
161	0xbde41c17	-0.1113817
162	0x3e063394	0.13105613
163	0xbe163792	-0.14669636
164	0x3dba398f	0.0909301
165	0x3ddcf40d	0.107887365
166	0xbb363cd1	-0.0027807245
167	0x3e0be1ff	0.1366043
168	0xbdab9d41	-0.08379603
169	0xbd643326	-0.05571284
170	0xbd38d4ab	-0.04512469
171	0xbe16cd8f	-0.14726852
172	0xbe12bd74	-0.14330083
173	0x3e36c675	0.17849143
174	0x3e1207e1	0.14260818
175	0x3d0f7147	0.03502014
176	0xbd978c71	-0.07399834
177	0x3d326e94	0.043562487
178	0xbe0ebcd6	-0.13939223
179	0x3ce79947	0.02827133
180	0x3d947374	0.072485834
181	0x3e4f554a	0.20247379
182	0xbe121be4	-0.14268452
183	0xbe44a4f6	-0.19203553
184	0xbd7f40b1	-0.062317554
185	0x3c0ab177	0.0084651625
186	0x3dddfac6	0.10838847
187	0x3e245c3f	0.16050814
188	0x3d8b43c5	0.068000354
189	0xbe1d62e0	-0.15369749
190	0xbd8c871a	-0.06861706
191	0x3e574845	0.21023662
192	0xbdb39521	-0.087686785
193	0x3e6fd3bc	0.23420614
194	0x3d3af577	0.04564425
195	0x3d949fd9	0.07257051
196	0xbe1e32b8	-0.15449035
197	0x3cf549a8	0.029942349
198	0x3dc682ba	0.09692903
199	0x3cc0c1df	0.023529945
200	0xbaa631d6	-0.0012679647
201	0x3da84139	0.08215565
202	0x3da49ac6	0.08037333
203	0xbdf9a1ea	-0.12189086
204	0x3bdf4fa9	0.006814916
205	0xbdc67b51	-0.096914895
206	0xbd08d854	-0.03340943
207	0xbda58f23	-0.08083942
208	0xbe10cda1	-0.14140941
209	0xbdf28260	-0.11841273
210	0x3e5be8de	0.2147555
211	0xbdabd6b8	-0.08390564
212	0x3ce8c520	0.028414309
213	0x3e0f324f	0.13984035
214	0xbdfdf74b	-0.12400683
215	0x3e34fdb4	0.17674905
216	0x3e3879ff	0.18015288
217	0xbdf4be31	-0.11950339
218	0xbbdfeb78	-0.00683349
219	0xbd5d6bbb	-0.054057818
220	0xbe333801	-0.17501833
221	0xbdce6103	-0.10077097
222	0x3d4f198d	0.050561476
223	0xbe10858f	-0.14113449
224	0xbe1c5dbe	-0.15270135
225	0xbd9627b6	-0.07331793
226	0xbdcbdc80	-0.099541664
227	0x3de8ace7	0.113611035
228	0x3df6d7ea	0.12052901
229	0xbd842e77	-0.06454175
230	0x3d7ee80c	0.062233016
231	0xbc434837	-0.011919073
232	0x3dfd8694	0.12379184
233	0xbe081484	-0.13289076
234	0x3df6f045	0.120575465
235	0x3cb2b937	0.021816833
236	0x3d45025c	0.048097953
237	0xbdca8e7f	-0.0989046
238	0x3d6f01a1	0.058351163
239	0x3d739f05	0.059477825
240	0xbe1ab1f7	-0.1510695
241	0xbdbc72cc	-0.09201583
242	0xbb9092d2	-0.0044120336
243	0xbe4be1e3	-0.19910388
244	0x3d449214	0.047990873
245	0x3ddacc11	0.10683454
246	0xbd782036	-0.060577594
247	0x3dce735b	0.10080596
248	0xbaec8656	-0.0018045406
249	0x3dcd7632	0.100323096
250	0x3e251337	0.16120611
251	0xbc0194f8	-0.007909052
252	0x3d8047a3	0.062636636
253	0xbdf9eb26	-0.12203054
254	0xbe279dfc	-0.1636886
255	0x3e010592	0.12599781

linear.1.bias f4 [64]
0	0xbe247f9e	-0.16064307
1	0xbce15f72	-0.027511332
2	0x3c8c6215	0.017136613
3	0x3d5a9622	0.053365834
4	0x3e52a94d	0.20572396
5	0x3cb08f9d	0.021552855
6	0x3e4dff58	0.20116937
7	0xbd64c79a	-0.055854417
8	0xbdd00cc2	-0.10158683
9	0x3df044d8	0.11731881
10	0xbe3c938f	-0.18415664
11	0xb897ae32	-7.2326875e-05
12	0xbe16841e	-0.14698836
13	0xbdfb03e4	-0.122566015
14	0xbde97787	-0.11399751
15	0xbd7b5816	-0.061363302
16	0xbdeb7f71	-0.11498917
17	0x3de8c74e	0.11366139
18	0xbe046bb7	-0.12931715
19	0x3e03fc2a	0.12889162
20	0xbe07ab13	-0.13248853
21	0xbe0ddce0	-0.13853788
22	0x3e1d52d6	0.1536363
23	0x3d1e41f4	0.038637117
24	0x3dcf29d9	0.10115404
25	0x3c4ba050	0.012428358
26	0xbc83126f	-0.016
27	0x3d5c6804	0.053810135
28	0xbdb3acea	-0.08773215
29	0x3cf5ac98	0.029989526
30	0xbd6effa7	-0.058349278
31	0x3d7ef357	0.062243786
32	0x3bab4a0a	0.005227332
33	0xbc43fab0	-0.011961624
34	0xbcfc590c	-0.03080418
35	0xbc918242	-0.017762307
36	0x3e7c42e1	0.24634887
37	0xbe1dd706	-0.15414056
38	0xbbf209af	-0.0073864083
39	0x3d49c45f	0.04925954
40	0xbd56cc67	-0.052441027
41	0x3e4ca611	0.19985224
42	0xbda95d80	-0.08269787
43	0x3e0f19f1	0.1397474
44	0xbdfe8c81	-0.12429143
45	0x3e01dc92	0.12681797
46	0xbd696741	-0.056983236
47	0xbe2d36c7	-0.16915427
48	0x3e44f9a7	0.1923586
49	0xbe0a4e95	-0.13506539
50	0x3e28158d	0.16414471
51	0xbdd7e417	-0.105415516
52	0xbe0f2923	-0.13980536
53	0x3d9befa7	0.076140694
54	0xbdc8b6b0	-0.0980047
55	0xbe042bdc	-0.12907356
56	0x3e1fdf29	0.15612473
57	0x3c184d54	0.00929578
58	0xbded543c	-0.11588332
59	0x3e399b47	0.1812564
60	0x3d955dcd	0.07293282
61	0x3e3df56c	0.18550652
62	0xbd92fdb3	-0.071772955
63	0xbdf3a354	-0.11896387

linear.3.weight f4 [128, 64]
0	0xbd2d5929	-0.042321358
1	0x3dfc5b0a	0.12322052
2	0xbba2dbed	-0.004970065
3	0x3d6a709b	0.057236295
4	0x3d4b6b15	0.04966267
5	0x3c4dbcfa	0.012557263
6	0x3e14cca9	0.14531197
7	0xbd45db4f	-0.048304852
8	0x3dbf671a	0.09345837
9	0x3b44c228	0.0030022953
10	0xbd6a1123	-0.05714525
11	0xbe1dfbef	-0.15428136
12	0x3da9dd46	0.08294158
13	0xbe100c55	-0.14067204
14	0xbe0362be	-0.12830636
15	0x3d88ff50	0.06689322
16	0x3d45b170	0.04826492
17	0xbd0d3bbe	-0.034480803
18	0xbd83b5d2	-0.06431164
19	0xbdd3b676	-0.10337536
20	0xbd62ae22	-0.055341847
21	0xbe33fc39	-0.17576684
22	0xbdd82391	-0.10553659
23	0xbe054248	-0.13013566
24	0xbde651ba	-0.11246057
25	0x3d83faab	0.064442955
26	0xbe143d0f	-0.14476417
27	0x3d0d4a64	0.034494773
28	0xbcae9592	-0.021311555
29	0x3e096767	0.13418351
30	0x3c7d1248	0.015446253
31	0x3dbf7ea9	0.093503304
32	0x3dd3cb86	0.103415534
33	0x3bc136a2	0.0058964053
34	0xbbff5f45	-0.0077933394
35	0x3d840ff7	0.064483576
36	0x3e597b93	0.21238546
37	0x3d800f20	0.06252885
38	0xbe223f3a	-0.15844432
39	0x3ca408ac	0.020023666
40	0x3c2e34f3	0.010632741
41	0xbdaf14af	-0.08548867
42	0xbd6355f4	-0.055501893
43	0x3c476ac3	0.01217145
44	0x3e5c2260	0.21497488
45	0xbe52d127	-0.20587598
46	0x3d0a8348	0.033816606
47	0xbca461cc	-0.020066164
48	0x3e02644c	0.12733573
49	0xbd901d8e	-0.07036887
50	0xbd7406b6	-0.059576713
51	0xbe033748	-0.12814057
52	0xbcc44ff4	-0.023963906
53	0xbd3c4042	-0.04595972
54	0x3d334174	0.043763593
55	0x3d1ae3b0	0.037814796
56	0xbe0fc167	-0.14038621
57	0xbda0ae6d	-0.07845769
58	0x3db03d4b	0.08605441
59	0x3e2607b3	0.16213875
60	0x3dda610e	0.10663043
61	0xbe13c96a	-0.14432302
62	0xbda785ae	-0.08179794
63	0xbde8fa3e	-0.11375855
64	0xbe14f453	-0.14546327
65	0x3d5ff50f	0.054677065
66	0xbcbb4e0c	-0.022864364
67	0xbbc88228	-0.0061190315
68	0x3d2214f3	0.03957076
69	0x3dda59e6	0.10661678
70	0xbd13d3fa	-0.03609083
71	0x3d246132	0.040131755
72	0x3c9bae10	0.019003898
73	0x3dc3db13	0.095632695
74	0x3d8c55b2	0.068522826
75	0xbe1809de	-0.14847514
76	0xbc8c6c38	-0.017141446
77	0xbdd00bdc	-0.10158512
78	0xbd9a0792	-0.07520975
79	0xbd633e34	-0.055479243
80	0xbdd16c67	-0.10225754
81	0x3d9f05f5	0.07764808
82	0xbd0b9573	-0.034078073
83	0x3bd66e58	0.0065439157
84	0xbdd5abbc	-0.10433146
85	0xbde7e5bf	-0.113231175
86	0xbcb95883	-0.022625213
87	0xbe0e7c5b	-0.13914625
88	0x3ddcd84e	0.10783444
89	0x3d2742b6	0.040835105
90	0x3da0a191	0.07843316
91	0x3dc88b79	0.09792227
92	0x3d9df758	0.07713193
93	0xbd1b3713	-0.03789432
94	0x3d6e0e09	0.058118854
95	0x3d6b059a	0.05737839
96	0x3d88d89a	0.066819385
97	0x3d41eed0	0.04734689
98	0xbd0bd6fb	-0.03414057
99	0x3dcc73e7	0.09983044
100	0x3d6ad18d	0.05732875
101	0x3df14881	0.11781407
102	0xbe24bb8b	-0.16087167
103	0xbd620de7	-0.05518904
104	0xbdba0fbd	-0.09085033
105	0x3c8ea57d	0.017412895
106	0xbc69d46a	-0.014271835
107	0xbd55b522	-0.052174695
108	0x3da903f1	0.08252705
109	0xbc195736	-0.009359172
110	0x3e0eebdf	0.13957165
111	0xbdac0849	-0.08400018
112	0x3d3c8995	0.046029646
113	0x3ceafcf3	0.028685069
114	0x3d2c964b	0.042135518
115	0x3d3a77bc	0.045524344
116	0x3d2249a5	0.039621014
117	0xbb0057b0	-0.0019583516
118	0x3dcb53b8	0.099280775
119	0x3a31b78b	0.0006779364
120	0xbe131cc9	-0.1436645
121	0x3d06a777	0.03287455
122	0xbc66cb9a	-0.014086628
123	0x3df82a94	0.12117496
124	0xbdd12967	-0.10212975
125	0x3dbc6a83	0.09200003
126	0xbbd97738	-0.0066365264
127	0x3d3bc08c	0.045837924
128	0xbc8b610d	-0.01701405
129	0xbc269a40	-0.010168612
130	0xbd2a076a	-0.041510977
131	0x3d8f0c36	0.06984751
132	0x3e5c9e90	0.21544862
133	0xbd75b01f	-0.059982415
134	0x3de02db5	0.10946218
135	0xbcdc8727	-0.026919914
136	0x3d9157b6	0.07096808
137	0xbd9b0432	-0.075691596
138	0x3b2ffb61	0.0026852714
139	0xbd06df98	-0.03292808
140	0x3de8cbfa	0.113670304
141	0xbd6b34ff	-0.057423588
142	0x3d021722	0.031760342
143	0x3c3793af	0.011204644
144	0x3d8b56d8	0.068036735
145	0x3d8d284c	0.06892452
146	0x3dcc8ede	0.09988187
147	0x3d8ceff3	0.06881704
148	0x3deceadd	0.11568234
149	0xbd9c80f6	-0.07641785
150	0x3db82a9a	0.089925006
151	0x3d3a30be	0.04545664
152	0xbd2a87a2	-0.041633256
153	0x3d78c8da	0.060738422
154	0xbda04ea0	-0.078274965
155	0x3d05a611	0.032629076
156	0x3c446743	0.01198751
157	0x3d2ccf98	0.042190164
158	0x3e03546b	0.12825172
159	0xbced2ed4	-0.028952993
160	0xbdd727a8	-0.10505611
161	0x3d169324	0.036761418
162	0xbdaf6760	-0.08564639
163	0x3da51a38	0.080616415
164	0xbc9c14ce	-0.01905289
165	0x3deb1300	0.11478233
166	0xbe23c8e3	-0.15994601
167	0xbce31128	-0.027718142
168	0xbcd6448b	-0.02615573
169	0x3ae424f9	0.0017406038
170	0xbc0c848b	-0.008576523
171	0xbe01bb51	-0.12669112
172	0x3e03b846	0.12863263
173	0xbd18dc82	-0.037319668
174	0x3ca758c2	0.020428065
175	0xbd174411	-0.036930148
176	0xbcb5c709	-0.022189634
177	0x3d40510a	0.046952285
178	0x3c8e7270	0.017388552
179	0x3d9b035a	0.07568999
180	0x3cd296fc	0.02570676
181	0x3e01b3da	0.12666264
182	0x3d662a45	0.056192655
183	0xbd9ea099	-0.07745475
184	0x3cd705f5	0.026247958
185	0xbd3d8c95	-0.046276648
186	0x3c0879e9	0.008329847
187	0x3e209dc4	0.15685183
188	0x3d264908	0.04059699
189	0xbd98bd44	-0.074579746
190	0xbc82e51a	-0.015978385
191	0x3d954e05	0.07290272
192	0xbda881d7	-0.0822789
193	0x3d8f2b43	0.069906734
194	0xbde2d4bd	-0.11075733
195	0x3cd30036	0.025756937
196	0xbdb53904	-0.088487655
197	0x3defee50	0.117153764
198	0xbd585b84	-0.05282165
199	0xba002445	-0.0004888217
200	0x3e42434f	0.18970989
201	0xbbc6fb82	-0.0060724625
202	0x3d9940ee	0.074830875
203	0xbd5b5b1a	-0.053553678
204	0xbdf25d87	-0.11834245
205	0xbd86075b	-0.06544372
206	0xbe223f70	-0.15844512
207	0xbd3ea916	-0.04654797
208	0xbdbe8f21	-0.093046434
209	0xbcab7985	-0.020931968
210	0x3d4cca61	0.04999769
211	0x3d48c70f	0.049017962
212	0x3cc34966	0.02383871
213	0xbd4c83d3	-0.049930405
214	0x3d03c70d	0.03217225
215	0xbde61d51	-0.112360604
216	0xbd8465d4	-0.06464735
217	0x3d24c0d3	0.040222954
218	0x3de686cc	0.11256179
219	0x3db07c39	0.086174436
220	0xbc7370ff	-0.014858483
221	0xbc98faa6	-0.018674206
222	0xbcdb5f85	-0.026778946
223	0xbd96338f	-0.07334053
224	0x3d7af849	0.06127194
225	0x3dc5515a	0.09634657
226	0xbd69cebc	-0.057081923
227	0xbda2cd2a	-0.07949288
228	0x3e0b18ed	0.13583727
229	0x3d83acd6	0.0642945
230	0xbdff0068	-0.12451249
231	0x3dbd205b	0.09234687
232	0x3dc731a9	0.09726269
233	0xbd61788b	-0.0550466
234	0xbe072f33	-0.13201599
235	0xbdf5489a	-0.11976738
236	0x3d3dbb44	0.04632117
237	0x3be67f62	0.007034228
238	0xbcd70026	-0.026245188
239	0xbd9ef38b	-0.07761296
240	0x3d2c0a4c	0.042002007
241	0x3be780f2	0.007064932
242	0xbe02e6c8	-0.12783349
243	0xbbdf1403	-0.0068078055
244	0xbd946080	-0.072449684
245	0xbd4e703b	-0.0504
246	0xbe0aac5f	-0.13542317
247	0x3d5940eb	0.053040426
248	0xbd83cc6a	-0.06435473
249	0x3d61d6d0	0.0551365
250	0x3d9f7951	0.07786811
251	0x3c78720c	0.01516391
252	0x3dca0b61	0.098654516
253	0xbdc4d865	-0.096115865
254	0xbd9587ab	-0.07301267
255	0x3cf36ec5	0.029715905

linear.3.bias f4 [128]
0	0x3e09e816	0.1346744
1	0x3dd82f3e	0.10555886
2	0x3cc4905e	0.02399462
3	0xbdd830d8	-0.10556191
4	0x3d1e74fa	0.038685776
5	0xbccee204	-0.025254257
6	0xbd0604a0	-0.032719254
7	0xbe0fc552	-0.14040115
8	0xbd2b21e4	-0.041780367
9	0xbd2a4de3	-0.041578185
10	0xbde04bdc	-0.10951969
11	0xbd4886c0	-0.048956633
12	0x3c931d06	0.017958175
13	0x3c0080d8	0.007843219
14	0xbb20085d	-0.0024419047
15	0x3d8c9076	0.06863491
16	0x3c56766f	0.01308976
17	0xbdd26f3d	-0.10275123
18	0x3dbe0277	0.09277814
19	0x3db5d0f0	0.08877742
20	0xbd52c661	-0.05145872
21	0xbdb74809	-0.089492865
22	0x3cc5d3ce	0.024148848
23	0xbd8f4b70	-0.069968104
24	0x3d95c1de	0.07312368
25	0x3d64d850	0.055870354
26	0xbc68ada2	-0.014201554
27	0xbd9276d8	-0.07151574
28	0x3d04439b	0.032291036
29	0xbd961a7e	-0.07329272
30	0x3d03eac6	0.03220632
31	0xbd921928	-0.071337044
32	0xbd095591	-0.033528868
33	0xbdb78b27	-0.08962088
34	0x3dc1f3e6	0.09470348
35	0x3c934e5f	0.017981706
36	0xbda711f9	-0.08157725
37	0xbc1d4b07	-0.009600407
38	0xbce304ff	-0.027712343
39	0xbc5a7833	-0.013334322
40	0x3dce8e16	0.100856945
41	0x3dc223d5	0.09479491
42	0xbd8cbe56	-0.06872241
43	0x3d9c0b72	0.076193705
44	0x3e200fdb	0.15631048
45	0xbd89decd	-0.06731949
46	0x3ddda72b	0.108229004
47	0x3cae1a76	0.021252852
48	0xbdb0588a	-0.086106375
49	0x3d36ee79	0.04466102
50	0xbbf123d5	-0.007359008
51	0x3e1447e6	0.14480552
52	0xbd5ac4cc	-0.053410336
53	0xbb8fb003	-0.004384996
54	0xbcf4cb0d	-0.029881978
55	0x3da4ec5d	0.08052895
56	0x3e0a7be6	0.13523826
57	0xbdc17a31	-0.09447134
58	0x3e0726e5	0.13198431
59	0x3dbc2e73	0.09188547
60	0x3dd54266	0.10413055
61	0x3db0bdb5	0.08629934
62	0x3d912e80	0.07088947
63	0x3dec674a	0.11543138
64	0x3c03995e	0.008032171
65	0x3dcadf42	0.09905864
66	0x3d68ab90	0.05680424
67	0x3e1feb39	0.15617074
68	0xbcdfd254	-0.027321972
69	0x3dcc574d	0.09977589
70	0x3cdf6a34	0.027272321
71	0x3aa21aae	0.001236757
72	0x3d45a5a9	0.04825369
73	0xbdb77305	-0.08957485
74	0x3d0e6d8a	0.034772433
75	0xbcafb2aa	-0.021447498
76	0xbca06f82	-0.019584421
77	0x3d39fc85	0.045406837
78	0x3e16c859	0.14724864
79	0x3d0a50b2	0.033768363
80	0xbdca48ce	-0.09877168
81	0x3d81c1f4	0.06335822
82	0x3c9be738	0.019031152
83	0x3d4ede4c	0.050504968
84	0xbd95abc5	-0.07308153
85	0x3d84ddbe	0.064876065
86	0x3dae300f	0.0850526
87	0xbd8b44e2	-0.06800248
88	0x3d2c76d2	0.042105503
89	0x3d9c860c	0.07642755
90	0x3dc76e62	0.09737851
91	0x3d2ef6ed	0.042715956
92	0xbce52660	-0.0279724
93	0xbdcb1d09	-0.099176474
94	0xbd1260b9	-0.035736773
95	0xbda79deb	-0.08184417
96	0xbc282185	-0.010261898
97	0xbd7d8a0e	-0.061899237
98	0x3ddb30cc	0.10702667
99	0x3d86d7b4	0.06584111
100	0x3d9874ce	0.07444154
101	0x3e2d4164	0.16919476
102	0x3dd77e4e	0.105221376
103	0xbd7da930	-0.061928928
104	0xbdf2b75d	-0.1185138
105	0x3df2e324	0.1185973
106	0xbe0a66cd	-0.13515778
107	0x3d8dfb93	0.069327496
108	0x3bd6e604	0.0065581817
109	0xbd5e463a	-0.054266192
110	0xbc6991d1	-0.014255957
111	0xbd474739	-0.048651908
112	0x3dc95095	0.09829823
113	0x3dd9fe98	0.10644263
114	0x3ddc4a85	0.10756401
115	0x3da0cdae	0.0785173
116	0x3de69188	0.11258227
117	0xbd7735c8	-0.060354024
118	0xba409ca0	-0.00073475577
119	0x3dd7d9bf	0.10539579
120	0x3d61764a	0.05504445
121	0xbc89ca24	-0.016820021
122	0xbdc7aa12	-0.09749235
123	0xbda82fa4	-0.08212212
124	0x3da7eb67	0.08199196
125	0x3ca5a15a	0.02021854
126	0x3d5ec507	0.05438712
127	0x3de9bd90	0.11413109

linear.5.weight f4 [64, 128]
0	0xbd3ff152	-0.046861
1	0xbd4e8971	-0.050424043
2	0x3cac16f0	0.021007031
3	0xbd59fb96	-0.053218447
4	0x3d26249f	0.04056227
5	0x3d3cb7d3	0.046073746
6	0x3d2b00b4	0.041748717
7	0xbbb3554d	-0.005472815
8	0xbdc84d90	-0.09780419
9	0x3d194057	0.037414875
10	0xbc9a1696	-0.018809598
11	0x3d3dd52b	0.04634587
12	0xbda57e88	-0.080807745
13	0x3d6724ca	0.05643157
14	0xbc9f1fbd	-0.019424314
15	0x3c5c9f1c	0.013465669
16	0xbdaf4cff	-0.08559608
17	0xbc9f5bfb	-0.01945304
18	0xbcf5b66c	-0.029994212
19	0xba227d9f	-0.00061985286
20	0xba5cd735	-0.00084244023
21	0xbbf000dc	-0.007324321
22	0xbcd1194e	-0.025524762
23	0x3d9f53be	0.077796444
24	0x3db0d616	0.08634584
25	0x3d53a619	0.051672075
26	0xbcaf5b34	-0.021405794
27	0xbd62b7a0	-0.0553509
28	0x3c6623f9	0.0140466625
29	0xbbdaf86d	-0.0066824467
30	0xbd1f5bc8	-0.03890589
31	0x3cbad947	0.022808684
32	0xbd271f57	-0.040801372
33	0x3d87e509	0.06635482
34	0x3a178e44	0.0005781392
35	0x3d5baf9f	0.053634282
36	0xbcf3e9ec	-0.029774629
37	0x3c35be7a	0.011092776
38	0x3cac7548	0.021052018
39	0xbdbf1ecc	-0.09332046
40	0xbd98430d	-0.07434664
41	0x3d23f484	0.04002811
42	0x3d8adbb1	0.06780184
43	0xbc5bf8ae	-0.013425989
44	0xbd0d3449	-0.03447369
45	0xbc09da03	-0.008413794
46	0x3d57f4a1	0.05272353
47	0xbb0ebc6d	-0.002177979
48	0x3d62f57b	0.05540989
49	0x3d9ce7ff	0.07661437
50	0xbc65a1a2	-0.014015587
51	0xbbbe7c9b	-0.005813194
52	0x3cedec1f	0.029043255
53	0xbd6ca177	-0.057771172
54	0x3c886c89	0.016653316
55	0x3d820c7a	0.06350036
56	0x3d479f1e	0.04873573
57	0xbca787eb	-0.020450553
58	0x3c8c9a11	0.017163308
59	0x3d2a9d9a	0.041654207
60	0x3d14b888	0.036308795
61	0xbda8f0c0	-0.082490444
62	0xbd59a05e	-0.053131454
63	0xbd92dd01	-0.071710594
64	0xbc79d63e	-0.015248833
65	0x3d08a1a2	0.03335727
66	0x3dbd8903	0.092546485
67	0xbd83b144	-0.06430295
68	0xbce44b90	-0.027868062
69	0x3bc628a4	0.006047325
70	0x3d4cafe4	0.04997243
71	0xbd4f303c	-0.05058311
72	0xbc9b7d22	-0.018980566
73	0x3d452f79	0.048140977
74	0x3d14f424	0.036365643
75	0x3d4d0e4e	0.05006247
76	0xbcd5eb30	-0.026113123
77	0xbce7544b	-0.028238436
78	0xbd7c026a	-0.06152574
79	0x3c7cbf0f	0.015426411
80	0xbd201b3b	-0.03908847
81	0xbd6ca3c8	-0.05777338
82	0x3bd5daa4	0.006526308
83	0xbccb0f63	-0.02478761
84	0x3d81630b	0.06317719
85	0xbda133b7	-0.07871192
86	0x3d95fe7a	0.07323928
87	0x3da0360a	0.07822807
88	0xbd9a8189	-0.07544238
89	0xbdb2cacb	-0.08730086
90	0x3bac783b	0.005263356
91	0xbd4d42f2	-0.050112672
92	0x3c761efa	0.015022034
93	0x3dab081c	0.08351156
94	0x3d14f861	0.036369685
95	0x3db372b0	0.08762109
96	0xbd8d8cc8	-0.069116175
97	0xbccfaf46	-0.025352132
98	0xbd21d634	-0.03951092
99	0x3c802193	0.01564101
100	0x3dc56e1a	0.09640141
101	0x3bacb81a	0.00527097
102	0xbdc05e70	-0.093930125
103	0xbd665b5f	-0.056239482
104	0x3d4ae792	0.04953725
105	0x3d639951	0.055566136
106	0x3b73aa0a	0.0037180209
107	0xbdab1a0c	-0.083545774
108	0x3d63dd54	0.055630997
109	0xbd4d69bc	-0.050149664
110	0xbd91e4c0	-0.07123709
111	0xbc860b10	-0.016362697
112	0x3c0d35b4	0.008618761
113	0x3d244d11	0.04011256
114	0xba97e2e5	-0.0011588006
115	0xbd6a0fec	-0.05714409
116	0xbd43fb53	-0.047847103
117	0x3c9c51b6	0.019081932
118	0x3bd4e98e	0.0064975685
119	0x3c545941	0.012960733
120	0x3baeafb8	0.005331006
121	0xbdc824ff	-0.097726814
122	0x3cac1f26	0.021010946
123	0x3cbf4445	0.023347983
124	0xbd4d8d31	-0.05018348
125	0x3d96e9d9	0.07368822
126	0xbd6be7a9	-0.057593975
127	0xbcb619fa	-0.022229183
128	0xbd9e7dc1	-0.077388294
129	0xbb60a841	-0.0034279975
130	0xbda37131	-0.07980574
131	0x3d2da61a	0.042394735
132	0x3c3b69c5	0.011438792
133	0x3d31d2c5	0.043413896
134	0x3d13f26c	0.036119863
135	0x3cdc7277	0.02691005
136	0x3b5ce97a	0.0033708499
137	0xbd2b8f15	-0.0418845
138	0xbc0013f6	-0.007817259
139	0x3d37e262	0.04489363
140	0xbc76a616	-0.015054246
141	0xbdcb75d1	-0.09934581
142	0xbdeb5987	-0.11491685
143	0xbd29bf88	-0.041442424
144	0xbd01ae66	-0.03166046
145	0x3d63233f	0.055453535
146	0xbded76f7	-0.11594956
147	0x3d7c389c	0.061577424
148	0x3d4715a2	0.048604615
149	0xbc57d8e4	-0.013174269
150	0xbd928b50	-0.07155478
151	0xbc698e9d	-0.014255193
152	0x3d9ceecb	0.07662734
153	0x3c7fc57c	0.015611049
154	0x3c0b0135	0.0084841745
155	0x3d0f110f	0.034928378
156	0xbd361628	-0.044454724
157	0x3c4f171b	0.012639786
158	0xbd86fa71	-0.06590737
159	0x3c531cbf	0.012885272
160	0xbdab8abe	-0.08376072
161	0xbdd3ea3f	-0.10347413
162	0x3c952628	0.01820667
163	0x3d026fd6	0.031844936
164	0x3c36da33	0.011160421
165	0x3cf6f12c	0.030144297
166	0xbdcc2e75	-0.099697985
167	0xbcfcf948	-0.030880585
168	0x3dac60b0	0.08416879
169	0x3d48785d	0.048942912
170	0x3d8b9c99	0.06816978
171	0x3da07e5c	0.07836601
172	0x3b56386f	0.0032687446
173	0xbd0d8b28	-0.034556538
174	0xbd89ebe7	-0.06734448
175	0xbcb21f22	-0.02174336
176	0x3d47bf5d	0.048766483
177	0x3de3d356	0.111242935
178	0xbd2f98e3	-0.042870414
179	0xbdd3747f	-0.10324954
180	0xbd4aaa31	-0.049478713
181	0x3dd6cf03	0.10488703
182	0x3d82c4d9	0.06385202
183	0xbd977b14	-0.07396522
184	0xbcd2d32b	-0.025735458
185	0xbc528473	-0.012848961
186	0xbd857867	-0.065171055
187	0xbd5ef2d1	-0.054430787
188	0x3d21fdd6	0.039548717
189	0x3c1c5553	0.009541827
190	0xbdcffa11	-0.10155118
191	0xbd234260	-0.039858222
192	0xbce2ae23	-0.027670925
193	0x3dd7712f	0.10519635
194	0xbc56110f	-0.0130655905
195	0xbd0fbbd3	-0.035091233
196	0xbda08cd2	-0.07839359
197	0x3796b2b1	1.7964603e-05
198	0xbd97805e	-0.07397531
199	0x3c3a1961	0.01135859
200	0x3d85ad1f	0.06527161
201	0xbd1b46ea	-0.037909426
202	0xbd65cb78	-0.056102246
203	0x3d8d3fec	0.06896958
204	0x3b9aa57b	0.004719434
205	0x3d3989c3	0.045297395
206	0xbbe500a0	-0.0069886
207	0x3c32d181	0.010914207
208	0x3d58403f	0.052795645
209	0xbd6c46a7	-0.057684567
210	0xbc4d83ea	-0.012543658
211	0xbd28ac9f	-0.04118025
212	0xbdd4e4f8	-0.10395235
213	0xba899835	-0.0010497632
214	0xbd86646b	-0.06562122
215	0xbdc5c8b5	-0.096574225
216	0xbc7113a9	-0.01471416
217	0x3d8566f2	0.06513776
218	0xbd423214	-0.04741104
219	0x3d16a694	0.036779955
220	0xbd44babe	-0.048029654
221	0xbd1e24ca	-0.038609304
222	0x3c924e3e	0.017859574
223	0xbce3fb9c	-0.027829938
224	0x3b1eb365	0.0024215814
225	0xbd180d76	-0.037122212
226	0xbca0c487	-0.019624962
227	0x3cce3f02	0.025176529
228	0xbd80e21e	-0.062931284
229	0x3d976ef5	0.0739421
230	0xbb5353c9	-0.0032245985
231	0xbdb3fd0b	-0.087884985
232	0x3cd5316e	0.026024546
233	0xbdab9bca	-0.08379324
234	0xbd862181	-0.06549359
235	0x3b85018f	0.0040590237
236	0xbd337652	-0.04381401
237	0xbc5e2081	-0.013557554
238	0x3d4f4550	0.05060321
239	0xbd9c98d5	-0.07646338
240	0x3c413f13	0.011794823
241	0x3d1bdabd	0.038050402
242	0x3d3b2fda	0.04569993
243	0xbcf2450d	-0.029573942
244	0xbdb6bcc9	-0.08922727
245	0xbda2d719	-0.07951183
246	0xbdce5c44	-0.10076192
247	0xbcf6b422	-0.03011519
248	0xbdaf6a59	-0.08565206
249	0xbda47299	-0.0802967
250	0xbd7d0467	-0.061771777
251	0xbd0dce2b	-0.034620445
252	0xbd9a6d38	-0.07540363
253	0xbd70bb4c	-0.05877237
254	0x3c71747e	0.014737247
255	0x3ce96eab	0.028495153

linear.5.bias f4 [64]
0	0x3d4e3da6	0.05035176
1	0xbdf556b1	-0.11979426
2	0x3b85b9dd	0.0040809945
3	0x3cd68f12	0.026191268
4	0x3cc462f2	0.023972962
5	0x3d3bcf8c	0.04585223
6	0x3ca66fee	0.020317044
7	0xbc67aebb	-0.01414078
8	0x3e088bf7	0.13334642
9	0xbc86fa37	-0.016476734
10	0xbd93356d	-0.071879245
11	0xbcf60904	-0.030033596
12	0x3d325724	0.043540135
13	0xbc1b980e	-0.009496702
14	0x3d40ae15	0.047041018
15	0xbd2ae6a3	-0.04172386
16	0x3d767535	0.06017037
17	0x3cef5c57	0.029218836
18	0xbd70c132	-0.058777995
19	0xbdb6f6c7	-0.08933788
20	0x3bcd6548	0.006268177
21	0x3d043fc7	0.032287385
22	0xbc254a27	-0.01008848
23	0x3dae8eec	0.08523354
24	0x3d82209a	0.063538745
25	0x3daac4bc	0.08338305
26	0x3c0a89aa	0.008455673
27	0x3d442bbe	0.04789328
28	0xbd3f7c54	-0.046749428
29	0xbcc31f08	-0.023818508
30	0xbcc9e317	-0.024644418
31	0x3d52c0f6	0.051453553
32	0x3d3dc2c6	0.04632833
33	0x3d00e575	0.031468827
34	0x3d5030c2	0.05082775
35	0x3d8d1fde	0.06890844
36	0x3dbef84c	0.093247026
37	0xbd06241f	-0.03274929
38	0x3db29d01	0.08721352
39	0x3db0a479	0.08625121
40	0x3c634870	0.013872251
41	0x3d834009	0.06408698
42	0x3d140518	0.03613767
43	0xbd27f131	-0.041001502
44	0xbcdbbc4a	-0.026823182
45	0x3dd4515b	0.1036708
46	0x3dcdfb15	0.10057656
47	0x3d5c2f64	0.053756133
48	0x3de75316	0.11295144
49	0x3d8c3afc	0.06847188
50	0x3d872b7a	0.06600089
51	0x3d67a621	0.056554917
52	0xbd880d6d	-0.06643186
53	0xbd83aa29	-0.0642894
54	0x3d89cc51	0.067284234
55	0x3df44c58	0.11928624
56	0x3cef7bc1	0.029233815
57	0xbd95c4c3	-0.0731292
58	0x3d23d5d5	0.039998848
59	0x3d1a7961	0.037713412
60	0xbbbbe855	-0.0057344832
61	0x3b3f9de8	0.0029238407
62	0x3cfc7020	0.030815184
63	0x3d5ee37b	0.05441616

linear.7.weight f4 [32, 64]
0	0xbd9ca711	-0.07649053
1	0xbdadf4ad	-0.08493934
2	0x3bca65d0	0.006176688
3	0xbd4e6125	-0.050385613
4	0xbda449f8	-0.08021921
5	0x3ddcb40a	0.10776527
6	0x3c324e93	0.010882991
7	0x3dbb0631	0.0913204
8	0x3bb1aa59	0.0054219184
9	0x3e07da1e	0.13266799
10	0xbd654f43	-0.055983793
11	0xbdf25e7b	-0.11834427
12	0xbdaa723f	-0.08322572
13	0xbd83338e	-0.06406318
14	0x3d8d010a	0.06884964
15	0xbdc516e0	-0.09623504
16	0x3dddf8ff	0.10838508
17	0x3dc508dd	0.09620831
18	0x3df28113	0.11841025
19	0xbe0b9ffa	-0.13635245
20	0x3d0f9f62	0.03506411
21	0xbc388f7f	-0.011264681
22	0xbd978e61	-0.074002035
23	0xbd1d921c	-0.03846942
24	0xbcfdeb0c	-0.030995868
25	0xbdcf53d3	-0.1012341
26	0x3dd08371	0.101813205
27	0x3da08f9c	0.07839891
28	0xbd8c255b	-0.068430625
29	0x3cbcd6ee	0.023051705
30	0xbd72bb27	-0.059260514
31	0x3dadb8b4	0.08482495
32	0xbd524fbf	-0.051345583
33	0xbcd14b2c	-0.02554854
34	0x3d9075ed	0.070537426
35	0x3dcea581	0.10090161
36	0xb9b855a4	-0.00035159022
37	0x3db43927	0.087999634
38	0xbc840405	-0.016115198
39	0x3c8ddaa4	0.01731617
40	0x3aa33c5c	0.0012453902
41	0x3dd0af68	0.10189706
42	0x3ad73859	0.0016419991
43	0xbd9d9001	-0.07693482
44	0x3d4d8095	0.050171454
45	0x3c058b83	0.008150938
46	0x3de6aa87	0.11262994
47	0x3de0c772	0.10975541
48	0x3d4adabb	0.049525004
49	0x3daf1a94	0.08549991
50	0xbcd36ec4	-0.025809653
51	0x3ddf6227	0.10907393
52	0x3d865562	0.06559254
53	0x3c782d69	0.015147545
54	0xbb93feb7	-0.0045164484
55	0xbd6f8d29	-0.05848423
56	0xbc86d616	-0.016459506
57	0xbde7fe73	-0.11327829
58	0x3d9c0f10	0.076200604
59	0xbdc590ce	-0.0964676
60	0x3caac720	0.020846903
61	0x3da22d6d	0.079188205
62	0x3db76de3	0.08956506
63	0xbcd62762	-0.026141826
64	0x3d8c1bfa	0.068412736
65	0xbc824346	-0.01590122
66	0x3dfa628e	0.12225829
67	0x3cec2dc9	0.028830426
68	0x3db7dca2	0.08977629
69	0xbdd85d68	-0.10564691
70	0x3deadfb4	0.11468449
71	0x3de8398b	0.113391005
72	0xbe06af91	-0.13152911
73	0xbdabf2e3	-0.08395936
74	0x3cbe1fbf	0.023208497
75	0x3e338fca	0.1753532
76	0x3d6c5bcf	0.057704743
77	0xbcfb0ad9	-0.030644821
78	0x3c69f2f7	0.014279119
79	0xbdaf8091	-0.08569444
80	0xbd7b55e8	-0.061361223
81	0xbd346bb2	-0.04404802
82	0xbdaad80b	-0.08341988
83	0xbd7d1076	-0.061783276
84	0xbd9ce6b7	-0.07661193
85	0x3c8c488c	0.017124437
86	0xbc4990ff	-0.012302636
87	0xbb1b170d	-0.0023664862
88	0xbd012f38	-0.031539172
89	0x3da8ffd6	0.08251922
90	0xbd099e66	-0.033598326
91	0xbdbfab56	-0.093588516
92	0x3c80e690	0.01573494
93	0x3e29b5db	0.16573279
94	0xbda9640e	-0.08271037
95	0xbc029fa9	-0.007972636
96	0x3e1512f2	0.14558008
97	0x3dd3c948	0.10341126
98	0x3cc3f8b2	0.023922298
99	0xbcf2eb40	-0.029653192
100	0x3e2182c1	0.15772535
101	0x3c110b0e	0.008852733
102	0x3d93c217	0.07214754
103	0xbe08a541	-0.1334429
104	0xbda8f07e	-0.08248995
105	0xbd3cffaf	-0.046142276
106	0x3e2715e2	0.16316941
107	0x3d13c6c0	0.036078215
108	0xbdde91e7	-0.108676724
109	0x3cd9c8e8	0.026585057
110	0xbd82ab95	-0.06380383
111	0xbda8ffa6	-0.08251886
112	0x3d542c81	0.051800255
113	0xbd3525a2	-0.044225343
114	0x3ca8c123	0.020599907
115	0x3d1608b7	0.036629405
116	0x3e413e87	0.18871509
117	0x3dfbdbf7	0.12297814
118	0xbde1d0d0	-0.11026156
119	0xbe167205	-0.14691932
120	0x3d3147c1	0.04328132
121	0x3dbac4cc	0.09119567
122	0x3d879f8c	0.06622228
123	0x3cd60090	0.026123315
124	0xbd998d86	-0.074976966
125	0x3e03a633	0.12856369
126	0x3c4a78b7	0.012357882
127	0xbe0b25b3	-0.135886
128	0x3b2019b3	0.002442938
129	0xbdaa5f4d	-0.083189584
130	0xbc104760	-0.00880608
131	0xbda21add	-0.0791528
132	0xbd1418b8	-0.036156386
133	0x3d130a9c	0.03589879
134	0x3cc1315f	0.023583112
135	0x3e229d60	0.15880346
136	0xbd112ff2	-0.035446115
137	0x3da304cc	0.07959899
138	0xbb1dc2c0	-0.002407238
139	0x3d8c30e2	0.06845261
140	0xbdc727df	-0.09724402
141	0x3e32c0c7	0.17456351
142	0x3dafa92d	0.085771896
143	0xbc5c3af0	-0.013441786
144	0xbd4f0d10	-0.050549567
145	0x3dc2fce9	0.09520895
146	0x3cd6d572	0.026224826
147	0x3d015795	0.031577665
148	0xbd8b5485	-0.0680323
149	0x3e22b2a7	0.15888463
150	0x3cac8370	0.021058768
151	0x3e04ede7	0.12981378
152	0x3dd7de8a	0.10540493
153	0xbd581b86	-0.052760623
154	0x3d33d825	0.043907303
155	0xbc9fc886	-0.019504797
156	0x3d857f88	0.06518465
157	0x3c54361f	0.012952357
158	0x3c174605	0.009233003
159	0x3cf9bba4	0.030484982
160	0x3dd2f72c	0.103010505
161	0x3e2e4392	0.17017964
162	0x3dbb09b8	0.09132713
163	0x3dde0053	0.108399056
164	0x3e269fe8	0.16271937
165	0x3d44277d	0.04788922
166	0xbba4f998	-0.0050346367
167	0xbdb984ff	-0.0905857
168	0xbc84cdd9	-0.016211437
169	0xbe0646ce	-0.13112947
170	0x3de47a22	0.111561075
171	0xbd14620d	-0.03622632
172	0x3cda98d3	0.0266842
173	0x3e034feb	0.12823455
174	0xbd0750b1	-0.033035938
175	0x3e3fe5ca	0.18740001
176	0xbd80eca2	-0.06295134
177	0xbdbb49ca	-0.091449335
178	0xbd079a17	-0.033105936
179	0x3e642d74	0.22282964
180	0x3e16b351	0.14716841
181	0x3e1bff58	0.15234125
182	0xbdfb7b72	-0.12279405
183	0xbdf8d84e	-0.12150632
184	0x3c359152	0.01108201
185	0xbd5a1170	-0.053239286
186	0x3cff55d6	0.03116886
187	0xbcd4d619	-0.025980996
188	0x3b98648d	0.0046506585
189	0x3da4e771	0.080519564
190	0x3dfe83ec	0.12427506
191	0xbde1c17f	-0.110232346
192	0xbd6cf0e9	-0.057846937
193	0xbd4a3d21	-0.049374703
194	0x3dd20331	0.10254515
195	0x3d9fd398	0.0780403
196	0x3c806b07	0.015676035
197	0x3db3ec25	0.08785275
198	0xbe03b19e	-0.12860724
199	0xbd4a1d32	-0.04934425
200	0x3dd32d4b	0.10311373
201	0xbc95e7db	-0.018299034
202	0xbdad2c8b	-0.084557615
203	0xbd9b0518	-0.07569331
204	0x3c7ec5bd	0.015550074
205	0x3dd93fdb	0.106078826
206	0x3d3f652c	0.046727344
207	0xbcaedf90	-0.021346837
208	0x3d6ad711	0.05733401
209	0x3da73ef1	0.08166302
210	0xbd6b2624	-0.05740942
211	0xbdf85ec5	-0.12127451
212	0xbddd8971	-0.108172305
213	0x3db1332a	0.08652337
214	0xbdf00832	-0.11720313
215	0xbcc38652	-0.02386776
216	0xbd9f002a	-0.07763703
217	0x3bd055b5	0.0063578733
218	0x3dc8e516	0.0980932
219	0xbdc6c574	-0.0970563
220	0xbd8a2d12	-0.06746878
221	0xbcb3b791	-0.021938117
222	0x3e13cedf	0.14434384
223	0x3e16c343	0.14722924
224	0x3b5a9463	0.0033352606
225	0xbda71edc	-0.08160183
226	0x3d5064a1	0.050877217
227	0xbd50c979	-0.05097339
228	0xbe1d423d	-0.15357299
229	0xbd92bb17	-0.07164591
230	0x3e0503ee	0.1298978
231	0xbd4fb19f	-0.050706502
232	0x3d99060c	0.074718565
233	0x3e052ffc	0.13006586
234	0xbd9fa9aa	-0.07796033
235	0x3d644c7c	0.055737004
236	0xbdf5f378	-0.120093286
237	0xbd0a8e45	-0.033827085
238	0x3d1bb37a	0.03801296
239	0x3d8ba0a2	0.06817748
240	0x3e1a58e0	0.15072966
241	0x3d95b3ec	0.07309708
242	0x3d6540aa	0.05596987
243	0xbdfb71cd	-0.12277565
244	0xbe197073	-0.14984302
245	0x3dea1a32	0.114307776
246	0xbc79443a	-0.01521402
247	0x3e1eee77	0.15520655
248	0x3d6d9c05	0.05801012
249	0x3d09f257	0.03367838
250	0x3d7f4d89	0.062329803
251	0x3dc27315	0.094946064
252	0xbcfb4560	-0.030672729
253	0x3cde9971	0.027172776
254	0x3dde8749	0.10865647
255	0xbd91834a	-0.071051195

linear.7.bias f4 [32]
0	0x3d25e3e2	0.04050053
1	0x3bcfa00a	0.006336217
2	0x3d8deb41	0.06929637
3	0x3da553fb	0.08072659
4	0x3d01ad2b	0.031659286
5	0xbd793eef	-0.060851034
6	0xbbd5394d	-0.006507075
7	0x3df96005	0.121765174
8	0x3df6d0a5	0.120515145
9	0x3da4a7e6	0.080398366
10	0x3dac251f	0.08405518
11	0x3db37510	0.08762562
12	0xbd06e674	-0.03293462
13	0xbd9f7a2b	-0.077869736
14	0x3dc86e4f	0.09786665
15	0x3de728ec	0.11287102
16	0xbe0d819d	-0.13818975
17	0xbdd60734	-0.10450593
18	0x3dae83e1	0.08521248
19	0xbcfa4171	-0.030548783
20	0xbcb61877	-0.022228463
21	0x3e01f4b1	0.12690999
22	0x3e10d384	0.14143187
23	0x3dc4cb9e	0.096091494
24	0xbcd806b4	-0.026370384
25	0x3c56879f	0.013093858
26	0x3dec1784	0.11527923
27	0x3d7fa26b	0.062410753
28	0xbda2e3d1	-0.07953609
29	0x3d886561	0.066599615
30	0xbcdadd1b	-0.02671676
31	0x3e06fa5e	0.13181445

linear.9.weight f4 [4, 32]
0	0xbb0e360a	-0.002169969
1	0x3e064799	0.1311325
2	0x3e66d46b	0.22541969
3	0x3bd36a0f	0.006451852
4	0x3e5b3b2d	0.21409293
5	0xbda4619b	-0.08026429
6	0xbdefb882	-0.11705114
7	0xbe58d752	-0.21175888
8	0x3d953ff3	0.07287588
9	0xbdb6138b	-0.08890446
10	0xbe14192a	-0.14462724
11	0x3c078b6e	0.008272989
12	0xbe60e168	-0.21960986
13	0x3e298fbd	0.16558738
14	0x3e1c8661	0.15285636
15	0xbe3d3a9b	-0.18479387
16	0xbd8303f6	-0.0639724
17	0x3e86ef4c	0.26354444
18	0xbe63a0d7	-0.22229324
19	0xbddbd725	-0.10734395
20	0xbda1ef70	-0.07906997
21	0x3e022119	0.12707938
22	0x3c9fe5da	0.019518781
23	0xbe2b82b2	-0.16749075
24	0xbc78c7df	-0.015184372
25	0x3d4e9d1b	0.050442796
26	0x3db53d36	0.08849566
27	0xbe5f0584	-0.21779448
28	0xbc3d3e9f	-0.011550575
29	0xbd95af91	-0.07308877
30	0x3e599489	0.21248068
31	0x3d11179a	0.0354229
32	0x3d860983	0.06544783
33	0xbe859c25	-0.2609569
34	0xbdc61160	-0.09671283
35	0x3e1e4d62	0.15459207
36	0xbdc3c5e5	-0.0955923
37	0x3e368aae	0.1782634
38	0x3e278a74	0.1636141
39	0x3e1afaac	0.15134686
40	0xbdda1d3a	-0.10650106
41	0xbe53ce25	-0.20684107
42	0x3e63393e	0.22189805
43	0xbdfc2997	-0.1231262
44	0x3e0a7412	0.1352084
45	0x3e27c961	0.16385414
46	0x3daac8e0	0.08339095
47	0x3ddc77c1	0.10765029
48	0x3d82c2de	0.06384824
49	0xbddf7480	-0.109108925
50	0x3dbdc303	0.09265711
51	0x3e79d8a7	0.24399053
52	0xbc92f208	-0.017937675
53	0x3c63a4aa	0.013894239
54	0x3e3fbdbe	0.18724725
55	0xbd1d9966	-0.03847637
56	0xbe27d47b	-0.16389649
57	0xbdbac142	-0.09118892
58	0x3dca513c	0.098787755
59	0xbcc4a3c8	-0.024003878
60	0xbe1fffce	-0.15624925
61	0x3d20b3e0	0.039234042
62	0xbe6ecbda	-0.2331995
63	0xbe3d4ebb	-0.18487065
64	0x3e1134af	0.14180253
65	0xbe0f8dd2	-0.14018944
66	0x3de679ef	0.11253726
67	0x3e16eca4	0.14738709
68	0xbe465ef8	-0.19372165
69	0x3e0ba3ad	0.13636656
70	0xbe166276	-0.14685997
71	0x3e03d3de	0.1287379
72	0x3d14528f	0.036211547
73	0x3dbf3e1a	0.09338017
74	0xbe440556	-0.1914266
75	0x3d1178e6	0.03551569
76	0x3d8032e8	0.062597096
77	0x3e1f72c1	0.15571119
78	0xbd6a51ef	-0.057207044
79	0x3dfb33a4	0.12265709
80	0xbdd4a936	-0.10383837
81	0xbd9107b0	-0.070815444
82	0x3e0cae74	0.13738424
83	0xbe71b33f	-0.23603533
84	0x3a9a95b7	0.0011793886
85	0x3de94527	0.11390143
86	0xbe8a1ccf	-0.26975104
87	0xbca8a681	-0.020587208
88	0x3d8239eb	0.06358703
89	0x3da35e7a	0.07977004
90	0xbdf37946	-0.118883654
91	0x3e2aad22	0.16667607
92	0x3e1de4ca	0.15419307
93	0x3dd9731d	0.10617659
94	0xbceeac99	-0.029135035
95	0x3e16356b	0.14668815
96	0xbe47fcdb	-0.1953005
97	0x3d985f6d	0.07440076
98	0xbc883c18	-0.016630217
99	0x3c0d3be7	0.008620239
100	0xbe31a7f3	-0.17349224
101	0xbe06a7f1	-0.13150002
102	0xbddcf32e	-0.1078857
103	0xbde3827a	-0.11108871
104	0xbe02b380	-0.12763786
105	0x3d1e4907	0.038643863
106	0xbe0851a8	-0.133124
107	0x3d6613ce	0.05617123
108	0xbd9d468f	-0.076794736
109	0xbe1d93cd	-0.15388413
110	0xbe01e503	-0.12685017
111	0x3d41675a	0.047217704
112	0x3ced1f00	0.028945446
113	0x3e372a0e	0.17887136
114	0x3de5bc18	0.11217517
115	0x3d5b4022	0.05352796
116	0xbd541c94	-0.051785067
117	0xbdbf320f	-0.0933572
118	0xbc5f9fa3	-0.0136489
119	0xbd6ca349	-0.05777291
120	0xbcaceddc	-0.021109514
121	0xbe124731	-0.1428497
122	0xbdfeca6a	-0.12440951
123	0xbe268ea8	-0.16265357
124	0x3e1fe981	0.15616418
125	0x3e12eceb	0.1434819
126	0x3e2309bd	0.15921684
127	0xbe1ee871	-0.15518357

linear.9.bias f4 [4]
0	0x3d1785fc	0.03699301
1	0x3e23d30d	0.15998478
2	0xbdfc3837	-0.1231541
3	0x3e1501ce	0.1455147

shared_mlp.1.weight f4 [128, 90]
0	0x3d4e8354	0.050418213
1	0x3e388619	0.18019904
2	0x3d0e4b37	0.0347397
3	0xbd3a0a46	-0.045419954
4	0xbc89488d	-0.016758228
5	0x3d0f1dc3	0.034940492
6	0x3d0dbadf	0.034602042
7	0x3dbf0e2b	0.09328874
8	0x3d821a46	0.063526675
9	0x3c710045	0.014709537
10	0x3cc49ff6	0.024002057
11	0x3d001e28	0.03127876
12	0x3d86c2ee	0.06580149
13	0x3da983cf	0.082770936
14	0x3dc5eb23	0.096639894
15	0xbd22c437	-0.039737906
16	0x3da039d7	0.07823532
17	0x3d5608e2	0.052254565
18	0x3db69d48	0.08916718
19	0x3d6c7a31	0.05773372
20	0x3de9b071	0.11410607
21	0x3d81cfa1	0.0633843
22	0xbca42b65	-0.020040223
23	0xbad90eb9	-0.0016560174
24	0x3d7b5ff8	0.06137082
25	0x3dc07c48	0.09398705
26	0x3ab3e130	0.0013723727
27	0x3d3247b0	0.043525398
28	0xbdb30283	-0.087407134
29	0xbd7743eb	-0.060367506
30	0x3d0b2f0c	0.033980414
31	0x3cc0b349	0.02352299
32	0x3d9c2dd3	0.07625928
33	0x3d6dbb98	0.05804023
34	0xbda3c6cf	-0.07996904
35	0xbd8bf842	-0.06834461
36	0x3d4e216b	0.05032484
37	0x3d7f7c6e	0.062374525
38	0xbe0dac08	-0.13835156
39	0x3d96149b	0.07328149
40	0xbdf999f7	-0.121875696
41	0xbc77c318	-0.015122198
42	0x3dc1be5e	0.09460138
43	0xbd133bea	-0.03594581
44	0x3d0c195f	0.034203883
45	0x3e0af5fd	0.135704
46	0xbde5965f	-0.11210322
47	0xbbf2258f	-0.0073897312
48	0xbcf6c6d4	-0.030124106
49	0x3d940e1c	0.07229254
50	0x3d09b290	0.033617556
51	0xbd358c8b	-0.044323485
52	0x3d6dc877	0.058052506
53	0xbc4ea9f1	-0.012613759
54	0x3d6e6073	0.05819745
55	0x3d300a5c	0.04297863
56	0xbd3a5317	-0.045489397
57	0xbd22cee4	-0.039748088
58	0xbd5aaf20	-0.05338967
59	0x3b9943f9	0.0046772924
60	0x3df9e71c	0.12202284
61	0xbd61631b	-0.055026155
62	0x3c06fd09	0.008239039
63	0xbcdfc1e8	-0.027314141
64	0x3dd2068e	0.102551565
65	0x3da31ecf	0.07964861
66	0xbd399587	-0.045308616
67	0x3cdb7e94	0.026793756
68	0x3d9415de	0.07230733
69	0x3e0b2d84	0.13591582
70	0x3d92614d	0.07147465
71	0x3d8793db	0.06619998
72	0xbc1f4800	-0.009721756
73	0xbe0d10b5	-0.13775904
74	0xbd45f510	-0.048329413
75	0x3de77672	0.113018885
76	0x3d513d70	0.051083982
77	0xbdc2f0ef	-0.09518611
78	0x3c850d2a	0.016241629
79	0xbad3ea68	-0.0016167881
80	0x3d054742	0.03253866
81	0xbe0f0797	-0.13967739
82	0x3d9fbc93	0.077996396
83	0x3d7b54bf	0.061360117
84	0x3dd57653	0.10422959
85	0xbe2089da	-0.15677586
86	0x3d93c2d3	0.07214894
87	0xbc8e2277	-0.017350418
88	0x3dc4e121	0.096132524
89	0x3d1f0341	0.038821463
90	0x3ca2e876	0.019886237
91	0x3dc6555a	0.09684248
92	0x3d111664	0.035421744
93	0xbe0d7352	-0.13813522
94	0x3df66378	0.12030691
95	0x3ca3d8eb	0.020000895
96	0x3b8a2c19	0.0042166826
97	0x3cde7820	0.02715689
98	0xbd2ebffb	-0.042663556
99	0x3ceb860a	0.028750438
100	0xbdd6b3c8	-0.10483509
101	0xbd83372d	-0.06407008
102	0x3e040581	0.12892725
103	0x3c977056	0.018486183
104	0x3e20a874	0.1568926
105	0xbdb9b40b	-0.090675436
106	0xbd2dcd36	-0.042432033
107	0xbd9e1226	-0.07718305
108	0xbb4eb023	-0.003153809
109	0x3d3edf59	0.04659972
110	0x3db61900	0.08891487
111	0x3da04de1	0.07827354
112	0xbbdb0a8b	-0.0066846064
113	0x3d796d0a	0.060895003
114	0xbd313de6	-0.04327192
115	0x3e15ef34	0.1464203
116	0x3df46266	0.119328305
117	0xbdda72e1	-0.10666443
118	0x3dd47f13	0.103758
119	0x3d86ab88	0.06575686
120	0xbd8bfcaa	-0.06835301
121	0xbd0aee68	-0.03391877
122	0xbd1b0e42	-0.037855394
123	0x3d644039	0.05572531
124	0x3d30f576	0.04320284
125	0xbdbc6493	-0.091988705
126	0x3d9c8c8a	0.07643993
127	0x3d82196f	0.06352507
128	0x3cbdfd81	0.02319217
129	0x3dba6e0b	0.0910302
130	0x3ce6fc57	0.028196497
131	0xbd793bd8	-0.060848087
132	0x3e056426	0.13026485
133	0x3d9b028a	0.07568844
134	0x3ddf38e8	0.10899526
135	0xbcf9b495	-0.030481616
136	0x3cb1bb14	0.021695651
137	0x3d50292a	0.050820507
138	0x3df15360	0.11783481
139	0xbd0f02fe	-0.034914963
140	0xbd88728c	-0.06662473
141	0xbc8b30e3	-0.016991084
142	0xbd584d46	-0.05280807
143	0x3cb57b34	0.022153474
144	0x3d53e9ff	0.051736828
145	0xbdc339e7	-0.09532528
146	0xbd0dfca6	-0.034664772
147	0x3d4f4455	0.050602276
148	0x3d98c16a	0.07458766
149	0xbdfdfc94	-0.12401691
150	0x3d7e74e3	0.06212319
151	0xbbe8fb25	-0.007110017
152	0x3d29cc72	0.04145474
153	0xbd2d025c	-0.04223858
154	0x3db3cb51	0.08779014
155	0xbdbd3c8d	-0.09240065
156	0x3d430780	0.047614574
157	0x3daa9f02	0.083311096
158	0x3ded75af	0.11594712
159	0xbdff04b5	-0.1245207
160	0x3df11094	0.1177074
161	0xbcee0890	-0.029056817
162	0xbc1b4c6b	-0.009478669
163	0xba8879c9	-0.0010412271
164	0x3e0ea4ef	0.13930105
165	0xbd8700db	-0.0659196
166	0x3dfe6e08	0.124233305
167	0x3ca0764b	0.019587656
168	0x3cc8dbd0	0.024518877
169	0xbdcc9198	-0.09988707
170	0x3e053152	0.13007095
171	0xbd4cb79b	-0.049979787
172	0xbda6812b	-0.081301056
173	0xbd8d9c4a	-0.069145754
174	0x3d6136e6	0.054983996
175	0xbd35444e	-0.044254594
176	0x3dec7e03	0.11547472
177	0xbcb10fec	-0.021614037
178	0x3e03558a	0.128256
179	0xbd8a24ad	-0.067452766
180	0x3d48cc3f	0.04902291
181	0x3de75ed9	0.11297388
182	0x3d753c67	0.059872057
183	0x3db65443	0.089027904
184	0xbd5983a2	-0.05310405
185	0xbda07162	-0.07834126
186	0xbcbac6e3	-0.022799915
187	0x3daa310d	0.08310137
188	0xbc85d9d9	-0.01633923
189	0x3e01afd6	0.12664732
190	0xbdc282df	-0.09497618
191	0x3e09a1cd	0.13440628
192	0x3dce641b	0.10077687
193	0x3df03e19	0.11730594
194	0xbcdc3168	-0.026879027
195	0x3dd861fb	0.10565563
196	0x3d115ab6	0.0354869
197	0x3ce77547	0.028254164
198	0x3c366a49	0.011133739
199	0x3cc2bb69	0.023771005
200	0x3df1cc4c	0.11806545
201	0xbd43f22f	-0.047838386
202	0x3e266d6b	0.16252677
203	0x3d7860f0	0.06063932
204	0x3d97ab3d	0.07405708
205	0x3d8046bf	0.06263494
206	0x3d201b96	0.039088808
207	0x3e1d824e	0.15381739
208	0xbc10a631	-0.008828686
209	0xbcec891e	-0.028873976
210	0x3d3e8331	0.046511833
211	0xbdbe13f7	-0.09281152
212	0x3db047cd	0.08607445
213	0xbda8c42b	-0.08240541
214	0x3c8328c6	0.016010653
215	0x3c96193e	0.018322583
216	0xbc43109e	-0.011905817
217	0x3d2edadb	0.042689186
218	0xbd2f3e9b	-0.042784315
219	0x3daa83e9	0.08325941
220	0x3bd18511	0.0063940366
221	0x3d895e4f	0.06707441
222	0x3dd40e54	0.103542954
223	0xbc3a0c0d	-0.011355412
224	0xbdcdb47a	-0.10044189
225	0x3d51ed8a	0.051251926
226	0xbcff1d10	-0.031141788
227	0xbd86f2b4	-0.06589261
228	0xbd3476c9	-0.044058595
229	0xbcbf41b1	-0.023346754
230	0x3d1c822d	0.038210083
231	0x3d3366e5	0.0437993
232	0x3de02e72	0.10946359
233	0x3d850133	0.06494369
234	0x3ce68e33	0.028143978
235	0xbdad981f	-0.084762804
236	0xbc9abca1	-0.018888773
237	0xbd49b31a	-0.04924307
238	0x3dc666ed	0.096876
239	0x3d4dda70	0.050257146
240	0x3d1ec9f2	0.03876681
241	0x3d88c73d	0.06678627
242	0x3c50a5c6	0.012734836
243	0x3d6e55d5	0.058187325
244	0xbcfa80db	-0.030579021
245	0x3de668bb	0.112504445
246	0xbc8b5508	-0.01700832
247	0xbd8c4ae6	-0.06850223
248	0x3c238a3c	0.009981688
249	0x3dd2cf26	0.10293417
250	0xbd773701	-0.06035519
251	0xbd7d4018	-0.061828703
252	0x3df62a29	0.1201976
253	0xbd0516c8	-0.03249243
254	0x3d75d305	0.060015697
255	0x3b7db2c1	0.0038711282

shared_mlp.1.bias f4 [128]
0	0x3d9afac0	0.07567358
1	0xbc774f27	-0.015094555
2	0x3db02579	0.08600897
3	0x3e09dc64	0.13462979
4	0xbd3aa928	-0.045571476
5	0xbb18427c	-0.0023232987
6	0xbd0bda34	-0.03414364
7	0xbd095ade	-0.033533923
8	0xbce30743	-0.027713424
9	0x3c707f71	0.014678822
10	0x3d8c8242	0.06860782
11	0x3a4e53b0	0.0007870747
12	0xbd932663	-0.07185056
13	0x3d332005	0.043731708
14	0xbd4c05ab	-0.049810093
15	0x3c157573	0.00912224
16	0x3de57b49	0.112051554
17	0xbc9f4c7b	-0.019445648
18	0xbc9ebeca	-0.019378085
19	0x3a7988fc	0.00095190085
20	0x3d33034d	0.04370432
21	0x3c532202	0.012886526
22	0x3c2a2367	0.010384417
23	0x3cc895df	0.024485527
24	0x3dbe0faa	0.092803314
25	0x3dc285f6	0.09498207
26	0x3d0f66c7	0.035010125
27	0x3cfbb3ed	0.030725444
28	0x3d5d9b9d	0.054103483
29	0x3c06ca6b	0.008226971
30	0xbda3b3cb	-0.07993277
31	0x3d56e8eb	0.05246822
32	0x3ca939be	0.020657416
33	0x3b50f79f	0.0031885875
34	0xbd915b1d	-0.070974566
35	0xbc643b14	-0.013930101
36	0xbd8b30e3	-0.06796434
37	0x3d139e30	0.03603953
38	0xbbbf6721	-0.0058411513
39	0x3d87ba7b	0.06627365
40	0xbd4a7c3f	-0.049434897
41	0xbc63359f	-0.013867765
42	0xbd7c97e8	-0.061668307
43	0x3cd679d7	0.026181145
44	0x3dde5696	0.10856359
45	0xbc0061ca	-0.007835815
46	0x3d769125	0.060197014
47	0x3daf3241	0.08554507
48	0x3cd93ead	0.026519144
49	0x3e034676	0.12819847
50	0x3d6543e3	0.055972945
51	0x3a41c29a	0.00073913636
52	0xbd68e1cb	-0.056855958
53	0x3d9bd3d1	0.0760876
54	0xbda74c0a	-0.081688
55	0x3deb69eb	0.114948116
56	0xbd4bd299	-0.04976139
57	0xbd530d5f	-0.051526424
58	0xbb92c16a	-0.004478623
59	0xbd687ef7	-0.056761708
60	0xbd4d8322	-0.050173886
61	0xbd7855e1	-0.060628776
62	0x3ceb8bac	0.028753124
63	0xbc3b4087	-0.011428959
64	0x3de27b98	0.1105873
65	0xbdad488d	-0.084611036
66	0x3ce3c637	0.027804477
67	0x3d8d0eae	0.068875656
68	0x3d5a08f1	0.053231183
69	0xbda7dbc2	-0.08196212
70	0x3df1a7c9	0.117995806
71	0xbd555c7e	-0.05209016
72	0x3e09f646	0.13472852
73	0xbd1dc468	-0.038517386
74	0xbbab55bb	-0.0052287257
75	0x3d68f48f	0.056873854
76	0xbd8fbd2e	-0.07018505
77	0x3d5760d8	0.05258259
78	0x3daa5203	0.08316424
79	0x3d856013	0.06512465
80	0xbd1657e9	-0.03670493
81	0x3db0a542	0.086252704
82	0xbd261b60	-0.04055345
83	0x3d280849	0.041023526
84	0xbc8eb41c	-0.017419867
85	0x3d5beb5d	0.053691257
86	0xbbde1a0d	-0.006778008
87	0x3dc4597d	0.09587381
88	0x3df23f25	0.1182845
89	0x3d5fe65f	0.05466306
90	0x3ce6e596	0.028185647
91	0xbd7ba580	-0.06143713
92	0xbd7708c4	-0.060311094
93	0xbd0a386d	-0.033745218
94	0xbd4b5f5f	-0.0496515
95	0xbd20aa23	-0.039224755
96	0xbcece4be	-0.028917667
97	0x3d1fe370	0.03903526
98	0x3b1aba3a	0.0023609535
99	0xbd32d5d9	-0.043660972
100	0xbd33b27c	-0.043871388
101	0x3d0fe170	0.035127103
102	0xbd4f504b	-0.050613683
103	0xbd44ee07	-0.048078563
104	0x3d073f11	0.03301913
105	0x3d684abf	0.05671191
106	0xbc88d59a	-0.016703416
107	0xbc974420	-0.018465102
108	0xbdc3f939	-0.0956902
109	0x3c30fdc2	0.010802688
110	0xbcc1c87f	-0.023655174
111	0xbd361e21	-0.044462327
112	0x3db8a16a	0.09015162
113	0x3daa99f5	0.08330146
114	0x3d5d9420	0.05409634
115	0x3d023625	0.031789917
116	0xbd968b74	-0.07350817
117	0xbcd4ee41	-0.025992515
118	0x3d5d9b29	0.05410305
119	0x3d465ffd	0.048431385
120	0x3e02acfe	0.12761304
121	0x3c6621fc	0.014046188
122	0x3e0d300c	0.1378786
123	0xbdc96147	-0.09833007
124	0x3d427d1f	0.047482606
125	0xbd8dca23	-0.0692332
126	0x3d1bc025	0.03802504
127	0x3e091ed0	0.1339066
